hydrone_aerial_underwater_ddpg/scripts/Models/sac_stage_2_air2D_tanh_2layers/2500_policy_net.pth (torch_old, 30749 bytes, 6 tensors)

linear1.weight f4 [256, 24]
00000000: 4cec c3be 65c4 2cbe c52e c1be cd90 45be
00000010: c6d9 433e 6223 82bc 8bb2 f93c 030b 553d
00000020: de62 a0bc 6d74 0ebe 20d5 383e ac67 8dbc
00000030: 67a9 813c 8fd6 7dbc 8d8f 07bc c29b b63c
00000040: 83b0 803d 860a 743e 2346 88be 042d 453d
00000050: 2ebb b93d 2b4f 38bf 0ef0 4c3f 0e84 073f
00000060: 2add b43c f17b 9c3c 3b18 fbbd 2291 52be
00000070: f1c3 20be 1b0e 44be 0bb6 63be 91ba dbbd
00000080: 3898 cebd 919a 8bbe 55a0 a7bc c012 4d3c
00000090: 697a 3b3e 68fd a2bd 47d5 7cbe 5a43 75bd
000000a0: 32c6 143e 3af3 6abd 23b4 cc3d e85d c0bd
000000b0: 0fab 8dbd 881d 91bf 0e20 493e 4ba2 37bf
000000c0: fa95 29be 3198 c13d 7318 703d 9188 913a
000000d0: 5e05 78bd 8cee f4bd 622b 81bd 4c74 b6bc
000000e0: 778f 3d3e 84bc 71bd 5b12 e6bd 7891 01bc
000000f0: 8af4 2d3e 2a64 973e 7f27 61be fe87 64be
00000100: 0b92 7d3e 81cc c9bd 7284 99bd d26f 49bd
00000110: 3758 2c3e 1b6c e1bd 919e 643e a5c0 813f
00000120: 978e b33a 966f 883d 4183 ac3d 6109 9b3c
00000130: b4e8 a9bd 00fc 803d 33d1 ffbd 34fa 16be
00000140: 1439 2dbe 1365 a4bd f675 db3b e89b f0bd
00000150: c0b3 15be e38d 2f3d 751c 653c cb36 d2bd
00000160: 8e86 f0bc 9735 69bd c4da e53c 70c0 1e3c
00000170: d186 563c 27a4 a83e f55c dfbf 6422 333f
00000180: 3418 a5bd 5adf 07be 11cc 1abe 7095 91bd
00000190: ed84 10be 4088 8cbb e54a 8ebd f735 f5bc
000001a0: f4a2 c8bd ef71 3bbe 1d7d efbe bae3 0abe
000001b0: 04bd b83d a8aa babe 0591 943e f397 ffbd
000001c0: b54c f33d 9dd7 0ebe 8097 26be 9821 933d
000001d0: f441 2a3e dc72 d73e 45ea d93e fb26 0abf
000001e0: c62d b73d 5f04 17bd e6d3 103e 3141 643b
000001f0: 3673 3f3e b1ea 253d 3a15 d43b 2eb5 84be
00000200: e02c 0d3e 020f a4be 1ad4 3cbe a8de a23c
00000210: 02ee 5c3d fba1 053e 789e 493d be34 29bc
00000220: eb55 41bd 3d60 16be 0591 88be 7393 04be
00000230: 526e df3d c440 813d 4222 a3be e673 853f
00000240: cbec 143d 74f8 1dbc d319 d93d dc2f a1bd
00000250: 8475 a7bc cbd3 1c3d 9d26 14be 3e4c 283e
00000260: 8e0a a73d ec1b efbd 742e 043e adb0 d2bd
00000270: d452 0fbe f7a8 09be 38b3 2d3e 9bf9 803e
00000280: 3ada 243e 2f00 c1bd 58c4 f8bd 707a 9ebd
00000290: 35d9 70be 4e69 f13e 3de2 e3be 8c5f 493f
000002a0: ad93 eabb b6b4 73be 946e 013e 5284 6fbe
000002b0: 159a a6be e390 063e 61ad 8cbc 6304 da3d
000002c0: ac86 223c f210 8fbe 9ef9 023e c479 e1bd
000002d0: cfed 1a3d 4324 bdbd be96 d53c eee2 eb3c
000002e0: 99d6 933e f6a8 febd 599b 2b3e 4c7a 323e
000002f0: 3da7 e8be 267f c73e a9b3 ab3f 50eb c8bd
00000300: 460d ccbd 2297 b33d f525 b8bd 4d05 503e
00000310: 8907 273c 3729 853d 41fa 0bbd 975b b8be
00000320: 5493 fcbd 8a02 963d 0636 ad3d fc20 aa3d
00000330: ae58 6fbd 5a1e 3cbd a9ec 343d 2bd3 efbd
00000340: 0f35 233d efe1 323e ed8a 90bd 6e56 14be
00000350: 2191 023f ccf8 0dbf 22fe 58bf 4b78 6c3f
00000360: fb04 4c3e f945 b03d a5b8 a73d 1d03 60be
00000370: 2fc1 7fbd d0ec bebd b90e aa3d 82fb 673d
00000380: 5593 1ebd 7f81 ecbd bb13 88bb d21c fabd
00000390: b204 31bd 4386 b0bc 0cb2 3ebd 4bb6 abbe
000003a0: bcbf 543d b4c6 ee3d 3c02 8cbb 10cb 273e
000003b0: 7c10 b6bc 7124 1b3e be8c 243f 44fa 8f3f
000003c0: eb17 37be 5198 093b ed6e 33be f91a aebe
000003d0: a571 a0be a649 7dbd 3c8a 7b3e a141 4fbe
000003e0: 1cc8 0e3d bd59 debc bb43 9ebd e535 fd3d
000003f0: 478c 9f3c 6db5 463c b787 7ebd dbc7 34bc
-0.38266218 -0.16871794 -0.37730995 -0.19293518 0.19126043 -0.015886012 0.030480644 0.052012455
-0.019578394 -0.139116 0.1805005 -0.017261349 0.015827848 -0.015493049 -0.008273971 0.022291068
0.06283667 0.2383214 -0.2661601 0.048138633 0.09068905 -0.719958 0.80053794 0.52935874
0.022078115 0.019102069 -0.12260481 -0.20563176 -0.15699746 -0.19146006 -0.22237413 -0.10728944
-0.10087627 -0.27266362 -0.020462194 0.012516677 0.18308415 -0.0795849 -0.24690734 -0.059878685
0.1452873 -0.057360865 0.09995296 -0.09392911 -0.069173925 -1.1337137 0.19641134 -0.71732014
-0.16561118 0.09452856 0.058617067 0.0011103322 -0.060551994 -0.11959562 -0.06307103 -0.022272252
0.18511759 -0.059017673 -0.1123397 -0.007908218 0.16987815 0.29568607 -0.21987723 -0.22317502
0.24762742 -0.09853459 -0.07495965 -0.049178906 0.16830526 -0.110069476 0.22326113 1.0136915
0.0013699111 0.06661908 0.08423472 0.01892537 -0.08296338 0.06298065 -0.124910735 -0.14743882
-0.16916305 -0.08027091 0.0066974116 -0.11748487 -0.1461935 0.042859923 0.0139838355 -0.10264357
-0.029361036 -0.056935873 0.028058417 0.009689435 0.013093666 0.32937738 -1.7450243 0.6997435
-0.08061257 -0.13268796 -0.15116908 -0.07108581 -0.14113207 -0.004288703 -0.06947879 -0.029932959
-0.09796706 -0.18305181 -0.4677514 -0.13563433 0.09020427 -0.36458325 0.2901689 -0.12480154
0.11879865 -0.13949437 -0.1626873 0.07184142 0.16626722 0.42079818 0.42561546 -0.5396573
0.089442775 -0.036869403 0.14143333 0.0034828896 0.18696293 0.040507022 0.006472257 -0.2591948
0.1378665 -0.320427 -0.18440285 0.019881561 0.05393792 0.13050072 0.049223393 -0.010327516
-0.04720108 -0.1468515 -0.2667314 -0.12946872 0.10909714 0.06311181 -0.31862074 1.0425994
0.036358636 -0.009641755 0.10600629 -0.078704566 -0.020441778 0.03828792 -0.14467855 0.16435334
0.0815631 -0.116752476 0.12908345 -0.102876045 -0.1399644 -0.13443361 0.16962898 0.25190434
0.16098872 -0.09423863 -0.121468246 -0.07738197 -0.23520358 0.47150654 -0.44508544 0.7866142
-0.0071587176 -0.23799405 0.12639838 -0.2339032 -0.3253943 0.13141207 -0.017172517 0.10645368
0.009919804 -0.27942616 0.12790534 -0.11009553 0.03782445 -0.09235432 0.026072856 0.028794732
0.28874663 -0.124345705 0.16758479 0.17429465 -0.45440093 0.38964194 1.3414203 -0.09810507
-0.09963469 0.08769061 -0.08991615 0.20314522 0.010194668 0.06502002 -0.034174208 -0.36007378
-0.12332788 0.07324703 0.0845757 0.083070725 -0.05843418 -0.045927383 0.04417101 -0.11710199
0.039845522 0.17469 -0.07057748 -0.14486095 0.510027 -0.5545776 -0.84762776 0.9237105
0.19923775 0.08607096 0.08189515 -0.21876188 -0.062440094 -0.09322512 0.083035894 0.05663634
-0.038714726 -0.11548137 -0.0041527427 -0.12212528 -0.04321737 -0.021548396 -0.046556517 -0.33537516
0.051940665 0.11658993 -0.0042727273 0.16386056 -0.022224657 0.1515062 0.64277256 1.124825
-0.17880218 0.0020995329 -0.17522784 -0.34004954 -0.31336704 -0.061837815 0.24564451 -0.20239879
0.034858808 -0.0271424 -0.07727762 0.12363795 0.01947607 0.012128216 -0.062141147 -0.011033977

linear1.bias f4 [256]
00000000: 9de3 68be bb00 f6bd eb4a 84be 8bfd 57be
00000010: dc7b afbd 494a 37bd 1bea 383d c6fc 093e
00000020: 3272 e9bb 6f64 da3c 7da0 923d 90fa e3be
00000030: 463a d3bd 90ec f4bd 855d adbd 8265 52bd
00000040: 1e6f edbc c304 14be 6ad3 6ebe 8a0d 39be
00000050: ea60 19be 6157 71bd c7da 38be b13d 343d
00000060: 0000 0000 79c1 0bbe a649 89be b5ba 1bbd
00000070: a2a6 09bd a894 f23d 635b 89bc c135 f43c
00000080: f8d8 aabd 6f6b adbc 049b 7cbd e7f6 94be
00000090: a4bc 223d ab00 e2bd 1e25 963d 50d4 85bd
000000a0: 9f66 8ebb 2333 82be df10 bcbc 25c3 4d3e
000000b0: 527f cebc 8cf9 fc3d 0a86 9a3c 3419 d7bc
000000c0: 53f1 653b ec3b 21bd 428e 91bd 5c37 e0bd
000000d0: c66a 9abd 099a b9bb 10fa 8dbd 89de b13c
000000e0: 6dfe 32be c3af 40be be72 a8bd 9e6a c7bd
000000f0: 0000 0000 a77f 893d 1177 4cbe 34ab 74be
00000100: c500 703d bb91 2fbe bb61 03be e6b7 5b3d
00000110: d607 b7bb 5003 503d 9ac3 f3bd 902c 66bd
00000120: 01f4 033c 08ce 1bbc 275e 41be 8e67 91bc
00000130: 398a 30bd f6d2 b0bd f125 45bd 0e7f b8bc
00000140: 5fc3 8ebe 06e8 dcbb 12d5 a13d d1ce 413d
00000150: 5f07 903d 3cd5 0fbe b49b b13d 88a0 50bd
00000160: 10e5 cdbd 0baa e1bd bb8f 10be c775 48be
00000170: f40f a5bc c370 1dbe 9b19 13be 3b42 90bb
00000180: 4590 783c 8873 873c 2f9d 1f3c f87e 10be
00000190: 3743 66be b822 ef3d 745e 4fbe c3cc d63b
000001a0: f575 e9bd da9d 21be 83da 693d d5b0 e8bd
000001b0: 6b9c 9f3d 2696 5c3d 738d 18be 28a5 98bd
000001c0: 2f52 dab9 5238 8fbc 5fa6 fcbd d022 9abc
000001d0: d30a bbbc d898 fd3c 4bfc e5bc 6595 41bd
000001e0: 8cae ad3b bb2f 1d3d 1462 a03e 92d7 ccbd
000001f0: 8e56 023e 0cb7 55bc 7a96 a8bd 363f 52bd
00000200: 1b7e d2bc 663c 033c eee4 12be 98ba 443a
00000210: e936 08be 5f88 5d3d a3a0 09bd 057c f3bc
00000220: f56d 1bbd 61bc 18be a46b 3e3d 57c2 23be
00000230: e4fe 30be 4ade 4bbe 037f a9bd 7177 ffbd
00000240: d761 97bd 446b a4bd b6a0 c3bd 23d7 ddbd
00000250: ae79 f2bd 1890 3fbe c4ab 873d e41b dcbc
00000260: 3881 9dbd 7adf 85bd 6a56 91bd df23 dcbd
00000270: 74e4 f43c ac1e 13be 2e23 19bd f876 c7bc
00000280: 44fb e7bd 8889 89bd 86d6 e1bc 99ca 95be
00000290: 9b92 44be 6197 523b 6479 88be 2f1e 883d
000002a0: d716 6ebd f80a 27bd f5e1 d3bd 5104 7d3d
000002b0: 214a b9bd 095f e2bd eb50 a2bd 1d55 82be
000002c0: fcc8 1dbe 616b 893c a6f5 00be 166b 02bd
000002d0: 9816 50be 426f b43d 879d 47be 42a9 ebbd
000002e0: 013d 5bba 0b92 ddbd a3ee 1c3e 6eea 0b3d
000002f0: 7c30 99bc 7e2e ddbd 527c c73d 6739 03bd
00000300: 817c 053c ed47 1c3f fc4e dbbd a8ec 2dbb
00000310: 6310 1bbd 7bb9 0fbe 372e 9e3d 270f ce3d
00000320: 54a1 a33d a10e d0bc b991 29be e367 a9bd
00000330: 7946 1ebc 5cd6 9739 0804 09bd 02c4 06bd
00000340: b090 4ebe f36b ec3c 8bb8 5dbe ecfb 473d
00000350: e381 e8bc 0d0b 8fbd eddc 0fbe c826 8d3c
00000360: ea42 d63c a8c5 05be ac4d 3bbd 7761 83bc
00000370: b0dc 55be 5af0 5b3f 25a8 953d cb14 9fbd
00000380: 283e 96bd 4ca4 ffbd 756f 4b3d d709 a2bc
00000390: 7d4a b1ba abdb dbbd 3838 6cbe d5cd 09bd
000003a0: ecce 3dbd 1274 4fbd 4a80 233d 6f0d 8cbd
000003b0: e5fe d0bd 836e 6cbe 5228 82bd 674c 2fbd
000003c0: ebd1 1fbe 7f31 3abd bc85 03be 913a 24bc
000003d0: 898f 47be 2038 0a3e 3729 47be 09e8 37bd
000003e0: e776 0cbd 665e 313b 4d4d 04be 04a6 0b3e
000003f0: 3c24 9f3b 4485 02be 00d8 9abd 22ac 14be
-0.22743078 -0.12011858 -0.25838408 -0.21092813 -0.08568546 -0.04474858 0.045145135 0.13475332
-0.007124209 0.026659219 0.07159517 -0.44527102 -0.10313849 -0.11959183 -0.08465103 -0.051366337
-0.028983649 -0.14454941 -0.23322836 -0.18071571 -0.14978376 -0.05892122 -0.18052207 0.044004146
0.0 -0.13648023 -0.26814002 -0.038019855 -0.03360618 0.1184476 -0.01676721 0.029810788
-0.08342165 -0.021169392 -0.061671272 -0.29094622 0.039730683 -0.11035284 0.07331298 -0.06534636
-0.0043457295 -0.2542964 -0.022957264 0.20093973 -0.025207195 0.12352285 0.018862743 -0.026257135
0.0035086467 -0.039363787 -0.07107212 -0.10948059 -0.07539897 -0.0056641144 -0.06932461 0.021712558
-0.17479868 -0.18817048 -0.0822501 -0.097371325 0.0 0.06713801 -0.19967295 -0.23893434
0.058594484 -0.17145436 -0.1283025 0.053642176 -0.005585651 0.05078441 -0.119025424 -0.05619484
0.0080537805 -0.009509571 -0.18883573 -0.017749574 -0.04310057 -0.086339876 -0.048131887 -0.022521522
-0.2788343 -0.0067415265 0.07901968 0.047316376 0.07032656 -0.14046186 0.08672276 -0.050934345
-0.10053456 -0.11018761 -0.14117329 -0.19576178 -0.020149209 -0.15375046 -0.14365236 -0.0044024265
0.015171115 0.016534582 0.009742065 -0.14110935 -0.22486578 0.11676544 -0.20250875 0.006555171
-0.11399452 -0.15782872 0.057093155 -0.11361853 0.07793506 0.05385413 -0.14897709 -0.07453376
-0.00041641432 -0.01748291 -0.1233642 -0.018815428 -0.02283231 0.03095667 -0.028074404 -0.047261614
0.0053003486 0.038375597 0.31324828 -0.10002054 0.1272833 -0.01304413 -0.08231826 -0.051329814
-0.025694897 0.008010006 -0.14345142 0.0007504611 -0.13302197 0.05408513 -0.03360046 -0.029722223
-0.03794666 -0.14915611 0.046489373 -0.15992104 -0.17284733 -0.19909015 -0.08276179 -0.124739535
-0.07391708 -0.08028272 -0.095521376 -0.1083205 -0.11839615 -0.18707311 0.066245586 -0.026868768
-0.07690662 -0.065367654 -0.0709656 -0.10749029 0.029894091 -0.14367169 -0.037387066 -0.02434872
-0.11327222 -0.06715685 -0.027568113 -0.29256132 -0.1919655 0.0032133686 -0.26655114 0.06646382
-0.05812725 -0.040781945 -0.10345832 0.061771695 -0.09047342 -0.11053283 -0.0792559 -0.2545556
-0.154087 0.016774835 -0.12593707 -0.031840406 -0.20321119 0.08810283 -0.19493686 -0.11506893
-0.00083632773 -0.10818871 0.15325408 0.034159116 -0.018699877 -0.10799883 0.09740509 -0.032037165
0.00814736 0.6104725 -0.107084244 -0.0026538763 -0.037857424 -0.14035599 0.077236585 0.10061484
0.07989755 -0.0253976 -0.16559495 -0.08271768 -0.009660357 0.00028960675 -0.03345111 -0.03290177
-0.20172381 0.028860068 -0.21652429 0.048824236 -0.028382247 -0.0698453 -0.1404912 0.017230406
0.026154954 -0.13063681 -0.04572837 -0.016037686 -0.20884967 0.8591362 0.07307462 -0.07767638
-0.07336074 -0.12482509 0.04966684 -0.019780083 -0.0013526228 -0.10735258 -0.23068321 -0.033643562
-0.046339914 -0.050647803 0.039917268 -0.068385 -0.10204867 -0.23089032 -0.06355347 -0.042797472
-0.15607421 -0.04545736 -0.12843984 -0.010023729 -0.19488348 0.13497972 -0.19449316 -0.04489902
-0.03429308 0.0027064322 -0.12920113 0.13637549 0.0048566144 -0.1274615 -0.0756073 -0.14518788

mean_linear.weight f4 [2, 256]
00000000: cc21 223f 7727 86be a407 cd3e 6a1c 3ebd
00000010: 880f 79be 239d 12bf 97ec b7be 9dc1 c43e
00000020: 704e bcbe 7404 173f 81e8 15bf 12f2 a9be
00000030: 8c21 753f 2b0d c13f 70d5 c83e d490 e73d
00000040: decb 183f e9c5 31bf 54c3 4cbf 3d60 37bf
00000050: eace 87bf e547 cc3e f3b2 793e df64 75be
00000060: b05e 1f3d b229 3bbf d7fc 093f da41 0cbf
00000070: 158b 1bbf 2bb1 e23d 27b5 e03c 6497 db3d
00000080: 99a2 ad3c da21 813f 6400 aabe 42da b5bf
00000090: 8d88 1bbd fef6 dd3e d35a 893e b339 f73e
000000a0: 80f6 943e ea24 d9be aadf 13bf 412f 85be
000000b0: dd20 b03e 055a 6d3f a53f 8f3e ac52 f53d
000000c0: c1d0 833c b66e 9a3d 20df a43d b394 55bf
000000d0: 8fbb 443e cee0 9f3e 5b3c 95be 9de6 5ebe
000000e0: 49f1 ab3d 1d8c 1abe fc6d 3a3f af83 9a3e
000000f0: 9258 2abd 2b47 7b3d bb7e 1c3f 1ef1 3fbf
00000100: 6c29 303f 0acb 2bbf 69ac 5abf 264e 9f3d
00000110: 899d 40be 1ef2 33bf f41a 933e e375 f3bd
00000120: 612f b23e eaf1 293d 41ef 81bf b90a f43e
00000130: fd3d 6ebf df1d 09bf 179a 56bf ec3d 00be
00000140: c9ce 0fbf 5f3a be3f 2de4 3d3e 9838 18be
00000150: d0c6 5b3f f142 1f3d 52ce 333e 8d2e aabe
00000160: dce8 29bc 2f40 f4be c4fe bbbe cd5c b8be
00000170: c27a 00bf 4896 533e 603a c0be de89 373f
00000180: d4f4 9cbe e487 973f 67e8 af3e a4d9 633e
00000190: f67e b6be fcea f7be 75e1 a3be 36a5 d93e
000001a0: 2333 7ebf 6f44 433f 3360 953e 9488 ecbe
000001b0: 2588 d33d 4acf 683e 2570 58bf 2b7d 92be
000001c0: 90c8 153f f31b 3a3c 73f2 b0bd 5540 6d3d
000001d0: 81b5 c63c e91f 583e 44d7 7d3f bcde 863f
000001e0: ec6a ffbe 1947 053e c8ef 283f 0221 f2bd
000001f0: 9f9a c4be eedd 2ebf 0c95 74bf 5c98 e73e
00000200: 00f9 e73d 6e7b aa3e eae1 9cbf de4d a63e
00000210: bb02 b8bd e25a 97be 19e0 30bd c098 bf3d
00000220: 7e4b 203f bee9 cf3e f4cf 8ebe d679 5d3d
00000230: a897 8d3e b2c2 b2be 0268 4d3f d16c 4f3f
00000240: 0cfc 50bf aa24 2bbf 32f8 0dbf eb41 86bf
00000250: 21ce b6ba 3a61 543f 5a5d 4e3f 8e3f f73d
00000260: f689 4cbd 810e fabd 8b16 afbd c786 90bf
00000270: ef29 be3e 9045 0a3e 9047 463d 6177 3dbe
00000280: 836a 83bd a1bb 903f 5414 2f3f 4740 0ebf
00000290: c734 d0bd df3c ebbe 7f0a 2a3d 73cb a3be
000002a0: 428d ae3d 7f95 89bd 0e24 6abf 1d26 45bd
000002b0: dde9 8c3e 2b8a f53e 7a82 0fbf 73f9 8d3f
000002c0: e1d5 323f c885 e43d 7670 87bf 84b3 993f
000002d0: d429 113f 8247 d43e e922 ad3e 90f8 843f
000002e0: 0f14 773e 8063 2abf 4cfe 483d 6230 a03f
000002f0: 5ef0 a2bc c0fe 30bf 1c4e 3f3e a4d3 a23d
00000300: 25a5 25be e142 683d bf3c 28bf a0ad efbd
00000310: bf5e 00be 18b7 40be 4e8e 843e 6f2e d73e
00000320: 4d7c 4e3e d493 f83d 09d1 68be 5526 ca3e
00000330: 1995 083f a74d 49bf 180e 0ebf 6a15 eebe
00000340: b71d d9be 3035 673d da12 f23e 6b48 b2bd
00000350: 89ab 40bc af2b 023f bd32 cbbe 11a1 86bf
00000360: 29c3 9cbe c633 5abf a883 9f3f c025 5fbf
00000370: 667c b2bd 65c7 47bd 66af 38bf e89d 7d3f
00000380: 820e 1f3e df06 1ebf 5d01 bcbd a379 d1bd
00000390: bd21 073e 937f cbbe 4c83 e5bd 3d2c acbe
000003a0: b0e8 753f f124 cb3e 871f 67bd 130f d6be
000003b0: e50f a33e 514e 7bbe a28d c9be 1518 e5bc
000003c0: bdb3 18bf 45a9 2cbe 1b28 19bf f626 943d
000003d0: 6a29 6d3f 60b7 94be 1468 e7be 82f1 94be
000003e0: fb1e 7c3f c59e 993f 34a7 95be a4c9 c33e
000003f0: 8fd1 e93e 65f0 9a3f c029 17bf 6bcf c4be
0.6333282 -0.26201984 0.40044892 -0.046413817 -0.24322331 -0.5727102 -0.3592269 0.38428965
-0.36778593 0.5899117 -0.585579 -0.33192497 0.95754313 1.5082144 0.3922534 0.11306921
0.59686077 -0.6944261 -0.7998555 -0.7163122 -1.061002 0.398986 0.2438467 -0.2396426
0.03890866 -0.73110497 0.5390143 -0.5478798 -0.607591 0.11068948 0.02743013 0.10722235
0.021195697 1.0088456 -0.33203423 -1.4207232 -0.03797202 0.43352503 0.26827106 0.4828621
0.29094315 -0.42410976 -0.5776316 -0.26012614 0.34400073 0.92715484 0.27978244 0.11978659
0.016090753 0.07540648 0.0805037 -0.8343002 0.19212173 0.312262 -0.2914761 -0.2176766
0.08395631 -0.15092511 0.7282407 0.30178592 -0.041588373 0.061347168 0.61130875 -0.7497729
0.68813205 -0.6710669 -0.8541933 0.077785775 -0.18810095 -0.70291317 0.287315 -0.118877195
0.34801772 0.041490473 -1.015114 0.4766443 -0.93063337 -0.53561205 -0.8382887 -0.12523621
-0.56174904 1.4861563 0.18544073 -0.14865339 0.8585024 0.0388822 0.17559174 -0.3323864
-0.010370459 -0.47705218 -0.36717808 -0.360083 -0.50187314 0.20662796 -0.37544537 0.71694744
-0.3065554 1.1838346 0.34356996 0.22250992 -0.35643739 -0.48421466 -0.32007948 0.42508858
-0.9929678 0.76276296 0.29174957 -0.4619795 0.10328702 0.22735325 -0.8454612 -0.2861112
0.5850916 0.011359203 -0.086399935 0.05792268 0.02425647 0.21105923 0.99156594 1.0536723
-0.49886262 0.13015403 0.6599088 -0.11822702 -0.38399217 -0.6830739 -0.9553993 0.45233428
0.1132679 0.33297294 -1.2256444 0.32481283 -0.08984896 -0.29561526 -0.043182466 0.093553066
0.6261519 0.4060802 -0.2789303 0.05407127 0.27654767 -0.34914166 0.8023683 0.81025416
-0.81634593 -0.6685282 -0.5545684 -1.0488867 -0.0013946929 0.82960856 0.80611193 0.12072669
-0.049936257 -0.12209798 -0.085492216 -1.1291131 0.37141368 0.13503098 0.04840809 -0.1850257
-0.064168 1.130726 0.68390393 -0.5556683 -0.101663165 -0.45944878 0.041513916 -0.31991157
0.085230365 -0.06717967 -0.91461265 -0.04813205 0.27522174 0.47956976 -0.56058466 1.1091751
0.69857603 0.11158329 -1.0581195 1.2007909 0.5670445 0.41460806 0.33815697 1.0388355
0.24128745 -0.66558075 0.04907064 1.2514765 -0.019890007 -0.6913872 0.1868214 0.079505235
-0.16176279 0.056704406 -0.6571769 -0.11703038 -0.12536143 -0.18819845 0.2588982 0.42027614
0.20164604 0.12137571 -0.2273599 0.3948237 0.53352505 -0.78634113 -0.55490255 -0.46500713
-0.42405483 0.056447208 0.47280008 -0.08705219 -0.011759647 0.50847906 -0.39687148 -1.0517904
-0.30617645 -0.8523525 1.2462053 -0.87166977 -0.08715133 -0.04877414 -0.72142637 0.9906907
0.15532878 -0.61729234 -0.091799475 -0.102282785 0.13196464 -0.3974577 -0.112066835 -0.336275
0.9605818 0.39676622 -0.05642655 -0.41808376 0.31848064 -0.24541594 -0.3936587 -0.027965585
-0.5964926 -0.16861446 -0.5982682 0.07233994 0.9264132 -0.29046154 -0.45196593 -0.29090506
0.9848477 1.2001578 -0.29229128 0.38239777 0.45667693 1.2104613 -0.5904808 -0.38439497

mean_linear.bias f4 [2]
00000000: fbb8 443d 693b c63c
0.048027974 0.02419825

log_std_linear.weight f4 [2, 256]
00000000: dd5f 073e ac13 843c 4112 12bc 6f26 8e3d
00000010: 15ce 6e3e c6b1 95bd f73a 87bd 808c a33d
00000020: 0186 ddbd 3c9c a53d b312 88bd c876 1b3d
00000030: 9095 8d3e 3a00 b93e 4256 68bd 7e80 d1bd
00000040: 5669 683e 532a 953e 9550 b03e d8c4 13be
00000050: 1c49 f0bd 16e4 3dbc 9b97 cf3d 8d62 1dbd
00000060: da9a 2abd 83df 48bb 2b52 023d ccdc 39bc
00000070: 5ec9 9ebd 6408 27be 95ab 813b c194 f73b
00000080: 9758 463e 77d7 7cbd a96a b4bc 5ea6 8fbe
00000090: 9e47 12bd 7f6b f53d c2c9 68be 9b25 bc3d
000000a0: cb7c 2d3d 71e5 50be 0d39 b5bd e8ed 9bbe
000000b0: 2ab7 23be fcc8 c53d caf1 38bd 04f0 623d
000000c0: 55f9 5ebd 7e45 b7bd 9034 8bbd 1970 cd3d
000000d0: e480 53bd 103b 083d 892a 253e 53e5 59bd
000000e0: 0165 7f3d 2f8b 94bd bcf3 49ba ef1c dc3b
000000f0: 60b6 d13d 92d5 9bbd 49ca bfbc 4b3e 2a3d
00000100: 6b71 d33e a97b b1bd ecf2 7abc e79d 093e
00000110: b610 0fbe 15fb 81be 3406 44bd 80d4 99bd
00000120: 43c2 433e 0c08 493d d1db f03e 69e1 5f3e
00000130: 6ad9 50be 7164 8ebd 7e72 bb3e 947b bdba
00000140: b8b7 50bc 1f65 3c3f 1c6d c53c f3b7 16be
00000150: 324a 633c 06c2 c03a 03aa 4abc e3a1 04be
00000160: afce c53c 8b6a ad3d 10a2 d73b 4646 d53e
00000170: b95a 31bd 914b 083c f8fa c6bc 2218 3f3e
00000180: 63a9 29bd d3ff 723e fd5c 0d3e f1c8 adbc
00000190: 1086 313b e2a0 573f e158 80bc 2e0b e73d
000001a0: 4186 503e 8df4 cb3d 971e 0abe d2ed b7bd
000001b0: 4a80 e0be 89b7 cc3d 4c2e c5bb 538f 683f
000001c0: c337 1b3e 2c44 49bd 64fc 063c 0245 293c
000001d0: 1b86 133e b566 b73d 62b8 88bc fdfc 943e
000001e0: 52c3 82be dacb 1f3e 7f70 80be a712 d33d
000001f0: 15dd cbbd 8d29 1fbe 2034 ad3e 3d63 cdbc
00000200: f227 b33d dc63 183b cb85 ac3d dab7 8a3c
00000210: 07e8 adbe e6da 0abe d507 0cbe 2f62 61bd
00000220: ffff 2c3e c5f1 a63b f4fd 433b 4297 133c
00000230: fde0 70bd dcfd 25bd b3b6 1b3e e509 043e
00000240: 3e23 a0bd 8594 b43c 7a75 67be 7bd3 b73d
00000250: 5ad9 dc3d c7c7 083d d947 21bc 7ad4 2a3d
00000260: 7e10 25bd 6467 a83e 3ca1 103d 6992 613e
00000270: da07 4f3d e642 e8bb 39a3 8d3c 69ea dbbc
00000280: 097b 65bd f733 a73e 1004 313e b034 45be
00000290: 328f f13d 717e f83d 083a 0b3f 6800 19bd
000002a0: 959b b13d 588b babd 4bcb 623d 4171 64bd
000002b0: f0fe bf3d f2da 3b3e 1223 5c3e 75a0 0d3e
000002c0: 1ba1 9d3e 3646 9cbc 31f3 1d3e db04 2e3e
000002d0: 343d 3a3e 5265 033e 99cb 333d 65d4 003f
000002e0: 472b 513d c44b e13d e561 383b 946b 0c3e
000002f0: 3115 303d 2031 3ebe 76d3 553d e616 303c
00000300: 8c0d 3cbc 3d66 acbe 45ef e9be bfc6 efbb
00000310: 75c0 c1bc ebb4 abbd c428 103e 3dd0 f1b9
00000320: 8d62 a1bd 3e98 863c d0cd 96bc 7c43 403e
00000330: 788b 983c c987 813e 607d 02be 1349 a3bd
00000340: 45e5 d4bc 9ab7 1fbd 4d76 9ebc f8b6 e53d
00000350: 2586 2dbd b05f 383d 1493 213c 9481 3bbe
00000360: 658e 72be 32ff 0e3e 2cda 1f3f cd9f f33d
00000370: b040 44bc 2562 7fbf 228b c5bd 96cb 873e
00000380: 1718 39bd af73 88bd 62f3 cc3d 9684 93bd
00000390: 07ba 393c d73d e1bc d158 b2b9 7c09 9c3d
000003a0: 1b27 583d fedf 813d e7a0 8e3d 4d84 383f
000003b0: f76c 08bd ade7 73bd 000a 9bbd dc94 193d
000003c0: fd8d 533e 82e0 b93c 0057 b4bd 431f a03d
000003d0: 79ce 383f f13e 173e 7c13 71be 425d a9bd
000003e0: 314f cb3d 6719 933d 2058 173f 85f1 953e
000003f0: 7564 0e3d 52ac d03e df66 9c3d 7681 febd
0.13220163 0.016122662 -0.008915485 0.069409244 0.23320802 -0.07309298 -0.066030435 0.079857826
-0.10816575 0.0808644 -0.066441916 0.037955076 0.2765317 0.36132985 -0.056722887 -0.10229586
0.22696432 0.29133853 0.3443648 -0.14430559 -0.117326945 -0.011590024 0.10136338 -0.038424063
-0.041651584 -0.0030650801 0.031816643 -0.011344146 -0.077532515 -0.16311795 0.0039572218 0.0075555746
0.19369732 -0.06172892 -0.022023516 -0.28056616 -0.03571283 0.11983394 -0.22733214 0.0918686
0.04235534 -0.20400025 -0.08848772 -0.30454946 -0.1598784 0.09657475 -0.045152463 0.055404678
-0.054437 -0.089488015 -0.06797135 0.100311466 -0.05163659 0.03325945 0.16129507 -0.053197216
0.062352184 -0.0725311 -0.0007703861 0.0067173163 0.102398634 -0.07609095 -0.023411887 0.041563313
0.4129747 -0.086661644 -0.015316706 0.13439141 -0.13971218 -0.25386873 -0.04785748 -0.07511234
0.19117074 0.04907994 0.47042707 0.21863331 -0.20395437 -0.069527514 0.36610788 -0.0014456385
-0.012739114 0.735918 0.024099879 -0.14718609 0.01387267 0.0014706261 -0.0123696355 -0.1295238
0.024146406 0.08467587 0.0065805987 0.41655177 -0.04329941 0.008318798 -0.024289593 0.1866155
-0.041421305 0.23730402 0.13805003 -0.02121398 0.0027087964 0.8422986 -0.01566738 0.11281429
0.20363714 0.09958754 -0.13488232 -0.089809075 -0.43847877 0.09995944 -0.006017482 0.90843695
0.1515799 -0.04913728 0.008238886 0.010331394 0.14406626 0.08955137 -0.016689483 0.29099265
-0.25539643 0.15605107 -0.25085828 0.10306292 -0.099542774 -0.15543194 0.3382883 -0.025071735
0.08747853 0.002325288 0.084239565 0.01693337 -0.33966085 -0.13560066 -0.13674863 -0.055025276
0.1689453 0.005094739 0.0029906007 0.009008231 -0.058808316 -0.040525302 0.15206413 0.128944
-0.07819222 0.022043476 -0.22603408 0.089758836 0.10783644 0.033393648 -0.00984379 0.04170654
-0.04029893 0.3289138 0.035310015 0.22028507 0.050544597 -0.007088053 0.017289745 -0.026845174
-0.05602554 0.32656834 0.17286706 -0.1925838 0.117948905 0.12133492 0.54385424 -0.037353903
0.08672253 -0.09108609 0.055369657 -0.05577207 0.09374797 0.1834524 0.21497753 0.13830741
0.30786976 -0.019076448 0.15424801 0.1699404 0.1818741 0.1283162 0.043895338 0.5032409
0.051066663 0.11000779 0.0028134522 0.13712913 0.04298896 -0.18573427 0.052203618 0.010747647
-0.011477839 -0.33671752 -0.4569036 -0.0073173936 -0.023651341 -0.08384117 0.14078051 -0.00046122252
-0.07880125 0.016430017 -0.018408686 0.18775743 0.018621191 0.25298908 -0.1274314 -0.07972922
-0.02598823 -0.038993455 -0.01934352 0.11216539 -0.04236426 0.04501313 0.009861726 -0.18311149
-0.23687132 0.13964537 0.6244228 0.11895714 -0.011978313 -0.9975913 -0.09645678 0.2652251
-0.04518899 -0.0666269 0.10007359 -0.07203023 0.011335856 -0.027495308 -0.0003401698 0.076189965
0.05277167 0.06341551 0.069642834 0.72076875 -0.033307042 -0.059547115 -0.07570267 0.03749548
0.20659633 0.022690061 -0.088056564 0.07818463 0.7219005 0.14770104 -0.23542589 -0.08269741
0.09927214 0.071825795 0.59118843 0.29285827 0.034763772 0.4075647 0.076368086 -0.124270365

log_std_linear.bias f4 [2]
00000000: cec6 9ebf 9fd6 bcbf
-1.240442 -1.4752997
