hydrone_aerial_underwater_ddpg/scripts/Models/sac_stage_2_air2D_tanh_2layers/2820_value_net.pth (torch_old, 585472 bytes, 10 tensors)

linear1_q1.weight f4 [256, 26]
-0.3362513 -0.231843 -0.36913073 -0.19919734 -0.13641608 -0.08950782 -0.3786232 -0.2104401
-0.14171608 -0.040580735 0.39398032 0.2423376 0.32461667 0.5159833 0.08357031 -0.4216623
-0.16099814 -0.0974919 0.09371285 0.07579097 -0.19170146 -0.14900701 -0.3799534 -0.376464
1.058307 -0.9431479 -0.034893356 0.09556419 -0.022312118 -0.121263415 -0.01752642 0.11946635
-0.080549106 -0.08756784 0.024466742 0.017490381 0.17482628 0.23296852 0.22774631 0.11224946
-0.24985181 -0.017588984 0.0883331 0.24982026 0.05377301 0.10140852 0.16132957 0.08083297
1.1674963 -1.9395233 0.22157043 -0.11290093 -0.3543481 -0.10220137 -0.34298643 -0.029239653
0.12976629 0.13180682 0.046066865 -0.1241244 0.027158385 0.14978929 0.17790681 0.22013502
-0.011787565 0.044864614 -0.12384343 -0.11385661 0.016462281 0.05606302 0.16417594 -0.00839047
-0.1717191 -0.5273272 -0.5825063 2.9359245 0.734386 -1.0855924 -0.42030418 0.11931039
0.31920624 -0.048320662 -0.21368803 -0.1511797 0.085901774 -0.0013545911 0.23224589 -0.003983684
-0.17460807 -0.14683223 -0.273025 0.045198802 -0.051409207 0.29382536 0.32899648 0.15208153
0.1040889 -0.38884646 0.44084987 -0.343146 1.0458609 0.045228466 0.6847548 -0.0641241
-0.08565659 -0.26101154 0.14198239 -0.02928924 0.04498687 0.021300636 0.0616135 0.18460873
0.080824554 0.3474138 -0.0021490438 -0.38875046 0.008409712 -0.16675283 0.18842088 -0.14594236
0.04078836 0.1467864 0.3486742 -0.16587736 0.44825685 -0.14893469 0.13778442 -3.0112383
-0.3334569 0.8666897 0.051584788 -0.11345925 0.10793063 0.11777658 0.14076675 0.12851138
0.07592008 -0.19105352 -0.3585791 -0.25417224 0.09906344 -0.12486951 -0.056341823 -0.057079498
0.14226124 0.2524575 0.19374688 -0.16943431 0.09672355 0.06554993 -0.4368281 0.6593342
0.14697975 -3.0737514 -0.7890338 -0.34675083 -0.05664948 0.048740868 -0.32956564 0.11435924
0.09725852 -0.3315046 -0.34119326 -0.23434997 -0.32288215 -0.21614738 0.044869 0.21363617
0.31777692 0.17157426 -0.13809638 -0.34212083 -0.057837863 -0.028199749 0.33452576 0.22765397
0.68006134 -0.61007744 0.6528201 -0.34618753 0.8219191 -0.31007868 -0.3226706 -0.37414446
-0.31026816 -0.3352474 -0.08129507 -0.08929969 -0.12710863 -0.16514266 0.13276973 -0.07500646
-0.043004707 -0.062234003 0.26891175 0.28795442 0.19079454 -0.024248846 -0.4766378 -0.071340606
0.09457902 -0.27670026 0.5593116 0.10407996 0.2385739 -1.8806442 0.15590265 0.25866097
-0.0037252253 -0.23420629 -0.16663134 -0.1711433 0.0552592 -0.025519975 -0.041693516 0.069998585
0.09154588 -0.24579176 -0.2653819 -0.12360622 0.2841591 -0.061864812 0.079218306 0.28557834
0.11435552 0.090491205 -0.030284245 0.12572335 -0.80421454 -0.26729056 -3.4195547 1.6860183
0.2816997 0.5997199 0.13453178 -0.30558875 -0.05140199 -0.26796427 -0.23339278 0.050529893
0.07541747 0.15994689 -0.21836264 0.08100976 -0.16333582 -0.5422187 -0.27458695 0.10679239
0.398794 0.36380947 -0.537046 -0.45382273 -0.11992568 0.30451092 0.57324207 0.3923544
00000000: 2129 acbe 4068 6dbe b4fe bcbe 63fa 4bbe
00000010: a8b0 0bbe e04f b7bd e6da c1be 9c7d 57be
00000020: 051e 11be fc37 26bd cab7 c93e 5927 783e
00000030: 2834 a63e 7b17 043f e926 ab3d 1fe4 d7be
00000040: b2dc 24be d5a9 c7bd 86ec bf3d 4c38 9b3d
00000050: 634d 44be 4b95 18be 4189 c2be e4bf c0be
00000060: 9b76 873f 2472 71bf 56ec 0ebd 28b7 c33d
00000070: e7c7 b6bc f458 f8bd 9193 8fbc c6aa f43d
00000080: eef6 a4bd c556 b3bd 7a6e c83c fd47 8f3c
00000090: a905 333e 4d8f 6e3e 5436 693e 0be3 e53d
000000a0: 27d9 7fbe c616 90bc fce7 b43d e2d0 7f3e
000000b0: 1641 5c3d 45af cf3d 9433 253e c28b a53d
000000c0: 8570 953f 4d42 f8bf 5ce3 623e 9a38 e7bd
000000d0: 1d6d b5be f44e d1bd eb9b afbe ff87 efbc
000000e0: 74e1 043e 5ef8 063e 9cb0 3c3d ef34 febd
000000f0: 437b de3c 5d62 193e 342d 363e 136b 613e
00000100: a220 41bc f5c3 373d a0a1 fdbd a82d e9bd
00000110: e8db 863c 56a2 653d bd1d 283e 2f78 09bc
00000120: 22d7 2fbe eafe 06bf 221f 15bf 30e6 3b40
00000130: b900 3c3f b1f4 8abf 1c32 d7be 0159 f43d
00000140: 006f a33e e3eb 45bd 09d1 5abe dace 1abe
00000150: 45ed af3d 898c b1ba ded1 6d3e 9089 82bb
00000160: 75cc 32be 305b 16be efc9 8bbe 6122 393d
00000170: 7692 52bd 4770 963e 3a72 a83e 43bb 1b3e
00000180: 902c d53d e216 c7be 13b7 e13e d5b0 afbe
00000190: c5de 853f 7c41 393d 174c 2f3f 7f53 83bd
000001a0: b96c afbd 4ea3 85be d563 113e fdef efbc
000001b0: 2744 383d ac7e ae3c 705e 7c3d 120a 3d3e
000001c0: 5887 a53d 39e0 b13e f9d6 0cbb 4d0a c7be
000001d0: e4c8 093c 41c1 2abe 67f1 403e ea71 15be
000001e0: b211 273d 2d4f 163e 6d85 b23e c1db 29be
000001f0: ec81 e53e 5682 18be 5c17 0d3e 21b8 40c0
00000200: ddba aabe 60df 5d3f 924a 533d 535d e8bd
00000210: bc0a dd3d d934 f13d 2925 103e 7d98 033e
00000220: fd7b 9b3d 89a3 43be ae97 b7be dd22 82be
00000230: c6e1 ca3d 96bb ffbd afc6 66bd 31cc 69bd
00000240: eeac 113e 1c42 813e 9565 463e 3080 2dbe
00000250: ff16 c63d 0b3f 863d efa7 dfbe 20ca 283f
00000260: dc81 163e 58b8 44c0 1efe 49bf 5389 b1be
00000270: 4909 68bd 81a4 473d d4bc a8be 2d35 ea3d
00000280: 7a2f c73d f9ba a9be e2b0 aebe 70f9 6fbe
00000290: cf50 a5be bd55 5dbe 8ec8 373d 71c3 5a3e
000002a0: a8b3 a23e 2ab1 2f3e 2369 0dbe 762a afbe
000002b0: 65e7 6cbd 2903 e7bc f646 ab3e 1f1e 693e
000002c0: 8018 2e3f 092e 1cbf 381f 273f 7e3f b1be
000002d0: 4a69 523f a2c2 9ebe 1535 a5be dd8f bfbe
000002e0: 78db 9ebe 8ca5 abbe 087e a6bd c2e2 b6bd
000002f0: c428 02be 281b 29be caf4 073e fd9c 99bd
00000300: b425 30bd 15e9 7ebd cdae 893e c36e 933e
00000310: a55f 433e 84a5 c6bc df09 f4be 061b 92bd
00000320: a5b2 c13d a8ab 8dbe 0c2f 0f3f e027 d53d
00000330: b74c 743e f3b8 f0bf f2a4 1f3e 366f 843e
00000340: e922 74bb c6d3 6fbe 68a1 2abe 3040 2fbe
00000350: 7957 623d 440f d1bc d2c6 2abd 6b5b 8f3d
00000360: 687c bb3d d6b0 7bbe 23e0 87be 4225 fdbd
00000370: 4d7d 913e f565 7dbd 353d a23d 5337 923e
00000380: 3a33 ea3d 7453 b93d aa16 f8bc 9fbd 003e
00000390: 01e1 4dbf 4fda 88be fcd9 5ac0 73cf d73f
000003a0: f13a 903e 3e87 193f b3c2 093e 2176 9cbe
000003b0: e58a 52bd 9d32 89be 84fe 6ebe 6ff8 4e3d
000003c0: 7974 9a3d 1ec9 233e 759a 5fbe 72e8 a53d
000003d0: 8141 27be d8ce 0abf a996 8cbe f8b5 da3d
000003e0: ba2e cc3e 3c45 ba3e d97b 09bf 745b e8be
000003f0: 989b f5bd dbe8 9b3e febf 123f ade2 c83e

linear1_q1.bias f4 [256]
0.06769058 1.0713863 -0.3761867 0.34015593 0.47868592 0.5025453 0.5842179 0.7555712
-0.45654324 0.31492016 -0.019612636 0.6681205 0.2525736 -0.40132034 -0.037138734 0.51732624
0.0003957024 -0.019342031 0.40554246 -0.43533924 0.0005350091 0.9009594 0.67810655 0.50224024
0.5769943 -0.38670826 -0.675288 0.087793104 0.06410779 0.27732652 0.102832325 0.3759434
0.37888795 -0.2995371 0.61248314 -0.02344853 0.40920624 0.6625935 0.36258355 -0.35582146
0.21040994 0.05621527 -0.0740575 0.37756437 -0.47362292 0.3711635 -0.6085658 0.21267152
-0.7834617 0.20879254 -0.22282985 0.443633 0.9763881 -0.0389313 -0.023600854 0.799925
0.3111499 0.117176495 -0.009523368 0.0 -0.50775343 0.56676215 -0.28342623 -0.046083603
-0.3711304 -0.20410596 0.059207212 1.2161604 1.003724 -0.3842352 0.44843948 -0.12223153
0.17420715 0.3618018 -0.014607513 0.05580202 0.09325358 -0.33099374 0.26858735 0.61445546
0.5145406 -0.079275236 -0.51697236 -0.31009835 0.12158069 0.22701898 -0.39464134 0.34457147
0.639417 0.04019509 -0.46131563 0.11338468 -0.44118816 0.5220601 0.004887926 0.2535281
-0.6435495 1.1549978 -0.35215452 0.28156948 -0.61387116 -0.025224397 0.21078913 0.12530182
0.747888 0.030031476 0.2287754 -0.054552313 0.31865087 0.59148544 -0.018915134 0.20622924
0.0 0.052442607 -0.38515282 -0.6688829 0.16062918 0.97041136 0.23762758 0.8591269
-0.14981297 0.07155012 1.246743 0.45852762 0.89395934 0.15123008 -0.18447466 0.0794609
0.124370374 0.07406887 0.0700728 -0.29711345 0.83578676 -0.17858568 0.20400316 -0.0867648
-0.30318746 0.4889442 0.089237615 0.029276019 0.15233865 0.898273 -0.009529694 -0.61507547
0.20456128 0.44909877 0.32042116 0.14153965 -0.016771302 0.5332089 -0.23835874 -0.062663816
0.0067840368 0.4771948 0.07873512 0.18270145 0.5004139 0.044054862 -0.10837084 -0.28570774
0.079639755 0.065215215 -0.19873011 -0.102028444 0.3785545 0.3395567 -0.11323004 -1.0435419
0.2925834 0.52912194 0.21303472 -0.007370322 1.0840286 0.49118903 0.10347956 0.026761536
0.5379374 -0.18453611 0.08162372 -0.21133411 0.45117268 0.8229009 0.193427 0.58927935
0.83693606 0.008104587 0.6605976 0.25128025 -0.47739896 0.0008586421 0.21632197 -0.046217043
0.87829137 -0.09584003 -0.1436625 0.120245196 0.19175771 0.43974453 0.07308794 -0.44609648
0.70419717 -0.44971883 0.10194754 0.43707317 0.10927199 -0.38301772 0.2855164 0.4959169
0.11844332 0.11797765 0.24948904 0.6142402 -0.19852234 0.009037354 0.25457388 0.64385736
-0.2505502 0.06841465 -0.33855614 0.28826627 0.34590125 0.028507035 0.5413822 0.6733465
0.44056022 -0.40441218 -0.41243628 0.043152384 -0.4453127 0.400061 0.22846076 0.740718
0.14996904 0.13145125 -0.37359118 -0.69514245 0.029343268 0.2178435 -0.31077176 -0.041806463
0.0317353 -0.34828565 0.41819343 0.35368252 -0.33009377 0.0 -0.6693171 0.32808766
-0.51588625 -0.57179344 -0.38436386 -0.43789428 0.13350949 -0.1225484 -0.5526909 0.58229727
00000000: 5ca1 8a3d 3023 893f 8b9b c0be eb28 ae3e
00000010: 5216 f53e cfa6 003f 4e8f 153f 1d6d 413f
00000020: 09c0 e9be 373d a13e aeaa a0bc f209 2b3f
00000030: 5451 813e dc79 cdbe c91e 18bd 7e6f 043f
00000040: 4776 cf39 2e73 9ebc 43a3 cf3e c9e4 debe
00000050: da3f 0c3a 46a5 663f 6498 2d3f d192 003f
00000060: e6b5 133f a0fe c5be addf 2cbf dfcc b33d
00000070: f24a 833d befd 8d3e c199 d23d a77b c03e
00000080: 9afd c13e ed5c 99be b2cb 1c3f 2217 c0bc
00000090: 7b83 d13e ba9f 293f 8da4 b93e 3b2e b6be
000000a0: b475 573e fc41 663d 75ab 97bd 1e50 c13e
000000b0: b47e f2be 2409 be3e f8ca 1bbf 90c6 593e
000000c0: f290 48bf b6cd 553e 822d 64be dd23 e33e
000000d0: 92f4 793f 6d76 1fbd 9456 c1bc e3c7 4c3f
000000e0: 0a4f 9f3e 3bfa ef3d e707 1cbc 0000 0000
000000f0: 21fc 01bf 5317 113f 3e1d 91be 29c2 3cbd
00000100: ce04 bebe 2701 51be 4383 723d 25ab 9b3f
00000110: 077a 803f 7aba c4be dc99 e53e 8654 fabd
00000120: 5c63 323e 163e b93e 5a54 6fbc a990 643d
00000130: bcfb be3d 0378 a9be 4884 893e f44c 1d3f
00000140: efb8 033f 0e5b a2bd 4d58 04bf 36c5 9ebe
00000150: 4cff f83d aa77 683e 6e0e cabe ac6b b03e
00000160: d5b0 233f 9ba3 243d 9031 ecbe 3a36 e83d
00000170: 6ae3 e1be bba5 053f e52a a03b 6fce 813e
00000180: a9bf 24bf f8d6 933f 994d b4be e029 903e
00000190: a926 1dbf 65a3 cebc 1bd9 573e 1f4f 003e
000001a0: 9775 3f3f 9204 f63c 1944 6a3e 3f72 5fbd
000001b0: 3526 a33e 976b 173f e9f3 9abc c22d 533e
000001c0: 0000 0000 0fce 563d c032 c5be e93b 2bbf
000001d0: fa7b 243e e16c 783f a554 733e beef 5b3f
000001e0: 9268 19be df88 923d 4695 9f3f 22c4 ea3e
000001f0: 85da 643f 0fdc 1a3e ede6 3cbe 65bc a23d
00000200: e5b5 fe3d 6bb1 973d 5482 8f3d 411f 98be
00000210: 1ff6 553f 2adf 36be 34e6 503e beb1 b1bd
00000220: 633b 9bbe e556 fa3e 36c2 b63d 43d4 ef3c
00000230: aafe 1b3e 38f5 653f 6f22 1cbc 9675 1dbf
00000240: 8378 513e 46f0 e53e 3e0e a43e c5ef 103e
00000250: f863 89bc 6180 083f 5014 74be e355 80bd
00000260: a04c de3b e052 f43e e13f a13d 1716 3b3e
00000270: 201b 003f df72 343d 88f1 ddbd 4948 92be
00000280: 2b1a a33d 8e8f 853d e87f 4bbe 4af4 d0bd
00000290: e5d1 c13e 60da ad3e 27e5 e7bd c892 85bf
000002a0: 7ecd 953e 8974 073f c625 5a3e be82 f1bb
000002b0: 73c1 8a3f 217d fb3e 17ed d33d 023b db3c
000002c0: 44b6 093f 09f7 3cbe 562a a73d f867 58be
000002d0: 1b00 e73e a2a9 523f ba11 463e 03db 163f
000002e0: 7141 563f 1ac9 043c ed1c 293f cea7 803e
000002f0: a36d f4be 7f16 613a 8283 5d3e 154e 3dbd
00000300: b4d7 603f c747 c4bd 431c 13be 1d43 f63d
00000310: 225c 443e 3226 e13e 21af 953d c266 e4be
00000320: 4446 343f 8c41 e6be dfc9 d03d 0ec8 df3e
00000330: fec9 df3d e61a c4be 352f 923e d2e8 fd3e
00000340: 6992 f23d 449e f13d 0e7a 7f3e d93e 1d3f
00000350: 7149 4bbe 6911 143c 8257 823e d6d3 243f
00000360: 1e48 80be fb1c 8c3d 3b57 adbe a397 933e
00000370: f819 b13e 9687 e93c 0698 0a3f 7060 2c3f
00000380: 1c91 e13e 1d0f cfbe d92a d3be 8ec0 303d
00000390: 0700 e4be ccd4 cc3e 9ef1 693e b29f 3d3f
000003a0: 7c91 193e 289b 063e 5847 bfbe dbf4 31bf
000003b0: 4b61 f03c 5e12 5f3e 7a1d 9fbe 413d 2bbd
000003c0: e0fc 013d 7f52 b2be 731d d63e e015 b53e
000003d0: 0d02 a9be 0000 0000 5e58 2bbf 1bfb a73e
000003e0: 1f11 04bf 0e61 12bf 57cb c4be ae33 e0be
000003f0: b6b6 083e a8fa fabd 277d 0dbf 6f11 153f

linear2_q1.weight f4 [256, 256]
0.50217175 -0.35363188 -0.007985149 0.42418832 0.08857042 0.086832166 -0.2677829 -0.42905077
0.08738754 0.28388608 0.51031756 -0.0058474513 0.7662105 0.031482205 -0.0077674636 0.42652148
0.3887288 -0.07883791 -0.17361838 0.00027143754 -0.43817428 -0.7160518 -0.22048105 0.3831513
-0.10960145 0.18402898 0.39830598 -0.031529713 -0.7682714 -0.18275766 0.0041871853 0.61253417
-0.53468883 0.22246225 -0.20755883 -1.0519183 -0.7186166 0.16845708 -0.42098194 0.32366964
0.05461963 0.09226131 -0.025604045 -0.45611385 -0.06325885 0.22376512 0.03246801 -0.10238791
0.10374781 0.33319366 -1.1978769 -0.08078786 -0.07696603 -0.099665895 0.13957927 0.033758737
0.020347646 0.18694527 0.0049451413 -0.009604685 -0.369706 0.33263654 -0.021309135 0.42237294
0.0861099 0.58154255 0.07714409 -0.1816993 -0.2431962 0.17585322 0.25163656 0.20050032
0.34406114 -0.3880531 0.0657022 0.16750537 0.5095028 0.08299088 -0.3892902 0.45035604
0.29303095 0.91412127 0.4784023 0.25571004 0.00478675 0.81705993 0.27761757 0.011375168
0.07728734 0.34524664 0.035086032 0.02331137 -0.093654156 0.08559365 -0.1977149 0.24388254
0.18908699 -0.47105125 -0.25435394 -0.51016945 0.31635007 0.07422937 0.15881409 0.011534128
-0.17603141 -1.3786163 -0.046153072 0.30343163 -0.14515918 -0.14979339 0.29207852 0.11089137
0.038013883 0.11195488 0.39731133 0.06085879 0.35554883 0.06608635 0.24687542 0.0076391264
0.0384782 -0.016271492 -0.15637438 0.23170096 -0.6993914 -0.09429334 0.10399262 -0.27710503
-0.92813677 -0.5774849 0.05999489 0.2509132 0.3296677 0.1895511 -0.2605966 -0.13311805
-0.029657232 -1.2724204 -0.6904552 0.14442746 1.2468171 -0.20305791 0.099489115 0.6470819
-0.28498235 0.41359898 0.34731582 -0.09987817 0.37951 -0.41344693 0.011368686 0.8256685
-0.21461754 0.026637897 0.15154496 -0.04458089 -0.026328504 -0.32377434 -0.08580837 0.0628845
0.53749347 0.18997025 0.15877064 0.47042927 0.31037912 0.1331383 0.20665723 -0.7016476
-0.037089303 -0.056480348 -0.21120782 0.099840716 -0.2637256 0.21068826 0.11077765 -2.332498
0.37568775 -0.07194491 -0.0072713303 0.2650077 -0.109778695 -0.5578942 -0.14090957 -0.067889184
0.22506346 -0.06047914 -0.1236105 -0.6305557 -0.2393669 -0.085051075 0.17143212 -0.10851092
0.2928395 0.25582486 0.23701248 0.4358587 -0.008210201 0.17744203 0.44886 0.29514098
-0.09013937 0.21452218 0.1210282 -1.1623609 0.34509853 0.11357857 -0.7006775 -0.14500718
0.35515755 -0.6592979 -0.08615917 -0.63547665 -0.027157888 0.82576495 0.31963187 -0.5609336
0.2664809 -0.09494834 0.050903354 -0.49254915 -0.16085643 0.6839284 0.21400496 0.24096875
0.8240243 0.81981516 0.11624155 0.3018506 -0.039541744 -1.2488561 0.39742255 0.018579071
0.19031231 0.146415 0.23338498 0.39010835 0.04005612 -0.027224401 0.060266234 -0.066334456
-0.3312521 0.21571784 0.07891162 0.1987444 0.23482811 -0.027406767 -1.1779759 0.21066
-0.057028994 0.17187037 0.14877868 0.38537952 -0.1796777 0.12896062 0.123955816 -0.43317112
00000000: 548e 003f 3d0f b5be 24d4 02bc 362f d93e
00000010: 6964 b53d 10d5 b13d d71a 89be 8bac dbbe
00000020: 3df8 b23d 8459 913e 2ca4 023f fa9b bfbb
00000030: 5f26 443f 7cf3 003d 3586 febb 0661 da3e
00000040: 7607 c73e c575 a1bd 04c9 31be bb4f 8e39
00000050: 6158 e0be 2c4f 37bf c9c5 61be 682c c43e
00000060: ba76 e0bd 1872 3c3e c3ee cb3e 4d25 01bd
00000070: 6fad 44bf d324 3bbe a834 893b 0acf 1c3f
00000080: 5ee1 08bf 25cd 633e 4d8a 54be 42a5 86bf
00000090: 42f7 37bf 0380 2c3e f28a d7be 07b8 a53e
000000a0: d5b8 5f3d 7ff3 bc3d 93bf d1bc c187 e9be
000000b0: db8d 81bd af22 653e 2dfd 043d c1b0 d1bd
000000c0: bb79 d43d 5c98 aa3e 0854 99bf 1b74 a5bd
000000d0: 5ea0 9dbd a21d ccbd deed 0e3e 9a46 0a3d
000000e0: 1bb0 a63c 956e 3f3e da0a a23b f85c 1dbc
000000f0: 1b4a bdbe 564f aa3e 7f90 aebc 4441 d83e
00000100: 635a b03d f9df 143f b8fd 9d3d 620f 3abe
00000110: 6d08 79be de12 343e 82d6 803e f54f 4d3e
00000120: c828 b03e e5ae c6be e08e 863d 8786 2b3e
00000130: c76e 023f 1ff7 a93d 0c51 c7be 1195 e63e
00000140: 2708 963e da03 6a3f 25f1 f43e 6dec 823e
00000150: 2bda 9c3b d72a 513f e423 8e3e ea5e 3a3c
00000160: d348 9e3d 2bc4 b03e 5fb6 0f3d 7cf7 be3c
00000170: c0cd bfbd b94b af3d c675 4abe 58bc 793e
00000180: 05a0 413e a12d f1be ae3a 82be 779a 02bf
00000190: a3f8 a13e 9105 983d 29a0 223e a4f9 3c3c
000001a0: 9441 34be 8076 b0bf 010b 3dbd 645b 9b3e
000001b0: 9ca4 14be 7063 19be 518b 953e 041b e33d
000001c0: 72b4 1b3d 9a48 e53d 646c cb3e 1147 793d
000001d0: 7f0a b63e 4858 873d e9cc 7c3e a351 fa3b
000001e0: 519b 1d3d cb4b 85bc 9b20 20be 0443 6d3e
000001f0: 510b 33bf de1c c1bd 15fa d43d b6e0 8dbe
00000200: 5f9a 6dbf 0dd6 13bf 34bd 753d b277 803e
00000210: 34ca a83e af19 423e eb6c 85be 1950 08be
00000220: b9f3 f2bc acde a2bf acc1 30bf cbe4 133e
00000230: b497 9f3f 6aee 4fbe f3c0 cb3d 29a7 253f
00000240: 35e9 91be 3fc3 d33e 61d3 b13e ed8c ccbd
00000250: 224f c23e 51af d3be ba43 3a3c 035f 533f
00000260: b3c4 5bbe b837 da3c 9a2e 1b3e 749a 36bd
00000270: e0ae d7bc c0c5 a5be 4cbc afbd 97c9 803d
00000280: 2c99 093f 9087 423e c594 223e 1bdc f03e
00000290: 03ea 9e3e 6855 083e f49d 533e 2d9f 33bf
000002a0: f4ea 17bd f057 67bd dd46 58be 4a79 cc3d
000002b0: 0b07 87be aabe 573e 64df e23d a647 15c0
000002c0: 255a c03e da57 93bd 5744 eebb 17af 873e
000002d0: a7d3 e0bd 27d2 0ebf 994a 10be 7c09 8bbd
000002e0: 0977 663e fab8 77bd 8027 fdbd 196c 21bf
000002f0: 991c 75be 422f aebd e78b 2f3e f93a debd
00000300: 0fef 953e 7afb 823e 66b3 723e df28 df3e
00000310: 1484 06bc 5db3 353e fad0 e53e b81c 973e
00000320: fd9a b8bd b4ab 5b3e a2dd f73d 3ec8 94bf
00000330: c1b0 b03e e29b e83d 9a5f 33bf c37c 14be
00000340: 36d7 b53e bfc7 28bf 3874 b0bd 99ae 22bf
00000350: 387a debc 5565 533f caa6 a33e 5899 0fbf
00000360: 2f70 883e 4674 c2bd 0980 503d 672f fcbe
00000370: 8cb7 24be ee15 2f3f 1e24 5b3e 83c0 763e
00000380: 42f3 523f 68df 513f 0d10 ee3d 298c 9a3e
00000390: 86f6 21bd 84da 9fbf f87a cb3e 2333 983c
000003a0: 3be1 423e d0ed 153e 79fc 6e3e 48bc c73e
000003b0: e311 243d b505 dfbc bad9 763d 5cda 87bd
000003c0: e099 a9be 23e5 5c3e 6a9c a13d a783 4b3e
000003d0: c876 703e 2884 e0bc eac7 96bf 41b7 573e
000003e0: 3c97 69bd c9fe 2f3e 7059 183e 7750 c53e
000003f0: 6efd 37be 410e 043e 8cdc fd3d 9bc8 ddbe

linear2_q1.bias f4 [256]
-0.5742432 0.9725176 0.61776227 -0.49246868 -0.39732122 0.46508238 -0.8471595 -0.64545774
1.1444982 -0.9773834 0.051940978 -0.012841753 -0.018846888 0.012857202 -0.024210427 -0.11783937
-0.5647034 -0.607206 0.15353696 0.41152823 0.17190066 -0.72635454 0.58193684 0.4572158
-0.3355901 0.39697748 0.43802163 0.14152463 -0.41380283 0.1383506 0.26573205 0.1717862
-0.68654 0.15870084 -0.6610937 1.2465739 0.49030244 -0.088380866 0.7723767 -0.578311
0.17065085 0.22692439 0.2223689 0.12921937 -0.31889552 0.1361653 0.14472118 -0.07409068
0.1516702 0.17513411 0.5674344 0.1784575 0.17293319 -0.34517285 0.12015723 -0.86350614
0.18419138 -0.014421077 0.1752166 0.14550109 1.1512523 0.013980442 0.2928987 0.1293176
-0.17397657 0.2192302 -0.4426197 -0.18572251 0.19636433 -0.06835747 -0.32395253 1.5595824
-0.509774 -0.03546879 0.05824243 -0.5241128 0.14750811 0.6059946 0.18817048 -0.0273398
-0.14137737 -0.5225876 -0.019918513 0.54425734 0.17670974 -0.028020183 -0.18734668 0.16174655
-0.0064785453 0.058746513 -0.018442549 0.18838854 0.19067161 0.19804056 -0.522284 0.08741516
-0.005086733 0.0069335117 -0.23510848 0.4745904 0.025768625 -0.11800924 -0.6816421 0.74998295
0.2659583 -0.11971007 0.043395348 -0.7020885 0.15899411 -0.55387205 0.21973906 1.6924806
0.2806251 -0.037067536 -0.13771215 -0.17909302 0.088862725 0.02283904 0.16845003 -0.13579938
0.03457793 -0.74418694 0.13315968 -0.027508365 0.9610258 -0.09176854 -0.18659899 -0.63458437
0.1518674 0.17246135 0.51889217 0.16340412 -0.8549106 0.60277164 0.17741038 0.124019265
0.14035212 1.1535504 1.0873466 -0.05302588 -0.65627646 -0.57635844 -0.17911904 -0.024760865
0.33266062 0.06549543 0.11963807 1.3093075 -0.03391198 0.35076797 0.22810681 -1.1228082
-0.10670843 -0.022410113 -0.4810305 0.47923368 0.21727504 -0.54935604 0.38075104 0.23419347
-0.01652031 0.44813997 -0.016879778 0.54925364 0.17710567 -0.07980848 0.5092762 0.19097815
0.21692488 -0.013500201 0.38287768 -0.43624774 0.31883526 -0.6516631 -0.014629263 -0.7955727
0.15166518 -0.64171815 0.0059520784 0.5143976 -0.15416898 0.35864434 0.16156773 0.16411416
0.09222515 0.17805475 0.4307528 0.0357787 -0.07600837 0.75245017 1.0409049 0.12770486
0.096226044 -0.5411461 -0.6785912 -0.01530641 0.55969155 0.121866226 0.010077644 0.6571279
0.9885122 -0.19936852 -0.8438625 -0.5785527 0.7867243 -0.014589051 0.21979731 -0.03001669
0.19557989 0.44840887 0.6173027 -0.0015804409 0.21369624 1.5381478 -0.21168666 -0.03199409
0.3074256 0.118788056 -0.6652398 -0.02384219 0.15939695 -0.21921508 0.008949628 0.18265912
-0.0077678296 -0.55164087 -0.028369462 -0.43177217 0.5042942 -0.022606473 0.6985087 -0.015257042
-0.029521234 0.047206245 0.1784679 -0.051263165 -0.017816305 0.82761073 0.2784972 1.3080337
0.1414091 0.08102389 0.73623943 0.2712788 -0.54908365 0.18993889 -0.033795495 -0.0095180115
0.24735594 -0.028169708 -0.14785866 -0.018115293 -0.74975306 0.6060221 -0.24759199 0.70506847
00000000: 9a01 13bf eaf6 783f ab25 1e3f db24 fcbe
00000010: b06d cbbe 471f ee3e 72df 58bf b83c 25bf
00000020: eb7e 923f cc35 7abf 10c0 543d 3766 52bc
00000030: ca64 9abc 04a7 523c f254 c6bc c555 f1bd
00000040: 6790 10bf da71 1bbf cb38 1d3e d4b3 d23e
00000050: ba06 303e 5ff2 39bf d0f9 143f 3018 ea3e
00000060: 77d2 abbe a240 cb3e 5f44 e03e d5eb 103e
00000070: f7dd d3be c8ab 0d3e 080e 883e b9e8 2f3e
00000080: 16c1 2fbf 7982 223e 703d 29bf bc8f 9f3f
00000090: ec08 fb3e 0701 b5bd 7bba 453f 310c 14bf
000000a0: 19bf 2e3e de5e 683e acb4 633e 1552 043e
000000b0: 4646 a3be eb6e 0b3e ca31 143e dbbc 97bd
000000c0: 6f4f 1b3e 5b56 333e 6143 113f 90bd 363e
000000d0: 6615 313e 7fba b0be fe14 f63d bd0e 5dbf
000000e0: aa9c 3c3e 6246 6cbc fb6b 333e 3dfe 143e
000000f0: 3c5c 933f 390e 653c d2f6 953e d56b 043e
00000100: ea26 32be e27d 603e 0d9f e2be 0b2e 3ebe
00000110: bb13 493e 00ff 8bbd 1bdd a5be 65a0 c73f
00000120: 8d80 02bf b947 11bd 9d8f 6e3d 422c 06bf
00000130: 5e0c 173e 7622 1b3f c3af 403e b7f7 dfbc
00000140: 3bc5 10be 4dc8 05bf 262c a3bc 7354 0b3f
00000150: 66f3 343e 958a e5bc cfd7 3fbe e3a0 253e
00000160: fa49 d4bb 2fa0 703d d414 97bc ede8 403e
00000170: 6b3f 433e 25cb 4a3e 67b4 05bf b806 b33d
00000180: 9cae a6bb 8332 e33b 47c0 70be 83fd f23e
00000190: b918 d33c d4ae f1bd 1980 2ebf e2fe 3f3f
000001a0: b02b 883e 8e2a f5bd 52bf 313d 12bc 33bf
000001b0: 5acf 223e 8fca 0dbf 4703 613e 34a3 d83f
000001c0: 18ae 8f3e 21d4 17bd 6a04 0dbe 2964 37be
000001d0: a9fd b53d f018 bb3c 2a7e 2c3e fe0e 0bbe
000001e0: 96a1 0d3d 0983 3ebf 035b 083e 3959 e1bc
000001f0: c905 763f 25f1 bbbd ce13 3fbe 1f74 22bf
00000200: 2183 1b3e b599 303e 1ed6 043f 6953 273e
00000210: 6cdb 5abf 3e4f 1a3f 11ab 353e d0fd fd3d
00000220: 77b8 0f3e 8aa7 933f 2c2e 8b3f aa31 59bd
00000230: bc01 28bf 3a8c 13bf fb6a 37be 4cd7 cabc
00000240: 7e52 aa3e 7822 863d ce04 f53d 6397 a73f
00000250: 4ae7 0abd dc97 b33e d594 693e 2eb8 8fbf
00000260: f389 dabd 6a95 b7bc a149 f6be 1e5e f53e
00000270: 597d 5e3e 99a2 0cbf cdf1 c23e 6ad0 6f3e
00000280: 9a55 87bc 9a72 e53e 7647 8abc e39b 0c3f
00000290: 305b 353e a172 a3bd ed5f 023f c78f 433e
000002a0: 8e21 5e3e f22f 5dbc 8b08 c43e dd5b dfbe
000002b0: 603e a33e 65d3 26bf 94af 6fbc a7aa 4bbf
000002c0: 1e4e 1b3e a447 24bf a709 c33b 90af 033f
000002d0: 79de 1dbe 3ba0 b73e 0372 253e 8b0d 283e
000002e0: 8ae0 bc3d fc53 363e a28b dc3e b08c 123d
000002f0: 47aa 9bbd 93a0 403f 5f3c 853f 10c5 023e
00000300: 2912 c53d 8d88 0abf 27b8 2dbf bdc7 7abc
00000310: f247 0f3f 0095 f93d b41c 253c 8939 283f
00000320: 230f 7d3f 4327 4cbe 5f07 58bf 081c 14bf
00000330: c466 493f ea06 6fbc 8c12 613e 90e5 f5bc
00000340: 1846 483e d995 e53e 8d07 1e3f cc26 cfba
00000350: 30d3 5a3e 07e2 c43f 63c4 58be 3c0c 03bd
00000360: e366 9d3e 2747 f33d 284d 2abf b250 c3bc
00000370: f438 233e eb79 60be 76a1 123c fe0a 3b3e
00000380: 4789 febb 5638 0dbf 1367 e8bc 3e11 ddbe
00000390: 6d19 013f 3631 b9bc 77d1 323f acf8 79bc
000003a0: 84d6 f1bc 565b 413d 4ac0 363e 53f9 51bd
000003b0: 80f3 91bc 4cde 533f 2f97 8e3e a66d a73f
000003c0: 8ccd 103e daef a53d 307a 3c3f 0ee5 8a3e
000003d0: bf90 0cbf 577f 423e 256d 0abd 6ff1 1bbc
000003e0: e04a 7d3e 29c4 e6bc 4368 17be 8666 94bc
000003f0: d1ef 3fbf 4424 1b3f c188 7dbe 5e7f 343f

linear3_q1.weight f4 [1, 256]
-0.52648085 0.78329444 1.3113871 -1.327551 -2.8283763 2.6146598 -1.3359635 -0.5824251
1.0385206 -0.8360346 -2.4403594 0.027541293 -0.1291705 -3.2687464 0.01556505 -3.1067288
-0.40163407 -3.9347053 1.6613052 1.3908007 1.8935429 -0.5766926 0.96491313 2.1294806
-1.3195344 2.2084255 1.9557259 1.8640459 -1.7103511 -5.428708 3.6486619 2.5959568
-0.4041112 1.9086175 -0.31396675 0.88182616 3.3208942 -5.8315005 1.010673 -1.2324651
-6.0342636 1.8743558 2.4576206 -1.0925914 -3.5892766 -4.445536 1.5677578 -9.214239
1.6735615 1.6537234 2.6407094 1.6497601 1.6835694 -1.554094 3.557791 -0.8736615
1.7046646 0.11408819 2.491831 1.7712253 1.2084318 -3.8875914 4.024598 1.639846
-2.423911 1.2233225 -2.030645 -1.2864516 2.2565653 -8.980785 -0.8347008 0.7908236
-1.2220725 0.11257419 -5.073031 -0.5833518 1.7986093 1.707191 2.1054475 0.0070990403
-3.7240558 -1.403945 0.01841702 1.5069181 1.5593367 0.039723534 -7.21908 1.9618526
0.08964879 -3.3736217 0.028084086 1.1483926 1.8868723 4.0184164 -0.6059058 1.4543973
-2.5764353 -9.787969 -2.121543 2.0529966 -1.7100327 -3.4251492 -0.8356285 1.2639983
2.6571503 -3.8211586 -7.223762 -1.2868389 1.347993 -0.6778998 4.8431134 0.9831578
3.6589067 0.03757699 -2.9428027 1.4141611 -3.4420497 -7.2528315 1.4482723 -2.7461467
-7.581153 -0.29084542 2.0633624 0.03024916 1.4698944 -3.5010355 -1.8720841 -2.2589054
1.9185554 1.3288275 2.562518 1.6474018 -0.7149004 0.6613875 -10.663591 1.6959045
1.9598448 0.9168073 1.0402431 -3.229927 -0.58501273 -1.4692805 -3.4508164 -0.07464181
2.065813 5.8382344 1.1589521 0.75442314 -3.357716 0.8319109 2.0136745 -0.8597372
-6.5314 -0.091510296 -1.1311339 2.7793765 -3.525789 0.9519211 2.4140434 2.2190638
-5.377469 1.8577933 -0.032090805 1.9013342 1.6048825 -4.0812764 1.788432 1.7225758
1.859393 -0.07019218 2.4544764 -0.5212925 3.253824 -0.55463237 0.107204325 -1.9933131
1.641385 -0.2488546 -2.027624 2.6429863 -3.2855325 2.4134583 1.9566429 1.6306839
-5.0960956 2.1129365 3.78501 -2.9511359 -4.7596755 0.79643685 0.71341735 1.7683737
1.5160574 -0.6211114 -0.3432007 -5.6257772 2.6247208 1.6904103 0.9625897 1.2986224
1.3202388 -1.5996019 -0.7499951 -0.50622725 1.4044536 0.12341558 4.1152606 0.005516631
1.3223429 0.7696499 2.4554844 -6.1126275 2.699947 0.64483976 -1.3628557 -0.0058306144
1.5014626 4.1048193 -0.59009355 -5.6386685 1.9010124 -1.87042 -5.373909 1.2868054
0.028017703 -0.25542358 0.11472436 -1.452834 2.1552927 0.05536254 1.0213096 0.08166552
-2.77281 -4.423427 1.7524763 -3.0712023 -4.458551 0.66420746 2.8308604 0.36971173
1.9855471 -7.7754803 1.1163695 2.7012243 -1.3727036 1.541163 0.10044169 0.10595626
3.7659163 0.04503251 -4.3307514 0.1263267 -0.9568555 0.8613191 -0.8920818 1.1755409
00000000: 73c7 06bf fc85 483f 88db a73f 31ed a9bf
00000010: 1e04 35c0 9656 2740 da00 abbf d019 15bf
00000020: 3eee 843f 5d06 56bf d92e 1cc0 479e e13c
00000030: 4645 04be 2433 51c0 8d04 7f3c a5d4 46c0
00000040: fba2 cdbe 36d2 7bc0 a6a5 d43f c205 b23f
00000050: 9d5f f23f 20a2 13bf 8c04 773f 6949 0840
00000060: 81e6 a8bf d856 0d40 3a55 fa3f 0e99 ee3f
00000070: c9ec dabf fab7 adc0 ad83 6940 2824 2640
00000080: aae7 cebe 944d f43f 40c0 a0be 5cbf 613f
00000090: 8889 5440 a79b bac0 bc5d 813f 6bc1 9dbf
000000a0: b018 c1c0 e4ea ef3f a849 1d40 09da 8bbf
000000b0: b5b6 65c0 d541 8ec0 4aac c83f 866d 13c1
000000c0: 4337 d63f 35ad d33f 6201 2940 572b d33f
000000d0: 347f d73f 8dec c6bf d9b2 6340 48a8 5fbf
000000e0: 7332 da3f 12a7 e93d 297a 1f40 83b7 e23f
000000f0: e5ad 9a3f 4cce 78c0 82c9 8040 79e6 d13f
00000100: 5c21 1bc0 d595 9c3f 16f6 01c0 72aa a4bf
00000110: 916b 1040 4cb1 0fc1 f4ae 55bf 6a73 4a3f
00000120: df6c 9cbf 4c8d e63d 4556 a2c0 8b56 15bf
00000130: d438 e63f 3c85 da3f a7bf 0640 119f e83b
00000140: ee56 6ec0 78b4 b3bf 4adf 963c b1e2 c03f
00000150: 5898 c73f 25b5 223d b402 e7c0 fc1d fb3f
00000160: c999 b73d 6be9 57c0 9910 e63c 87fe 923f
00000170: 0885 f13f de96 8040 a41c 1bbf b129 ba3f
00000180: 51e4 24c0 859b 1cc1 5cc7 07c0 4c64 0340
00000190: 5ae2 dabf a535 5bc0 c0eb 55bf b2ca a13f
000001a0: c00e 2a40 dd8d 74c0 0f29 e7c0 23b7 a4bf
000001b0: 098b ac3f d78a 2dbf c9fa 9a40 3bb0 7b3f
000001c0: 872b 6a40 54ea 193d e156 3cc0 3b03 b53f
000001d0: 8b4a 5cc0 3217 e8c0 fd60 b93f dec0 2fc0
000001e0: ce98 f2c0 b1e9 94be 210e 0440 16cd f73c
000001f0: 8025 bc3f f710 60c0 74a0 efbf e891 10c0
00000200: 3993 f53f 0517 aa3f 4b00 2440 10de d23f
00000210: b603 37bf b150 293f 129e 2ac1 6613 d93f
00000220: 32dc fa3f e2b3 6a3f b026 853f 20b7 4ec0
00000230: 65c3 15bf 6211 bcbf 2dda 5cc0 cedd 98bd
00000240: 4836 0440 d1d2 ba40 8b58 943f e021 413f
00000250: d2e4 56c0 1df8 543f 0be0 0040 bd17 5cbf
00000260: 3b01 d1c0 c069 bbbd ffc8 90bf 4ee1 3140
00000270: 87a6 61c0 1ab1 733f b07f 1a40 2405 0e40
00000280: 3a14 acc0 2ccc ed3f a671 03bd eb5e f33f
00000290: ca6c cd3f d199 82c0 57eb e43f 5d7d dc3f
000002a0: 9700 ee3f ebc0 8fbd 2416 1d40 6d73 05bf
000002b0: a73e 5040 63fc 0dbf f18d db3d e224 ffbf
000002c0: e718 d23f bed3 7ebe 97c4 01c0 b026 2940
000002d0: 2a46 52c0 1a76 1a40 4673 fa3f 40ba d03f
000002e0: 3713 a3c0 5a3a 0740 9b3d 7240 69df 3cc0
000002f0: 434f 98c0 49e3 4b3f 85a2 363f 125a e23f
00000300: 2b0e c23f 2801 1fbf 01b8 afbe 5e06 b4c0
00000310: 6dfb 2740 5d5f d83f 476c 763f 4239 a63f
00000320: 96fd a83f c1bf ccbf aeff 3fbf 1c98 01bf
00000330: 23c5 b33f 4fc1 fc3d 37b0 8340 dbc4 b43b
00000340: 8842 a93f c707 453f a826 1d40 a59a c3c0
00000350: efcb 2c40 3814 253f 0e72 aebf bd0e bfbb
00000360: ed2f c03f ae5a 8340 5f10 17bf f96f b4c0
00000370: 6054 f33f ec69 efbf 10f7 abc0 0ab6 a43f
00000380: 6285 e53c e1c6 82be 9bf4 ea3d 77f6 b9bf
00000390: 51f0 0940 d5c3 623d 46ba 823f 4140 a73d
000003a0: b875 31c0 b78c 8dc0 2551 e03f 948e 44c0
000003b0: 73ac 8ec0 8009 2a3f d12c 3540 db4a bd3e
000003c0: 6826 fe3f bcd0 f8c0 32e5 8e3f dce0 2c40
000003d0: c0b4 afbf d444 c53f 5fb4 cd3d 98ff d83d
000003e0: c604 7140 0274 383d 8495 8ac0 c95b 013e
000003f0: 7bf4 74bf 697f 5c3f 795f 64bf 2078 963f

linear1_q2.weight f4 [256, 26]
-0.030160083 0.2401671 -0.07609882 -0.5568173 -0.8727075 -1.2819909 -0.75933033 0.23489502
0.25254402 0.54823035 0.48017544 0.08705159 0.064657606 0.12578048 -0.043764144 -0.08318297
-0.018078916 0.3129469 -0.12240667 -0.32916954 0.13734445 -1.021261 1.0690747 -0.6949728
0.6927875 1.1159092 0.16827162 0.22151856 0.018584853 -0.08720438 0.13548502 -0.11933079
-0.14463729 -0.2332297 -0.03797395 0.18184802 0.09307972 0.074325226 0.048697546 0.25917548
0.06741611 -0.052217014 0.019588493 0.08352384 0.21344166 0.012372129 0.30054852 0.56639767
0.8094255 -2.6406322 -0.13224238 0.18263432 -0.041538473 0.067338064 0.16105153 -0.049118467
-0.21803121 -0.5063177 -0.23269673 0.21193469 0.1371887 -0.24778163 -0.08217722 0.20848125
0.4003745 0.32343754 -0.25555676 -0.6145728 0.06942175 0.3009162 0.30207625 0.32033554
0.1427352 -0.13763879 0.6118955 -2.5329306 0.538958 0.112107925 0.21439669 0.05841591
0.09529234 -0.010874711 0.054227624 0.060712244 -0.10824798 -0.21108599 -0.1724703 0.08953679
0.17943841 0.34015244 0.15087493 -0.36939427 -1.1602087 -1.8172895 -0.21370824 -0.1554025
0.14029516 0.34490642 0.15934375 0.14910015 1.4250453 1.0850371 1.0413204 -0.2896143
-0.007622616 -0.06473475 -0.038327236 -0.0049234987 0.055911098 0.09300506 0.034776427 -0.040572558
0.12496094 0.21095492 0.13406579 0.112430185 0.21413274 0.16631323 0.046441242 0.14025049
0.044811815 0.060928896 0.03299775 0.02691143 -0.018301418 0.027595429 0.30905595 -1.8694352
0.06675976 0.063229054 0.023362985 0.021855094 0.13391994 0.019135807 -0.040194053 0.036408555
-0.05564592 0.005922839 0.08504733 0.25035715 0.38506687 0.27554917 0.011340579 -0.08960757
0.12732781 -0.030154146 -0.00029188662 0.13683885 0.12534909 -0.03294332 0.009374797 -0.29151446
0.6842453 -2.2277753 0.22519305 -0.094944686 -0.82240325 -0.34183946 0.39347854 0.38631704
0.10902822 0.18568544 0.08167406 0.048680197 -0.122334115 0.08512522 0.029419346 -0.031694446
-0.13971484 0.066635095 0.024162907 0.08089934 -0.28925392 -0.06935917 -0.15003689 0.107722424
-0.62701726 -0.41249642 0.20051916 -2.0738564 -0.33821988 -0.6266989 -0.1741235 -0.23916446
-0.21704437 0.39415213 -0.0439028 -0.24441727 -0.020595754 0.08958149 -0.14562456 -0.063718975
0.26136217 -0.034349754 -0.03463848 -0.33230865 -0.17450559 -0.05883743 0.15823546 0.33245015
-0.059978385 0.29716855 0.12602061 -1.6944617 0.80468094 -2.248132 -0.9001048 -0.76403815
0.035188057 0.33621287 0.21889101 0.019168984 -0.020047903 0.046215434 -0.5166143 -0.08824883
0.39714816 0.1406432 0.0771362 0.17403945 0.08068636 -0.33591166 0.022588203 0.3924309
-0.20901716 -0.2074609 -0.23470812 0.13310483 0.13752714 -0.104419835 2.1648483 0.12525538
-0.18949147 0.45499077 0.42675453 0.07988692 -0.28690174 0.039124753 0.12055767 -0.17766047
-0.29198143 -0.30304405 -0.289255 -0.27883258 -0.1710269 -0.27636126 0.071576186 0.35086215
0.25989568 0.33690017 -0.2458216 -0.4552512 -0.38063267 0.2218913 -1.2053546 0.4704165
00000000: 4712 f7bc 5dee 753e b3d9 9bbd 948b 0ebf
00000010: c269 5fbf 4718 a4bf 7963 42bf 5288 703e
00000020: 734d 813e d358 0c3f 8ed9 f53e 1b48 b23d
00000030: 356b 843d 99cc 003e 0842 33bd d55b aabd
00000040: 3c1a 94bc 933a a03e 59b0 fabd e988 a8be
00000050: 06a4 0c3e aeb8 82bf 71d7 883f bde9 31bf
00000060: 865a 313f 1dd6 8e3f 654f 2c3e c3d5 623e
00000070: 433f 983c 3698 b2bd 96bc 0a3e b463 f4bd
00000080: cc1b 14be c4d3 6ebe 938a 1bbd 5e36 3a3e
00000090: 95a0 be3d d337 983d 1477 473d a6b2 843e
000000a0: 7511 8a3d 82e1 55bd 0c78 a03c 8c0e ab3d
000000b0: 7390 5a3e 78b4 4a3c 7fe1 993e 70ff 103f
000000c0: 8236 4f3f 1e00 29c0 8c6a 07be 7e04 3b3e
000000d0: 3f24 2abd 8ae8 893d b1ea 243e 7230 49bd
000000e0: 9343 5fbe 099e 01bf 0d48 6ebe 6805 593e
000000f0: 327b 0c3e 78ba 7dbe 884c a8bd 1c7c 553e
00000100: e3fd cc3e 9b99 a53e 56d8 82be a554 1dbf
00000110: fe2c 8e3d b011 9a3e bda9 9a3e 0503 a43e
00000120: 2d29 123e 2ff1 0cbe 2fa5 1c3f 891b 22c0
00000130: 27f9 093f d798 e53d ce8a 5b3e 8545 6f3d
00000140: a128 c33d d82b 32bc c91d 5e3d 67ad 783d
00000150: 1eb1 ddbd ed26 58be 0e9c 30be 115f b73d
00000160: b4be 373e 7628 ae3e f57e 1a3e 3f21 bdbe
00000170: b881 94bf f19c e8bf 55d6 5abe d521 1fbe
00000180: 89a9 0f3e 9397 b03e 022b 233e b6ad 183e
00000190: e267 b63f 7fe2 8a3f fd49 853f 5348 94be
000001a0: 23c7 f9bb a793 84bd 05fd 1cbd 4d55 a1bb
000001b0: 0903 653d 7079 be3d ba71 0e3d 692f 26bd
000001c0: 85eb ff3d 9104 583e 8b48 093e cc41 e63d
000001d0: 9d45 5b3e 044e 2a3e 2c39 3e3d d39d 0f3e
000001e0: 988c 373d 9490 793d a628 073d 5c75 dc3c
000001f0: dbec 95bc cf0f e23c 953c 9e3e a749 efbf
00000200: 57b9 883d 3c7e 813d bb63 bf3c 7409 b33c
00000210: 4f22 093e b2c2 9c3c 85a2 24bd 2321 153d
00000220: faec 63bd 6014 c23b 4b2d ae3d d02e 803e
00000230: 7c27 c53e c814 8d3e d6cd 393c 2c84 b7bd
00000240: 3962 023e d405 f7bc 5c08 99b9 7c1f 0c3e
00000250: 835b 003e 93ef 06bd c098 193c 6241 95be
00000260: b32a 2f3f df93 0ec0 0299 663e 5c72 c2bd
00000270: 0589 52bf 9505 afbe 0576 c93e 59cb c53e
00000280: 304a df3d 5324 3e3e bb44 a73d e364 473d
00000290: 4f8a fabd 2256 ae3d d700 f13c 09d2 01bd
000002a0: 6811 0fbe fb77 883d 4af1 c53c 8eae a53d
000002b0: 1719 94be 2e0c 8ebd 45a3 19be 939d dc3d
000002c0: 3484 20bf bb32 d3be e554 4d3e 10ba 04c0
000002d0: 282b adbe 576f 20bf 6e4d 32be 87e7 74be
000002e0: e140 5ebe 4fce c93e 6cd3 33bd 8548 7abe
000002f0: 6db8 a8bc 8076 b73d 9b1e 15be 187f 82bd
00000300: 43d1 853e 54b2 0cbd 14e1 0dbd 5c24 aabe
00000310: 98b1 32be 84ff 70bd 7a08 223e e836 aa3e
00000320: e5ab 75bd 7a26 983e 8c0b 013e 1fe4 d8bf
00000330: 92ff 4d3f 65e1 0fc0 456d 66bf 0198 43bf
00000340: 5a21 103d 1824 ac3e f724 603e 4608 9d3c
00000350: 803b a4bc 654c 3d3d d640 04bf cdbb b4bd
00000360: 0157 cb3e c504 103e 96f9 9d3d 6637 323e
00000370: e43e a53d 9dfc abbe e50a b93c b4ec c83e
00000380: 9808 56be a170 54be 5357 70be a24c 083e
00000390: ead3 0c3e 11da d5bd e08c 0a40 f242 003e
000003a0: 0d0a 42be 8df4 e83e 927f da3e c19b a33d
000003b0: c9e4 92be 4741 203d f1e6 f63d a0ec 35be
000003c0: 977e 95be 9728 9bbe 3b19 94be 25c3 8ebe
000003d0: ad21 2fbe 397f 8dbe 8996 923d 34a4 b33e
000003e0: 0c11 853e 2e7e ac3e a8b8 7bbe af16 e9be
000003f0: 49e2 c2be 7937 633e 0f49 9abf 6eda f03e

linear1_q2.bias f4 [256]
-0.07468821 0.86342746 0.8130063 0.36541235 1.3393761 1.1554242 0.5882598 0.7352418
-0.3521502 0.61218596 0.026813969 -0.44776756 0.055553053 0.081531316 -0.09899251 1.0963646
-0.39069742 0.16465132 -0.3622106 0.052823614 0.43322536 0.116273046 -0.24757291 0.640932
-0.03476914 0.6377602 0.12869157 0.09658907 -0.032430395 -0.14686483 0.6955324 -0.48007283
-0.34228632 0.91725785 -0.047382984 1.0416292 0.09421617 0.05556538 0.7937022 0.20022961
0.1398458 0.20954244 -0.2706751 0.75710404 0.69870305 0.089373246 0.58281636 0.5145121
0.418198 0.11137283 -0.9656241 0.9130465 0.7849833 0.8804042 -0.07475135 -0.05020245
0.24260245 1.1730847 0.43895712 0.18952256 -0.46152192 -0.55309534 0.15254925 0.1341348
0.052166883 0.5319294 0.79955107 -0.7142363 -0.21681847 0.3522488 0.10141012 -0.051988613
0.49569997 0.26510698 0.88987577 -0.0616894 -0.07524152 0.24222429 -0.077855386 0.23022583
0.5302774 0.12154928 0.49150282 0.9834408 0.96653444 0.6775123 -0.54775727 -0.6572486
0.1604282 -0.38031533 0.10711774 -0.10059844 0.3026863 -0.30617887 -0.055532113 -0.50239897
0.686158 -0.43672687 0.8763884 0.17408106 -0.02648279 0.44078025 0.37279 -0.028695295
0.13117296 0.25900376 0.86811846 -0.52158564 0.069039755 0.18513778 0.306529 -0.23433205
-0.43116874 0.20892853 0.48381028 1.0498809 -0.31970266 0.08652032 0.3602667 0.15815559
-0.34596303 0.69903356 0.7757293 0.027072364 -0.03814389 0.369962 0.9084849 -0.3743985
0.021795446 -0.52390873 -0.23415874 -0.5089043 0.29121926 -0.04218047 0.37024125 0.3338223
0.14024565 -0.009529734 -0.37976253 -0.7304007 0.31682587 0.6287673 -0.7445116 -0.21257962
-0.01762543 0.5360927 -0.08087402 0.20292124 0.23479483 -0.14263743 0.5414268 0.7889603
-0.31157103 -0.031857017 0.6097596 0.9036434 0.48975685 0.22279398 -0.730299 0.18990664
-0.23536974 0.025890334 -0.39801514 0.20696057 0.70988435 0.23212223 0.35453847 -0.08532332
0.23374684 -0.16615309 0.9527821 0.43912858 0.152985 -0.3885814 0.23059249 0.048711296
0.3028788 -0.23395118 -0.09384652 -0.31133756 -0.589064 -0.2156397 -0.44254532 0.23508151
-0.14764683 0.15368822 -0.021046482 -0.8889117 -0.18095143 -0.30089077 0.89242923 -0.11702532
-0.08259027 -0.22331777 0.29540625 0.17234363 0.14533402 0.49142972 0.6531049 -0.66515714
0.25456864 0.7094457 0.192354 0.17588429 -0.28585374 -0.64300746 -0.010053899 0.75339884
-0.0065609873 0.06941296 0.51069444 -0.02423942 -0.048738882 0.18422553 0.029875042 -0.013205159
-0.09358052 -0.40751812 0.29778773 0.71813685 0.1664764 0.07598451 0.1858492 0.37680522
-0.37981686 0.45451975 0.18661913 0.037330553 0.18230613 0.54403657 0.52985555 -0.57090646
-0.4146105 -0.1042019 0.76894796 0.14616774 -0.043307237 -0.16710246 0.1561085 -0.13520437
0.60676783 0.05126443 0.7092033 -0.37113872 -0.18653889 0.115671396 -0.40493155 0.3675819
0.6443085 0.12565173 0.33593845 -0.074106306 0.08266038 -0.3744916 -0.714558 -0.27394834
00000000: 22f6 98bd 9509 5d3f 2e21 503f 5417 bb3e
00000010: ad70 ab3f f1e4 933f 3298 163f ce38 3c3f
00000020: 084d b4be 38b8 1c3f f8a8 db3c ca41 e5be
00000030: 998b 633d e4f9 a63d 96bc cabd ad55 8c3f
00000040: 7e09 c8be 5b9a 283e ab73 b9be 935d 583d
00000050: b7cf dd3e 9020 ee3d c183 7dbe 1f14 243f
00000060: 166a 0ebd 4144 233f b9c7 033e 7ed0 c53d
00000070: bcd5 04bd bc63 16be 690e 323f 1bcc f5be
00000080: 2740 afbe 69d1 6a3f a914 42bd 1b54 853f
00000090: 68f4 c03d 8698 633d 1130 4b3f fe08 4d3e
000000a0: bd33 0f3e 4b92 563e ed95 8abe 92d1 413f
000000b0: 34de 323f 5209 b73d 7433 153f 11b7 033f
000000c0: 0c1e d63e 7017 e43d 2433 77bf 6abd 693f
000000d0: aaf4 483f 2b62 613f 3c17 99bd 16a1 4dbd
000000e0: c76c 783e a427 963f fdbe e03e 3412 423e
000000f0: 9a4c ecbe a897 0dbf df35 1c3e a25a 093e
00000100: f1ac 553d 862c 083f 61af 4c3f 31d8 36bf
00000110: a905 5ebe f459 b43e 1cb0 cf3d 03f2 54bd
00000120: 63cc fd3e 1abc 873e e6ce 633f 06ae 7cbd
00000130: 3a18 9abd a509 783e a572 9fbd 52c0 6b3e
00000140: 42c0 073f d4ee f83d 42a6 fb3e c7c2 7b3f
00000150: cd6e 773f 7271 2d3f d239 0cbf 7241 28bf
00000160: 4a47 243e b1b8 c2be 8c60 db3d 8e06 cebd
00000170: b3f9 9a3e 7ac3 9cbe a475 63bd 389d 00bf
00000180: 0da8 2f3f aa9a dfbe fd5a 603f 4e42 323e
00000190: 70f2 d8bc f3ad e13e 55de be3e 6512 ebbc
000001a0: 3452 063e 249c 843e 033d 5e3f a386 05bf
000001b0: b764 8d3d c294 3d3e 5ef1 9c3e bef4 6fbe
000001c0: 26c2 dcbe 5cf1 553e fbb5 f73e 7f62 863f
000001d0: 11b0 a3be 9131 b13d e074 b83e 8af3 213e
000001e0: 1122 b1be ddf3 323f 3296 463f ddc6 dd3c
000001f0: c53c 1cbd a96b bd3e 7792 683f 29b1 bfbe
00000200: 5d8c b23c e21e 06bf 4fc7 6fbe 8d47 02bf
00000210: b11a 953e 6ec5 2cbd 4390 bd3e c2ea aa3e
00000220: 8e9c 0f3e 9a22 1cbc 3c70 c2be 8afb 3abf
00000230: 0037 a23e e5f6 203f 5098 3ebf 79ae 59be
00000240: 3563 90bc 5f3d 093f 47a1 a5bd 96ca 4f3e
00000250: 0e6e 703e 8c0f 12be f29a 0a3f 4df9 493f
00000260: 3d86 9fbe 817c 02bd 3519 1c3f 2d55 673f
00000270: 69c1 fa3e 1b24 643e e0f4 3abf e376 423e
00000280: c404 71be f717 d43c a4c8 cbbe 79ed 533e
00000290: fbba 353f 73b1 6d3e 1186 b53e febd aebd
000002a0: 555b 6f3e 0924 2abe 87e9 733f 76d5 e03e
000002b0: 1aa8 1c3e 24f4 c6be 7020 6c3e 7f85 473d
000002c0: ee12 9b3e e690 6fbe 9b32 c0bd a367 9fbe
000002d0: e6cc 16bf a7d0 5cbe 4d95 e2be 35b9 703e
000002e0: bb30 17be 7260 1d3e ac69 acbc b88f 63bf
000002f0: 554b 39be 5b0e 9abe 3e76 643f f9aa efbd
00000300: 1625 a9bd 6aad 64be 7d3f 973e d97a 303e
00000310: 71d2 143e ad9c fb3e e231 273f bd47 2abf
00000320: d256 823e 3c9e 353f 72f8 443e 031b 343e
00000330: 6c5b 92be 239c 24bf 1cb9 24bc bfde 403f
00000340: 8dfd d6bb 6228 8e3d dfbc 023f c091 c6bc
00000350: 6ca2 47bd 9ea5 3c3e 81bc f43c 745a 58bc
00000360: 25a7 bfbd 37a6 d0be a277 983e d1d7 373f
00000370: ca78 2a3e c49d 9b3d 414f 3e3e 9dec c03e
00000380: 5b77 c2be d0b6 e83e 1619 3f3e ece7 183d
00000390: 75ae 3a3e fb45 0b3f 9da4 073f ed26 12bf
000003a0: d447 d4be ce67 d5bd c6d9 443f ffac 153e
000003b0: ee62 31bd e81c 2bbe e8da 1f3e 0473 0abe
000003c0: 2355 1b3f a7fa 513d 598e 353f e505 bebe
000003d0: 0d04 3fbe 20e5 ec3d 3053 cfbe b233 bc3e
000003e0: 67f1 243f d9aa 003e 2000 ac3e 0cc5 97bd
000003f0: d849 a93d 5dbd bfbe 46ed 36bf f542 8cbe

linear2_q2.weight f4 [256, 256]
-0.73306775 0.21344012 0.13079001 -0.8012226 0.2668607 0.24625997 -0.07478747 -0.074934736
-0.14662874 -0.12667672 0.16899392 0.2992218 -0.268172 0.59949267 -0.74010295 0.3157331
-0.01676035 -0.39946818 -0.52542996 0.32183558 -0.028665688 0.09064484 -0.2783557 -0.21963724
-1.2958716 -0.4299379 0.045503378 0.34971446 0.9346784 -0.2971218 -0.311153 0.02392148
-0.49535698 0.19690846 0.10411474 0.525389 0.12981643 0.28581566 0.34982765 -0.68254673
-0.51197064 0.3362604 0.041657034 0.045390002 -0.09802867 -0.39663732 -0.5627557 -0.09372583
0.40765005 -0.7450943 0.17175597 0.31320047 0.08298364 0.3512553 -0.12494037 0.0792675
-0.37771735 0.36978194 -0.07518535 -0.2523439 0.20079225 0.01534571 0.61740965 -0.11452892
-0.29653224 -0.7472793 0.23484403 -0.46821192 -0.4579332 0.24804899 -1.1035208 0.3975648
0.39961928 0.09457472 0.15115498 -0.40494704 0.04417149 -0.24451855 -0.13244125 -0.17969586
0.0004631241 0.7495521 0.17782 0.084284216 -0.024490656 0.2969162 -0.03607641 0.08456185
-0.38123885 -0.22493716 -0.4195712 0.037036188 -0.8548249 0.06503138 0.622455 -0.22192922
-0.18835913 -0.0965042 0.17012554 0.6652458 0.06449543 0.27686557 0.05405826 -0.14692155
-0.045897577 -0.45209998 0.24085887 -0.37438476 -0.16271852 -0.023067297 -0.18723628 0.8222774
0.04073075 -0.13101472 -0.6535319 0.07888183 -0.22955449 -0.05166298 -0.61590195 -0.87784594
-0.057219174 -0.73286116 0.38764206 -0.037123576 -0.39821222 -0.20922652 -0.21296385 -0.11315953
0.21498978 -0.16231242 0.4820917 -0.5790013 -0.80741787 -0.24328835 -0.15602183 0.06077058
-0.45179048 0.05344314 -0.4059265 0.009320883 -0.30160844 -0.5810375 -0.038087826 -0.9551159
0.083392225 0.27279127 -0.0955277 -0.59936464 0.7142119 0.396627 0.19506308 0.15645973
0.32401067 -0.012474751 0.477479 0.46672162 0.32593825 -0.27233383 -0.1896163 -0.30961692
-0.03461841 -0.7013134 0.093175314 0.17985196 0.29970723 -1.3345854 -0.36783117 0.40009364
0.49357986 0.07921493 0.4033836 -0.15886435 0.1910466 -0.2506313 -0.34258485 0.39642528
0.21852614 -0.15145609 0.16938835 0.035167966 -0.19520733 -0.39399832 0.13333356 0.7747108
-0.5574229 0.21333244 -0.5135986 -0.051795308 -0.26402846 -0.37189916 0.34062934 -0.55015975
-0.009994355 -0.24257165 0.1768423 -0.30555463 -0.14345844 0.6780648 0.003940912 0.10485982
-0.8996159 0.29927152 -0.16264594 0.107155494 0.13917246 -0.88981974 -0.17482924 -0.14591385
-0.7547159 -0.2617933 0.5916879 0.0053584087 -0.24019377 0.37526628 0.26148662 -0.94434404
0.40465382 0.33728552 0.3562396 -0.33841765 0.29005674 -0.37361687 0.46504617 0.47478575
-0.0059622857 -0.26729858 0.051792096 0.017782437 -0.23797193 -0.25698525 0.34244213 -1.2107311
-0.46375233 -0.16703737 -0.22898951 -0.15119928 -0.08090559 -0.47659463 0.18330348 0.025754841
0.16194266 -0.2491546 0.11560521 0.27317515 0.103676625 -0.8595373 -0.16155927 -0.3804024
0.22545616 0.6426714 -0.14945678 -0.8623951 -0.7165861 0.007854778 -0.26250896 -0.53287286
00000000: 54aa 3bbf 0c90 5a3e d1ed 053e ed1c 4dbf
00000010: f7a1 883e 932b 7c3e 2c2a 99bd 6277 99bd
00000020: d825 16be 8bb7 01be be0c 2d3e 9a33 993e
00000030: d74d 89be 5a78 193f 6377 3dbf c5a7 a13e
00000040: 004d 89bc 1887 ccbe 9482 06bf a2c7 a43e
00000050: 4ed4 eabc 00a4 b93d a384 8ebe 96e8 60be
00000060: 1fdf a5bf d220 dcbe c061 3a3d c60d b33e
00000070: 1547 6f3f 5920 98be 724f 9fbe fbf6 c33c
00000080: 6e9f fdbe 5fa2 493e 1c3a d53d e57f 063f
00000090: 99ee 043e 6e56 923e 9c1c b33e 62bb 2ebf
000000a0: 8210 03bf 532a ac3e 91a0 2a3d deea 393d
000000b0: 41c3 c8bd 0c14 cbbe c210 10bf 54f3 bfbd
000000c0: 82b7 d03e 80be 3ebf cce0 2f3e d05b a03e
000000d0: 54f3 a93d bcd7 b33e bde0 ffbd 0057 a23d
000000e0: 2b64 c1be 0f54 bd3e c7fa 99bd 3833 81be
000000f0: 7c9c 4d3e 936c 7b3c 8f0e 1e3f 238e eabd
00000100: 13d3 97be b24d 3fbf f47a 703e 79b9 efbe
00000110: 3876 eabe 8e00 7e3e 2b40 8dbf 9d8d cb3e
00000120: e69a cc3e 64b0 c13d 5fc8 1a3e 3855 cfbe
00000130: 2aed 343d 1263 7abe ae9e 07be 3102 38be
00000140: 77cf f239 a5e2 3f3f 7216 363e 349d ac3d
00000150: a1a0 c8bc 6605 983e dcc4 13bd c32e ad3d
00000160: bd31 c3be ed55 66be 09d2 d6be 42b3 173d
00000170: ced5 5abf 2c2f 853d 3659 1f3f 6a41 63be
00000180: 37e1 40be fea3 c5bd 6435 2e3e 8c4d 2a3f
00000190: 2e16 843d 53c1 8d3e 326c 5d3d 9a72 16be
000001a0: 19ff 3bbd a679 e7be b5a3 763e 5caf bfbe
000001b0: af9f 26be a1f7 bcbc deba 3fbe c680 523f
000001c0: 49d5 263d b928 06be de4d 27bf cc8c a13d
000001d0: 5510 6bbe 909c 53bd c0ab 1dbf 83ba 60bf
000001e0: a75e 6abd ca9c 3bbf 0579 c63e e40e 18bd
000001f0: 79e2 cbbe 7a3f 56be 3213 5abe 2fc0 e7bd
00000200: 4826 5c3e 3a35 26be b9d4 f63e 6e39 14bf
00000210: f0b2 4ebf 9520 79be 30c4 1fbe 92ea 783d
00000220: 1551 e7be 32e7 5a3d 99d5 cfbe 9eb6 183c
00000230: 6c6c 9abe e0be 14bf fb01 1cbd 7a82 74bf
00000240: 8bc9 aa3d 4cab 8b3e 07a4 c3bd f66f 19bf
00000250: 97d6 363f b212 cb3e 9ebe 473e fb36 203e
00000260: bae4 a53e e662 4cbc 2178 f43e 23f6 ee3e
00000270: 61e1 a63e 576f 8bbe c62a 42be 1c86 9ebe
00000280: 09cc 0dbd 4689 33bf b3d2 be3d 1d2b 383e
00000290: 3a73 993e b2d3 aabf 5e54 bcbe 13d9 cc3e
000002a0: 80b6 fc3e 703b a23d 4c88 ce3e 56ad 22be
000002b0: b8a1 433e bf52 80be 4867 afbe 41f8 ca3e
000002c0: 51c5 5f3e 4e17 1bbe 2474 2d3e 490c 103d
000002d0: 6ee4 47be 26ba c9be 9888 083e 7253 463f
000002e0: 44b3 0ebf d273 5a3e 337b 03bf 5127 54bd
000002f0: bd2e 87be 9169 bebe f866 ae3e 45d7 0cbf
00000300: 5dbf 23bc b464 78be 2616 353e a871 9cbe
00000310: c5e6 12be a895 2d3f c422 813b bfc0 d63d
00000320: 3a4d 66bf 1e3a 993e a88c 26be 5774 db3d
00000330: 3a83 0e3e 3acb 63bf 7006 33be 716a 15be
00000340: 1035 41bf c509 86be dc78 173f 9795 af3b
00000350: 5bf5 75be e722 c03e 93e1 853e 88c0 71bf
00000360: c92e cf3e b0b0 ac3e 0965 b63e 1445 adbe
00000370: 5182 943e b64a bfbe 881a ee3e 1e17 f33e
00000380: 475f c3bb 5cdb 88be f323 543d 79ac 913c
00000390: eaae 73be 9293 83be 9354 af3e 3df9 9abf
000003a0: f270 edbe d80b 2bbe 3a7c 6abe fcd3 1abe
000003b0: d4b1 a5bd 3604 f4be e8b3 3b3e d1fb d23c
000003c0: 4cd4 253e 6222 7fbe 6dc2 ec3d 9ddd 8b3e
000003d0: 6954 d43d a30a 5cbf cb6f 25be 1ac4 c2be
000003e0: fbdd 663e 1d86 243f 330b 19be edc5 5cbf
000003f0: 3072 37bf 54b1 003c 9367 86be 5b6a 08bf
