hydrone_aerial_underwater_ddpg/scripts/Models/sac_stage_1_air3D_tanh_3layers/2340_policy_net.pth (torch_old, 297299 bytes, 8 tensors)

linear1.weight f4 [256, 25]
0	0x3cc8377d	0.024440521
1	0x3d8c8918	0.06862086
2	0xbe255572	-0.16145876
3	0x3ddca925	0.10774449
4	0xbd9a6385	-0.07538513
5	0xbe13716a	-0.14398733
6	0xbd6e6b4f	-0.058207806
7	0x3d93d60a	0.07218559
8	0xbe14bb8f	-0.14524673
9	0x3d496e40	0.04917741
10	0x3d5e6b86	0.05430176
11	0x3c18b83c	0.009321269
12	0x3da05d1f	0.078302614
13	0xbcc86334	-0.024461366
14	0xbe077506	-0.13228235
15	0xbdfbf920	-0.12303376
16	0xbd8f5751	-0.06999076
17	0xbe0ed858	-0.13949716
18	0xbdd2f615	-0.10300843
19	0x3d91c317	0.071172886
20	0x3d5ad2b2	0.05342359
21	0x3d8b4dd8	0.06801957
22	0x3d9f3c92	0.07775225
23	0xbda22f5d	-0.0791919
24	0xbe10ecbd	-0.14152808
25	0xbdfa8dff	-0.12234115
26	0xbd666ec6	-0.056257986
27	0x3e2fb0b2	0.17157248
28	0x3d893355	0.06699244
29	0x3d4584ec	0.048222467
30	0x3e0511c6	0.12995061
31	0xbc9c17b8	-0.019054279
32	0xbd9f90e7	-0.0779131
33	0x3d532a53	0.051554035
34	0xbd70339f	-0.05864298
35	0x3e947563	0.2899581
36	0x3e371f12	0.17882946
37	0x3ed25549	0.41080692
38	0x3ce3f7a2	0.027828041
39	0xbdbea1d7	-0.09308212
40	0xbe52f7f4	-0.20602399
41	0xbdf7c59f	-0.1209824
42	0xbe985b04	-0.2975694
43	0xbcbd19b0	-0.023083538
44	0xbc8aa549	-0.016924517
45	0x3cd9ca49	0.026585715
46	0x3e31eee3	0.17376284
47	0x3df7f211	0.121067174
48	0xbf9ad250	-1.2095432
49	0x3e575d60	0.21031713
50	0xbd8b48ec	-0.06801018
51	0x3d350b62	0.04420031
52	0x3ea3a39e	0.31960768
53	0x3eb611db	0.35560498
54	0x3d904258	0.07043904
55	0xbd9aa2da	-0.07550593
56	0x3db02002	0.08599855
57	0x3e4605df	0.19338177
58	0x3dc369fc	0.09541699
59	0xbe12d94c	-0.14340705
60	0xbd6f936b	-0.058490198
61	0x3dc59987	0.09648424
62	0xbd0992d4	-0.03358729
63	0x3d97eef1	0.07418621
64	0xbe04da06	-0.12973794
65	0xbe66b903	-0.22531514
66	0xbeca642b	-0.39529547
67	0xbd937ef3	-0.07201948
68	0x3e0ccd4d	0.13750191
69	0xbe3b400b	-0.18286149
70	0x3e329be2	0.17442277
71	0xbead52d3	-0.33852252
72	0x3e7d9bea	0.24766508
73	0x3f52628b	0.82181615
74	0xbea83807	-0.32855245
75	0x3cbb7910	0.022884876
76	0x3e61fbf5	0.2206877
77	0x3eaa3c70	0.33249235
78	0x3e9b9a4e	0.30391163
79	0xbc2f788c	-0.010709893
80	0x3ddb526c	0.1070908
81	0xbd1f5cfc	-0.038907036
82	0xbd30a2a0	-0.04312384
83	0xbd3203b8	-0.043460578
84	0xbe004739	-0.1252717
85	0xbd91ffbd	-0.07128856
86	0xbe22282d	-0.15835638
87	0xbe8b4b8c	-0.27206075
88	0xbdc9e81d	-0.09858725
89	0x3e3272cc	0.17426604
90	0x3d0555bd	0.03255247
91	0x3e6b1b6e	0.22959682
92	0xbc10c997	-0.008837125
93	0xbe73f5b5	-0.23824199
94	0xbe9cf88b	-0.30658373
95	0xbd6f45e4	-0.058416262
96	0x3e6ddb8a	0.23228279
97	0xbd34c5b0	-0.044133842
98	0xbf23880e	-0.6387948
99	0x3e86afc0	0.26305962
100	0x3eaf1028	0.34192014
101	0x3e67c7fe	0.22634885
102	0x3ebc3544	0.36759388
103	0xbc099d9c	-0.008399393
104	0xbe7a9930	-0.24472499
105	0xbdcffa9e	-0.10155223
106	0xbe416249	-0.18885149
107	0xbeca0f30	-0.39464712
108	0xbf19a3f3	-0.6001579
109	0xbf1a8af9	-0.60368305
110	0xbf234783	-0.63780993
111	0xbe2fe93a	-0.17178813
112	0x3d989abb	0.074513875
113	0x3ce45511	0.027872594
114	0x3e3a2d43	0.18181328
115	0x3dc062a4	0.09393814
116	0xbde999bf	-0.11406278
117	0x3eb59cb3	0.35471115
118	0x3cd60e08	0.026129737
119	0x3e81c2a5	0.25343814
120	0x3d2e9049	0.04261807
121	0x3e1c0cea	0.15239301
122	0x3d3dfb7b	0.04638241
123	0xbece1594	-0.40250838
124	0x3ee79758	0.45232654
125	0xbc0bebb3	-0.008540082
126	0x3eb281ba	0.348646
127	0x3e378ca0	0.17924738
128	0x3da7b8c9	0.08189542
129	0x3eb894a4	0.36050904
130	0x3ed477b5	0.4149758
131	0x3e0ad0e9	0.13556255
132	0x3dd403c1	0.103522785
133	0x3a89c9b0	0.0010512378
134	0x3d55db72	0.052211232
135	0x3c446f66	0.01198945
136	0xbc91d13a	-0.017799962
137	0xbe076221	-0.13221027
138	0xbe987a6d	-0.29780903
139	0x3cf3ed08	0.029776111
140	0xbe92b3bf	-0.2865276
141	0xbe8303c7	-0.2558882
142	0xbe4ccd0a	-0.20000091
143	0xbe3c2f03	-0.18377309
144	0xbeabc207	-0.3354647
145	0xbafa26cb	-0.0019085048
146	0xbd5bf308	-0.05369857
147	0xbe1a78d2	-0.15085152
148	0x3f1ce07a	0.61280024
149	0x3eb0bf25	0.34520832
150	0xbdde233b	-0.108465634
151	0x3e661f4d	0.22472878
152	0xbda9aa12	-0.082843915
153	0x3e18702d	0.14886542
154	0x3c254625	0.010087525
155	0xbd3e2f7c	-0.046432003
156	0x3bf95750	0.0076092854
157	0x3ca45eec	0.020064794
158	0x3e7303ee	0.23731968
159	0x3e06d86a	0.13168493
160	0x3d59b920	0.053155065
161	0xbdfe0668	-0.12403566
162	0x3cd80182	0.026367906
163	0xbd03dc0c	-0.032192275
164	0xbd88c600	-0.066783905
165	0xbdb22bbd	-0.08699749
166	0xbe1fc5ca	-0.15602794
167	0xbbd6c6cd	-0.0065544606
168	0xbe1fd991	-0.15610339
169	0xbd61661e	-0.055029027
170	0xbe0a7e4e	-0.13524744
171	0x3e412de3	0.1886516
172	0xbea1d1c3	-0.31605348
173	0x3fe8d0bf	1.8188704
174	0x3ea3fc70	0.32028532
175	0x3dbe2842	0.09285022
176	0x3e05dcb2	0.1307247
177	0x3e137c08	0.14402783
178	0xbd92184f	-0.07133543
179	0xbcac38bd	-0.021023149
180	0x3d945f1f	0.072447054
181	0x3dcc876c	0.09986767
182	0x3e006a00	0.12540436
183	0x3d91ea71	0.07124794
184	0xbdb1f1cd	-0.08688698
185	0xbe0e5350	-0.13898969
186	0xbe22a17b	-0.15881912
187	0xbe5729fa	-0.21012107
188	0xbc503bd7	-0.012709579
189	0xbe4aa033	-0.19787674
190	0x3b7e6127	0.0038815232
191	0x3dcf1084	0.10110572
192	0x3c5c3cb3	0.013442206
193	0xbda226b2	-0.07917537
194	0x3a4df321	0.00078563584
195	0x3cff7a6a	0.031186301
196	0x3d52f4b6	0.051502906
197	0x3e41cbfb	0.18925469
198	0xc05dfbf5	-3.4685032
199	0x3e669a73	0.22519855
200	0x3d86ba51	0.06578506
201	0x3d3bded7	0.045866814
202	0x3e76e8fd	0.24112315
203	0xbe34028f	-0.17579101
204	0xbd25c0d1	-0.040467087
205	0xbf012179	-0.504417
206	0xbea68d12	-0.32529503
207	0xbf0024d3	-0.5005619
208	0xbf05d102	-0.52272046
209	0xbf08e388	-0.53472185
210	0xbeef2537	-0.4670808
211	0xbe7dcd53	-0.24785356
212	0xbdc46182	-0.09588911
213	0x3cc50712	0.024051223
214	0xba132cf3	-0.0005614303
215	0xbc6436ca	-0.013929078
216	0x3e619388	0.22028935
217	0x3d10468e	0.035223536
218	0x3e523557	0.2052816
219	0x3e94675d	0.2898511
220	0xbea12605	-0.3147432
221	0xbd25bde1	-0.040464286
222	0x3d9da6e4	0.076978475
223	0xbf2752da	-0.65360796
224	0x3d8d0038	0.06884807
225	0xbe397c26	-0.18113765
226	0x3c8c3bea	0.017118413
227	0x3c24112e	0.010013862
228	0x3e3da3bd	0.18519492
229	0x3e98e235	0.29860082
230	0x3e8711dc	0.26380813
231	0x3d1100b6	0.03540107
232	0xbe1f2888	-0.15542805
233	0xbe94e6ae	-0.29082245
234	0xbe1130ec	-0.14178818
235	0xbe823eb2	-0.25438458
236	0xbd9b48d3	-0.075822495
237	0x3bc588d3	0.0060282736
238	0x3dd3491f	0.10316681
239	0x3d626b08	0.055277854
240	0x3dc08377	0.09400075
241	0x3c7bacb9	0.0153610045
242	0xbe2cbf25	-0.16869791
243	0x3e477c6e	0.1948106
244	0x3de5e3bb	0.11225077
245	0xbe664640	-0.22487736
246	0x3d4ec6f4	0.050482705
247	0xbd9bc694	-0.07606235
248	0x3ec4f062	0.38464648
249	0xbec2cc8f	-0.3804669
250	0x3e44ad03	0.19206624
251	0x3e226afc	0.15861124
252	0x3e12201e	0.14270064
253	0x3ccae829	0.024768906
254	0xbd1d17c6	-0.03835275
255	0xbdbcce5e	-0.09219049

linear1.bias f4 [256]
0	0xbcb15e74	-0.021651484
1	0xbd2edfa1	-0.042693738
2	0xbd21a51c	-0.0394641
3	0xbca1535b	-0.019693067
4	0x3e987b94	0.29781783
5	0xbcc13f4e	-0.023589756
6	0xbd39316f	-0.04521316
7	0x3d5bb93d	0.053643454
8	0x3e23060a	0.15920272
9	0x3d006224	0.031343594
10	0x3d1456d8	0.036215633
11	0xbd740a64	-0.05958022
12	0xbc1b1619	-0.009465718
13	0xbc610548	-0.013734169
14	0x3cff80f6	0.031189423
15	0x3e19cd4f	0.15019725
16	0x00000000	0.0
17	0x3da450fa	0.080232576
18	0xbd4faaf1	-0.05070013
19	0xbd66466c	-0.056219503
20	0x3dc0f2f9	0.09421343
21	0xbd41ac5c	-0.047283515
22	0xbc180be6	-0.009280181
23	0x3d8750ab	0.06607183
24	0x3dd797e2	0.10527016
25	0xbd05f731	-0.032706443
26	0xbdbc2199	-0.09186096
27	0xbc2c6026	-0.01052097
28	0x3d8c19bc	0.06840846
29	0x3e010dce	0.12602922
30	0xbcc87611	-0.024470361
31	0xbe053d88	-0.13011754
32	0x3d6e3bea	0.058162607
33	0x3e40525e	0.1878142
34	0x3df2e665	0.118603505
35	0xbc8bc435	-0.017061332
36	0xbc9bef4a	-0.019035
37	0x3d959978	0.073046625
38	0xbdb3c988	-0.087786734
39	0xbd243409	-0.040088687
40	0x00000000	0.0
41	0x3d83cfe7	0.064361386
42	0xbd0282e5	-0.031863112
43	0x3d2c6d13	0.04209621
44	0x3d111936	0.035424434
45	0x3e14d2f5	0.14533599
46	0x3af87344	0.001895525
47	0x3d91c8a9	0.07118351
48	0x3d45dece	0.048308186
49	0xbcfe3de3	-0.03103537
50	0xba9b377d	-0.0011842098
51	0x3cc2fbf2	0.023801778
52	0xbcfed319	-0.031106519
53	0xbd90e780	-0.07075405
54	0x3d7bd2ef	0.06148046
55	0xbc11e289	-0.008904108
56	0x3c1ffef0	0.009765372
57	0xbdce3139	-0.10067982
58	0x3daf1887	0.085496
59	0xbdbacf93	-0.09121623
60	0xbda2705c	-0.07931587
61	0x3da592c8	0.08084637
62	0xbd66c164	-0.056336775
63	0xbdcfd1fb	-0.101474725
64	0x3ce115c2	0.027476195
65	0xbcc569fc	-0.024098389
66	0x3da314d2	0.079629555
67	0xbd8f7734	-0.07005158
68	0xbd2d3910	-0.042290747
69	0xbde2f160	-0.11081195
70	0xbdd0faf4	-0.102041155
71	0x3b85f2c7	0.004087779
72	0x3dad944f	0.08475553
73	0x3dda7d07	0.10668378
74	0xbdcd136c	-0.1001347
75	0xbe3ac739	-0.1824006
76	0x3b3abef7	0.0028495172
77	0x3d4de9dc	0.050271854
78	0x3c0ddea8	0.008659042
79	0xbcece072	-0.028915618
80	0x3d9eec20	0.07759881
81	0x3d0e4d20	0.03474152
82	0x3d58f768	0.05297032
83	0xbdc2e23c	-0.09515807
84	0xbda4c076	-0.080445215
85	0xbd3eac37	-0.046550956
86	0xbd95c5be	-0.07313107
87	0x3aaefb0f	0.0013349968
88	0xbc8261b1	-0.015915724
89	0x3b292203	0.0025807626
90	0x3d035c9f	0.032070752
91	0x3dd6dae5	0.104909696
92	0x3d787a63	0.060663592
93	0xbd1e5264	-0.038652793
94	0x3ddffe8d	0.109372236
95	0x3c9af585	0.018915901
96	0x3c038b95	0.008028884
97	0x3d18d4e4	0.037312403
98	0x3e19360a	0.1496202
99	0xbda0bcf7	-0.07848542
100	0xbc6b791f	-0.014372139
101	0x3ded4979	0.115862794
102	0x3d84a5a1	0.06476904
103	0x3a9e0707	0.0012056538
104	0x3d4124c0	0.04715419
105	0xbe1c64c1	-0.1527281
106	0xbcf36ccc	-0.029714964
107	0x3d99074a	0.074720934
108	0xbd677ea3	-0.056517255
109	0xbd651c42	-0.055935152
110	0xbc9bc454	-0.019014515
111	0xbd10030d	-0.03515916
112	0x3cd62aab	0.026143393
113	0x3e3d99b4	0.18515664
114	0xbd0edf33	-0.034880828
115	0x3d798539	0.060918067
116	0xbe03fd3a	-0.12889567
117	0xbcabe76d	-0.020984376
118	0x3e2c368f	0.16817687
119	0x3d006cd8	0.0313538
120	0x3dda538e	0.10660468
121	0xbd470c44	-0.04859568
122	0xbe1e6bb3	-0.15470771
123	0x3db808d2	0.08986057
124	0xbd3cef6d	-0.04612677
125	0x3cbba664	0.02290649
126	0xbcd850fd	-0.026405806
127	0x00000000	0.0
128	0x3e2ade73	0.1668642
129	0xbc974b86	-0.01846863
130	0xbda8a8e9	-0.08235342
131	0xbc1c1f91	-0.00952901
132	0xbc84176a	-0.016124446
133	0xbcc50d32	-0.024054144
134	0xbe01ec49	-0.12687792
135	0x3d86f80e	0.065902814
136	0xbd70f2c9	-0.058825288
137	0xbce947bc	-0.028476588
138	0x3c2610ee	0.010135872
139	0xbd93e8a9	-0.07222111
140	0x3c0b5e82	0.008506419
141	0x3bbb8ace	0.005723334
142	0xbcb1eedd	-0.021720344
143	0x3bef0fd0	0.007295586
144	0xbd5400fd	-0.051758755
145	0xbd075169	-0.033036623
146	0x3d5ee5d3	0.054418396
147	0xbcd42adc	-0.025899343
148	0x3d403237	0.04692289
149	0xbd422875	-0.047401864
150	0x3e7077fe	0.23483273
151	0x3e608d9f	0.21929024
152	0x3d7c5cf5	0.06161209
153	0xbccd5fc6	-0.025070082
154	0xbc1f2f7f	-0.009715914
155	0x3c93b6a5	0.018031428
156	0xbbca28c6	-0.0061694114
157	0x3d8c6f2e	0.06857143
158	0x3d82405f	0.06359934
159	0x3c8faecd	0.017539406
160	0x3c459c1d	0.012061146
161	0xbddc0519	-0.1074316
162	0x3e64c4f8	0.22340763
163	0x3dad7c04	0.0847092
164	0xbdf592f8	-0.11990923
165	0x3c5ce800	0.0134830475
166	0xbda36e94	-0.079800755
167	0x3c964e9a	0.018348027
168	0xbd0d9f2c	-0.034575626
169	0xbce2ab1f	-0.027669488
170	0x3dc94eeb	0.098295055
171	0xbd915bf4	-0.07097617
172	0xbd1136bf	-0.0354526
173	0xbdddb471	-0.10825432
174	0xbc1de45b	-0.009636964
175	0xbcdf65fb	-0.027270308
176	0xbc24cb25	-0.010058199
177	0x3ca2ab53	0.019857084
178	0xbcf74701	-0.030185224
179	0x3d20103a	0.039077975
180	0xbd700a98	-0.058603853
181	0xbd2ad5e2	-0.04170788
182	0x3e34a00c	0.17639178
183	0xbc1bab4e	-0.009501291
184	0xbe05494e	-0.13016245
185	0x3cd39522	0.025827948
186	0xbbcb1b8c	-0.006198352
187	0xbdbb5ffb	-0.09149166
188	0xbd92ce69	-0.07168276
189	0x3cf67fb4	0.03009019
190	0xbcbf1999	-0.023327636
191	0xbc822438	-0.015886411
192	0xbcacfece	-0.021117594
193	0xbda36c27	-0.07979613
194	0x3ada5dc1	0.0016660021
195	0xbd7f220e	-0.062288336
196	0xbdfa71de	-0.1222875
197	0xbdfda1ea	-0.12384398
198	0xbb41027d	-0.0029450946
199	0xba66d575	-0.0008805611
200	0xbc1bc27b	-0.009506817
201	0xbd99f1a7	-0.07516795
202	0xbc1bf5dd	-0.009519068
203	0x3dbf987e	0.093552575
204	0x3e4086d9	0.1880144
205	0xbd8e2d0f	-0.06942188
206	0x3dabd0fb	0.08389469
207	0xbc6865cc	-0.0141844265
208	0xbd1e2ba9	-0.038615856
209	0x3d57a949	0.052651677
210	0xbd3c1a50	-0.04592353
211	0xbdb3532e	-0.087561
212	0xbddb3012	-0.10702528
213	0xbdd94d1c	-0.106104106
214	0x3dc7dd47	0.09759002
215	0x3d9ce7a8	0.076613724
216	0xbd773fc3	-0.060363542
217	0x3e1f9dca	0.15587536
218	0xbe103c2f	-0.14085458
219	0xbdafed5d	-0.08590195
220	0xbdd3d1da	-0.103427604
221	0x3d8d157f	0.06888866
222	0xbd80c981	-0.06288434
223	0x3dd0a6ea	0.10188086
224	0x3d5e794e	0.054314904
225	0xbd4abbd9	-0.04949555
226	0x00000000	0.0
227	0x3e3209f8	0.17386615
228	0xbd9d544a	-0.076820925
229	0xbd4e667e	-0.050390713
230	0x3dece7b7	0.115676336
231	0xbc596ba9	-0.013270297
232	0xbda0a6a2	-0.07844283
233	0x3de695ba	0.11259027
234	0xbe05a8a7	-0.13052617
235	0xbc9e4bd5	-0.019323269
236	0x3e24775e	0.1606116
237	0xbd0006f3	-0.031256627
238	0xbc82f7da	-0.015987325
239	0x00000000	0.0
240	0xbd8114ce	-0.06302796
241	0xbdafdd01	-0.08587075
242	0xbd8d3904	-0.068956405
243	0xbd4186a1	-0.047247533
244	0xbd7130f0	-0.05888456
245	0x3e2e556c	0.17024773
246	0xbc115540	-0.008870423
247	0xbb646df8	-0.0034855586
248	0xbce6d86d	-0.028179372
249	0x3cdaad87	0.026694072
250	0xbddb8cdf	-0.107202284
251	0x3d176beb	0.036968153
252	0xbc6acdb1	-0.014331267
253	0x3dc1a9fd	0.09456251
254	0x3d74a246	0.05972507
255	0x00000000	0.0

linear2.weight f4 [256, 256]
0	0xbd17bd16	-0.03704556
1	0x3e8dadad	0.27671567
2	0x3e0ef423	0.13960318
3	0x3dd8f776	0.105940744
4	0x3e12df34	0.14342958
5	0x3de10336	0.109869406
6	0x3b57b018	0.0032911357
7	0xbcaf5ecd	-0.02140751
8	0xbf244d02	-0.64180005
9	0xbe0a188b	-0.13485925
10	0xbe326a58	-0.1742338
11	0x3ee5925a	0.4483822
12	0x3d9c1ce9	0.07622702
13	0xbe0f6807	-0.14004527
14	0xbe4d5bc6	-0.2005454
15	0x3dfe9126	0.124300286
16	0xbdc67273	-0.09689798
17	0xbd6db6e2	-0.05803574
18	0xbe19f228	-0.15033782
19	0xbdef7485	-0.11692146
20	0x3ed6d3e6	0.4195854
21	0xbcfae818	-0.030628249
22	0xbdeeafbd	-0.11654613
23	0x3cbb5664	0.022868343
24	0xbbeb6497	-0.007183622
25	0x3ea672b0	0.32509375
26	0x3e2f1f9a	0.17101899
27	0xbd329fce	-0.043609433
28	0xbe6fe165	-0.23425825
29	0x3c26dc7a	0.010184402
30	0x3e330187	0.17481051
31	0xbea03735	-0.3129212
32	0xbdfddaad	-0.12395225
33	0xbeb06ada	-0.3445652
34	0x3e9901e9	0.2988427
35	0xbe90dd95	-0.28294054
36	0x3da37d93	0.07982936
37	0x3f232b8d	0.6373833
38	0x3da160d3	0.07879796
39	0xbdd3d5a4	-0.10343483
40	0x3dd1f001	0.10250855
41	0x3e5fdbd6	0.21861205
42	0xbeea3420	-0.45742893
43	0xbf40972b	-0.75230664
44	0xbeb3eb3d	-0.3514041
45	0x3f213eaf	0.6298627
46	0x3effcd94	0.4996153
47	0xbc1c3886	-0.009534961
48	0x3bf674aa	0.0075212317
49	0xbd7f51aa	-0.06233374
50	0xbee207d9	-0.44146612
51	0xbeedf89d	-0.4647874
52	0xbe68c8d2	-0.22732857
53	0xbe8a095c	-0.26960266
54	0xbdb30c64	-0.08742598
55	0xbc3cf0ed	-0.011532051
56	0xbf035374	-0.51299214
57	0x3e0e9656	0.13924536
58	0x3e6cdd64	0.23131329
59	0x3d8abf1f	0.06774735
60	0xbe94c983	-0.2905999
61	0x3b77215a	0.0037709088
62	0xbeedee5d	-0.4647092
63	0xbdbea808	-0.09309393
64	0x3e23168c	0.1592657
65	0xbe80f27e	-0.25185007
66	0xbf0e7893	-0.5565273
67	0x3ed786cf	0.42095038
68	0xbc6916d6	-0.014226636
69	0x3ef6e596	0.48222035
70	0xbed40bcf	-0.4141526
71	0x3c7c13b0	0.015385553
72	0x3e3859fd	0.18003078
73	0xbedc921f	-0.43080232
74	0xbdb83899	-0.0899517
75	0x3f0df046	0.55444753
76	0xbdf9a128	-0.12188941
77	0x3d9099d4	0.070605904
78	0xbce5b3fe	-0.028039929
79	0x3e928d20	0.28623295
80	0x3e491e0c	0.19640368
81	0xbec0d070	-0.37659025
82	0x3f3aff5f	0.73045915
83	0x3cec73d7	0.02886383
84	0x3ded4f56	0.11587398
85	0x3ea9ec09	0.33187893
86	0x3ec8a6c4	0.39189732
87	0x3d44587b	0.047935944
88	0xbe723a89	-0.23655142
89	0xbcab0e5f	-0.020880876
90	0xbe803324	-0.25039017
91	0xbdc762e8	-0.09735662
92	0x3ea7c615	0.32768312
93	0xbe540331	-0.20704342
94	0x3deb319c	0.114840716
95	0xbe6288b7	-0.22122465
96	0xbc16da5d	-0.009207335
97	0x3e7e60ac	0.24841565
98	0x3e3477be	0.17623803
99	0x3cfc59c6	0.030804526
100	0xbec4f33b	-0.3846682
101	0xbe8a9c5b	-0.27072415
102	0xbf02e458	-0.51129675
103	0x3e9dce95	0.30821672
104	0xbd745fff	-0.05966186
105	0xbf612214	-0.87942624
106	0xbeddeb28	-0.43343472
107	0xbdf5b185	-0.1199675
108	0x3eec9888	0.46210122
109	0xbf994eec	-1.197721
110	0xbda8064f	-0.08204328
111	0x3e3a35a0	0.18184519
112	0x3e82ebea	0.25570613
113	0x3e68d52a	0.22737566
114	0xbeba5eb1	-0.3640037
115	0xbd136f79	-0.03599498
116	0xbe930f6a	-0.28722697
117	0xbcade53b	-0.02122747
118	0x3dbffc36	0.09374277
119	0xbccc75f9	-0.024958597
120	0x3e31fbb4	0.17381173
121	0x3ec45696	0.3834731
122	0xbf6f05df	-0.93368334
123	0xbca3698b	-0.019947788
124	0xbd8609cf	-0.065448396
125	0x3dca7f00	0.098875046
126	0x3bc0f413	0.005888471
127	0x3cd63c84	0.026151903
128	0x3f353eb3	0.70798796
129	0xbd8f670d	-0.07002077
130	0xbef5dce5	-0.48020092
131	0xbd4857a9	-0.048911724
132	0xbd319757	-0.04335722
133	0xbe3f1549	-0.18660463
134	0xbf445881	-0.76697546
135	0xbed2c508	-0.41165948
136	0x3d812852	0.063065186
137	0xbeb9ceb8	-0.36290526
138	0x3dd4a1f1	0.1038245
139	0xbd974b06	-0.073873565
140	0xbf1b9040	-0.60766983
141	0x3ba72aa6	0.0051015196
142	0x3c92f2af	0.017937986
143	0x3ea77807	0.3270876
144	0xbeece7b3	-0.46270522
145	0x3d4c1738	0.04982683
146	0xbe0f1fc7	-0.13976966
147	0x3e0b717a	0.13617507
148	0xbeecef7d	-0.46276465
149	0xbf632681	-0.8873063
150	0xbe88b4be	-0.26700395
151	0xbd8f4fb6	-0.069976255
152	0xbea87efc	-0.3290938
153	0x3eb9f12d	0.36316815
154	0xbdcd678a	-0.10029514
155	0x3ed57104	0.41687787
156	0xbc5830dc	-0.013195243
157	0x3e1410ef	0.14459585
158	0x3e56776f	0.20943998
159	0x3e34fa5c	0.1767363
160	0xbd77cefa	-0.060500123
161	0xbe7a5829	-0.24447693
162	0xbe465fab	-0.19372432
163	0xbf039160	-0.513937
164	0x3eb8a9f6	0.3606717
165	0x3d31c151	0.04339725
166	0xbdaa9bee	-0.083305225
167	0x3defc382	0.11707212
168	0xbec90f9a	-0.39269716
169	0xbcf1386b	-0.029445847
170	0x3e4229e8	0.18961298
171	0x3e8bd5f1	0.27311662
172	0xbe9130fc	-0.28357685
173	0xbe271c21	-0.16319324
174	0x3e9252cc	0.28578794
175	0x3a0df400	0.0005415082
176	0xbe9eaebf	-0.30992696
177	0xbe80efea	-0.2518304
178	0x3debca37	0.11513179
179	0x3ba0e74f	0.0049103866
180	0xbcd3ec96	-0.025869649
181	0xbceccb8f	-0.028905658
182	0xbe6b8c7c	-0.2300281
183	0x3dbd810c	0.09253129
184	0x3dd72252	0.10504593
185	0xbdc7167c	-0.097210854
186	0x3d82b058	0.06381291
187	0x3d22e9aa	0.03977362
188	0x3efdf8f3	0.49603996
189	0xbd7a9007	-0.06117251
190	0xbda3b716	-0.07993905
191	0xbec11cd0	-0.37717295
192	0x3d2dbb56	0.042414986
193	0xbd447edd	-0.04797255
194	0xbedbfba9	-0.4296544
195	0xbe86efb8	-0.26354766
196	0xbe87fce8	-0.2656014
197	0xbda8788e	-0.08226119
198	0xbeafce40	-0.34337044
199	0x3d5e0b80	0.054210186
200	0x3dbf72a9	0.093480416
201	0xbf224de2	-0.6340009
202	0xbdde685a	-0.10859747
203	0xbf23ee28	-0.6403527
204	0xbf3c031c	-0.73442245
205	0xbdaf4b59	-0.08559293
206	0xbe7eba1a	-0.2487568
207	0xbe66f66a	-0.22554937
208	0x3e364041	0.17797948
209	0xbe9d5ad2	-0.30733353
210	0x3e5202fb	0.2050895
211	0x3ef7f85d	0.48431674
212	0xbf2a485e	-0.66516674
213	0x3d9d8caf	0.07692849
214	0x3d940fb7	0.0722956
215	0xbe112188	-0.14172947
216	0xbe66775d	-0.22506471
217	0xbf03753e	-0.5135077
218	0xbfcabfc5	-1.5839773
219	0xbe8dcc8f	-0.27695128
220	0xbd172950	-0.036904633
221	0x3d763ebd	0.060118426
222	0xbe4cc051	-0.19995238
223	0xbeab786f	-0.3349032
224	0x3e599c2d	0.21250983
225	0xbde38cd4	-0.11110845
226	0x3dba2ce3	0.09090593
227	0x3d42a7b4	0.047523215
228	0x3e66a664	0.2252441
229	0xbc65cf41	-0.014026464
230	0x3e8f0090	0.27930117
231	0xbcc2386c	-0.023708545
232	0x3d1ed65b	0.038778644
233	0xbf072aaa	-0.52799475
234	0x3cb6be23	0.022307461
235	0x3d240e92	0.040052958
236	0xbea7ee0a	-0.32798797
237	0xbbc490c8	-0.0059987046
238	0x3d39f9e0	0.045404315
239	0x3d77c7ea	0.060493387
240	0xbf634bc3	-0.8878748
241	0x3d82ec69	0.06392748
242	0x3d6cf608	0.05785182
243	0xbec1a909	-0.37824276
244	0xbe89a920	-0.26886845
245	0xbd2e1fdc	-0.042510852
246	0x3eafc8af	0.34332797
247	0xbefc7d52	-0.49314362
248	0x3d6b43b9	0.057437632
249	0xbdf89d3d	-0.12139366
250	0x3e12102e	0.14263985
251	0xbdf2c35b	-0.11853667
252	0xbf0c54a5	-0.5481666
253	0xbe4f1a5f	-0.20224904
254	0xbe1302fd	-0.14356609
255	0xbd79bdad	-0.060971905

linear2.bias f4 [256]
0	0x3e9d6437	0.3074052
1	0x3de37a13	0.11107268
2	0x3e30e873	0.17276172
3	0xbe6e22d1	-0.23255469
4	0xbd86a598	-0.06574553
5	0xbcd09201	-0.025460245
6	0x3e7faeb2	0.24968985
7	0x3e7288d9	0.23685016
8	0x3e1902ed	0.14942522
9	0xbd803cfc	-0.06261632
10	0xbc570300	-0.013123274
11	0x3e02a142	0.12756827
12	0x3e6b19fb	0.2295913
13	0x3de5fc05	0.112297095
14	0x3c20ee25	0.009822403
15	0xbd9a0bfb	-0.07521816
16	0x3d381f6d	0.044951845
17	0x3dbbbc3e	0.09166764
18	0x3daf70c2	0.08566429
19	0x3e458e17	0.19292484
20	0x3db20454	0.08692232
21	0xbc47700a	-0.012172708
22	0x3dfa8ea1	0.122342356
23	0xbc06b224	-0.008221183
24	0x3eb1ea1f	0.34748933
25	0xbdcce5b4	-0.1000475
26	0x3ebf8e72	0.37413365
27	0xbcd26fc1	-0.025688054
28	0x3d28f490	0.041248858
29	0xbdd80cfd	-0.10549352
30	0xbd84941d	-0.06473563
31	0xbe10bbf6	-0.14134201
32	0x3e91d2f2	0.2848125
33	0x3ed7a107	0.42115042
34	0x3ece1d9a	0.4025696
35	0x3c5bc485	0.013413553
36	0xbe16f069	-0.14740147
37	0xbd772352	-0.06033642
38	0x3de5ba9f	0.11217236
39	0x3e049265	0.1294647
40	0xbcbb64d7	-0.022875233
41	0x3dbaef2c	0.0912765
42	0x3dce098a	0.10060413
43	0x3e8fec69	0.28110054
44	0x3dd51fd2	0.1040646
45	0x3dcc6563	0.099802755
46	0x3ea1839f	0.3154573
47	0x3e2ba698	0.16762769
48	0x3e8b6a94	0.2722975
49	0xbce315f9	-0.027720438
50	0xbeb33bd3	-0.3500658
51	0x3e4d208b	0.20031945
52	0xbbc818d6	-0.0061064763
53	0x3d12823e	0.03576874
54	0xbc6eac0f	-0.014567389
55	0x3e4bbb4d	0.19895668
56	0x3ec6a457	0.38797256
57	0x3ed768c6	0.42072123
58	0x3d3f93cf	0.04677182
59	0xbd9a4a7e	-0.075337395
60	0x3d0a4bc0	0.033763647
61	0xbcdca1fb	-0.026932707
62	0x3d323387	0.04350617
63	0x3dd74b49	0.105124064
64	0xbe15ffb7	-0.14648329
65	0xbd689b60	-0.056788802
66	0xbd8a1fc1	-0.06744338
67	0xbe1a25c1	-0.15053464
68	0x3e65f9e8	0.22458613
69	0x3e90c7ae	0.28277344
70	0xbd8d11f9	-0.06888194
71	0x3eb6ceb2	0.3570457
72	0xbd1055a1	-0.035237912
73	0xbe56f774	-0.20992833
74	0xbe87e62b	-0.26542792
75	0xbe9a6937	-0.30158398
76	0x3c5d414b	0.013504337
77	0x3d70491c	0.058663473
78	0x3e63e65f	0.22255848
79	0x3d2afe1b	0.04174624
80	0xbcefafd0	-0.029258639
81	0x3e5821b1	0.21106602
82	0x3e3c811d	0.18408628
83	0xbe3c1a60	-0.18369436
84	0x3dcfdf1b	0.10149976
85	0xbd368e64	-0.044569388
86	0x3e5c68f7	0.21524416
87	0x3e569527	0.20955335
88	0xbe02d7ca	-0.1277763
89	0xbc4464e9	-0.0119869495
90	0xbd10809c	-0.0352789
91	0x3e1c0fb1	0.15240361
92	0xbe1976a4	-0.14986664
93	0x3dde6b60	0.10860324
94	0x3e22ad99	0.15886535
95	0x3ab19b1c	0.0013550255
96	0x3d916769	0.07099802
97	0x3c67c392	0.014145749
98	0xbcaeb10f	-0.021324662
99	0x3d9a622a	0.075382546
100	0x3e199940	0.14999866
101	0xbd940f6c	-0.07229504
102	0x3e09fcb7	0.1347531
103	0xbe6ddbcb	-0.23228376
104	0x3f0515ba	0.5198628
105	0x3e3db2d6	0.18525252
106	0xbc14a047	-0.009071416
107	0x3ead49eb	0.33845457
108	0x3d761b39	0.060084555
109	0x3dd29399	0.10282058
110	0x3dae638a	0.08515079
111	0x3cc1fda9	0.023680525
112	0x3e27eb80	0.1639843
113	0x3dc2b8a8	0.09507877
114	0xbd5694a7	-0.05238786
115	0x3e827aa8	0.25484204
116	0xbd904d8e	-0.070460424
117	0x3ed78c45	0.42099205
118	0xbda0d88a	-0.078538015
119	0x3ed36c28	0.41293454
120	0xbd6a3d9e	-0.05718767
121	0x3dd9f358	0.10642117
122	0x3e5276cb	0.20553128
123	0xbe50e784	-0.20400816
124	0x3e0b5814	0.13607818
125	0x3e50bf72	0.2038553
126	0xbbc25776	-0.0059308363
127	0x3e378ca0	0.17924738
128	0x3d00f914	0.03148754
129	0x3d57f43d	0.05272316
130	0xbd1d22e1	-0.03836334
131	0x3e1d92d2	0.15388039
132	0x3c5f68ae	0.013635797
133	0x3e4ae750	0.19814801
134	0x3da1cb36	0.079000875
135	0xbd517350	-0.05113536
136	0x3c4c89b5	0.012484004
137	0xbde7ae41	-0.11312533
138	0x3dabdb65	0.083914556
139	0x3d8b0f51	0.06790031
140	0xbc91172e	-0.017711248
141	0xbe0386ac	-0.12844342
142	0xbddd48a6	-0.10804872
143	0xbde332bf	-0.110936634
144	0xbd938505	-0.07203106
145	0xbcc236d7	-0.02370779
146	0xbe655bc1	-0.22398283
147	0x3d9a456b	0.07532772
148	0x3e2ec7b0	0.17068362
149	0xbdf5dae5	-0.120046414
150	0x3d41e07d	0.04733323
151	0xbd1645b9	-0.036687586
152	0xbd4db6f3	-0.050223302
153	0x3e5f875c	0.21828979
154	0x3d42bdfc	0.047544464
155	0xbd391d9d	-0.045194257
156	0x3ea2be30	0.31785727
157	0xbd9364f7	-0.07196992
158	0xbdae4a1c	-0.08510229
159	0xbdbfb867	-0.09361344
160	0x3e7d0363	0.24708323
161	0x3e8d68b3	0.27618942
162	0xbd2adb46	-0.04171302
163	0x3e38ac8c	0.18034571
164	0x3d813f56	0.063109085
165	0xbd808f01	-0.06277276
166	0x3e9a1353	0.30092868
167	0x3e9d24f4	0.30692255
168	0x3d6b0069	0.057373438
169	0x3e911057	0.2833278
170	0x3de4c775	0.11170856
171	0x3e8a42f3	0.27004203
172	0x3e478a50	0.19486356
173	0x3eca3e90	0.39500856
174	0xbe34b129	-0.17645706
175	0x3de402cc	0.11133346
176	0x3e799241	0.24372198
177	0x3ecbcc65	0.39804378
178	0x3e39459c	0.1809296
179	0x3d3f2916	0.046670042
180	0xbd54b03d	-0.051925886
181	0x3c0fd27c	0.008778211
182	0x3e8318c7	0.2560484
183	0xbd5025ff	-0.050817486
184	0xbc68acdc	-0.014201369
185	0x3dbb00fd	0.09131048
186	0xbe0deb9d	-0.1385941
187	0x3ec2a2bc	0.3801478
188	0xbe6b8901	-0.23001482
189	0x3e7b6d78	0.24553478
190	0x3da62bc8	0.08113819
191	0xbd5fcd7c	-0.054639325
192	0xbe7fdbf2	-0.24986246
193	0x3c8e3cd8	0.017362997
194	0x3ebc350a	0.36759216
195	0x3ed36a9b	0.4129227
196	0xbe2f6d6d	-0.17131586
197	0x3e654993	0.22391348
198	0xbe8047a2	-0.25054651
199	0x3e3ed640	0.18636417
200	0xbd38110c	-0.044938132
201	0xbd6f9395	-0.058490355
202	0x3ccd1632	0.025034998
203	0x3e90798e	0.2821774
204	0x3eb85b89	0.36007336
205	0xbcd2fae2	-0.025754396
206	0xbd0db0c7	-0.034592416
207	0x3db03c5b	0.08605262
208	0xbc8c3043	-0.017112857
209	0x3e863277	0.26210377
210	0xbdfbc7e6	-0.12293987
211	0x3e4f9fae	0.20275757
212	0x3d8300f8	0.06396669
213	0xbd1dc7e2	-0.0385207
214	0x3e5091e4	0.20368153
215	0xbea49ca8	-0.3215077
216	0x3eab2b27	0.3343136
217	0x3cbcd981	0.023052933
218	0xbde1bd25	-0.110224046
219	0x3e6eb2dc	0.23310417
220	0x3d65de5b	0.056120258
221	0x3826883f	3.9704373e-05
222	0x3e4ed230	0.20197368
223	0x3e02feb7	0.12792479
224	0x3db31e5c	0.08746025
225	0x3e82b49f	0.25528428
226	0xbe237413	-0.15962248
227	0x3ceef508	0.029169574
228	0xbea8a46d	-0.32937947
229	0x3e8ac058	0.27099872
230	0xbd901a19	-0.07036228
231	0xbe1440e4	-0.14477879
232	0xbcf95dff	-0.030440329
233	0x3c12ace3	0.008952352
234	0x3e335fc6	0.17517003
235	0xbd5041a1	-0.05084384
236	0x3f211f15	0.6293805
237	0x3bbf5e64	0.0058401097
238	0xbb9ec1e2	-0.00484489
239	0x3cc380f9	0.02386521
240	0x3d8c463f	0.06849336
241	0x3e8800cc	0.26563108
242	0xbd9dddb8	-0.07708305
243	0xbd9bc4e7	-0.076059155
244	0x3d5f40cd	0.05450516
245	0x3d56c2c8	0.05243185
246	0xbd644472	-0.055729337
247	0xbd427a05	-0.04747965
248	0xbe57312d	-0.21014853
249	0x3d92b903	0.071641944
250	0x3e08b23b	0.1334924
251	0x3dd396ec	0.103315204
252	0xbd5d828c	-0.054079577
253	0x3d83b957	0.06431835
254	0x3e174622	0.14772847
255	0xbcf1639b	-0.02946644

mean_linear.weight f4 [3, 256]
0	0x3cb72e55	0.02236096
1	0xbf5c07e4	-0.8594954
2	0x3f18554e	0.59505165
3	0xbe361a7b	-0.17783539
4	0xb9848883	-0.0002527871
5	0xbe8d4cf8	-0.27597785
6	0x3eb0ace4	0.34506905
7	0xbee4f34a	-0.44716865
8	0xbeb4d05b	-0.35315213
9	0x3db9204b	0.090393625
10	0x3ea916e1	0.33025268
11	0x3f2c17dc	0.67223907
12	0x3ec7f5de	0.3905477
13	0xbede4437	-0.4341142
14	0xbebb9276	-0.36635178
15	0xbf6332dd	-0.88749486
16	0xbf0bec75	-0.5465768
17	0x3ea686d8	0.32524753
18	0x3f47edfa	0.780975
19	0xbc44dba2	-0.012015255
20	0x3e7454f6	0.23860535
21	0x3d3ead0f	0.04655176
22	0x3ec63cbd	0.38718215
23	0xbe356041	-0.17712499
24	0xbac60ad8	-0.0015109433
25	0xbd70c597	-0.058782186
26	0x3e8c0894	0.27350295
27	0xbe68a340	-0.22718525
28	0x3ea587e1	0.3233023
29	0xbdec3ff3	-0.11535635
30	0x3e0a86eb	0.1352803
31	0xbee7741b	-0.4520577
32	0xbda42a27	-0.080158524
33	0xbe441132	-0.19147184
34	0x3e52e6da	0.20595875
35	0x3e8c4dd7	0.27403137
36	0xbc94021e	-0.018067416
37	0xbd2bf60d	-0.0419827
38	0x3ec0b774	0.37639964
39	0x3e9f6bdf	0.31136987
40	0xbdbbf295	-0.09177128
41	0xbd98dffe	-0.07464598
42	0xbe84624b	-0.25856242
43	0x3e8c43ff	0.27395627
44	0xbdfa5720	-0.12223649
45	0xbd11c0ff	-0.035584446
46	0xbf526eb2	-0.8220016
47	0x3dbac61e	0.09119819
48	0x3e27876a	0.1636025
49	0x3bfae579	0.00765675
50	0x3ed19aad	0.4093832
51	0x3e1d856c	0.15382928
52	0xbf241e3c	-0.64108634
53	0x3fa01e8b	1.2509321
54	0xbe414cd3	-0.18876962
55	0xbc276fbe	-0.0102195125
56	0x3e6418b8	0.22275054
57	0x3ed0baeb	0.40767607
58	0xbf333393	-0.7000057
59	0x3e22e9bb	0.15909474
60	0xbdc1d576	-0.094645426
61	0xbf906748	-1.1281519
62	0x3f2760dd	0.65382177
63	0xbf0e3d2c	-0.5556209
64	0x3ee324ba	0.44363958
65	0x3dd9abc2	0.10628463
66	0x3dce25d5	0.1006581
67	0x3e9a7fed	0.30175725
68	0x3f2a72c9	0.665814
69	0xbeb4b53d	-0.35294524
70	0xbea7a2e4	-0.32741463
71	0x3f08acd1	0.53388697
72	0xbefd1116	-0.49427098
73	0xbe6d1604	-0.2315293
74	0xbedf11b0	-0.43568182
75	0x3f71db43	0.9447519
76	0xbe827a51	-0.25483945
77	0xbe6551e2	-0.22394517
78	0xbd8c5faa	-0.06854184
79	0x3e85dcc5	0.26144996
80	0xbf038db4	-0.51388097
81	0xbeaa300b	-0.3323978
82	0x3ec22775	0.37920728
83	0x3db62b1b	0.088949405
84	0x3f0bf636	0.54672563
85	0x3d0712c5	0.032976884
86	0x3e266d92	0.16252735
87	0xbda8cd3b	-0.082422696
88	0x3f5f2af6	0.8717493
89	0xbe959d08	-0.29221368
90	0xbe71cb48	-0.23612702
91	0x3ec42bfe	0.38314813
92	0x3e70dfe3	0.23522906
93	0xbf23ebe1	-0.640318
94	0xbf02e9eb	-0.5113818
95	0xbe1011b7	-0.14069258
96	0xbdede5d9	-0.116161056
97	0xbdbc800f	-0.09204113
98	0xbe064ee7	-0.13116036
99	0xbf2a7bbf	-0.6659507
100	0xbf1bdd8f	-0.60884947
101	0xbe439a99	-0.19101943
102	0xbe8aa3dd	-0.27078143
103	0x3f13e00f	0.5776376
104	0x3e5728c7	0.21011649
105	0xbe93f050	-0.2889428
106	0x3ed444e2	0.41458803
107	0xbe1d536b	-0.15363853
108	0xbbf6097e	-0.007508456
109	0xbee91b82	-0.455288
110	0xbd1a15ae	-0.03761833
111	0x3dd8456e	0.10560118
112	0xbf63d8c3	-0.8900263
113	0x3f07ef99	0.5309997
114	0xbeb69080	-0.3565712
115	0x3ea160fe	0.31519312
116	0xbe534704	-0.20632559
117	0xbce96463	-0.02849025
118	0xbcf338cb	-0.029690167
119	0xbd7c7486	-0.061634563
120	0xbdedb8b9	-0.11607499
121	0xbebb23b6	-0.36550683
122	0xbf3a56b9	-0.7278858
123	0x3ea36fbe	0.3192119
124	0x3d17b8c4	0.03704144
125	0xbee410bc	-0.44544017
126	0x3da964ad	0.082711555
127	0xbe972d67	-0.29526827
128	0x3f9b52e4	1.2134671
129	0x3edfc6d2	0.43706375
130	0xbf75123b	-0.9573094
131	0xbec16f3e	-0.37780184
132	0x3cde5472	0.027139876
133	0xbd1a6ec7	-0.0377033
134	0x3ddd8aec	0.10817513
135	0xbdc5d360	-0.09659457
136	0x3ee5d468	0.44888616
137	0x3d9eb87a	0.0775003
138	0x3f2ced68	0.67549753
139	0xbdc1c565	-0.09461478
140	0x3e2b945f	0.16755818
141	0x3ebe5cf8	0.37180305
142	0xbf0341e8	-0.5127244
143	0xbf9641eb	-1.1738867
144	0x3e59c1ec	0.21265382
145	0x3ec5cfe7	0.3863518
146	0x3ecdf87d	0.40228644
147	0x3dca34a1	0.098733194
148	0x3deb76b2	0.11497249
149	0xbe32cc38	-0.17460716
150	0x3e9dc3e5	0.30813518
151	0x3f81624f	1.0108126
152	0x3c5f8800	0.013643265
153	0xbe88d03d	-0.26721373
154	0x3ee17c22	0.44040018
155	0x3e1dcd35	0.15410312
156	0xbe06e136	-0.13171849
157	0x3e8d4228	0.27589536
158	0xbf29a458	-0.66266394
159	0xbe00c72c	-0.12575978
160	0xbe6b74f9	-0.2299384
161	0x3d8fb931	0.07017744
162	0xbf2a7c2b	-0.66595715
163	0xbef0eb41	-0.47054484
164	0xbe6f4417	-0.23365818
165	0xbc291cd7	-0.010321817
166	0x3e49e08b	0.19714563
167	0x3f2a4469	0.66510636
168	0xbd898487	-0.06714731
169	0xbea74940	-0.32673073
170	0x3e287fd8	0.16455019
171	0xbd5a016d	-0.053224016
172	0x3dc7d082	0.097565666
173	0x3e676efc	0.22600931
174	0x3e6e4f6f	0.23272489
175	0x3ea923a4	0.33035004
176	0xbe710a1b	-0.23539011
177	0xbf4767be	-0.77892673
178	0xbe713357	-0.23554741
179	0xbd7524a6	-0.059849404
180	0xbe280b0d	-0.16410466
181	0xbdcc91ab	-0.099887215
182	0x3f849b96	1.0359981
183	0xbd8a9612	-0.06766905
184	0xbf0419b3	-0.51601714
185	0x3e9d8ba3	0.30770597
186	0xbf056aba	-0.52115977
187	0x3eed7e0b	0.46385226
188	0x3ee3b9fc	0.44477832
189	0x3e493e40	0.19652653
190	0x3dc14798	0.094374835
191	0x3f825c33	1.0184387
192	0x3e611194	0.21979362
193	0x3f13784d	0.5760544
194	0xbe2b7649	-0.16744341
195	0x3d823990	0.063586354
196	0xbe275898	-0.1634239
197	0x3ee31168	0.44349217
198	0xbdbff2b0	-0.09372461
199	0x3f3f98d1	0.74842554
200	0xbed9648e	-0.4245953
201	0x3f398c14	0.7247937
202	0xbe64f7cd	-0.22360153
203	0xbe51ae95	-0.20476754
204	0x3e0c8a39	0.13724603
205	0x3ede3f9e	0.4340791
206	0xbcc6ba9b	-0.024258902
207	0xbf00f79f	-0.5037784
208	0x3e98172d	0.29705182
209	0x3f266735	0.6500123
210	0xbed0663d	-0.40703002
211	0xbf311282	-0.69168866
212	0xbee018da	-0.4376896
213	0xbe68e962	-0.22745278
214	0x3cc0c27d	0.02353024
215	0xbd5001de	-0.05078303
216	0xbe968d6a	-0.29404765
217	0xbebba7c0	-0.3665142
218	0xbe023e5d	-0.12719102
219	0xbf8065b6	-1.003104
220	0xbe25eb50	-0.16203046
221	0xbede9b0c	-0.43477666
222	0xbf4b49e6	-0.79409635
223	0x3e22e5bd	0.1590795
224	0xbde8e3ab	-0.11371549
225	0x3f33cb4e	0.70232093
226	0x3b9941a3	0.004677014
227	0x3e97d00e	0.2965092
228	0xbd810a67	-0.06300812
229	0x3d5a39e7	0.053277876
230	0xbeb4b3fc	-0.35293567
231	0xbdd01fe3	-0.10162332
232	0x3db33991	0.08751214
233	0x3f05f8da	0.5233284
234	0xbf0ba627	-0.54550403
235	0x3dfd1810	0.12358105
236	0xbe993674	-0.29924357
237	0x3e990193	0.29884014
238	0xbe32e600	-0.1747055
239	0x3ed74812	0.42047173
240	0x3ef367c2	0.47540098
241	0xbe1f5e76	-0.15563378
242	0xbf18aca6	-0.5963844
243	0x3dcad9c4	0.09904817
244	0x3e8c5330	0.27407217
245	0x3d22d67b	0.039755326
246	0x3f0d4e24	0.5519736
247	0x3f358416	0.7090467
248	0x3ef71dc2	0.4826489
249	0xbf2392c9	-0.6389585
250	0xbed72190	-0.42017794
251	0xbf1999c8	-0.60000277
252	0x3d475df1	0.048673574
253	0x3f1586e6	0.58408964
254	0x3e8dd3cb	0.27700648
255	0xbe5c661c	-0.21523327

mean_linear.bias f4 [3]
0	0x3de10d87	0.10988908
1	0x3dbb0373	0.09131517
2	0x3b55884b	0.0032582458

log_std_linear.weight f4 [3, 256]
0	0x3ce8b1f2	0.028405163
1	0x3bbc7f4a	0.0057524787
2	0x3db52dcf	0.08846628
3	0xbb339f60	-0.0027408227
4	0xbdb04586	-0.086070105
5	0x3d1ee5cc	0.03879337
6	0x3ded187d	0.115769364
7	0xbd9695cd	-0.07352791
8	0xbcc28193	-0.023743426
9	0xbd6f8574	-0.05847688
10	0x3dfc9c17	0.12334459
11	0xbb8af15f	-0.0042401995
12	0x3d8eb154	0.069674164
13	0x3bb523aa	0.005527933
14	0x3da1e80d	0.07905588
15	0x3edd9ee4	0.43285286
16	0x3d20ebff	0.039287563
17	0xbd1340a3	-0.035950314
18	0xbce612e2	-0.028085176
19	0x3c593ffd	0.013259885
20	0xbd17b260	-0.037035346
21	0xbca85301	-0.020547392
22	0xbb921dff	-0.004459142
23	0xbcca7474	-0.024713732
24	0xbdb5a4a4	-0.08869293
25	0x3dd95028	0.10610992
26	0x3dc95fed	0.098327495
27	0x3dc6c0a8	0.09704715
28	0x3d480dfb	0.048841458
29	0xbaba1bc8	-0.0014198953
30	0x3d4160db	0.04721151
31	0x3bc94df2	0.006143325
32	0xbbddfdd0	-0.0067746416
33	0x3bca492b	0.006173273
34	0xbc3753ca	-0.01118941
35	0x3e11d4c3	0.14241318
36	0x3d9dc931	0.0770439
37	0x3d5dd2a2	0.054155953
38	0x3e491612	0.19637325
39	0x3c28a311	0.010292784
40	0x3d3b603d	0.045746077
41	0xbba30c45	-0.004975828
42	0x3e09add0	0.1344521
43	0xbcda8214	-0.026673354
44	0x3c5af2aa	0.01336352
45	0xba1bfb35	-0.00059502135
46	0x3d8867da	0.06660433
47	0x3d15e875	0.03659864
48	0x3cd87e07	0.026427282
49	0xbcf985e6	-0.030459356
50	0xbcb6f2b7	-0.022332532
51	0xbd6a097f	-0.057137962
52	0x3e1cb38d	0.15302868
53	0x39dd9caf	0.00042269143
54	0x3cab853b	0.020937553
55	0x3d484cfb	0.04890154
56	0x3caaff8f	0.020873813
57	0xbd9a57db	-0.07536288
58	0x3dbbedeb	0.091762386
59	0x3e37631b	0.179089
60	0x3c5231bc	0.01282924
61	0x3dd50290	0.104008794
62	0xbb5e5ad1	-0.0033928643
63	0x3ca8e2eb	0.020616015
64	0xbd12d9c4	-0.03585221
65	0xbcd53114	-0.026024379
66	0x3e4a0adb	0.19730704
67	0x3d8a11d0	0.06741679
68	0xbc5c23ce	-0.013436271
69	0x3d33fcf2	0.0439424
70	0x3d1ad868	0.037804037
71	0xbd1581ba	-0.03650067
72	0xbd140048	-0.03613308
73	0x3d836e9a	0.0641758
74	0x3d3024d3	0.04300387
75	0xbe0bb2fc	-0.13642496
76	0x3d5fef57	0.05467161
77	0x3d607576	0.05479952
78	0xbce2b95e	-0.02767628
79	0xbde12b88	-0.10994631
80	0xbbb67483	-0.0055680885
81	0x3b7e00e2	0.003875785
82	0x3b8c2a1b	0.0042774803
83	0xbc6b39de	-0.014357058
84	0xbce6e938	-0.02818738
85	0xbda45f7b	-0.08026024
86	0xbd3a94e7	-0.04555216
87	0xbca2d27f	-0.019875763
88	0x3ca6fb01	0.02038336
89	0x3cf775c0	0.030207515
90	0x3d395e50	0.04525596
91	0xbd985a06	-0.074390456
92	0x3c20db06	0.009817844
93	0x3d3e539b	0.04646645
94	0xbca07dcb	-0.019591233
95	0x3db41a6e	0.087941036
96	0xbce600b5	-0.028076509
97	0xbcc23ecc	-0.023711585
98	0x3e4c8442	0.19972327
99	0x3cdd86c1	0.027041795
100	0xbd51a5cd	-0.05118351
101	0x3cf93a80	0.030423403
102	0x3d8aecba	0.06783433
103	0xbc0c4afc	-0.0085628
104	0xbe12fc51	-0.14354064
105	0xbc37afc6	-0.011211341
106	0x3e59fffa	0.21289054
107	0x3cd63628	0.02614887
108	0xbbdcfdda	-0.0067441287
109	0x3dabe7e7	0.08393841
110	0xbc2c657f	-0.010522245
111	0x3d8f3beb	0.0699385
112	0x3d65e043	0.056122076
113	0x3bbd20a2	0.0057717124
114	0xbd1d7b75	-0.038447816
115	0xbdced7f0	-0.100997806
116	0xbc445e97	-0.011985443
117	0x3dc7cd31	0.09755934
118	0xbd8be2a1	-0.068303354
119	0x3d0859a4	0.033288613
120	0x3e455aa3	0.19272856
121	0x3d847d93	0.06469264
122	0xbd7b79cd	-0.061395455
123	0xbd7e1e5a	-0.062040664
124	0x3cbe8a65	0.023259351
125	0xbda2b797	-0.07945173
126	0xbc9d4ae9	-0.019200759
127	0x3e4dec06	0.20109567
128	0x3d7caccb	0.061688226
129	0x394ff021	0.00019830513
130	0x3df0fbc4	0.117667705
131	0x3c24a045	0.010047977
132	0x3c4c6440	0.012475073
133	0x3a8fadbb	0.001096181
134	0xbcceb8e0	-0.02523464
135	0x3c083d81	0.008315445
136	0xba846d2f	-0.001010334
137	0x3b96eca3	0.004605846
138	0x3e4415e4	0.19148976
139	0x3cd7ec1d	0.026357705
140	0x3d058eff	0.032607075
141	0x3ea2903d	0.3175067
142	0xbd6a44d1	-0.057194535
143	0x3e96bd18	0.29441142
144	0x3d9d8faa	0.07693417
145	0x3d7db6f7	0.061942067
146	0xbd32db03	-0.043665897
147	0xbc1ea2ef	-0.009682401
148	0x3d0e4251	0.034731213
149	0xbd42d56b	-0.047566812
150	0xbcb2ffa0	-0.021850407
151	0x3dc3240d	0.095283605
152	0x3df22c5e	0.118248686
153	0x3c8c3949	0.01711716
154	0xbda58a8a	-0.08083065
155	0xbd548bb0	-0.05189103
156	0xbc5217c5	-0.01282305
157	0x3b441ede	0.0029925625
158	0x3ee903b1	0.4551063
159	0xbd9f98d1	-0.07792819
160	0xbb9825e9	-0.004643191
161	0x3af33193	0.0018554203
162	0xba37763e	-0.00069985155
163	0x3d7406c2	0.059576757
164	0xbc81a3cb	-0.015825173
165	0x3a93e38f	0.0011283028
166	0xbd74a1bd	-0.05972456
167	0x3d220219	0.03955278
168	0xbcc2f0bb	-0.02379643
169	0x3d7f6fc8	0.062362462
170	0x3cc99b45	0.024610171
171	0x3ceba279	0.028763996
172	0xbca8fd66	-0.020628642
173	0xbd400ea6	-0.04688897
174	0x3d6ee6b5	0.058325488
175	0x3cbd4b90	0.02310732
176	0x3a83c6b0	0.001005372
177	0xbd809fe5	-0.062804975
178	0xbd27c9aa	-0.040963806
179	0x3b92e610	0.004482992
180	0x3d17f9f7	0.03710362
181	0xbcc34e95	-0.023841182
182	0x3d581b5c	0.052760467
183	0xbdda9c03	-0.10674288
184	0x3e63b787	0.22237979
185	0xbccce632	-0.02501211
186	0xbd9211b9	-0.071322866
187	0x3cfc40fd	0.030792708
188	0x3e25913f	0.16168688
189	0x3e2a3044	0.16619974
190	0xbc0669a8	-0.008203901
191	0x3eb0c9d5	0.34528986
192	0x3c7c86d8	0.015413009
193	0xbe3908b6	-0.18069729
194	0x3da259c4	0.07927278
195	0x3d2c3694	0.042044237
196	0xbc4fee10	-0.012691036
197	0xbd8bd250	-0.06827223
198	0x3c5f460c	0.01362754
199	0x3ddc28bd	0.10749958
200	0x3e109f97	0.14123379
201	0xbd6b3ce2	-0.05743111
202	0x3d876a3b	0.06612059
203	0xbd60c6fb	-0.054877263
204	0xbd8ad3f9	-0.06778712
205	0x3d55cd35	0.052197654
206	0xbc27c5ad	-0.010240001
207	0x3ec36169	0.38160256
208	0xbcf953c2	-0.030435447
209	0xbd4f6b87	-0.050639655
210	0xbca0d84f	-0.019634394
211	0x3d847523	0.064676546
212	0x3e4f1a4e	0.20224878
213	0xbc59b300	-0.013287306
214	0xbc5d1a94	-0.013495106
215	0x3ca49ff9	0.020095812
216	0xbdbfa6da	-0.09357996
217	0x3e116a9f	0.14200829
218	0x3d139d95	0.036038954
219	0x3e86316b	0.26209578
220	0x3c8e4722	0.017367903
221	0x3dc3aae7	0.095540814
222	0xbc306629	-0.010766544
223	0xbd115ddd	-0.035489906
224	0xbc022e08	-0.007945545
225	0x3d988294	0.07446781
226	0xba136c63	-0.0005623756
227	0xbccc99d1	-0.02497569
228	0x3cd8019c	0.026367955
229	0x3cc344f1	0.023836585
230	0x3e294789	0.16531195
231	0xbbbe2bf9	-0.005803582
232	0xbc701023	-0.014652285
233	0x3db1c134	0.08679429
234	0xbc581994	-0.013189692
235	0x3ca239e6	0.019802999
236	0x3ced14cd	0.028940583
237	0x3e301f1d	0.17199369
238	0x3dbda035	0.09259073
239	0xbc97133f	-0.018441794
240	0x3dbbb715	0.091657795
241	0x3de8b9db	0.11363574
242	0x3db6e9ec	0.08931336
243	0xbb4992ef	-0.0030757745
244	0xb9f2398d	-0.00046200716
245	0x3e58de4b	0.21178548
246	0xbacf5820	-0.001581911
247	0xbd7a2d08	-0.0610781
248	0x3e27bb64	0.16380078
249	0xbdde1011	-0.10842908
250	0x3d460c32	0.048351474
251	0x3d2ad1a0	0.04170382
252	0x3d133dba	0.03594754
253	0xbc0cb7b4	-0.00858872
254	0xbd59e271	-0.053194467
255	0xbd8f241a	-0.06989308

log_std_linear.bias f4 [3]
0	0xbf82098e	-1.0159166
1	0xbf5667d9	-0.8375221
2	0xbf9b545e	-1.2135122
