hydrone_aerial_underwater_ddpg/scripts/Models/sac_stage_1_air3D_tanh_3layers/380_pol_, _, action, _ = self.policy.sample(state)icy_net.pth (torch_old, 297299 bytes, 8 tensors)

linear1.weight f4 [256, 25]
00000000: 7d37 c83c 1889 8c3d 7255 25be 25a9 dc3d
00000010: 8563 9abd 6a71 13be 4f6b 6ebd 0ad6 933d
00000020: 8fbb 14be 406e 493d 866b 5e3d 3cb8 183c
00000030: 1f5d a03d 3463 c8bc 0675 07be 20f9 fbbd
00000040: 5157 8fbd 58d8 0ebe 15f6 d2bd 17c3 913d
00000050: b2d2 5a3d d84d 8b3d 923c 9f3d 5d2f a2bd
00000060: bdec 10be 04a3 c2bd ef9d acbc 12e7 113e
00000070: 4448 8a3d b49c 4abd 55a9 8b3a 3fc9 83bd
00000080: cfad 60bd be52 a83c 0e53 54bc ac13 6d3e
00000090: 4941 ad3d 8164 5c3e 16ca e839 3c2a 903d
000000a0: 3fa6 31bd 5e32 f63c 8c27 1bbe 936d f53b
000000b0: c472 693c a17d f0bc 3864 a43e b2a3 103d
000000c0: 99a7 edbe 00f3 f53b 6d4b 313c 40a9 4c3d
000000d0: 2193 7a3e c85d 453e 75f4 d7bd 8607 e9bd
000000e0: 386d 843d 8503 293d 904a c13c 2650 5dbd
000000f0: afb6 d43c 66fc d73d f67b 6c3c 3950 ed3d
00000100: 59e8 acbd 7535 ecbc 5536 6abe eff1 8d3c
00000110: 1180 5b3d f4d0 e1bd 9979 f43e a884 23be
00000120: c0fa 98bd 434d e23e 3d3c 17be d83c 8dbd
00000130: 3535 663d dddc 083d e151 e23d f475 e1bd
00000140: e7d8 b6bb 36f0 43be 5e32 45be 1101 33be
00000150: 0ff4 e3bd ef7a 9d3d f70c b93c 1b79 43be
00000160: 41ad c5bd 479a 4e3d bf03 a9bd 28af c73d
00000170: fa14 a9bc 266f 033c 08b7 dabd 357c 823d
00000180: 1302 34bd fc5c 91bd 0952 b03d b4b9 383d
00000190: 6f8d ed3d 31ae 113e 003f 233e e8ad c6bd
000001a0: ff46 3dbe 2461 ddbd 094f 3bbe 3232 89be
000001b0: edd7 94be 04c7 73be 39db 33be 17c7 f7bd
000001c0: eaf4 04be bd95 1abe 3386 003e 3384 30bd
000001d0: c325 f6bd f080 603e d044 0cbd 8118 1c3e
000001e0: b74a 48be 0537 9e3d 55b2 a3bd 13f7 6e3c
000001f0: 3823 413e 95fd 91bd 10cb 933e 5faa c73d
00000200: ce21 b6ba 3284 473e 172d 403e c397 1d3d
00000210: 4b5d 843d 6c88 5bbd 5140 033c 4b2a 94bd
00000220: f94a 17be 1e16 cdbd 6a78 c6bd b0f9 fa3d
00000230: 5c71 0dbe 099b a7bd 1807 64bd 3129 b1bd
00000240: 8e4b 5cbe 73c9 67be ec40 a43e 0501 ff3d
00000250: 4e38 373e 43f0 563e 5185 d6bc 9075 433e
00000260: 737d 39bd 892b c53d f63b 94ba c45a 21be
00000270: fbfb 0ebe 56bb 06be e6ad f73c 7a44 773d
00000280: 8e8e a13d 91ca b4bc 20fd a33d 8f5f e8bb
00000290: f567 63bc 4533 8abb eec0 63bd 5635 593d
000002a0: d031 cbbd 0e6f 1a3c 19c9 143e f7d9 53be
000002b0: 7f7e 67be 8234 643f e134 933e ab15 013e
000002c0: 8387 863d 7cd7 e73d 8d31 0fbe 3992 4fbd
000002d0: f6ef f43d f3ca 393e 60b8 e93d 9fb1 873d
000002e0: bfa1 263d 5b42 d6bc ef73 e9bd b031 95be
000002f0: eb34 16be 5e40 81be 634a 5cbc 156d e83d
00000300: 9c2c 373d 6957 c7bd f211 d4bd ff4d 86be
00000310: 8d01 01be e064 f4bd 92b3 d8bf 9ef3 1d3f
00000320: bab2 2a3d ff95 dc3d db3b 2e3e 4e97 e3bd
00000330: 258f 273e 49ea 52be 6f21 efbd 4dbf 89be
00000340: 5804 7cbe 11ec 82be 6e34 47be 155e 62be
00000350: 2477 a5bb ab2f 913d 6159 313d ce1d a33d
00000360: ca5c 8e3d 62ad 12bd 13d7 b13d d6e2 303e
00000370: bd98 c2bc 3f89 8e3e 1acd e13d d964 38be
00000380: 5366 50bd 3381 06be 709f 0e3d f768 f83b
00000390: ea2e 0b3e f505 133e 0172 433e 07ea a03d
000003a0: dc19 62bd 811a 10be 1a6f 4bbd a27c 47be
000003b0: a09c d7bd 0136 80bd edf8 cd3d 39b2 273c
000003c0: 65bb 343d 458b 3a3d e211 1dbe 51c2 c13d
000003d0: f501 f43d ac95 233e 23de 8f3b 6a80 dcbe
000003e0: d28c 673e 48c2 7dbe 6d0c 663e 3176 003d
000003f0: 59c7 f13d 225e 4d3c e6e4 65bc 9111 87bd
0.024440521 0.06862086 -0.16145876 0.10774449 -0.07538513 -0.14398733 -0.058207806 0.07218559
-0.14524673 0.04917741 0.05430176 0.009321269 0.078302614 -0.024461366 -0.13228235 -0.12303376
-0.06999076 -0.13949716 -0.10300843 0.071172886 0.05342359 0.06801957 0.07775225 -0.0791919
-0.14152808 -0.09503749 -0.021071402 0.14248303 0.06752065 -0.04946585 0.0010655323 -0.06434869
-0.054853257 0.020547267 -0.012959255 0.23152035 0.08459718 0.21522714 0.00044401054 0.070393056
-0.043371435 0.030053314 -0.15151805 0.007489869 0.014248554 -0.02935678 0.3210771 0.035312362
-0.4641693 0.0075057745 0.010821206 0.049966097 0.24470188 0.19274056 -0.10544673 -0.11378388
0.06466144 0.041263122 0.023595124 -0.054031514 0.025966017 0.10546188 0.014433851 0.11587567
-0.08442754 -0.028834084 -0.22872289 0.017327277 0.05358893 -0.11026183 0.47749022 -0.15968573
-0.07469702 0.4419957 -0.14769073 -0.06896371 0.056203086 0.033413757 0.110507734 -0.11008826
-0.005580056 -0.19134602 -0.19257495 -0.17480876 -0.11130535 0.07689463 0.02258919 -0.19089167
-0.09652186 0.0504401 -0.08252668 0.09750205 -0.020639885 0.008022105 -0.10679442 0.06371347
-0.04394729 -0.070978135 0.08609397 0.045098975 0.11599242 0.14226605 0.15942001 -0.09701139
-0.18484114 -0.10809544 -0.18291868 -0.26796108 -0.29070988 -0.23806387 -0.17564096 -0.1209852
-0.12984052 -0.15096183 0.12551193 -0.043094825 -0.12018921 0.21924186 -0.034245312 0.15243722
-0.19559751 0.07725338 -0.079929985 0.014585274 0.18861091 -0.07128445 0.28865862 0.097492926
-0.0013895573 0.19484022 0.187672 0.03847481 0.06463107 -0.0535969 0.00801094 -0.07234629
-0.14774694 -0.10013984 -0.09690936 0.12254655 -0.13812774 -0.081838675 -0.055670828 -0.08650435
-0.21513197 -0.2263544 0.3208078 0.12451366 0.17892572 0.2099009 -0.026186617 0.19087815
-0.045285653 0.09627444 -0.0011309374 -0.1575728 -0.1396331 -0.131574 0.030234288 0.06036804
0.07888518 -0.022069247 0.08007264 -0.0070914696 -0.013879766 -0.0042175376 -0.055603914 0.05302938
-0.0992161 0.009425892 0.14529838 -0.20688616 -0.22606848 0.8914262 0.2875128 0.12605922
0.065688156 0.11320397 -0.13983746 -0.05067656 0.119598314 0.18143825 0.1141212 0.066256754
0.040681597 -0.026154688 -0.11399066 -0.2913947 -0.14668624 -0.2524442 -0.01344547 0.11348931
0.044720277 -0.09733469 -0.10354985 -0.2623138 -0.12598248 -0.11933303 -1.69298 0.61699855
0.041674353 0.10770797 0.1701502 -0.111128435 0.16363199 -0.20597185 -0.11676299 -0.26903763
-0.24611032 -0.2557073 -0.19453594 -0.22106202 -0.005049603 0.0708917 0.04329813 0.07964669
0.06951292 -0.035809882 0.086836 0.17274031 -0.023754472 0.27839085 0.11025448 -0.1800722
-0.050878834 -0.13135223 0.03482002 0.007580872 0.13592115 0.14357741 0.19086458 0.07857137
-0.055200443 -0.1407261 -0.0496665 -0.19481137 -0.10527921 -0.062603004 0.100572444 0.010235363
0.044124026 0.045542974 -0.15338853 0.09460891 0.11914436 0.15975064 0.0043904944 -0.43066722
0.22612312 -0.24781144 0.22465678 0.031362716 0.11805601 0.01253465 -0.014031624 -0.065951474

linear1.bias f4 [256]
00000000: 745e b1bc 94f2 04bb 3335 aebc 01ee 96bc
00000010: 7925 7f3d b6e8 5fbc fa13 4b3c 4374 093d
00000020: af2d 353d d1f1 e9bb 4f5a 083d 9e14 5dbc
00000030: 1916 1bbc 5c42 0dbb 6b07 a2bc 8f7a 98ba
00000040: 0000 0000 0000 0000 6ce2 b4bc 7b50 153c
00000050: 583d 313d f536 b43d e60b 18bc b558 933d
00000060: 3deb ba3c 2a34 0d3c a86c 9fbd 7611 82ba
00000070: 1179 83bc 144d 933b cdf5 823c e67b 38bd
00000080: a9dc 9a3c 185d a73c 0f60 b83d 909b 043b
00000090: e4bd 1bbc 1e55 703d a830 ffbc ad76 393d
000000a0: 0000 0000 d77a 883c 16d2 19bd e22d 7d3c
000000b0: 2851 e23b 5d38 0c3d c9e4 77ba dfcf 703d
000000c0: 64ae 643d a0a6 29bc c282 bd3c d78d 10bc
000000d0: fcbe 09bd fb7d d7bc 078d 6dbc 89e2 11bc
000000e0: fa1c 96bc 4855 fdbc 84bf a33d 1c8c 67bd
000000f0: 674d 53bd 73cb 293d 60a0 15bd e36e 04bd
00000100: d908 193d f285 553c ff4d e9bb b834 e5bc
00000110: 8830 06bd 109b 75bb 5ab3 1fbd ba3e b3bd
00000120: ddf2 29bd 2baf 9c3d 6c13 cdbd 82f6 a4bd
00000130: a6fb 87bb 35d6 463d 8b2d 54bc 5219 b43c
00000140: 9173 01bd 28b2 f5bb 72fc 8abc ce5e e7bc
00000150: b465 8fbc 16cd 7fbc cae9 3ebd b4f7 b03b
00000160: 2bb9 66bc 7f33 60bd 2514 3cbd 208e 413d
00000170: 1081 34bc ef41 82bd a246 983c fcd3 31bc
00000180: 7496 fabb dbce 863d 5b34 8dbb 88ac 0abd
00000190: 7e9a 75bd fe74 813d 921d 433b 25fb 5d3c
000001a0: c114 863c 624a bdba a1ff 6f3b 7c55 a73d
000001b0: 553b 4abd 4cf5 f7bc 3a66 1bbc 05b1 2d3c
000001c0: 082c ad3c 8988 883c 6928 46bd cecc a43c
000001d0: 504e 36bd 2099 00bd 8765 1bba 4903 68bd
000001e0: 1d82 8d3d d6e9 9bbc 78ac 27bd 617c 83bc
000001f0: e301 0cbd 1d3f b4bc e066 02bd 0000 0000
00000200: 5ccf d13d 864b 97bc c320 d1bc 911f 1cbc
00000210: a6bb d63c 0e98 883c ea8b 17bd e05c 653d
00000220: 1144 7aba a82d faba e61b b3bb 5879 d7bc
00000230: 6c01 2bbc 58c7 003d 3c02 73bd 3c6f 90bb
00000240: 1e43 0e3c 3aae d23c 5815 913c dc2a d4bc
00000250: 6ab7 6cbd cdf8 b2bc 0dfa 093d c46c ab3c
00000260: 757a 923b 87fd c8bb f2d8 cebb 66f6 e1bb
00000270: 12a6 cfbc 4ba1 963d 0c39 843d 0c1f 5d3d
00000280: d161 1e3d 049d a7bd 5756 093d 2dd4 02bd
00000290: a7b9 22bd 0042 673d 6526 e5bc 9453 653d
000002a0: 8d7c 09bd 1fab e2bc f18d 13bc c66e f63b
000002b0: 9c53 acbc 1590 1dbb 827e 07bd fb65 dfbc
000002c0: 2112 b2bc 3eee d2bc d24a a9bc 83a7 17bc
000002d0: 952a f8bc e2d5 2abd e083 203c 4eab 1bbc
000002e0: 6151 8cbd df6d 7b3c 8c1b cbbb 5504 5bbd
000002f0: 575e 8bbd 7235 f43b 9919 bfbc 8dcd e7bb
00000300: 83ab 1bbc 276c a3bd faaa cbbc 17d9 4ebd
00000310: d8ec 31bd eaa1 fdbd 9ba0 89bc bc24 093a
00000320: 7bc2 1bbc 731d bebc ddf5 1bbc e7ac 2fbd
00000330: c3cd b2bc 0f2d 8ebd 97a1 9a3c cc65 68bc
00000340: 2671 dcbb aeda 4bbd c793 febc 38e5 83bd
00000350: b43e 96bd 4d85 0f3c 8509 d33a 42c7 0b3c
00000360: 08d7 3b3c 8950 ce3c fd5d 37bd 5020 b0bd
00000370: cd6d 27bc 7e6c 4b3d 5d9d 40bd 2971 f53b
00000380: 75d0 d93c 80c9 ffbc 0000 0000 0c79 b43c
00000390: dcb2 00bd 2461 27bd 7478 c83c 7010 2bbc
000003a0: ab5d b3bc 0e4a 42bc a32c 8fbc fc59 58bc
000003b0: a726 153c 3572 debc e89b d3bb 0000 0000
000003c0: 6057 173b 53d8 8bbd 0439 8dbd ee25 35bd
000003d0: 3843 ea3a 14aa b93b 9cd3 a13c 4d90 4cbb
000003e0: b3fc 7ebc a972 2d3c 8618 5ebd 4027 72bc
000003f0: 3310 99bc 517a 9b3d b5bd a1bc 0000 0000
-0.021651484 -0.002028619 -0.021265602 -0.018424036 0.062291596 -0.013666322 0.0123948995 0.03355814
0.04423302 -0.0071394225 0.03328925 -0.013493685 -0.009465718 -0.0021554446 -0.019778928 -0.0011633205
0.0 0.0 -0.022080623 0.009113426 0.043271393 0.08799545 -0.009280181 0.07194654
0.022817248 0.008618394 -0.077843964 -0.0009923417 -0.01604894 0.0044952724 0.015986348 -0.045040034
0.018904047 0.020430133 0.09002697 0.0020234324 -0.009505723 0.058674924 -0.03115113 0.045279194
0.0 0.016660137 -0.03755387 0.015452834 0.0069066472 0.03423344 -0.0009456394 0.05879199
0.055830374 -0.010354668 0.02313364 -0.00882288 -0.033629403 -0.02630519 -0.014498956 -0.008904108
-0.018324364 -0.030924454 0.07995513 -0.056530103 -0.05158749 0.04145379 -0.0365299 -0.032332312
0.037361953 0.013032423 -0.0071198936 -0.02797924 -0.032761127 -0.0037476458 -0.038989402 -0.087521985
-0.041491378 0.07650598 -0.1001347 -0.0805483 -0.004149872 0.048544127 -0.012950311 0.02198473
-0.031604353 -0.0074980445 -0.016966078 -0.028243449 -0.01750455 -0.015612861 -0.046609677 0.0054006223
-0.014082233 -0.05473661 -0.04591765 0.04725468 -0.011017099 -0.06360232 0.018588368 -0.010853764
-0.00764733 0.06582423 -0.00430922 -0.033855945 -0.05996179 0.063211426 0.0029772264 0.013548647
0.016367318 -0.0014441723 0.0036620873 0.08170602 -0.04937299 -0.030268334 -0.009484822 0.010601287
0.02113916 0.016666668 -0.048378382 0.02011719 -0.04450828 -0.03139603 -0.00059279095 -0.056643758
0.06909583 -0.0190324 -0.040935963 -0.01605052 -0.034181487 -0.022002751 -0.03183639 0.0
0.10244629 -0.01846863 -0.025528317 -0.00952901 0.026212525 0.016674068 -0.036998667 0.055996776
-0.0009546886 -0.0019087093 -0.0054659722 -0.026302978 -0.010437351 0.03144011 -0.059328303 -0.0044077914
0.008682994 0.025717843 0.017710373 -0.025899343 -0.057792105 -0.021847153 0.033685733 0.020925887
0.0044701644 -0.0061337384 -0.006312483 -0.006895828 -0.025347743 0.07354983 0.06456193 0.053984687
0.038667504 -0.08184245 0.033529606 -0.031940628 -0.039727833 0.056459427 -0.02797241 0.05598791
-0.033566047 -0.027669488 -0.009006009 0.0075205294 -0.021035962 -0.0024042178 -0.03307963 -0.027270308
-0.02173716 -0.025748368 -0.02066556 -0.0092562465 -0.030293742 -0.04170788 0.009797066 -0.009501291
-0.06851459 0.0153460195 -0.006198352 -0.05347093 -0.06805103 0.0074526602 -0.023327636 -0.007074064
-0.009501341 -0.07979613 -0.024861801 -0.0505 -0.043438762 -0.12384398 -0.016800215 0.0005231609
-0.009506817 -0.023207402 -0.009519068 -0.042889502 -0.02182663 -0.06942188 0.01887588 -0.0141844265
-0.0067273555 -0.049769096 -0.031076325 -0.064402044 -0.073361784 0.008759809 0.001610086 0.0085313935
0.011464842 0.025184887 -0.04476737 -0.08599913 -0.01021905 0.049664013 -0.047025073 0.0074902964
0.026588658 -0.031224012 0.0 0.022030376 -0.031420574 -0.040864125 0.024471499 -0.010440931
-0.02189525 -0.011858476 -0.01747734 -0.013205048 0.009103454 -0.027154068 -0.0064577945 0.0
0.002309285 -0.0682837 -0.068956405 -0.044225626 0.0017872816 0.005666027 0.019754224 -0.003121394
-0.015563178 0.010586419 -0.054222606 -0.014779866 -0.018684482 0.075916894 -0.01974378 0.0

linear2.weight f4 [256, 256]
00000000: 16bd 17bd 7764 483d e5b7 d43d a683 c53c
00000010: cb41 1e3e a9d7 50be 708f b03d c2b8 dfbe
00000020: 5ee8 843d e942 77bd f302 0ebe d068 3c3c
00000030: e91c 9c3d 7496 c53d 0d9c 94be 2ef3 cabe
00000040: 7372 c6bd 5d02 d6bd 71d6 6abe 4a46 e7bd
00000050: 8576 f8bd 4181 dc3c bdaf eebd 62fe d53d
00000060: d4ad 3ebe dabc 7e3e 9a1f 2f3e ce9f 32bd
00000070: 29f6 54be 88a0 e3be 4c28 0e3e cadb 9bbd
00000080: d2d5 b6bd 7133 ffbd f49d a1ba 780f 65be
00000090: 937d a33d f06d 08bd 6665 98be 02e8 243e
000000a0: 01f0 d13d 2b5c 483e 4e2d 54be ea8b 53bd
000000b0: 894c 2f3e 04d5 813d 533f 96bc 0440 6e3d
000000c0: 8e2c 88bc 82a9 f53d f099 9cbd e793 c8bc
000000d0: e831 b7bd fb78 93be bed5 1f3b edf0 3cbc
000000e0: 4368 adbd 1d84 403e e924 a0bd 6f50 f3bb
000000f0: 14fb 4ebe 22e4 e6bc 4a6c 3abe c33f a6be
00000100: 8069 5a3d 6829 bebb 4dd8 afbe 2250 1bbd
00000110: d616 69bc 1e3d 103e 6cf1 a6be 8351 c53d
00000120: 104d f33d 075b bf3d 9938 b8bd f7fa a0bd
00000130: a828 b53c f3af b33c 81fc d4bc c43f 033e
00000140: dc19 40bd 60c2 8c3d 86af 133e 6b26 c2bc
00000150: 1274 f4bd 2a1b dc3c 0900 3ebe 6db6 d23b
00000160: eba6 ddbc 6911 4a3e 098b 7fbe 16d9 3abe
00000170: 6c93 92bd 6b5b 65be c9b1 dfbd a955 a33d
00000180: d723 36bd 4e3b d83c d1e6 a4bd 62e1 32bd
00000190: 5612 17be 1a49 4d3d 8c25 9b3d 3b78 c13d
000001a0: 14f0 23be fb3e 90be e330 88be 5c1a 883d
000001b0: 00fe 43be 930e d7be 4f06 a8bd 0fa3 97bd
000001c0: ce4a 8d3c bd19 e13d d5c8 3e3c fedd 593e
000001d0: be69 0e3e e6e1 65bc 9a78 0f3c 0c36 1bbe
000001e0: 4013 63be 93b3 223e d061 cdbd 65af 77be
000001f0: b49f 98bd f045 0cbe b8d5 71bd 843c d63c
00000200: e72f 843e 0d67 8fbd 6b6c c3bd a957 48bd
00000210: 33f1 07bd ac47 96be 18ff ccbe 8cbc 8f3d
00000220: a6c7 ecbd 2cfa debd 2bbf 44bd c5e4 13be
00000230: d023 10be ed63 cc3d cde7 91be 8318 d43c
00000240: 2a48 90bd 9c6e 0a3e 733f f8bd 7a71 0b3e
00000250: d464 14bd f4b9 46be c568 d83d ae4a 23bc
00000260: e018 763d 6c83 a3bc 9dda d13c d222 37bd
00000270: 75ea fa3c 7d10 05be 1b72 d13d 35e1 093d
00000280: 8a3d 61be 3652 723d 8c35 8dbd e987 07be
00000290: 49af 28bb 7085 c5bd ab2c fc3c 88b1 f33d
000002a0: 2c87 01bd 6b38 f1bc 93a3 7fbd 7bb4 9f3d
000002b0: a141 41be 468f 513e 45ad 4e3d 00f4 0d3a
000002c0: ec85 b4be cb1f 23be 37ca eb3d 3b87 1f3e
000002d0: 3ca5 883c 8fcb ecbc 8ef4 9f3d 0c81 bd3d
000002e0: 57c8 91be 6e7d fc3c 58b0 823d 12d8 87be
000002f0: 31ef 213e b6ed bbbd 16b7 a3bd 29be aa3d
00000300: 647d 3b3d dd7e 44bd 5e67 85bd 3c0a c8be
00000310: 8f38 5fbe 8e78 a8bd be07 2b3e e795 89bc
00000320: a972 bf3d 1866 81ba 5a68 debd a8a8 0bbe
00000330: aacc e2bc 594b afbd b2d4 06bf 6af6 66be
00000340: 7c16 8f3d c094 f4be 59c2 913d 0ee9 ffbd
00000350: 8b74 583d 0c07 603e 5a70 02be 6925 00be
00000360: 9f0b 3fbd 16b7 3cbe abe6 11bf 4810 7c3e
00000370: 7a8d d53d 8ba5 71be 5b21 76be 5d2c 53be
00000380: 5e23 cd3c 3631 3c3e e32c ba3d 50f5 39be
00000390: baea 36be 41cf 65bc 0c55 343e db9e c9bc
000003a0: c762 b6bd dcf1 dfbd 2d1d 023e 920e 243d
000003b0: 389d 26be c890 c4bb e0f9 393d eac7 773d
000003c0: a8a8 4b3d 1f1e b5bd 08f6 6c3d f381 febd
000003d0: 6b7c 5dbe 0f87 d2bd 868f 043e 7b44 52be
000003e0: 9f5e 9f3b 8e94 64bd ebf5 e53d 0148 71be
000003f0: c9fc 873d a8aa 833e 510b 59be adbd 79bd
-0.03704556 0.048923936 0.103866376 0.024110626 0.15454786 -0.20394768 0.086211085 -0.43695647
0.06489633 -0.060366545 -0.13868313 0.011499599 0.07622702 0.09647837 -0.29025307 -0.39638656
-0.09689798 -0.104496695 -0.22933365 -0.112927034 -0.12131981 0.026917102 -0.11654613 0.1044891
-0.18620998 0.24876729 0.17101899 -0.043609433 -0.20797028 -0.44458413 0.1388256 -0.07610281
-0.08927502 -0.124609835 -0.0012330399 -0.22369182 0.07982936 -0.03330797 -0.2976486 0.16104129
0.10250855 0.1956641 -0.20720407 -0.051647104 0.1711904 0.06339458 -0.018340742 0.05816652
-0.016622808 0.11995222 -0.07646549 -0.024484588 -0.08945066 -0.28803238 0.0024388875 -0.011532051
-0.08467152 0.18800397 -0.0781954 -0.00742536 -0.20212966 -0.028184954 -0.18205371 -0.3247052
0.05332327 -0.005803276 -0.34344712 -0.037918217 -0.014226636 0.14085814 -0.32606065 0.09634688
0.11879933 0.09343534 -0.0899517 -0.07860368 0.022114113 0.021934485 -0.02599931 0.12817293
-0.04689966 0.068730116 0.14422426 -0.02369996 -0.11936201 0.026868422 -0.18554701 0.0064304383
-0.027057132 0.19733204 -0.24955381 -0.18246874 -0.07157025 -0.22398154 -0.10922582 0.07975323
-0.044467773 0.026395466 -0.08051837 -0.043671973 -0.14753088 0.050118543 0.07575521 0.0944676
-0.16009551 -0.2817305 -0.26599798 0.06645653 -0.19139862 -0.42003307 -0.08204328 -0.07404148
0.017247584 0.10991237 0.011644562 0.2127609 0.13907525 -0.014030909 0.008756781 -0.15157336
-0.22175312 0.15888815 -0.10028422 -0.24188001 -0.07452336 -0.13698554 -0.05904171 0.026151903
0.25817797 -0.07002077 -0.095421635 -0.048911724 -0.03318901 -0.29351556 -0.4003837 0.07018384
-0.115615174 -0.1088756 -0.048033874 -0.14442737 -0.14076161 0.09979997 -0.28497162 0.025890594
-0.07045014 0.13518757 -0.12121477 0.13617507 -0.03622897 -0.19406873 0.10566858 -0.0099665355
0.060082316 -0.019960128 0.025616938 -0.04471094 0.030629376 -0.12994571 0.10226842 0.03366204
-0.21996132 0.059160434 -0.06894979 -0.1323544 -0.0025739244 -0.09644592 0.030783018 0.11899096
-0.03162305 -0.029445847 -0.062411856 0.07798096 -0.18872692 0.2046481 0.05045821 0.0005415082
-0.35258424 -0.15930097 0.11513179 0.1557893 0.016680352 -0.028905658 0.07810317 0.09253129
-0.2847316 0.030821528 0.06381291 -0.26532036 0.158139 -0.09176199 -0.07993905 0.083370514
0.04577388 -0.04797255 -0.06513856 -0.39070308 -0.21798919 -0.08226119 0.16702172 -0.016795112
0.093480416 -0.0009872345 -0.10859747 -0.13638556 -0.027685482 -0.08559293 -0.526683 -0.22554937
0.069867104 -0.47769737 0.07117147 -0.124956235 0.05284552 0.21877688 -0.12738171 -0.12514271
-0.046641942 -0.18429217 -0.56992596 0.24615586 0.10427375 -0.23598306 -0.24036162 -0.20622392
0.025041278 0.18378147 0.09090593 -0.18159986 -0.17862979 -0.014026464 0.17610568 -0.024611881
-0.08905559 -0.10934803 0.12706442 0.040052958 -0.16270912 -0.0059987046 0.045404315 0.060493387
0.04972139 -0.08843636 0.05785182 -0.124271296 -0.21629493 -0.10279667 0.12945375 -0.20533936
0.0048635746 -0.055805735 0.11228546 -0.23562624 0.06640012 0.25716138 -0.21195723 -0.060971905

linear2.bias f4 [256]
00000000: b71e 8b3d 02c6 e7bc 6b45 f43d c4e3 e7bd
00000010: e03d 3fbd fd5c 3cbd 4a82 d73c 06d4 5abc
00000020: 95a8 b1bd ef95 1abd 9eff a73c 62f4 083d
00000030: a26a 4f3c 0d55 873b b004 813d 5715 c6bc
00000040: 6029 1bbe 3dd1 dabc 6e25 853b 31f1 c23c
00000050: 5de7 b73c 1116 ea3d 57f1 96ba bcee 31bd
00000060: be4f db3c e1f6 8fbd 935c 893e ddd9 c0bc
00000070: 2df7 313d 0817 04bd 9c51 293c 2b30 83bd
00000080: d1d5 da3b 9b89 db3d a9df f13d c8b8 343d
00000090: c36f 64bc 1b1c 50bd b4ff 013e 663b 8e3c
000000a0: 732d 0d3d cc20 503d bae5 0e3e 317c 40bc
000000b0: 963f 903d eeb3 8dbd fabc 983c 65df 64bc
000000c0: 1d2f 8b3d ef78 f9bd 64c1 2dbe 95ce e23b
000000d0: 6ae6 ee3c a7d3 43bd 15f2 63bb c7c7 5e3d
000000e0: a319 b93d 0c5a 663e 71f5 5fbd 9987 febc
000000f0: 061b f33c bd4b 15bd fd34 5c3c 2e0e 69bd
00000100: 0394 e8bd e49c 2bbd 449f 1fbd 0a9a f3bc
00000110: f925 2abd 8b1f 90bb 4bb4 8fbd ae00 4e3b
00000120: 4c08 40bd d4ee debd dfe0 17be 7a62 13be
00000130: 90ab d23b 8603 53bd eaf4 4fbb 9323 483c
00000140: bdac 4e3d da30 c7bc 7fd3 8f3d 0390 973b
00000150: abcf 9d3d b98e 0fbd f83b 6f3d 3a45 8d3d
00000160: 888e cbbd 325d 2ebd db95 11bd 9097 c03c
00000170: dd49 61be 1765 9ebb 02fd 743d 8d85 453d
00000180: 995b 2dbd f83e 1cbd a05d 8bbd a7e7 c7bb
00000190: 22db 3dbd 0730 6dbc 5717 243e 0ed8 82bd
000001a0: 57b7 c63e cc88 e63c d7ef 19bc f474 453e
000001b0: 88a7 83bd b981 be3c 7c85 9e3c e6dd b53c
000001c0: 1086 363d 8d33 023e 62ce 01bc d704 ec3b
000001d0: 6c3b e8bc 8df5 2e3d 8c57 5abd 30af a23e
000001e0: 82b2 40bd 6c4b 8bbd 96e5 1e3c efab 18be
000001f0: 8931 ab3c be78 d93c 87c5 963b 1255 4d3d
00000200: 43af 06bd 9787 963d 7244 353d ef92 013d
00000210: 4c2f 7abd c2f6 50bd a179 773c ddd3 08be
00000220: f540 863d f325 d4bc c9ea e23a 0bc5 d93c
00000230: 62a1 2d3c 3119 0abd 2172 c4bb 55a6 f1bc
00000240: e7ae 2bbd 85b3 483d 17e4 62be 35b1 913d
00000250: 7a17 ca3c df33 60bd 8e8e 303c e1c9 43bd
00000260: 4ebc 26bd d362 4f3d ab10 11bd eadc 9b3d
00000270: e7db 0a3e 5439 afbd eb8f 66bd 61d4 49bd
00000280: b628 1bbd 70db fe3c 2918 c43c 80fc 723c
00000290: a1a1 863d 9762 4fbd cda9 c63c 01b0 8ebd
000002a0: 1e65 c3bc 6993 ff3d 8d35 71bd f078 813d
000002b0: f0de bfbb 10c7 55bc 4aa4 88bd 6d8e bf3d
000002c0: 47a3 f43d e69b cc3d 99a4 b23c 6a6d 55b9
000002d0: f76e 29ba 0a0c 403b f40d a13d fd1b 02bd
000002e0: 4c39 94bc 3eca 4bbd b08e 8e3c 2b76 b0bb
000002f0: 7d9f d7bc 636a 543d f3ea 75bc 2c85 01bc
00000300: 1abc 75bd aae9 833d 7864 903e 52fc d83c
00000310: 1159 27bd 06fb 81bc 3ee6 bfbd 653a 923b
00000320: 0fc4 b739 d657 0abd 1ff8 4dbd 71e5 963c
00000330: 8887 3a3d 5c04 d13c 09f6 493d 42dc f03c
00000340: bcaa 113d dc93 91bd fcdc cabd b382 a23d
00000350: 2b9b 5dbd 1e07 0cbe 59d3 04bc 78b1 2ebe
00000360: a1cd 4d3d 4293 bf3c 0ea3 3abd d828 903a
00000370: 89ad 13bd b954 633d 8116 42bd 94fb 9dbc
00000380: 0a14 493c ca12 0d3e b9b8 233d 52b0 083e
00000390: 7b41 7bbd 4acd 5e3d bff3 243d 2a0c a1bd
000003a0: 7dd5 eabc 021b 113c 0796 06bd d2bc 20bd
000003b0: 3274 903e be8f 73bd 16e0 bebc 7842 99bd
000003c0: 9357 f83b d9c5 053e fec7 d6bc 9ee9 ebbc
000003d0: c958 38bc 3af3 cb3d 2d74 933c e37f 7dbd
000003e0: 526e 65bd e83f 93bd 966c 2d3d a023 b73b
000003f0: 5a17 d1bc e034 e9bc 706a 723d a707 a1bd
0.06792968 -0.02829266 0.11927303 -0.1132274 -0.046689868 -0.045987118 0.026307244 -0.013356214
-0.086747326 -0.037740644 0.02050763 0.033436187 0.012659701 0.004130012 0.06299722 -0.024180098
-0.15152502 -0.0267111 0.0040633 0.02379665 0.02244919 0.1142999 -0.0011516017 -0.043440565
0.026771422 -0.0702951 0.2682844 -0.023541385 0.043448616 -0.032248527 0.010334399 -0.06405672
0.006678321 0.107196055 0.11810238 0.044121534 -0.013942662 -0.050808053 0.12695199 0.017362308
0.034467172 0.050812528 0.13954821 -0.01174836 0.07043378 -0.069190845 0.018644799 -0.013969277
0.067960955 -0.121812694 -0.16968304 0.006921599 0.029162604 -0.04780927 -0.0034781743 0.05438974
0.09038093 0.22495288 -0.05467743 -0.031070517 0.029675972 -0.036449183 0.013440368 -0.05689829
-0.11356356 -0.04189767 -0.038970247 -0.029736537 -0.04154012 -0.0043982915 -0.0701681 0.003143351
-0.046882913 -0.108853966 -0.14831875 -0.14393035 0.0064291432 -0.051517032 -0.0031731674 0.012215513
0.050457705 -0.024315286 0.070227616 0.004625322 0.07705625 -0.03504822 0.0584068 0.068979695
-0.09939295 -0.042569347 -0.035543304 0.02350977 -0.22000833 -0.004833828 0.0598116 0.048223067
-0.042323682 -0.03814599 -0.06804967 -0.006100613 -0.04635156 -0.014476783 0.16024528 -0.063888654
0.38811752 0.028141402 -0.009395561 0.19282895 -0.064284384 0.023255216 0.01935076 0.022200536
0.044561446 0.12714978 -0.007922741 0.0072027254 -0.028348647 0.042714644 -0.053306147 0.31774282
-0.04704524 -0.06801495 0.009698292 -0.14909337 0.020897644 0.026546832 0.004601184 0.050129957
-0.032881986 0.073500805 0.044254728 0.031634267 -0.061080262 -0.051016577 0.015104682 -0.1336207
0.06555358 -0.025897002 0.0017312403 0.026583215 0.010597559 -0.03371543 -0.0059950505 -0.029498259
-0.041914847 0.04899933 -0.22157322 0.07113878 0.024669398 -0.054736968 0.010776175 -0.04779995
-0.040706925 0.050631355 -0.035416286 0.076104954 0.13560449 -0.08555856 -0.056289595 -0.049274806
-0.03788062 0.031110495 0.023937302 0.0148307085 0.06573797 -0.050631132 0.02425089 -0.06967164
-0.023851927 0.12479288 -0.05888896 0.06321895 -0.0058554336 -0.0130479485 -0.06671961 0.093533374
0.11945205 0.09990673 0.021807002 -0.00020354023 -0.00064633734 0.002930405 0.078639895 -0.031764973
-0.018093728 -0.04975342 0.017402023 -0.0053851805 -0.026321167 0.05185927 -0.01500963 -0.007905286
-0.05999384 0.06441052 0.28201652 0.026487503 -0.040856425 -0.015866768 -0.09370087 0.0044625276
0.00035050555 -0.033775173 -0.050285455 0.018419953 0.04553941 0.025514774 0.049306903 0.029401902
0.035563216 -0.0710828 -0.09905431 0.07935085 -0.054103058 -0.1367459 -0.00810703 -0.17059886
0.05024493 0.023385648 -0.045565657 0.00109985 -0.036054168 0.05550072 -0.047384743 -0.019285
0.012272844 0.13776699 0.039971087 0.13348511 -0.061341744 0.054394998 0.040271517 -0.07863648
-0.028666252 0.008856537 -0.03285792 -0.039242573 0.2821365 -0.059463255 -0.023300212 -0.07483381
0.007578799 0.13063754 -0.02621841 -0.02879792 -0.011251637 0.09958501 0.017999733 -0.06188954
-0.056013413 -0.071899235 0.042339884 0.0055889636 -0.02552383 -0.028467596 0.059183538 -0.07862788

mean_linear.weight f4 [3, 256]
00000000: 10c4 233d ba78 54bf 3cf9 94be c53d a2bd
00000010: bd52 19b9 fcfb 08bf 54b2 f53d c00b 0ebf
00000020: 52e1 2fbe a8ec 803d c68d bd3d 1198 8a3e
00000030: 2a53 4e3e 76bf 73bc e55b b3bd 0530 2bbf
00000040: b693 58bf ac68 6b3e c91f 133e ecbd a8bc
00000050: 672a 243f 02e9 bbba fe01 d03e 1571 ffbd
00000060: f233 643e aba2 a1bd 44b1 3b3d 4116 e8bd
00000070: 2b0e 813d 694a 88be 36d1 713d ad81 8ebe
00000080: 3d21 243d da6f d7bd 84dd 853e 472a 7a3e
00000090: 0d3b b43d 59f1 04bd f2f9 2cbe 22b2 923e
000000a0: b9e6 b93d 5722 053d 3d23 1dbe efb3 3d3e
000000b0: f53b d33c 86f0 3b3e b86a 1fbf 154b 913e
000000c0: b868 34be 7a33 6c3d 502b 103f 2a5c dabd
000000d0: 0747 283e 3ebb 683f b07b eb3d 3ce2 79bd
000000e0: 7135 493e 4d0c 09bc 5e63 0dbf 1547 183e
000000f0: c5e0 f53d 01a1 e9be 9e13 ea3e 8a33 0dbd
00000100: 40f3 483f c55b d63d 55a4 be3d 089f d3bb
00000110: 30ab 933d 0dc1 4ebe 96a3 1bbe 4d14 523e
00000120: e643 cebe f4cb 92be a61e c0be 6225 ab3e
00000130: ffad 6ebe f1ae c5be e03a b33d 58c4 8abe
00000140: 385a 2fbe e9eb 49be 7d4a f83d d938 8dbd
00000150: 955b 143f 734e c83c 36a5 ec3d 2261 4c3d
00000160: 7b3f 243f 54c7 873c 2a15 c3bd 9308 fa3e
00000170: f9f7 003f a6b7 c0be b123 0dbf 574f a6bd
00000180: 1444 50be c3e0 ebbc 06a1 dc3e de1e 6abe
00000190: 24ce 01bf 9c55 8abe 7ef7 4c3c 2be6 363f
000001a0: 5b14 94bc 85e7 75be d8ed b93e a9ec debc
000001b0: fd3a 6cbd 0c96 85be c9e6 d2bc bb09 9f3c
000001c0: 4353 90be 8764 ae3d 3bb2 14bd 61c3 303e
000001d0: 83c3 dbbd 87ae 263e 21ce 67bd 6400 47bb
000001e0: 0fed f6bd 4943 963c 5399 1b3e c9fa 023f
000001f0: a3db 12bd 3ba6 a3be 3a29 ab3e 8f4d a7bc
00000200: 48f5 023f 16b9 ff3e 7cd0 89be 96c2 e6be
00000210: 64d0 8bbe 7cb7 1f3b 7199 e13d 386e 37be
00000220: a4aa a83e 1d20 7cbe 368d 883e f0fe 92bd
00000230: ec54 2c3e 7b22 af3e 0a00 91be ddfa 17bf
00000240: d7bc e53d d072 cf3e 6c6b 603f f669 a73c
00000250: d0b0 9ebc 688c 1d3e 9abd fa3e 8807 873f
00000260: 2547 5d3c 8f63 58bd 5e50 853e 8e5d 3c3a
00000270: 83a7 febd e0ff de3e a731 3cbf 1165 863b
00000280: be7e a5be 067a 9bbe a696 34be fefd 913c
00000290: bdc2 c4bd 454b f0bc 87ed 76bd 9bb5 123f
000002a0: 87e2 933e 5269 2abd bc9f 01bd 0811 26be
000002b0: d633 973d fde0 a13e cdda d1be afa6 a63d
000002c0: e597 88be 3736 69be cceb 03be 7dc9 943d
000002d0: 69ef 35be 8d90 23be 6a29 d13e d7da b0bd
000002e0: f3e8 82be b680 0b3e d831 39be d6f9 843d
000002f0: 67b0 d43d 82b1 293f 9287 67bd 6bc9 523f
00000300: 75d6 1d3f 97a7 043e 3e01 293d 02b3 3abe
00000310: 7888 7d3c af6c 853e 3b2f 4cbe 1ada c73e
00000320: b5a7 21bd c244 143f 177f edbd 07ad b6bc
00000330: 0f58 9d3d 21ff 08bc 7b76 6fbd 3956 8fbc
00000340: 2601 383e 63ea d93e 5aa1 d0be 3e26 57be
00000350: 1caa 8e3d 222f fc3c 4432 c8bd 6956 5abf
00000360: 5a39 80be 5f31 9bbe 83ce bdbd 4c40 82be
00000370: 6a46 413d a2df 793e 6c5d 3bbf 3626 34be
00000380: c4b6 c63d 1663 e23c 1f25 563e 81d3 283c
00000390: d532 f73c 76ee 553e 7856 083e 8bac 23be
000003a0: b26f 6e3c 7fb4 a03e 9cc0 d6be dff3 733c
000003b0: 7986 9fbc 9c6d ed3d 25e7 553d d40d 713e
000003c0: e5df 1e3d ad59 db3d 0e34 e8be 9390 bdbd
000003d0: 96cd b93e c40d 2c3e ec50 113f 32f5 da3e
000003e0: 7437 9a3e 4dcc d5be 5808 07be 0878 4fbe
000003f0: c1b3 6e3d 55bc e93d 07db 993d ebbd 51be
0.0399819 -0.82996714 -0.290964 -0.07921938 -0.0001462204 -0.535095 0.11996904 -0.5548668
-0.17175797 0.062951386 0.09255557 0.27069142 0.20148912 -0.014877191 -0.08757762 -0.66870147
-0.8460039 0.22989148 0.14367594 -0.020598374 0.641272 -0.001433641 0.4062652 -0.124727406
0.2228544 -0.078923546 0.04582335 -0.113323696 0.063015305 -0.2661927 0.05903741 -0.2783331
0.04007076 -0.10519381 0.26145566 0.2443019 0.088003255 -0.03245673 -0.16892222 0.2865153
0.0907721 0.032503452 -0.15345474 0.1852567 0.025785426 0.18353471 -0.62272215 0.28377596
-0.17618072 0.05766628 0.5631609 -0.1066211 0.16433345 0.9091071 0.11498201 -0.06100677
0.19649293 -0.008364749 -0.5522975 0.14870866 0.12005762 -0.4563065 0.45718092 -0.03447298
0.7849617 0.104667224 0.093086876 -0.006458167 0.07210386 -0.2019083 -0.15199122 0.20515557
-0.40286177 -0.2867123 -0.37523383 0.33426958 -0.23308562 -0.38610032 0.08751464 -0.27102923
-0.1712426 -0.19718899 0.121235825 -0.068956085 0.57952243 0.02445147 0.11554949 0.04989732
0.64159364 0.01657454 -0.09525521 0.48834667 0.50378376 -0.37640113 -0.55132586 -0.081206016
-0.2033847 -0.028793698 0.430916 -0.22863337 -0.5070517 -0.2701844 0.012510179 0.7144496
-0.018076112 -0.24014099 0.36314273 -0.027212458 -0.057673443 -0.2609104 -0.025744813 0.01941382
-0.28188524 0.08515268 -0.036302786 0.17262031 -0.1073065 0.16277514 -0.056593064 -0.0030365223
-0.12056934 0.018342631 0.15195207 0.5116392 -0.035853993 -0.3196276 0.3342989 -0.020422725
0.5115552 0.49945897 -0.26916873 -0.45070332 -0.27307427 0.002437084 0.11015595 -0.17913139
0.32942688 -0.24621625 0.26670235 -0.07177532 0.1682927 0.34205994 -0.28320342 -0.5936716
0.11217659 0.40517282 0.8766391 0.020436268 -0.01937142 0.15385592 0.4897278 1.0549173
0.013505732 -0.05282932 0.26037878 0.00071855716 -0.12434294 0.43554592 -0.73513263 0.0041014035
-0.3232326 -0.30366534 -0.17635593 0.017821308 -0.09607456 -0.029332766 -0.060285117 0.5730836
0.28883764 -0.041604348 -0.031646475 -0.16217434 0.07382934 0.31616965 -0.40987244 0.08137261
-0.26678386 -0.22774588 -0.12882918 0.07264993 -0.17767109 -0.1597311 0.4085191 -0.086354904
-0.2556835 0.13623318 -0.1808542 0.06492965 0.103852086 0.6628648 -0.056525774 0.8233859
0.6165536 0.12954555 0.04126095 -0.18232349 0.015474431 0.26059482 -0.19939892 0.39033586
-0.03946658 0.57917416 -0.11596506 -0.022299303 0.076828115 -0.008361609 -0.0584626 -0.017497169
0.17969188 0.42561635 -0.407481 -0.21010682 0.069660395 0.030784193 -0.097752124 -0.852881
-0.25043756 -0.30311105 -0.092679046 -0.2543968 0.047186293 0.24401715 -0.73189425 -0.17592701
0.097028285 0.027635138 0.20912598 0.010304333 0.030175606 0.20891747 0.13314235 -0.15983789
0.014552997 0.31387708 -0.41943824 0.014889686 -0.019473301 0.11593172 0.05222239 0.23540431
0.03878774 0.10710464 -0.45352215 -0.09256091 0.36289662 0.16802126 0.567641 0.42765194
0.30120432 -0.41757432 -0.13186777 -0.20260632 0.058276895 0.114128746 0.07512479 -0.20482604

mean_linear.bias f4 [3]
00000000: df3f b23b af1e a4bc 7707 8abc
0.005439743 -0.020034162 -0.016849263

log_std_linear.weight f4 [3, 256]
00000000: b0bd b53a 0d8d f63d 6ac9 39bd e81f 8b3c
00000010: cf79 b1bd 697e aa3d 84a0 0b3e 272e b83d
00000020: 3194 1bb9 0162 d2bd a043 8ebd 5068 9a3d
00000030: 3468 ca3c 3f3c 2dbd 496d 69bd 7b36 ba3e
00000040: d160 903d 819a 863d 72da c63c c279 f4ba
00000050: 78ae 113e 627d 45bc 0891 403c a0cb bb3d
00000060: 8ab2 883d e045 ee3d 876e cdbe d88d 8f3d
00000070: 2132 323c 647a bfbc 7d57 1ebc 4927 683c
00000080: 7782 f9bd 9d53 a93d 306b 8ebd 58bd ddbd
00000090: 3673 b03a 5160 823d 73b2 a5bd 4188 fd3c
000000a0: 86ef 45bd f026 74bd 408f 23be af67 2a3c
000000b0: 7801 2f3d 4bf2 e23c 7f99 d13d e904 f23d
000000c0: 50cb 3f3e 6910 c53d e79d 34bd e87e acbc
000000d0: 30c9 d0bd a457 903d c150 38bd 1676 3bbe
000000e0: c123 06bc f5c5 3b3b 8d6f 023e ff6c fa3d
000000f0: 0c7a a33c 8e59 2abd 13f9 a03e cbf4 3c3e
00000100: 5a89 223e a5f0 2ebd 9610 313e 680e 013c
00000110: 5a10 283e c6cf afbc 72c6 efbc 9ff5 cfbc
00000120: 0f3d ce3e d314 be3c b175 433c b065 6bbc
00000130: ac16 05bc 5669 53bd 8381 0cbc 10c6 ebbc
00000140: e72c 513c 6c0e 82bd c990 b93d 6651 0c3c
00000150: 369b fa3d faf0 b6bd d7fa ad3c b0d4 ecbd
00000160: ee11 08bd 6952 c73c c1a0 e23c ab62 aebd
00000170: 8f91 113d c029 c33e 99e5 bcbc 2b6e 5abe
00000180: 3954 123e 04b5 7a3d 7dea 0a3f 494d 01bc
00000190: d34c 8ebb bc65 76bd c3bb 63be 5e52 57bd
000001a0: 9f87 b1be 1379 5c3b 8485 9f3e 37eb 31be
000001b0: 026a 003e 5a43 333d 7231 3cbd f2dc debc
000001c0: 0e6c 953e 81ed 2dbd c1e0 4fbd 9d09 4b3d
000001d0: 4cac 92bd 469a 113e 48d0 98bd 664c a5be
000001e0: 6c96 343e adc9 ca3a b42a 0b3e 3aa0 bebc
000001f0: 0a18 02bc 0639 3e3e 9b78 1cbd 1b2b 27be
00000200: 8227 e53d eff6 f7ba fba5 c93d 5771 c53e
00000210: 02b7 2f3e 2cd4 ca3c ef75 81bd 0338 a93c
00000220: 4813 51bd ada2 5e3d 0111 8c3d 78a0 4dbb
00000230: 4b1d 083d c763 843e 3990 b13c 2d8a ef3d
00000240: 2055 6a3b 3649 3f3c 9ae0 13bc 69ee c93c
00000250: 7e94 653e 3125 0bbd 3e66 4cbd da23 113f
00000260: a4ce df3d 680c 0fbd 3572 2c3e 01ad 26be
00000270: c844 8dbc bde2 b5bc 6877 043f 72f7 9e3b
00000280: f233 b5bc 3bed b9bd a5e0 c73d 9a66 cc3c
00000290: 66b9 fd3c 3ca7 c3b9 175c 533d 3fa3 08bd
000002a0: f5ac 9a3d ebe5 10be 9e6a e73c 21f9 95bd
000002b0: b73f e23d 6367 063e dead e33c 3b0c 94bd
000002c0: 1a0e c2bd 1fe1 f1bd e551 edbc 0051 b3bb
000002d0: 34ae 6a3e b653 b33c 8712 823d e5c6 ffbd
000002e0: b580 533e e781 6abc 045c d2bc 476b 10bd
000002f0: 649d a53d 0073 e23e 40bc e43c c091 1e3f
00000300: 1c15 c13d 8484 0fbd 5447 a9be 6231 283c
00000310: 1eca 67bd 890b 023e 6715 a73d 79c2 1b3d
00000320: a633 afbd b853 7e3d 52a9 eebc 6d0b c3bd
00000330: baba 803c 5ac4 d4bc d7b2 bfbd 27f6 9e3d
00000340: 5969 3dbd b585 b03c 1bed 03bd c8a3 933a
00000350: 02c9 213e 32e0 823b 8a85 163d b032 033c
00000360: dbad c0bc b934 c6b9 8b1c feba 329b 91bc
00000370: 8657 78bd 5f7a 11bd 9a46 a53d 8646 703d
00000380: 4649 1bbc 1341 53be f876 aebc da50 5cbd
00000390: 1db9 963d 49f1 743d a0b1 20bc b844 e73c
000003a0: 7b11 bc3d d30b c63d 00ad 813c 5fd4 b93d
000003b0: 2ac2 b7be caf7 043e 66f2 893c 7753 393d
000003c0: 9bb0 8ebd e599 82be 95ca 3f3c 56a1 373d
000003d0: d6ca 543d a84f fbb9 728d 463c 12ca 5f3c
000003e0: daf3 b43b 527e b63d d6f6 243d 3f9b 353e
000003f0: 0927 d83c 4306 96bd 4024 783d 2a95 a83d
0.0013865735 0.12038622 -0.0453581 0.016982988 -0.08665811 0.08324892 0.1363545 0.08993178
-0.00014837158 -0.10272599 -0.06946492 0.07539427 0.024707891 -0.042293783 -0.056988988 0.3636969
0.07049716 0.06572438 0.024274085 -0.0018652009 0.14226711 -0.012053819 0.011753328 0.09169698
0.066746786 0.11634421 -0.40123388 0.070094764 0.0108762095 -0.02337379 -0.0096644135 0.014169523
-0.12183087 0.08267901 -0.06954038 -0.1082713 0.001346207 0.06366027 -0.08090677 0.03094876
-0.04832413 -0.059607446 -0.15972614 0.010400697 0.04272601 0.027703425 0.10234355 0.11817343
0.18729901 0.096222706 -0.0440959 -0.021056607 -0.101946235 0.07047966 -0.044998888 -0.18306765
-0.008187235 0.0028651927 0.12737866 0.122278206 0.019955657 -0.041589312 0.3144003 0.18452756
0.15872708 -0.042709965 0.17291483 0.00787697 0.16412488 -0.021461379 -0.02926943 -0.025385676
0.4028096 0.02320329 0.011929915 -0.014367506 -0.008123081 -0.051614128 -0.0085758 -0.028780967
0.012767053 -0.06350407 0.09060819 0.008564329 0.122366354 -0.089326814 0.021237774 -0.115640044
-0.033220224 0.024331288 0.027664544 -0.08514913 0.035539206 0.3811779 -0.0230587 -0.21331088
0.14289941 0.061207786 0.5426405 -0.007891961 -0.0043426543 -0.060155615 -0.22239594 -0.052568786
-0.34673783 0.0033641502 0.31156552 -0.17374884 0.12540439 0.043765403 -0.045945592 -0.027204964
0.29184002 -0.04246283 -0.05075145 0.049569715 -0.07161769 0.14219007 -0.074616015 -0.3228485
0.17635506 0.0015471481 0.13590509 -0.023269761 -0.007940302 0.1857644 -0.038200956 -0.16325037
0.11189176 -0.0018918196 0.098461114 0.38563034 0.17159656 0.024759375 -0.06321322 0.020656591
-0.05104378 0.05435436 0.06839181 -0.0031376164 0.03323106 0.25857374 0.021675216 0.11696277
0.0035756305 0.01167517 -0.009025717 0.024649816 0.22419927 -0.033971015 -0.049902193 0.5669533
0.109280854 -0.03492394 0.16840442 -0.16276933 -0.017244712 -0.022202844 0.517447 0.004851275
-0.022119496 -0.09078451 0.097596444 0.024951268 0.030972194 -0.00037317898 0.051601496 -0.03335881
0.0755252 -0.14150207 0.028249081 -0.07322908 0.11047309 0.13125376 0.027792867 -0.07228895
-0.09475346 -0.118105166 -0.028969714 -0.0054723024 0.22918016 0.021890502 0.0635119 -0.12489108
0.20654567 -0.014313198 -0.025678642 -0.035258558 0.080866605 0.44228363 0.027921796 0.61941147
0.094278544 -0.035038486 -0.33062232 0.01026568 -0.05658924 0.12699713 0.08158379 0.03802726
-0.08554773 0.06209156 -0.029133473 -0.09523664 0.015714038 -0.025972534 -0.09360283 0.077617936
-0.046243045 0.021548131 -0.032208543 0.001126402 0.15799335 0.0039940113 0.036748447 0.00800769
-0.0235204 -0.00037804784 -0.0019387169 -0.017774198 -0.060630344 -0.035517093 0.08070107 0.058661006
-0.009477919 -0.20630293 -0.021296963 -0.053788044 0.07359526 0.05980042 -0.009807974 0.02823101
0.09183022 0.09670224 0.015829563 0.0907371 -0.35890323 0.12985149 0.016839217 0.045245614
-0.069672786 -0.25508037 0.011706014 0.044831596 0.051951252 -0.000479338 0.012118684 0.013659017
0.0055222334 0.089108124 0.040274464 0.17735003 0.0263858 -0.07325413 0.060581446 0.08231576

log_std_linear.bias f4 [3]
00000000: 7da9 02bf f65a ffbe 13bc 00bf
-0.5103987 -0.49874085 -0.5028698
