hydrone_aerial_underwater_ddpg/scripts/Models/sac_stage_1_air3D_tanh_3layers/4480_policy_net.pth (torch_old, 297299 bytes, 8 tensors)

linear1.weight f4 [256, 25]
0.16975558 0.039624576 -0.13809465 0.16718523 0.0040736035 -0.12772465 0.005971092 0.06688791
-0.22968712 -0.042892635 0.0633205 0.12464104 0.2830394 0.13392183 -0.075322986 -0.17075485
-0.14681892 -0.14813937 0.06952161 0.26702037 -0.16327675 0.1760545 1.22488 0.31035236
-0.31545475 -0.10603585 -0.21259977 0.046039842 -0.06736561 0.022313882 0.109336756 0.022877436
-0.1287879 -0.06926372 -0.08922917 0.30316636 0.26986873 0.6040661 0.110667564 -0.20618321
-0.2975369 -0.18755169 -0.28123456 0.100040205 0.11233738 0.031564817 -0.17222749 0.013104756
-1.7855691 0.10354234 0.114622466 0.15703636 0.25329036 0.3920971 0.08478654 0.07373934
0.33014864 0.34387317 0.17052123 -0.23664317 -0.20931993 0.025434349 0.021465888 0.15333486
-0.08151331 -0.22914968 -0.52901703 -0.26425004 -0.045330223 -0.17112339 0.4928702 0.062488094
-0.21079741 0.947169 -0.76273125 -0.009110576 0.21030569 0.35797963 0.38530874 0.019980555
0.23592111 0.053057704 0.16085267 0.09465029 0.07866102 -0.012540844 -0.1687118 -0.32642183
-0.14582258 0.2943711 0.06922398 0.22357203 -0.15369937 -0.39129168 -0.47664455 -0.06286961
-0.09250116 -0.087654375 -1.0894531 0.0111612 0.46125826 0.4219561 0.47518647 0.06716493
-0.39956993 -0.1689075 -0.11552989 -0.11069182 -0.35196358 -0.41274095 -0.4997907 -0.16801791
-0.042995464 -0.25562596 -0.13105215 -0.21008322 -0.1470861 0.37951615 0.029080128 0.2991241
0.07718071 -0.10891067 -0.11096132 -1.0508626 0.7612558 0.010731208 0.30522567 0.16809165
0.2135379 0.48529094 0.46948257 0.07285882 0.05987993 -0.12324446 -0.053440627 0.031007785
-0.0013857734 -0.17437725 -0.35033956 -0.060750905 -0.36521927 -0.25621697 -0.18771014 -0.14991318
-0.35772207 0.19423716 0.08395902 -0.04379627 0.7048451 0.79008603 0.014967331 0.22941835
-0.106000885 0.044039655 0.020962937 -0.06017392 0.1432949 0.025739845 0.10865763 0.040788986
-0.051987566 -0.17916994 0.0073752077 -0.040568758 -0.23183882 -0.21327436 -0.3126224 -0.20429389
-0.32348493 -0.094455235 0.31104562 0.09838146 0.055434372 2.4046154 0.7554106 0.19412334
0.23528954 0.27901414 -0.01645347 -0.18616931 -0.053747296 0.09525162 0.07523212 0.0072217337
-0.16111219 -0.32119328 -0.40916684 -0.29622015 -0.09672558 -0.35152087 -0.17023505 0.015265151
-0.008545928 0.0017992832 0.037127208 0.2738289 -0.078498244 0.23647703 -4.5827866 0.34492743
0.05223713 -0.04078212 0.036656372 -0.13509163 0.06324961 -0.37414768 -0.19183852 -0.47075978
-0.53072596 -0.5116159 -0.43248504 -0.10630971 0.091073774 0.21330328 0.24014026 0.1916347
0.36512887 0.114711665 0.18759026 0.30342272 -0.078603014 0.19581656 -0.17260036 -1.6951044
0.8634998 -0.31896526 -0.18164088 -0.17244871 0.081666164 0.29834813 0.33040127 0.10920318
-0.23502454 -0.3990889 -0.2628233 -0.41347748 -0.21513121 0.074793406 0.09319307 0.005805044
0.061075248 -0.069915496 -0.25669864 0.15360552 0.0073588328 0.14409812 -0.1451702 0.13030373
0.2386287 -0.62552655 0.11130256 0.14082251 0.15433899 0.02158648 0.048349485 0.029076954
00000000: 68d4 2d3e 614d 223d af68 0dbe 9b32 2b3e
00000010: dd7b 853b 40ca 02be 26a9 c33b 87fc 883d
00000020: 1a33 6bbe 30b0 2fbd 2eae 813d cd43 ff3d
00000030: 8aea 903e ce22 093e f042 9abd 5cda 2ebe
00000040: b357 16be d9b1 17be 5961 8e3d e5b6 883e
00000050: 0532 27be a147 343e dec8 9c3f 81e6 9e3e
00000060: 4983 a1be 5329 d9bd c1b3 59be 4694 3c3d
00000070: fbf6 89bd 9acb b63c f3eb df3d 7669 bb3c
00000080: fae0 03be 23da 8dbd c8bd b6bd 9f38 9b3e
00000090: 3c2c 8a3e 13a4 1a3f ada5 e23d b121 53be
000000a0: c256 98be 8d0d 40be fafd 8fbe e1e1 cc3d
000000b0: 2411 e63d 1c4a 013d 675c 30be 55b5 563c
000000c0: 878d e4bf 020e d43d 2fbf ea3d 24ce 203e
000000d0: 46af 813e f3c0 c83e 91a4 ad3d a704 973d
000000e0: 3e09 a93e 2510 b03e 1e9d 2e3e 9652 72be
000000f0: f757 56be b25b d03c 3bd9 af3c d003 1d3e
00000100: 73f0 a6bd 37a6 6abe a96d 07bf c84b 87be
00000110: 2fac 39bd f83a 2fbe 7c59 fc3e 84f3 7f3d
00000120: 47db 57be ab79 723f 5b42 43bf 8644 15bc
00000130: 605a 573e 1b49 b73e 3047 c53e 43ae a33c
00000140: 4e95 713e 0953 593d 90b6 243e 03d8 c13d
00000150: 0719 a13d 1d78 4dbc c9c2 2cbe c320 a7be
00000160: 8452 15be cfb7 963e 4dc5 8d3d 11f0 643e
00000170: 5e63 1dbe 6257 c8be c10a f4be c8c1 80bd
00000180: 4071 bdbd 2384 b3bd 3373 8bbf 77dd 363c
00000190: 0b2a ec3e a10a d83e a44b f33e c48d 893d
000001a0: 6e94 ccbe 16f6 2cbe ef9a ecbd 65b2 e2bd
000001b0: 9234 b4be c852 d3be 91e4 ffbe e30c 2cbe
000001c0: 031c 30bd 68e1 82be 8932 06be 0e20 57be
000001d0: bd9d 16be f14f c23e 7339 ee3c cb26 993e
000001e0: ec10 9e3d 8f0c dfbd b03f e3bd aa82 86bf
000001f0: a9e1 423f f3d1 2f3c 8a46 9c3e 3820 2c3e
00000200: aea9 5a3e 0e78 f83e 0560 f03e 0137 953d
00000210: a844 753d 9767 fcbd 8fe4 5abd 0a04 fe3c
00000220: d7a2 b5ba f38f 32be b55f b3be f1d5 78bd
00000230: 05fe babe df2e 83be 1637 40be d782 19be
00000240: 5927 b7be 1be6 463e b5f2 ab3d b863 33bd
00000250: ba70 343f 1443 4a3f 8939 753c a5ec 6a3e
00000260: fe16 d9bd ed62 343d 77ba ab3c ee78 76bd
00000270: e6bb 123e 5edc d23c e487 de3d 5a12 273d
00000280: eaf0 54bd 5378 37be baab f13b 6d2b 26bd
00000290: 2867 6dbe 9864 5abe 0b10 a0be 6b32 51be
000002a0: d19f a5be bf71 c1bd 5f41 9f3e 387c c93d
000002b0: 270f 633d 38e5 1940 9762 413f 45c8 463e
000002c0: beef 703e f1da 8e3e 6dc9 86bc 2ba3 3ebe
000002d0: 2026 5cbd 4813 c33d 4c13 9a3d 4ba4 ec3b
000002e0: 98fa 24be 7273 a4be 517e d1be 2baa 97be
000002f0: 1018 c6bd 8bfa b3be 1952 2ebe af1a 7a3c
00000300: 3804 0cbc edd5 eb3a b312 183d 4d33 8c3e
00000310: b0c3 a0bd 0927 723e 30a6 92c0 549a b03e
00000320: 9af6 553d 270b 27bd fe24 163d 7655 0abe
00000330: 0389 813d 4990 bfbe 5171 44be 6d07 f1be
00000340: a8dd 07bf 42f9 02bf ae6e ddbe e8b8 d9bd
00000350: e384 ba3d 2d6c 5a3e 54e7 753e e33b 443e
00000360: 2cf2 ba3e f3ed ea3d a917 403e 395a 9b3e
00000370: 9efa a0bd 2384 483e 26be 30be 2ef9 d8bf
00000380: 530e 5d3f 6a4f a3be 1100 3abe 6596 30be
00000390: 9740 a73d 16c1 983e 5b2a a93e eba5 df3d
000003a0: 46aa 70be 6155 ccbe c790 86be 52b3 d3be
000003b0: 5b4b 5cbe 492d 993d 02dc be3d 3d38 be3b
000003c0: 0a2a 7a3d db2f 8fbd 016e 83be c44a 1d3e
000003d0: 5d22 f13b 758e 133e 7fa7 14be 576e 053e
000003e0: 155b 743e 8222 20bf 99f2 e33d c733 103e
000003f0: 0a0b 1e3e 21d6 b03c 1c0a 463d cb32 ee3c

linear1.bias f4 [256]
0.04498012 -0.06451021 -0.028737076 -0.042990386 0.34615853 -0.0020990444 -0.079484455 0.07161953
0.17794742 -0.06572861 -0.0035963142 -0.1396906 -0.009465718 0.074860305 0.059940163 0.16447455
0.0 0.18014115 -0.07478849 -0.056219503 0.16320126 0.124409385 -0.009280181 0.033267453
0.24056327 -0.031005666 -0.09186096 -0.01052097 0.20370802 0.1513878 -0.048769794 -0.22059846
0.10391536 0.300344 0.13391449 0.035564046 -0.019035 0.1416717 -0.122625284 -0.07578364
0.0 0.035713434 -0.06844386 0.08391763 0.054630637 0.14107668 -0.04602944 0.08192654
0.19192903 0.056122016 0.08490497 0.17295872 0.008374121 -0.07075405 0.13344698 -0.008904108
0.033602763 -0.06779175 0.08221703 -0.17516957 -0.12909244 0.22563499 -0.08547081 -0.20784028
0.062089905 0.01866922 -0.018599076 -0.015291371 -0.042290747 -0.1216903 -0.06768915 0.10089208
0.15569809 0.09961463 -0.1001347 -0.15781139 -0.0658322 0.0058113392 0.028447798 -0.013972314
0.25774232 -0.028569985 0.10467157 -0.10731156 -0.10784804 -0.0033185002 -0.04025235 -0.092168234
-0.059316516 -0.0418617 0.1076766 0.2607819 0.067419834 -0.01953832 0.20006414 0.018245028
0.017394258 0.07528756 0.13913964 -0.102779336 -0.03566849 0.12676479 0.1728355 0.08746358
0.05498024 -0.26570728 0.05904888 0.16767329 -0.10975734 -0.09576376 -0.019014515 -0.048094872
0.0016937102 0.1656145 0.018162707 0.02759017 -0.080027916 -0.045041073 0.19200869 0.050679438
0.25727084 -0.03215597 -0.2334883 0.083841994 -0.04612677 0.044010244 -0.065490305 0.0
0.19267681 -0.01846863 -0.050649613 -0.00952901 -0.038329955 0.01727635 -0.07768726 0.056381825
-0.058825288 0.0015089246 0.024500778 -0.09740703 0.009435684 0.015307272 -0.0475221 0.026165934
-0.12907296 -0.04873732 0.024205375 0.07157291 0.1510493 -0.05816956 0.5558578 0.26610875
0.16036698 -0.005495683 0.11204249 0.07464147 0.029382013 0.07601898 0.042142387 0.058044095
-0.045823157 0.17471169 0.42853937 0.14519185 -0.1312623 -0.017360285 -0.16030155 0.018348027
-0.016709534 -0.027669488 0.15197967 -0.11918223 0.03502709 -0.14556515 0.07138015 -0.027270308
0.09220004 0.04238187 -0.030185224 0.040157467 -0.065688565 -0.04170788 0.26367667 -0.019027581
-0.19605507 0.114000484 -0.006198352 -0.097263046 -0.04522021 0.0850943 -0.026807355 -0.032298446
-0.021117594 -0.07979613 0.10507804 -0.060055826 -0.11528207 -0.12384398 0.029104825 0.027672699
-0.009506817 -0.04167751 -0.009519068 0.15007804 0.17516047 -0.06942188 0.058300454 -0.0141844265
0.010130493 0.10330627 -0.14114015 -0.24668899 -0.15611733 0.14167501 0.09282656 0.13659668
0.17783418 0.14603128 -0.04800548 -0.15170862 0.07874207 0.034636367 0.01607301 0.1399848
0.31870568 -0.04013368 0.0 0.31237325 -0.0703344 -0.050390713 0.12942538 -0.008751721
-0.049269233 0.0958112 -0.18389255 -0.019323269 0.19451816 -0.031256627 -0.015987325 0.0
-0.0962832 -0.07467957 -0.068956405 -0.09621385 -0.05888456 0.16613755 0.03254014 -0.024027951
-0.04666802 0.086667866 -0.15664014 0.052343298 -0.0073961345 0.18659914 0.01349704 0.0
00000000: 133d 383d ee1d 84bd 046a ebbc b016 30bd
00000010: b13b b13e 1f90 09bb bfc8 a2bd 43ad 923d
00000020: d937 363e b99c 86bd 24b0 6bbb 0d0b 0fbe
00000030: 1916 1bbc 5c50 993d d183 753d 046c 283e
00000040: 0000 0000 ec76 383e b52a 99bd 6c46 66bd
00000050: 3b1e 273e 59ca fe3d e60b 18bc 7443 083d
00000060: 3856 763e 98ff fdbc 9921 bcbd 2660 2cbc
00000070: d698 503e 6705 1b3e d6c2 47bd 90e4 61be
00000080: 94d1 d43d b0c6 993e e120 093e 9bab 113d
00000090: 4aef 9bbc 6312 113e f722 fbbd 7434 9bbd
000000a0: 0000 0000 4048 123d 4b2c 8cbd 02dd ab3d
000000b0: 60c4 5f3d 6876 103e 5e89 3cbd 1ac9 a73d
000000c0: 0b89 443e 33e0 653d a8e2 ad3d 171c 313e
000000d0: 9c33 093c 80e7 90bd 53a6 083e 89e2 11bc
000000e0: 0da3 093d 67d6 8abd 6761 a83d a75f 33be
000000f0: cf30 04be dc0c 673e 520b afbd 15d4 54be
00000100: fc51 7e3d 31f0 983c 175d 98bc a988 7abc
00000110: 1039 2dbd c438 f9bd 9ca0 8abd 82a0 ce3d
00000120: 526f 1f3e c102 cc3d 6c13 cdbd 4f99 21be
00000130: 08d3 86bd 0c6d be3b 5b0b e93c 22ec 64bc
00000140: cdf6 833e 9a0b eabc 0c5e d63d 2ac6 dbbd
00000150: 6fdf dcbd 327b 59bb a6df 24bd b3c2 bcbd
00000160: e0f5 72bd 2d77 2bbd 8d85 dc3d 3585 853e
00000170: 6913 8a3d d40e a0bc 9ddd 4c3e 9976 953c
00000180: 677e 8e3c 5d30 9a3d 9f7a 0e3e f97d d2bd
00000190: 1f19 12bd a1ce 013e cafb 303e 1b20 b33d
000001a0: f632 613d c90a 88be 3ddd 713d 8cb2 2b3e
000001b0: 75c8 e0bd ca1f c4bd 54c4 9bbc 21ff 44bd
000001c0: 7cff dd3a d996 293e f5c9 943c c804 e23c
000001d0: ade5 a3bd fd7c 38bd ed9d 443e 3e95 4f3d
000001e0: 01b9 833e fab5 03bd 8f17 6fbe 5ab5 ab3d
000001f0: 6def 3cbd 1644 343d c81f 86bd 0000 0000
00000200: 124d 453e 864b 97bc f875 4fbd 911f 1cbc
00000210: dfff 1cbd 2287 8d3c 801a 9fbd a1f0 663d
00000220: c9f2 70bd 1cc7 c53a dbb5 c83c 567d c7bd
00000230: 2198 1a3c 5acb 7a3c 89a6 42bd f159 d63c
00000240: b42b 04be c9a0 47bd 5a4a c63c d194 923d
00000250: abac 1a3e 3443 6ebd b24c 0e3f 683f 883e
00000260: 3e37 243e 2115 b4bb 8876 e53d a1dd 983d
00000270: 8cb2 f03c d7af 9b3d 7f9d 2c3d a5bf 6d3d
00000280: 10b1 3bbd 9fe7 323e 8369 db3e 2cad 143e
00000290: a069 06be 2837 8ebc 1726 24be 9a4e 963c
000002a0: 6fe2 88bc 1fab e2bc 8fa0 1b3e d015 f4bd
000002b0: 9178 0f3d 080f 15be c22f 923d fb65 dfbc
000002c0: 60d3 bc3d 9d98 2d3d 0147 f7bc 287c 243d
000002d0: ba87 86bd e2d5 2abd a100 873e bbdf 9bbc
000002e0: a9c2 48be 1679 e93d 8c1b cbbb d931 c7bd
000002f0: d438 39bd ec45 ae3d 199b dbbc 604b 04bd
00000300: cefe acbc 276c a3bd 2833 d73d 19fd 75bd
00000310: 0219 ecbd eaa1 fdbd 3e6d ee3c dbb1 e23c
00000320: 7bc2 1bbc 09b6 2abd ddf5 1bbc 0fae 193e
00000330: 445d 333e 0f2d 8ebd 75cc 6e3d cc65 68bc
00000340: 5efa 253c 3d92 d33d 0b87 10be 0a9c 7cbe
00000350: 39dd 1fbe 4113 113e da1b be3d 00e0 0b3e
00000360: 2a1a 363e 3989 153e 65a1 44bd 8159 1bbe
00000370: 8643 a13d ddde 0d3d 8cab 833c 2d58 0f3e
00000380: 642d a33e 3763 24bd 0000 0000 63ef 9f3e
00000390: 7b0b 90bd 7e66 4ebd 1688 043e 6163 0fbc
000003a0: 89ce 49bd aa38 c43d 544e 3cbe d54b 9ebc
000003b0: c52f 473e f306 00bd daf7 82bc 0000 0000
000003c0: 2030 c5bd 9af1 98bd 0439 8dbd c40b c5bd
000003d0: f030 71bd f61f 2a3e cf48 053d 44d6 c4bc
000003e0: f726 3fbd ec7e b13d 4666 20be ed65 563d
000003f0: 465b f2bb d813 3f3e b022 5d3c 0000 0000

linear2.weight f4 [256, 256]
-0.16970082 -0.17694893 0.4432449 -0.044904016 0.54150355 0.40457383 -0.5323901 0.18988805
-1.5680073 0.27648503 0.08886918 0.749539 0.07622702 0.9279936 -0.1742545 0.40360758
-0.09689798 -0.035294514 -0.12347381 -0.11692146 0.44451264 -1.4761486 -0.11654613 -0.21963723
-0.028461834 0.26374438 0.17101899 -0.043609433 -0.6513191 0.25575915 0.68078756 -0.15835993
-0.21915428 -0.67584956 0.39577556 -0.3812512 0.07982936 0.78390485 -0.73501486 0.19654985
0.10250855 0.7412066 -0.28342837 -0.38962084 -0.27613387 0.6785343 -0.6014878 0.16261633
-0.45592076 -0.14341986 -0.30907467 0.045708653 0.07121813 -0.26960266 -0.4387038 -0.011532051
-0.16550115 -0.352319 0.15453169 -0.080769494 0.19308212 1.2415437 -0.1629161 -0.09309393
0.21551658 -0.5144911 -0.29037112 -3.4867404e-05 -0.014226636 0.15679461 -0.42156217 -0.03324324
0.45634067 -0.22896254 -0.0899517 -0.29364103 -0.3682527 -0.49976304 -0.16457063 0.21238098
0.3199566 -0.11331126 0.5334375 0.02886383 -0.20211302 0.25085774 -0.32172886 0.056892313
0.093112886 -0.05279602 -0.4537481 -0.011435809 0.54801506 -0.10119577 -0.7599976 0.58080995
0.58114517 0.17858769 0.069588535 -0.081298605 -1.0934103 0.31352058 -0.27475742 -0.3706917
0.1656764 -0.87942624 0.07764165 0.46302825 0.18200283 -0.49972573 -0.08204328 0.014096661
0.8472909 0.346212 -0.24408096 0.19346124 -0.18515813 -0.083124734 0.15279569 -0.38941142
0.22336338 0.4063045 -0.93368334 -0.3676864 -0.065448396 0.075522795 -0.016892798 0.026151903
0.47401074 -0.07002077 -1.2022874 -0.048911724 -0.31806165 0.043227207 -0.38888422 -0.41165948
0.063065186 0.16716985 -0.3421295 0.4277337 -0.16072981 0.3459074 -0.34522983 0.7593324
-0.49586758 -0.12951992 -0.0037843112 -0.36966082 0.23108384 -0.2747239 0.19035907 -0.12550329
0.56769246 0.3572251 -0.47728726 -0.58416176 -0.010785978 -0.0007760126 0.20566857 0.6732506
0.055411898 -0.12458263 -0.22178382 -0.094779074 -0.90098953 0.148193 -0.4678685 0.11707212
-0.18217264 -0.029445847 0.15569827 -0.040483084 -0.9202367 -0.16319324 0.14072342 0.0005415082
-0.5228476 -0.55624473 0.11513179 0.0503116 0.4229352 -0.028905658 0.2364155 0.09253129
-0.31271055 -0.1080272 0.06381291 -0.06436946 0.6448328 0.23494668 -0.07550544 -0.24955724
0.042414986 -0.04797255 -0.12613997 -0.29975727 -0.5626597 -0.08226119 -0.96905434 0.024785927
0.093480416 -0.38380808 -0.10859747 0.18419357 -0.85838145 -0.08559293 0.20463026 -0.22554937
0.16537309 -0.9397845 0.20192063 0.30089876 -0.8508863 0.19515763 0.20180705 -0.042521037
-1.2336043 -0.14207706 -0.8611656 -0.27597028 0.22871156 -0.41421986 -0.45560345 -0.46737748
0.019702416 0.2380051 0.09090593 0.09389487 -0.03609945 -0.014026464 -0.09598947 0.3980571
0.48500538 -0.12951247 -1.5209227 0.040052958 -0.4007173 -0.0059987046 0.045404315 0.060493387
-0.84711987 0.21838023 0.05785182 -0.24143569 -0.26886845 -0.6753819 0.55109394 -0.7154514
-0.2706057 0.5720531 -0.07678398 -0.4587482 -0.32439753 -0.07666759 -0.20574734 -0.060971905
00000000: 0dc6 2dbe 1a32 35be fff0 e23e 46ed 37bd
00000010: fa9f 0a3f 4d24 cf3e b84a 08bf 0372 423e
00000020: 77b4 c8bf 728f 8d3e 0b01 b63d cae1 3f3f
00000030: e91c 9c3d fd90 6d3f c66f 32be a7a5 ce3e
00000040: 7372 c6bd fb90 10bd d6df fcbd 8574 efbd
00000050: 2997 e33e 70f2 bcbf bdaf eebd 95e8 60be
00000060: cb28 e9bc 8109 873e 9a1f 2f3e ce9f 32bd
00000070: d9bc 26bf ddf2 823e 1848 2e3f 1b29 22be
00000080: fb69 60be 7a04 2dbf 18a3 ca3e 5b33 c3be
00000090: 937d a33d fdad 483f ef29 3cbf 5d44 493e
000000a0: 01f0 d13d b7bf 3d3f 861d 91be 627c c7be
000000b0: 6b61 8dbe 6db4 2d3f 1bfb 19bf e584 263e
000000c0: 726e e9be a8dc 12be 093f 9ebe ff38 3b3d
000000d0: d0da 913d 5c09 8abe c99d e0be edf0 3cbc
000000e0: 2279 29be 2863 b4be 8e3d 1e3e 7a6a a5bd
000000f0: 52b7 453e e7ea 9e3f 7ad3 26be 08a8 bebd
00000100: 61b0 5c3e b0b5 03bf 86ab 94be 973e 12b8
00000110: d616 69bc c48e 203e ffd6 d7be 102a 08bd
00000120: 7ca5 e93e 2875 6abe 9938 b8bd 1e58 96be
00000130: 9e8b bcbe f1e0 ffbe 3485 28be 667a 593e
00000140: 5ad1 a33e bc0f e8bd 5c8f 083f d773 ec3c
00000150: b7f6 4ebe 6d70 803e a5b9 a4be ea07 693d
00000160: f8b1 be3d a440 58bd ac51 e8be 425d 3bbc
00000170: b74a 0c3f ba3f cfbd 348f 42bf f6af 143f
00000180: eec5 143f b1df 363e 6f84 8e3d e27f a6bd
00000190: def4 8bbf c585 a03e 01ad 8cbe 4dcb bdbe
000001a0: 13a7 293e 1422 61bf 9602 9f3d 0a12 ed3e
000001b0: f35e 3a3e 0ddc ffbe 4f06 a8bd aef5 663c
000001c0: 0ee8 583f b342 b13e 5cf0 79be b41a 463e
000001d0: 189a 3dbe 4d3d aabd 7976 1c3e ef60 c7be
000001e0: 5fb9 643e 2507 d03e df05 6fbf 6441 bcbe
000001f0: cf09 86bd b2ab 9a3d c462 8abc 843c d63c
00000200: 89b1 f23e 0d67 8fbd 8ee4 99bf a957 48bd
00000210: fad8 a2be 030f 313d d51b c7be 08c5 d2be
00000220: 5228 813d 932e 2b3e 992b afbe e9ff da3e
00000230: 5b96 24be c61a b13e f7c1 b0be 9c63 423f
00000240: 5be2 fdbe dfa0 04be 3502 78bb 2f44 bdbe
00000250: 3ea1 6c3e 9ca8 8cbe 7ded 423e ef83 00be
00000260: 4b54 113f 35e6 b63e ff5e f4be a08b 15bf
00000270: acb7 30bc 536d 4bba c89a 523e 275a 2c3f
00000280: 96f7 623d 2e25 ffbd 4c1b 63be 881b c2bd
00000290: 40a7 66bf e8bf 173e 768c efbe 82c3 ef3d
000002a0: 778b 3abe 6b38 f1bc 5e6f 1f3e 97d1 25bd
000002b0: a294 6bbf 211c 27be cd19 103e 00f4 0d3a
000002c0: 57d9 05bf 0e66 0ebf 37ca eb3d 8913 4e3d
000002d0: f68a d83e 8fcb ecbc e816 723e 0c81 bd3d
000002e0: 991b a0be 5d3d ddbd 58b0 823d 23d4 83bd
000002f0: c313 253f dd95 703e 99a2 9abd ef8b 7fbe
00000300: 56bb 2d3d dd7e 44bd d62a 01be c979 99be
00000310: 770a 10bf 8e78 a8bd f213 78bf db0b cb3c
00000320: a972 bf3d 7e82 c4be 5a68 debd 3d9d 3c3e
00000330: e3be 5bbf 594b afbd 988a 513e 6af6 66be
00000340: 9057 293e b895 70bf 48c4 4e3e 670f 9a3e
00000350: afd3 59bf 67d7 473e 82a6 4e3e 8a2a 2ebd
00000360: bfe6 9dbf a67c 11be 5975 5cbf fa4b 8dbe
00000370: 5d33 6a3e a014 d4be db44 e9be 1a4c efbe
00000380: f666 a13c 9cb7 733e e32c ba3d f44b c03d
00000390: 04dd 13bd 41cf 65bc 2196 c4bd 24ce cb3e
000003a0: a052 f83e eb9e 04be 98ad c2bf 920e 243d
000003b0: d12a cdbe c890 c4bb e0f9 393d eac7 773d
000003c0: d9dc 58bf 119f 5f3e 08f6 6c3d eb3a 77be
000003d0: 20a9 89be d4e5 2cbf 7e14 0d3f d327 37bf
000003e0: d58c 8abe 1272 123f eb40 9dbd 0be1 eabe
000003f0: 6f17 a6be e603 9dbd 6eaf 52be adbd 79bd

linear2.bias f4 [256]
0.26635912 0.24156626 0.21490784 -0.4020725 -0.06574553 -0.04985443 0.14892434 0.39855587
0.31816864 -0.007733933 0.3125298 0.19657262 0.13112786 0.4260072 0.07657016 -0.010708858
0.36838993 0.2304498 0.0721165 0.52491575 0.5147278 0.130377 0.5708854 -0.059391793
0.49681887 -0.1000475 0.6731783 -0.027242195 0.041248858 -0.030298704 -0.12567274 0.104109645
0.49850592 0.28246826 0.67836547 0.0038840203 0.07442988 0.13861494 0.075096294 0.25483918
-0.032273922 0.34255683 0.26104495 0.4477773 0.22306328 0.34854448 0.34542474 0.36857802
0.39279556 0.061589345 -0.008684845 0.116350584 -0.0061064763 0.3143151 0.033789158 0.14388123
0.6326027 0.51323277 -0.027553245 -0.08486067 0.21687153 0.1758947 -0.016519025 0.45856965
-0.10484863 -0.010019669 -0.075552545 -0.41498032 0.3935216 0.07484955 0.28615555 0.19304422
0.051481575 -0.30019072 -0.10623367 -0.3909519 0.33793616 0.28700948 0.33213487 0.034263566
0.16015214 0.44699398 0.41793334 -0.20162474 0.11575385 -0.07200402 0.34056062 0.22813603
0.113478616 -0.11277553 0.08939361 0.39891025 -0.19513185 0.12936884 -0.032109216 -0.06830483
0.012749857 0.08532671 -0.08563968 0.28945792 0.052361336 0.3797989 0.1347531 0.0702193
0.35966563 0.3767634 0.13318084 0.75669456 0.079813994 0.20672746 0.116985 -0.25418797
0.47694778 0.046153635 0.04542514 0.46013215 0.029996412 0.49583256 -0.078538015 0.5911392
-0.08955343 0.20085873 0.111736044 -0.020940186 0.12969473 0.4717112 -0.14737397 0.070924595
-0.03521967 0.044675034 0.0077780792 0.33721906 0.26555476 0.1574023 0.08677975 -0.31184268
0.055935014 -0.21043028 -0.0077336277 0.2024166 -0.024796298 -0.12844342 -0.13595459 -0.110936634
-0.07203106 -0.01787442 -0.05849253 0.35008883 0.41066757 -0.12169563 0.11519993 0.15794894
-0.06454639 0.2592671 0.14053354 0.33508515 0.31928048 -0.024034237 -0.19930646 -0.05084207
-0.07403442 0.326738 0.25762525 0.46208742 -0.018979661 -0.081811234 0.3390277 0.20479031
0.0799367 0.16704519 0.26235673 0.3272295 -0.026080946 0.3747943 0.13446529 -0.19041885
0.5100427 0.37904403 0.031762257 0.12853925 -0.051925886 -0.28261587 0.4287523 -2.6092059e-05
-0.10618848 0.052930545 0.2678859 0.5247345 -0.24115527 0.37207052 0.122254804 0.11663695
-0.34772813 0.057952277 0.42800593 0.49853632 -0.054383624 0.5296912 -0.1495501 0.27251258
-0.045617286 -0.18604212 0.095404595 0.17159268 0.24084887 -0.04481312 -0.04412203 -0.070796065
-0.1464317 0.5690778 0.047259666 0.14088164 0.07980985 0.4046693 0.19326438 -0.12143141
0.3448404 0.26126274 0.21623978 0.21103372 0.22715978 0.0414969 0.21793854 0.14545807
0.47013316 0.44735068 -0.1445758 0.44614628 -0.37439427 0.18645465 -0.050971992 -0.1745649
0.008571983 0.13874885 0.28598377 0.06691183 0.8739455 0.24186978 -0.014374234 0.26925045
0.18811052 0.36306772 0.33812866 0.231829 0.5030545 0.05243185 -0.32466418 -0.115122974
-0.21014853 0.21457599 0.2321964 0.026174344 -0.06360644 0.38172916 0.122044116 -0.10934047
00000000: 3960 883e 255d 773e cd10 5c3e 72dc cdbe
00000010: 98a5 86bd 2934 4cbd 9f7f 183e 840f cc3e
00000020: 00e7 a23e ef6c fdbb e803 a03e 554a 493e
00000030: 6246 063e 9e1d da3e d1d0 9c3d 3574 2fbc
00000040: 9b9d bc3e 08fb 6b3e d1b1 933d e160 063f
00000050: 33c5 033f 8c81 053e 8c25 123f cf44 73bd
00000060: 0b5f fe3e b4e5 ccbd 6a55 2c3f 062b dfbc
00000070: 90f4 283d fd34 f8bc 5bb0 00be 7037 d53d
00000080: 2b3c ff3e ae9f 903e 5ca9 2d3f 0c8b 7e3b
00000090: b16e 983d 13f1 0d3e 16cc 993d 487a 823e
000000a0: a931 04bd 9c63 af3e afa7 853e 1143 e53e
000000b0: b36a 643e 6c74 b23e 83db b03e 42b6 bc3e
000000c0: 801c c93e 1c45 7c3d e14a 0ebc 3749 ee3d
000000d0: d618 c8bb e9ed a03e 8066 0a3d 9a55 133e
000000e0: 40f2 213f 3963 033f 58b7 e1bc 6ecb adbd
000000f0: 9213 5e3e be1d 343e e852 87bc a4c9 ea3e
00000100: e1ba d6bd 8a29 24bc 4bbb 9abd 4d78 d4be
00000110: aa7b c93e b94a 993d fb82 923e 62ad 453e
00000120: 58de 523d 99b2 99be 0a91 d9bd d92a c8be
00000130: f805 ad3e e8f2 923e 950d aa3e f457 0c3d
00000140: ecfe 233e 65dc e43e 5cfb d53e b776 4ebe
00000150: 5b10 ed3d d876 93bd f65d ae3e 7e9c 693e
00000160: 7a67 e83d dbf6 e6bd ff13 b73d f73d cc3e
00000170: a5d0 47be 4479 043e f484 03bd 67e3 8bbd
00000180: c7e4 503c c5bf ae3d db63 afbd d433 943e
00000190: d778 563d 0075 c23e b7fc 093e 23cf 8f3d
000001a0: 1826 b83e 22e7 c03e 8f60 083e bcb6 413f
000001b0: 8575 a33d 5db0 533e d595 ef3d ed24 82be
000001c0: 8032 f43e 980b 3d3d b60f 3a3d 7196 eb3e
000001d0: 09bb f53c c4dd fd3e 8ad8 a0bd e654 173f
000001e0: ca67 b7bd e9ad 4d3e ded5 e43d c18a abbc
000001f0: b2ce 043e 2184 f13e 34e9 16be ea40 913d
00000200: 8042 10bd 2bfd 363d 42df fe3b faa7 ac3e
00000210: cbf6 873e 122e 213e 95b9 b13d d8a9 9fbe
00000220: 1d1c 653d 097b 57be 5f6a fdbb 4c46 4f3e
00000230: 9b21 cbbc ac86 03be ae37 0bbe bf32 e3bd
00000240: 0585 93bd 606d 92bc dd95 6fbd d83e b33e
00000250: 0543 d23e 8f3b f9bd f1ed eb3d 5ebd 213e
00000260: e630 84bd a8be 843e 06e8 0f3e 4890 ab3e
00000270: bb78 a33e 73e3 c4bc fe16 4cbe c63f 50bd
00000280: 5c9f 97bd 344a a73e 75e7 833e b996 ec3e
00000290: 3c7b 9bbc a68c a7bd 0a95 ad3e 8db4 513e
000002a0: dab5 a33d e50d 2b3e 9f53 863e a08a a73e
000002b0: b5a7 d5bc 0ae5 bf3e 45b1 093e 29fd 42be
000002c0: 2992 023f 0f12 c23e 2419 023d cb9f 033e
000002d0: 3db0 54bd 07b3 90be 6c85 db3e 45e0 dab7
000002e0: 5979 d9bd b3cd 583d 5728 893e 0055 063f
000002f0: 68f1 76be 0780 be3e ba60 fa3d 5adf ee3d
00000300: 6c09 b2be 5e5f 6d3d 9823 db3e 2740 ff3e
00000310: 5dc1 5ebd d899 073f a923 19be c586 8b3e
00000320: 31d9 3abd d381 3ebe 7c63 c33d feb5 2f3e
00000330: 16a1 763e f68d 37bd 4db9 34bd 87fd 90bd
00000340: 31f2 15be 15af 113f 5a93 413d 4743 103e
00000350: 5973 a33d d130 cf3e 19e7 453e 08b1 f8bd
00000360: ec8e b03e 3bc4 853e f66d 5d3e 3919 583e
00000370: 939c 683e a7f8 293d 482b 5f3e f6f2 143e
00000380: 4bb5 f03e 260b e53e ae0b 14be 496d e43e
00000390: 9bb0 bfbe f8ed 3e3e 02c8 50bd 24c1 32be
000003a0: 8171 0c3c 2e14 0e3e 776c 923e 1209 893d
000003b0: e4ba 5f3f b6ac 773e e881 6bbc 32db 893e
000003c0: 0ba0 403e 03e4 b93e 331f ad3e 9564 6d3e
000003d0: 2ec8 003f c8c2 563d 623a a6be 98c5 ebbd
000003e0: 2d31 57be cfb9 5b3e e5c4 6d3e 946b d63c
000003f0: 1844 82bd 0172 c33e 44f2 f93d e5ed dfbd

mean_linear.weight f4 [3, 256]
0.11063919 -0.36938214 0.095271274 -0.07742576 -0.0002527871 -0.51142937 0.5901778 0.06413374
0.20082235 0.17212638 0.16296276 0.016814994 -0.09731858 -0.9579579 -0.32803094 -0.84886664
-0.3626095 0.004766253 -0.20453748 -0.044410568 -0.09219848 -0.23697872 0.046795204 0.18898988
-0.30273557 -0.058782186 -0.46834534 -0.2892656 0.3233023 0.042013265 0.032481533 0.051648024
0.127714 -0.42306942 0.1012291 0.265348 -0.066335104 -0.84718543 0.12655659 -0.042278875
-0.3624215 -0.022320112 0.5687057 -0.03585437 -0.49259612 0.30896828 -0.28868765 -0.27430734
-0.25151747 0.6820542 0.057212763 0.0482439 -0.64108634 0.28714812 -0.5183054 0.022300575
0.23811139 0.29622078 0.11154278 0.14956892 -0.2187768 -0.22860654 0.5585219 -0.39165357
0.3534843 0.62710935 0.07247587 0.44547164 1.0667275 -0.3038834 -0.18990558 0.023338763
-0.14790326 -0.036287036 -0.02812869 0.4106605 -0.13347271 0.49378052 0.058864575 -0.10935297
0.065707065 -0.2338306 -0.121493675 -0.42555654 -0.14286193 0.028117139 0.175198 0.0958734
0.99417865 -0.5378963 -0.21496801 0.2969522 0.43203813 -0.15319552 -0.21367547 -0.30021706
0.13184133 0.18885799 -0.30037302 -0.38769802 -0.53515196 0.32342502 -0.27078143 0.2520215
-0.5767277 -0.1212756 0.84746844 -0.1392573 -0.09972105 -0.21606721 -0.0013591108 0.034559302
0.26497793 0.11153836 -0.049979884 0.07128698 0.26788417 0.7221362 -0.029690167 -0.32863894
-0.11655284 -0.054028444 -0.3438291 0.2737992 -0.13957053 -0.4951478 -0.2503371 -0.48528484
0.49288464 0.44139656 -0.19746368 -0.33471453 0.38480446 -0.6633083 0.43557367 0.030154008
0.069430046 -0.190236 0.06788713 -0.15657051 0.17913185 0.37180305 -0.47333896 -1.1738867
0.21265382 0.39295858 0.30456388 0.0055173617 -0.2597632 0.061921597 -0.044307914 0.39285487
-0.012479476 -0.2197333 0.2525889 -0.097703636 0.5752679 0.14200439 0.27453274 -0.14313896
-0.27291062 -0.1320105 0.071531296 -0.056375794 0.36259818 -0.010642794 -0.10525201 0.43944606
0.52457273 0.006779525 0.29489985 0.19485301 -0.112063 -0.012434385 -0.011469383 -0.01265227
-0.17970295 0.30673552 -0.68531185 -0.13911034 -0.16410466 -0.029811429 -0.30393004 -0.20338716
-0.7507076 -0.2718798 -0.20222905 0.02453556 -0.36936685 0.3461021 0.008057912 1.3818055
0.16691619 0.697911 -0.02357281 -0.14198525 0.70954704 0.31746608 0.1348895 0.34698167
-0.26219222 -0.038640223 -0.34635898 0.08110573 -0.36062238 0.4340083 -0.014745381 -0.30988336
0.54051375 0.5584235 -0.24527954 -0.63683337 0.16142347 0.12775841 0.2879991 -0.4820302
-0.1395074 0.040709026 -0.22337195 -0.929811 -0.2831873 0.6486472 -0.6536816 0.24153817
-0.16163571 0.29486072 -0.013716513 0.12623277 -0.13158599 0.33078164 -0.76156044 0.721664
0.6478062 -0.032529265 -0.4197349 -0.12196976 -0.36024913 0.882825 -0.18417759 0.23600626
-0.2224432 -0.08270214 -0.27542835 -0.13279091 0.043927085 0.039755326 0.4829221 -0.030340329
0.4826489 0.0074786837 -0.006256897 -0.9251162 0.03916712 0.91982955 -0.15852536 -0.10160664
00000000: cd96 e23d a81f bdbe 961d c33d 6691 9ebd
00000010: 8388 84b9 09ed 02bf e415 173f 8d58 833d
00000020: 60a4 4d3e e641 303e b6df 263e 99bf 893c
00000030: f74e c7bd bb3c 75bf acf3 a7be 534f 59bf
00000040: f4a7 b9be 3a2e 9c3b 4672 51be dbe7 35bd
00000050: 8fd2 bcbd 8daa 72be 54ac 3f3d 9086 413e
00000060: 2800 9bbe 97c5 70bd f6ca efbe 9f1a 94be
00000070: e187 a53e 1a16 2c3d 5b0b 053d e18c 533d
00000080: 75c7 023e 8e9c d8be 3451 cf3d b1db 873e
00000090: b3da 87bd 25e1 58bf 0d98 013e 9d2c 2dbd
000000a0: 508f b9be abd8 b6bc b296 113f 08dc 12bd
000000b0: 8f35 fcbe 1731 9e3e dece 93be 0372 8cbe
000000c0: e6c6 80be 1b9b 2e3f ee57 6a3d 659b 453d
000000d0: 3c1e 24bf 1405 933e aaaf 04bf b2af b63c
000000e0: 79d3 733e 40aa 973e 8b70 e43d 9828 193e
000000f0: 0707 60be d517 6abe 4bfb 0e3f d186 c8be
00000100: e5fb b43e 3d8a 203f 3b6e 943d dc14 e43e
00000110: 878a 883f 9b96 9bbe 9c76 42be ef30 bf3c
00000120: f473 17be b7a1 14bd 236e e6bc 1842 d23e
00000130: 12ad 08be cdd0 fc3e fb1b 713d 73f4 dfbd
00000140: 6d91 863d 4a71 6fbe add1 f8bd 8ce2 d9be
00000150: 664a 12be ea55 e63c 1b67 333e 4659 c43d
00000160: 7e82 7e3f 92b3 09bf 9320 5cbe 1e0a 983e
00000170: 1a34 dd3e 49df 1cbe becd 5abe 0db6 99be
00000180: 6a01 073e fd63 413e 7eca 99be 5b80 c6be
00000190: b8ff 08bf f797 a53e dda3 8abe f608 813e
000001a0: 6da4 13bf 575f f8bd b1f3 583f 7799 0ebe
000001b0: 8d3a ccbd b940 5dbe 3124 b2ba 0e8e 0d3d
000001c0: 30ab 873e 396e e43d b5b7 4cbd e8fe 913d
000001d0: 1d28 893e ebdd 383f cb38 f3bc 5d43 a8be
000001e0: 41b3 eebd ee4c 5dbd 5e0a b0be 692f 8c3e
000001f0: 94eb 0ebe 0384 fdbe 2f2c 80be 4177 f8be
00000200: 605b fc3e bbfe e13e eb33 4abe b45f abbe
00000210: 1705 c53e 93ce 29bf 8303 df3e 8a05 f73c
00000220: 5731 8e3d 3acd 42be 6808 8b3d 0554 20be
00000230: 576e 373e f85c be3e 7c59 f2be eb41 96bf
00000240: ecc1 593e de31 c93e ccef 9b3e fcca b43b
00000250: afff 84be 80a1 7d3d 377c 35bd 4624 c93e
00000260: b776 4cbc c401 61be 5553 813e d818 c8bd
00000270: c244 133f 9969 113e 8e8f 8c3e 0593 12be
00000280: f1ba 8bbe c32d 07be 007f 923d 4eea 66bd
00000290: 78a6 b93e 1d5f 2ebc 5e8e d7bd 13ff e03e
000002a0: 664a 063f c726 de3b 1dfd 963e 8c87 473e
000002b0: 4981 e5bd 97b9 4bbc 14ea 3bbc 774b 4fbc
000002c0: 0d04 38be 700c 9d3e 9970 2fbf f172 0ebe
000002d0: 0d0b 28be 1937 f4bc b89c 9bbe b944 50be
000002e0: 602e 40bf d433 8bbe 2215 4fbe ccfe c83c
000002f0: a71d bdbe 4b34 b13e 5505 043c 01df b03f
00000300: 14ec 2a3e 4caa 323f c41b c1bc 9564 11be
00000310: e0a4 353f ea8a a23e 7920 0a3e 95a7 b13e
00000320: 0f3e 86be 3645 1ebd f755 b1be c31a a63d
00000330: 7fa3 b8be 5636 de3e 9c96 71bc 08a9 9ebe
00000340: 1c5f 0a3f d8f4 0e3f 8f2a 7bbe 8307 23bf
00000350: 324c 253e 1ad3 023e 9e74 933e aacc f6be
00000360: 07db 0ebe 82be 263d 9ebb 64be 1808 6ebf
00000370: edfd 90be be0d 263f ad57 27bf c855 773e
00000380: d583 25be fcf7 963e 3abb 60bc 2a43 013e
00000390: 7abe 06be 365c a93e a0f5 42bf f9be 383f
000003a0: a1d6 253f 683d 05bd 7ee7 d6be 48cb f9bd
000003b0: 9372 b8be d200 623f 0d99 3cbe a0ab 713e
000003c0: 26c8 63be bd5f a9bd f204 8dbe 57fa 07be
000003d0: e3ec 333d 7bd6 223d 9141 f73e 488c f8bc
000003e0: c21d f73e bf0f f53b a806 cdbb 6ad4 6cbf
000003f0: b46d 203d f379 6b3f 7954 22be 2417 d0bd

mean_linear.bias f4 [3]
0.07130817 0.11252848 -0.13760042
00000000: 050a 923d 5575 e63d 20e7 0cbe

log_std_linear.weight f4 [3, 256]
-0.012065753 0.059166435 0.010099191 0.088725716 -0.086070105 0.09678283 -0.07094388 -0.077996105
-0.023250947 -0.039394356 0.033248864 -0.04372489 -0.06726586 0.45491394 0.04520299 0.33926773
0.05231891 -0.05212401 0.18080571 0.002268869 0.02996523 0.0097181685 -0.024337865 -0.13136394
0.07312102 0.10610992 0.10246353 0.24385844 0.048841458 -0.0067953602 0.027992863 0.01462189
-0.060084958 0.07488201 -0.05207056 0.15152225 0.015223871 0.13637239 0.10881888 0.0016865443
0.037531868 0.011923005 -0.036358718 0.03100048 0.116076216 -0.050331425 0.04671966 0.2625332
0.02115195 -0.013722345 -0.016596925 -0.11195599 0.15302868 -0.107769065 0.13632995 0.22913626
-0.10780579 -0.06694963 0.019920718 0.1695904 0.041736346 0.02472311 -0.016165584 0.04712935
-0.10911674 0.082614355 0.22244027 0.07143394 -0.0039326847 -0.13435243 0.030165516 0.013776073
-0.0452246 0.032608606 -0.012365443 -0.081023976 0.0424889 -0.01419984 0.040654 0.053691898
0.0151863 0.028582089 0.0031761013 0.07935755 0.3209813 -0.08049786 -0.045377392 -0.02867384
-0.09262302 0.22972557 0.01324421 0.013426341 -0.116727814 0.02870157 0.3236065 -0.08570663
0.007895822 -0.022166478 0.13824981 0.117442295 0.19489233 0.04616194 0.06783433 -0.09774235
0.5198764 0.038488448 0.2135703 -0.04835338 0.27305263 0.037279066 -0.013928156 0.10546731
0.036878295 0.010661166 0.007656004 0.030114999 0.16349432 0.20729187 -0.068303354 0.37359437
0.16543014 0.034359816 -0.038325887 -0.07206435 0.093811385 0.058421217 0.049961995 0.18322098
0.15845436 0.022102313 0.05608879 0.06313637 -0.06438095 0.20707108 0.009481358 -0.0058983658
-0.071510546 0.08341486 0.26603395 0.022239095 0.04853821 0.3175067 -0.019779554 0.29441142
0.07693417 0.17466028 -0.027860874 -0.014131522 0.05861237 -0.050460927 -0.069566384 -0.0029574493
0.12360178 0.008414004 0.07950492 0.041246217 0.040542196 -0.039455667 0.13872837 0.015010421
0.08692042 0.017485917 -0.03181411 -0.0029652049 -0.009018157 -1.2646127e-06 -0.0019016542 0.12039016
-0.17658006 0.052655622 -0.01235126 -0.016246341 0.034482457 0.04838574 0.008835147 0.033543594
0.050323922 -0.042248853 0.0394008 0.018806765 0.03710362 0.029736526 0.06997578 0.0053407815
0.03807685 0.10736092 0.036033373 0.041698366 0.06396965 0.026186122 -0.0035923978 0.024900567
0.057496868 0.023688275 -0.038042642 0.039830256 0.14887099 -0.09730213 -0.0139876 -0.07678112
0.091974296 0.0073272493 0.04641215 0.050040737 0.1819911 0.052207347 -0.019747248 0.11489476
0.16063403 -0.10320875 0.13681047 0.12408781 0.0702884 -0.036843717 0.25892287 0.02336483
0.10607115 0.027786098 0.058674034 0.2481619 0.042208817 0.031091675 0.006455118 0.072632715
0.005581597 -0.11594059 0.1301818 -0.006142413 -0.02003326 -0.08378912 0.12860125 0.058735643
-0.052096494 0.04335941 -0.056383234 0.03452072 0.050282747 -0.0069489935 0.102038816 -0.05388124
0.04225394 0.27056736 0.05784132 0.014662227 -0.040224787 0.21178548 0.11985568 0.020165779
0.16380078 0.019742774 0.027127992 0.21486549 0.02669314 -0.032010075 0.0027062169 0.09765922
00000000: 70af 45bc 8158 723d 1477 253c d4b5 b53d
00000010: 8645 b0bd 1436 c63d 064b 91bd 6cbc 9fbd
00000020: c578 bebc fa5b 21bd f62f 083d df18 33bd
00000030: afc2 89bd 7bea e83e c526 393d 80b4 ad3e
00000040: 5a4c 563d fc7f 55bd 2225 393e 4eb1 143b
00000050: a479 f53c f438 1f3c 3460 c7bc 4584 06be
00000060: 79c0 953d 2850 d93d 66d8 d13d 07b6 793e
00000070: fb0d 483d 9dab debb 4a51 e53c a790 6f3c
00000080: a51b 76bd bd5b 993d f147 55bd a628 1b3e
00000090: 8b6d 793c 34a5 0b3e 6fdc de3d 090f dd3a
000000a0: 04bb 193d b558 433c e1ec 14bd b8f4 fd3c
000000b0: 5eb9 ed3d 5328 4ebd 1d5d 3f3d c06a 863e
000000c0: db46 ad3c b0d3 60bc 46f6 87bc 2f49 e5bd
000000d0: 8db3 1c3e 07b6 dcbd 149a 0b3e b2a2 6a3e
000000e0: 48c9 dcbd e31c 89bd c630 a33c 1ba9 2d3e
000000f0: bbf3 2a3d 1f88 ca3c b06d 84bc b50a 413d
00000100: 9978 dfbd b731 a93d 62c7 633e f54b 923d
00000110: c0dd 80bb af93 09be ac1d f73c 0ab5 613c
00000120: 6e3d 39bd 9a90 053d 6d98 4abc e6ef a5bd
00000130: d708 2e3d 72a6 68bc cf84 263d 09ec 5b3d
00000140: f5cf 783c fc24 ea3c 2326 503b 3686 a23d
00000150: a957 a43e 10dc a4bd a5dd 39bd 67e5 eabc
00000160: 23b1 bdbd 2e3d 6b3e 3efe 583c 28fa 5b3c
00000170: fe0e efbd 8e1f eb3c c0af a53e f586 afbd
00000180: 7a5d 013c 7996 b5bc 5c91 0d3e 9685 f03d
00000190: db91 473e 4d14 3d3d baec 8a3d 242d c8bd
000001a0: 9f16 053f 10a6 1d3d 2cb2 5a3e 320e 46bd
000001b0: 8ecd 8b3e efb1 183d ec32 64bc 3fff d73d
000001c0: b20d 173d 2cac 2e3c 37df fa3b bbb3 f63c
000001d0: 0e6b 273e 5244 543e a1e2 8bbd c347 bf3e
000001e0: 8566 293e e1bc 0c3d 9bfb 1cbd 7996 93bd
000001f0: 2f20 c03d 164b 6f3d f3a4 4c3d 489e 3b3e
00000200: dc41 223e e90f b53c 5cbd 653d a44d 813d
00000210: 29da 83bd 710a 543e b357 1b3c 1447 c1bb
00000220: 1f74 92bd 69d5 aa3d 9a35 883e c32e b63c
00000230: 01d0 463d 3d90 a23e bb08 a2bc 18bd 963e
00000240: aa8f 9d3d 25da 323e 7d3c e4bc e687 67bc
00000250: 8613 703d 1eb0 4ebd d278 8ebd c4d1 41bb
00000260: ee22 fd3d e4da 093c 7ad3 a23d cbf1 283d
00000270: 930f 263d 449c 21bd cf0e 0e3e 45ee 753c
00000280: 5503 b23d a03e 8f3c 834f 02bd e253 42bb
00000290: e4c0 13bc c3bb a9b5 ed40 f9ba 1e8f f63d
000002a0: 67d1 34be 6cad 573d f05c 4abc 0c17 85bc
000002b0: 7a3d 0d3d 2030 463d 4bc1 103c 0265 093d
000002c0: 7520 4e3d 220d 2dbd bc62 213d a510 9a3c
000002d0: f7f9 173d 049a f33c 764f 8f3d b901 af3b
000002e0: 79f6 1b3d 0be0 db3d bb97 133d e8cb 2a3d
000002f0: 8502 833d 4784 d63c 6f6e 6bbb 46fc cb3c
00000300: d681 6b3d ea0d c23c 9ad2 1bbd 0d25 233d
00000310: a371 183e 5746 c7bd 3f2c 65bc 6b3f 9dbd
00000320: 055d bc3d 6c19 f03b ab1a 3e3d 84f7 4c3d
00000330: e05b 3a3e 5fd7 553d fbc4 a1bc f24d eb3d
00000340: 3f7d 243e 1c5f d3bd 0b18 0c3e c021 fe3d
00000350: 5df3 8f3d 70e9 16bd 8a91 843e 9a67 bf3c
00000360: d53b d93d ac9f e33c 2f54 703d 271e 7e3e
00000370: 27e3 2c3d f8b3 fe3c 7485 d33b 76c0 943d
00000380: d4e5 b63b 4372 edbd 614e 053e 4b46 c9bb
00000390: cb1c a4bc a199 abbd 0cb0 033e c994 703d
000003a0: 2263 55bd a399 313d 1bf2 66bd 9965 0d3d
000003b0: 48f5 4d3d 62b4 e3bb baf9 d03d 93b2 5cbd
000003c0: 7812 2d3d ce87 8a3e 05eb 6c3d d639 703c
000003d0: bfc2 24bd 4bde 583e e576 f53d b432 a53c
000003e0: 64bb 273e 99bb a13c 863b de3c b305 5c3e
000003f0: 92ab da3c ff1c 03bd c95a 313b 8f01 c83d

log_std_linear.bias f4 [3]
-0.97070134 -0.7231251 -1.1150265
00000000: e27f 78bf ba1e 39bf 30b9 8ebf
