hydrone_aerial_underwater_ddpg/scripts/Models/sac_stage_1_air3D_tanh_3layers/4700_policy_net.pth (torch_old, 297299 bytes, 8 tensors)

linear1.weight f4 [256, 25]
000000 4c e2 32 3e a1 50 00 3d 24 f1 0c be 7e de 33 3e
       0.17469138 0.031326894 -0.13763863 0.17565343
000010 64 34 65 bc 42 54 09 be ba 95 8a 3c a7 4b 48 3d
       -0.013989542 -0.13411048 0.016917098 0.048900273
000020 8b 96 71 be f8 e8 2c bd c9 c6 77 3d af 07 f8 3d
       -0.23592584 -0.042214364 0.06049231 0.121108405
000030 83 85 8d 3e 2f 17 09 3e 2a 74 84 bd 22 19 24 be
       0.27640924 0.1338775 -0.06467469 -0.16025212
000040 14 47 16 be 65 9e 12 be 0a b1 a2 3d bf 84 90 3e
       -0.14675552 -0.14318235 0.07943924 0.28226277
000050 e7 ea 4a be b0 e8 65 3b 3c 2c 83 3f 82 ca 86 3e
       -0.1981617 0.003508132 1.0247874 0.26326376
000060 13 7c b1 be 60 6c df bd e5 a7 71 be 1c 58 bb 3c
       -0.34664974 -0.10909343 -0.23599203 0.022869162
000070 e8 f1 82 bd ce f9 31 3d 49 91 c5 3d 72 2e 0c 3d
       -0.06393796 0.043451123 0.096468516 0.03422398
000080 0f 16 27 be 62 51 dc bd 1d 6f 00 be 46 e5 9b 3e
       -0.16317008 -0.1075771 -0.12542386 0.3044836
000090 a7 1e 90 3e 61 02 22 3f b9 c4 05 3e 9d 92 59 be
       0.28148386 0.6328488 0.13063325 -0.21247335
0000a0 e1 a3 a1 be b5 7a 45 be fc d2 89 be e6 c8 fa 3d
       -0.31570342 -0.1928509 -0.2691878 0.122453496
0000b0 b8 a7 02 3e 24 29 f1 3d 1f 03 ae be b6 24 05 3e
       0.12759292 0.11775425 -0.33986756 0.13002285
0000c0 33 73 e7 bf 6a d3 1b 3d 07 83 89 3d eb 1e 2d 3e
       -1.8082031 0.038043417 0.067144446 0.16906326
0000d0 00 4e 7d 3e 1b fc bf 3e f6 19 f1 3d 28 cf 8d 3d
       0.24736786 0.3749703 0.1177253 0.069242775
0000e0 e3 75 9c 3e 28 26 b0 3e d1 b0 14 3e 7d b9 80 be
       0.3055869 0.3440411 0.14520575 -0.25141516
0000f0 d3 7e 5e be ff 4d 0a 3c 48 5b 76 3c 5d 6e ea 3d
       -0.21728067 0.008441447 0.015036412 0.114468314
000100 2d 76 fa bd 0e f2 8b be 1c c1 16 bf 02 29 8f be
       -0.122295715 -0.2733311 -0.5888841 -0.27960974
000110 a6 68 86 bd f5 30 42 be 4b 82 27 3f 17 bb 9e bd
       -0.06562929 -0.18963988 0.65433186 -0.07750528
000120 cb 36 89 be 34 10 44 3f 1b 8b 5a bf 2d 5e 10 3c
       -0.26799616 0.76587224 -0.8536851 0.008811516
000130 c1 ce 4f 3e 51 45 ab 3e 92 0f b9 3e 52 57 e3 3c
       0.20293714 0.33451322 0.36144692 0.027751599
000140 f4 04 95 3e 1b 84 b5 3d 29 18 23 3e 8d d7 e1 3d
       0.2910534 0.08863088 0.15927185 0.11027441
000150 c0 37 80 3d b6 1d 02 bd 76 78 43 be be ee a6 be
       0.062606335 -0.031766616 -0.19088921 -0.3260402
000160 aa e5 0f be 89 8f a0 3e 32 5d 9a 3d b3 1c 4e 3e
       -0.14052454 0.3135951 0.07537307 0.20128135
000170 f1 81 34 be 63 4b d5 be 5a 0c ec be 59 1f 14 be
       -0.17627694 -0.41659078 -0.46103173 -0.14465083
000180 2a cc b3 38 df 01 35 bd 73 03 97 bf 01 d7 55 3c
       8.573414e-05 -0.044191238 -1.1797928 0.013051749
000190 63 24 f6 3e 8b 2e ca 3e 2c 68 f5 3e 4b a4 cd 3d
       0.48074636 0.39488634 0.4793104 0.10041102
0001a0 50 f6 c1 be 33 d2 3a be 0f fa e1 bd c8 1d ec bd
       -0.37883234 -0.18244247 -0.11034023 -0.11529118
0001b0 26 a5 b2 be e3 ac d5 be 19 bc ee be 3f 63 19 be
       -0.34891623 -0.41733465 -0.46627882 -0.14979266
0001c0 33 30 15 bd 9d bf 80 be 82 4c 26 be 82 cc 5b be
       -0.03642292 -0.2514619 -0.16240123 -0.21464732
0001d0 8f 37 13 be 00 b0 cd 3e a4 6e 43 3d 2d 7a a1 3e
       -0.14376663 0.4017334 0.047712937 0.31538525
0001e0 ce 67 1b 3e 9a 95 b1 bd 2a 6a 59 3d e1 6f 97 bf
       0.15176317 -0.08671112 0.05307976 -1.1831018
0001f0 39 f2 58 3f fc 8b 57 ba ea 8b 8b 3e 68 cb 00 3e
       0.847446 -0.00082224584 0.27255183 0.12577593
000200 76 d8 63 3e f1 9c f6 3e a8 d7 01 3f 35 76 bf 3d
       0.22250542 0.48166612 0.5071969 0.09348718
000210 80 04 7f 3d 64 40 10 be 24 96 dc bc 5e ea 80 3d
       0.06226015 -0.14087063 -0.026927061 0.06294702
000220 9f 5f df 3c 8c 77 15 be 99 b1 ab be 4a b1 b5 bd
       0.027267275 -0.14596385 -0.33533934 -0.08871706
000230 a3 5a cc be b0 6f 86 be 56 b0 45 be da a2 22 be
       -0.399129 -0.26257086 -0.19305548 -0.15882435
000240 48 9c b5 be d8 14 00 3e 15 03 b2 3d 90 8d 02 be
       -0.35470796 0.12507951 0.08691994 -0.12749314
000250 99 c2 62 3f 8b ca 4c 3f 62 34 e4 3c 94 a1 7e 3e
       0.8857818 0.79996556 0.02785701 0.24866325
000260 58 1f ba bd fd 8b 08 3d 64 73 99 3d 34 b5 90 3c
       -0.090880096 0.03333663 0.07492712 0.01766453
000270 74 83 28 3e da d9 78 3d 59 fc 20 3e 65 0c 48 3d
       0.16456395 0.060754634 0.15721263 0.048839945
000280 e8 40 30 bd e3 2e 14 be a8 7f 09 3a d0 b5 70 bc
       -0.04303065 -0.14471011 0.00052451575 -0.014691785
000290 2d fb 2a be 2e 55 dc bd 58 4b 9b be 7b 08 5d be
       -0.16697378 -0.10758434 -0.3033092 -0.21585266
0002a0 11 37 93 be dd 0a 22 bd 68 a8 ef bb 45 bf 55 3e
       -0.2875295 -0.03956114 -0.0073137768 0.20873745
0002b0 77 4f 34 be c7 54 22 40 a8 2e 25 3f c8 ed 7e 3e
       -0.17608438 2.5364244 0.64524317 0.24895394
0002c0 38 d6 35 3e 0f 9d 6c 3e c9 07 2b bd 35 b3 31 be
       0.17757499 0.23106788 -0.04175547 -0.17353518
0002d0 48 2c a2 bc ae 1b 24 3e 36 e1 4d 3d 2d 23 ae bc
       -0.019796506 0.16026184 0.050263606 -0.021257007
0002e0 b2 a6 41 be cf fd a8 be 83 fa d0 be fc 38 66 be
       -0.18911245 -0.3300614 -0.40816125 -0.22482675
0002f0 a0 94 19 bb 0f 53 bf be 55 ca 69 be 73 64 95 bc
       -0.0023434535 -0.37368056 -0.2283109 -0.018236374
000300 b8 35 b0 3c f7 b9 3a 3d db 9e 95 3d 98 15 02 3f
       0.02150999 0.045587506 0.0730569 0.508142
000310 ad 25 ee 3d 0e ac f8 3c ed 50 91 c0 42 65 07 3f
       0.1162828 0.03035548 -4.5411286 0.5288888
000320 77 2d 95 3b bc c6 e8 bd 17 ca 83 bc 77 dd 09 be
       0.004552539 -0.113660306 -0.016087575 -0.13463388
000330 01 de d4 3d 30 1c ad be a0 f5 3b be c9 70 e5 be
       0.103939064 -0.33810568 -0.18355417 -0.4481261
000340 cc 80 03 bf b3 9a 05 bf 21 76 cf be ad 66 e8 bc
       -0.51368403 -0.5218918 -0.40519813 -0.028369272
000350 a5 ef 43 3e b6 be 7d 3e 5b ee 76 3e 82 86 32 3e
       0.19134386 0.24779782 0.24114363 0.17434123
000360 df c4 a2 3e ca 6e ea 3d 97 71 31 3e 64 b1 99 3e
       0.31790826 0.114469126 0.17328487 0.3001815
000370 9f 3b 84 be ac 07 ba 3e 3b 90 ad bd 0c 60 fd bf
       -0.25826737 0.36333978 -0.084747754 -1.9794936
000380 bb 4a 77 3f 6a 4f a3 be 11 00 3a be 65 96 30 be
       0.96598405 -0.31896526 -0.18164088 -0.17244871
000390 97 40 a7 3d 16 c1 98 3e 5b 2a a9 3e eb a5 df 3d
       0.081666164 0.29834813 0.33040127 0.10920318
0003a0 46 aa 70 be 61 55 cc be c7 90 86 be 52 b3 d3 be
       -0.23502454 -0.3990889 -0.2628233 -0.41347748
0003b0 5b 4b 5c be 49 2d 99 3d 02 dc be 3d 3d 38 be 3b
       -0.21513121 0.074793406 0.09319307 0.005805044
0003c0 0a 2a 7a 3d db 2f 8f bd 01 6e 83 be c4 4a 1d 3e
       0.061075248 -0.069915496 -0.25669864 0.15360552
0003d0 5d 22 f1 3b 75 8e 13 3e 7f a7 14 be 57 6e 05 3e
       0.0073588328 0.14409812 -0.1451702 0.13030373
0003e0 15 5b 74 3e 82 22 20 bf 37 6f 02 3e e7 5d 1f 3e
       0.2386287 -0.62552655 0.12737738 0.15563165
0003f0 47 4d 1f 3e 55 25 a9 3c 56 88 77 3c c9 ff 68 3d
       0.15556823 0.020647684 0.015108189 0.05688456

linear1.bias f4 [256]
000000 f9 c1 40 3d 22 13 84 bd 42 de 28 bd 33 1b 2e bd
       0.047059987 -0.06448962 -0.041227587 -0.042506408
000010 46 de b4 3e 85 0e db bb 17 16 6a bd 25 c7 83 3d
       0.3532583 -0.0066850805 -0.057149973 0.06434468
000020 5b 65 36 3e b9 9c 86 bd e7 55 b8 39 b4 50 1b be
       0.17812102 -0.06572861 0.00035159217 -0.15167505
000030 19 16 1b bc 27 f3 02 3d 5c 1e 94 3d 5b d0 2f 3e
       -0.009465718 0.03197017 0.07232353 0.17169325
000040 00 00 00 00 e3 4f 34 3e 55 e3 a6 bd 6c 46 66 bd
       0.0 0.176086 -0.08148829 -0.056219503
000050 3f f5 2c 3e 2b 2f 9d 3d e6 0b 18 bc e6 81 30 3d
       0.16890429 0.07675012 -0.009280181 0.04309263
000060 cb 85 80 3e a7 24 20 bd 99 21 bc bd 26 60 2c bc
       0.25102076 -0.039097454 -0.09186096 -0.01052097
000070 f0 be 46 3e 46 b4 0a 3e 12 c0 93 bd 4f f8 5c be
       0.19408774 0.13545331 -0.07214369 -0.21579097
000080 3e 75 d9 3d 23 07 8c 3e 4d 9f 00 3e 33 55 fc 3c
       0.10618065 0.27349195 0.12560768 0.030802345
000090 4a ef 9b bc 4d 88 07 3e 6d 2c 05 be 33 f1 87 bd
       -0.019035 0.13235588 -0.13005228 -0.06637802
0000a0 00 00 00 00 63 a3 0c 3d f5 64 93 bd ca 13 bc 3d
       0.0 0.034335505 -0.071969904 0.09183462
0000b0 63 bf 22 3d 29 d1 34 3e 11 25 22 bd 20 82 ac 3d
       0.0397333 0.17657913 -0.03958613 0.08423257
0000c0 98 0d 5a 3e 66 8e 0b 3d 2c 8b a7 3d 98 56 7d 3e
       0.21294248 0.03407135 0.08180842 0.24740064
0000d0 5a ed 2f 3c 80 e7 90 bd 8b 5f 09 3e 89 e2 11 bc
       0.010737741 -0.07075405 0.13415353 -0.008904108
0000e0 ec 13 2a 3d 11 20 b2 bd ad 3a 7a 3d af 7c 48 be
       0.041522905 -0.086975224 0.061091114 -0.19578813
0000f0 b1 01 10 be 40 bd 74 3e 8a 76 8d bd 15 d4 54 be
       -0.14063145 0.23900318 -0.06907375 -0.20784028
000100 c2 6b 34 3d 45 8c cf 3a 17 5d 98 bc 50 e9 ff bc
       0.04404808 0.001583465 -0.018599076 -0.031239182
000110 10 39 2d bd 3a da f1 bd f6 5f 9d bd ec 4b cb 3d
       -0.042290747 -0.118092015 -0.07684319 0.0992659
000120 a8 a4 2c 3e 31 18 ca 3d 6c 13 cd bd 17 52 21 be
       0.16859686 0.098678954 -0.1001347 -0.15753971
000130 08 d3 86 bd 36 33 9b bb aa 6d e5 3c e4 fd d1 bb
       -0.0658322 -0.0047363294 0.028006393 -0.00640844
000140 bb 0c 7a 3e 9a 0b ea bc d8 cc 0b 3e 2a c6 db bd
       0.24418919 -0.028569985 0.1365236 -0.10731156
000150 b0 1a e6 bd 83 80 0e bc 73 dc e5 bc b3 c2 bc bd
       -0.11235559 -0.008697632 -0.02805922 -0.092168234
000160 1e f5 1d bd e7 e2 5c bd d1 06 ba 3d 5a 11 86 3e
       -0.03856384 -0.05392733 0.090833314 0.26185113
000170 ef cb 95 3d 79 49 06 3c 15 7e 4b 3e 98 1a b9 3c
       0.07314288 0.008196228 0.19872315 0.022595689
000180 84 bb ed 3c 22 55 4f 3d 20 69 10 3e 33 17 c3 bd
       0.029020078 0.0506183 0.14102602 -0.09525909
000190 d2 27 2a bd 0b 5c 00 3e 8b f9 35 3e 62 a0 ca 3d
       -0.04154188 0.12535112 0.17770974 0.09893872
0001a0 87 4b 4d 3d c9 0a 88 be 70 e5 b5 3d 37 11 2c 3e
       0.050120857 -0.26570728 0.08881652 0.16803442
0001b0 ec 8a d3 bd 5b 3b b6 bd 54 c4 9b bc 79 4f 5a bd
       -0.103292316 -0.0889804 -0.019014515 -0.053298447
0001c0 be 0a 52 3b a1 ef b8 3d 42 1d 09 3d 67 8d 98 3c
       0.003204986 0.090300806 0.033475168 0.018622113
0001d0 ac f5 68 bd 44 95 7a bd da b9 57 3e bf f7 52 3d
       -0.056874916 -0.061177507 0.2106699 0.0515058
0001e0 de ac 84 3e 76 7e 96 bc 8f 17 6f be e6 6a a0 3d
       0.25913137 -0.018370848 -0.2334883 0.07832889
0001f0 6d ef 3c bd 8c f8 80 3d 81 9b bd bd 00 00 00 00
       -0.04612677 0.062974066 -0.09258176 0.0
000200 d8 9b 55 3e 86 4b 97 bc 6a 9b e2 bc 91 1f 1c bc
       0.20860231 -0.01846863 -0.027661998 -0.00952901
000210 49 64 2a bd bf 6d 05 3c 29 81 88 bd a1 f0 66 3d
       -0.041599546 0.008143841 -0.0666526 0.056381825
000220 c9 f2 70 bd 53 bf 1c bc 13 6d 2f 3d 1f ac e2 bd
       -0.058825288 -0.0095671 0.04282863 -0.11067986
000230 80 90 04 3c bd a9 63 3c 6f 1f 77 bd 79 fa 1a 3d
       0.008091092 0.013895449 -0.06033271 0.037836526
000240 bf 1f 02 be ff 93 30 bd cd 7d ec 3c e4 12 a4 3d
       -0.12707423 -0.04310989 0.02886858 0.080114156
000250 ce ff 11 3e 1e bd 93 bd 4c 7e 14 3f c1 58 8d 3e
       0.14257738 -0.072138056 0.58005214 0.27606776
000260 2d 18 1b 3e 91 71 0a 3c 0e 44 06 3e fd 4f a8 3d
       0.15145941 0.008449928 0.13111898 0.082183816
000270 0f 8f 1b 3d d5 ae 8e 3d 87 ef 86 3d 32 1c 9b 3d
       0.03797823 0.0696694 0.06588655 0.07573737
000280 10 b1 3b bd 03 27 5a 3e 97 a1 da 3e 15 c5 23 3e
       -0.045823157 0.21303944 0.42701408 0.1599315
000290 e0 94 05 be 76 22 40 bc 17 26 24 be 9a 4e 96 3c
       -0.13045073 -0.011726966 -0.16030155 0.018348027
0002a0 97 a9 a7 bc 1f ab e2 bc 36 f7 0e 3e aa 55 ad bd
       -0.020466609 -0.027669488 0.13961491 -0.08463605
0002b0 e6 2d e5 3c 08 0f 15 be 1c be 62 3d fb 65 df bc
       0.027975988 -0.14556515 0.055357084 -0.027270308
0002c0 cf e9 d2 3d 12 4c 5a 3d 01 47 f7 bc 9e bd b0 3c
       0.10298502 0.053295203 -0.030185224 0.021574792
0002d0 73 a4 89 bd e2 d5 2a bd e3 58 8a 3e bb df 9b bc
       -0.06720819 -0.04170788 0.2702094 -0.019027581
0002e0 d4 03 50 be 4b 44 a3 3d 8c 1b cb bb cd e5 bc bd
       -0.2031396 0.0797201 -0.006198352 -0.092235185
0002f0 20 2c 50 bd f0 29 c9 3d 19 9b db bc 22 3d 59 bd
       -0.05082333 0.09822452 -0.026807355 -0.053036816
000300 ce fe ac bc 27 6c a3 bd 4d f9 e6 3d 23 21 7f bd
       -0.021117594 -0.07979613 0.11278019 -0.06228746
000310 af fb f5 bd ea a1 fd bd 5e 1a fa 3c d0 ff b8 3b
       -0.120108955 -0.12384398 0.030530151 0.0056457296
000320 7b c2 1b bc a6 2a c3 bc dd f5 1b bc 55 65 20 3e
       -0.009506817 -0.023824047 -0.009519068 0.15663655
000330 f5 15 62 3e 0f 2d 8e bd c6 96 8e 3d cc 65 68 bc
       0.22078688 -0.06942188 0.069623515 -0.0141844265
000340 a2 60 10 3d 8f 5d b9 3d 27 ec 32 be 0a 9c 7c be
       0.035248406 0.09051048 -0.17472897 -0.24668899
000350 c9 22 1e be c1 9e 19 3e 0e f5 c7 3d c3 f6 15 3e
       -0.15442957 0.15001966 0.09763537 0.14644913
000360 dc 73 2c 3e d9 d3 10 3e d7 70 00 bd 8c e7 e9 bd
       0.16841072 0.14143313 -0.031357612 -0.11421117
000370 68 a7 7b 3d 69 a1 78 3c d8 9b 38 3c cb 11 1b 3e
       0.061438948 0.015175202 0.011267625 0.15143506
000380 d1 fc a4 3e f2 75 22 bd 00 00 00 00 9d ea a0 3e
       0.32224134 -0.039663263 0.0 0.31428996
000390 c6 0e d6 bd 7e 66 4e bd 6c fb 22 3e cc 03 7b bd
       -0.104520366 -0.050390713 0.15916222 -0.061282918
0003a0 a2 7c 2f bd ee 23 b3 3d 58 d5 3a be d5 4b 9e bc
       -0.04284347 0.087470874 -0.18245447 -0.019323269
0003b0 9b 39 4c 3e f3 06 00 bd da f7 82 bc 00 00 00 00
       0.1994385 -0.031256627 -0.015987325 0.0
0003c0 d8 85 8d bd 0c ee a4 bd 04 39 8d bd c4 0b c5 bd
       -0.06910294 -0.08053216 -0.068956405 -0.09621385
0003d0 f0 30 71 bd 25 e8 1e 3e 33 97 45 3d 47 27 a3 3c
       -0.05888456 0.15518244 0.048239898 0.01991619
0003e0 ad c5 60 bd d6 9b be 3d fe 7d 1a be 37 5c 99 3d
       -0.05487602 0.09307067 -0.15087125 0.07488292
0003f0 52 09 92 bc d1 89 4e 3e c9 b7 e2 3c 00 00 00 00
       -0.01782671 0.2016976 0.027675526 0.0

linear2.weight f4 [256, 256]
000000 83 99 59 be 44 0c 70 be d4 e1 dd 3e a3 19 77 bd
       -0.21249966 -0.23442179 0.43336356 -0.060327183
000010 1a 83 02 3f 5f 50 e1 3e 1c 09 e5 be 6c 63 66 bb
       0.50981295 0.4400663 -0.44733512 -0.0035154475
000020 61 07 ca bf 72 8f 8d 3e b1 0f ea 3c e7 2c b7 3e
       -1.5783502 0.27648503 0.028571935 0.35776445
000030 e9 1c 9c 3d a2 01 7a 3f cc 0e c1 be 1a 96 d3 3e
       0.07622702 0.9765874 -0.37706602 0.41325456
000040 73 72 c6 bd a4 cc 94 bd 0e 5b 16 be 85 74 ef bd
       -0.09689798 -0.072655946 -0.14683172 -0.11692146
000050 2c 7b 25 3f 91 5d c0 bf bd af ee bd 1a a9 cc be
       0.6464107 -1.5028554 -0.11654613 -0.39972764
000060 28 fc b1 bb 52 89 bd bc 9a 1f 2f 3e ce 9f 32 bd
       -0.0054316707 -0.023136768 0.17101899 -0.043609433
000070 64 d0 cb be dc 98 ef 3e 07 5c db 3e 34 ec 30 be
       -0.39807427 0.4679631 0.4284365 -0.17277604
000080 10 f0 67 be 8e df 2d bf f9 de cd 3e 05 18 de be
       -0.2265017 -0.6791924 0.40209177 -0.433777
000090 93 7d a3 3d 1c 67 29 3f 72 d1 dc be d7 18 03 be
       0.07982936 0.6617296 -0.43128544 -0.12802444
0000a0 01 f0 d1 3d ce 84 33 3f 86 1d 91 be c0 a5 20 bf
       0.10250855 0.7012452 -0.28342837 -0.62752914
0000b0 31 f6 c4 be 72 92 d7 3e 2c 55 18 bf ac 27 24 3d
       -0.3846908 0.42103916 -0.5950496 0.040076897
0000c0 45 41 be bd e0 14 a2 bd 31 57 d2 be cc c5 ba 3d
       -0.09289793 -0.07914138 -0.41082147 0.09119758
0000d0 39 db 29 be 5c 09 8a be 8f c2 9b be ed f0 3c bc
       -0.16587533 -0.26960266 -0.30421874 -0.011532051
0000e0 38 92 a4 be a7 76 9d be b0 78 b9 bd 37 e5 de bd
       -0.32142806 -0.30754587 -0.090562224 -0.10883563
0000f0 5f f9 ea ba cc d1 86 3f 93 ce b7 be 08 a8 be bd
       -0.0017927102 1.0532775 -0.3589979 -0.09309393
000100 07 f9 9f 3d 6f ad 25 bf 86 ab 94 be be a8 c9 3c
       0.0781117 -0.64717764 -0.29037112 0.024616595
000110 d6 16 69 bc ba 4a 8c 3e cd 07 9d be f4 79 54 be
       -0.014226636 0.27400762 -0.30670014 -0.20749646
000120 fe 78 06 3f 71 11 ce be 99 38 b8 bd 1e 82 12 be
       0.5252837 -0.40247682 -0.0899517 -0.14307448
000130 9e 8b bc be 0d bb 62 bf c4 82 94 be 36 08 a0 3e
       -0.3682527 -0.88566667 -0.29006016 0.31256264
000140 7b d4 a7 3e bc 0f e8 bd ca b6 1e 3f d7 73 ec 3c
       0.32779297 -0.11331126 0.61997664 0.02886383
000150 2c 91 40 be 40 b2 ba 3e e7 8b 01 bf ea 07 69 3d
       -0.18805379 0.3646412 -0.506041 0.056892313
000160 a7 8a e7 3d a4 40 58 bd 72 0b aa be bc 41 6b 3d
       0.11305743 -0.05279602 -0.33211857 0.057435736
000170 76 fe 07 3f c5 2a a5 be c1 65 41 bf 3f f9 8d 3e
       0.5312265 -0.32259193 -0.7554589 0.27729222
000180 2f bf cd 3e 38 b7 da 3e 74 15 ab 3e 69 f1 86 bd
       0.40184924 0.4271791 0.33414805 -0.06589014
000190 16 4b 99 bf 12 2c 97 3e a5 fd a8 be d0 5b 04 bf
       -1.197604 0.2952581 -0.33006015 -0.51702595
0001a0 1f 78 e5 3d 14 22 61 bf 55 17 62 bd 61 a6 d2 3e
       0.11204552 -0.87942624 -0.055198032 0.41142562
0001b0 54 87 e7 3d 0a cd fb be 4f 06 a8 bd 58 20 c2 bd
       0.11305109 -0.4917987 -0.08204328 -0.09478825
0001c0 db 63 6a 3f 8a dd ce 3e 87 f7 d7 be 74 e9 5c 3d
       0.9155862 0.40403396 -0.42181036 0.053933576
0001d0 43 3f b1 be 83 68 0d bd 80 cb 8d 3c c6 fc ac be
       -0.34618577 -0.0345235 0.01730895 -0.337866
0001e0 fe 9e 81 3e 64 21 e3 3e df 05 6f bf de 6e 2b bd
       0.25316614 0.44361413 -0.93368334 -0.041853778
0001f0 cf 09 86 bd 98 3a b4 3d 5b 3f d3 3d 84 3c d6 3c
       -0.065448396 0.08800238 0.103148185 0.026151903
000200 fe 3b 1c 3f 0d 67 8f bd 11 45 ad bf a9 57 48 bd
       0.6102904 -0.07002077 -1.3536702 -0.048911724
000210 f2 1c 89 be db 5b 6a 3d d7 ba 18 bf 08 c5 d2 be
       -0.26779896 0.057216506 -0.59660095 -0.41165948
000220 52 28 81 3d a7 06 13 3e 29 1c 25 be 54 e9 81 3e
       0.063065186 0.14358006 -0.16124023 0.25373328
000230 c7 c5 f6 bd 63 4b ce 3e d9 81 0d bf fa 1a 27 3f
       -0.12049442 0.4029189 -0.55276257 0.6527554
000240 aa 61 44 bf 11 96 70 bd 95 fd 07 be 1c 5b 93 be
       -0.76711524 -0.058736864 -0.13280328 -0.28780448
000250 82 78 eb 3d 8c 26 0d 3d 37 61 c1 3e 99 2b 14 3e
       0.114975944 0.03446059 0.37769482 0.14469756
000260 0f 13 08 3f 90 29 9e 3e 03 15 35 bf 9a 5e e3 be
       0.5315408 0.30891085 -0.70735186 -0.44408113
000270 5a 2d 41 bf 45 18 82 3e e7 e8 64 3e 00 ee 27 3f
       -0.75459826 0.2540914 0.2235447 0.65597534
000280 96 f7 62 3d 6a bb 29 be cd 47 72 be 72 94 ea 3d
       0.055411898 -0.16575399 -0.23660202 0.11454095
000290 28 a0 53 bf 4b c3 f7 bc 76 8c ef be 82 c3 ef 3d
       -0.82666254 -0.03024449 -0.4678685 0.11707212
0002a0 06 8c 29 be 6b 38 f1 bc 13 8b c3 3d 99 61 96 be
       -0.16557321 -0.029445847 0.09548011 -0.29371336
0002b0 6a 9b b6 bf 21 1c 27 be c7 4f 9a bd 00 f4 0d 3a
       -1.4266179 -0.16319324 -0.075347476 0.0005415082
0002c0 01 a9 e0 be 23 fb 43 bf 37 ca eb 3d 63 46 57 bd
       -0.4387894 -0.7655508 0.11513179 -0.05255736
0002d0 68 98 93 3e 8f cb ec bc 66 db 8c 3e 0c 81 bd 3d
       0.28827214 -0.028905658 0.27511138 0.09253129
0002e0 70 e3 8e be 6d 93 a7 3e 58 b0 82 3d 54 9c 9d be
       -0.27907896 0.32729664 0.06381291 -0.3078333
0002f0 a7 9a 11 3f f1 5e 9a 3e 99 a2 9a bd 65 fd 24 bf
       0.56876606 0.3015056 -0.07550544 -0.6444915
000300 56 bb 2d 3d dd 7e 44 bd 6e 7e 47 be 78 95 d9 be
       0.042414986 -0.04797255 -0.19481823 -0.42496848
000310 8e 84 3e bf 8e 78 a8 bd 4f c7 8c bf 54 b4 2a bd
       -0.7442101 -0.08226119 -1.0998324 -0.04167588
000320 a9 72 bf 3d 20 76 be be 5a 68 de bd e1 17 4b 3e
       0.093480416 -0.37199497 -0.10859747 0.19833328
000330 71 1a 3e bf 59 4b af bd b4 0f 13 3d 6a f6 66 be
       -0.74259096 -0.08559293 0.035903648 -0.22554937
000340 09 cd a3 3d 8b 09 5e bf ac 62 11 3e 67 0f 9a 3e
       0.07998092 -0.8673331 0.14197797 0.30089876
000350 7c 0d 5b bf a4 82 0c 3e fd c2 03 3e 2c e6 94 bd
       -0.8556745 0.1372171 0.12867351 -0.07270464
000360 a3 e9 a7 bf f0 72 80 be 84 7f 94 bf cc a5 a6 be
       -1.3118175 -0.2508769 -1.1601415 -0.32548368
000370 a3 81 4c 3e 67 5c b6 be 4a 86 f9 be c5 38 0e bf
       0.19971327 -0.35617372 -0.48735267 -0.55555373
000380 a6 9c f2 3d b1 f7 62 3e e3 2c ba 3d d3 48 b6 3e
       0.118462846 0.221648 0.09090593 0.35602435
000390 60 01 46 be 41 cf 65 bc 57 10 9e 3d 8e 02 f6 3d
       -0.19336462 -0.014026464 0.0771796 0.12012206
0003a0 e9 68 d5 3e 1b 64 54 be d1 b1 b6 bf 92 0e 24 3d
       0.41681603 -0.20741312 -1.4273015 0.040052958
0003b0 df 33 ce be c8 90 c4 bb e0 f9 39 3d ea c7 77 3d
       -0.4027395 -0.0059987046 0.045404315 0.060493387
0003c0 63 f0 66 bf 78 a6 94 3d 08 f6 6c 3d eb 3a 77 be
       -0.9021055 0.07258314 0.05785182 -0.24143569
0003d0 20 a9 89 be 37 e6 64 bf f0 d0 bd 3e 15 91 59 bf
       -0.26886845 -0.8941378 0.3707347 -0.84987
0003e0 91 14 0c bf a8 e1 cf 3e bd 17 31 be b0 04 94 be
       -0.5471888 0.4060185 -0.17294212 -0.28909826
0003f0 93 56 41 bf 4c 43 10 be 64 12 ab 3d ad bd 79 bd
       -0.75522727 -0.14088172 0.08353117 -0.060971905

linear2.bias f4 [256]
000000 13 66 a7 3e a6 5d 56 3e 92 95 87 3e de 3e c4 be
       0.32695064 0.20934162 0.264813 -0.38329214
000010 98 a5 86 bd e3 20 90 bd 9f 7f 18 3e ad d6 c7 3e
       -0.06574553 -0.07037523 0.14892434 0.39030972
000020 12 14 92 3e 0a b4 54 bc 84 e1 ca 3e bd f2 e3 3d
       0.28530937 -0.012982378 0.3962518 0.11130283
000030 62 46 06 3e f2 57 e2 3e 80 2e ec 3d 0e 4d 26 bd
       0.13112786 0.44207722 0.11532307 -0.04060083
000040 5a b4 8c 3e 28 b9 8c 3e 31 07 f6 3d 4b 57 fa 3e
       0.27481347 0.27485013 0.120130904 0.48894724
000050 32 6d 15 3f 8e e5 06 3e 5c f1 30 3f 63 69 01 be
       0.58369744 0.13173506 0.69118285 -0.12637858
000060 dc 48 d2 3e b4 e5 cc bd 32 14 23 3f 06 2b df bc
       0.41071212 -0.1000475 0.6370269 -0.027242195
000070 90 f4 28 3d 79 c3 7f 3d 90 ed 50 bd 37 dd 22 3e
       0.041248858 0.062442277 -0.051007807 0.159047
000080 93 3d fb 3e 36 04 96 3e 93 f0 32 3f 0c 8b 7e 3b
       0.49070415 0.29300088 0.6989834 0.0038840203
000090 87 c9 ce 3d c2 09 00 3e 16 cc 99 3d fc 26 41 3e
       0.10097032 0.12503722 0.075096294 0.18862528
0000a0 ba 9e 81 3d 48 1a c6 3e e5 a6 88 3e 32 3d fa 3e
       0.06329103 0.38691926 0.2668983 0.48874813
0000b0 a6 a8 60 3e f3 ad c7 3e 3a 92 b7 3e ad b0 9c 3e
       0.21939334 0.389999 0.3585375 0.30603543
0000c0 67 b5 f7 3e 1c 45 7c 3d 99 f8 9d bd 37 49 ee 3d
       0.48380587 0.061589345 -0.07713432 0.116350584
0000d0 d6 18 c8 bb 9e c4 a1 3e 30 f4 c3 3c 9a 55 13 3e
       -0.0061064763 0.3159532 0.023920149 0.14388123
0000e0 00 3c 28 3f 38 0d 08 3f 58 b7 e1 bc 6e cb ad bd
       0.6571655 0.5314517 -0.027553245 -0.08486067
0000f0 e2 6d 72 3e 87 c9 33 3e e8 52 87 bc 33 af f4 3e
       0.2367473 0.17557345 -0.016519025 0.47789916
000100 4c be 28 bd ef 97 0d bd 4b bb 9a bd 4e 2f 35 be
       -0.041197106 -0.034568723 -0.075552545 -0.17693827
000110 cf 15 b1 3e b9 4a 99 3d bd ac 8c 3e ab b3 98 3e
       0.3458695 0.07484955 0.2747554 0.29824576
000120 89 fe d8 3d 3b 37 75 be 08 e2 e3 bd d9 2a c8 be
       0.10595424 -0.2394685 -0.111270964 -0.3909519
000130 7f e7 ae 3e 9f b2 77 3e f1 8b b4 3e db 0a 7c 3c
       0.34160993 0.24189232 0.35263017 0.0153834475
000140 8a e7 3d 3e a7 01 00 3f 1a dc d5 3e 10 d4 61 be
       0.18545356 0.5000252 0.41769487 -0.22053552
000150 5b 10 ed 3d d8 76 93 bd 01 86 9e 3e 2e dc 8a 3e
       0.11575385 -0.07200402 0.30961612 0.2712111
000160 7c a1 97 3d db f6 e6 bd 53 88 68 3d 36 0e ed 3e
       0.074038476 -0.11277553 0.056770634 0.46299905
000170 56 84 35 be af 00 8a 3d 8a 49 20 bd 67 e3 8b bd
       -0.17726263 0.06738412 -0.039132632 -0.06830483
000180 d3 e3 b1 bd eb 5b e4 3d db 63 af bd e6 2d 8c 3e
       -0.08686032 0.111503445 -0.08563968 0.27378768
000190 72 f1 2a 3d 0c a6 d8 3e b7 fc 09 3e 1c 06 15 3d
       0.041734166 0.42314184 0.1347531 0.03638278
0001a0 18 26 b8 3e 42 be c1 3e 14 36 2c 3e 50 e0 3c 3f
       0.35966563 0.37840468 0.16817504 0.73779774
0001b0 85 75 a3 3d 37 56 85 3e c5 66 3c 3e f4 05 87 be
       0.079813994 0.2604234 0.18398578 -0.2637173
0001c0 e6 d2 f4 3e 65 4a 65 ba a7 c8 39 3d 8b fc ef 3e
       0.47817153 -0.00087467424 0.045357373 0.46872362
0001d0 3b 0c b3 3d 5a ac fd 3e 8a d8 a0 bd ca 69 1a 3f
       0.08742567 0.49545556 -0.078538015 0.6031767
0001e0 ca 67 b7 bd 04 1e 61 3e de d5 e4 3d 15 a0 f9 bb
       -0.08955343 0.21984106 0.111736044 -0.00761796
0001f0 36 06 24 3e 70 4b f8 3e d0 b6 0f bd ea 40 91 3d
       0.16017994 0.48495054 -0.035086453 0.070924595
000200 80 42 10 bd 2b fd 36 3d 22 d6 87 bc d2 91 7e 3e
       -0.03521967 0.044675034 -0.016581599 0.24860314
000210 cb f6 87 3e ff 6b 17 3e f7 8b 25 3e 6c 1f ab be
       0.26555476 0.14787291 0.16166674 -0.3342241
000220 66 62 4a 3d 51 fc 82 be eb 5d 97 3b 5e f1 49 3e
       0.049410246 -0.25583127 0.00461935 0.1972098
000230 9b 21 cb bc ac 86 03 be ae 37 0b be bf 32 e3 bd
       -0.024796298 -0.12844342 -0.13595459 -0.110936634
000240 05 85 93 bd 60 6d 92 bc 7f dd c0 bc c2 3b 88 3e
       -0.07203106 -0.01787442 -0.023543118 0.26608092
000250 da e8 e4 3e b9 ff 2f 3c 23 82 bd 3a c1 22 1f 3e
       0.44708902 0.010742121 0.001445834 0.15540601
000260 e6 30 84 bd fb a8 5e 3e 06 e8 0f 3e ae 49 bf 3e
       -0.06454639 0.21744148 0.14053354 0.373609
000270 b7 9d 76 3e 2c f9 18 be fe 16 4c be 0d fb dd bd
       0.24083601 -0.14938802 -0.19930646 -0.108389
000280 84 46 07 bd 59 40 b7 3e 26 08 95 3e 5c 1d f5 3e
       -0.033026233 0.3579128 0.2910778 0.47873962
000290 30 fd 75 bd a6 8c a7 bd 0a 95 ad 3e e4 20 46 3e
       -0.06005591 -0.081811234 0.3390277 0.19348484
0002a0 cc 70 bd 3d e5 0d 2b 3e e7 2f 87 3e 79 11 92 3e
       0.0925003 0.16704519 0.26403734 0.28528956
0002b0 86 dd 1b bd 35 c0 ba 3e 9a f2 fa 3d 62 2f a9 bd
       -0.038053058 0.36474767 0.12253304 -0.08260991
0002c0 7a bf 05 3f 1e c9 d3 3e 24 19 02 3d 31 18 c9 3c
       0.52245295 0.41364378 0.031762257 0.024547668
0002d0 3d b0 54 bd 07 b3 90 be 41 8b b4 3e a4 19 9b 3d
       -0.051925886 -0.28261587 0.35262492 0.0757325
0002e0 59 79 d9 bd 62 83 de 3c a1 96 4e 3e 4b 43 0d 3f
       -0.10618848 0.027162258 0.20174648 0.55180806
0002f0 68 f1 76 be 57 49 ba 3e 37 1c e4 3d 5a df ee 3d
       -0.24115527 0.3638408 0.11138194 0.11663695
000300 6c 09 b2 be 98 eb 04 3d b0 f1 e9 3e c8 c3 03 3f
       -0.34772813 0.032451242 0.45692205 0.51470613
000310 8a 6a 6a bd 92 e2 0d 3f c7 55 02 be 7a d6 90 3e
       -0.05723051 0.55423844 -0.12728034 0.28288633
000320 31 d9 3a bd 4b 5a 8c be 7e 23 d9 3d 59 28 79 3e
       -0.045617286 -0.27412638 0.10602473 0.24331798
000330 43 09 8d 3e f6 8d 37 bd 4d b9 34 bd 87 fd 90 bd
       0.2754613 -0.04481312 -0.04412203 -0.070796065
000340 31 f2 15 be b0 9c 1a 3f 79 08 a9 3d 47 43 10 3e
       -0.1464317 0.60395336 0.08253569 0.14088164
000350 e3 1a 9b 3d 93 c6 ca 3e e2 b9 80 3e b2 ad b1 bd
       0.075734876 0.39604625 0.25141817 -0.08675708
000360 ec 8e b0 3e f1 43 42 3e 3f bc 55 3e 39 19 58 3e
       0.3448404 0.1897123 0.20872591 0.21103372
000370 aa 29 ba 3e f9 f4 29 3d 48 2b 5f 3e f6 f2 14 3e
       0.36359912 0.04149339 0.21793854 0.14545807
000380 47 18 01 3f c1 ca ef 3e ae 0b 14 be e1 68 ff 3e
       0.5042767 0.46834376 -0.1445758 0.49884704
000390 27 72 c9 be 18 9e 4f 3e 02 c8 50 bd 24 c1 32 be
       -0.39344904 0.20275152 -0.050971992 -0.1745649
0003a0 81 71 0c 3c 2e 14 0e 3e 18 24 5f 3e fd ed 16 3e
       0.008571983 0.13874885 0.21791112 0.14739223
0003b0 54 24 80 3f b6 ac 77 3e e8 81 6b bc 0f 5f 7a 3e
       1.0011086 0.24186978 -0.014374234 0.24450324
0003c0 7f c1 81 3e 27 90 bb 3e 8d 79 da 3e 13 b4 66 3e
       0.25342938 0.36633417 0.4267086 0.2252963
0003d0 36 a4 0d 3f c8 c2 56 3d 69 27 9b be 98 c5 eb bd
       0.5532869 0.05243185 -0.30303505 -0.115122974
0003e0 2d 31 57 be 08 43 95 3e 8e c7 7c 3e 94 6b d6 3c
       -0.21014853 0.29152703 0.24685499 0.026174344
0003f0 18 44 82 bd 93 d0 de 3e 44 f2 f9 3d e5 ed df bd
       -0.06360644 0.43518505 0.122044116 -0.10934047

mean_linear.weight f4 [3, 256]
000000 59 f5 21 3e d2 43 eb be e4 f8 86 bc 4b 9b ed bd
       0.15816249 -0.4595018 -0.016476102 -0.116018854
000010 83 88 84 b9 62 f5 3a bf e4 15 17 3f f4 e8 16 3b
       -0.0002527871 -0.73030674 0.5901778 0.0023027034
000020 b6 78 4b 3e bf 3a 6d 3e 3b 8a 9b 3e 07 d6 a4 bd
       0.19870266 0.23166941 0.303789 -0.08048635
000030 f7 4e c7 bd f2 f8 94 bf 9f 2c 65 be d2 13 51 bf
       -0.09731858 -1.1638472 -0.22380303 -0.8167087
000040 1c 18 64 be 80 ea 4f ba 6a f3 93 3e 37 72 96 bd
       -0.22274822 -0.00079313666 0.28896648 -0.073460035
000050 09 99 ae 3b 7a 8b c2 bd 10 e9 8b bd 71 0a bc 3d
       0.005328302 -0.09499259 -0.068315625 0.09181679
000060 83 73 38 be 97 c5 70 bd a4 c5 0c bf 9f 1a 94 be
       -0.18012814 -0.058782186 -0.54989076 -0.2892656
000070 e1 87 a5 3e 1e 67 e6 3d 60 23 f6 bd 30 f9 47 3e
       0.3233023 0.11250137 -0.12018466 0.19528651
000080 56 15 1d 3e 33 f7 dd be 02 23 5e 3e b1 db 87 3e
       0.1534017 -0.4335266 0.21693042 0.265348
000090 0f c1 99 bc 08 48 58 bf 0d 98 01 3e d6 cf 82 bd
       -0.018768815 -0.8448491 0.12655659 -0.06387298
0000a0 8a 2e 87 be 85 f8 c3 bd 93 79 3d 3f b1 95 24 bd
       -0.26402694 -0.09568886 0.7401363 -0.04018182
0000b0 03 7d 6e be 8e 17 81 3e 11 54 9f be ba fd 71 be
       -0.23289876 0.25213283 -0.31118825 -0.23631945
0000c0 f6 8f 82 bd 1b 9b 2e 3f df db 46 3e 65 9b 45 3d
       -0.063751146 0.6820542 0.19419812 0.0482439
0000d0 3c 1e 24 bf 1f 39 06 3e 8f aa e6 be b2 af b6 3c
       -0.64108634 0.13107727 -0.45052 0.022300575
0000e0 5b 73 8e 3e c5 c6 b9 3e 8b 70 e4 3d 98 28 19 3e
       0.27822384 0.36284462 0.11154278 0.14956892
0000f0 4b fe f0 3a 26 b1 06 bf 4b fb 0e 3f 7a 6b 0d bf
       0.0018386332 -0.5261406 0.5585219 -0.5524212
000100 87 71 1e 3e 70 ac 1d 3f 3b 6e 94 3d 1c ba b5 3e
       0.15472995 0.61591244 0.07247587 0.35493553
000110 20 f3 90 3f 9b 96 9b be fb fb 3d be 19 ac 71 bd
       1.1324196 -0.3038834 -0.18553154 -0.059002016
000120 08 47 c1 3e fe d8 36 3e 47 22 ba be 18 42 d2 3e
       0.37749505 0.17856213 -0.36354277 0.4106605
000130 03 d8 3a be 57 30 0a 3f 84 15 8e ba 71 72 f8 bd
       -0.18246464 0.5398001 -0.0010840152 -0.12131203
000140 e0 45 ab 3d b1 59 d1 be 07 6f 80 be 65 aa a6 be
       0.08362937 -0.40888742 -0.25084707 -0.32551876
000150 66 4a 12 be ea 55 e6 3c da e6 22 3e 1a d0 db 3d
       -0.14286193 0.028117139 0.15908375 0.107330516
000160 ac 28 49 3f 92 b3 09 bf 18 ae 51 be d2 ee db 3e
       0.78577685 -0.5378963 -0.20476568 0.42955643
000170 b6 eb 02 3f 0e 14 80 be 9e c1 5c be 0d b6 99 be
       0.51140916 -0.250153 -0.21558234 -0.30021706
000180 4c 00 85 3b 35 cf 51 3e 7e ca 99 be 05 cb d1 be
       0.0040588733 0.204892 -0.30037302 -0.40975204
000190 8b 63 07 bf 23 8d d9 3e dd a3 8a be 39 b4 d0 3d
       -0.52886266 0.4249049 -0.27078143 0.10190625
0001a0 6d a4 13 bf 6a 59 5e be ef b6 80 3f 9d 1b db be
       -0.5767277 -0.21713796 1.0055827 -0.42794505
0001b0 8d 3a cc bd b4 89 15 be a9 e6 45 3d 1f 64 32 3d
       -0.09972105 -0.14603311 0.048315678 0.043552514
0001c0 bd bc fd 3e 82 6c e9 3e cb be 8d 3d a3 f0 bb bb
       0.49558058 0.45590597 0.069211565 -0.0057354732
0001d0 4f c1 a0 3e 33 62 38 3f cb 38 f3 bc 68 f7 4e be
       0.31397483 0.7202484 -0.029690167 -0.20211565
0001e0 41 b3 ee bd 76 5f 6e be 5e 0a b0 be 65 4e 32 3e
       -0.11655284 -0.23278603 -0.3438291 0.17412718
0001f0 15 cb 85 3d e6 98 03 bf 3d a3 de bd 41 77 f8 be
       0.065328754 -0.5140518 -0.10870979 -0.48528484
000200 60 5b fc 3e bb fe e1 3e 9d 08 31 bd e8 ac bb be
       0.49288464 0.44139656 -0.043221105 -0.36655354
000210 17 05 c5 3e 1b 5e 27 bf d2 b9 f3 3e 2c 99 83 3b
       0.38480446 -0.6537797 0.47602707 0.0040160622
000220 8a 42 16 3e c0 cb ae be 86 44 a7 3d 16 6b 2b be
       0.1467382 -0.34139824 0.08167367 -0.16740069
000230 57 6e 37 3e f8 5c be 3e 7c 59 f2 be eb 41 96 bf
       0.17913185 0.37180305 -0.47333896 -1.1738867
000240 ec c1 59 3e de 31 c9 3e c1 ea 28 3e b2 e3 01 bd
       0.21265382 0.39295858 0.16495802 -0.031711288
000250 67 84 8d be 0f bd c3 bd ba d3 69 bd ad 10 3e 3f
       -0.27640077 -0.095575444 -0.057086684 0.74244195
000260 b7 76 4c bc 2e 73 33 be 55 53 81 3e 66 76 7a be
       -0.012479476 -0.17524406 0.2525889 -0.24459228
000270 f4 0b 1f 3f af 98 52 3e 8e 8f 8c 3e fd 71 61 be
       0.62127614 0.20566057 0.27453274 -0.2201614
000280 ab cf f8 bd 8f 20 f3 be b1 2c 9a 3e 20 ea e8 bc
       -0.121489845 -0.47485778 0.30112222 -0.028431952
000290 ac 87 a6 3e 1d 5f 2e bc 5e 8e d7 bd 60 1c cb 3e
       0.32525384 -0.010642794 -0.10525201 0.39670086
0002a0 69 c2 ec 3e c7 26 de 3b ec af c4 3e 9c f0 45 3e
       0.46242073 0.006779525 0.38415468 0.19330066
0002b0 eb 41 ec bd ca d6 27 bd 8a 9c 4a bc 55 2b 31 bd
       -0.1153601 -0.040976323 -0.012366423 -0.043254215
0002c0 f0 62 ae 3d a6 39 c5 3e 99 70 2f bf ec bf ec bc
       0.085149646 0.38520545 -0.68531185 -0.02890011
0002d0 0d 0b 28 be 19 37 f4 bc 3f e6 98 be 13 48 c0 be
       -0.16410466 -0.029811429 -0.29863164 -0.37554988
0002e0 60 2e 40 bf 72 7c b6 bc c0 cf 96 be 4c c8 93 3e
       -0.7507076 -0.022276137 -0.29455376 0.28863752
0002f0 a7 1d bd be 6d e3 0f 3f d6 c1 1d 3e 01 df b0 3f
       -0.36936685 0.562064 0.15405974 1.3818055
000300 14 ec 2a 3e 98 8d 12 3f 36 7d a8 bd d0 ff 70 be
       0.16691619 0.57247305 -0.08227007 -0.23535085
000310 a5 1f 33 3f 3a 95 1e 3e fa 33 7b 3e 57 45 bf 3e
       0.6997016 0.15486613 0.24531546 0.3735759
000320 0f 3e 86 be 1a 4c 80 bc 58 ed f7 be 57 54 6f 3b
       -0.26219222 -0.015661288 -0.48423266 0.0036518776
000330 a6 a2 00 bf 56 36 de 3e 9c 96 71 bc 08 a9 9e be
       -0.5024818 0.4340083 -0.014745381 -0.30988336
000340 1c 5f 0a 3f 88 fc e9 3e de 4d b8 3d 83 07 23 bf
       0.54051375 0.4570048 0.08999227 -0.63683337
000350 79 b3 e3 3e f9 48 ac 3d f6 d2 81 3e 3c b2 f6 be
       0.44472864 0.08412356 0.25356263 -0.48182857
000360 07 db 0e be 8f 77 99 3e e0 bb 8e 3d 18 08 6e bf
       -0.1395074 0.29974028 0.06969428 -0.929811
000370 a8 b9 c2 be c5 2f 21 3f ad 57 27 bf c8 55 77 3e
       -0.3803227 0.62963516 -0.6536816 0.24153817
000380 fd 5e b4 bd 2d 3f b8 3e 3a bb 60 bc 60 99 4c 3e
       -0.0880718 0.359857 -0.013716513 0.19980383
000390 e4 0a 06 be b8 91 99 3e a0 f5 42 bf f9 be 38 3f
       -0.13090092 0.29993987 -0.76156044 0.721664
0003a0 a1 d6 25 3f 68 3d 05 bd 55 83 d6 be 59 30 fa bc
       0.6478062 -0.032529265 -0.41897073 -0.030540632
0003b0 1d 3b 11 bf d2 00 62 3f 0d 99 3c be dc 01 de 3d
       -0.56730825 0.882825 -0.18417759 0.108401984
0003c0 ea ba 96 bd fd 2b c3 bd 20 51 84 be c5 79 b8 bd
       -0.0735987 -0.095298745 -0.25843143 -0.09007601
0003d0 56 79 5d 3d 7b d6 22 3d e0 95 13 3f 48 8c f8 bc
       0.054070793 0.039755326 0.57650566 -0.030340329
0003e0 c2 1d f7 3e 20 05 3c 3e 23 a7 a0 3e 6a d4 6c bf
       0.4826489 0.1836133 0.31377515 -0.9251162
0003f0 b4 6d 20 3d 2a f7 30 3f 79 54 22 be 24 17 d0 bd
       0.03916712 0.6912714 -0.15852536 -0.10160664

mean_linear.bias f4 [3]
000000 d6 33 e7 3d e8 8b 2f 3e f8 12 f7 bd
       0.11289184 0.17143214 -0.12064165

log_std_linear.weight f4 [3, 256]
000000 e9 61 17 bd 29 64 18 3e b6 aa bd 3c 20 a0 b6 3d
       -0.03695861 0.14881958 0.02315269 0.0891726
000010 86 45 b0 bd 75 f4 2d 3e 06 4b 91 bd 4e ef 38 3b
       -0.086070105 0.16987784 -0.07094388 0.0028218809
000020 9c e8 0d 3b fe 24 2b 3d 3f b6 0e bd a7 c7 b3 bc
       0.0021653539 0.041783325 -0.034841772 -0.021945788
000030 af c2 89 bd c8 05 d9 3e 48 1a 2b 3d 9d 4c ba 3e
       -0.06726586 0.42387223 0.04177311 0.36386576
000040 fc 96 6e 3c bb 73 1c bd fc f0 36 3d 1c 40 39 3c
       0.014562365 -0.038196307 0.044663414 0.011306789
000050 69 09 fe bc b3 72 1b 3d df 84 db bc 85 06 77 3d
       -0.031010346 0.037951183 -0.026796756 0.060308952
000060 31 d4 bf 3d 28 50 d9 3d 8e 43 dd 3d 07 b6 79 3e
       0.09366644 0.10610992 0.10803901 0.24385844
000070 fb 0d 48 3d 8d 6a ed 3b 82 8c c5 3c 97 4b b8 bc
       0.048841458 0.007245368 0.02411485 -0.022496982
000080 f3 75 38 bd 47 de a7 3d 41 15 2f bd a6 28 1b 3e
       -0.04503436 0.08196693 -0.04274488 0.15152225
000090 d8 4b df 3b f7 ee 18 3e 6f dc de 3d f2 61 b5 3c
       0.006814461 0.14934908 0.10881888 0.02214143
0000a0 ed 56 1d 3e de 2a 5d bb bb 9a 12 3e b9 11 55 bc
       0.15365191 -0.0033747475 0.14316837 -0.013004714
0000b0 1c cc 63 3d a6 ab 9d bd e8 ab 86 3d 0a 25 91 3e
       0.055614576 -0.07698755 0.06575757 0.2834857
0000c0 99 f1 60 3d b0 d3 60 bc 4b b1 74 3b 2f 49 e5 bd
       0.054917905 -0.013722345 0.003733712 -0.11195599
0000d0 8d b3 1c 3e 0f 85 0a bc 2f 93 b2 3d b2 a2 6a 3e
       0.15302868 -0.008454575 0.08719479 0.22913626
0000e0 72 c4 c0 bd 19 fb a9 bd c6 30 a3 3c 1b a9 2d 3e
       -0.09412469 -0.08299846 0.019920718 0.1695904
0000f0 67 8d 42 bd 6b 06 5c 3d b0 6d 84 bc 01 1d a8 3d
       -0.047498133 0.05371706 -0.016165584 0.08208657
000100 ee 46 ed bc 72 71 74 3d 62 c7 63 3e 77 71 2d bd
       -0.028964486 0.059678502 0.22244027 -0.042344537
000110 02 13 ae bc af 93 09 be d5 e4 d7 3c bf 66 e2 bc
       -0.021249298 -0.13435243 0.026354233 -0.027636884
000120 71 10 ce bd e9 5a 3e bc d1 5a 13 bb e6 ef a5 bd
       -0.1006173 -0.011618354 -0.002248455 -0.081023976
000130 64 89 26 3d 50 0e 9d bc ae 2e 05 3d dc b5 87 3d
       0.04065837 -0.019171864 0.03251522 0.06626484
000140 91 db 03 bd 34 41 2d 3d ef b2 da 3c 3a c6 f6 3d
       -0.032191817 0.04229851 0.02669665 0.120495275
000150 a9 57 a4 3e 10 dc a4 bd 91 69 ba bc 9c a2 48 bd
       0.3209813 -0.08049786 -0.022755416 -0.0489832
000160 fa e8 0a be 2e 3d 6b 3e d9 9d 9e 3c da e6 09 3e
       -0.13565436 0.22972557 0.019362377 0.13466969
000170 e3 6c 64 bd 9e 96 f7 3b 56 44 8a 3e f5 86 af bd
       -0.055767905 0.0075557968 0.2700526 -0.08570663
000180 7f 41 45 3d b0 56 46 bd 5c 91 0d 3e ac 36 03 3e
       0.048158165 -0.048422515 0.13824981 0.12813824
000190 01 59 9f 3d 6e 2e d5 bd ba ec 8a 3d e8 0e ec bd
       0.07780648 -0.104092464 0.06783433 -0.11526281
0001a0 9f 16 05 3f 51 73 b9 ba 7e 7d b8 bc 54 a7 0a 3d
       0.5198764 -0.0014148747 -0.022520777 0.033850983
0001b0 8e cd 8b 3e 3f 6b 9e 3d 4f 01 cf bb e4 d7 ea 3d
       0.27305263 0.07735299 -0.0063172947 0.11466959
0001c0 37 9f 58 bd cb 41 a0 3d 1f fe bb 3b 43 f5 92 3c
       -0.052886214 0.07825049 0.0057370807 0.017939216
0001d0 64 fa ae bd d9 57 66 3e a1 e2 8b bd 0d 41 e6 3d
       -0.08543852 0.22494449 -0.068303354 0.11242876
0001e0 85 66 29 3e 6c 83 23 3d 9b fb 1c bd 09 6b b3 bb
       0.16543014 0.039920256 -0.038325887 -0.005475406
0001f0 ad 8b 53 bd ca 4b f3 3d 6e 0d 21 3c 48 9e 3b 3e
       -0.051646877 0.1187969 0.009829862 0.18322098
000200 dc 41 22 3e e9 0f b5 3c 0f 45 49 3d 18 09 f1 3c
       0.15845436 0.022102313 0.049138125 0.029423282
000210 29 da 83 bd 00 c9 5d 3e 24 66 f3 bd b0 13 d2 ba
       -0.06438095 0.21658707 -0.11884716 -0.0016027596
000220 b9 47 a5 3c bd fd 20 3e 7c 0f 95 3e 7e 48 08 3d
       0.020175802 0.15721793 0.29113376 0.03327226
000230 01 d0 46 3d 3d 90 a2 3e bb 08 a2 bc 18 bd 96 3e
       0.04853821 0.3175067 -0.019779554 0.29441142
000240 aa 8f 9d 3d 25 da 32 3e f9 83 d1 bc 0a d9 0f bb
       0.07693417 0.17466028 -0.025575625 -0.0021949434
000250 39 2d 19 3d b7 8d 8a bc ec 90 13 3e 08 32 cf 3d
       0.037396643 -0.016913278 0.14410752 0.101169646
000260 ee 22 fd 3d e2 6d cd 3c 7a d3 a2 3d 40 e7 56 3d
       0.12360178 0.02507681 0.07950492 0.05246663
000270 9f dc a4 bb d2 3e 3e ba cf 0e 0e 3e 39 61 29 3d
       -0.005031183 -0.0007257286 0.13872837 0.041352484
000280 08 97 a7 3d 70 c9 86 3d 85 00 48 bd a8 cd 53 3c
       0.08183104 0.0658139 -0.04882862 0.01292745
000290 56 23 c4 bc c3 bb a9 b5 ed 40 f9 ba ee 83 49 3e
       -0.02394263 -1.2646127e-06 -0.0019016542 0.19679233
0002a0 f9 85 c2 bd 6c ad 57 3d 44 d2 90 3d d9 59 30 3c
       -0.094982095 0.052655622 0.07071355 0.010763609
0002b0 e1 12 1c 3d 76 4c 1c 3d 5b 00 8a 3b 0e 0e 16 3b
       0.03810394 0.038158856 0.004211468 0.002289656
0002c0 b4 c3 30 3c 13 35 b3 bc bc 62 21 3d 9f 76 e1 bc
       0.010788847 -0.021875894 0.0394008 -0.027522383
0002d0 f7 f9 17 3d 04 9a f3 3c 0a fd dc 3d b3 1e 04 bc
       0.03710362 0.029736526 0.10790451 -0.00806396
0002e0 79 f6 1b 3d 0b 27 15 3d bb bf d3 3c d6 d8 8e bd
       0.03807685 0.036414187 0.02584826 -0.06974952
0002f0 85 02 83 3d 8c 02 ee bd 72 07 26 bd 46 fc cb 3c
       0.06396965 -0.116215795 -0.040534444 0.024900567
000300 d6 81 6b 3d cf 8a 6e 3d 58 4e 78 3d 02 36 47 bb
       0.057496868 0.058237847 0.06062159 -0.0030397181
000310 c9 ef 11 3e eb e1 ac bc 44 cc d8 bc 99 8f 41 bd
       0.14251627 -0.02110382 -0.026464589 -0.047256086
000320 05 5d bc 3d 31 3f 31 3d 54 95 c2 3d 96 03 16 3c
       0.091974296 0.043273155 0.09501138 0.009156128
000330 9c f5 00 3e 5f d7 55 3d fb c4 a1 bc f2 4d eb 3d
       0.12593693 0.052207347 -0.019747248 0.11489476
000340 3f 7d 24 3e 73 14 e8 bd 16 00 57 3c c0 21 fe 3d
       0.16063403 -0.113320254 0.013122579 0.12408781
000350 cd 26 fc 3c 3b 8f 9b 3c 94 d0 10 3d 1d 1c 1c 3e
       0.03078022 0.018989196 0.035355166 0.152451
000360 d5 3b d9 3d 0b fc 50 3d 68 86 08 bc 27 1e 7e 3e
       0.10607115 0.051021617 -0.008332826 0.2481619
000370 ba 7c 63 3d 12 19 00 3d 74 85 d3 3b 76 c0 94 3d
       0.05553887 0.03127391 0.006455118 0.072632715
000380 f8 87 68 3c e1 cb bf bd 61 4e 05 3e 65 9a b8 3b
       0.014192574 -0.09365059 0.1301818 0.0056336396
000390 82 aa 25 bb 9e f7 03 bd 0c b0 03 3e c9 94 70 3d
       -0.0025278633 -0.032218568 0.12860125 0.058735643
0003a0 22 63 55 bd a3 99 31 3d f7 94 00 bd f6 7e b9 3c
       -0.052096494 0.04335941 -0.031392064 0.022643548
0003b0 de ac 14 3e 62 b4 e3 bb ba f9 d0 3d 35 ec 3e bd
       0.14519069 -0.0069489935 0.102038816 -0.046611983
0003c0 8e d3 8a bc f4 46 9e 3e a5 d7 e0 3c 9d bb ed 3c
       -0.01694658 0.30913508 0.027446577 0.029020125
0003d0 49 3d 03 bd 4b de 58 3e 66 1a fe 3d b4 32 a5 3c
       -0.032040868 0.21178548 0.12407379 0.020165779
0003e0 64 bb 27 3e bf 74 31 bd 88 2f f3 bc b3 05 5c 3e
       0.16380078 -0.04332423 -0.02968575 0.21486549
0003f0 92 ab da 3c d3 db ef bd c9 5a 31 3b 8f 01 c8 3d
       0.02669314 -0.1171185 0.0027062169 0.09765922

log_std_linear.bias f4 [3]
000000 e9 76 7b bf 7f 7f 42 bf b8 f7 83 bf
       -0.9822832 -0.75975794 -1.0309973
