hydrone_aerial_underwater_ddpg/scripts/Models/sac_stage_1_air3D_tanh_3layers/4760_policy_net.pth (torch_old, 297299 bytes, 8 tensors)

linear1.weight f4 [256, 25]
0.18831801 0.03408564 -0.13586651 0.18382016 0.00015355073 -0.122768246 0.029173452 0.051662914
-0.23089899 -0.026209168 0.078021474 0.13869052 0.2964697 0.12937169 -0.06593036 -0.14076796
-0.13209295 -0.12723754 0.11245144 0.29034162 -0.14193314 0.14095718 1.1137357 0.27814946
-0.32185584 -0.10873572 -0.236104 0.019910116 -0.072063 0.046900548 0.11489039 0.038779676
-0.17401005 -0.1220329 -0.14699312 0.2815544 0.28244376 0.65264046 0.13262185 -0.21340035
-0.31857923 -0.19778772 -0.2648932 0.14736846 0.14672905 0.11038045 -0.30108926 0.04381892
-1.8897163 0.012878139 0.08558533 0.17377505 0.23135792 0.36319828 0.111094095 0.08291707
0.2909714 0.3045709 0.10457967 -0.29102492 -0.24380936 -0.017745195 -0.010222875 0.092819944
-0.14568889 -0.28946823 -0.61373603 -0.30690694 -0.07856796 -0.19547912 0.61385447 0.013599492
-0.27685046 0.90668577 -0.95371544 0.0078419 0.20365429 0.34586564 0.37175637 0.03533741
0.2900633 0.06700057 0.14419279 0.11097069 0.061047405 -0.038644765 -0.18842979 -0.33110398
-0.16187513 0.29612753 0.07842116 0.22016856 -0.16587298 -0.3994062 -0.45770368 -0.30047533
-0.035694346 -0.053384908 -1.1977283 -0.0011734088 0.47325575 0.37903517 0.47421098 0.09631752
-0.35886863 -0.1795856 -0.124427885 -0.13243651 -0.3562086 -0.4179076 -0.45847428 -0.13566472
-0.02689001 -0.2589642 -0.17650418 -0.21197976 -0.14098763 0.4027333 0.05369418 0.3150775
0.1504453 -0.16095823 0.11847321 -1.2413763 0.8592356 0.02185606 0.2951549 0.12269667
0.21579109 0.4698189 0.51828694 0.10656553 0.07436884 -0.13512841 -0.03746136 0.047273684
0.0100419065 -0.15737793 -0.33466634 -0.07907671 -0.39259216 -0.25888368 -0.18747872 -0.17151164
-0.35296583 0.050145328 0.14981729 -0.02711483 0.88925785 0.84429055 0.05474219 0.26996022
-0.054969784 0.05873643 0.0944771 0.03501397 0.16878884 0.056396414 0.17108974 0.07476912
-0.034721978 -0.15241961 -0.011361465 -0.016396139 -0.20813678 -0.15144953 -0.3266487 -0.2393879
-0.31308705 -0.05589113 0.10157464 0.02242728 -0.21399958 2.4970589 0.61683935 0.23743753
0.18842615 0.23033273 -0.033231035 -0.15773337 -0.004436548 0.14512938 0.056471236 -0.014777242
-0.18768239 -0.32355407 -0.39713562 -0.22602674 -0.01704975 -0.38126677 -0.22011636 -0.022838453
0.0148803415 0.034807708 0.05132792 0.2925224 0.058519214 -0.00036929813 -4.585213 0.554016
0.010383674 -0.12066842 -0.021547444 -0.13026758 0.10921266 -0.33258498 -0.14674103 -0.4316508
-0.52332574 -0.5264294 -0.3975349 -0.017943101 0.19875091 0.26943973 0.25672635 0.18651472
0.30218527 0.11378267 0.17076449 0.3047019 -0.20117682 0.2719522 0.017206967 -2.0462687
0.9393905 -0.31896526 -0.18164088 -0.17244871 0.081666164 0.29834813 0.33040127 0.10920318
-0.23502454 -0.3990889 -0.2628233 -0.41347748 -0.21513121 0.074793406 0.09319307 0.005805044
0.061075248 -0.069915496 -0.25669864 0.15360552 0.0073588328 0.14409812 -0.1451702 0.13030373
0.2386287 -0.62552655 0.12781774 0.16040045 0.17006467 0.035024032 0.020292362 0.063559584
00000000: 70d6 403e 629d 0b3d 9720 0bbe 5a3b 3c3e
00000010: 7602 2139 eb6d fbbd 2afd ee3c 7e9c 533d
00000020: c970 6cbe 9cb4 d6bc b9c9 9f3d e304 0e3e
00000030: e0ca 973e 037a 043e 7f06 87bd 7a25 10be
00000040: 6043 07be 8f4a 02be f14c e63d a8a7 943e
00000050: ec56 11be 1457 103e e48e 8e3f 9b69 8e3e
00000060: 4aca a4be d5b0 debd 3fc5 71be 8a1a a33c
00000070: c495 93bd ca1a 403d a74b eb3d 70d7 1e3d
00000080: b12f 32be 63ec f9bd 5d85 16be e627 903e
00000090: 789c 903e 7213 273f 06ce 073e 9f85 5abe
000000a0: d11c a3be dd88 4abe 15a0 87be c2e7 163e
000000b0: 2440 163e 250f e23d 5f28 9abe 787b 333d
000000c0: 39e2 f1bf d4fe 523c 5d47 af3d 16f2 313e
000000d0: 17e9 6c3e 20f5 b93e 4d85 e33d 6dd0 a93d
000000e0: 34fa 943e b8f0 9b3e de2d d63d 3801 95be
000000f0: 29a9 79be 5f5e 91bc d87d 27bc 6218 be3d
00000100: 782f 15be 2e35 94be ce1d 1dbf e822 9dbe
00000110: 3de8 a0bd ae2b 48be 9125 1d3f 67d0 5e3c
00000120: 58bf 8dbe 8f1c 683f b226 74bf 507b 003c
00000130: c08a 503e 4d15 b13e da56 be3e f6bd 103d
00000140: 2d83 943e 9837 893d 46a7 133e 9a44 e33d
00000150: d80c 7a3d f949 1ebd bdf3 40be 7686 a9be
00000160: 98c2 25be 079e 973e 469b a03d de73 613e
00000170: 9bda 29be f87e ccbe 2358 eabe e7d7 99be
00000180: 3c34 12bd 22aa 5abd 294f 99bf 11cd 99ba
00000190: 944e f23e e610 c23e c8cb f23e 1f42 c53d
000001a0: a1bd b7be 4ae5 37be 0cd4 febd 709d 07be
000001b0: f960 b6be fcf7 d5be 24bd eabe b1eb 0abe
000001c0: 7048 dcbc f596 84be 83bd 34be 3911 59be
000001d0: 105f 10be 0f33 ce3e 6eee 5b3d d751 a13e
000001e0: 550e 1a3e 3cd2 24be 15a2 f23d 6be5 9ebf
000001f0: ddf6 5b3f 7b0b b33c 8b1e 973e 6448 fb3d
00000200: 57f8 5c3e 1a8c f03e 74ae 043f 073f da3d
00000210: b14e 983d 1a5f 0abe 1571 19bd 0da2 413d
00000220: cf86 243c ae27 21be 6359 abbe f8f2 a1bd
00000230: d701 c9be 678c 84be 6cfa 3fbe bfa0 2fbe
00000240: f0b7 b4be 3065 4d3d b469 193e ec1f debc
00000250: 67a6 633f 6d23 583f 5939 603d 3a38 8a3e
00000260: ff27 61bd 9c95 703d 367d c13d cf6a 0f3d
00000270: fbd6 2c3e edff 663d 2632 2f3e 8d20 993d
00000280: a238 0ebd e313 1cbe 7025 3abc 3251 86bc
00000290: cf21 55be 9615 1bbe 803e a7be 1a22 75be
000002a0: f24c a0be 19ee 64bd 5d06 d03d 6ab9 b73c
000002b0: b522 5bbe d0cf 1f40 2fe9 1d3f d322 733e
000002c0: c9f2 403e 58dc 6b3e 441d 08bd db84 21be
000002d0: 7660 91bb cc9c 143e 624e 673d 3f1c 72bc
000002e0: d02f 40be e1a8 a5be 5c55 cbbe 8e73 67be
000002f0: ebab 8bbc 6635 c3be 2f66 61be b517 bbbc
00000300: adcc 733c 8792 0e3d 3a3d 523d 7fc5 953e
00000310: d8b1 6f3d 5b9e c1b9 11ba 92c0 fed3 0d3f
00000320: 4920 2a3c 0121 f7bd 4484 b0bc dd64 05be
00000330: e3aa df3d 9448 aabe 4843 16be 5501 ddbe
00000340: adf8 05bf 14c4 06bf b289 cbbe 69fd 92bc
00000350: 5c85 4b3e 01f4 893e a371 833e b7fd 3e3e
00000360: 07b8 9a3e e306 e93d e3dc 2e3e e301 9c3e
00000370: 4c01 4ebe 523d 8b3e a0f5 8c3c 11f6 02c0
00000380: e57b 703f 6a4f a3be 1100 3abe 6596 30be
00000390: 9740 a73d 16c1 983e 5b2a a93e eba5 df3d
000003a0: 46aa 70be 6155 ccbe c790 86be 52b3 d3be
000003b0: 5b4b 5cbe 492d 993d 02dc be3d 3d38 be3b
000003c0: 0a2a 7a3d db2f 8fbd 016e 83be c44a 1d3e
000003d0: 5d22 f13b 758e 133e 7fa7 14be 576e 053e
000003e0: 155b 743e 8222 20bf a7e2 023e 0440 243e
000003f0: 6f25 2e3e 5c75 0f3d 2b3c a63c 872b 823d

linear1.bias f4 [256]
0.058654983 -0.059696294 -0.053724017 -0.036875006 0.34903917 -0.0032707327 -0.05376058 0.0582211
0.1813456 -0.06572861 0.006926177 -0.1444825 -0.009465718 0.028510142 0.07211499 0.18132706
0.0 0.19978671 -0.093396686 -0.056219503 0.18083817 0.072586186 -0.009280181 0.03450727
0.24500065 -0.04191835 -0.09186096 -0.01052097 0.19368997 0.112304114 -0.06709524 -0.22257449
0.100669384 0.27205202 0.122862756 0.036541075 -0.019035 0.13732761 -0.13520217 -0.06785551
0.0 0.043261 -0.07089531 0.07538519 0.035162356 0.18512405 -0.04219001 0.08279761
0.20124441 0.037811365 0.08070809 0.25236505 0.0028002735 -0.07075405 0.13093929 -0.008904108
0.042015128 -0.07792713 0.06635605 -0.18175791 -0.17104833 0.23759922 -0.05606375 -0.20784028
0.06383273 0.00974393 -0.018599076 -0.025331983 -0.042290747 -0.115593165 -0.089601904 0.09864571
0.1606755 0.09355618 -0.1001347 -0.16131818 -0.0658322 -0.006797997 0.022453288 -0.020918705
0.24383047 -0.028569985 0.14043307 -0.10731156 -0.12026323 -0.005955928 -0.0262541 -0.092168234
-0.043802135 -0.05392733 0.078826144 0.26980966 0.083857544 0.0024622844 0.19662687 0.028961228
0.029080244 0.051248323 0.14097199 -0.09985815 -0.04987614 0.1351011 0.17305139 0.102635026
0.057059456 -0.26570728 0.07770182 0.16424562 -0.09765305 -0.09106309 -0.019014515 -0.046942715
-0.006878575 0.104568414 0.02979978 0.01124091 -0.057362117 -0.059490524 0.2112448 0.052848645
0.25498337 -0.012708267 -0.2334883 0.08677935 -0.04612677 0.06350029 -0.08883546 0.0
0.20798728 -0.01846863 -0.027690964 -0.00952901 -0.04793861 0.016575316 -0.06372635 0.056381825
-0.058825288 0.0021781283 0.051089473 -0.12775867 0.0066719796 0.018935626 -0.061781622 0.04284445
-0.12213476 -0.03578022 0.034137655 0.077474326 0.13476968 -0.07516793 0.5744429 0.23906276
0.1479247 0.0024748642 0.12787983 0.08869223 0.037648614 0.07243181 0.07150538 0.07606319
-0.045823157 0.22866844 0.4183599 0.15706238 -0.121493675 -0.016082652 -0.16030155 0.018348027
-0.024924297 -0.027669488 0.1395906 -0.09095316 0.026892716 -0.14556515 0.061308883 -0.027270308
0.09983215 0.06082617 -0.030185224 0.017965006 -0.068822056 -0.04170788 0.27099115 -0.019027581
-0.20538773 0.15534277 -0.006198352 -0.08431296 -0.05239514 0.08751264 -0.026807355 -0.051776826
-0.021117594 -0.07979613 0.12347262 -0.05530769 -0.120986626 -0.12384398 0.031872567 0.00049582374
-0.009506817 -0.015354346 -0.009519068 0.16261873 0.22500661 -0.06942188 0.07201216 -0.0141844265
0.02626282 0.08633352 -0.17525181 -0.24668899 -0.15932305 0.15432438 0.09734206 0.15316565
0.16983591 0.13848028 -0.027710743 -0.084704414 0.05879507 0.029921954 0.020424727 0.14075795
0.32425937 -0.039723013 0.0 0.31879285 -0.11279197 -0.050390713 0.1614622 -0.031318408
-0.040471353 0.090413146 -0.19376715 -0.019323269 0.20284939 -0.031256627 -0.015987325 0.0
-0.0577008 -0.07728221 -0.068956405 -0.09621385 -0.05888456 0.15513282 0.039996017 0.0085957125
-0.047054272 0.08630099 -0.15381822 0.08514608 0.009014427 0.20600489 0.02008984 0.0
00000000: 3540 703d 1a84 74bd b70d 5cbd 3f0a 17bd
00000010: 43b5 b23e ca59 56bb 0e34 5cbd 4079 6e3d
00000020: a9b2 393e b99c 86bd fcf4 e23b 38f3 13be
00000030: 1916 1bbc 1a8e e93c 06b1 933d cdad 393e
00000040: 0000 0000 e394 4c3e c346 bfbd 6c46 66bd
00000050: a42d 393e 11a8 943d e60b 18bc 7f57 0d3d
00000060: 73e1 7a3e 93b2 2bbd 9921 bcbd 2660 2cbc
00000070: aa56 463e b3ff e53d 3b69 89bd 91ea 63be
00000080: c02b ce3d 674a 8b3e 789f fb3d 18ac 153d
00000090: 4aef 9bbc 9c9f 0c3e 7072 0abe d4f7 8abd
000000a0: 0000 0000 7232 313d 8f31 91bd 8d63 9a3d
000000b0: 6706 103d 2991 3d3e 6fcf 2cbd cb91 a93d
000000c0: 0413 4e3e 17e0 1a3d 484a a53d fe35 813e
000000d0: cb84 373b 80e7 90bd f314 063e 89e2 11bc
000000e0: 0e18 2c3d 4298 9fbd aee5 873d bf1e 3abe
000000f0: 4b27 2fbe 364d 733e 1aa3 65bd 15d4 54be
00000100: bcba 823d 01a5 1f3c 175d 98bc 0585 cfbc
00000110: 1039 2dbd 1cbc ecbd 3481 b7bd c306 ca3d
00000120: 1e88 243e 629a bf3d 6c13 cdbd 9830 25be
00000130: 08d3 86bd bbc1 debb f5ef b73c b45d abbc
00000140: b2ae 793e 9a0b eabc b0cd 0f3e 2ac6 dbbd
00000150: 914c f6bd f229 c3bb d712 d7bc b3c2 bcbd
00000160: de69 33bd e7e2 5cbd 9a6f a13d 7e24 8a3e
00000170: 81bd ab3d 475e 213b 8e58 493e 1940 ed3c
00000180: b139 ee3c c3e9 513d f65a 103e 6e82 ccbd
00000190: ec4a 4cbd f157 0a3e 6234 313e 5032 d23d
000001a0: 2db7 693d c90a 88be 2222 9f3d 0130 283e
000001b0: 53fe c7bd 497f babd 54c4 9bbc 0147 40bd
000001c0: ab65 e1bb f727 d63d ab1e f43c cb2b 383c
000001d0: 8af4 6abd 56ac 73bd 8f50 583e d277 583d
000001e0: 2e8d 823e 5636 50bc 8f17 6fbe 5fb9 b13d
000001f0: 6def 3cbd 710c 823d 5eef b5bd 0000 0000
00000200: 9efa 543e 864b 97bc 29d8 e2bc 911f 1cbc
00000210: 475b 44bd f5c8 873c f682 82bd a1f0 663d
00000220: c9f2 70bd eebe 0e3b 3243 513d 2bd3 02be
00000230: 9fa0 da3b e31e 9b3c ba0e 7dbd a97d 2f3d
00000240: ca21 fabd 488e 12bd edd3 0b3d dcaa 9e3d
00000250: 1001 0a3e a5f1 99bd b10e 133f decc 743e
00000260: 9379 173e 5531 223b eef2 023e 46a4 b53d
00000270: 6f35 1a3d 2157 943d 6a71 923d 05c7 9b3d
00000280: 10b1 3bbd 0f28 6a3e 4533 d63e f6d4 203e
00000290: add1 f8bd c4bf 83bc 1726 24be 9a4e 963c
000002a0: 0a2e ccbc 1fab e2bc d7f0 0e3e a645 babd
000002b0: 1d4e dc3c 080f 15be 061f 7b3d fb65 dfbc
000002c0: cc74 cc3d dd24 793d 0147 f7bc 592b 933c
000002d0: 94f2 8cbd e2d5 2abd 5abf 8a3e bbdf 9bbc
000002e0: 2951 52be 2d12 1f3e 8c1b cbbb 46ac acbd
000002f0: 499c 56bd d439 b33d 199b dbbc f013 54bd
00000300: cefe acbc 276c a3bd 37df fc3d 518a 62bd
00000310: d6c7 f7bd eaa1 fdbd cf8c 023d 2bfa 013a
00000320: 7bc2 1bbc cb90 7bbc ddf5 1bbc 8685 263e
00000330: 2268 663e 0f2d 8ebd 1d7b 933d cc65 68bc
00000340: 2025 d73c a1cf b03d 3675 33be 0a9c 7cbe
00000350: 9525 23be 3607 1e3e 465b c73d 75d7 1c3e
00000360: 77e9 2d3e c6cd 0d3e a401 e3bc 8279 adbd
00000370: 19d3 703d e31e f53c c251 a73c da22 103e
00000380: 5305 a63e 99b4 22bd 0000 0000 d138 a33e
00000390: 7aff e6bd 7e66 4ebd 5956 253e bb47 00bd
000003a0: 4ac5 25bd 872a b93d e56a 46be d54b 9ebc
000003b0: c0b7 4f3e f306 00bd daf7 82bc 0000 0000
000003c0: ad57 6cbd 2346 9ebd 0439 8dbd c40b c5bd
000003d0: f030 71bd 23db 1e3e ddd2 233d 08d5 0c3c
000003e0: fbbb 40bd 93be b03d 8682 1dbe 1161 ae3d
000003f0: 3fb1 133c f2f2 523e 7393 a43c 0000 0000

linear2.weight f4 [256, 256]
-0.24941893 -0.14133628 0.595681 -0.030850729 0.47399846 0.46981543 -0.2512397 0.11935892
-1.5489842 0.27648503 0.1487488 0.31189 0.07622702 0.9765874 -0.3470364 0.36435196
-0.09689798 -0.06962262 -0.11884609 -0.11692146 0.63869643 -1.213807 -0.11654613 -0.40909782
-0.03468539 -0.058868557 0.17101899 -0.043609433 -0.50046587 0.47387955 0.5485341 -0.17277604
-0.25161877 -0.75507075 0.3561209 -0.48383898 0.07982936 0.7310063 -0.36766255 -0.079983935
0.10250855 0.76021576 -0.28342837 -0.58947426 -0.39466685 0.3837714 -0.5884148 0.009252865
-0.25742868 -0.094104424 -0.23293313 0.094346344 -0.09408931 -0.26960266 -0.31019282 -0.011532051
-0.35255143 -0.30754587 -0.053134363 -0.07851708 -0.0021537396 1.0587226 -0.2732648 -0.09309393
0.069942124 -0.6751156 -0.29037112 0.11184207 -0.014226636 0.241714 -0.4363325 -0.25768968
0.43496612 -0.3825201 -0.0899517 -0.06872693 -0.3682527 -0.8769393 -0.27267346 0.33931306
0.33321005 -0.11331126 0.55587286 0.02886383 -0.08068483 0.36576876 -0.5086506 0.056892313
0.24898244 -0.05279602 -0.35706466 0.042105984 0.52713233 -0.3305384 -0.85225964 0.2903954
0.3376219 0.4663559 0.27789772 -0.09032586 -1.0446813 0.19149667 -0.31156904 -0.58288956
0.11347021 -0.87942624 -0.08169422 0.40129927 0.117341064 -0.49399197 -0.08204328 -0.01749697
0.9329649 0.46804368 -0.3470516 0.066796735 -0.3435654 0.0613973 -0.014802366 -0.29841074
0.23583272 0.4744761 -0.93368334 -0.10285598 -0.065448396 0.12642115 0.21165657 0.026151903
0.66392857 -0.07002077 -1.3421316 -0.048911724 -0.33331594 0.06887025 -0.60258716 -0.41165948
0.063065186 0.23591512 -0.21410346 0.22410512 -0.12795475 0.38772422 -0.63088906 0.57197756
-0.7240257 -0.08468307 -0.085278556 -0.34334978 0.15657993 -0.01444017 0.3538487 0.21719685
0.5135641 0.31513885 -0.67747045 -0.40689132 -0.874163 0.23096944 0.21903826 0.6387196
0.055411898 -0.15434003 -0.27274817 0.06431339 -0.94593257 -0.015756022 -0.4678685 0.11707212
-0.1433298 -0.029445847 0.13305616 -0.26290375 -1.3428309 -0.16319324 -0.01358506 0.0005415082
-0.35583627 -0.70118755 0.11513179 -0.055003915 0.19411859 -0.028905658 0.25457048 0.09253129
-0.21978433 0.45457542 0.06381291 -0.2761853 0.5184552 0.17927901 -0.07550544 -0.62184936
0.042414986 -0.04797255 -0.25595006 -0.5864013 -0.70468885 -0.08226119 -1.2406437 0.029808406
0.093480416 -0.35715905 -0.10859747 0.22056577 -0.67604226 -0.08559293 -0.02059995 -0.22554937
0.17506008 -0.8777035 -0.11899929 0.30089876 -0.8821635 0.08940538 0.059173424 -0.07147144
-1.2679973 -0.20363766 -1.1941619 -0.25985134 0.15913144 -0.3424471 -0.6554793 -0.40716666
0.09985796 0.24139108 0.09090593 0.35110977 -0.19336462 -0.014026464 0.08919805 0.09660824
0.41940233 -0.17227429 -1.4352578 0.040052958 -0.38771847 -0.0059987046 0.045404315 0.060493387
-0.73654217 0.09437497 0.05785182 -0.24143569 -0.26886845 -0.84530354 0.3509143 -0.975182
-0.56873614 0.44587624 -0.0571995 -0.25118622 -0.70807713 -0.15383935 0.20202172 -0.060971905
00000000: ad67 7fbe 75ba 10be 8d7e 183f abba fcbc
00000010: edaf f23e a68b f03e 7da2 80be 7372 f43d
00000020: 1d45 c6bf 728f 8d3e 9b51 183e 0cb0 9f3e
00000030: e91c 9c3d a201 7a3f c1ae b1be 578c ba3e
00000040: 7372 c6bd 4e96 8ebd 9465 f3bd 8574 efbd
00000050: 9c81 233f 075e 9bbf bdaf eebd 4575 d1be
00000060: 4412 0ebd 2820 71bd 9a1f 2f3e ce9f 32bd
00000070: 881e 00bf 57a0 f23e bb6c 0c3f 34ec 30be
00000080: 2dd4 80be 514c 41bf 7b55 b63e beb9 f7be
00000090: 937d a33d 3b23 3b3f 443e bcbe 9ece a3bd
000000a0: 01f0 d13d 809d 423f 861d 91be c9e7 16bf
000000b0: c611 cabe af7d c43e 5aa2 16bf 5499 173c
000000c0: b1cd 83be d2b9 c0bd 0686 6ebe a838 c13d
000000d0: e5b1 c0bd 5c09 8abe 98d1 9ebe edf0 3cbc
000000e0: 9f81 b4be a776 9dbe 6ba3 59bd 90cd a0bd
000000f0: c125 0dbb 3984 873f 5de9 8bbe 08a8 bebd
00000100: d13d 8f3d 60d4 2cbf 86ab 94be 750d e53d
00000110: d616 69bc e083 773e f966 dfbe e7ef 83be
00000120: e1b3 de3e add9 c3be 9938 b8bd b4c0 8cbd
00000130: 9e8b bcbe 187f 60bf db9b 8bbe 71ba ad3e
00000140: 829a aa3e bc0f e8bd af4d 0e3f d773 ec3c
00000150: 173e a5bd 0b46 bb3e ed36 02bf ea07 693d
00000160: 41f5 7e3e a440 58bd 2ed1 b6be 5377 2c3d
00000170: 25f2 063f 543c a9be b02d 5abf b5ae 943e
00000180: c7dc ac3e 33c6 ee3e 9c48 8e3e c4fc b8bd
00000190: 1eb8 85bf b417 443e fa85 9fbe 4038 15bf
000001a0: 1263 e83d 1422 61bf 4d4f a7bd 1977 cd3e
000001b0: 8350 f03d 84ec fcbe 4f06 a8bd ce55 8fbc
000001c0: cad6 6e3f 6ca3 ef3e bfb0 b1be bacc 883d
000001d0: cee7 afbe bc7b 7b3d 9f85 72bc 4bc9 98be
000001e0: 227e 713e 88ee f23e df05 6fbf 28a6 d2bd
000001f0: cf09 86bd 8c74 013e 80bc 583e 843c d63c
00000200: 39f7 293f 0d67 8fbd f8ca abbf a957 48bd
00000210: 63a8 aabe d80b 8d3d 2743 1abf 08c5 d2be
00000220: 5228 813d bc93 713e f03d 5bbe d07b 653e
00000230: 9206 03be ca83 c63e f281 21bf 1f6d 123f
00000240: c059 39bf 516e adbd 86a6 aebd 8bcb afbe
00000250: 7d56 203e 7696 6cbc a82b b53e da68 5e3e
00000260: f078 033f e159 a13e b46e 2dbf 0f54 d0be
00000270: 25c9 5fbf 4183 6c3e 914b 603e 2183 233f
00000280: 96f7 623d 500b 1ebe a6a5 8bbe bdb6 833d
00000290: a328 72bf c612 81bc 768c efbe 82c3 ef3d
000002a0: 0cc5 12be 6b38 f1bc e03f 083e 529b 86be
000002b0: e2e1 abbf 211c 27be df93 5ebc 00f4 0d3a
000002c0: 2c30 b6be 0781 33bf 37ca eb3d c94b 61bd
000002d0: 06c7 463e 8fcb ecbc 1057 823e 0c81 bd3d
000002e0: 250f 61be 1cbe e83e 58b0 823d 2968 8dbe
000002f0: 7bb9 043f eb94 373e 99a2 9abd 8531 1fbf
00000300: 56bb 2d3d dd7e 44bd e30b 83be 651e 16bf
00000310: 7d66 34bf 8e78 a8bd 6acd 9ebf c230 f43c
00000320: a972 bf3d 8ddd b6be 5a68 debd fedb 613e
00000330: 1b11 2dbf 594b afbd 3ac1 a8bc 6af6 66be
00000340: f342 333e 2db1 60bf e6b5 f3bd 670f 9a3e
00000350: 78d5 61bf 2b1a b73d d55f 723d 9e5f 92bd
00000360: bc4d a2bf 6486 50be 4cda 98bf 3c0b 85be
00000370: 5af3 223e 3a55 afbe 7ecd 27bf 2678 d0be
00000380: 5582 cc3d 392f 773e e32c ba3d a9c4 b33e
00000390: 6001 46be 41cf 65bc 78ad b63d 8ada c53d
000003a0: e7bb d63e ac68 30be 87b6 b7bf 920e 243d
000003b0: 0983 c6be c890 c4bb e0f9 393d eac7 773d
000003c0: 078e 3cbf aa47 c13d 08f6 6c3d eb3a 77be
000003d0: 20a9 89be d065 58bf 0aab b33e 87a5 79bf
000003e0: b198 11bf e449 e43e 064a 6abd 7b9b 80be
000003f0: 8b44 35bf 1088 1dbe c8de 4e3e adbd 79bd

linear2.bias f4 [256]
0.2941046 0.17979054 0.2219856 -0.37804666 -0.06574553 -0.090813845 0.14892434 0.35462585
0.2780489 -0.049657416 0.38222596 0.117664896 0.13112786 0.4210867 0.12606224 -0.050130475
0.2788363 0.2833472 0.11470636 0.46521416 0.6032074 0.12460625 0.6652682 -0.10218833
0.41071212 -0.1000475 0.6327269 -0.027242195 0.041248858 0.03575115 -0.07228968 0.18777525
0.51097155 0.2521799 0.67046934 0.0038840203 0.16613433 0.11550873 0.075096294 0.21685316
0.01864858 0.38071436 0.25562793 0.48709643 0.22629446 0.3936875 0.38535163 0.34211212
0.47449085 0.061589345 -0.066369124 0.116350584 -0.0061064763 0.3238746 0.031053463 0.14403483
0.67878824 0.5203378 -0.027553245 -0.08486067 0.27842772 0.16311327 -0.016519025 0.5049581
-0.02942698 -0.034568723 -0.075552545 -0.18967167 0.3458695 0.07484955 0.2741143 0.31169918
0.07141218 -0.24437854 -0.08521363 -0.3909519 0.34781307 0.24189232 0.32638195 0.0153834475
0.21443182 0.5052176 0.40072063 -0.16689506 0.11575385 -0.07200402 0.33061045 0.24773864
0.072857425 -0.11277553 0.034475666 0.45643488 -0.18729867 0.10072911 -0.039132632 -0.06830483
-0.06727105 0.14889556 -0.08563968 0.2918605 0.059443396 0.4271416 0.1347531 0.010535423
0.35966563 0.4195649 0.16623658 0.7298601 0.079813994 0.2919436 0.18756263 -0.2637173
0.44995314 0.058646083 0.035084337 0.44386193 0.07630027 0.49545556 -0.078538015 0.57955545
-0.08955343 0.22208199 0.111736044 -0.023284437 0.106656514 0.51967293 -0.042366836 0.070924595
-0.03521967 0.044675034 -0.024691105 0.24860314 0.26555476 0.14787291 0.17254376 -0.3331882
0.05892502 -0.25246495 0.00461935 0.21718644 -0.024796298 -0.12844342 -0.13595459 -0.110936634
-0.07203106 -0.01787442 -0.028290287 0.28129688 0.42764044 -0.0032586593 0.001445834 0.16430503
-0.06454639 0.17270604 0.14053354 0.36976168 0.25135922 -0.11996295 -0.19930646 -0.10855688
-0.030140974 0.37511608 0.3171619 0.4860077 -0.04633142 -0.081811234 0.3390277 0.21814437
0.06441156 0.16704519 0.3031019 0.31236723 0.013669637 0.39917287 0.09929325 -0.037592046
0.53870606 0.41883752 0.031762257 0.0324098 -0.051925886 -0.28261587 0.35294485 0.08121909
-0.10618848 -0.012716728 0.22647299 0.5106274 -0.24115527 0.36603424 0.124173276 0.11663695
-0.34772813 0.022924416 0.4659276 0.53345317 -0.05723051 0.5672882 -0.08186344 0.31030005
-0.045617286 -0.27412638 0.12420299 0.22784118 0.29724663 -0.042737108 -0.04412203 -0.070796065
-0.1464317 0.62869215 0.14090715 0.14088164 0.07505609 0.3959816 0.23522928 -0.07812984
0.3448404 0.22004732 0.2399828 0.21103372 0.33472428 0.04149339 0.21793854 0.14545807
0.5125738 0.46259272 -0.15410125 0.47730988 -0.39344904 0.18962839 -0.050971992 -0.1745649
0.008571983 0.13874885 0.30376047 0.12021675 1.0099503 0.24186978 -0.014374234 0.2562423
0.23374552 0.36633417 0.41533443 0.25485048 0.57349986 0.05243185 -0.26953468 -0.115122974
-0.21014853 0.29001346 0.25403577 0.026174344 -0.06360644 0.44621047 0.122044116 -0.10934047
00000000: e194 963e 031b 383e 3150 633e 558f c1be
00000010: 98a5 86bd 9cfc b9bd 9f7f 183e 8591 b53e
00000020: 6d5c 8e3e 9365 4bbd 1fb3 c33e 4bfa f03d
00000030: 6246 063e ad98 d73e 7616 013e 9d55 4dbd
00000040: a2c3 8e3e e212 913e 2beb ea3d 8d30 ee3e
00000050: cd6b 1a3f 9031 ff3d 044f 2a3f 1d48 d1bd
00000060: dc48 d23e b4e5 ccbd 64fa 213f 062b dfbc
00000070: 90f4 283d cc6f 123d 9d0c 94bd 2848 403e
00000080: 08cf 023f b91d 813e e1a3 2b3f 0c8b 7e3b
00000090: 1e1f 2a3e d78f ec3d 16cc 993d c10e 5e3e
000000a0: e8c4 983c feec c23e aae1 823e b464 f93e
000000b0: bcb9 673e 6891 c93e cf4c c53e 5229 af3e
000000c0: 77f0 f23e 1c45 7c3d 89ec 87bd 3749 ee3d
000000d0: d618 c8bb e4d2 a53e d563 fe3c de7d 133e
000000e0: 11c5 2d3f dc34 053f 58b7 e1bc 6ecb adbd
000000f0: 148e 8e3e 2a07 273e e852 87bc ef44 013f
00000100: da10 f1bc ef97 0dbd 4bbb 9abd 4a39 42be
00000110: cf15 b13e b94a 993d b658 8c3e 0997 9f3e
00000120: 8d40 923d 5e3e 7abe 7c84 aebd d92a c8be
00000130: 8e14 b23e 9fb2 773e 891b a73e db0a 7c3c
00000140: 0494 5b3e f155 013f 412b cd3e 8ae6 2abe
00000150: 5b10 ed3d d876 93bd c645 a93e 33af 7d3e
00000160: 4636 953d dbf6 e6bd 5b36 0d3d d5b1 e93e
00000170: 39cb 3fbe 104b ce3d 8a49 20bd 67e3 8bbd
00000180: 67c5 89bd 1478 183e db63 afbd bd6e 953e
00000190: eb7a 733d 4eb2 da3e b7fc 093e c49c 2c3c
000001a0: 1826 b83e 36d1 d63e ec39 2a3e 1dd8 3a3f
000001b0: 8575 a33d a279 953e 6b10 403e f405 87be
000001c0: 4260 e63e e036 703d 98b4 0f3d df41 e33e
000001d0: 5143 9c3d 5aac fd3e 8ad8 a0bd bf5d 143f
000001e0: ca67 b7bd 7669 633e ded5 e43d 01bf bebc
000001f0: bb6e da3d 4909 053f d988 2dbd ea40 913d
00000200: 8042 10bd 2bfd 363d 0045 cabc d291 7e3e
00000210: cbf6 873e ff6b 173e 50af 303e a597 aabe
00000220: 5d5b 713d 1643 81be eb5d 973b 1f66 5e3e
00000230: 9b21 cbbc ac86 03be ae37 0bbe bf32 e3bd
00000240: 0585 93bd 606d 92bc 08c1 e7bc 2506 903e
00000250: b0f3 da3e 3b8f 55bb 2382 bd3a 943f 283e
00000260: e630 84bd dad9 303e 06e8 0f3e 6751 bd3e
00000270: 28b2 803e 23af f5bd fe16 4cbe 1253 debd
00000280: 34ea f6bc 370f c03e 0b63 a23e 00d6 f83e
00000290: 04c6 3dbd a68c a7bd 0a95 ad3e 3d61 5f3e
000002a0: 35ea 833d e50d 2b3e 2c30 9b3e 99ee 9f3e
000002b0: 9df6 5f3c 6360 cc3e 425a cb3d 1efa 19bd
000002c0: a4e8 093f df71 d63e 2419 023d 23c0 043d
000002d0: 3db0 54bd 07b3 90be 30b5 b43e 3256 a63d
000002e0: 5979 d9bd d359 50bc 89e8 673e 7ab8 023f
000002f0: 68f1 76be d768 bb3e 8f4e fe3d 5adf ee3d
00000300: 6c09 b2be fccb bb3c 108e ee3e 6390 083f
00000310: 8a6a 6abd cd39 113f 05a8 a7bd a6df 9e3e
00000320: 31d9 3abd 4b5a 8cbe 235e fe3d 334f 693e
00000330: b630 983e 1b0d 2fbd 4db9 34bd 87fd 90bd
00000340: 31f2 15be f8f1 203f f749 103e 4743 103e
00000350: 02b7 993d 1abe ca3e f2df 703e 8a02 a0bd
00000360: ec8e b03e 1654 613e 0dbe 753e 3919 583e
00000370: fb60 ab3e f9f4 293d 482b 5f3e f6f2 143e
00000380: 0938 033f f4d8 ec3e b8cc 1dbe f661 f43e
00000390: 2772 c9be f22d 423e 02c8 50bd 24c1 32be
000003a0: 8171 0c3c 2e14 0e3e 7e86 9b3e 3334 f63d
000003b0: 0d46 813f b6ac 773e e881 6bbc 3132 833e
000003c0: fc5a 6f3e 2790 bb3e b7a6 d43e c37b 823e
000003d0: e3d0 123f c8c2 563d 7300 8abe 98c5 ebbd
000003e0: 2d31 57be a57c 943e fa10 823e 946b d63c
000003f0: 1844 82bd b375 e43e 44f2 f93d e5ed dfbd

mean_linear.weight f4 [3, 256]
0.1148675 -0.52309215 -0.0012807267 -0.0028938923 -0.0002527871 -0.73950243 0.5901778 0.036882155
0.2458412 0.05349798 0.2684916 -0.030478118 -0.09731858 -1.0181855 -0.22908995 -0.8071898
-0.1771791 -0.023092352 0.23901594 -0.090110116 0.023452 -0.0404345 -0.07228424 0.23033006
-0.18012814 -0.058782186 -0.5444227 -0.2892656 0.3233023 0.13264912 -0.08292622 0.20178682
0.052158613 -0.48388812 0.18432066 0.265348 -0.10301356 -0.8353275 0.12655659 -0.015785603
-0.4317254 -0.14166935 0.7107779 -0.13234273 -0.25698832 0.23786241 -0.31050515 -0.3511601
-0.028186645 0.6820542 0.2805664 0.0482439 -0.64108634 0.15538067 -0.6097502 -0.034405034
0.25279903 0.24643563 0.11154278 0.14956892 -0.02616151 -0.57995725 0.5585219 -0.5724888
0.27677715 0.61591244 0.07247587 0.42956856 1.1324196 -0.3038834 -0.23330127 -0.024364578
0.32628977 0.17834327 -0.31950206 0.4106605 -0.2695853 0.5398001 -0.049493905 -0.12131203
0.13156842 -0.3418235 -0.25050592 -0.47593135 -0.14286193 0.028117139 0.15419073 0.11592675
0.7721602 -0.5378963 -0.22148377 0.52352774 0.4032559 -0.26543242 -0.21558234 -0.30021706
0.06418901 0.19248328 -0.30037302 -0.34021834 -0.47402573 0.3635983 -0.27078143 -0.17670654
-0.5767277 -0.15231684 0.9853613 -0.5428667 -0.09972105 -0.18392287 0.03269064 0.043552514
0.4942418 0.39287165 0.043191496 -0.07455651 0.24128446 0.7202484 -0.029690167 -0.284736
-0.11655284 -0.2553639 -0.3438291 0.25645995 0.06801715 -0.50691193 -0.1704729 -0.48528484
0.49288464 0.44139656 -0.16866043 -0.36655354 0.38480446 -0.6537797 0.55423707 0.051931813
0.039513975 -0.22522709 0.08167367 -0.11154013 0.17913185 0.37180305 -0.47333896 -1.1738867
0.21265382 0.39295858 0.2191068 -0.07923929 -0.2960764 -0.08692027 -0.057086684 0.7751046
-0.012479476 -0.15155624 0.2525889 -0.29186866 0.5205238 0.18595862 0.27453274 -0.20264243
-0.061660994 -0.58127743 0.30477163 -0.041480407 0.26795593 -0.010642794 -0.10525201 0.54175025
0.45646754 0.006779525 0.49324235 0.21025075 -0.0016710883 -0.023158064 -0.033586204 -0.14304951
0.06488518 0.30374634 -0.68531185 -0.051442392 -0.16410466 -0.029811429 -0.27861014 -0.3228167
-0.7507076 -0.08127409 -0.32449284 0.17491195 -0.36936685 0.397985 0.13880903 1.3818055
0.16691619 0.56584483 -0.10408499 -0.3072722 0.6997016 0.02687029 0.26250675 0.36845848
-0.26219222 -0.015661288 -0.42968485 0.1430948 -0.5357177 0.41543874 -0.014745381 -0.30988336
0.54051375 0.52299017 0.04056323 -0.63683337 0.44466376 0.06885746 0.30695647 -0.56266224
-0.1395074 0.16181819 0.015405152 -0.929811 -0.39640215 0.62963516 -0.6536816 0.24153817
-0.06043832 0.4019012 -0.023231428 0.22557276 -0.13090092 0.23712283 -0.76156044 0.721664
0.6478062 -0.032529265 -0.5278523 0.10735558 -0.6088329 0.882825 -0.18417759 0.13539435
-0.09531528 -0.095298745 -0.25764236 -0.09450968 0.06498435 0.039755326 0.63805383 -0.030340329
0.4826489 0.20100997 0.3221475 -0.9251162 0.03916712 0.57639414 -0.15852536 -0.10160664
00000000: a73f eb3d 5ee9 05bf 0fde a7ba 75a7 3dbb
00000010: 8388 84b9 0850 3dbf e415 173f be11 173d
00000020: ccbd 7b3e b320 5b3d bb77 893e 3fad f9bc
00000030: f74e c7bd e753 82bf 8e96 6abe fea3 4ebf
00000040: 706e 35be 2c2c bdbc 98c0 743e a78b b8bd
00000050: 691e c03c a59e 25bd c209 94bd a5db 6b3e
00000060: 8373 38be 97c5 70bd 495f 0bbf 9f1a 94be
00000070: e187 a53e 2cd5 073e 39d5 a9bd 34a1 4e3e
00000080: 45a4 553d 2fc0 f7be 8ebe 3c3e b1db 873e
00000090: c6f8 d2bd 06d8 55bf 0d98 013e cf50 81bc
000000a0: 1d0b ddbe c511 11be 8af5 353f da84 07be
000000b0: f993 83be 3492 733e 88fa 9ebe 42cb b3be
000000c0: aee7 e6bc 1b9b 2e3f 66a6 8f3e 659b 453d
000000d0: 3c1e 24bf 1c1c 1f3e 9718 1cbf 4bec 0cbd
000000e0: e06e 813e 9f59 7c3e 8b70 e43d 9828 193e
000000f0: aa50 d6bc 1478 14bf 4bfb 0e3f a08e 12bf
00000100: bcb5 8d3e 70ac 1d3f 3b6e 943d 69f0 db3e
00000110: 20f3 903f 9b96 9bbe 87e6 6ebe 3998 c7bc
00000120: 740f a73e 9e9f 363e c695 a3be 1842 d23e
00000130: 1607 8abe 5730 0a3f 1fba 4abd 7172 f8bd
00000140: dfb9 063e 7d03 afbe 5042 80be 46ad f3be
00000150: 664a 12be ea55 e63c 2de4 1d3e 016b ed3d
00000160: 4aac 453f 92b3 09bf a4cc 62be ea05 063f
00000170: 8f77 ce3e c2e6 87be 9ec1 5cbe 0db6 99be
00000180: 8775 833d 561a 453e 7eca 99be 1931 aebe
00000190: 80b3 f2be 8e29 ba3e dda3 8abe 8ff2 34be
000001a0: 6da4 13bf f2f8 1bbe a340 7c3f 50f9 0abf
000001b0: 8d3a ccbd 4756 3cbe 9fe6 053d 1f64 323d
000001c0: 430d fd3e 7926 c93e 91e9 303d 15b1 98bd
000001d0: 4613 773e 3362 383f cb38 f3bc ebc8 91be
000001e0: 41b3 eebd 0fbf 82be 5e0a b0be b84e 833e
000001f0: 934c 8b3d fbc4 01bf 7390 2ebe 4177 f8be
00000200: 605b fc3e bbfe e13e 52b5 2cbe e8ac bbbe
00000210: 1705 c53e 1b5e 27bf 7be2 0d3f 74b6 543d
00000220: 68d9 213d eea1 66be 8644 a73d 276f e4bd
00000230: 576e 373e f85c be3e 7c59 f2be eb41 96bf
00000240: ecc1 593e de31 c93e 885d 603e 3548 a2bd
00000250: 5397 97be 4103 b2bd bad3 69bd 416d 463f
00000260: b776 4cbc 8f31 1bbe 5553 813e cf6f 95be
00000270: 0c41 053f f06b 3e3e 8e8f 8c3e 7f81 4fbe
00000280: 3d90 7cbd 99ce 14bf 070b 9c3e 5ce7 29bd
00000290: 8531 893e 1d5f 2ebc 5e8e d7bd 25b0 0a3f
000002a0: 1db6 e93e c726 de3b 438a fc3e f94b 573e
000002b0: 6b08 dbba fbb5 bdbc b091 09bd 927b 12be
000002c0: 85e2 843d a484 9b3e 9970 2fbf 42b5 52bd
000002d0: 0d0b 28be 1937 f4bc fda5 8ebe 3b48 a5be
000002e0: 602e 40bf 0873 a6bd ed23 a6be 1e1c 333e
000002f0: a71d bdbe b1c4 cb3e f423 0e3e 01df b03f
00000300: 14ec 2a3e 35db 103f 832a d5bd c852 9dbe
00000310: a51f 333f 151f dc3c 4967 863e 97a6 bc3e
00000320: 0f3e 86be 1a4c 80bc a7ff dbbe 7187 123e
00000330: cc24 09bf 63b4 d43e 9c96 71bc 08a9 9ebe
00000340: 1c5f 0a3f afe2 053f a125 263d 8307 23bf
00000350: f8aa e33e 2405 8d3d 6629 9d3e a20a 10bf
00000360: 07db 0ebe abb3 253e e465 7c3c 1808 6ebf
00000370: 39f5 cabe c52f 213f ad57 27bf c855 773e
00000380: 2c8e 77bd fec5 cd3e d64f bebc 8cfc 663e
00000390: e40a 06be 54d0 723e a0f5 42bf f9be 383f
000003a0: a1d6 253f 683d 05bd 5421 07bf 3edd db3d
000003b0: 79dc 1bbf d200 623f 0d99 3cbe d1a4 0a3e
000003c0: a834 c3bd fd2b c3bd b3e9 83be 4b8e c1bd
000003d0: 8416 853d 7bd6 223d 7f57 233f 488c f8bc
000003e0: c21d f73e 8fd5 4d3e 84f0 a43e 6ad4 6cbf
000003f0: b46d 203d 918e 133f 7954 22be 2417 d0bd

mean_linear.bias f4 [3]
0.11792176 0.12358093 -0.11578967
00000000: f780 f13d 0018 fd3d 2223 edbd

log_std_linear.weight f4 [3, 256]
-0.031220045 0.09525729 -0.009031079 0.11907689 -0.086070105 0.18179575 -0.07094388 -0.022405252
0.0048810253 0.037795242 -0.08948171 -0.017951913 -0.06726586 0.51930654 0.014053262 0.3733868
0.07607137 -0.033188846 0.06522658 0.010884743 -0.019912874 0.0038784975 -0.00629985 0.019157486
0.09366644 0.10610992 0.12502192 0.24385844 0.048841458 -0.0038306038 0.03980315 -0.02148245
-0.027448796 0.07086874 -0.031572957 0.15152225 -0.011669623 0.15886508 0.10881888 0.00081403024
0.15871166 -0.0006390004 0.11316887 -0.009606561 0.04546874 -0.062645674 0.057105273 0.13680334
-0.01062495 -0.013722345 -0.05304816 -0.11195599 0.15302868 -0.028521983 0.11908896 0.23613001
-0.111112386 -0.05246889 0.019920718 0.1695904 -0.004885668 0.09637086 -0.016165584 0.08405063
-0.0038355335 0.059678502 0.22244027 0.0005157173 -0.021249298 -0.13435243 0.032136526 0.015553838
-0.12064283 0.010781807 0.025622137 -0.081023976 0.071511075 -0.019171864 0.0105518745 0.06626484
-0.035787314 0.043807827 0.025429001 0.14326578 0.3209813 -0.08049786 -0.003041417 -0.03334249
-0.14282933 0.22972557 0.059301853 0.059120223 -0.03610647 0.037640996 0.2700526 -0.08570663
0.06671698 -0.03457095 0.13824981 0.18974338 0.075193904 -0.12627505 0.06783433 -0.072478876
0.5198764 0.0041421666 -0.10011288 0.09957477 0.27305263 0.0058215787 -0.023406994 0.11466959
-0.052323274 -0.011892891 0.019553768 -0.003252068 -0.05699162 0.22494449 -0.068303354 0.096153595
0.16543014 0.101275876 -0.038325887 -0.0188619 -0.058375947 0.12044535 0.034136422 0.18322098
0.15845436 0.022102313 0.07183772 0.029423282 -0.06438095 0.21658707 0.004540918 -0.0044882973
-0.009206555 0.12417071 0.29113376 0.011900337 0.04853821 0.3175067 -0.019779554 0.29441142
0.07693417 0.17466028 -0.02030846 0.011585943 0.024214 0.008327297 0.14410752 0.02343859
0.12360178 0.049966943 0.07950492 0.040208813 0.009689824 -0.0069467323 0.13872837 0.040471673
0.07876076 0.13206156 -0.07679542 0.023592144 -0.019001234 -1.2646127e-06 -0.0019016542 0.06846018
-0.10128385 0.052655622 0.12957993 -0.005619974 0.041721355 -0.040129587 0.003786094 0.026622886
-0.026883474 -0.05160978 0.0394008 0.027338812 0.03710362 0.029736526 0.08837529 0.009819783
0.03807685 0.04888844 -0.0223318 -0.038945597 0.06396965 -0.16479363 -0.013739117 0.024900567
0.057496868 0.050850134 0.03882433 0.03341293 0.14251627 -0.012271958 -0.046752784 -0.076134995
0.091974296 0.043273155 0.10757588 0.012953245 0.107497945 0.07021531 -0.019747248 0.11489476
0.16063403 -0.17595536 -0.015730944 0.12408781 0.03085794 -0.01418688 0.08600113 0.11721138
0.10607115 0.020172894 -0.016975213 0.2481619 0.048006255 0.03127391 0.006455118 0.072632715
0.026981773 -0.113797 0.13945922 0.023749236 -0.0025278633 -0.036846116 0.12860125 0.058735643
-0.052096494 0.04335941 0.046179783 0.00980949 0.10209513 -0.0069489935 0.102038816 -0.028766084
0.01920682 0.30913508 0.02814292 0.015079751 -0.044423707 0.21178548 0.06885712 0.020165779
0.16380078 -0.020775875 0.00935991 0.21486549 0.02669314 -0.13697089 0.0027062169 0.09765922
00000000: 2ec1 ffbc 4116 c33d 17f7 13bc 96de f33d
00000010: 8645 b0bd aa28 3a3e 064b 91bd 388b b7bc
00000020: 02f1 9f3b 2fcf 1a3d 3042 b7bd e40f 93bc
00000030: afc2 89bd 46f1 043f a73f 663c 8e2c bf3e
00000040: 4ecb 9b3d 07f1 07bd 8395 853d ec55 323c
00000050: 5320 a3bc 642e 7e3b f96e cebb 29f0 9c3c
00000060: 31d4 bf3d 2850 d93d bf05 003e 07b6 793e
00000070: fb0d 483d de0a 7bbb a108 233d f7fb afbc
00000080: 4cdc e0bc a123 913d a552 01bd a628 1b3e
00000090: f231 3fbc 87ad 223e 6fdc de3d a564 553a
000000a0: 4f85 223e 9782 27ba 15c5 e73d d664 1dbc
000000b0: 6e3d 3a3d 604c 80bd 38e7 693d 2d16 0c3e
000000c0: 4514 2ebc b0d3 60bc 0749 59bd 2f49 e5bd
000000d0: 8db3 1c3e efa6 e9bc eae4 f33d 11cc 713e
000000e0: e48e e3bd 9ee9 56bd c630 a33c 1ba9 2d3e
000000f0: f417 a0bb 165e c53d b06d 84bc bd22 ac3d
00000100: 935d 7bbb 7271 743d 62c7 633e 3431 073a
00000110: 0213 aebc af93 09be 97a1 033d 86d5 7e3c
00000120: 9713 f7bd 2da6 303c 84e5 d13c e6ef a5bd
00000130: 6674 923d 500e 9dbc c5e1 2c3c dcb5 873d
00000140: b895 12bd d66f 333d 7b50 d03c 44b4 123e
00000150: a957 a43e 10dc a4bd 8352 47bb 2392 08bd
00000160: da41 12be 2e3d 6b3e 80e6 723d 0c28 723d
00000170: 61e4 13bd 722d 1a3d 5644 8a3e f586 afbd
00000180: e9a2 883d 459a 0dbd 5c91 0d3e 174c 423e
00000190: 43ff 993d 3f4e 01be baec 8a3d ce6f 94bd
000001a0: 9f16 053f 03bb 873b fb07 cdbd dbed cb3d
000001b0: 8ecd 8b3e f1c2 be3b 06c0 bfbc e4d7 ea3d
000001c0: ee50 56bd 66da 42bc 392f a03c a620 55bb
000001d0: 0c70 69bd d957 663e a1e2 8bbd 2dec c43d
000001e0: 8566 293e ba69 cf3d 9bfb 1cbd 4584 9abc
000001f0: 9e1b 6fbd 0dac f63d a2d2 0b3d 489e 3b3e
00000200: dc41 223e e90f b53c a81f 933d 1809 f13c
00000210: 29da 83bd 00c9 5d3e fbcb 943b 9112 93bb
00000220: 17d7 16bc 374d fe3d 7c0f 953e a2f9 423c
00000230: 01d0 463d 3d90 a23e bb08 a2bc 18bd 963e
00000240: aa8f 9d3d 25da 323e ed5d a6bc f8d2 3d3c
00000250: 705c c63c 376f 083c ec90 133e 4902 c03c
00000260: ee22 fd3d 23aa 4c3d 7ad3 a23d ffb1 243d
00000270: 11c2 1e3c 6aa1 e3bb cf0e 0e3e a0c5 253d
00000280: 524d a13d 253b 073e eb46 9dbd 5044 c13c
00000290: 7aa8 9bbc c3bb a9b5 ed40 f9ba da34 8c3d
000002a0: e86d cfbd 6cad 573d 9ab0 043e c227 b8bb
000002b0: 03e4 2a3d ec5e 24bd 1e20 783b 3d18 da3c
000002c0: bb3a dcbc c764 53bd bc62 213d a5f5 df3c
000002d0: f7f9 173d 049a f33c 1bfe b43d 28e3 203c
000002e0: 79f6 1b3d 3f3f 483d 2ef1 b6bc 6b85 1fbd
000002f0: 8502 833d a9bf 28be 091a 61bc 46fc cb3c
00000300: d681 6b3d 3b48 503d 4306 1f3d ffdb 083d
00000310: c9ef 113e 5310 49bc d97f 3fbd aaec 9bbd
00000320: 055d bc3d 313f 313d be50 dc3d d939 543c
00000330: e227 dc3d 0bcd 8f3d fbc4 a1bc f24d eb3d
00000340: 3f7d 243e a42d 34be 2ede 80bc c021 fe3d
00000350: cac9 fc3c 1670 68bc 5c21 b03d 850c f03d
00000360: d53b d93d a041 a53c 9a0f 8bbc 271e 7e3e
00000370: 35a2 443d 1219 003d 7485 d33b 76c0 943d
00000380: e108 dd3c 670e e9bd 66ce 0e3e c28d c23c
00000390: 82aa 25bb f4eb 16bd 0cb0 033e c994 703d
000003a0: 2263 55bd a399 313d 0327 3d3d fcb7 203c
000003b0: 4017 d13d 62b4 e3bb baf9 d03d daa6 ebbc
000003c0: 9f57 9d3c f446 9e3e fb8b e63c 0f11 773c
000003d0: a2f5 35bd 4bde 583e f604 8d3d b432 a53c
000003e0: 64bb 273e 2b32 aabc 4f5a 193c b305 5c3e
000003f0: 92ab da3c 1942 0cbe c95a 313b 8f01 c83d

log_std_linear.bias f4 [3]
-0.9662594 -0.74615335 -1.0607884
00000000: c75c 77bf e803 3fbf eac7 87bf
