hydrone_aerial_underwater_ddpg/scripts/Models/sac_stage_1_air3D_tanh_3layers/660_policy_net.pth (torch_old, 298264 bytes, 8 tensors)

linear1.weight f4 [256, 26]
0.063239604 -0.05478464 -0.12108003 -0.15482642 -0.1503965 0.036456533 0.085206255 -0.026323752
-0.033438914 0.10436678 -0.008095053 -0.14074247 -0.057706386 -0.056576464 -0.0012618164 -0.1432028
0.06594671 0.02682564 -0.122737944 0.040674835 -0.03595068 0.122100726 -0.09133203 -0.0071072313
0.102324605 -0.025743397 -0.022447348 0.21083179 0.17226374 0.27638662 0.08106194 -0.033838794
-0.081225894 -0.04782234 -0.016162608 -0.06183901 -0.1270888 -0.1483338 -0.3227013 -0.13779844
-0.03440599 -0.08612164 -0.13213858 0.017794318 -0.07203115 0.04220201 -0.16896792 0.0366029
0.43691754 -0.72838616 0.55613023 -1.1187735 -0.07927438 0.013969108 0.035697237 0.008318707
-0.03112597 -0.08811975 0.025454268 -0.13938972 0.0307239 0.0032823682 -0.08968271 -0.06042336
0.036191896 -0.07603341 -0.012925446 -0.12433399 0.08885118 -0.13037029 -0.08401632 -0.12759925
0.085924506 -0.08684805 -0.102012634 -0.11522628 -0.07722967 -0.115287155 -0.11638692 -0.12312346
-0.0806525 0.17478837 0.21043496 0.111527406 -0.11173698 -0.060840916 0.03851669 0.021047361
-0.18905586 0.07015345 0.09971886 0.061683655 0.031048352 -0.07722113 -0.09626832 -0.07687402
-0.060812313 0.13086845 0.26837483 0.1749436 -0.08285118 1.454628 -0.30378786 0.8282359
-0.08208981 -0.16237964 0.08287794 -0.03251781 -0.010224869 -0.013740592 0.024840474 -0.09672874
-0.12665796 0.048290465 -0.14964035 0.033535052 -0.16476521 0.025885925 -0.043291017 0.017900812
0.09424856 0.066367865 -0.11932995 -0.17442556 -0.03946571 0.13671902 -0.026577083 -0.07657549
0.07545394 0.03993481 -0.043190278 0.100863904 -0.16005276 -0.043595847 -0.03215228 -0.028318299
-0.19014816 -0.04273559 0.054291263 -0.12903489 -0.0015781327 0.043521006 -0.25904524 -0.08730978
-0.07206344 0.1682296 0.10863797 -0.044806994 0.11023171 0.18856567 0.7988602 -0.7140232
-0.1886733 0.61766434 -0.039657537 -0.81873107 0.04156224 -0.02771164 -0.12151765 0.13376568
0.023973607 0.017890828 0.06079034 0.13796677 -0.08177342 -0.07689786 0.071440354 0.19796203
0.012897478 0.14469102 0.14159256 -0.0133016985 0.07814406 0.0026320403 -0.06080576 -0.14169008
-0.055017844 -0.027818467 0.044302166 0.20417166 0.92620814 -1.8810263 0.05845488 -0.12443182
0.034328025 0.08118913 0.08907767 0.009832922 0.12515743 -0.12212168 -0.014546184 -0.21568589
-0.016342487 -0.20159924 -0.08905773 -0.03589841 0.13233866 -0.03807417 -0.12335472 -0.14783019
-0.041361444 0.19557741 -0.81637174 -0.3713971 -1.0114504 -0.4995373 0.6559588 0.26250893
-0.10334966 -0.22324243 0.06439477 -0.03435128 0.17085752 0.12731257 0.16613068 0.12109845
0.17805295 0.22028191 0.013076453 0.032875896 0.060490336 0.21015795 -0.100860484 0.10761636
-0.09964249 -0.24424857 -0.2831472 -0.20908448 0.006884808 0.14305334 -0.6038929 -1.0427049
-0.43784022 0.0048838393 0.05569584 -0.07226814 0.072333254 0.0016235629 -0.1454618 0.06536555
0.03661289 -0.086699866 -0.04499621 -0.008914106 -0.017292362 0.11928349 0.10071115 -0.16906044
-0.21270028 -0.08191113 0.005610873 0.017059648 -0.06974821 0.13649468 0.083937116 0.22148998
00000000: c483 813d dc65 60bd cff8 f7bd d18a 1ebe
00000010: 8a01 1abe 7253 153d 9e80 ae3d e9a4 d7bc
00000020: 3ef7 08bd 40be d53d 1da1 04bc cb1e 10be
00000030: 885d 6cbd b9bc 67bd 8863 a5ba c1a3 12be
00000040: 120f 873d 72c1 db3c 085e fbbd a89a 263d
00000050: 0541 13bd f20f fa3d 4a0c bbbd c7e3 e8bb
00000060: 908f d13d d1e3 d2bc 80e3 b7bc 4ae4 573e
00000070: e865 303e 8c82 8d3e cd03 a63d 8c9a 0abd
00000080: c359 a6bd 5ce1 43bd 7267 84bc e74a 7dbd
00000090: 9123 02be d1e4 17be 1b39 a5be 091b 0dbe
000000a0: 4ced 0cbd 8b60 b0bd 564f 07be 64c5 913c
000000b0: 1185 93bd 04dc 2c3d ed05 2dbe ecec 153d
000000c0: a8b3 df3e 8477 3abf 8d5e 0e3f f833 8fbf
000000d0: 9b5a a2bd b0de 643c 4437 123d 304b 083c
000000e0: e4fb febc 2178 b4bd 7885 d03c 2ebc 0ebe
000000f0: b0b0 fb3c 001d 573b 92ab b7bd 7c7e 77bd
00000100: f43d 143d 68b7 9bbd 40c5 53bc d2a2 febd
00000110: 9cf7 b53d ca7f 05be c010 acbd 61a9 02be
00000120: 30f9 af3d 64dd b1bd 00ec d0bd c2fb ebbd
00000130: 972a 9ebd ac1b ecbd 445c eebd 2728 fcbd
00000140: 232d a5bd b9fb 323e 437c 573e 7b68 e43d
00000150: 5cd6 e4bd 5334 79bd adc3 1d3d 846b ac3c
00000160: dc97 41be 9dac 8f3d 6739 cc3d 00a8 7c3d
00000170: 1d59 fe3c 1d26 9ebd 5328 c5bd 2070 9dbd
00000180: 5516 79bd 6102 063e 6d68 893e 6a24 333e
00000190: e1ad a9bd 4031 ba3f 158a 9bbe 4507 543f
000001a0: b41e a8bd d946 26be e9bb a93d 6531 05bd
000001b0: 3586 27bc 3820 61bc 407e cb3c b819 c6bd
000001c0: a0b2 01be 39cc 453d 523b 19be 0d5c 093d
000001d0: 36b8 28be b80e d43c ec51 31bd b9a4 923c
000001e0: 6405 c13d e0eb 873d 4363 f4bd 9d9c 32be
000001f0: cca6 21bd 1200 0c3e 2fb8 d9bc 9cd3 9cbd
00000200: 9887 9a3d af92 233d 4ae8 30bd bc91 ce3d
00000210: dfe4 23be 8f91 32bd 1cb2 03bd c7fb e7bc
00000220: 33b6 42be 840b 2fbd 8460 5e3d b921 04be
00000230: 59d9 ceba 1543 323d 94a1 84be 78cf b2bd
00000240: ff95 93bd 6144 2c3e 967d de3d 8a87 37bd
00000250: 2ac1 e13d 5c17 413e 1a82 4c3f 39ca 36bf
00000260: 9333 41be 401f 1e3f f16f 22bd 5c98 51bf
00000270: 2b3d 2a3d 8503 e3bc 3fde f8bd dff9 083e
00000280: 4c64 c43c c98f 923c 4bff 783d 2947 0d3e
00000290: d378 a7bd a07c 9dbd 524f 923d 8fb6 4a3e
000002a0: f24f 533c e229 143e a4fd 103e 5eef 59bc
000002b0: fe09 a03d 4f7e 2c3b 760f 79bd 3417 11be
000002c0: 645a 61bd 8ee3 e3bc 3076 353d 6012 513e
000002d0: fa1b 6d3f 78c5 f0bf 626e 6f3d 1cd6 febd
000002e0: 8b9b 0c3d 7d46 a63d 5a6e b63d 441a 213c
000002f0: 4529 003e ee1a fabd 1e53 6ebc c3dc 5cbe
00000300: aee0 85bc 0870 4ebe e663 b6bd 360a 13bd
00000310: c983 073e a9f3 1bbd 66a1 fcbd cc60 17be
00000320: 9e6a 29bd 7245 483e bdfd 50bf c327 bebe
00000330: 3577 81bf 5ac3 ffbe eaec 273f 9267 863e
00000340: fda8 d3bd aa99 64be 68e1 833d eeb3 0cbd
00000350: 46f5 2e3e 3a5e 023e 291e 2a3e 7702 f83d
00000360: 8353 363e 9591 613e 9e3e 563c e0a8 063d
00000370: b7c4 773d a533 573e f18f cebd f765 dc3d
00000380: 5d11 ccbd 4c1c 7abe abf8 90be 3e1a 56be
00000390: f599 e13b 937c 123e ba98 1abf 5b77 85bf
000003a0: 982c e0be 9d08 a03b 5221 643d 5201 94bd
000003b0: 7523 943d bbcd d43a f0f3 14be 60de 853d
000003c0: 66f7 153d b38f b1bd f24d 38bd 780c 12bc
000003d0: b6a8 8dbc e74a f43d a641 ce3d 2e1e 2dbe
000003e0: 1ace 59be 06c1 a7bd 6adb b73b adc0 8b3c
000003f0: 26d8 8ebd 43c5 0b3e 39e7 ab3d 45ce 623e

linear1.bias f4 [256]
-0.028666716 0.032579165 0.0 -0.04742867 -0.031069783 0.042834383 0.03726463 -0.003524925
-0.0013952829 -0.04582624 -0.0058460985 -0.02146634 0.00610955 0.023028407 -0.10156999 -0.012605799
0.020177811 -0.031936683 0.012248424 0.008378458 0.0051922738 -0.03180004 -0.04460608 0.060317133
-0.031871904 -0.04135575 -0.041064426 0.018517042 -0.027124397 0.009891553 0.17465168 -0.010004248
-0.048676543 0.010081257 -0.018116014 -0.06568194 -0.025320029 -0.012263368 -0.013566432 -0.04471838
0.0088228 -0.04284747 0.040336616 -0.015529974 0.013695629 -0.037248384 -0.010024175 0.038817696
-0.014703497 0.049277883 0.043310296 -0.02282043 -0.030377084 -0.033160478 -0.018271176 0.14788154
0.09257063 -0.031118287 -0.008566196 -0.016332125 0.09724613 -0.020482091 0.053763147 0.051821586
-0.0070507005 0.029473905 -0.00881415 0.090335526 -0.0022413356 0.013951538 -0.0012389078 0.016569644
-0.018462084 0.0 0.012664163 -0.014469492 -0.030367421 -0.07454111 0.033304438 -0.038370155
0.014644146 -0.011924722 -0.026918003 0.03677215 -0.039192036 -0.06593306 -0.009228114 0.03246009
0.05734348 0.02500185 0.0032733364 -0.0743503 -0.009506211 -0.03359027 0.023790868 -0.004013973
-0.052321628 0.027950939 -0.0228971 0.0016908344 -0.03729232 -0.01860419 -0.014401494 -0.010604968
0.051003385 -0.017191231 -0.026381014 -0.039611846 -0.044713803 -0.030676987 -0.005392976 0.00738623
0.13007462 0.03381041 -0.025353063 0.03473985 0.033858072 -0.043195657 0.005527815 -0.0509357
-0.013930667 0.041521575 -0.011229726 0.07731077 -0.032836463 0.084350854 -0.046328157 0.0
-0.0582341 -0.006126678 -0.04670959 -0.042602956 -0.014153137 -0.11042656 0.0 0.023619195
0.0449975 -0.04833181 -0.025567424 -0.045449685 -0.022306107 -0.078794084 0.016670898 -0.022876568
0.01069036 -0.03379719 0.049845763 -0.023597246 0.036685724 0.041351262 -0.009088679 -0.0047055627
-0.08601478 -0.023791308 -0.0050345766 0.048091672 -0.05143304 -0.012086683 0.0189993 0.0
0.014189254 -0.03269569 -0.042759065 -0.07142461 0.024122076 -0.02462778 -0.10288268 -0.05971717
0.016502246 0.08124418 -0.026140356 -0.08859848 -0.041195955 0.023955027 -0.00078126957 -0.009855782
-0.023344085 -0.0021134622 0.071057 0.0 0.011795182 -0.02764627 0.01952473 0.094943516
0.0011321083 -0.0007159269 0.0394169 0.07804451 -0.01007616 0.053174105 -0.009478658 -0.03549583
-0.0552059 0.0060449787 0.0 0.046452653 -0.025843387 -0.00990779 -0.0037270808 -0.015907483
0.007218059 -0.011121215 -0.0032357352 0.051604215 0.11452055 -0.08163414 -0.008541937 0.053043738
-0.012364899 -0.0066852877 -0.07997307 -0.02299912 -0.0014518893 -0.022791937 -0.0026480763 -0.048749942
-0.004805216 -0.026593601 -0.048033386 -0.050250843 -0.0037360229 0.0 0.048149686 -0.02983813
0.0006207353 0.08820303 -0.021209085 -0.049379952 -0.018688913 -0.09068848 -0.01696364 -0.016960956
0.03353132 -0.009132127 -0.00034022905 -0.023986438 -0.007840652 0.12508354 -0.027962694 -0.019996597
-0.02202661 -0.013181465 -0.030223338 -0.0018137733 -0.058299374 -0.01776552 -0.04971427 -0.024325501
-0.024896288 0.026462901 -0.01688245 -0.010578341 0.026755463 0.06543799 -0.009771318 0.06655871
00000000: 76d6 eabc bb71 053d 0000 0000 9144 42bd
00000010: 0f86 febc 1b73 2f3d cca2 183d 6e02 67bb
00000020: ede1 b6ba 4cb4 3bbd a190 bfbb 2eda afbc
00000030: 9f32 c83b 12a6 bc3c ed03 d0bd 8e88 4ebc
00000040: f04b a53c 0ad0 02bd 9dad 483c cd45 093c
00000050: f323 aa3b c240 02bd ddb4 36bd 190f 773d
00000060: 1d8c 02bd a664 29bd 2c33 28bd 0db1 973c
00000070: fc33 debc 2e10 223c e4d7 323e dbe8 23bc
00000080: 0e61 47bd db2b 253c 0968 94bc 4184 86bd
00000090: f36b cfbc 4bec 48bc bd45 5ebc 9f2a 37bd
000000a0: 818d 103c d480 2fbd 0238 253d 6f71 7ebc
000000b0: a263 603c c391 18bd 703c 24bc 4eff 1e3d
000000c0: f0e6 70bc 9bd7 493d 2366 313d e9f1 babc
000000d0: 5dd9 f8bc 48d3 07bd 6fad 95bc 426e 173e
000000e0: ac95 bd3d c7eb febc 3b59 0cbc f3ca 85bc
000000f0: fb28 c73d 0fca a7bc bf36 5c3d df42 543d
00000100: 9009 e7bb 4273 f13c 3969 10bc d501 b93d
00000110: 5fe3 12bb fe94 643c d962 a2ba 10bd 873c
00000120: cc3d 97bc 0000 0000 597d 4f3c 7311 6dbc
00000130: 19c5 f8bc 02a9 98bd 3c6a 083d 062a 1dbd
00000140: 00ee 6f3c e95f 43bc 2583 dcbc 659e 163d
00000150: d487 20bd ea07 87bd 8431 17bc dff4 043d
00000160: ffe0 6a3d aed0 cc3c 7985 563b f844 98bd
00000170: f0bf 1bbc f395 09bd 11e5 c23c a587 83bb
00000180: 344f 56bd 5ef9 e43c b392 bbbc fd9e dd3a
00000190: d5bf 18bd d067 98bc 3ef4 6bbc 76c0 2dbc
000001a0: ede8 503d a0d4 8cbc ff1c d8bc 0840 22bd
000001b0: d225 37bd 4e4e fbbc 90b7 b0bb 3008 f23b
000001c0: 4832 053e c97c 0a3d 3ab1 cfbc 5f4b 0e3d
000001d0: c3ae 0a3d eeed 30bd ac22 b53b f4a1 50bd
000001e0: 743d 64bc 8712 2a3d e2fc 37bc 1c55 9e3d
000001f0: 877f 06bd 24c0 ac3d 98c2 3dbd 0000 0000
00000200: e186 6ebd 4dc2 c8bb 8e52 3fbd 7080 2ebd
00000210: 8fe2 67bc 5227 e2bd 0000 0000 0b7d c13c
00000220: 4c4f 383d 93f7 45bd c672 d1bc 7329 3abd
00000230: 4cbb b6bc cb5e a1bd 6891 883c a467 bbbc
00000240: 9f26 2f3c ec6e 0abd 122b 4c3d 034f c1bc
00000250: c543 163d f15f 293d afe8 14bc 1f31 9abb
00000260: 8428 b0bd fde5 c2bc 17f9 a4bb c6fb 443d
00000270: 74ab 52bd 3907 46bc 6ca4 9b3c 0000 0000
00000280: 0b7a 683c eaeb 05bd 2124 2fbd 1147 92bd
00000290: a99b c53c 33c0 c9bc 28b4 d2bd fe99 74bd
000002a0: b82f 873c 5963 a63d 4d24 d6bc 1f73 b5bd
000002b0: 17bd 28bd 553d c43c 1dce 4cba 257a 21bc
000002c0: 183c bfbc 0382 0abb 5586 913d 0000 0000
000002d0: 9440 413c 6e7a e2bc 54f2 9f3c bf71 c23d
000002e0: 4063 943a 0aad 3bba 9e73 213d cdd5 9f3d
000002f0: 7a16 25bc 17cd 593d 604c 1bbc 1364 11bd
00000300: 951f 62bd f514 c63b 0000 0000 2345 3e3d
00000310: 83b5 d3bc 4954 22bc 0a42 74bb 6950 82bc
00000320: 7885 ec3b c235 36bc a10e 54bb f15e 533d
00000330: c089 ea3d cd2f a7bd 7bf3 0bbc 6444 593d
00000340: 2596 4abc 4210 dbbb ecc8 a3bd a768 bcbc
00000350: 524d beba 28b6 babc 598b 2dbb 05ae 47bd
00000360: 1375 9dbb d3da d9bc a8be 44bd d4d3 4dbd
00000370: 10d8 74bb 0000 0000 9b38 453d 186f f4bc
00000380: d7b8 223a caa3 b43d adbe adbc a242 4abd
00000390: 7e19 99bc e2ba b9bd 55f7 8abc b4f1 8abc
000003a0: 2358 093d eb9e 15bc c560 b2b9 357f c4bc
000003b0: 1476 00bc e615 003e 0512 e5bc e7cf a3bc
000003c0: 2671 b4bc 12f7 57bc ef96 f7bc 22bc edba
000003d0: 53cb 6ebd ff88 91bc 31a1 4bbd 4646 c7bc
000003e0: 4df3 cbbc bac8 d83c 104d 8abc c750 2dbc
000003f0: 462e db3c 5a04 863d e117 20bc ef4f 883d

linear2.weight f4 [256, 256]
0.0039279833 0.054054443 -0.073435515 -0.036488052 -0.056539383 0.076969646 -0.09220582 -0.107462965
-0.090306014 0.034813803 -0.044308558 0.04363072 -0.14055298 -0.16242668 -0.10377957 -0.08148023
0.0026863045 0.027992874 -0.007127829 -0.056477133 0.0668269 -0.07090155 0.076814264 -0.06852018
-0.053779807 -0.0054593063 0.045615938 -0.10958001 -0.058226764 -0.016365834 0.07673128 -0.0636511
0.0036509247 -0.13015375 -0.07887444 -0.021354452 -0.07320952 0.01865015 -0.02896954 -0.063052416
-0.1072293 -0.06137103 -0.03629647 -0.06678731 -0.05631599 0.0036777298 0.046374716 0.015644362
-0.038231786 -0.0875747 0.02591341 0.10571234 0.036056824 0.07864403 -0.017383466 -0.06350074
-0.008681555 0.026481964 0.08374595 -0.05428462 0.06875089 0.030048005 0.004062185 0.0537382
-0.017224096 -0.07579294 -0.10077142 0.081884645 -0.100036874 0.026243785 0.0041787513 -0.04855038
-0.09039749 -0.0949145 -0.086477384 -0.014674582 -0.054164644 -0.019432226 0.014776226 0.006656712
-0.06451556 -0.058132622 -0.05501814 -0.039771676 -0.12388653 -0.07968786 0.07804083 -0.10261449
-0.038211327 0.097962685 0.021867862 -0.03473781 0.024086185 0.05073208 -0.081497684 0.0112689845
0.05749144 -0.045468844 -0.07864105 0.01642658 0.010007672 -0.019081498 0.00018541396 -0.0446267
-0.08879214 -0.0040620235 0.010887995 0.055181433 0.052668903 0.027251296 0.058302335 0.052709054
0.04894811 -0.09263912 0.07177151 -0.09379783 -0.07704688 0.077643685 -0.097395495 -0.09956251
-0.06068065 0.07464837 -0.039209772 0.018092833 -0.096862376 0.022171937 -0.08845557 -0.06325747
0.03757202 -0.08676169 0.06927838 -0.12005688 -0.04326591 -0.12255993 -0.021538988 0.06918057
-0.06537777 -0.09208819 -0.11117506 5.071027e-05 0.0063295895 -0.056055773 0.06911338 -0.08727005
0.09583657 -0.06814659 -0.11252232 -0.004189576 0.0016032234 -0.08082109 -0.072193235 -0.14033128
-0.096731484 -0.066725105 -0.045048274 -0.08505058 0.07808118 0.037262462 -0.014554713 0.069798745
0.028463295 -0.07771377 0.036761794 0.04402328 0.031358756 -0.06037537 -0.06737307 -0.06071001
-0.08482287 0.03677017 -0.095129654 -0.13514481 0.035198934 -0.05615191 -0.11270966 0.06682696
0.030573577 -0.111779235 -0.058247086 0.052868746 -0.026677717 -0.06559635 -0.043277793 -0.03682442
-0.030234464 0.061778832 -0.07453555 -0.0134868035 0.001091603 -0.09604664 -0.020481504 0.04292997
0.066295035 0.04788361 -0.0645607 0.020737242 -0.06166562 0.07578357 -0.025692169 0.055802062
0.041168187 0.005683884 0.010650119 -0.0029847724 0.06568099 0.061298348 0.050985273 0.018629065
-0.02418326 -0.08813789 0.055277105 -0.011230578 -0.076752506 0.05597002 -0.045654643 0.020947374
-0.0674709 -0.018499978 -0.10753183 0.030559674 -0.06681144 -0.031613775 0.011214219 -0.09944802
-0.0042259614 -0.03256622 -0.1383863 -0.0071872845 -0.07332505 0.04389329 -0.082585305 -0.0012774108
0.022243654 0.080087155 0.052993767 -0.07948175 -0.10717408 0.03015673 0.0019258966 0.012526311
-0.08851894 -0.022618972 -0.08038346 -0.029711973 -0.1351582 -0.0691937 -0.0780914 -0.0077688186
0.017547138 -0.0098443655 -0.02357383 0.010922838 -0.015340285 -0.10669912 0.0034762763 -0.09856476
00000000: 50b6 803b 3168 5d3d 5c65 96bd 7f74 15bd
00000010: d795 67bd 43a2 9d3d 68d6 bcbd 8b15 dcbd
00000020: 5cf2 b8bd eb98 0e3d e47c 35bd 20b6 323d
00000030: 1fed 0fbe 2e53 26be 628a d4bd 1bdf a6bd
00000040: b60c 303b 5051 e53c 9090 e9bb 9154 67bd
00000050: 8bdc 883d d534 91bd cc50 9d3d 4f54 8cbd
00000060: 3748 5cbd fbe3 b2bb c7d7 3a3d 7c6b e0bd
00000070: 307f 6ebd a411 86bc 4a25 9d3d 825b 82bd
00000080: 5a44 6f3b 0647 05be ec88 a1bd 88ef aebc
00000090: dfee 95bd 33c8 983c 8751 edbc a021 81bd
000000a0: 099b dbbd 3060 7bbd 9bab 14bd c9c7 88bd
000000b0: 98ab 66bd 1106 713b 6af3 3d3d 9b28 803c
000000c0: ef98 1cbd 5d5a b3bd 5c48 d43c b67f d83d
000000d0: 52b0 133d 1f10 a13d c567 8ebc ad0c 82bd
000000e0: 153d 0ebc b4f0 d83c ff82 ab3d 8d59 5ebd
000000f0: 44cd 8c3d 3c27 f63c 141c 853b 961c 5c3d
00000100: 8c19 8dbc 5439 9bbd 3f61 cebd 23b3 a73d
00000110: 22e0 ccbd 35fd d63c e8ed 883b c3dc 46bd
00000120: 5222 b9bd 8962 c2bd 0e1b b1bd a86d 70bc
00000130: bfdb 5dbd 5530 9fbc fc17 723c 8c20 da3b
00000140: bc20 84bd 791c 6ebd b35a 61bd a0e7 22bd
00000150: 39b8 fdbd 6433 a3bd dfd3 9f3d 8c27 d2bd
00000160: 7b83 1cbd a9a0 c83d 3b24 b33c 3c49 0ebd
00000170: 6450 c53c 71cc 4f3d 42e8 a6bd 8ca1 383c
00000180: 257c 6b3d 8a3d 3abd 8f0e a1bd 0991 863c
00000190: 38f7 233c cd50 9cbc ae6b 4239 7dca 36bd
000001a0: a7d8 b5bd b91a 85bb 9063 323c ed05 623d
000001b0: 59bb 573d 1c3e df3c 6ece 6e3d 73e5 573d
000001c0: d07d 483d 94b9 bdbd f1fc 923d 1419 c0bd
000001d0: c1ca 9dbd a703 9f3d 4a77 c7bd 6ee7 cbbd
000001e0: 468c 78bd 3fe1 983d 6d9a 20bd 6c37 943c
000001f0: c85f c6bd eca1 b53c 3228 b5bd 228d 81bd
00000200: 1ee5 193d 1db0 b1bd d3e1 8d3d 62e0 f5bd
00000210: 9837 31bd b300 fbbd 8872 b0bc 8bae 8d3d
00000220: c8e4 85bd bc98 bcbd c0af e3bd bdb1 5438
00000230: 7268 cf3b bd9a 65bd 518b 8d3d a4ba b2bd
00000240: f745 c43d 7090 8bbd 1a72 e6bd b648 89bb
00000250: 4023 d23a 8785 a5bd 0cda 93bd 01b3 0fbe
00000260: 281b c6bd 2ca7 88bd 8a84 38bd 002f aebd
00000270: 07e9 9f3d 86a0 183d e476 6ebc a5f2 8e3d
00000280: db2b e93c 6628 9fbd 8993 163d c151 343d
00000290: 0a72 003d 2a4c 77bd e4fa 89bd 0fab 78bd
000002a0: 9db7 adbd 519c 163d 56d3 c2bd 6763 0abe
000002b0: c22c 103d 8cff 65bd 52d4 e6bd 93dc 883d
000002c0: 7075 fa3c 83ec e4bd 7f94 6ebd e68c 583d
000002d0: 3a8b dabc 6157 86bd 0e44 31bd 34d5 16bd
000002e0: 44ae f7bc cd0b 7d3d 18a6 98bd c1f7 5cbc
000002f0: 1e14 8f3a 1ab4 c4bd d4c8 a7bc 56d7 2f3d
00000300: b1c5 873d 9b21 443d 6638 84bd 26e1 a93c
00000310: 1795 7cbd 6b34 9b3d 6278 d2bc b490 643d
00000320: f99f 283d e03f ba3b d67d 2e3c 2c9c 43bb
00000330: c183 863d fa13 7b3d efd5 503d fb9b 983c
00000340: f91b c6bc a381 b4bd 3f6a 623d 7500 38bc
00000350: 6b30 9dbd d240 653d 5d00 3bbd d499 ab3c
00000360: 2f2e 8abd 448d 97bc a639 dcbd 4858 fa3c
00000370: 70d4 88bd 727d 01bd d8bb 373c 67ab cbbd
00000380: ef79 8abb 2864 05bd 23b5 0dbe 5083 ebbb
00000390: 722b 96bd 73c9 333d 7c22 a9bd cb6e a7ba
000003a0: 5338 b63c bc04 a43d fe0f 593d 54c7 a2bd
000003b0: 167e dbbd 3f0b f73c 5e6e fc3a 283b 4d3c
000003c0: 6b49 b5bd 6c4b b9bc 15a0 a4bd 8666 f3bc
000003d0: e966 0abe 6db5 8dbd 62ee 9fbd 9391 febb
000003e0: 04bf 8f3c 434a 21bc e81d c1bc b4f5 323c
000003f0: d255 7bbc 1185 dabd 3dd2 633b 52dc c9bd

linear2.bias f4 [256]
-0.06054644 0.016374547 -0.12917826 0.050059102 -0.16026941 0.010042705 0.22626036 0.22793297
0.042215258 -0.081181966 0.17265391 0.15380003 0.03640383 -0.15576738 0.18964756 0.10797481
0.010829198 0.09587393 0.13312034 -0.1057135 -0.11485111 -0.030898243 0.33850425 0.30419508
-0.056508385 0.12020671 0.31741032 0.0037327942 0.024103444 -0.08464302 -0.19518799 -0.055840656
0.17348416 0.12813121 -0.10713428 0.20562755 -0.11363519 -0.17323174 -0.0424659 -0.19432826
-0.26587355 0.13918261 0.03510592 0.14155343 0.28047854 0.1635697 -0.06373655 0.12574336
0.036026865 0.21439928 0.19058995 0.10384489 -0.10568145 -0.17244998 0.21019712 0.22726321
0.027478049 0.10566049 0.2371698 -0.083119534 0.06524009 -0.2522449 -0.016261838 0.059601728
-0.0633168 0.034564722 -0.094242916 0.051085867 -0.20064569 -0.005292526 0.13654768 -0.18245001
0.12443185 0.15017886 0.16162762 0.23587841 0.13588817 0.15462056 -0.14495455 0.07440968
0.022621864 -0.21785675 -0.11319188 0.35781813 0.24301487 0.33556953 0.06616097 0.08161275
-0.0081176115 -0.09057174 -0.042476606 0.19115685 -0.10908896 -0.05742618 -0.013957032 0.06187581
-0.12933725 -0.110424 -0.03241656 0.12757841 -0.12598106 0.036318727 0.19114248 -0.03917154
-0.160465 -0.32929975 0.24620561 -0.010796609 -0.18183185 0.0412196 0.14430928 0.09306921
-0.0356253 0.13109532 0.21785825 0.20740007 0.21548459 0.13478504 0.33020425 -0.18744765
-0.044208426 0.05123752 -0.030223465 0.17409325 -0.25953797 0.06883077 0.18644075 -0.019639788
-0.10655751 0.021884983 -0.03772461 -0.15753981 -0.10327046 0.03519808 0.15544285 -0.18607149
-0.045449693 0.04854387 -0.31972128 -0.030206656 -0.012364272 0.23353812 -0.10894502 0.015882287
-0.10917851 -0.11376034 0.19083351 0.13811344 0.22591573 0.20930736 -0.067115135 0.0062647285
0.27468696 0.07091103 0.24040219 -0.083814256 0.09922239 0.11622302 0.0042133564 0.24903657
-0.08063976 0.0031962178 -0.19464391 0.08012362 -0.11714461 0.046257503 0.016203808 -0.097809955
0.30613932 0.054659817 0.01971444 0.045766994 0.04332551 0.06548937 0.22232747 -0.26940706
-0.0326378 -0.17185256 0.067922994 -0.27477396 -0.34242383 0.4545879 -0.07507086 -0.046344504
-0.10511838 -0.0732018 -0.1501715 0.08117147 0.05311034 0.24721693 0.035095137 -0.017635444
-0.059512135 -0.20026664 -0.09837623 0.34616613 -0.093583055 -0.17144944 -0.06524457 -0.18521565
0.082640275 0.1386696 0.03786924 -0.18143383 0.12057591 0.26595455 0.056642193 -0.091026425
-0.07831648 -0.11797963 0.118778944 0.19695632 0.093048826 0.15668526 0.2210867 0.0425251
0.16115855 0.05170431 0.1490148 -0.2089294 -0.07163781 0.087748416 0.20873815 -0.21702752
0.15902688 0.05881604 0.10646894 -0.17712867 -0.044605404 -0.06161063 -0.061339334 -0.04965446
0.21894152 -0.050673585 -0.14550854 -0.19374366 -0.17722307 -0.102931775 -0.10358327 0.088943094
0.17552915 -0.1972519 -0.07477521 0.11654784 -0.14375047 0.012383216 0.11631133 -0.1709318
0.4250796 0.0012008075 0.32753503 0.013965706 0.024299543 -0.109485656 0.10836897 -0.13213606
00000000: 8bff 77bd ea23 863c 4e47 04be c60a 4d3d
00000010: aa1d 24be 288a 243c ccb0 673e 4367 693e
00000020: e8e9 2c3d bb42 a6bd 30cc 303e c17d 1d3e
00000030: 2f1c 153d 7c81 1fbe f832 423e e621 dd3d
00000040: f36c 313c 8d59 c43d b350 083e 5280 d8bd
00000050: 0f37 ebbd 501e fdbc 6e50 ad3e 75bf 9b3e
00000060: 5675 67bd f02e f63d 9b83 a23e e5a1 743b
00000070: 9674 c53c 5259 adbd 5cdf 47be 2cb9 64bd
00000080: d5a5 313e d434 033e 3869 dbbd 0790 523e
00000090: 91b9 e8bd a963 31be b9f0 2dbd fdfd 46be
000000a0: 9420 88be e385 0e3e 3acb 0f3d 62f3 103e
000000b0: e29a 8f3e d17e 273e 4f88 82bd dec2 003e
000000c0: e890 133d 7c8b 5b3e 032a 433e a1ac d43d
000000d0: 846f d8bd ba96 30be ea3d 573e b0b7 683e
000000e0: a519 e13c 8764 d83d a4dc 723e 933a aabd
000000f0: 999c 853d 3e26 81be 8c37 85bc f120 743d
00000100: 3dac 81bd bd93 0d3d 6e02 c1bd 6a3f 513d
00000110: 1076 4dbe ed6c adbb 28d3 0b3e 2dd4 3abe
00000120: 20d6 fe3d 7dc8 193e b681 253e 1c8a 713e
00000130: 4526 0b3e da54 1e3e f76e 14be 1a64 983d
00000140: 7d51 b93c d715 5fbe 25d1 e7bd f033 b73e
00000150: e4d8 783e c5cf ab3e 677f 873d 9624 a73d
00000160: bbff 04bc ad7d b9bd f3fb 2dbd 9fbe 433e
00000170: 086a dfbd b737 6bbd 09ac 64bc 7d71 7d3d
00000180: fc70 04be fa25 e2bd 3ac7 04bd eaa3 023e
00000190: 2e01 01be f2c2 143d dbba 433e 5672 20bd
000001a0: f050 24be fa99 a8be 531d 7c3e 43e4 30bc
000001b0: 2132 3abe e2d5 283d d0c5 133e 129b be3d
000001c0: d6eb 11bd da3d 063e 3c16 5f3e af60 543e
000001d0: fea7 5c3e 1705 0a3e 8810 a93e 47f2 3fbe
000001e0: e513 35bd 6fde 513d 3397 f7bc 8045 323e
000001f0: 29e2 84be 26f7 8c3d 53ea 3e3e 9fe3 a0bc
00000200: d33a dabd 2348 b33c 1f85 1abd 1e52 21be
00000210: 777f d3bd dd2b 103d 692c 1f3e 8689 3ebe
00000220: 7529 3abd f0d5 463d 82b2 a3be f373 f7bc
00000230: 8493 4abc 9e24 6f3e 911e dfbd 921b 823c
00000240: fc98 dfbd 2efb e8bd dc69 433e 9c6d 0d3e
00000250: 7456 673e ab54 563e a973 89bd 5a48 cd3b
00000260: c5a3 8c3e cd39 913d fe2b 763e cfa6 abbd
00000270: 1c35 cb3d 5606 ee3d 3210 8a3b 7103 7f3e
00000280: 7526 a5bd a377 513b bc50 47be da17 a43d
00000290: 83e9 efbd 8278 3d3d d9bd 843c 9650 c8bd
000002a0: 4bbe 9c3e f9e2 5f3d 2d80 a13c 2c76 3b3d
000002b0: 1776 313d 4a1f 863d d0a9 633e b9ef 89be
000002c0: 37af 05bd 1efa 2fbe 361b 8b3d 2caf 8cbe
000002d0: 2d52 afbe bfbf e83e c0be 99bd bcd3 3dbd
000002e0: 4e48 d7bd d3ea 95bd 8fc6 19be 3a3d a63d
000002f0: 3a8a 593d 6f26 7d3e ebbf 0f3d 3578 90bc
00000300: ffc2 73bd b312 4dbe 7a79 c9bd b03c b13e
00000310: 79a8 bfbd 7190 2fbe f29e 85bd 2ca9 3dbe
00000320: 4e3f a93d 67ff 0d3e c71c 1b3d cac9 39be
00000330: 81f0 f63d 322b 883e a501 683d 106c babd
00000340: 6464 a0bd 4e9f f1bd 6042 f33d ebae 493e
00000350: 6290 be3d 1a72 203e 8d64 623e cd2e 2e3d
00000360: bf06 253e e6c7 533d 5697 183e 97f1 55be
00000370: d8b6 92bd 71b5 b33d 74bf 553e 763c 5ebe
00000380: f1d7 223e 17e9 703d 630c da3d 3861 35be
00000390: 28b4 36bd 6e5b 7cbd f43e 7bbd 7a62 4bbd
000003a0: 3532 603e 1b8f 4fbd 3100 15be bd64 46be
000003b0: f779 35be e5cd d2bd 7723 d4bd cc27 b63d
000003c0: eabd 333e 67fc 49be bf23 99bd a2b0 ee3d
000003d0: 5333 13be f9e2 4a3c a234 ee3d bf08 2fbe
000003e0: 09a4 d93e 6a64 9d3a acb2 a73e 6bd0 643c
000003f0: d60f c73c 043a e0bd 8df0 dd3d ad4e 07be

mean_linear.weight f4 [3, 256]
-0.0152192805 -0.5464328 0.65082896 0.12871161 -0.17851451 0.5287861 0.21007311 -0.1839512
0.09853738 0.076480895 0.011595054 0.31881487 0.10235697 -0.46582556 0.4567808 -1.014425
0.4877421 0.20640007 -0.20974547 -0.1815835 0.04102001 0.5287948 -0.04607513 0.20757692
-0.09042671 0.12712751 0.19798528 0.07246694 -0.2911699 0.17205025 -0.5138631 -0.82783467
0.27261603 -0.022050206 -0.6220764 -0.07153742 -1.6911833 0.12641616 -0.4869336 0.026593944
-0.13711475 0.18671602 -0.12334654 0.5671208 0.7382395 0.15296249 -0.29839727 0.19752797
-0.06315042 0.31919268 -0.64293283 0.35412574 -0.48282564 -0.063526236 0.6918006 0.34657001
-0.20051298 -0.08757645 -0.31450117 -0.39161032 -0.08778116 -0.6477136 0.100284085 -0.17444125
0.014165277 -0.039950017 -0.2707303 0.25406724 -0.1158575 -0.10385465 -0.2502606 -0.16397023
-0.16955407 0.28536314 -0.15963472 0.14312093 0.8628708 -0.5049508 -0.47176108 0.081237786
-0.08552178 -0.062263105 -0.114382796 0.022737695 0.41086107 0.14251344 0.078113094 -0.008968451
-0.36717978 -0.1394101 0.28371865 0.0071326806 -0.3772871 -0.12681337 0.27773088 0.14605822
-0.6250797 0.18918085 -0.079938 0.44746703 0.42146614 0.29377437 -0.061882313 -0.114310615
-0.1169253 -0.37318695 0.50585836 -0.10117744 -0.14698137 -0.17637137 -0.17100154 0.3927894
0.07528439 0.0071236324 0.16436818 0.49044234 0.41214794 0.78351444 0.20602356 0.28366992
-0.22787946 0.11857209 -0.06261375 0.3255884 -0.39319134 -0.21636032 0.10972462 0.30319914
-0.57923967 0.057912115 -0.17546661 -0.2572846 -0.17652075 0.0635629 -0.3686665 -0.19031109
-0.34960896 0.07551031 -0.21523137 -0.45328003 0.2661013 0.25448906 -0.05168654 0.32143405
-0.11064131 0.022950886 -1.0526534 -0.13866846 0.38634613 0.053232692 -0.3835924 0.051021226
0.57616824 -0.20433237 -0.016860195 0.070766084 0.29100236 0.1993258 -0.4034888 0.34731606
-0.6605607 0.059352543 -0.10147292 0.11532438 0.21813518 0.31866795 -0.26067433 0.029392762
0.23724376 -0.20237929 -0.033627775 0.24540973 -0.40646648 -0.38427532 -0.51566124 -0.018529397
0.1139265 0.20826207 0.61342865 -0.14017062 -0.18283068 -0.030413795 -0.29615757 -0.3363925
0.44308656 0.06679419 0.17149489 -0.13207684 -0.19299033 0.21457589 -0.5494546 -0.32007366
0.021818072 -0.53784156 0.37124756 -0.11994577 0.0015814007 -0.018033622 -0.056497317 0.21116221
0.09383124 0.17278597 -0.28944117 -0.35316202 0.11816742 0.4416347 -0.37454942 0.2345089
-0.5237795 0.5096459 0.32409385 0.18777944 -0.121552005 -0.064787336 0.63584715 0.042726126
-0.06340998 -0.044120617 -0.23534074 -0.4255883 -0.04523639 0.07840254 -0.07455954 -0.013727407
0.14275324 -0.1464849 -0.12332189 -1.4101725 -0.30597737 -0.18225583 -0.24899904 -0.414626
-0.039059307 -0.28088564 0.009423928 0.08569095 -0.0043230453 -0.17418776 -0.25231454 -0.08419908
0.23269387 0.12612174 0.26807868 -0.18810825 0.13812076 -0.039749626 0.10040964 -0.27044603
0.34223533 0.17612812 -0.14620815 0.18691137 0.653741 -0.4928315 -0.026483875 0.011949589
00000000: 4a5a 79bc 05e3 0bbf ba9c 263f facc 033e
00000010: 82cc 36be 875e 073f 681d 573e b45d 3cbe
00000020: f7cd c93d 04a2 9c3d 2ef9 3d3c b43b a33e
00000030: 88a0 d13d b080 eebe 2cdf e93e aed8 81bf
00000040: 55b9 f93e 8a5a 533e 84c7 56be 06f1 39be
00000050: 9904 283d 195f 073f 47b9 3cbd 0b8f 543e
00000060: a431 b9bd b72d 023e a7bc 4a3e 8c69 943d
00000070: 3914 95be f12d 303e 888c 03bf f9ec 53bf
00000080: 5494 8b3e a2a2 b4bc 6640 1fbf 3682 92bd
00000090: b278 d8bf 3d73 013e 5c4f f9be 8bdb d93c
000000a0: cf67 0cbe 7c32 3f3e 1c9d fcbd d42e 113f
000000b0: 44fd 3c3f 33a2 1c3e 87c7 98be c644 4a3e
000000c0: 0255 81bd 396d a33e 3f97 24bf f84f b53e
000000d0: ec34 f7be 0b1a 82bd d819 313f a071 b13e
000000e0: 4653 4dbe 485b b3bd 4c06 a1be 2681 c8be
000000f0: 9cc6 b3bd 8fd0 25bf be61 cd3d baa0 32be
00000100: 7a15 683c a1a2 23bd 299d 8abe 1a15 823e
00000110: b246 edbd bfb1 d4bd 2822 80be d0e7 27be
00000120: 959f 2dbe 1e1b 923e 4977 23be 4b8e 123e
00000130: 1ae5 5c3f 7544 01bf ab8a f1be ff5f a63d
00000140: 0b26 afbd 9907 7fbd 8741 eabd 6744 ba3c
00000150: 625c d23e 0bef 113e c2f9 9f3d 69f0 12bc
00000160: fdfe bbbe 85c1 0ebe 9243 913e 43b9 e93b
00000170: c62b c1be 5ddb 01be be32 8e3e 4990 153e
00000180: 3905 20bf a0b8 413e 89b6 a3bd 661a e53e
00000190: 69ca d73e 9869 963e 4f78 7dbd af1b eabd
000001a0: 8876 efbd 5c12 bfbe ef7f 013f 1e36 cfbd
000001b0: 4982 16be b29a 34be 071b 2fbe b11b c93e
000001c0: b42e 9a3d 5c6d e93b 2250 283e 421b fb3e
000001d0: 0e05 d33e 6794 483f d7f7 523e 2f3d 913e
000001e0: 3c59 69be edd5 f23d a33b 80bd 86b3 a63e
000001f0: 6050 c9be 8f8d 5dbe 4db7 e03d eb3c 9b3e
00000200: 0d49 14bf 4135 6d3d 85ad 33be cfba 83be
00000210: dbc1 34be 442d 823d dbc1 bcbe e9e0 42be
00000220: f2ff b2be 26a5 9a3d 9d65 5cbe 5214 e8be
00000230: 6e3e 883e 644c 823e 44b5 53bd 0193 a43e
00000240: e997 e2bd 7f03 bc3c 59bd 86bf 1bff 0dbe
00000250: 29cf c53e 860a 5a3d 3966 c4be a2fb 503d
00000260: c37f 133f 813c 51be 641e 8abc cfed 903d
00000270: 43fe 943e 101c 4c3e 1696 cebe 69d3 b13e
00000280: 821a 29bf a71b 733d 09d1 cfbd 302f ec3d
00000290: d45e 5f3e 7228 a33e 1b77 85be 17c9 f03c
000002a0: 07f0 723e 843c 4fbe 47bd 09bd b04c 7b3e
000002b0: 601c d0be bcbf c4be 6002 04bf f6ca 97bc
000002c0: 4c52 e93d a742 553e a909 1d3f e388 0fbe
000002d0: f737 3bbe 5a26 f9bc f7a1 97be a33b acbe
000002e0: 3edc e23e 64cb 883d 5b9c 2f3e 273f 07be
000002f0: 429f 45be c8b9 5b3e 0fa9 0cbf b2e0 a3be
00000300: d0bb b23c fcaf 09bf 2914 be3e 21a6 f5bd
00000310: 0147 cf3a 3fbb 93bc bb69 67bd e83a 583e
00000320: 982a c03d ceee 303e a231 94be a7d1 b4be
00000330: c301 f23d f21d e23e f1c4 bfbe 1a23 703e
00000340: 6a16 06bf 2778 023f a1ef a53e 4149 403e
00000350: 42f0 f8bd 39af 84bd e1c6 223f 9701 2f3d
00000360: 17dd 81bd d2b7 34bd 2afd 70be b6e6 d9be
00000370: cb49 39bd 8391 a03d acb2 98bd ebe8 60bc
00000380: e82d 123e 2300 16be 3090 fcbd 8880 b4bf
00000390: 11a9 9cbe 46a1 3abe 9bf9 7ebe dc49 d4be
000003a0: a7fc 1fbd 3ed0 8fbe d266 1a3c bd7e af3d
000003b0: 55a8 8dbb 475e 32be 5f2f 81be 9170 acbd
000003c0: 4d47 6e3e 0f26 013e 9c41 893e 739f 40be
000003d0: 876f 0d3e 81d0 22bd 92a3 cd3d e777 8abe
000003e0: 7839 af3e ee5a 343e 97b7 15be b265 3f3e
000003f0: 925b 273f 6954 fcbe b6f4 d8bc 35c8 433c

mean_linear.bias f4 [3]
0.16095324 -0.1176573 0.007078355
00000000: edd0 243e 4ff6 f0bd 8cf1 e73b

log_std_linear.weight f4 [3, 256]
0.06493779 -0.055370256 -0.095789686 0.02859707 -0.040782787 0.067706816 -0.014839182 -0.029446824
-0.07979807 0.071811944 -0.025791205 0.23912194 -0.04934353 0.06900872 0.14086019 0.20401596
0.33497038 0.040646918 -0.062059283 -0.020857567 -0.08888645 0.020382222 0.010224891 0.031749584
0.06728268 -0.004657313 0.038317557 0.026912149 -0.06579798 -0.045103293 -0.10261978 -0.0999764
0.07265558 -0.09148023 -0.18799402 -0.033319354 0.03334175 -0.043151863 0.43119967 -0.07168566
-0.07729934 0.060624912 0.022217186 0.19078617 0.20995739 0.0062942896 0.15448244 0.0032620667
-0.026463615 0.01234924 -0.14356236 0.023544626 0.011609874 -0.009199039 0.14285143 0.08390895
-0.0298301 -0.0530303 -0.04964265 0.3154724 0.0062267235 0.086515896 0.0652898 -0.08345263
0.08238321 0.025637487 0.046550877 0.05386507 0.0022350613 0.0049994015 -0.14872539 0.031387158
0.04193173 0.12120688 0.054689374 -0.048242353 0.15276925 0.032471623 0.19103333 -0.022592409
-0.028866101 -0.08346445 -0.043934368 -0.07879412 0.09338075 0.021802828 0.06810778 0.049482726
0.099389024 0.0069681406 0.112327434 -0.00257989 0.055981368 -0.024827262 0.04180191 0.07423085
0.24017175 0.053709257 -0.23000155 0.18687168 0.10932796 0.13263652 0.011094987 -0.105541736
-0.0042736665 -0.07956234 0.12877224 -0.009999363 -0.00038771745 -0.050751377 -0.010303434 -0.007084825
0.029157016 0.041301638 -0.0012982538 -0.07886181 0.053751964 0.21760508 -0.038438138 0.21518667
-0.019292232 -0.009553268 0.14051756 0.1650814 -0.07342468 -0.062238965 -0.057432987 0.0774412
-0.06013894 -0.0014880827 0.03002535 0.07726402 0.004054855 -0.074461535 -0.08600058 -0.015052561
0.13172925 -0.0041588927 0.032854736 -0.05766592 -0.114919916 0.112457514 0.044131134 0.17795198
0.014429966 0.010603526 -0.011319229 0.0033312312 0.12204462 -0.016912257 -0.119954124 -0.053589776
0.38270098 -0.058452304 -0.061998777 -0.057270784 0.024966666 -0.056538697 0.19483659 0.10691489
-0.07875339 0.098299116 0.03342014 0.04961621 0.017897239 0.034562174 0.16840816 -0.040668003
0.13480964 0.013432347 -0.030062426 0.053257417 -0.046689127 -0.03492679 -0.02695486 -0.07206045
-0.116137 0.09009864 0.15647241 0.027263405 -0.04636006 -0.46142077 -0.17676057 0.049102236
0.0699183 0.017594475 -0.025428958 -0.014416817 -0.014500779 0.048464056 0.30482048 -0.14082992
0.06500747 -0.030554295 0.0052232333 0.02103287 0.013104615 0.017246027 -0.063310236 -0.18103476
-0.05054739 0.031645548 -0.04742455 0.23545496 -0.037840866 0.10345324 -0.03953743 -0.033731144
-0.023882387 0.15282886 0.13421956 0.057311792 0.026293045 -0.036758877 0.21907274 -0.013732642
0.0064943773 -0.006166355 0.040907726 0.09864975 0.03592448 -0.037444964 -0.043664556 0.08383888
-0.007779652 -0.05462913 -0.08445669 0.45661983 -0.09841516 -0.032940708 -0.036748108 0.088541046
0.03332585 0.18401442 0.045165725 0.015556079 -0.022985205 0.17098387 0.022581777 -0.03711219
-0.01441661 0.004537462 0.0418647 0.058311764 0.03613717 -0.010524822 -0.07041669 -0.02334596
0.100842774 -0.10928036 -0.07055978 0.06674968 0.08991208 0.13430071 0.002475127 -0.018799117
00000000: 1bfe 843d eccb 62bd 622d c4bd 6744 ea3c
00000010: da0b 27bd dfa9 8a3d 0a20 73bc 773a f1bc
00000020: 2c6d a3bd 2412 933d 1448 d3bc 62dc 743e
00000030: 711c 4abd 7254 8d3d a73d 103e 8fe9 503e
00000040: 3d81 ab3e 627d 263d e031 7ebd 7ddd aabc
00000050: 190a b6bd 9ef8 a63c 4d86 273c da0b 023d
00000060: 80cb 893d 609c 98bb dff2 1c3d de76 dc3c
00000070: 17c1 86bd 3bbe 38bd 522a d2bd 6dc0 ccbd
00000080: 73cc 943d fd59 bbbd 8181 40be e079 08bd
00000090: 5c91 083d 02c0 30bd 34c6 dc3e eecf 92bd
000000a0: 1e4f 9ebd d451 783d d100 b63c 735d 433e
000000b0: 12ff 563e 5440 ce3b a530 1e3e 66c8 553b
000000c0: 39ca d8bc 7754 4a3c 0302 13be a9e0 c03c
000000d0: 5737 3e3c 91b7 16bc a547 123e 75d8 ab3d
000000e0: 415e f4bc 4d36 59bd 1756 4bbd 9985 a13e
000000f0: 8b09 cc3b 3f2f b13d a9b6 853d 36e9 aabd
00000100: 87b8 a83d b505 d23c 22ac 3e3d 9fa1 5c3d
00000110: 1b7a 123b 05d2 a33b 784b 18be d28f 003d
00000120: 9bc0 2b3d 503b f83d f701 603d c699 45bd
00000130: 8b6f 1c3e f700 053d 3e9e 433e b713 b9bc
00000140: 9a78 ecbc 69ef aabd 86f4 33bd d05e a1bd
00000150: 683e bf3d d89b b23c 177c 8b3d 66ae 4a3d
00000160: 798c cb3d 0055 e43b ed0b e63d 5f13 29bb
00000170: b84c 653d 8b62 cbbc 7b38 2b3d 5806 983d
00000180: 95ef 753e 3dfe 5b3d 8785 6bbe 4a5b 3f3e
00000190: 56e7 df3d ded1 073e c0c7 353c 4426 d8bd
000001a0: 1d0a 8cbb 95f1 a2bd dfdc 033e 5ed4 23bc
000001b0: 8e46 cbb9 ade0 4fbd bccf 28bc d227 e8bb
000001c0: b2da ee3c e82b 293d 2b2a aaba 4d82 a1bd
000001d0: 052b 5c3d ded3 5e3e 4f71 1dbd e559 5c3e
000001e0: be0a 9ebc 4f85 1cbc d6e3 0f3e 190b 293e
000001f0: ae5f 96bd 49ee 7ebd da3e 6bbd 7e99 9e3d
00000200: 4054 76bd c50b c3ba b9f7 f53c 993c 9e3d
00000210: 97de 843b 4a7f 98bd 1221 b0bd 049f 76bc
00000220: 08e4 063e 5247 88bb b092 063d 1a33 6cbd
00000230: 225b ebbd 2050 e63d d9c2 343d 0b39 363e
00000240: aa6b 6c3c 69ba 2d3c 4a74 39bc c950 5a3b
00000250: 88f2 f93d 938b 8abc 82aa f5bd f480 5bbd
00000260: 62f1 c33e af6b 6fbd 6ef2 7dbd c594 6abd
00000270: e586 cc3c 1f95 67bd 3e83 473e 32f6 da3d
00000280: 7549 a1bd 0c51 c93d 8fe3 083d 5e3a 4b3d
00000290: 3b9d 923c 1191 0d3d 3073 2c3e 7e93 26bd
000002a0: 8a0b 0a3e 5913 5c3c 7a45 f6bc 7324 5a3d
000002b0: 193d 3fbd 650f 0fbd 70d0 dcbc 6e94 93bd
000002c0: 3cd9 edbd a385 b83d 4e3a 203e 8157 df3c
000002d0: 0ce4 3dbd 583f ecbe b900 35be 6d1f 493d
000002e0: 5331 8f3d 4a22 903c 6450 d0bc 8334 6cbc
000002f0: ad94 6dbc 3f82 463d 6e11 9c3e b835 10be
00000300: a322 853d 004d fabc a827 ab3b 204d ac3c
00000310: bdb4 563c 8a47 8d3c cca8 81bd 2d61 39be
00000320: c80a 4fbd c39e 013d 3f40 42bd 1b1b 713e
00000330: 06ff 1abd 4bdf d33d 00f2 21bd ab29 0abd
00000340: ffa4 c3bc 2b7f 1c3e da70 093e c5bf 6a3d
00000350: 8364 d73c 7a90 16bd 9b54 603e e0fe 60bc
00000360: c9ce d43b 230f cabb dc8e 273d e108 ca3d
00000370: 8c25 133d e45f 19bd 9bd9 32bd b8b3 ab3d
00000380: 73ec febb cbc2 5fbd a1f7 acbd 13ca e93e
00000390: e38d c9bd d6ec 06bd 2f85 16bd 0255 b53d
000003a0: b080 083d 476e 3c3e b2ff 383d edde 7e3c
000003b0: 784b bcbc 6516 2f3e 6bfd b83c f402 18bd
000003c0: a533 6cbc fdae 943b 527a 2b3d 51d8 6e3d
000003d0: 9204 143d 4e70 2cbc a036 90bd 0740 bfbc
000003e0: a886 ce3d 62ce dfbd a581 90bd 0eb4 883d
000003f0: d323 b83d 2086 093e be35 223b 9b00 9abc

log_std_linear.bias f4 [3]
-1.2826134 -1.303042 -1.2778454
00000000: ad2c a4bf 15ca a6bf 7090 a3bf
