hydrone_aerial_underwater_ddpg/scripts/Models/sac_stage_2_air2D_tanh_4layers/240_policy_net.pth (torch_old, 557571 bytes, 10 tensors)

linear1.weight f4 [256, 24]
0	0xbc18beaa	-0.009322802
1	0x3d75368e	0.05986648
2	0xbdffb450	-0.12485564
3	0xbded19cf	-0.11577188
4	0xbba37fcc	-0.0049896
5	0x3a8b72d5	0.0010639081
6	0x3dd0b0ac	0.101899475
7	0x3c419284	0.011814717
8	0xbdb0dea4	-0.08636215
9	0x3d74f5be	0.05980467
10	0xbdaba660	-0.08381343
11	0xbe0fda55	-0.14048131
12	0xbe067f1c	-0.13134426
13	0xbd0367a1	-0.03208125
14	0x3c202b8a	0.0097760055
15	0x3d2d3261	0.042284373
16	0xbe105a68	-0.14096987
17	0xbe2ae2c0	-0.16688061
18	0xbddd1386	-0.107947394
19	0x3d78802c	0.06066911
20	0x3dec3e81	0.11535359
21	0xbde88359	-0.113531776
22	0xbb7ce6d4	-0.0038589733
23	0x3d4947ea	0.04914085
24	0x3e2e896e	0.17044613
25	0x3e1d36ed	0.15352984
26	0x3e575d55	0.21031697
27	0x3d9ca383	0.07648375
28	0xbd007606	-0.031362556
29	0xbde9b10d	-0.11410723
30	0x3d6738de	0.056450717
31	0xbd61e150	-0.055146515
32	0xbe5cc8c4	-0.21560961
33	0xbe2c4e63	-0.16826777
34	0xbe3db359	-0.18525447
35	0xbd91f0ab	-0.07125982
36	0xbced2861	-0.028949918
37	0xbe6c1e05	-0.23058327
38	0xbe85f756	-0.26165265
39	0xbdcb4cfc	-0.09926793
40	0xbd71685b	-0.05893741
41	0x3e2a84fc	0.16652292
42	0x3db16a3c	0.08662841
43	0x3cff4a9a	0.031163502
44	0x3e133ead	0.14379378
45	0xbe502a8d	-0.20328732
46	0xbe5d1af1	-0.21592309
47	0x3d107b2f	0.035273727
48	0x3c8d5e62	0.01725692
49	0x3cf6ea1b	0.030140927
50	0xbe113b09	-0.14182676
51	0x3dc18ef6	0.09451096
52	0xbd9c5217	-0.07632845
53	0xbaf96755	-0.0019027988
54	0x3c9141ab	0.017731508
55	0x3e16da5b	0.14731734
56	0xbd96430b	-0.07337006
57	0x3cca0eed	0.02466532
58	0xbe397c53	-0.18113832
59	0x3d46df25	0.04855265
60	0xbd8226bd	-0.06355045
61	0x3da88f14	0.08230415
62	0xbd228fa2	-0.03968776
63	0xbcbb0f21	-0.022834362
64	0xbbd571ce	-0.0065138107
65	0xbddbcb4c	-0.10732135
66	0xbc60c1f6	-0.013718119
67	0x3ddd9a56	0.10820453
68	0x3eaea77a	0.3411215
69	0x3e22e3cc	0.1590721
70	0xbf70d4eb	-0.9407489
71	0x3e369a18	0.1783222
72	0xbe2389f4	-0.15970594
73	0xbe2352d1	-0.1594956
74	0xbdab0143	-0.0834985
75	0xbdeb725f	-0.11496424
76	0xbc27ff0f	-0.010253682
77	0xbd77aa97	-0.06046542
78	0xbd1ed573	-0.03877778
79	0x3d40ed62	0.047101386
80	0x3e59538b	0.21223275
81	0x3e22f025	0.1591192
82	0x3b51fa2e	0.0032039988
83	0x3e21bf23	0.15795569
84	0xbdff4683	-0.12464621
85	0xbc90a1dc	-0.017655306
86	0xbcec0852	-0.028812561
87	0x3e5451c1	0.20734312
88	0x3e23de9f	0.16002892
89	0x3e013e84	0.12621504
90	0x3dc308db	0.095231734
91	0xbdc83602	-0.09775926
92	0x3cd05782	0.025432352
93	0x3e9d3fd9	0.30712774
94	0x3bf3d078	0.007440623
95	0xbebb2c17	-0.36557075
96	0xbdd1aa9f	-0.102376215
97	0xbe2b4269	-0.16724552
98	0xbd946567	-0.072459035
99	0xbd1f0d66	-0.038831137
100	0xbe0d54b4	-0.13801843
101	0xbd991bc9	-0.07476003
102	0x3bf47724	0.0074604917
103	0x3e1a63b4	0.15077096
104	0x3e3f4c73	0.18681507
105	0x3e17f1cb	0.1483833
106	0x3dceac3e	0.10091446
107	0x3deee73b	0.116651975
108	0x3ce6afd9	0.028160023
109	0x3d32f7b7	0.04369327
110	0x3d8e0db2	0.06936206
111	0xbde536cb	-0.111920916
112	0x3d83fb67	0.064444356
113	0x3d6b8744	0.057502046
114	0xbe24cfd0	-0.16094899
115	0xbe86a3cf	-0.2629685
116	0x3d14b3b0	0.036304176
117	0x3e4e8f1c	0.2017178
118	0xbf3369be	-0.70083225
119	0xbd51244e	-0.051060013
120	0xbe054b0f	-0.13016914
121	0x3d8c5cbf	0.068536274
122	0x3accd7b5	0.001562825
123	0x3d2664cd	0.040623475
124	0xbd812e1b	-0.06307622
125	0xbe1c3108	-0.15253079
126	0x3d49adbc	0.04923795
127	0xbe12f44b	-0.14351003
128	0xbc04d6ce	-0.008107854
129	0x3bc13ae8	0.0058969148
130	0xbd21d5be	-0.03951048
131	0xbda7a9c1	-0.08186675
132	0xbdb59288	-0.08865839
133	0xbe1113d3	-0.14167719
134	0xbe11e8f9	-0.14249028
135	0xbc6980ef	-0.014251932
136	0x3d8853dd	0.06656621
137	0x3d09387f	0.033501144
138	0xbe0bb9c6	-0.13645086
139	0xbdf6b7c0	-0.12046766
140	0x3de0974f	0.1096636
141	0xbdfbf8f7	-0.12303346
142	0x3d80eb98	0.06294936
143	0x3dfa6fab	0.1222833
144	0xbe2202ab	-0.1582133
145	0xbc1b3334	-0.009472657
146	0x3e02f673	0.12789325
147	0x37eabf08	2.798393e-05
148	0x3e65de7e	0.22448155
149	0x3bcce748	0.006253157
150	0x3e046ae8	0.12931406
151	0xbe2ac887	-0.16678058
152	0xbe36910d	-0.1782877
153	0xbdb931b0	-0.0904268
154	0x3d31035d	0.043216098
155	0xbddbca8f	-0.10731994
156	0x3e21133b	0.15729992
157	0xbbe1127e	-0.0068686595
158	0xbda664ae	-0.08124672
159	0x3b7052d6	0.0036670468
160	0xbda494f8	-0.08036226
161	0xbc022738	-0.007943921
162	0xbad3f967	-0.001617235
163	0x3d0ec433	0.03485508
164	0x3e59cb92	0.21269062
165	0xbef4a8c3	-0.47785005
166	0x3f1c3efa	0.61033595
167	0x3ca389d5	0.019963184
168	0x3de5206a	0.11187823
169	0x3dceea44	0.10103276
170	0xbddbdb67	-0.10735207
171	0xbd1316ff	-0.035910603
172	0xbdd7cd80	-0.10537243
173	0xbd25596a	-0.040368475
174	0x3dded6be	0.108808026
175	0x3e248f9e	0.1607041
176	0x3e2200e4	0.15820652
177	0x3c8c4c0b	0.017126104
178	0xbcdea4fd	-0.027178282
179	0xbe1d5dc3	-0.15367799
180	0x3ddfb697	0.10923498
181	0x3d87a5bf	0.066234104
182	0x3e4aa7c0	0.19790554
183	0xbe09f853	-0.13473634
184	0xbe5b91a4	-0.21442276
185	0x3c151a32	0.009100484
186	0x3d6e86f7	0.05823418
187	0xbe4345e0	-0.19069624
188	0x3e131e6f	0.14367078
189	0x3effb050	0.49939203
190	0xbddbc773	-0.10731401
191	0xbe660979	-0.22464551
192	0xbdd70b6f	-0.10500228
193	0xbdba16ae	-0.09086357
194	0xbdbdeacb	-0.09273299
195	0xbe4fe796	-0.20303187
196	0x3d6e698d	0.05820613
197	0x3e06324d	0.13105126
198	0x3e0cd084	0.13751417
199	0x3d4bce17	0.04975709
200	0x3d6b8dc7	0.057508256
201	0xbcacc06b	-0.021087846
202	0xbe20b097	-0.15692364
203	0x3daf325a	0.08554526
204	0x3d13bbfd	0.03606795
205	0x3cab0f71	0.020881386
206	0x3dd98d56	0.10622661
207	0xbe18e829	-0.14932312
208	0x3d4ef445	0.050525922
209	0x3dd4f682	0.1039858
210	0x3dd7a102	0.10528757
211	0x3d9eb6c5	0.07749704
212	0xbdce0fc6	-0.10061602
213	0x3e833d2a	0.25632602
214	0xbed2fd53	-0.41208896
215	0xbe6adba5	-0.2293535
216	0xbbf27187	-0.0073987874
217	0xbdd14b9a	-0.10219498
218	0xbdb92b8f	-0.09041511
219	0x3cbc5f73	0.022994732
220	0x3e1885ed	0.14894839
221	0x3de1153d	0.10990379
222	0x3dfebf5e	0.12438844
223	0x3e2c6fc9	0.16839518
224	0x3e2b8bab	0.16752498
225	0x3dd4e84f	0.10395872
226	0x3e17b739	0.14815988
227	0xbd69b230	-0.0570547
228	0xbe02742c	-0.12739629
229	0xbc9e808e	-0.019348409
230	0xbd2be5d1	-0.041967217
231	0x3dd48122	0.10376193
232	0xbe0127bc	-0.12612814
233	0xbd63c2c1	-0.055605654
234	0x3e2ee67d	0.17080112
235	0xbd6d81cc	-0.057985112
236	0x3ef83774	0.48479807
237	0xbe2b499b	-0.16727297
238	0xbe6b7dd1	-0.22997214
239	0xbf3fb504	-0.7488558
240	0xbd675629	-0.056478653
241	0xbda9c031	-0.08288611
242	0xbcb2733e	-0.021783467
243	0xbe4b37e0	-0.19845533
244	0xbe542bfa	-0.207199
245	0xbe708314	-0.23487502
246	0xbd9bb395	-0.07602612
247	0xbd942e3a	-0.072353795
248	0x3deb629f	0.1149342
249	0x3d628fbd	0.05531286
250	0x3c9dbbde	0.019254621
251	0x3d077b21	0.03307641
252	0x3e404e50	0.18779874
253	0x3e4a66f2	0.19765833
254	0x3e05db06	0.13071832
255	0x3dfb860b	0.12281426

linear1.bias f4 [256]
0	0xbccc6e2b	-0.024954876
1	0x3d821328	0.0635131
2	0xbceceada	-0.02892058
3	0x3c05722b	0.008144896
4	0xbd2d1639	-0.04225752
5	0xbc191021	-0.009342224
6	0xbb87de70	-0.0041463897
7	0xbd6271dd	-0.05528437
8	0xbd57c02b	-0.0526735
9	0x3c30f919	0.010801577
10	0xbcf10d12	-0.029425178
11	0x3cee8049	0.029113906
12	0xbc1b9b0d	-0.009497416
13	0x3a91ad31	0.0011114237
14	0xbc8a1770	-0.016856879
15	0x00000000	0.0
16	0xbae5f643	-0.0017544705
17	0xbcc86e3c	-0.024466626
18	0xbc80803e	-0.01568615
19	0xbcefcd1e	-0.029272612
20	0x3d12c020	0.035827756
21	0xbbbda70d	-0.0057877363
22	0xbcd08144	-0.025452264
23	0xbcb19669	-0.021678166
24	0xbc1b7a87	-0.009489662
25	0x3c4f11a5	0.012638484
26	0x3b96cc19	0.004601967
27	0xbc192a97	-0.009348533
28	0xbd066820	-0.032814145
29	0xbc64123a	-0.013920361
30	0xbd00bc11	-0.031429354
31	0xbc5ac9e3	-0.013353798
32	0xbcc0c8fe	-0.02353334
33	0xbccab4dc	-0.024744444
34	0xbcd37578	-0.02581285
35	0x3d01d75f	0.031699535
36	0xbd33e225	-0.04391684
37	0x3c803150	0.015648514
38	0x3c25fcc8	0.0101310685
39	0xbca05aa7	-0.019574476
40	0xbd0b659f	-0.03403246
41	0x3d17595c	0.036950454
42	0x3d378c62	0.044811614
43	0x3bcd0d9c	0.006257726
44	0x00000000	0.0
45	0x3dadb8c4	0.08482507
46	0x00000000	0.0
47	0xbc97059a	-0.018435288
48	0xbc85c600	-0.016329765
49	0x3cecc84b	0.0289041
50	0xbc710b47	-0.014712161
51	0x3cffad0e	0.031210449
52	0xbcb5f645	-0.022212157
53	0xbcd179cd	-0.025570774
54	0x3d2883dd	0.04114138
55	0x3ced1a21	0.028943123
56	0x3d1a58fc	0.03768252
57	0x3daf58af	0.08561837
58	0x3d0ff3c3	0.03514458
59	0xbbe34b58	-0.006936472
60	0xbd156de4	-0.036481753
61	0xbcb2c6a9	-0.021823244
62	0x3c75e951	0.01500924
63	0xbc86651f	-0.01640564
64	0xbc3bab85	-0.011454468
65	0x3b9fa3d6	0.0048718257
66	0xbc8a0845	-0.016849646
67	0xbcb16ca1	-0.021658244
68	0x00000000	0.0
69	0xbd32c9f1	-0.043649618
70	0xbade04a1	-0.0016938635
71	0xbc08a83f	-0.008340894
72	0x3b3660a4	0.0027828598
73	0x3d0b8398	0.034061044
74	0xbbc3570c	-0.0059613045
75	0xbcb3bb3a	-0.021939863
76	0xbbb34b0d	-0.0054715932
77	0xbc97b5da	-0.01851933
78	0x3b920d85	0.004457178
79	0xbb51ef11	-0.0032033364
80	0xbd78955e	-0.060689323
81	0x3dac0f34	0.08401337
82	0xbbc5f36b	-0.0060409806
83	0xbcaad29b	-0.020852378
84	0xbb1220bb	-0.002229734
85	0xbcab1e10	-0.020888358
86	0xbc7a0dad	-0.01526205
87	0xbcb23526	-0.021753859
88	0xbcba4778	-0.022739157
89	0xbc0b884e	-0.008516384
90	0x3b70a82f	0.003672134
91	0x3baf3db0	0.00534793
92	0xbd1a0137	-0.037598815
93	0x3d57ee01	0.052717213
94	0xbc679424	-0.014134441
95	0x3cd22f4e	0.025657322
96	0xbd0d1e5c	-0.03445278
97	0x3c849bf0	0.016187638
98	0xbcb581f2	-0.02215669
99	0x00000000	0.0
100	0x3c8f591a	0.017498542
101	0xbceafdff	-0.028685568
102	0xbcc54216	-0.024079364
103	0xbc2f5b9d	-0.010702995
104	0x3b613ec0	0.0034369677
105	0xbd5485d7	-0.051885452
106	0xbd00c4fb	-0.031437855
107	0xbd12c43a	-0.035831667
108	0xbcaf77b3	-0.021419382
109	0xbd8e5b8f	-0.06951057
110	0x3c147069	0.009060004
111	0x3d8556e4	0.06510714
112	0x3d731d24	0.059353963
113	0xbcda5b27	-0.026654793
114	0xbd1a0520	-0.037602544
115	0x3c3966f2	0.011316048
116	0xbb363411	-0.002780203
117	0xbccfce53	-0.025366938
118	0x3b665a4c	0.0035149036
119	0xbbfaede7	-0.0076577547
120	0x3ba34da0	0.004983619
121	0x3dbd37c2	0.092391506
122	0xbc852ef4	-0.01625774
123	0xbd0e4715	-0.034735758
124	0xbb76acf8	-0.0037639719
125	0x3c455600	0.01204443
126	0xbcc50aa0	-0.024052918
127	0xbc7e6f57	-0.015529475
128	0xbbca8fa7	-0.0061816755
129	0x3cdd3fb2	0.027007911
130	0xbc525e44	-0.0128398575
131	0x00000000	0.0
132	0x3d128dfd	0.03577994
133	0xbc40bf82	-0.011764409
134	0xba7fe0eb	-0.00097609934
135	0xbc0ec409	-0.008713731
136	0xbcd0b305	-0.025475988
137	0xbc3fe98d	-0.011713398
138	0xbcc82861	-0.024433317
139	0x3d0ff912	0.03514964
140	0xbcd223df	-0.02565187
141	0xbd0bacdc	-0.0341004
142	0xbc182ab3	-0.009287524
143	0xbcc100f7	-0.02356003
144	0xbcff6396	-0.031175416
145	0x3d363a14	0.04448898
146	0x3d95ab5b	0.07308074
147	0xbb05e135	-0.0020428423
148	0xbd4bb93a	-0.049737193
149	0x3d0520f7	0.03250214
150	0x3c7631ed	0.015026552
151	0x3d06d86b	0.032921236
152	0xba9f9196	-0.0012174125
153	0x3c46efed	0.012142164
154	0x3d0f7455	0.035023052
155	0xbcc5cabd	-0.024144525
156	0xbca5801f	-0.020202694
157	0x3d7434aa	0.059620537
158	0x3cfeae01	0.03108883
159	0x00000000	0.0
160	0x3bc16ab6	0.0059026135
161	0x00000000	0.0
162	0xbca7f901	-0.020504477
163	0xbbb9b835	-0.005667711
164	0x3cd8a67a	0.02644657
165	0x3d36b45d	0.0446056
166	0xbbee0288	-0.0072634853
167	0x3aad0fd2	0.0013203567
168	0xbc1e4965	-0.009661053
169	0x3c21275a	0.009836042
170	0xbc89043d	-0.016725654
171	0x3d75c8e8	0.060006052
172	0xbd045d55	-0.03231557
173	0xbcffe595	-0.031237403
174	0x3cf949e8	0.030430749
175	0x3c31d161	0.0108531425
176	0x3c5c5247	0.013447351
177	0xbc557e69	-0.013030627
178	0x3cb52e23	0.022116726
179	0x3c9edcd6	0.019392412
180	0xbb8d5e0c	-0.00431419
181	0xbc3f6c46	-0.011683529
182	0xba0e8a75	-0.0005437502
183	0xbce80adb	-0.028325489
184	0xbbe1abaa	-0.006886919
185	0x3c920405	0.017824182
186	0x3bd0013e	0.0063478043
187	0xbc994a23	-0.018712109
188	0x3d860010	0.06542981
189	0x3d361fcc	0.044463918
190	0xbd3a7996	-0.04552611
191	0x3caa4ca9	0.020788508
192	0xbc1b31ee	-0.009472353
193	0xbb651c03	-0.0034959323
194	0x3ca6bee6	0.0203547
195	0xbce2ac50	-0.027670056
196	0x3c29a833	0.010355043
197	0xbc9acd1a	-0.018896628
198	0xbc5c160e	-0.013432993
199	0x3d612f92	0.054977007
200	0xbc9f074d	-0.019412661
201	0xbd0ec987	-0.03486016
202	0xbc34f4e4	-0.011044715
203	0xbcd1eecf	-0.025626568
204	0x3c8bbb4b	0.017057082
205	0xbc1567b3	-0.009118962
206	0xbcc63779	-0.024196373
207	0xbc0ab504	-0.008466009
208	0xbd1e2a59	-0.038614605
209	0xbc16bcf7	-0.009200326
210	0xbd482ece	-0.04887276
211	0xbd330b31	-0.043711845
212	0xbbfed1d3	-0.007776478
213	0x3c9b2b09	0.01894142
214	0xbc89ed52	-0.016836796
215	0x3cb28c69	0.021795468
216	0xbd15a58a	-0.036534823
217	0x3da04a35	0.07826654
218	0x3bb77b6e	0.0055994308
219	0x3b87c2f3	0.004143113
220	0x3ced66cd	0.028979683
221	0xbc0f9574	-0.00876366
222	0xbcf2c8d4	-0.029636778
223	0x3b0e9ccb	0.0021760936
224	0x3d20e520	0.03928101
225	0x3b62efa0	0.003462769
226	0x3d4e98ed	0.05043881
227	0xbc291f2d	-0.010322374
228	0xbcd56365	-0.026048372
229	0x3d255e58	0.040373176
230	0x3bc701e8	0.0060732253
231	0xbbea344a	-0.0071473466
232	0xbbbabbba	-0.0056986483
233	0x3c85bd58	0.016325638
234	0xbc47acd6	-0.012187203
235	0x3a22dc70	0.00062126573
236	0x3b271c95	0.0025499214
237	0xbc71d511	-0.014760272
238	0x3d62db03	0.055384647
239	0x3c52ddaf	0.012870236
240	0x3af0dd66	0.0018376529
241	0x3d60c382	0.05487395
242	0x00000000	0.0
243	0x3ce9b9c1	0.028530957
244	0x3b8d3a18	0.004309904
245	0xbcd15f94	-0.02555827
246	0x3cfdc500	0.030977726
247	0xbd15ac4f	-0.03654128
248	0xbc1ea323	-0.0096824495
249	0x3c3d3003	0.011547091
250	0xbd18ef35	-0.0373375
251	0xbc74b12d	-0.01493482
252	0xbcdc65ce	-0.026904013
253	0xbbe2e343	-0.0069240644
254	0x3cd8cd9b	0.026465228
255	0x3d23e6f8	0.04001519

linear2.weight f4 [256, 256]
0	0xbda8be51	-0.08239425
1	0x3df6caf8	0.12050432
2	0x3e58ac74	0.21159536
3	0xbe31baf9	-0.1735648
4	0xbd86b19b	-0.06576844
5	0xbdbb75c6	-0.09153323
6	0xbd9d0199	-0.0766632
7	0xbc575cae	-0.013144655
8	0x3db2b916	0.087267086
9	0xbdb5dc82	-0.08879949
10	0x3c8d1e1f	0.017226277
11	0x3d8f2a79	0.06990523
12	0x3dd7d67f	0.10538959
13	0xbec6f5cb	-0.388594
14	0x3e438e8e	0.19097349
15	0x3d47396a	0.04863874
16	0xbe18b9b3	-0.14914589
17	0x3e33d8ee	0.17563221
18	0x3d157104	0.036484733
19	0x3dac35dc	0.0840871
20	0x3cdc85f2	0.026919339
21	0xbe432637	-0.19057547
22	0xbe7f59d3	-0.24936609
23	0x3e067327	0.13129865
24	0x3c404e77	0.0117374575
25	0xbca31d2e	-0.019911375
26	0xbbc69c1c	-0.00606109
27	0xbd81a627	-0.06330519
28	0xbddef80f	-0.10887157
29	0xbd9a28b6	-0.07527296
30	0xbda1fd16	-0.079096004
31	0x3ca666cb	0.020312687
32	0xbe5e0297	-0.21680675
33	0xbe0e28bf	-0.13882731
34	0x3e310f00	0.17290878
35	0xbdafe601	-0.08588792
36	0x3ddfe9f4	0.10933295
37	0x3cad7452	0.02117363
38	0x3e0c9c86	0.13731584
39	0x3d825de3	0.06365564
40	0xbe0081c9	-0.12549509
41	0xbd8c6dde	-0.06856893
42	0x3e55b473	0.20869617
43	0x3e8713fe	0.2638244
44	0x3d86dd37	0.06585162
45	0x3cd5c422	0.0260945
46	0xbd92023b	-0.07129332
47	0xbdab23e1	-0.08356453
48	0xbbbe96d1	-0.0058163186
49	0xbe36939c	-0.17829746
50	0x3c63db07	0.013907201
51	0xbdae7208	-0.085178435
52	0xbd83b27c	-0.064305276
53	0xbd927bed	-0.07152543
54	0xbd761cd1	-0.060086075
55	0x3dc6ec85	0.09713081
56	0xbe1759ca	-0.14780346
57	0xbe32f672	-0.17476824
58	0x3e2fc37d	0.17164417
59	0xbc4a2fa1	-0.012340457
60	0x3e11dc45	0.14244182
61	0xbe069a29	-0.13144745
62	0x3d6f2985	0.058389205
63	0x3e81afe0	0.25329494
64	0x3dc035dd	0.093852736
65	0x3dcf3613	0.10117736
66	0xbc1a3c72	-0.009413825
67	0xbd60d9a4	-0.05489506
68	0xbd08edd6	-0.033429943
69	0xbd940081	-0.072266586
70	0xbdf1896f	-0.117937915
71	0x3e412266	0.18860778
72	0xbdf023b8	-0.11725563
73	0x3e696f21	0.22796299
74	0xbedc8efc	-0.43077838
75	0xbe964e79	-0.29356745
76	0x3d594617	0.05304536
77	0xbd9526c9	-0.07282788
78	0x3e255ba7	0.16148244
79	0xbe1f525d	-0.15558763
80	0x3e27b7be	0.16378686
81	0x3ce1cfe7	0.027564956
82	0x3db6f58d	0.08933554
83	0xbe3fedb8	-0.18743026
84	0xbdb56e66	-0.088589475
85	0xbd5f1ebd	-0.054472674
86	0x3cb2e18f	0.02183607
87	0x3d9c590b	0.07634171
88	0x3ddac726	0.10682516
89	0x3e465dbb	0.19371693
90	0xbaed4802	-0.0018103125
91	0x3c602c30	0.01368241
92	0x3e0ac86c	0.13553017
93	0x3f1139c5	0.56728774
94	0xbe51aeac	-0.20476788
95	0xbe57e630	-0.21083903
96	0xbd8ad1a0	-0.06778264
97	0xbe7b814e	-0.24561045
98	0xbc724c67	-0.014788724
99	0x3d6d2c62	0.057903655
100	0xbeaa06ac	-0.33208215
101	0x3bf78d1c	0.0075546633
102	0xbd9a378f	-0.07530128
103	0x3e8d690d	0.2761921
104	0xbdaa4493	-0.08313861
105	0xbe920eea	-0.28527004
106	0xbd88545e	-0.06656717
107	0x3d337126	0.04380908
108	0x3de536b3	0.11192074
109	0x3c9ccb6c	0.019139968
110	0x3db59c26	0.088676736
111	0x3e8a186d	0.2697176
112	0x3e07c8d6	0.13260207
113	0x3b810450	0.0039372817
114	0xbe996500	-0.2995987
115	0xbc670278	-0.01409971
116	0xbe37c01e	-0.1794438
117	0x3e6d6906	0.23184595
118	0xbbf76291	-0.007549592
119	0xbe475e5f	-0.19469593
120	0xbe12ffd3	-0.14355402
121	0xbebfcad3	-0.3745943
122	0x3d9fd35d	0.07803986
123	0xbb22085c	-0.002472422
124	0xbe2b493a	-0.16727152
125	0xbdf6b600	-0.120464325
126	0x3d1e4ad2	0.038645573
127	0xbe3e66cc	-0.18593901
128	0xbe9b3f1e	-0.30321592
129	0x3d60598d	0.054772902
130	0x3d275a39	0.040857527
131	0xbd5c94bd	-0.053852785
132	0xbd8b9c2c	-0.06816897
133	0xbbe5589d	-0.006999089
134	0x3cac419d	0.02102738
135	0x3d98561b	0.07438298
136	0x3e56a30d	0.20960636
137	0x3dbcb2e5	0.09213809
138	0xbd059725	-0.032614846
139	0x3d4b4fc2	0.04963661
140	0xbe3d43de	-0.1848292
141	0x3d8984ea	0.067148045
142	0x3c5e0670	0.0135513395
143	0x3cf66098	0.030075356
144	0xbcbadb73	-0.02280972
145	0x3c2e8b89	0.010653385
146	0x3e7e2a91	0.24820925
147	0xbd9a9bac	-0.07549223
148	0xbe2776f4	-0.16353971
149	0xbdf71f45	-0.12066511
150	0x3cc50de7	0.02405448
151	0xbc3dd1aa	-0.011585632
152	0x3d5b3f3c	0.053527102
153	0xbebcab07	-0.36849234
154	0xbcf74ff0	-0.030189484
155	0xbe4d0ee2	-0.20025209
156	0x3e0bb0ea	0.13641706
157	0x3dc5fe2a	0.096676186
158	0xbcf99cfb	-0.030470362
159	0x3cf26cc4	0.02959288
160	0xbe7dbbc2	-0.24778655
161	0xbc8977a4	-0.016780682
162	0xbd050c56	-0.032482468
163	0x3e18d5b1	0.14925267
164	0xbc9bed30	-0.019033998
165	0x3c1b730f	0.009487881
166	0x3e01965a	0.12655011
167	0xbd6650f1	-0.056229535
168	0xbdc93904	-0.09825328
169	0xbeb4d49b	-0.35318455
170	0xbdf47bc3	-0.11937668
171	0xbe253990	-0.1613524
172	0x3de4b563	0.11167409
173	0x3d60bcc2	0.054867513
174	0xbe71e6b9	-0.2362317
175	0xbc948e97	-0.018134398
176	0x3d965d3f	0.07342004
177	0xbd75c80a	-0.060005225
178	0x3d22d84f	0.03975707
179	0x3d0475e2	0.032338984
180	0xbd4ebf74	-0.050475553
181	0x3db3e3c2	0.08783676
182	0xbeb556d5	-0.3541781
183	0x3d8c4b2b	0.06850275
184	0xbe32ea05	-0.17472084
185	0xbf16af68	-0.588614
186	0xbdb3997d	-0.0876951
187	0x3d6999d9	0.057031486
188	0x3c8ef001	0.017448427
189	0x3e8a5038	0.27014327
190	0x3ddeb1d8	0.10873765
191	0xbe1a884f	-0.1509106
192	0x3dc13ceb	0.09435447
193	0x3d531c92	0.05154092
194	0xbea4dd10	-0.32199907
195	0xbe45c04b	-0.19311635
196	0xbe0dea53	-0.13858919
197	0x3d785a31	0.06063289
198	0xbdbd95f6	-0.092571184
199	0xbd3cb584	-0.046071544
200	0xbcaab091	-0.020836147
201	0x3e1dfb1f	0.15427826
202	0x3e4018ce	0.18759462
203	0xbd494f12	-0.049147673
204	0x3d0390c6	0.03212049
205	0x3d98232a	0.07428582
206	0xbdf274ea	-0.11838706
207	0xbd1c2442	-0.038120516
208	0x3d1af225	0.037828583
209	0x3d532b70	0.051555097
210	0xbca4e17c	-0.02012705
211	0xbd89bf2b	-0.067259155
212	0x3d333775	0.04375406
213	0x3e054508	0.13014615
214	0xbafacded	-0.0019134857
215	0xbe617024	-0.22015435
216	0x3d59f322	0.053210385
217	0xbdca211a	-0.09869595
218	0xbd9ac582	-0.07557203
219	0x3dfd51de	0.123691306
220	0xbe687117	-0.2269939
221	0x3e49c323	0.19703345
222	0xbd41621f	-0.047212716
223	0xbe2ef179	-0.17084302
224	0xbd399b56	-0.045314156
225	0x3e61a60f	0.22036003
226	0xbe82ab04	-0.255211
227	0x3da22c93	0.07918658
228	0xbd906113	-0.070497654
229	0xbd899a5e	-0.06718896
230	0x3da3b9bc	0.079944104
231	0xbd9f0377	-0.07764333
232	0xbde6148a	-0.11234386
233	0xbea52c1d	-0.32260218
234	0xbdc780a1	-0.09741331
235	0xbbefcff1	-0.0073184897
236	0xbd448958	-0.047982544
237	0x3d7319ae	0.059350662
238	0x3d70d81c	0.058799848
239	0xbeccabc9	-0.39974812
240	0xbe32c24a	-0.17456928
241	0x3c1e9bdf	0.009680717
242	0x3dc729cb	0.09724768
243	0xbb8b1d12	-0.004245409
244	0xbd8a813c	-0.06762931
245	0x3d9be6f6	0.07612412
246	0x3f028723	0.5098745
247	0xbcdcff3d	-0.026977176
248	0x3da1372c	0.07871851
249	0xbca7904e	-0.020454552
250	0xbc8e6ed0	-0.017386824
251	0xbd8da962	-0.06917073
252	0xbe8a5a92	-0.27022225
253	0x3dc5145f	0.09623026
254	0xbd9dcc42	-0.07704975
255	0x3d90c1ca	0.07068212

linear2.bias f4 [256]
0	0xbdc6a9c5	-0.0970035
1	0x3d18c582	0.037297733
2	0xbce9d70e	-0.028544929
3	0xbe95c3ee	-0.29251045
4	0xbb680fa5	-0.0035409715
5	0x3d0bd49d	0.03413831
6	0x3d447105	0.047959346
7	0x3c5a78f3	0.013334501
8	0xbcc83548	-0.024439469
9	0xbd2f6ff5	-0.04283138
10	0x3caea4da	0.021318842
11	0xbdc89882	-0.097947136
12	0x3ca1aca7	0.019735647
13	0xbd20e1dc	-0.039277896
14	0xbcab7433	-0.020929432
15	0x3cd0c7e7	0.025485946
16	0xbd05648f	-0.032566603
17	0x3dc63315	0.09677712
18	0xbce356e5	-0.027751395
19	0x3cc18c25	0.023626396
20	0xbcdff6cb	-0.02733936
21	0x3c85850b	0.016298791
22	0x3db499b7	0.08818381
23	0x3d1c14e0	0.038105845
24	0x3d604871	0.054756586
25	0x3d86ed0b	0.06588181
26	0xbd58b6ff	-0.052908894
27	0xbd954c28	-0.07289916
28	0xbd1327c4	-0.035926595
29	0x3bf6b32c	0.007528683
30	0xbd55394f	-0.052056607
31	0x3d3e3976	0.046441518
32	0xbd73b4e3	-0.05949868
33	0xbe312a03	-0.17301182
34	0xbcd6233d	-0.02613985
35	0xbd218a21	-0.03943837
36	0xbca1c965	-0.019749353
37	0xbce0dcc6	-0.027449023
38	0xbc746584	-0.014916781
39	0xbcaf293e	-0.02138197
40	0x3b97066f	0.0046089212
41	0xbd324821	-0.04352582
42	0xbeaf9986	-0.34296817
43	0xbd329f14	-0.04360874
44	0xbd0d127d	-0.03444146
45	0x3c0a1280	0.008427262
46	0x3d2eebd9	0.04270539
47	0xbc34ac5b	-0.011027421
48	0xbe0e37f7	-0.13888536
49	0xbd19354f	-0.037404355
50	0x3dc05886	0.093918845
51	0xbcf91375	-0.030404786
52	0x3c81e778	0.015857443
53	0x3d87d89c	0.06633112
54	0x3d57aa76	0.0526528
55	0x3c3dbb8f	0.011580362
56	0xbcfd19d7	-0.03089611
57	0x3d8d3571	0.06894959
58	0xbc671109	-0.014103183
59	0xbd072488	-0.032993823
60	0xbd1732be	-0.036913626
61	0x3b20e705	0.002455176
62	0xbd721a8c	-0.05910735
63	0xbc9ccb8e	-0.019140031
64	0xbd0e969a	-0.034811594
65	0x3d347f68	0.044066817
66	0xbe1de3ac	-0.15418881
67	0xbc95b944	-0.018276818
68	0xbd1eb9aa	-0.03875128
69	0x3d3b7528	0.045766026
70	0xbced562c	-0.028971754
71	0xbe338ca8	-0.17534125
72	0xbda7b059	-0.081879325
73	0x3c87250a	0.016497154
74	0xbdaa100e	-0.083038434
75	0x3c2a9db1	0.010413573
76	0x3c1f3fb1	0.009719775
77	0xbc5b34e2	-0.013379307
78	0x3d77453c	0.06036876
79	0xbc1824af	-0.00928609
80	0xbcb64e01	-0.022253992
81	0xbd3ff834	-0.046867564
82	0xbdc7d079	-0.0975656
83	0xbd7062a8	-0.058687836
84	0xbdc5b113	-0.09652915
85	0xbc776d81	-0.015101791
86	0x3dbe85ed	0.09302888
87	0xbd6472e2	-0.055773623
88	0x3de67328	0.11252433
89	0xbd1cd5fd	-0.038290013
90	0xbcf9411b	-0.030426553
91	0xbd36fb95	-0.04467352
92	0xbe6af480	-0.22944832
93	0x3cf10968	0.02942343
94	0xbc22c620	-0.009934932
95	0xbcbd40d2	-0.023102198
96	0xbd49a92a	-0.049233593
97	0xbd80c779	-0.062880464
98	0x3b97bb14	0.0046304557
99	0xbd68969e	-0.056784265
100	0xbd625f1a	-0.055266477
101	0xbca301ac	-0.019898258
102	0xbd047ee2	-0.032347567
103	0xbc9b9dd6	-0.01899616
104	0x3d128306	0.035769485
105	0xbd062dff	-0.03275871
106	0xbcde6660	-0.027148426
107	0xbd5edcdb	-0.054409843
108	0xbd5ffc02	-0.054683693
109	0xbd8e9c07	-0.069633536
110	0xbda2d477	-0.07950681
111	0x3d96cfff	0.07363891
112	0xbc8ba298	-0.017045304
113	0x3cfb6e92	0.030692372
114	0x3ca4e8de	0.020130571
115	0xbde299d7	-0.11064499
116	0xbbc97ac6	-0.006148669
117	0xbe6c388c	-0.23068446
118	0x3ce8d04c	0.028419636
119	0xbcd437b5	-0.02590547
120	0xbcf41ad6	-0.029797953
121	0x3c86bda4	0.01644785
122	0xbd252513	-0.04031856
123	0x3c44e7a9	0.012018123
124	0x3dd2a1a9	0.102847405
125	0xbc95814e	-0.018250134
126	0xbd0e3576	-0.034718953
127	0xbcdaaa30	-0.02669248
128	0xbd3a7b86	-0.045527957
129	0x3d9cda9f	0.07658886
130	0x3c3780b2	0.011200117
131	0x3d823cda	0.06359263
132	0xbd0e3350	-0.034716904
133	0xbd3359fc	-0.043786988
134	0xbcf6205a	-0.030044723
135	0x3ca63605	0.02028943
136	0xbcfb00cf	-0.030640034
137	0xbe749bba	-0.2388753
138	0x3c82b803	0.015956884
139	0xbced32d5	-0.028954903
140	0xbc6da3eb	-0.014504413
141	0x3cd16a92	0.025563512
142	0x3b3b2c85	0.0028560471
143	0xbcb2dc33	-0.021833515
144	0x3be67a2f	0.0070336084
145	0x3dad8445	0.08472494
146	0x3d456ffe	0.048202507
147	0x3d428f27	0.047499802
148	0xbd274716	-0.040839277
149	0xbcd1d672	-0.02561495
150	0xbd22989d	-0.039696325
151	0xbce6837e	-0.028138872
152	0xbd8fc62a	-0.07020219
153	0xbd8286da	-0.06373377
154	0xbce148eb	-0.02750059
155	0x3d96c8f8	0.073625505
156	0x3d1da8ff	0.038491245
157	0xbd26ba99	-0.040705297
158	0xbde7acbd	-0.11312244
159	0xbc9ff862	-0.019527618
160	0x3bbb7191	0.0057203253
161	0xbbf536ed	-0.0074833543
162	0xbb5856fb	-0.0033010829
163	0xbd9dfc9e	-0.077141985
164	0x3d9e03cf	0.0771557
165	0x3dab0075	0.083496965
166	0xbdab3fe2	-0.08361794
167	0x3c5a5bd2	0.013327556
168	0x3a23e44c	0.00062519754
169	0x3d2daf3f	0.042403456
170	0xbd72e636	-0.059301578
171	0xbc252f77	-0.010082117
172	0x3d8843b3	0.066535376
173	0xbd3e40ca	-0.046448506
174	0xbe13d716	-0.14437518
175	0xbe3b1654	-0.18270236
176	0x3a77b97e	0.0009449943
177	0xbd9dd733	-0.077070616
178	0x3db8348d	0.08994398
179	0xbbc20914	-0.0059214924
180	0xbd0eef61	-0.03489626
181	0xbc9bc8a3	-0.01901657
182	0xbd39143c	-0.045185313
183	0x3d4bb43a	0.049732424
184	0x3d2a88b0	0.04163426
185	0xbd1a91bb	-0.037736636
186	0x3d13feed	0.036131788
187	0x3d0bff74	0.034179166
188	0xbc00b4c9	-0.007855603
189	0x3d31b515	0.043385584
190	0x3d277ab0	0.04088849
191	0xbd4a5bd4	-0.04940398
192	0xbd2c4094	-0.042053774
193	0xbd0ef4f7	-0.034901585
194	0xbecd88d2	-0.40143448
195	0xbcc8ec6c	-0.024526797
196	0xbc1576ba	-0.009122545
197	0xbd20d00c	-0.03926091
198	0xbcd468cb	-0.025928875
199	0xbdf5d86b	-0.12004169
200	0x3df2a3f0	0.11847675
201	0xbb0a87e1	-0.002113812
202	0x3d92080c	0.07130441
203	0x3cfb083e	0.030643579
204	0xbca67ccd	-0.020323182
205	0xbdd60699	-0.10450477
206	0xbe6660c1	-0.22497846
207	0xbd601c3b	-0.054714423
208	0x3dbb2c9e	0.091393694
209	0x3d09c114	0.0336314
210	0x3da770b1	0.08175791
211	0x3d3f74d4	0.046742275
212	0x3d7c6235	0.061617095
213	0x3b02c7d1	0.0019955526
214	0x3d0c49d4	0.034250095
215	0x3be73bf6	0.0070567084
216	0xbe3b2ec1	-0.18279554
217	0x3b105eeb	0.0022029232
218	0xbd36eea8	-0.044661194
219	0xbdb6fd61	-0.08935047
220	0xbd281083	-0.04103137
221	0xbe31427e	-0.17310521
222	0xbba6a4c9	-0.005085562
223	0xbdb5146d	-0.088417865
224	0xbda8e3ef	-0.082466
225	0xbb9f3977	-0.0048591453
226	0xbd2ddc7a	-0.04244659
227	0x3bf02eff	0.007329821
228	0xbd0b12cd	-0.033953477
229	0x3d3270fe	0.04356479
230	0x3ce236ef	0.027614085
231	0x3d0de75f	0.03464448
232	0xbda2f132	-0.079561606
233	0x3d618cc8	0.0550659
234	0xbe067066	-0.13128814
235	0xbc14bb56	-0.0090778675
236	0x3d0ec9b8	0.034860343
237	0xbd7091d5	-0.058732826
238	0xbd1077aa	-0.03527037
239	0xbc0c8ba2	-0.008578213
240	0xbdf3e56d	-0.11908994
241	0x3c32bc78	0.010909192
242	0x3d74e107	0.059784915
243	0xbd4a21e0	-0.049348712
244	0xbcf19a61	-0.029492559
245	0x3d333dcb	0.043760102
246	0xbce2b337	-0.027673347
247	0xbcd09b20	-0.025464594
248	0xbc4b2951	-0.012399987
249	0xbc5b8629	-0.0133986855
250	0x3d55f9d7	0.05224022
251	0x3d864393	0.065558575
252	0xbd1fad9f	-0.038983937
253	0x3d5337b4	0.051566795
254	0xbd2718f8	-0.040795296
255	0x3bae13a6	0.005312401

linear3.weight f4 [256, 256]
0	0xbe147a0e	-0.14499685
1	0x3c4d5232	0.012531804
2	0xbd8afa4c	-0.067860216
3	0xbd830f92	-0.06399454
4	0x38c13042	9.211946e-05
5	0xbddc9a00	-0.10771561
6	0xbc157c95	-0.009123941
7	0x3d5179d9	0.051141594
8	0x3d6d4298	0.057924837
9	0x3d982e3a	0.07430692
10	0xbe0234c9	-0.12715448
11	0x3e1d167b	0.15340607
12	0x3dc130a0	0.094331026
13	0xbdd08ddc	-0.101833075
14	0xbd87de4d	-0.066341974
15	0xbcb02c65	-0.021505544
16	0xbdb31e64	-0.08746031
17	0xbe69e943	-0.22842889
18	0xbd8c1bb0	-0.068412185
19	0xbdb7cdb0	-0.08974779
20	0x3de28825	0.11061124
21	0xbe20e557	-0.15712486
22	0xbde4f750	-0.111799836
23	0xbe96beac	-0.29442346
24	0xbdc38413	-0.095466755
25	0x3e17e1cf	0.14832233
26	0xbe22d0b1	-0.15899922
27	0x3dc92767	0.098219685
28	0x3dcebcd8	0.10094613
29	0x3e235be9	0.1595303
30	0x3c8fa230	0.017533392
31	0x3e6f6c9a	0.23381272
32	0x3cc09152	0.023506794
33	0x3dadf559	0.08494062
34	0x3c352f17	0.01105859
35	0x3b7e6be0	0.0038821623
36	0xbe66e2aa	-0.22547403
37	0xbbd53e84	-0.0065076966
38	0xbe95895f	-0.29206368
39	0xbedb727e	-0.42860788
40	0x3e2d7261	0.16938163
41	0x3da6945e	0.081337675
42	0x3d887241	0.06662417
43	0xbe8ebf0f	-0.2788014
44	0xbd3b992f	-0.045800384
45	0x3dfda204	0.12384418
46	0x3cf62c81	0.030050518
47	0xbea16007	-0.31518576
48	0xbd8c44e3	-0.068490766
49	0xbd988e3f	-0.07449006
50	0xbc6c4b0b	-0.0144221885
51	0x3d99a092	0.075013295
52	0x3e407154	0.18793231
53	0xb9c54ee8	-0.00037633558
54	0xbe419b44	-0.18906885
55	0xbec79608	-0.38981652
56	0xbe27f400	-0.16401672
57	0xbe3d1f58	-0.18468988
58	0x3e5619eb	0.20908324
59	0x3d39552f	0.045247253
60	0xbe1a5ccb	-0.1507446
61	0xbe24c198	-0.16089475
62	0xbda7f8cd	-0.08201752
63	0x3b117b78	0.0022198837
64	0x3de2d719	0.11076183
65	0xbd7a8495	-0.061161596
66	0xbe4f7ea8	-0.2026316
67	0x3cc63614	0.024195708
68	0x3d29b1bd	0.04142927
69	0xbdc0864c	-0.09400615
70	0x3dc31d51	0.09527076
71	0xbd6c96f2	-0.05776114
72	0xbe0f0004	-0.1396485
73	0xbe73ae2d	-0.23796912
74	0x3d1e8195	0.038697798
75	0xbdc6a664	-0.09699705
76	0x3d35250b	0.04422478
77	0xbd488a53	-0.04896004
78	0xbe92baf0	-0.28658247
79	0xbd2ffb6e	-0.04296439
80	0x3c716cd4	0.014735419
81	0x3db2368f	0.087018125
82	0x3d055d9b	0.032559972
83	0xbebf4c19	-0.37362745
84	0x3d3574d0	0.044300854
85	0x3dc394d4	0.09549871
86	0xbd5ab0ca	-0.053391255
87	0xbcfb50c3	-0.030678159
88	0x3e0b1e4a	0.13585773
89	0xbdc39e6f	-0.09551703
90	0xbd3d49b6	-0.046212874
91	0x3dad786e	0.08470236
92	0x3c809dcc	0.015700243
93	0x3e046837	0.1293038
94	0x3a5af377	0.0008352319
95	0x3d65064b	0.055914205
96	0xbf27b630	-0.6551237
97	0xbe96be60	-0.2944212
98	0x3bb853df	0.0056252326
99	0x3d115a49	0.035486493
100	0xbdf34d9a	-0.11880036
101	0xbe122465	-0.14271696
102	0xbd8ec4cd	-0.069711305
103	0xbd6ef3c9	-0.05833796
104	0xbe0f79d6	-0.1401132
105	0xbce3889e	-0.027775105
106	0x3d0bce8a	0.034132518
107	0xbe9df50b	-0.30851015
108	0xbea59787	-0.3234217
109	0xbe37b060	-0.17938375
110	0x3d8a3ed0	0.06750262
111	0xbe457b4d	-0.19285317
112	0xbd86561a	-0.06559391
113	0xbbb509c9	-0.005524848
114	0xbe2580fc	-0.16162485
115	0xbe1d4c17	-0.15361057
116	0xbe5c1905	-0.21493919
117	0x3d0803fa	0.033206917
118	0xbe3e8fa8	-0.18609488
119	0xbdf319c5	-0.118701495
120	0x3d720c34	0.05909367
121	0x3dbefba5	0.09325341
122	0xbbd5a497	-0.006519865
123	0xbc89b745	-0.016811023
124	0x3cd4d0d8	0.02597849
125	0xbd2d3a5f	-0.042291995
126	0x3dd9e620	0.10639596
127	0xbddcc497	-0.10779684
128	0x3e1a9a22	0.1509786
129	0x3e1b37ab	0.15157954
130	0x3e3a0f8e	0.18169996
131	0xbd54bffe	-0.05194091
132	0xbd5a54b2	-0.053303428
133	0xbda8e8bd	-0.08247516
134	0x3d86878b	0.065688215
135	0x3e04355f	0.12910984
136	0x3b738460	0.003715776
137	0xbe6c9fd3	-0.23107843
138	0xbe694cb0	-0.2278316
139	0x3bdba7d8	0.006703358
140	0x3d4e4655	0.050360043
141	0xbe8d5d81	-0.276104
142	0xbd2cdf49	-0.04220513
143	0x3dd73e82	0.10509969
144	0x3d335b0e	0.04378801
145	0xbdf7058e	-0.12061606
146	0x3e28ac81	0.16472055
147	0xbd96a606	-0.07355885
148	0x3c5cabe3	0.013468715
149	0x3cfe355b	0.031031301
150	0xbdd241be	-0.102664456
151	0x3d95e865	0.07319716
152	0x3e5bb094	0.21454078
153	0x3c91c0c2	0.01779211
154	0xbcf5a5dc	-0.029986314
155	0x3bdb0af2	0.0066846544
156	0x3da168e3	0.07881334
157	0x3dae57b5	0.085128225
158	0xbd9bc47d	-0.076058365
159	0x3d721696	0.05910357
160	0xbd97a6e3	-0.07404878
161	0x3dfe15d9	0.12406511
162	0x3dd3d6a0	0.10343671
163	0xbe788791	-0.24270464
164	0xbe31cbc8	-0.17362893
165	0xbe26c0c5	-0.16284473
166	0x3e45f463	0.19331507
167	0xbdcb2a90	-0.099202275
168	0x3d198966	0.03748455
169	0xbdeea0c7	-0.116517596
170	0x3c7b797d	0.015348789
171	0xbe0b93f1	-0.13630654
172	0xbe23daa8	-0.1600138
173	0x3d828a3f	0.063740246
174	0xbe0258ea	-0.1272923
175	0x3ca93853	0.02065674
176	0xbe1b0ea1	-0.15142299
177	0xbe05818a	-0.13037696
178	0xbdc46c5b	-0.0959098
179	0xbc586251	-0.013207034
180	0xbd11aaf4	-0.035563424
181	0xbe59a4c3	-0.21254258
182	0x3c86aa38	0.016438589
183	0xbd743d1d	-0.059628595
184	0xbbe7e056	-0.0070763035
185	0xbe04452f	-0.12917016
186	0xbd6e14c3	-0.05812527
187	0xbd9f67c7	-0.07783466
188	0xbdd517d6	-0.10404937
189	0xbcca9704	-0.024730213
190	0xbd92bd66	-0.07165031
191	0x3d7bd517	0.061482515
192	0x3dcb63d1	0.09931148
193	0x3b851076	0.0040608
194	0x3c021633	0.007939863
195	0x3b91a925	0.0044452124
196	0x3e30d1bb	0.17267506
197	0x3d7bcdf9	0.061475728
198	0xbd64f035	-0.05589314
199	0xbe9363af	-0.2878699
200	0x3d30fbad	0.043208767
201	0x3e3187a9	0.17336906
202	0xbc057593	-0.008145708
203	0x3e195fc1	0.14977933
204	0xbd92a829	-0.0716098
205	0xbe803402	-0.2503968
206	0xbf118f10	-0.5685892
207	0xbda4aea0	-0.080411196
208	0xbd317c52	-0.04333145
209	0xbde060b1	-0.109559424
210	0x3df30ff9	0.11868281
211	0xbd1db4cd	-0.038502503
212	0xbdedf2cf	-0.11618578
213	0xbddf339f	-0.10898518
214	0x3b9d7258	0.0048048906
215	0xbe62a02b	-0.22131412
216	0x3deafe48	0.114742815
217	0x3d2c9361	0.04213274
218	0xbe1661e9	-0.14685787
219	0xbdedf962	-0.116198316
220	0x3e061002	0.13092044
221	0x3e7a35ad	0.24434538
222	0x3df46f0a	0.119352415
223	0x3dfc073b	0.123060666
224	0xbd83b62e	-0.064312324
225	0xba855d3b	-0.001017488
226	0x3cb2b275	0.02181361
227	0x3d1b6398	0.037936777
228	0xbd3afc20	-0.0456506
229	0xbde6fbe5	-0.11278514
230	0xbc9ea2ec	-0.019364797
231	0xbbd57e92	-0.0065153325
232	0x3d7498e7	0.05971613
233	0xbdb855b8	-0.090007246
234	0x3e4553c6	0.19270238
235	0x3cb33179	0.021874176
236	0x3e0f8355	0.14014943
237	0xbe1b762c	-0.15181798
238	0x376f3f54	1.4260255e-05
239	0xbe931f5b	-0.2873486
240	0xbdff3969	-0.12462122
241	0x3d9100b0	0.07080209
242	0xbd8905e6	-0.06690578
243	0x3db4ea75	0.08833782
244	0xbd96be60	-0.0736053
245	0xbd691010	-0.056900084
246	0x3d79498d	0.06086116
247	0xbde0b3a3	-0.10971763
248	0xbeb9993b	-0.36249718
249	0xbd8352a0	-0.06412244
250	0x3d82ca23	0.06386211
251	0xbd84754a	-0.064676836
252	0xbdc8b92d	-0.098009445
253	0xbe266a59	-0.16251506
254	0x3be9947b	0.007128296
255	0xbba8bca0	-0.005149439

linear3.bias f4 [256]
0	0xbdd139c6	-0.102160975
1	0x3c0314f3	0.0080006
2	0xbb3f1494	-0.0029156553
3	0x3ee43cb4	0.44577563
4	0x3d827354	0.06369653
5	0xbd43e7b3	-0.047828387
6	0x3c5d7b32	0.013518142
7	0x3db7110d	0.08938799
8	0xbdaf0b66	-0.08547096
9	0xbd3f1142	-0.046647318
10	0xbd1bd0f8	-0.038041085
11	0xbd9596ef	-0.07304179
12	0x3ca039ce	0.019558813
13	0x3e38abda	0.18034306
14	0x3d4fe82b	0.050758522
15	0xbd36e9e7	-0.04465666
16	0x3df9f822	0.12205531
17	0xbbe7893f	-0.0070659216
18	0x3d1b55c2	0.037923582
19	0x3df37e46	0.11889319
20	0xbcbe4d7c	-0.023230307
21	0xbd7d1bf3	-0.061794233
22	0xbdae9d32	-0.085260764
23	0x3dd23112	0.10263266
24	0x3aa34500	0.0012456477
25	0xbd85d179	-0.06534094
26	0x3e17e3fa	0.1483306
27	0xbdd2153e	-0.10257958
28	0x3deb7ba4	0.11498192
29	0xbb6ae2c9	-0.003584074
30	0xbddf7af1	-0.10912121
31	0x3db51fac	0.088439316
32	0xbcd1d2c0	-0.025613189
33	0xbbe22697	-0.006901573
34	0xbdc46594	-0.09589687
35	0x3dd37deb	0.10326751
36	0xbd8292cf	-0.06375658
37	0xbc839bf2	-0.016065571
38	0x3c82a12f	0.015945999
39	0x3d99b7cd	0.0750576
40	0xbde9d82f	-0.11418187
41	0xbc89eb5c	-0.01683586
42	0xbdde75c9	-0.108623095
43	0x3e35b807	0.17745982
44	0x3b1f5a09	0.002431514
45	0x3de0c3c3	0.109748386
46	0xbd9a842a	-0.075447395
47	0x3eba502f	0.363893
48	0x3e0ccc8e	0.13749906
49	0x3cdb02ac	0.026734672
50	0xbd262c73	-0.040569734
51	0xbd0e1a4e	-0.034693055
52	0xbcb2ee74	-0.021842219
53	0x3de33110	0.11093342
54	0x3d3bce70	0.04585117
55	0xbd91d6e7	-0.071210675
56	0xbe23c34d	-0.1599247
57	0xbd770bde	-0.06031405
58	0x3d8e6d3b	0.06954428
59	0x3d814b18	0.06313151
60	0x3d4f1688	0.050558597
61	0x3c9cdeb9	0.019149171
62	0x3d82efb5	0.06393377
63	0xbdeea382	-0.116522804
64	0xbcb3a8ee	-0.021931138
65	0xbe14c368	-0.14527667
66	0xba9f9435	-0.0012174906
67	0x3dfc069a	0.12305947
68	0xbd03175b	-0.032004695
69	0xbba321e6	-0.0049784062
70	0x3c9955f4	0.018717743
71	0xbd692855	-0.05692323
72	0xbe39a235	-0.18128283
73	0xbaf753cc	-0.0018869578
74	0x3d9f83e7	0.0778883
75	0x3f0f7b4c	0.5604751
76	0xbe09932a	-0.13435045
77	0x3cc0b469	0.023523526
78	0x3e03aa1f	0.12857865
79	0x3ddcaf78	0.107756555
80	0x3cac20f3	0.021011805
81	0xbd090c72	-0.033459134
82	0x3d987f49	0.07446153
83	0x3d80e027	0.06292754
84	0x3ce9ae6e	0.028525557
85	0x3ca431ac	0.020043217
86	0xbcc5ec53	-0.02416054
87	0xbd5ad683	-0.05342723
88	0xbd4cc8b9	-0.04999611
89	0xbbf3e79d	-0.007443382
90	0xbd57a6c2	-0.052649267
91	0xbd3fb338	-0.046801776
92	0xbd9072ff	-0.07053184
93	0x3c816e30	0.015799612
94	0x3c0bcf67	0.008533335
95	0xbe35effa	-0.17767325
96	0x3e01e4eb	0.12684982
97	0x3d90b2b0	0.07065332
98	0x3d79673d	0.06088947
99	0x3cf034da	0.029322077
100	0x3dda9ce6	0.10674457
101	0xbd00c3ea	-0.03143684
102	0xbc41e2bb	-0.011833842
103	0x3e25f637	0.16207205
104	0xbc9845f1	-0.018588038
105	0x3c4b0eab	0.012393634
106	0xbc3e19a1	-0.01160279
107	0xbd43e520	-0.047825933
108	0x3d19f051	0.0375827
109	0x3d4dff95	0.05029257
110	0xbd4c29b9	-0.049844477
111	0x3dcc9205	0.099887885
112	0x3e8c77dd	0.27435198
113	0xbdbca4d3	-0.09211125
114	0xbd49e0a3	-0.049286496
115	0xbdb483b6	-0.08814184
116	0xbcafdd6a	-0.021467883
117	0xbcc7c6b9	-0.02438675
118	0x3dc68900	0.096940994
119	0xbd66df47	-0.056365278
120	0x3dd3a213	0.103336476
121	0xbdc4a421	-0.096016176
122	0xbc532c3a	-0.012888962
123	0x3dbb5d2f	0.09148633
124	0xbdc95f50	-0.098326325
125	0x3c060688	0.008180268
126	0xbbc21449	-0.0059228283
127	0x3d01c060	0.031677604
128	0x3d4c7380	0.049914837
129	0x3cd8c269	0.02645989
130	0x3e707a86	0.23484239
131	0xbcf5d743	-0.030009871
132	0xba99fbc7	-0.0011748009
133	0xbe1eb455	-0.15498479
134	0xbd83be3f	-0.06432771
135	0x3e078dfb	0.13237755
136	0x3c993fb6	0.018707138
137	0xbdfb759b	-0.12278291
138	0xbde74132	-0.11291732
139	0x3c2df2b7	0.01061695
140	0xbdd6db89	-0.10491092
141	0x3cdde306	0.027085792
142	0x3d171ad4	0.03689082
143	0xbd1fd73f	-0.039023634
144	0xbd277bbc	-0.040889487
145	0x37650f74	1.3653062e-05
146	0x3d276cd9	0.04087529
147	0x3e526588	0.20546544
148	0x3d10623c	0.035249934
149	0xbcb0a937	-0.021565063
150	0x3d82db9c	0.063895434
151	0x3e2f260e	0.1710436
152	0xbd5ea435	-0.05435582
153	0x3dfc9dbe	0.123347744
154	0xbc94bef9	-0.01815747
155	0x3dd4d358	0.10391873
156	0xbd0e2529	-0.034703407
157	0x3d0f51a3	0.034989964
158	0x3da20eac	0.07912955
159	0xbd91b66a	-0.07114871
160	0xbe11a9f8	-0.14224994
161	0x3c87f16f	0.016594617
162	0xbd752b1a	-0.059855558
163	0x3dc895ec	0.0979422
164	0xbe1ce43c	-0.1532144
165	0x3c366c7f	0.011134266
166	0xbd64ac05	-0.055828113
167	0x3dcf2bf2	0.10115804
168	0x3c95145b	0.018198183
169	0x3da7035d	0.08154938
170	0xbbe456d3	-0.006968358
171	0x3e083dd8	0.13304842
172	0x3c379970	0.011206016
173	0xbe240643	-0.16018014
174	0xbe246092	-0.16052464
175	0xbc0e0091	-0.008667127
176	0x3e23ec33	0.16008072
177	0xbd9341d5	-0.07190291
178	0xbca7f329	-0.02050169
179	0x3e117f78	0.14208782
180	0xbca42029	-0.020034866
181	0xbcc45b84	-0.02396942
182	0xbe1eacf0	-0.15495658
183	0xbdceb1d0	-0.10092509
184	0x3c9fcbcd	0.01950636
185	0x3d190173	0.037354898
186	0xbc291c03	-0.01032162
187	0x3d9ae3dd	0.07562993
188	0x3c48eaea	0.012263039
189	0x3c7031b6	0.0146602895
190	0xbcaa0842	-0.02075589
191	0x3be15e45	0.006877693
192	0x3d4341fa	0.047670342
193	0x3c01b42d	0.007916492
194	0x3d711cfd	0.058865536
195	0xbe30b814	-0.1725772
196	0xbd205529	-0.039143715
197	0x3ce3f5b6	0.027827125
198	0x3d919fac	0.07110533
199	0x3c8fdad0	0.017560393
200	0x3dd496c3	0.10380318
201	0xbe497320	-0.19672823
202	0x3d4dc79a	0.050239183
203	0xbd6e8e5d	-0.058241237
204	0xbb0659f3	-0.0020500391
205	0x3d1b1e2d	0.037870575
206	0x3e035f33	0.12829284
207	0x3d9c8600	0.07642746
208	0x3ce8ab4d	0.028401995
209	0x3e0e6476	0.1390551
210	0x3e04f183	0.12982754
211	0x3d08bc67	0.0333828
212	0x3d71c27b	0.05902336
213	0x3b325ba6	0.0027215271
214	0x3cbc043a	0.022951234
215	0x3e000557	0.12502037
216	0x3d86b7de	0.06578039
217	0x3d28f97f	0.041253563
218	0x3d692c60	0.056927085
219	0xbce39447	-0.027780665
220	0x3dac1764	0.08402899
221	0xbe012d41	-0.12614919
222	0xbdb106df	-0.08643889
223	0xbceb59d7	-0.028729362
224	0xbd512266	-0.051058196
225	0x3f1fe3ef	0.62457174
226	0xbd89e1bd	-0.06732509
227	0xbb51015e	-0.0031891684
228	0xbc5fa144	-0.013649289
229	0xbd9d5162	-0.07681538
230	0x3c092888	0.00837148
231	0x3dfd9993	0.123828076
232	0x3ce1b1db	0.027550628
233	0x3d96d9d1	0.07365764
234	0xbc8df66d	-0.017329419
235	0x3d275a2b	0.040857475
236	0xbd8250a5	-0.06363038
237	0xbd74a7ef	-0.059730466
238	0x3c0947cf	0.008378937
239	0xbd80c9c4	-0.06288484
240	0xbc9b081f	-0.01892477
241	0xbce9a151	-0.028519304
242	0xbd514af0	-0.051096857
243	0xbd9ced94	-0.07662502
244	0xbdd1b127	-0.10238867
245	0xbdca8298	-0.0988819
246	0x3cf2abf5	0.029623011
247	0x3d2a2b42	0.04154516
248	0x3c00bb99	0.007857227
249	0xbdff192b	-0.12455972
250	0x3c1b6c4a	0.009486267
251	0xbd1cf90e	-0.038323455
252	0xbdf2dc5a	-0.11858435
253	0xbd2a5b44	-0.041590944
254	0xbdc637dc	-0.09678623
255	0xbd9afbac	-0.07567534

mean_linear.weight f4 [2, 256]
0	0x3e5507c8	0.2080375
1	0x3ea2499e	0.3169679
2	0x3eec95a3	0.46207914
3	0xbd1aac71	-0.03776211
4	0xbcadb2fc	-0.02120351
5	0x3f0409cd	0.51577455
6	0xbe7521b6	-0.23938641
7	0x3e28f1d6	0.16498503
8	0xbd56e1e9	-0.05246154
9	0xbe2398fa	-0.15976325
10	0xbebe5c81	-0.3717995
11	0x3ea90eaa	0.33019
12	0x3e97e35a	0.29665643
13	0x3e2348e3	0.15945773
14	0x3bac4e2e	0.005258343
15	0x3d9925f2	0.074779406
16	0x3e9cf975	0.3065907
17	0x3eb7d7ab	0.3590673
18	0x3eb1e647	0.34746
19	0x3e9d156c	0.30680406
20	0x3e737264	0.23774105
21	0xbde11512	-0.10990347
22	0xbe10c498	-0.14137495
23	0x3ec61d94	0.3869444
24	0xbeb5ff4c	-0.3554634
25	0x3d2f817c	0.042848095
26	0xbe226d48	-0.15862
27	0x3e98fb6a	0.29879314
28	0x3eafa2dd	0.34303942
29	0xbea3d1e9	-0.31996086
30	0x3ea2ef34	0.31823123
31	0x3e04c246	0.12964734
32	0xbe79e295	-0.2440284
33	0x3eb6dd9a	0.35715944
34	0x3e877f7e	0.26464456
35	0xbe343a3c	-0.1760034
36	0xbdc40fd8	-0.095733345
37	0x3e390621	0.18068744
38	0xbe563fe9	-0.20922817
39	0x3f4da8b3	0.8033554
40	0x3ee40678	0.44536185
41	0x3e8c3b72	0.27389103
42	0xbec9570a	-0.39324218
43	0xbd869829	-0.06571991
44	0x3d3db38e	0.046313815
45	0xbe734152	-0.23755386
46	0x3ef1304b	0.47107157
47	0xbd65c0da	-0.05609212
48	0x3e0b2106	0.13586816
49	0xbe1e73f6	-0.15473923
50	0xbe1f313d	-0.15546127
51	0x3d24882a	0.04016892
52	0xbecec16e	-0.4038195
53	0x3e503363	0.20332102
54	0x3dc79de0	0.09746909
55	0x3dafafa8	0.08578426
56	0x3d498bc7	0.049205568
57	0xbd380add	-0.044932235
58	0x3e264cb4	0.16240197
59	0xbe992ce5	-0.29917064
60	0x3ca25e30	0.019820303
61	0xbee4fe25	-0.44725147
62	0xbd556236	-0.052095614
63	0xbd3600c2	-0.044434316
64	0x3f0dd45e	0.5540217
65	0x3c9e2e43	0.019309169
66	0x3ebe158a	0.37125808
67	0x3de7c0c8	0.11316067
68	0xbec1aa01	-0.37825015
69	0xbe98aa5a	-0.29817468
70	0x3d3e46a5	0.04645409
71	0xbe4ff20f	-0.20307182
72	0xbdf25dbb	-0.11834284
73	0x3de5b6c5	0.11216501
74	0x3d8b5270	0.06802833
75	0xbc100c41	-0.008791984
76	0x3e2ff1db	0.17182104
77	0xbed77eda	-0.42088968
78	0x3cc3c559	0.023897814
79	0x3f4764f2	0.77888405
80	0x3ed9c7c4	0.42535222
81	0x3ee134c2	0.43985564
82	0x3e12998a	0.14316383
83	0xbe7f8310	-0.2495234
84	0x3e99abef	0.30013987
85	0xbea3b40c	-0.31973302
86	0x3e86c0ba	0.26318914
87	0xbe3abe65	-0.18236692
88	0xbead0125	-0.33789936
89	0xbcd24de4	-0.025671907
90	0x3eea043e	0.45706362
91	0xbf21af8c	-0.6315849
92	0x3eeb06c7	0.45903608
93	0xbe98a42d	-0.29812756
94	0xbeb58164	-0.3545028
95	0x3c351587	0.011052496
96	0xbe1d6249	-0.15369524
97	0xbe393c10	-0.18089318
98	0xbc89932d	-0.016793812
99	0x3e2af2dd	0.16694207
100	0x3e6b1293	0.22956304
101	0x3ed540ff	0.4165115
102	0xbe8730d5	-0.26404443
103	0xbc9536aa	-0.018214542
104	0xbee9c34e	-0.45656818
105	0xbf1e0912	-0.6173259
106	0x3efedb1b	0.4977654
107	0xbeabf959	-0.33588675
108	0x3efe4a16	0.49665898
109	0x3ebc2f07	0.3675463
110	0xbd4edc68	-0.050503165
111	0x3e8f2b0e	0.27962536
112	0xbe79fecc	-0.24413604
113	0x3d11f992	0.0356384
114	0xbef59955	-0.47968546
115	0xbe9349d7	-0.28767273
116	0x3cc98489	0.02459933
117	0xbe923513	-0.28556117
118	0xbe9af411	-0.30264333
119	0x3d411264	0.04713668
120	0x3eeb69d1	0.4597917
121	0xbf14cf68	-0.58128977
122	0xbe93d6e0	-0.28874874
123	0xbed16930	-0.40900564
124	0x3e4be7aa	0.19912592
125	0xbe31a6bf	-0.17348765
126	0xbee580a5	-0.4482471
127	0xbe443caa	-0.19163767
128	0x3dbe8dfa	0.09304424
129	0xbe9b03bb	-0.30276284
130	0x3dcb9ebe	0.09942387
131	0xbcb6ebaf	-0.02232918
132	0x3e80690e	0.2508015
133	0x3e9e7737	0.3095033
134	0x3cb87f3b	0.022521606
135	0xbb2cf758	-0.0026392546
136	0x3e27b034	0.1637581
137	0x3e5179c0	0.204566
138	0x3e5414cb	0.20711057
139	0xbb659004	-0.0035028467
140	0x3bf7901c	0.007555021
141	0xbe31311a	-0.17303887
142	0x3e41268a	0.18862358
143	0xbd2d8507	-0.042363193
144	0xbd9b77ad	-0.07591186
145	0xbf0c35be	-0.54769504
146	0x3e9c2b25	0.30501667
147	0xbbb5ff7e	-0.0055541387
148	0x3e140bc1	0.14457609
149	0xbea47f50	-0.32128382
150	0x3e5c88c3	0.21536545
151	0x3e1ad649	0.15120806
152	0xbe8e66ad	-0.2781271
153	0x3e4f9e11	0.20275141
154	0xbe965503	-0.29361734
155	0x3e8c930d	0.2745594
156	0xbe1b5072	-0.15167406
157	0xbe5ec387	-0.21754275
158	0xbe873e80	-0.2641487
159	0xbe6af5b3	-0.2294529
160	0xbde4f39c	-0.11179277
161	0xbe26c084	-0.16284376
162	0xbe87ad32	-0.26499325
163	0xbe95261c	-0.29130638
164	0x3ed0f55b	0.4081219
165	0xbf2d5382	-0.6770555
166	0xbf097046	-0.5368694
167	0x3e00b793	0.12570028
168	0x3ebe6676	0.37187546
169	0xbe92c03e	-0.28662294
170	0xbf5ae619	-0.8550735
171	0x3eead873	0.45868263
172	0x3e5f642e	0.2181556
173	0x3e55384c	0.20822257
174	0x3de045b1	0.109507926
175	0x3e58bc06	0.21165475
176	0xbee74bda	-0.45175058
177	0xbcd9a9bc	-0.026570193
178	0xbe097956	-0.13425192
179	0x3e3ca27d	0.1842136
180	0xbdbaad93	-0.09115138
181	0x3e3fce9c	0.18731159
182	0x3e5d6eea	0.21624342
183	0x3d0c415f	0.03424203
184	0x3f0152ba	0.50516856
185	0xbe74a681	-0.23891641
186	0xbeb52233	-0.35377654
187	0x3e6275d3	0.22115259
188	0x3e849b5c	0.2589978
189	0x3ee78d0b	0.45224795
190	0x3e611d2c	0.21983784
191	0x3ef0b5f2	0.47013813
192	0x3e1835f8	0.14864337
193	0xbe0da73b	-0.13833325
194	0xbec8e24e	-0.39235157
195	0xbe90a898	-0.28253627
196	0xbebceb70	-0.36898375
197	0x3ae18222	0.001720492
198	0x3f043a57	0.5165152
199	0xbe328564	-0.17433697
200	0x3da191bb	0.07889124
201	0x3e7f7a67	0.24949037
202	0x3ed20139	0.41016558
203	0x3edb3a15	0.4281775
204	0x3c5a3314	0.013317842
205	0xbddc49cc	-0.10756263
206	0xbdd98858	-0.10621709
207	0x3d93686b	0.071976505
208	0xbdf4d65e	-0.1195495
209	0xbeaa8af1	-0.3330913
210	0xbe963ce2	-0.29343325
211	0xbe87806b	-0.26465163
212	0xbd9934db	-0.074807845
213	0x3e9c4ae0	0.30525875
214	0x3d9eeeb9	0.077603765
215	0x3c9775a6	0.018488716
216	0x3e03ef23	0.12884192
217	0x3e116b44	0.14201075
218	0x3dae9fad	0.085265495
219	0xbe924dc4	-0.28574955
220	0x3f025dcd	0.5092438
221	0xbe9fdeba	-0.31224614
222	0x3ea2a43b	0.31765923
223	0xbe8d28b4	-0.27570117
224	0x3ede863e	0.43461794
225	0x3c68c1f5	0.014206399
226	0xbe0d502b	-0.13800113
227	0xbe9be07f	-0.30444714
228	0xbecefec2	-0.4042874
229	0xbf0a5a29	-0.54043823
230	0x3e23eefa	0.16009131
231	0xbe8de05e	-0.2771024
232	0x3e8cda65	0.27510372
233	0x3ea48aee	0.32137245
234	0xbea16c03	-0.3152772
235	0x3eb88a93	0.36043224
236	0x3eab9d7f	0.33518597
237	0xbe565a66	-0.20932922
238	0x3ea2a60a	0.31767303
239	0x3ea01c98	0.31271815
240	0x3d9f8d87	0.07790666
241	0xbe06a200	-0.13147736
242	0x3db9e71a	0.09077282
243	0xbe6e7e55	-0.2329038
244	0x3cbcd191	0.023049148
245	0xbd416a29	-0.047220383
246	0xbed1ee53	-0.4100214
247	0xbe8bab37	-0.27279064
248	0x3e02d5ed	0.12776919
249	0xbe6b3d04	-0.22972494
250	0x3e76a13f	0.24084948
251	0x3e982d9c	0.29722297
252	0x3e076cf0	0.1322515
253	0x3f155cbc	0.58344626
254	0xbe777179	-0.2416438
255	0xbc04ac3c	-0.0080977045

mean_linear.bias f4 [2]
0	0xbc6e194a	-0.014532397
1	0x3b6ce3b2	0.003614646
