hydrone_aerial_underwater_ddpg/scripts/Models/sac_stage_2_air2D_tanh_4layers/540_value_net.pth (torch_old, 585472 bytes, 10 tensors)

linear1_q1.weight f4 [256, 26]
000000 f5 90 77 bd 9b 27 85 3e 23 02 25 3e 9c ac 71 3e
       -0.060440976 0.2600678 0.16114096 0.23601002
000010 70 b9 31 bd dc 4c b5 be ed 96 2c be ba db 46 bc
       -0.043389738 -0.35410202 -0.16854449 -0.012137348
000020 5e ae bd 3d 0d 7e 22 3d aa ae 96 3d c1 32 f5 bd
       0.092617735 0.039670993 0.07357533 -0.11972571
000030 d5 da 35 be 82 68 83 3d cb de 77 3d 20 70 16 bd
       -0.17759259 0.06416418 0.060515206 -0.036728024
000040 78 4b cf bd 5e 76 e8 ba cc c0 a2 bd 48 e2 30 3e
       -0.101218164 -0.0017735471 -0.07946929 0.1727382
000050 99 0e 85 bd 49 52 1f 3e 77 d4 6e 3e ae 67 9b be
       -0.06496925 0.15558733 0.23323236 -0.3035254
000060 6e 72 c1 3d 2e 9a 0e 3e db d7 ac 3d 5f b5 5d bd
       0.09445654 0.13926002 0.08439609 -0.054128047
000070 0b 47 2e be ee 53 09 3d 50 a9 d3 3d e8 ce 3b 3e
       -0.17019288 0.033527307 0.10335028 0.18340647
000080 dd 88 0a 3d ae 22 92 bd 55 6f 8f bd 1f 2f 03 be
       0.03382193 -0.07135521 -0.07003657 -0.12810944
000090 d6 e7 eb 3d b6 07 21 be dd 81 b7 bc 11 98 12 3c
       0.115188286 -0.15725598 -0.02240079 0.008947388
0000a0 a1 58 f5 3c 74 0a 22 be ad 79 14 3e 41 86 51 3e
       0.029949488 -0.158243 0.1449954 0.2046137
0000b0 1d bf e0 3d a5 6a 2a 3e 5e 57 ea be ff eb 19 3f
       0.10973952 0.16642244 -0.4576978 0.60125726
0000c0 50 ae 11 bf bb 0f 1b bf 66 2f d7 3e 40 d0 98 be
       -0.56906605 -0.6057088 0.4202835 -0.29846382
0000d0 30 7d ab bd a7 08 aa 3d 87 f9 60 3e 6f ee f7 3d
       -0.08373487 0.083024316 0.21970187 0.121060245
0000e0 63 5a fd 3c 3b e1 8c be 04 02 98 bd 62 6e ed 3d
       0.030926889 -0.27515587 -0.074222594 0.115933195
0000f0 ec 27 28 3e e6 7b 55 3e c2 20 41 bd 4c 43 24 bd
       0.16421479 0.20848045 -0.04715038 -0.04010324
000100 99 ff a4 3d 0a b0 04 be f6 83 05 be 96 42 3b be
       0.08056564 -0.12957779 -0.1303862 -0.1828712
000110 cb b8 a8 bd 37 0c 82 bd a6 28 c0 3d 6c b4 34 bc
       -0.082383715 -0.06349986 0.09382753 -0.011029344
000120 5b 0a a5 bd de 54 c8 3e 32 72 14 3f 1c 6a 42 3d
       -0.08058616 0.3912725 0.5798675 0.047464475
000130 40 c7 71 be 7f 98 90 3e 17 c9 81 be 0d 18 0b be
       -0.23611164 0.28241345 -0.25348732 -0.13583393
000140 d5 4d 71 3c 79 dc 53 bd 88 ca b4 3d 6b 99 ac bc
       0.014728029 -0.05172393 0.08827692 -0.02106925
000150 4f 5d 3e be 07 aa 3f 3c f5 3b dc bd a2 05 01 3e
       -0.18590282 0.0116982525 -0.107536234 0.12599805
000160 ba 84 6c 3d 5b d2 17 bb 47 d1 19 3d 68 46 12 be
       0.057743765 -0.0023166153 0.037553098 -0.1428467
000170 44 78 43 be b6 30 0d 3d 39 8e fc 3d d5 96 ad 3d
       -0.19088846 0.034470282 0.12331814 0.084760346
000180 ed de 3b 3b c8 85 f2 bd 0e 9e 7d be c7 e5 0b bd
       0.002866681 -0.11841923 -0.24767324 -0.03415468
000190 f1 54 4e 3c 35 9e 78 bf 96 c7 55 3d 99 81 60 3e
       0.012593494 -0.97116405 0.052192293 0.21924438
0001a0 13 e7 53 3e 95 e1 3c 3e e8 20 c5 bd 99 5a 87 bd
       0.20693617 0.18445428 -0.09625417 -0.06609077
0001b0 2c 88 6f 3d 9b c2 1d be 01 4d 6e be 82 88 f9 bd
       0.058479473 -0.15406267 -0.23271562 -0.1218424
0001c0 0b 8e c0 3c 1f 72 ca 3d 6f 1b cf bd e3 6a a1 be
       0.023505231 0.09885048 -0.101126544 -0.3152686
0001d0 f0 86 9c bc 43 a6 c8 3d d1 32 fd 3d 45 c8 34 3e
       -0.019107312 0.09797337 0.12363208 0.17654522
0001e0 60 3d cf 3d 26 02 09 3e 43 a3 01 be 3b 85 b9 bd
       0.10119128 0.13379726 -0.12659936 -0.09058615
0001f0 a5 31 bd be 3f 5e b5 3d 43 61 75 3f 83 aa 9d be
       -0.36951938 0.08855867 0.95851535 -0.30794153
000200 cb b3 9d be ff c3 51 3f 28 66 82 bc c5 a4 20 be
       -0.30801234 0.8193969 -0.015917853 -0.15687855
000210 a2 e5 1e 3e f0 99 5b 3e 6d ed 2e 3c a3 2a 8c 3c
       0.15517285 0.21445441 0.010676724 0.017110175
000220 f1 3e 05 3d f3 93 44 3d e2 00 8b 3d b9 bc 4a be
       0.03253073 0.047992658 0.06787278 -0.19798554
000230 0e f4 36 be ed 77 74 be 69 84 97 bd 8b a8 6b be
       -0.17866537 -0.23873873 -0.07398302 -0.23013513
000240 d6 18 28 be 61 98 58 be ee 33 41 be 67 91 d2 bb
       -0.16415724 -0.21151878 -0.18867466 -0.0064260247
000250 03 fd 60 3e f9 47 b7 3d 18 87 2b 3e e9 f9 11 bf
       0.21971516 0.089492746 0.16750753 -0.5702196
000260 cb e6 13 3d 09 b6 12 bf 62 a7 52 3e 24 9e bd 3e
       0.036108773 -0.57309014 0.20571664 0.37034714
000270 6d ff 8b bc 2b 20 61 bd 14 f1 90 3c 80 d7 b4 be
       -0.01708957 -0.05496232 0.01769308 -0.35320663
000280 77 cc 18 3d 02 1f 14 3e 6b 33 af 3e b4 a5 36 3e
       0.037304368 0.14464954 0.34218916 0.17836648
000290 54 08 d6 bd 9b 88 c6 bd 15 66 11 bd ca d9 1c be
       -0.10450807 -0.09694024 -0.035497744 -0.15317455
0002a0 59 30 a8 3b 86 a1 5f 3d e5 a7 92 3d 07 1d 88 bd
       0.0051327166 0.0545974 0.071609296 -0.066461615
0002b0 97 dd a5 bd 9c ce f3 3c db f5 df 3d 96 1c c0 bb
       -0.080989055 0.029761605 0.10935565 -0.0058627827
0002c0 1b 84 87 be e8 94 5b be 21 ba 31 be c6 ec be bd
       -0.26467976 -0.21443522 -0.17356159 -0.09322505
0002d0 2d 12 9e bc 0a 3e 76 be 95 4a ba bd 48 71 5c 3d
       -0.019295776 -0.24047104 -0.09096257 0.05381897
0002e0 8d 5a 79 bd 69 7c e6 3d 36 2f a8 bd 4f 0a 42 3e
       -0.06087737 0.11254198 -0.0821213 0.18949245
0002f0 b7 6a 87 3d 9e bd 4f be 6d e4 49 bd fb b4 fc bd
       0.06612151 -0.20287177 -0.04929011 -0.12339207
000300 b6 dc dc 3c 43 b0 4e bd b8 b1 9b be 7e 5d 82 be
       0.026960712 -0.050461065 -0.30409026 -0.25461954
000310 d9 7e c6 3d 69 72 38 3e e9 24 5a bd 23 ea 8f 3d
       0.09692163 0.18012394 -0.053257857 0.0702708
000320 20 e9 f5 3c 63 b6 5e be 8f ca 9e bf 1d 83 1d 3d
       0.03001839 -0.21749263 -1.2405566 0.038455117
000330 d5 32 f4 be 3b 2a c8 bd dd 84 57 be c0 3f 53 3e
       -0.47695032 -0.0977368 -0.21046777 0.20629787
000340 08 6f 48 be 2c bc a4 be 33 ff 00 be 1b 40 dc bb
       -0.19573605 -0.32174814 -0.12597351 -0.006721509
000350 71 4b 8b bd 7c b6 dc bd 54 8a 0e bd b0 ce ee 3d
       -0.06801499 -0.10776994 -0.03479989 0.11660516
000360 9f ad 7c 3e d7 67 89 3d bd 71 1c 3e 9c 0a 13 bd
       0.24675606 0.06709259 0.15277763 -0.03589879
000370 2d db 86 bd cb e5 1d 3d a7 6d d0 3c f6 ea 50 bd
       -0.06584773 0.038549226 0.025442911 -0.051005326
000380 01 4b 72 be 59 7f 46 3e 1c 7d 41 bc e5 89 3f 3e
       -0.23661424 0.19384517 -0.011809614 0.18704946
000390 d7 8e 53 3d f3 f4 cb 3e 29 4a 7f 3e 17 3b 1b bf
       0.051649895 0.3983532 0.24930634 -0.6063704
0003a0 54 46 ca 3e 6a e0 c1 be 3a 39 d1 bc a6 8b c8 bd
       0.3950678 -0.37866527 -0.025539983 -0.09792261
0003b0 66 6c 24 bd 1d 2a ed bd 71 cc 0b 3e 5e bc 87 bd
       -0.04014244 -0.11580298 0.13652207 -0.06627725
0003c0 22 80 dd 3d 4e 72 74 3d 05 a0 25 3e bb 39 06 3e
       0.10815455 0.059679322 0.16174324 0.1310796
0003d0 65 96 0d be ee 3f 96 3c 6f a0 66 3e e7 fc e6 bd
       -0.13826902 0.01834103 0.22522138 -0.11278706
0003e0 7d fc b4 bd 3a b4 55 bd 69 42 cc bd 0b c7 a7 3d
       -0.08837221 -0.05217383 -0.09973604 0.08192261
0003f0 cb 80 88 3d 4a cc 26 3e 51 d8 b7 be d9 f4 e0 bd
       0.0666519 0.16288868 -0.35907224 -0.10984201

linear1_q1.bias f4 [256]
000000 ba 76 8d 3e ae ca 87 3e 95 68 d2 3d fe 0b b1 bc
       0.27629644 0.2652182 0.10273854 -0.021612164
000010 d3 88 67 3c a5 11 36 3d f5 61 2c 3e 22 76 e6 3c
       0.0141317425 0.04445042 0.16834243 0.028132502
000020 be 00 80 bd ad 9e 82 3e cf 4e 07 3e 0a 93 16 3d
       -0.062501416 0.25511685 0.13213657 0.03676132
000030 fc ab cb bd 21 18 1c bc f8 7b 19 be 8e 49 13 3d
       -0.09944913 -0.009527237 -0.14988697 0.03595882
000040 3d be d1 3d 54 a4 c2 bc 47 7d 7f 3e 12 0b 86 3e
       0.10241363 -0.023759998 0.24950133 0.2618032
000050 fc 6e 5c 3e 6c cf f8 bc e9 f7 94 3d ec ab 3f 3e
       0.21526712 -0.030372344 0.072738476 0.18717927
000060 a4 1b 1c bc d7 78 90 3d 00 00 00 00 83 a1 c1 3d
       -0.009528074 0.07054298 0.0 0.09454634
000070 4c 5d f7 bd 75 56 e8 bd f5 7f d3 3c 69 a3 15 be
       -0.12078342 -0.11344615 0.02581785 -0.14613117
000080 cf c0 94 3d 8e 50 2e 3e eb 4e 6d 3d 0e db f9 bd
       0.07263338 0.17022917 0.05793659 -0.121999845
000090 0c 25 97 3e 75 ad 7a bd 11 8a e2 3b 84 05 97 bb
       0.29520452 -0.061200578 0.0069134315 -0.004608812
0000a0 ac b4 a4 3e 6e 42 19 3e ad 6d 1b 3e 8e cb 11 be
       0.32169092 0.14966747 0.15178557 -0.14237806
0000b0 18 32 b7 bd 85 d6 36 3d e4 5a ac bd 80 5f f3 3d
       -0.089451015 0.044638176 -0.084157735 0.118834496
0000c0 76 2a 82 3e bf 7e 09 be 97 31 f9 3d 04 da 19 3d
       0.2542302 -0.13427256 0.12167662 0.03756143
0000d0 60 2d 3c be e9 da bc 3d 99 6f f8 bd b3 53 37 be
       -0.18376684 0.09221441 -0.121306606 -0.17903022
0000e0 32 65 29 3d 45 6e 52 3d 71 87 62 bd 04 36 75 3e
       0.041356273 0.051374692 -0.05530495 0.23946387
0000f0 f4 e1 0c 3e 00 9a 81 bc e1 c0 9d bd 4e 58 46 3e
       0.1375807 -0.015820503 -0.07702804 0.19369623
000100 0b 2a 8f 3d 96 00 63 3e df 5f bf bd b0 f9 9d bc
       0.06990441 0.22168192 -0.09344458 -0.0192841
000110 e8 e5 c2 3e e6 f2 00 3e ea 20 1c bc 00 00 00 00
       0.3806603 0.12592658 -0.009529332 0.0
000120 51 c6 6c 3d 42 c4 46 3c d4 e4 8d 3e f8 ad 3b ba
       0.057806317 0.012131752 0.27713645 -0.0007159407
000130 67 16 ca bd 7f bf 4e 3e fe a4 3c 3e d8 3c 94 3d
       -0.09867554 0.20190237 0.18422315 0.072381675
000140 a7 4d 27 3e e4 b3 74 bd 11 e5 88 3d 45 25 19 3d
       0.16338216 -0.05974187 0.06684316 0.03738906
000150 56 a9 22 be 1f 64 bb 3e ed a0 af 3d f0 1e 5f be
       -0.15884909 0.36599824 0.08575616 -0.21789145
000160 05 9b a2 3d a8 58 65 bd 71 18 d5 bc 57 01 9e bc
       0.07939724 -0.055992752 -0.026012631 -0.019287748
000170 a8 a6 a6 3e fc c3 35 3e 9b b9 83 3e 60 18 50 3e
       0.32549024 0.17750543 0.25727543 0.20321798
000180 4d 2e 0a 3d 83 2f a4 3e 0b df 14 3d 4e 4f 19 bd
       0.033735562 0.320675 0.036345523 -0.037429146
000190 13 22 30 be ea 77 08 3e b4 b8 46 3e 4e 99 21 3a
       -0.17200498 0.13326994 0.19406396 0.0006164507
0001a0 7d 4f 92 3e 53 a9 f6 bc d2 1c ed bd a0 f4 f0 3d
       0.2857627 -0.030110037 -0.11577763 0.117654085
0001b0 9b 96 60 3e c9 a7 b1 3d 04 1c 9c bc 00 00 00 00
       0.21932451 0.086745806 -0.019056328 0.0
0001c0 5c 5b 84 3d bf 9f 74 3d 95 51 12 3c 6f c0 4d 3e
       0.06462738 0.05972266 0.0089305835 0.20092939
0001d0 37 09 2b 3e 0b 63 52 3e 8d 23 c7 bd 75 d4 13 be
       0.16702734 0.20545594 -0.09723578 -0.14436515
0001e0 a9 06 79 3e e8 61 ad 3d 61 7b 90 bd 25 f2 9b 3d
       0.24318947 0.0846594 -0.07054783 0.07614545
0001f0 8f 47 86 3e cc 5b 97 3e 7d 3d e1 bd ea 9d 05 bd
       0.2622647 0.29562223 -0.10998056 -0.0326213
000200 3e 9d 39 3e 93 2e e8 3c 7c 1e b4 3c d0 50 18 bd
       0.1812639 0.02834252 0.021987192 -0.037186444
000210 35 e2 5a 3e 30 ee 21 be 47 b3 b2 3d 5b be 02 be
       0.21375354 -0.15813518 0.08725601 -0.12767927
000220 4a 69 4f 3e c2 01 ee bd ad 77 12 3e b0 97 23 be
       0.20255008 -0.11621429 0.14303465 -0.15975833
000230 cd 09 16 3e 88 20 e1 bc 1d d3 93 bd be 48 92 3e
       0.14652176 -0.027481332 -0.07218001 0.28571123
000240 95 13 9c bd 14 ad 53 3e dd 51 2e 3e eb 60 b1 bc
       -0.076209225 0.20671493 0.17023416 -0.02165266
000250 95 b8 7a 3d 6d a0 9c 3c e1 15 54 be 2f b3 6f 3c
       0.061211187 0.019119466 -0.20711471 0.014630123
000260 e3 74 d0 bc d8 f3 f5 3c 35 26 72 3d ea 5a 4f 3e
       -0.02544636 0.0300235 0.05911847 0.20249525
000270 38 20 41 be 77 b2 b3 bd ba 97 bf bd 6e a4 fc bd
       -0.18859947 -0.08774274 -0.093551114 -0.1233605
000280 d3 22 cf bc f0 92 c7 bd ce 5d 9a bd 4d 44 a5 3d
       -0.02528516 -0.09744823 -0.07537423 0.08069668
000290 a9 20 0f be a7 59 94 bd 05 e6 86 3e d0 69 53 3e
       -0.13977303 -0.07243662 0.26347366 0.20645833
0002a0 71 ab 5f bc 76 05 42 3d f6 cd 90 bd 20 88 b8 bd
       -0.013651715 0.04736849 -0.07070534 -0.09010339
0002b0 22 ee 44 3b be a3 b3 3d f2 93 17 3e 8b 4e bb 3d
       0.0030049165 0.08771466 0.1480253 0.0914584
0002c0 c2 5b 2b 3d 46 dc b6 3d 61 09 3c 3d 7b 0f 4e 3d
       0.041835554 0.089287326 0.045907382 0.050307732
0002d0 2a 22 00 be c0 5b 8a 3e 1f 6a b3 3e c8 51 2d 3e
       -0.12513033 0.27023125 0.350419 0.16925728
0002e0 28 eb 52 3d 77 f9 1e 3e 02 05 7e 3d 47 22 64 3d
       0.051493794 0.15524851 0.062016495 0.055696752
0002f0 f7 e4 b9 bd c1 1e 1c bc e3 79 08 3e 92 83 f1 bd
       -0.09076875 -0.009528817 0.13327746 -0.11792673
000300 9a fc 6d 3b 80 e7 55 3b 64 bc e1 3c 6b 68 a2 bd
       0.0036313892 0.0032639205 0.027555652 -0.079300724
000310 41 bf 98 be 42 f5 2e 3d 71 29 cc 3d 24 ee 9a 3b
       -0.29833415 0.042714365 0.09968842 0.0047280956
000320 36 67 83 3e fe 19 4f be af 1d c4 bc 49 82 9e bc
       0.2566468 -0.20224759 -0.023939935 -0.019349234
000330 66 7c 92 bc f3 1f 65 bc ef 8a 57 3e 25 d1 80 be
       -0.017881583 -0.013984668 0.21049093 -0.25159565
000340 96 bc 5c bb 76 5d 7e 3b c5 ee 1f 3e 16 9c 11 be
       -0.0033681742 0.0038813031 0.15618427 -0.14219698
000350 89 47 d6 bd 28 f7 6b 3e b9 c6 65 3e d6 a2 c3 3c
       -0.10462863 0.23043501 0.22439088 0.023881357
000360 96 28 bf 3b 4d 59 40 bc 03 68 2f be 74 1f 1c bc
       0.0058336956 -0.011740041 -0.17129521 -0.009528983
000370 9e 6e 9d 3d 80 cc d7 bd dc 84 b7 3d 31 28 a0 bd
       0.07687114 -0.10537052 0.08960888 -0.07820166
000380 90 11 2c 3d e3 4c 51 bd d1 46 a5 bd c6 7a 69 3d
       0.042008936 -0.051098716 -0.08070148 0.05700185
000390 3b 82 af 3c e0 17 63 3d 27 23 d5 bd e8 a5 23 3d
       0.021424403 0.05544269 -0.104070954 0.039953142
0003a0 f5 60 eb 3d ae 69 58 3e 4b e7 02 3d d0 70 8a bd
       0.114931025 0.21134064 0.03195886 -0.067597985
0003b0 2f c5 9b bd 0b 50 c1 bd 30 d7 12 bd 4a c3 1c 3e
       -0.07605969 -0.09439095 -0.03584975 0.15308872
0003c0 d9 fd a6 bd 0f e1 5f 3e 8d a2 8e 3e de 60 4d 3e
       -0.08153886 0.21863197 0.2785839 0.20056483
0003d0 40 31 23 3d 92 d4 69 bd 8a 85 54 3d b6 c9 87 bc
       0.03984189 -0.05708749 0.051885165 -0.016575675
0003e0 4c 76 70 3e 7b 1a 01 3e f4 79 fc 3d 60 06 b8 3e
       0.23482627 0.12607758 0.12327948 0.35942364
0003f0 67 b7 9a 3e 73 f9 97 3e a9 6c 52 3d a5 5c 85 3c
       0.3021805 0.29682502 0.051373158 0.016279528

linear2_q1.weight f4 [256, 256]
000000 12 ca ce 3d e9 04 40 bd 9a 0f 15 be ec 78 68 3e
       0.100971356 -0.046879683 -0.14556733 0.22702378
000010 aa b9 56 3e 3a c0 4f 3f 88 19 9a 3e 60 c8 2b 3f
       0.20969263 0.8115269 0.30097604 0.67102623
000020 cf 77 b4 bd 0e 5e f5 3d b9 46 96 bd f0 31 3e bf
       -0.08811914 0.1198083 -0.07337708 -0.7429495
000030 ae c7 0b c0 fb 05 7b bd 97 ed 6e 3d b6 ed 20 3f
       -2.1840625 -0.061285 0.058332052 0.6286272
000040 4f 80 29 3e 43 76 b5 3d cc d5 24 3d 82 13 bb 3c
       0.16552852 0.08860447 0.040242955 0.02283645
000050 d7 0d f7 3d 36 4e 6f bc 62 b5 d3 3e 88 ca 48 3e
       0.120631866 -0.014606049 0.41349322 0.1960851
000060 0a b8 6c 3d 1d 23 8e 3d 18 d8 27 bd 5b 45 89 3c
       0.0577927 0.06940291 -0.040977567 0.016756704
000070 13 7f 88 bf b4 d1 a5 bd dc e1 ed bf 26 56 bb 3d
       -1.066378 -0.08096638 -1.8584552 0.09147291
000080 db 1a b9 3e 6f 47 58 bb 1e 63 5b bd 9c 06 47 be
       0.36153302 -0.0033001562 -0.053561322 -0.19436115
000090 fe 8d da bd 1f 6c 44 bf af 69 af 3c b2 8e 6e 3e
       -0.10671614 -0.7672748 0.021412699 0.23296621
0000a0 ab d7 a0 bd ff e3 99 be bb d3 3e 3d 8b c6 08 3e
       -0.078536354 -0.3005676 0.04658864 0.13356988
0000b0 af 0f 16 bf 83 8c 0b bf d6 4c 01 3e 96 81 b2 bd
       -0.5861768 -0.5451128 0.12626967 -0.08716123
0000c0 a4 6a 38 3e c5 45 d6 be 6a 79 14 3e d1 18 67 3f
       0.1800943 -0.41850105 0.14499441 0.9027224
0000d0 f5 38 a5 3e 82 a1 38 3e 53 34 9e be 95 7e 94 3d
       0.32270017 0.1803036 -0.30899295 0.07250706
0000e0 40 bf 5f be f7 df 4c 3c 27 83 12 be 7d 0d 17 bc
       -0.218503 0.012504569 -0.14307843 -0.009219524
0000f0 23 21 45 3d 87 e2 5c be f6 67 e4 3c 7c 49 c4 bd
       0.048127305 -0.21570788 0.027881604 -0.095843285
000100 bf 16 0d bc 9d e2 bf 3e 48 6a 13 3e 27 aa 1f 3b
       -0.00861138 0.3747758 0.14396012 0.0024362893
000110 0f 0d b4 3d 68 90 40 3e e5 7b d2 3d 3e 9f 10 3d
       0.08791553 0.18805087 0.10277537 0.035308115
000120 65 45 c5 bd 07 8a e0 3e 03 6b 9d bc aa 7f e7 3d
       -0.096323766 0.43855307 -0.019216066 0.11303647
000130 a6 94 e9 be d2 e1 dc 3d e4 b9 a1 3e 45 5a e7 3e
       -0.45621222 0.10785259 0.31587136 0.45186058
000140 1d a1 74 3e be 1a 80 be f9 4b 40 3e 25 15 42 3d
       0.23889585 -0.25020403 0.18778981 0.047383446
000150 30 83 26 bf a0 97 ec bd 55 15 2d 3e f3 3c ec 3d
       -0.65043926 -0.11552358 0.16902669 0.11535063
000160 0a 9c 1d 3f 66 53 bd be 25 7d e8 be ee b3 93 3d
       0.6156622 -0.3697769 -0.45407978 0.07212053
000170 0a cc 35 3e cb dd 97 3e 6d b2 44 bd da e2 45 3d
       0.17753616 0.29661402 -0.048021723 0.048312046
000180 a0 1f 1a bf ad 5e 81 bd 83 47 f0 3d ff 8c 43 bf
       -0.60204506 -0.06316886 0.1173239 -0.7638702
000190 f0 b0 2c be 41 87 67 3e da ae 37 bd c5 9c 10 bf
       -0.16864371 0.22610189 -0.044844486 -0.5648921
0001a0 e9 ca 12 bb 3f f4 69 bd dd e4 a6 3e fc 5b d1 3e
       -0.0022398776 -0.057117697 0.32596484 0.4089049
0001b0 c5 bd 02 3e c9 cd f3 bd 1c b7 d0 bc ec 1b 6a bd
       0.12767704 -0.11904485 -0.025477938 -0.057155535
0001c0 6b 14 d5 3e 75 6c ba 3e 16 af bd bd e6 b9 66 bd
       0.4161714 0.3641087 -0.092619106 -0.05632963
0001d0 69 a1 ff 3e 5b fe 2b bb cc 3d 84 3e ca 32 79 be
       0.49927834 -0.0026244137 0.25828397 -0.2433578
0001e0 c3 a6 8e bd 68 a6 8b 3e cf 97 2f 3e 48 f9 98 3e
       -0.06965401 0.27275395 0.17147754 0.29877687
0001f0 5e 45 b3 bc 9f ca 0b 3e 05 c4 ae bc 7e e5 23 bd
       -0.021883663 0.13651513 -0.021333704 -0.040013783
000200 83 a5 2b bd 49 76 a3 bf fc ad 99 bf d4 a6 d5 3d
       -0.04190589 -1.2770473 -1.2006221 0.104322106
000210 10 98 c5 bd 00 f7 a3 be 3a 7c 2e 3d ae e7 fd be
       -0.09648144 -0.32024384 0.04259894 -0.4959082
000220 72 ef 21 bc 8d 16 86 3d e9 78 e5 3e 9e 58 9b be
       -0.009883748 0.0654727 0.4481881 -0.30341047
000230 1c 6d 85 3f 9a 66 9f bd f5 b6 3d 3d 2e 8c 4e 3d
       1.0423923 -0.077832416 0.04631706 0.050426655
000240 cd 64 07 bf 50 83 c4 bd 8c 81 ac 3d 13 5f 1a bf
       -0.52888185 -0.09595358 0.084231466 -0.6030132
000250 3b 88 e7 3e 65 cb 27 3e b4 3a 91 3e a6 bf 75 be
       0.45221123 0.16386183 0.283651 -0.2399889
000260 3c 6b d3 ba 33 eb 23 be fa b8 2f 3f 20 46 2d 3d
       -0.0016129981 -0.1600769 0.68641627 0.042303205
000270 8b 06 c1 be da 3c 5b 3d b2 a2 44 be f9 61 79 bf
       -0.37700304 0.05352483 -0.19202688 -0.9741512
000280 04 90 dd bc d7 f4 10 bf bd dd 17 bf 24 0f a1 bd
       -0.027046211 -0.56623596 -0.5932272 -0.07864216
000290 cb d0 b1 3b 1c f2 b1 bf 36 48 ce bc dc 0b 3e bc
       0.0054265014 -1.3902011 -0.025180917 -0.011599507
0002a0 9d 93 cd bd f0 6a 1b bf ce d5 ef bd 3f 72 5c bd
       -0.100379206 -0.6071005 -0.11710702 -0.05381989
0002b0 e5 7b 2f bf 6d d0 fc bd 4a 49 bb 3e 79 ed 5b bd
       -0.68548423 -0.123444416 0.36579353 -0.05369327
0002c0 a0 77 41 bf 8a 4c 01 3d 33 03 5c 3e 62 79 86 3e
       -0.7557316 0.031567134 0.21485595 0.26264483
0002d0 17 15 8a be 8c fd 9a bd ef 60 cb 3c af c7 dd 3d
       -0.26969215 -0.075678915 0.024826495 0.10829102
0002e0 6c 25 46 3f 19 ae aa 3d ca 52 5d 3e be ad 50 bf
       0.7740085 0.08333988 0.21613613 -0.8151511
0002f0 bb 81 13 3e 14 c7 86 bc ab a2 ff ba 1f 45 6a be
       0.14404957 -0.01645235 -0.0019503435 -0.2287793
000300 65 8d 60 bd 4a d9 13 be ac 51 8b bd 09 c8 2b 3e
       -0.054822344 -0.14438358 -0.06802687 0.16775526
000310 fc 86 68 3e 10 21 76 bf 4f 50 20 3e e9 84 00 bf
       0.22707742 -0.961442 0.15655635 -0.50202805
000320 03 35 99 bc f7 42 09 bf e8 f7 f4 3c 14 01 36 bd
       -0.018702036 -0.53617805 0.029903367 -0.044434622
000330 bc 73 38 3e a8 fa a4 3d e9 bb fa 3d 2e 6b 83 be
       0.18012899 0.080556214 0.12242872 -0.2566771
000340 80 35 c3 bf 89 bc af 3e 89 74 ea 3e c7 64 fa 3d
       -1.5250702 0.34323528 0.45792034 0.12226253
000350 11 1a 25 3d 1d 29 3a 3e 9a 68 ea 3a 7b 1b 36 3e
       0.040308062 0.18179746 0.0017883957 0.1778392
000360 fa ee 59 bf ab 3a 93 3f e2 5c 76 bf 24 33 e9 bc
       -0.85130274 1.1502279 -0.9623548 -0.028466769
000370 27 15 fb 3d b9 8f 08 bf 19 77 ac 3e 1e fc 1c be
       0.12259894 -0.53344303 0.33684614 -0.1533055
000380 56 01 2b 3f ef 5e 0b bf 64 46 c2 be c4 04 25 3f
       0.66798913 -0.5444173 -0.3794433 0.64460397
000390 29 18 d6 be 0b d0 be bc b0 12 6c bf 07 92 55 bd
       -0.41815308 -0.023292562 -0.92216015 -0.052141216
0003a0 21 57 87 3d 91 c7 0e 3e 69 97 17 be 28 83 b8 be
       0.066084154 0.13943316 -0.14803852 -0.36037564
0003b0 de c9 fb bf 11 40 fa 3b 02 3c 21 be 61 2a 9d 3c
       -1.967098 0.007637032 -0.15745547 0.019185247
0003c0 9e c8 7c be 55 8c 25 3e f4 a7 08 bd dc a5 9f 3d
       -0.24685904 0.16166814 -0.033363298 0.07795307
0003d0 f3 6e bc 3c 25 57 40 bf 8f 16 92 bf ed 8a 83 bf
       0.023002123 -0.7513297 -1.1413134 -1.0276772
0003e0 22 36 38 be 67 2b a9 3e 44 0f 4c be 5a ad 5c 3d
       -0.179894 0.33040926 -0.19927698 0.05387626
0003f0 78 f0 86 3e 5f e1 94 3e 23 44 c3 be ae 9c f5 be
       0.26355338 0.29078194 -0.38137922 -0.479711

linear2_q1.bias f4 [256]
000000 7b 01 17 3e fc c4 cb bc 1e 74 20 3e 15 12 a3 be
       0.14746659 -0.024874203 0.15669295 -0.31849733
000010 df b4 d1 3e 77 59 a3 3e 6b 26 c0 3e 45 79 46 3e
       0.40958306 0.31904194 0.3752931 0.19382198
000020 30 d2 87 3e 93 24 db bc 5e 1c 39 3e 55 0c e3 3e
       0.26527548 -0.026750838 0.18077227 0.44345346
000030 48 e6 06 be 47 2a 42 3e 3d d8 21 be 59 49 06 3e
       -0.13173783 0.1896144 -0.15805145 0.13113917
000040 9f 5a 7e bc ac da a7 be db 7f 8b be f5 a5 91 3e
       -0.015524535 -0.3278402 -0.27245983 0.28446928
000050 93 0f da bc b6 37 9a 3d bb 71 cc 3e d9 1d 8f bc
       -0.026618754 0.07530157 0.3993052 -0.017470287
000060 c1 dc ef bc 7d cc de 3e 89 7c 49 bd 69 9c 4c be
       -0.029280068 0.43515387 -0.04919103 -0.1998154
000070 51 64 0a be 1a 17 0b bd 10 b7 65 bc 35 a7 15 bd
       -0.1351483 -0.03395758 -0.014020696 -0.036536414
000080 5f 7a b9 3d 67 56 db 3e 7f 55 f8 bc d0 84 2d be
       0.090565436 0.42839357 -0.030314205 -0.16945195
000090 0c a8 de 3e 1a b1 62 be c3 7e c7 bc 85 de 28 3e
       0.43487585 -0.22137871 -0.024352437 0.16491134
0000a0 77 90 a1 bd 8d 2b 61 3d 73 7e ef 3e 40 cf bc bd
       -0.078888826 0.054973174 0.4677616 -0.09219217
0000b0 62 39 a2 3d d1 14 bf bc 99 e3 f4 3c 1b b5 ea 3e
       0.07921101 -0.023325356 0.029893683 0.45841298
0000c0 5a 4e 34 bd d0 20 65 be e4 a0 5f 3e 0b 0b 5b 3d
       -0.044020034 -0.22375798 0.21838719 0.05347733
0000d0 08 0d d0 bc ed 29 bd 3d c5 7d be 3e 0c 66 02 bd
       -0.025396839 0.09236512 0.3720533 -0.0318356
0000e0 1c f7 9d be 9b e3 05 be cd 01 81 bd d3 5c 09 be
       -0.30852592 -0.13075106 -0.062991716 -0.13414316
0000f0 c4 c1 95 be fd 50 8b 3d ba 17 81 bc 03 25 8f be
       -0.29249394 0.06802557 -0.015758384 -0.27957925
000100 35 8b 83 bc a3 1a 81 bd af 04 a9 bd 95 01 64 bd
       -0.01605759 -0.06303909 -0.082528464 -0.05566557
000110 a0 ea e4 bc 5d f0 df 3d fa 97 86 bc 3e 8b 07 be
       -0.02794391 0.109345175 -0.01642989 -0.1323671
000120 15 f4 56 3d c6 c5 8f 3e d0 6f 4d 3d 26 35 11 3e
       0.05247887 0.28080577 0.05015546 0.14180431
000130 30 9a fa 3e ad 0f d6 3e f5 37 e7 3e 2e ad 79 3e
       0.4894576 0.41808835 0.4515988 0.24382469
000140 b2 1f 03 3e e5 fb 27 3e 4b 01 c6 bd 86 9a b8 bd
       0.1280506 0.16404684 -0.09668215 -0.09013848
000150 4e 4d 48 3e fe 52 fe 3e 9c 67 d9 bb 35 a1 95 3e
       0.1956074 0.49672693 -0.0066346657 0.29224554
000160 37 c5 c1 3e fd 5c c7 bb 1e c6 e5 bd 68 9d 14 be
       0.37845775 -0.006084083 -0.112194285 -0.1451317
000170 d2 60 e1 bc 82 e3 a2 be 7b cc 8c bd e8 72 e0 3d
       -0.027511988 -0.318142 -0.06874939 0.10959417
000180 d0 d1 11 bd 04 e8 de bc e1 8d 8d bd e2 43 fa 3d
       -0.035600483 -0.027210243 -0.06911827 0.12219979
000190 c6 de bf 3e 67 0f 86 be ea 8e 8e bc 44 84 63 3e
       0.3747465 -0.26183626 -0.017402131 0.22218424
0001a0 a4 97 e2 3e 8c da 6a bd 37 db 98 3e 20 b2 31 be
       0.44256318 -0.05733733 0.29854748 -0.17353106
0001b0 62 a0 e8 3e 2f 07 db 3e 04 07 84 be 74 61 2a bd
       0.45434862 0.42778918 -0.25786602 -0.041596845
0001c0 7e 34 03 be 87 eb e7 3e 2d 83 3f be a5 29 63 be
       -0.12812993 0.4529688 -0.18702383 -0.22183855
0001d0 eb 60 db bc a4 91 a9 bd ea 77 d4 bd 43 a3 0e bd
       -0.026779613 -0.08279732 -0.10374434 -0.034823667
0001e0 b8 1f 97 be 9b ff 99 bc 59 8d ec bd 6b cb b1 bd
       -0.29516387 -0.01879864 -0.115503974 -0.08681377
0001f0 83 ff 5c 3e 50 a8 3e 3e e6 1e 4a be 33 86 24 bd
       0.21581845 0.18618894 -0.1973835 -0.040167045
000200 4d 55 9f bd d7 a5 95 be 10 a7 89 bc f3 27 86 3e
       -0.07779942 -0.29228088 -0.016803294 0.26202354
000210 3d cf 5b be 2e 0c 89 bc 22 24 2b be 02 b1 88 3c
       -0.21465774 -0.01672944 -0.16713002 0.016685966
000220 41 c6 04 3e d9 c5 2a bd 92 4b 1f 3e b5 4f be bd
       0.12966253 -0.04169259 0.15556172 -0.09292547
000230 8f 16 d5 bc fd 95 b7 3e a8 ab 9b 3e 09 fa c0 bd
       -0.026011733 0.3585662 0.304044 -0.094226904
000240 b2 19 45 be fa ea e9 bd 8c 98 9b 3e a0 6b 4a 3e
       -0.19248083 -0.11421771 0.30389822 0.19767618
000250 e2 02 fa 3e 71 1d 9c bc a9 2c db bc 30 60 69 3e
       0.48830324 -0.019057008 -0.026754694 0.22790599
000260 35 03 88 3d c8 a9 a5 be 25 6d 8a be ba b5 e2 3d
       0.06641237 -0.32356095 -0.27036396 0.11069818
000270 42 41 49 be 44 40 1a 3d ba d2 9b bc 02 40 34 3d
       -0.196538 0.037658945 -0.01902138 0.044006355
000280 52 9e fc 3c 56 20 31 3d 21 13 f6 bc 95 b2 4d 3d
       0.030837212 0.04324373 -0.030038418 0.050219137
000290 a5 81 d6 bd 91 4b 8e bc 60 16 f2 3e f3 12 8e bd
       -0.104739465 -0.017370017 0.47282696 -0.06937208
0002a0 57 aa 93 3c 83 3a 1c 3e 86 b6 ea 3c 64 50 94 3d
       0.01802556 0.15256695 0.028651487 0.07241896
0002b0 8d f6 84 be 08 0b 1b bd fb dc 56 be 33 01 8f bc
       -0.25969353 -0.037852317 -0.20982735 -0.017456627
0002c0 f8 ac ed 3d 3d cc ae bc 4f 9c d5 bd c3 66 6e be
       0.11605257 -0.021337623 -0.10430204 -0.23281388
0002d0 34 3d e9 bc d6 10 0d bd 2a 36 2e be ca dc 10 3e
       -0.028471567 -0.034439884 -0.1701285 0.14146724
0002e0 04 76 43 3e 5a fc 08 be e2 89 4d be 43 b9 cb bd
       0.19087988 -0.13377514 -0.2007213 -0.09947445
0002f0 0b 92 b9 3c 62 8d 9f 3d 25 2b da bc 5d fb 34 be
       0.022652647 0.077906385 -0.026631901 -0.17674012
000300 64 2a 03 3e 49 1b 43 3e 4a f0 a0 bd 3e 46 a4 3d
       0.1280914 0.19053377 -0.078583315 0.0802121
000310 27 47 97 3d 95 6c cf bb 45 bd ad 3e e2 9a 55 bc
       0.07386618 -0.0063300827 0.33933464 -0.013037415
000320 a9 4e 6d 3e 26 42 59 3e e2 12 ed bd 66 c3 94 be
       0.23174538 0.2121664 -0.11575867 -0.29055327
000330 e6 b4 2c 3e 1a 4f 10 3d 7e 38 e9 3e 4d 14 48 bc
       0.16865882 0.035231687 0.45550913 -0.012211871
000340 fb f1 41 be 57 07 b5 3e bc 65 eb 3e 3c 9f 10 bd
       -0.18939964 0.35357162 0.45976055 -0.035308108
000350 da 3f f1 bd 6c 9a 17 be 6c 00 d4 3e 94 8a 02 bd
       -0.11779757 -0.14805001 0.41406572 -0.03187044
000360 b9 5f a1 3d 49 f0 95 3e d9 7f b4 bd 32 c1 0a 3e
       0.07879586 0.29284886 -0.088134475 0.1355026
000370 79 fe 34 be 8b e8 88 bd 2c 45 fc bd b2 63 6d be
       -0.17675199 -0.06684979 -0.12317881 -0.23182562
000380 9d b6 a4 3d 0a 5e 50 bd c5 af a2 3d de 3a 06 be
       0.08042643 -0.050870933 0.07943682 -0.13108394
000390 00 7c b1 be 07 0f 88 be 2a b1 af bc 81 e3 ed 3e
       -0.34664917 -0.26573965 -0.021446783 0.46462634
0003a0 0f 93 90 3d 84 64 64 3e 67 69 d8 bd a3 e4 45 3e
       0.07059299 0.22303969 -0.10566979 0.19325499
0003b0 b2 b5 cd 3c b9 cb 91 be b9 ea 84 bd 18 01 57 3e
       0.025111053 -0.2847574 -0.06490082 0.20996511
0003c0 10 f5 be bc 1f df 14 be 2e c7 de 3d c4 b9 87 be
       -0.023310214 -0.14538239 0.10877834 -0.26508915
0003d0 67 a9 9a 3e fc 31 00 3e 7a fa 1f 3e db 9e 93 be
       0.3020737 0.12519068 0.15622893 -0.28832135
0003e0 f0 46 fb bc 59 fd 4a 3e 2d d5 09 be c2 b3 41 bd
       -0.030673474 0.19823207 -0.13460226 -0.04729057
0003f0 2c 88 3a be 43 2d e0 3d 70 8a d4 bd 91 4b bf bd
       -0.18216008 0.10946133 -0.10377967 -0.09340585

linear3_q1.weight f4 [1, 256]
000000 21 c4 9e 3f a0 a0 cd 3c 32 5a 98 3f e1 38 84 bf
       1.2403604 0.025101006 1.1902525 -1.0329858
000010 b8 61 ca 3e 20 f5 e0 3e 70 88 06 3f 45 db 65 3f
       0.39527678 0.43937016 0.5255194 0.89787704
000020 b2 d9 20 3f 84 be a8 3d 37 53 43 3f 7e 4d be 3e
       0.62832177 0.08239463 0.7629885 0.37168497
000030 d8 70 a7 bf 66 f8 a4 3f 62 95 a6 bf 0d 00 9b 3f
       -1.3081312 1.2888305 -1.3014338 1.210939
000040 48 82 ce 3d 20 8f 4f bf 6d 48 2e bf 4c 97 2a 3f
       0.10083443 -0.81077766 -0.6807926 0.6663711
000050 39 c1 57 bd 03 50 b3 3f a0 7c e0 3e 30 a9 d0 bf
       -0.052674506 1.4008793 0.4384508 -1.6301632
000060 44 6d e6 b9 73 87 c4 3e ab d9 ff bf cc f6 c7 be
       -0.00043950428 0.3838459 -1.9988302 -0.3905548
000070 12 75 bd bf 2d 6c 5e bd 1b 31 00 3e be 09 e7 ba
       -1.4801352 -0.054302383 0.12518732 -0.0017626805
000080 67 8b ae 3f 81 84 9c 3f f6 44 85 bd 4c 1c 68 bf
       1.3636292 1.2227937 -0.06507294 -0.9066818
000090 f7 81 e0 3e 96 5c 08 bf 48 1f 67 3d eb b2 ca 3f
       0.43849155 -0.53266275 0.056426316 1.5835851
0000a0 c2 8d 4f bf 44 a5 8e 3f 05 d2 ba 3e 49 f5 00 bf
       -0.8107568 1.1144185 0.36488357 -0.50374275
0000b0 5f 1d d3 3f d1 b1 92 bd fc b2 24 c0 77 ac bb 3e
       1.6493338 -0.07162822 -2.5734243 0.36655018
0000c0 67 32 43 bb c8 d2 84 bf 02 21 6c 3f 90 c2 94 3f
       -0.002978468 -1.0376825 0.92237866 1.1621876
0000d0 c8 31 63 ba 54 5b c4 3f 5b 02 cf 3e 0f d9 64 3d
       -0.0008666781 1.5340371 0.40431485 0.055871066
0000e0 43 ae 6a bf ac 35 e5 bf fc 35 59 bf 35 aa 92 bf
       -0.9167215 -1.7907004 -0.84848 -1.1458193
0000f0 4e 3f 19 bf ba 49 90 3f 63 82 9c bd 26 6c 9b be
       -0.5986222 1.12725 -0.07642057 -0.30355948
000100 d3 69 07 be ad c1 d4 bf 18 4f 6b bf 93 b7 f6 bf
       -0.13223962 -1.6621605 -0.9191756 -1.9274772
000110 49 91 6d bd ff 99 94 3f 46 00 9d bf 16 02 3c bf
       -0.057999883 1.1609496 -1.2265708 -0.7344068
000120 9d 2f c4 3f f5 48 08 3f 6c 41 b2 3f 75 fa 76 3f
       1.532703 0.53236324 1.3926215 0.9647592
000130 31 aa bf 3e 6f d0 4c 3f f4 a0 de 3e 66 7d b1 3f
       0.37434533 0.80005544 0.43482172 1.3866394
000140 c5 08 c0 3f 0c 6b e5 3f 9a c7 53 bf b7 17 bf bf
       1.5002676 1.7923293 -0.8272644 -1.4929112
000150 8d bc b1 3f 12 48 52 3f d9 6e e7 bf 87 73 bf 3f
       1.3885666 0.8214122 -1.8080703 1.4957131
000160 de 65 d2 3e 80 34 2a c0 2d e3 17 bf 43 6a 9f bf
       0.41093343 -2.6594543 -0.5933102 -1.2454304
000170 4a 17 a5 bd f2 25 b4 be 24 28 ce bf e0 e9 71 3f
       -0.08061083 -0.351852 -1.6106 0.9449749
000180 56 d5 4e 3d d4 74 8a 3d 25 ea 4e bf 60 59 99 3f
       0.05049642 0.067605644 -0.80826026 1.19804
000190 e3 e4 83 3f e0 90 ae be 69 f8 d9 3d 94 f5 39 3f
       1.0304226 -0.34094906 0.106430836 0.7264035
0001a0 46 00 de 3e d5 8d b6 bf c1 1d c9 3e 70 2a 52 bf
       0.43359584 -1.4262034 0.39280513 -0.82096004
0001b0 89 f2 c9 3e 48 bd ab 3e cf fe fd be 59 8e 9c bf
       0.39442852 0.33542848 -0.49608466 -1.2230941
0001c0 d9 48 8a bf 8f 6f dc 3e cd 2a 64 bf f1 57 2a bf
       -1.0803481 0.43053862 -0.8912781 -0.6654044
0001d0 05 7f 07 c0 da 7d ca bf 3a 07 e9 bf 27 02 91 bf
       -2.1171277 -1.5819657 -1.820533 -1.1328782
0001e0 b3 f3 03 be f1 04 dd bb 41 55 00 c0 7d 99 97 bf
       -0.12885933 -0.006744974 -2.0052035 -1.1843716
0001f0 1c 3f 71 3f c0 17 70 3f 02 ae ec be 13 ab 54 bf
       0.9423692 0.9378624 -0.46226507 -0.8307354
000200 59 83 86 bf d6 3d f5 bd 30 9e d4 bc 64 13 b1 3f
       -1.0508834 -0.11974685 -0.025954336 1.3834043
000210 2c 4e 85 bf e3 dc da bf 77 3a 6f bf e7 5f 3e c0
       -1.0414481 -1.7098659 -0.93448585 -2.9746034
000220 75 23 8e 3f 35 bd 59 bb a5 e3 42 3f dc 3c f6 bf
       1.1104571 -0.0033224348 0.7612861 -1.9237323
000230 f6 f5 e2 bf 30 3e 28 3f 82 71 c9 3f 6c 6d 9a bf
       -1.7731311 0.6571989 1.5737765 -1.2064643
000240 06 3b 81 bf 45 21 36 bf 60 63 3a 3f 03 ed 84 3f
       -1.0096138 -0.71144515 0.72807884 1.038483
000250 97 49 d0 3e 38 04 b3 bd 0f cc 91 bd 78 c1 39 3f
       0.40681145 -0.08741039 -0.07118999 0.72560835
000260 07 ea f0 3f 3e ed 78 be ae de b8 be 2d eb 7c 3f
       1.882142 -0.2430925 -0.3610739 0.9879635
000270 a7 62 98 bf c7 47 76 3f 4a 76 08 3e 0c e8 f4 3f
       -1.1905106 0.96203274 0.13326374 1.9133315
000280 91 d5 db 3f f5 32 98 3f 47 76 b4 bf a5 1d b0 3f
       1.717455 1.1890551 -1.4098595 1.3759047
000290 79 77 07 c0 f5 1f ae bd 76 27 ef 3e 6f fb e3 bf
       -2.116667 -0.08502189 0.46709794 -1.7811106
0002a0 6c cd ba bf 4d 75 68 3f f2 ff c8 3f de 72 cd 3f
       -1.459394 0.90803987 1.5703108 1.605068
0002b0 83 62 0a c0 fc 8a 95 3d ef 87 67 bf e0 a5 18 bb
       -2.1622627 0.073019 -0.90441793 -0.0023292229
0002c0 2a 7d a1 3f 18 6f 41 3b 99 bd cd bf a2 ea 3e be
       1.2616322 0.002951568 -1.6073486 -0.18644193
0002d0 36 58 21 bd d6 4d c3 bd 9c 62 9e bf bb 6c f1 3f
       -0.039390765 -0.095363304 -1.2373843 1.8861307
0002e0 88 31 61 3f d7 72 c2 bf c3 89 a2 be e6 bb d6 bf
       0.87966204 -1.5191296 -0.3174573 -1.6776092
0002f0 92 a7 90 3f 3c a2 de 3f e8 00 92 3d 6e c6 52 bf
       1.1301138 1.739326 0.07129079 -0.8233403
000300 27 85 9f 3f 62 c6 2a 3f 61 df a2 bf aa ef 7e 3f
       1.246251 0.6670896 -1.272442 0.9958445
000310 e8 a8 c7 3f 61 5b 50 bd 7f a4 03 3f 94 3f f5 3a
       1.5598421 -0.050868396 0.51422876 0.0018710964
000320 8b bd 36 3f e7 34 65 3f 9a 99 c7 bf 8d 70 54 be
       0.7138297 0.8953385 -1.559375 -0.2074606
000330 95 7d 62 3f e1 35 c6 3f 5d 53 98 3e 81 08 8d bd
       0.8847287 1.5485193 0.297511 -0.068863876
000340 95 8f aa bf a1 de b4 3d f8 92 cf 3e 53 03 bf bf
       -1.3325068 0.088315256 0.40541816 -1.492289
000350 7b 6d db bf ab 16 48 bf e1 3d 5b 3f 9d d0 de 3d
       -1.7142786 -0.7815959 0.85641295 0.108796336
000360 f2 7f 88 3f 3c 39 fa 3e 23 fd 2e c0 05 d8 56 3f
       1.0664046 0.4887179 -2.7342002 0.8392337
000370 dc b9 a2 bf 32 64 c1 bf c6 69 8f bf 98 20 b9 be
       -1.271297 -1.5108702 -1.1204154 -0.3615768
000380 f5 e4 cd 3f 2d d3 c4 bf e1 8e c4 3f a4 b2 a7 bf
       1.6085497 -1.5376946 1.5356103 -1.3101392
000390 87 7d 23 bf 7a 61 2d bf 4e a3 4d 3d 63 b5 e1 3e
       -0.63863415 -0.6772686 0.050204568 0.440837
0003a0 33 03 a9 3f 12 f5 76 3f 4f d0 8e bf 93 4e c1 3f
       1.3204101 0.964677 -1.1157321 1.5102104
0003b0 f5 f7 96 bf e5 69 b4 be eb ce 93 bf 93 63 94 3f
       -1.179442 -0.3523704 -1.1547521 1.1592888
0003c0 9d 54 9c bf 6d 70 9d bf 39 54 b9 3f b9 53 15 be
       -1.2213322 -1.2299935 1.4478828 -0.14582719
0003d0 30 f0 0f 3f 32 0e b7 3f 8c 53 c3 3f 8a 9d 2e be
       0.5622587 1.4301207 1.5259871 -0.17052284
0003e0 b0 1a bb bb 5a c8 7e 3f 62 7e 9e bf 1f 49 fd bf
       -0.0057099685 0.9952446 -1.2382319 -1.978794
0003f0 c6 4d 96 bf 16 62 b6 3f 7f 1a 8a bf cb 9f c8 bf
       -1.1742485 1.4248683 -1.0789336 -1.5673765

linear1_q2.weight f4 [256, 26]
000000 b3 4d 03 be d4 be f0 bd 83 6e 04 3d 91 79 ed bd
       -0.12822609 -0.117551476 0.032331955 -0.115954526
000010 8a f5 da bd 9e f4 0a 3d c9 45 cb bd 7b 60 8f bd
       -0.10691364 0.03392469 -0.0992542 -0.07000824
000020 22 d0 80 3a cf 85 c0 3c dc a0 f9 bd 8d d7 63 bd
       0.0009827653 0.023501305 -0.121888846 -0.055625487
000030 8e 9e 04 3e 42 60 99 3d da fd 2c bd d3 0d 2a 3d
       0.12951109 0.07489063 -0.04223428 0.04151709
000040 1b 6f 09 be f0 42 10 be 60 bf 84 bd 7e c0 04 3e
       -0.1342129 -0.14088035 -0.064818144 0.12964055
000050 1c 25 8b 3d 23 0a b5 3d 2f 84 f8 bd 57 17 10 be
       0.067941874 0.08839824 -0.12134587 -0.14071403
000060 5f ba fb bd ac 2c 9e 3d 08 a1 20 3e f2 a9 2a 3e
       -0.12291407 0.07723364 0.15686429 0.16666391
000070 1f c2 ad 3d c9 f9 0e be de 5e b6 3a 38 f1 b4 3d
       0.08484291 -0.13962473 0.0013913771 0.08835071
000080 c7 98 95 bd 1b 7c fe bd 2b 9b 5a bd 73 5a 73 be
       -0.073045306 -0.12426015 -0.053370636 -0.23764972
000090 31 5f de bd cf f4 43 3e e3 18 36 3e 56 d0 60 bb
       -0.10858 0.19136356 0.17782931 -0.0034303865
0000a0 c6 60 dd 3c 75 00 4a 3d 89 88 84 3d a9 cb 29 be
       0.027023684 0.049316842 0.064713545 -0.16581596
0000b0 86 6d 35 bd 5f d9 0c 3e d3 ab ad bc 10 20 28 3e
       -0.044293903 0.13754795 -0.021200096 0.16418481
0000c0 5f 9e bf bd b9 7b 92 bf d9 50 67 be 9f 06 70 bc
       -0.09356379 -1.1444007 -0.22589435 -0.014650016
0000d0 e9 b5 b2 3d 24 54 63 3d 0c 59 09 3e c3 dc 18 be
       0.08726103 0.055500165 0.13412875 -0.14927964
0000e0 81 59 79 be 91 6b a3 be c2 5c b2 be 92 23 20 3c
       -0.2435055 -0.31918004 -0.34836394 0.009774106
0000f0 1e 1b 08 be 87 d4 09 3e a8 cc 67 3d 13 f3 5e bd
       -0.13291594 0.13459979 0.05659166 -0.054431032
000100 6e c2 34 3d ed 24 20 bd 82 3c 4a 3e e9 57 5c 3e
       0.044130735 -0.039097715 0.19749644 0.2151791
000110 bc 77 63 3e a2 e9 c8 3d d1 57 57 be c5 52 b1 3d
       0.22213644 0.09810187 -0.21029593 0.08658365
000120 33 05 a0 3e 03 af ad 3e 12 e3 78 3f 66 1e d8 bd
       0.31253967 0.33922586 0.9722148 -0.10552673
000130 45 66 c7 bd 89 3d 17 3e 2f 80 10 bd ba 27 25 3e
       -0.09736303 0.14769568 -0.035278495 0.16128436
000140 51 9a 88 3d 1e 94 0f 3e f6 a7 a0 bc 4b b8 8a 3d
       0.066700585 0.14021346 -0.01961134 0.06773432
000150 af ed 42 3b 7d c9 06 3c 84 b7 1e 3d 48 67 07 be
       0.0029743721 0.0082267495 0.038749233 -0.13222992
000160 d6 45 51 bb a4 c6 2a 3e fb 56 31 3e 84 0c cf 39
       -0.0031932495 0.16677338 0.17318337 0.00039491442
000170 40 db 5f 3c e4 0f 54 be 73 85 ee bd 21 ad a7 3d
       0.013663113 -0.20709187 -0.11646547 0.081873186
000180 bd 50 10 bd 11 fc 95 bd 89 bd 5b be d6 e1 b8 be
       -0.035233248 -0.073234685 -0.2145902 -0.361098
000190 d2 4f bf be 90 09 10 be db 44 8c bd 24 94 f8 bd
       -0.37365586 -0.14066148 -0.06849071 -0.121376306
0001a0 cc 3b 17 3e 78 2f 4a 3e ae 67 a6 bd 58 93 fe b9
       0.14768904 0.1974467 -0.08125244 -0.00048556435
0001b0 de d1 85 3e 33 13 bf bd 0e bf d3 3c 2a 21 b8 be
       0.26136678 -0.09329834 0.025847938 -0.35962802
0001c0 75 37 e2 3d 38 86 2c 3e 78 26 a0 bb 32 6d 4b bc
       0.11045734 0.16848075 -0.0048873983 -0.012416171
0001d0 5a 1c 56 bd ac 6b b7 be 30 78 99 be ba a5 78 be
       -0.052273132 -0.35824335 -0.29974508 -0.2428197
0001e0 94 a5 e6 be ca 53 ab bd 80 9b dd bd 73 fa 0d 3e
       -0.450482 -0.08365591 -0.10820675 0.1386507
0001f0 dc c4 b3 bd 3e a9 e5 be 36 d1 85 3e eb f0 06 3e
       -0.08777782 -0.44855684 0.26136178 0.1317784
000200 02 8c 87 be 55 45 cb 3e 01 9a b6 3d 7f 44 0b 3d
       -0.26474005 0.39701334 0.08916093 0.03400087
000210 ec 11 93 3d 0f bf cc bd 8b e7 39 be a5 7b 68 3e
       0.07181153 -0.09997379 -0.18154733 0.22703417
000220 59 9f 84 3e 40 79 56 3e cf 61 82 bd fa d9 0b be
       0.25902823 0.2094469 -0.06366312 -0.1365737
000230 b8 fc df bb 2e a4 e1 bd c5 0c 53 be d0 7b 63 bc
       -0.0068355463 -0.11017643 -0.2061034 -0.0138845
000240 bd be 3d 3d 68 91 7a 3d bb bf 4f bb af d2 0d bd
       0.04632448 0.061173826 -0.0031699974 -0.03462475
000250 5f b7 06 3e a9 cd 29 3e 60 f6 1a 3f ee ab ad 3e
       0.13155888 0.1658236 0.6053219 0.33920234
000260 a9 3a e3 be f3 de 2d bf 5c b4 01 3f 04 f7 a7 bd
       -0.44380692 -0.6791832 0.5066583 -0.08201411
000270 27 76 ae 3c 08 2c 2e 3e 7d ca 73 be bd dd 7a be
       0.021296574 0.17008984 -0.23807712 -0.24498649
000280 a6 fd 44 3d 0f db 6e 3d 5d 3c 83 be ad 1a 1f be
       0.04809346 0.05831438 -0.2563199 -0.1553752
000290 5e 8b cb 3c 48 b3 fd 3c 83 07 0e be e6 bc 81 be
       0.024846729 0.030969277 -0.13870053 -0.2533943
0002a0 73 36 ee b8 d1 de 63 3e 4a 65 91 3c b6 b6 2d 3d
       -0.00011358866 0.22252966 0.017748494 0.042410575
0002b0 9d 10 d6 3d 19 0a 7a 3d 51 1b 3e 3e 74 11 c5 3c
       0.104523875 0.061044786 0.18565108 0.024056174
0002c0 d2 36 a9 3e 24 28 94 3d 98 55 56 bf e0 ea bd 3e
       0.33049637 0.07234219 -0.83724356 0.37093258
0002d0 05 9a 86 be 4a 42 21 3e 6a 90 07 3e 45 fb 0b 3e
       -0.26289383 0.15747944 0.13238683 0.1367007
0002e0 0c 5b 48 be 03 fd 08 3e 76 33 12 3e 96 57 a5 bc
       -0.19565982 0.13377766 0.14277443 -0.020183366
0002f0 38 30 98 be fc fd f6 ba b0 60 e4 bc 83 c4 98 3c
       -0.29724288 -0.0018844004 -0.027878135 0.018648392
000300 fa 32 e9 bd 95 5d 27 be 99 9f 17 be 62 fc b0 3c
       -0.11386676 -0.16344292 -0.14806975 0.02160472
000310 be 24 08 3e 9e 9d 65 be 0c ad 7c 3d 8d e4 f5 3d
       0.13295266 -0.22423407 0.061688468 0.12006483
000320 d2 6a b2 3d 3b 3c a7 bd ce c1 a3 3e 4e 26 21 3e
       0.087117806 -0.08165785 0.319838 0.15737268
000330 dc 0b 90 bf 4f bf 17 3e be b1 54 be 3a 4b a9 3e
       -1.1253619 0.14819072 -0.20770928 0.33065206
000340 fa de 09 be 97 19 53 bd 9f dc 1f 3e 98 5d 31 3e
       -0.13463965 -0.051538076 0.15611504 0.1732086
000350 7b 06 34 be 05 fd e8 bd d7 48 73 bd a5 a6 af bc
       -0.17580597 -0.11376385 -0.059395637 -0.021441767
000360 f0 5a 2a bc 08 66 a9 bd 31 08 13 be 03 08 c1 3d
       -0.010397658 -0.08271414 -0.14358594 0.09425356
000370 c5 91 c7 bb 89 91 73 bc d6 8d 6f bc 36 67 43 be
       -0.006090375 -0.014866241 -0.014621219 -0.1908234
000380 3c 4d 89 be f9 ee 05 3e 5e 18 02 3e 52 ff 8e 3e
       -0.26816738 0.13079442 0.12704608 0.2792917
000390 cf 11 89 3d 7a 15 6d be f1 fe d1 3e d9 f6 b0 3e
       0.0669285 -0.23152724 0.41014817 0.3456333
0003a0 1e 52 81 3e 50 1d dd 3a 4e 22 5b be 3a f2 07 3e
       0.25257963 0.0016869698 -0.21399805 0.13275996
0003b0 94 9a 92 3d 1e 12 f1 3d c0 0a 15 3d bd 21 0e 3e
       0.0715839 0.11771034 0.036387205 0.13880058
0003c0 6d 18 9f bd c3 42 c4 3d 21 1b 32 3e 98 58 65 3d
       -0.07768331 0.09583046 0.17393161 0.055992693
0003d0 7c 50 08 3d 0d 74 19 be 69 48 e4 bc 94 4c 48 bd
       0.03327988 -0.14985676 -0.02786656 -0.048901156
0003e0 c5 79 52 be ab d1 30 bc f7 7b 1d 3e 86 52 45 3e
       -0.20554264 -0.010792176 0.1537932 0.19269761
0003f0 7f f1 97 bc 01 92 62 be bf 0f 0e be 0e 6e 8c 3e
       -0.018547771 -0.22126009 -0.13873194 0.27427715

linear1_q2.bias f4 [256]
000000 13 69 8a bb 32 7a a7 3e 50 61 42 3d 85 ea 0e 3e
       -0.0042239516 0.32710415 0.047456086 0.1395665
000010 32 8b a2 3d f3 eb 96 3e e0 56 df bd 06 f8 ef bd
       0.07936706 0.2947689 -0.10905242 -0.117172286
000020 b1 ac 8c 3d ef 7e 4a 3e a9 a1 ef bd d3 bd 07 3d
       0.06868876 0.19774984 -0.11700756 0.033140015
000030 52 8c 9b 3d 7b 92 2d be 32 6e 50 bd 3d 28 1f 3e
       0.07595123 -0.16950409 -0.05088634 0.15542693
000040 83 57 1d 3e 0c ca a9 3d 6a af 14 3e 0c 48 6c 3e
       0.15365414 0.082904905 0.1452004 0.23074359
000050 d5 a3 7d 3d 65 18 d0 3d f8 e4 2f bc 63 d8 83 3e
       0.06192382 0.10160903 -0.010735743 0.25751027
000060 3c e3 9b bd 31 02 36 be 77 21 64 bc f1 db 08 bd
       -0.07611701 -0.17774273 -0.013923994 -0.033412877
000070 75 0b 1f be 31 f6 0c be b9 55 72 bd 0c 60 85 bd
       -0.15531714 -0.1376579 -0.059163783 -0.0651246
000080 f6 c7 7b 3d 8a 5c f5 bc bb d4 b8 3e d4 b5 10 3e
       0.061469994 -0.029951353 0.360998 0.14131862
000090 7b af cc 3c 6e cb 7b 3c 06 f2 cf ba 95 eb 96 bc
       0.02498602 0.015368326 -0.0015864975 -0.018422881
0000a0 4d 50 c3 3d 99 34 9e 3e 91 e9 cd bd bf e4 09 3e
       0.095368005 0.30899504 -0.10054315 0.13466166
0000b0 cb fd 32 3e 8b 3f 8b 3e 6d a6 5f 3e 1f 65 31 bc
       0.17479627 0.27196917 0.2184083 -0.010827332
0000c0 da 45 f4 bd d9 51 b2 3d 68 f7 a2 3e a2 42 2a 3d
       -0.11927386 0.087070175 0.3182938 0.041567452
0000d0 40 36 a4 3e 13 24 41 3e e0 c1 4e be 5e 73 34 3e
       0.3207264 0.18861417 -0.20191145 0.17622134
0000e0 7b 4e 32 3c 51 03 95 3e 85 aa ca bd b0 dd b0 3e
       0.010882969 0.29104093 -0.09895805 0.34544134
0000f0 54 6b 8a bd 29 15 fe bc a1 f7 43 bd c4 04 14 3e
       -0.067587525 -0.03101595 -0.04784358 0.14454943
000100 83 bd 07 3e 7b a4 b7 bb 90 99 0d 3e c2 c1 3b 3d
       0.13255887 -0.0056043244 0.1382811 0.04583908
000110 ef e3 cf bc 57 73 52 bb 88 27 20 3d 67 c3 1a be
       -0.025377242 -0.0032112205 0.0391002 -0.15113603
000120 bd 4b 5c 3e 83 36 b6 bd d9 60 28 3d 07 f1 cf bc
       0.21513267 -0.08897116 0.041107986 -0.025383485
000130 4a f8 ff bd 00 00 00 00 de 1c 6b bd 4c 5a 1d bd
       -0.12498529 0.0 -0.057400577 -0.038416192
000140 cf 74 18 bc 37 0b 70 3d ef a2 52 3e af 80 08 bd
       -0.009305193 0.058604445 0.20569967 -0.033325847
000150 ee 4f a6 3d 1a f8 d9 3d b8 2f 8a 3d 35 f8 02 3e
       0.08120714 0.10643025 0.06747383 0.12789996
000160 7c c0 2d 3e f1 86 21 bd 3b 7d 31 3e a8 4d 1e 3d
       0.16967958 -0.03943533 0.17332928 0.038648278
000170 5e 1f c0 3d 09 5c ce 3d 94 79 5d bd 2d 74 fd 3d
       0.09380983 0.10076148 -0.054071024 0.123756744
000180 9f 9e 75 ba 82 77 58 be 47 5e d4 3d b6 6e d7 bd
       -0.00093696447 -0.21139339 0.103695445 -0.10519163
000190 fb 47 c0 bc 28 2e 34 be 8f eb 23 3e 00 00 00 00
       -0.023471823 -0.17595732 0.16007827 0.0
0001a0 76 d6 03 bd 47 5c 2b be 62 93 97 bb 33 21 1c bc
       -0.032186948 -0.1673442 -0.0046257237 -0.0095294
0001b0 fd d3 17 be e2 11 2a 3e d2 64 d3 3c 3c 54 15 3c
       -0.14826961 0.16608384 0.02580491 0.009114321
0001c0 85 26 09 be cb 84 ff bd 9b e5 b0 3d b9 14 bf bd
       -0.133936 -0.124765 0.08637544 -0.093301244
0001d0 e5 02 8c 3d c7 b8 b0 3b c5 ef e8 3c 81 98 de 3d
       0.068364896 0.005393121 0.028434644 0.108689316
0001e0 ee 32 56 3e cd 2f 9b 3e 6f f7 a1 3e 32 72 ef bd
       0.20917866 0.30309907 0.3163409 -0.11691703
0001f0 ab 70 fa bd 2e 56 50 be 64 71 c1 bd 24 59 e1 bd
       -0.12228521 -0.20345375 -0.09445456 -0.1100333
000200 c3 66 b9 3d 1d 2a e1 3d 16 a0 6b 3e 8f 90 08 be
       0.09052803 0.109943606 0.23010287 -0.13336395
000210 1a bb 0b bd c2 28 93 3d 8e 69 3f 3c 05 b2 94 3d
       -0.03411398 0.07185508 0.011682881 0.07260517
000220 4e 48 65 be 90 e5 9c bd 73 8d e1 3d 35 39 34 be
       -0.22390863 -0.07660973 0.110133074 -0.17599948
000230 7d f9 54 be 32 2c a7 bd 54 87 78 3e be d6 3d 3e
       -0.20798297 -0.081627265 0.24270374 0.18538949
000240 b5 44 74 3c 1f e9 9c 3e 4c ef ca bd e9 c1 eb 3d
       0.014908959 0.30646607 -0.099089235 0.11511595
000250 95 11 1c be f9 77 93 3e f6 72 43 3e 1d 60 ee bd
       -0.15241082 0.2880247 0.19086823 -0.11639426
000260 18 f2 31 3e 8a d7 0f 3e 54 42 b0 bd c5 ca 0b bd
       0.17377508 0.14047065 -0.08606401 -0.034128923
000270 df 47 2c be 40 28 0f bd e9 02 3c 3d a1 04 0f 3d
       -0.16824292 -0.034950495 0.045901213 0.034916524
000280 b5 e4 a0 3e 52 b2 82 3e bc dc a1 3e f7 a2 3d be
       0.3142449 0.25526673 0.3161372 -0.18519197
000290 1a 95 73 bd 98 15 42 bc a9 87 a7 3c b2 0d 32 bd
       -0.059468366 -0.011845969 0.02045043 -0.043470092
0002a0 83 e3 85 bd c1 db 33 be f9 c8 50 3e f7 43 81 bd
       -0.06537535 -0.17564298 0.20389165 -0.063117914
0002b0 f7 2f 7c 3e 15 d9 1b bd 5a c0 f9 3d 17 80 7e 3e
       0.24627672 -0.038048822 0.12194891 0.2485355
0002c0 c5 37 01 be 64 41 5f 3e 0c 5e 16 be 90 9d ec bd
       -0.1261893 0.21802288 -0.14684314 -0.1155349
0002d0 c3 91 0c be a6 84 44 3e 90 2e a5 3e cf 0f 91 3c
       -0.13727479 0.19191226 0.32262087 0.017707733
0002e0 26 31 b6 bd b0 93 ab 3e 25 71 27 3e c3 02 d3 3d
       -0.08896093 0.33511114 0.16351755 0.10303261
0002f0 bd c7 ba bc ec 74 e6 bd ec 9a 5c be f5 fc 34 3e
       -0.02280032 -0.1125277 -0.21543473 0.1767462
000300 99 12 c5 bd 71 6a fa 3c a5 88 e3 3d 4d 40 41 bc
       -0.09622688 0.030568333 0.11110047 -0.011795116
000310 4c cd 1e 3e e2 9c 4d be 74 a6 08 3e d9 5c 02 3e
       0.15508002 -0.20079377 0.13344747 0.12730731
000320 65 a9 cc 3e bc c7 4d 3e 20 03 df bc f2 00 7d bc
       0.39972988 0.20095724 -0.02722317 -0.01544212
000330 6d 00 05 be 6d be ec 3d fb 96 b0 3d 4a 07 25 3e
       -0.12988444 0.11559758 0.08622547 0.16116062
000340 64 e5 04 3e 91 86 87 3e d8 15 33 3e ee e6 c6 bc
       0.1297813 0.26469854 0.17488801 -0.024280038
000350 c5 2d fd bc 48 22 56 3e da 4c 23 be 56 bf ab bd
       -0.030905614 0.20911515 -0.15947285 -0.08386104
000360 31 76 07 bc 82 28 ec 3b 01 64 71 be 00 00 00 00
       -0.008267925 0.0072069773 -0.23573305 0.0
000370 03 ae 1d be a9 4b 1c 3e 00 00 00 00 93 11 0a 3e
       -0.15398411 0.15263237 0.0 0.13483267
000380 00 00 00 00 af d0 1a bb ec af 1a bc 8d 31 ac 3d
       0.0 -0.002362292 -0.009441357 0.084078886
000390 3c b2 1b bc 9b cc b8 3e fc 3f a0 bc 58 38 07 3e
       -0.009502944 0.36093602 -0.01956176 0.13205087
0003a0 d6 ff c7 bd a5 5d ab 3e 26 0b 4a bd 15 00 f9 3d
       -0.09765594 0.33469883 -0.04932704 0.12158219
0003b0 3b 21 1c bc f2 43 32 be 21 ea 54 bd 38 a3 66 3d
       -0.009529407 -0.17408732 -0.051981095 0.056308
0003c0 e5 76 1a 3e 35 1f cf 3c ef c0 0f bc 6e 41 1f 3e
       0.15084417 0.025283435 -0.008774026 0.15552303
0003d0 f1 8f dd 3d 1c 4c 95 3b eb 58 15 3d 1d 09 9c bd
       0.1081847 0.004556192 0.036461752 -0.07618926
0003e0 5d c1 ea bd fe d6 9b bc 3a b1 b6 3d 7f 76 5d 3e
       -0.11462662 -0.019023415 0.08920522 0.21627234
0003f0 94 02 d1 3c 45 b4 43 3d 5e 59 c1 3d 71 3f 4d 3e
       0.025513925 0.04777934 0.094408736 0.20043732
