hydrone_aerial_underwater_ddpg/scripts/Models/sac_stage_2_air3D_tanh_3layers/1040_policy_net.pth (torch_old, 34896 bytes, 6 tensors)

linear1.weight f4 [256, 26]
-0.28406498 -0.09053436 -0.072543494 0.20975429 0.23288387 0.10847053 0.21090887 0.0068496913
0.19402304 0.1725035 0.05302954 0.0646429 0.13898131 0.019123238 -0.10277174 -0.31051132
-0.27065596 -0.3771278 -0.13420573 -0.33967406 -0.19599226 -0.099928714 0.16941677 -0.6008211
0.2470369 -0.2206683 -0.10112669 -0.24941276 -0.2522884 -0.053056777 0.01033847 -0.0014748219
-0.015483937 0.15587774 0.17982756 -0.11814724 0.0862459 0.19669035 0.29789582 0.02241829
0.17421114 -0.12208206 0.022514513 -0.088466905 -0.041650068 -0.10202931 -0.57678556 0.29348874
0.3587975 0.38595498 0.09450322 0.6803984 0.08105473 -0.034455482 -0.08187933 -0.16330081
-0.11329495 -0.23335114 -0.08835097 -0.049316257 -0.03278628 0.067718096 0.09593959 0.032356657
-0.089762345 -0.25939122 -0.24801606 -0.13702251 -0.06567161 -0.10511363 -0.12007673 -0.030528557
0.03255697 -0.06952435 -0.57709914 1.4250691 -0.20704043 0.9372257 -0.06548192 0.17096238
-0.06964944 -0.0023519734 0.07640899 0.13594799 -0.054303095 -0.10702466 -0.12421369 -0.20878667
-0.06485073 -0.07572615 -0.020713098 -0.083269335 0.034956496 -0.037861004 0.028622178 -0.028000934
-0.017455585 0.17028065 0.22054562 0.26532218 -0.06998133 -0.93723786 0.60522056 1.0973895
-0.0155371465 -0.13524167 -0.012916882 -0.103770465 -0.12501578 -0.0709813 0.06246735 -0.16859062
-0.06619691 -0.17711785 -0.026943529 -0.07937165 0.05219192 0.07858795 -0.16042073 -0.043381874
-0.12546043 -0.07320356 0.06271825 0.035357352 -0.018042296 -0.0945122 0.10952743 -0.06760319
-0.1304002 0.072607525 0.09642636 0.02938898 0.08980054 0.076948434 0.075437866 -0.010118786
0.011847231 0.07022863 -0.15512244 -0.062903106 -0.0076528112 -0.08823213 -0.10928383 0.035719797
0.053745598 -0.060864825 -0.043062627 0.069717355 -0.0041675824 0.0622532 0.111168385 -0.21634156
0.12913412 0.8978335 -0.06766767 -1.5269772 0.19077015 0.260479 -0.05635533 0.06267876
0.04062046 -0.0103194285 0.1451908 -0.012863383 -0.10380866 -0.17643017 -0.2941994 -0.3142127
-0.06934145 0.0018913143 0.05781567 0.1413713 -0.09285994 0.05081244 0.06804696 0.0134533085
0.3371658 -0.11218863 0.24014533 0.3196697 0.42147583 0.432179 0.058860198 -0.14031334
-0.22041237 -0.047817826 -0.04842212 -0.15836018 0.04826708 -0.1696971 -0.29970592 -0.30011296
-0.2369709 -0.0021135935 0.006658323 0.045193635 0.18076009 -0.1010872 0.051044334 -0.06489428
-0.043090772 -0.1992479 -0.46175048 0.2622562 -0.63052964 1.5295529 -0.52300686 1.2635838
-0.071298525 0.049864363 -0.064427316 -0.2373089 -0.4259952 -0.29522383 -0.033212088 0.095025726
0.3029373 -0.01605728 -0.15967676 -0.27703574 -0.010911988 -0.17997687 -0.22056247 -0.015341532
0.454912 0.26057222 -0.052591734 0.06152892 0.15873572 -0.861097 0.11911369 -0.5856559
0.82779425 0.6852602 -0.2503078 -0.17623897 -0.28879207 -0.15403803 0.021030983 -0.10109963
-0.109458834 -0.077310815 -0.0041253543 0.03369889 -0.043159105 0.06859119 0.18225813 -0.0016296859
0.15661772 0.08490877 0.1802768 0.23245084 0.25161412 0.067192845 0.179435 -0.04502752
00000000: f770 91be 146a b9bd af91 94bd d4c9 563e
00000010: 1c79 6e3e cc25 de3d 7ff8 573e 6073 e03b
00000020: faad 463e c2a4 303e 8135 593d 7f63 843d
00000030: 1e51 0e3e 56a8 9c3c fd79 d2bd 57fb 9ebe
00000040: 6b93 8abe e516 c1be 3a6d 09be c2e9 adbe
00000050: 32b2 48be 6da7 ccbd 977b 2d3e 69cf 19bf
00000060: 3ef7 7c3e dff6 61be 831b cfbd 0f66 7fbe
00000070: f22b 81be 1052 59bd b062 293c d04e c1ba
00000080: 57b0 7dbc 6a9e 1f3e b724 383e 2ef7 f1bd
00000090: b1a1 b03d 3269 493e cd85 983e 90a6 b73c
000000a0: 6864 323e 2906 fabd 5b70 b83c 232e b5bd
000000b0: 4399 2abd bef4 d0bd 38a8 13bf 2844 963e
000000c0: 4eb4 b73e e49b c53e e78a c13d 972e 2e3f
000000d0: 0600 a63d 3121 0dbd 5ab0 a7bd 5438 27be
000000e0: 2f07 e8bd 9af3 6ebe 5af1 b4bd d8ff 49bd
000000f0: e84a 06bd c9af 8a3d fa7b c43d 6a88 043d
00000100: 52d5 b7bd edce 84be ecf7 7dbe a14f 0cbe
00000110: d67e 86bd d145 d7bd caea f5bd 0617 fabc
00000120: 755a 053d c862 8ebd c5bc 13bf aa68 b63f
00000130: 6802 54be 06ee 6f3f 631b 86bd c310 2f3e
00000140: 5ea4 8ebd 9123 1abb 517c 9c3d f335 0b3e
00000150: ec6c 5ebd bf2f dbbd bf63 febd 2ccc 55be
00000160: 76d0 84bd 5016 9bbd 84ae a9bc 1d89 aabd
00000170: 8b2e 0f3d 2414 1bbd 0f79 ea3c 3762 e5bc
00000180: 04ff 8ebc 0d5e 2e3e b6d6 613e 4fd8 873e
00000190: 5f52 8fbd d2ee 6fbf bcef 1a3f 4277 8c3f
000001a0: 848f 7ebc cb7c 0abe 54a1 53bc 9c85 d4bd
000001b0: 2304 00be a55e 91bd c4dd 7f3d 05a3 2cbe
000001c0: 3f92 87bd 625e 35be adb8 dcbc 9b8d a2bd
000001d0: 32c7 553d b8f2 a03d 5545 24be 31b1 31bd
000001e0: b378 00be c0eb 95bd 6d72 803d dfd2 103d
000001f0: 70cd 93bc 9d8f c1bd eb4f e03d 8b73 8abd
00000200: a187 05be 41b3 943d 2f7b c53d 28c1 f03c
00000210: 58e9 b73d 2497 9d3d 2b7f 9a3d 44c9 25bc
00000220: e31a 423c 07d4 8f3d 6bd8 1ebe 58d3 80bd
00000230: 6fc4 fabb 0cb3 b4bd 33d0 dfbd ec4e 123d
00000240: 5824 5c3d 654d 79bd 7062 30bd f9c7 8e3d
00000250: 3790 88bb 36fd 7e3d 40ac e33d a488 5dbe
00000260: bc3b 043e 6bd8 653f 5995 8abd fd73 c3bf
00000270: 4059 433e 815d 853e d9d4 66bd b95d 803d
00000280: a461 263d d212 29bc e6ac 143e f0c0 52bc
00000290: a299 d4bd 1caa 34be 4ea1 96be 7de0 a0be
000002a0: e402 8ebd fae5 f73a 20d0 6c3d a3c3 103e
000002b0: 5a2d bebd b520 503d 345c 8b3d 446b 5c3c
000002c0: ffa0 ac3e 27c3 e5bd a8e8 753e bfab a33e
000002d0: aecb d73e 9146 dd3e 6417 713d 4dae 0fbe
000002e0: c8b3 61be a0dc 43bd 4656 46bd 2c29 22be
000002f0: b4b3 453d 14c5 2dbe 0e73 99be 68a8 99be
00000300: 80a8 72be 3784 0abb 102e da3b f61c 393d
00000310: 2c19 393e ce06 cfbd dd13 513d 4be7 84bd
00000320: f37f 30bd a407 4cbe 8f6a ecbe 7246 863e
00000330: 646a 21bf 64c8 c33f c7e3 05bf 1dbd a13f
00000340: f604 92bd 933e 4c3d 78f2 83bd 1b01 73be
00000350: 0b1c dabe 9427 97be 6609 08bd d99c c23d
00000360: 991a 9b3e 8f8a 83bc 4e82 23be a1d7 8dbe
00000370: 32c8 32bc db4b 38be 21db 61be 0d5b 7bbc
00000380: 3aea e83e b969 853e 6e6a 57bd c005 7c3d
00000390: 9e8b 223e da70 5cbf e1f1 f33d 8ced 15bf
000003a0: 53ea 533f 366d 2f3f 5828 80be fd77 34be
000003b0: 8edc 93be 25bc 1dbe 2b49 ac3c 530d cfbd
000003c0: f42b e0bd 2255 9ebd fb2d 87bb d907 0a3d
000003d0: 9ac7 30bd 8a79 8c3d e0a1 3a3e 2f9b d5ba
000003e0: 6560 203e a6e4 ad3d 7b9a 383e 9807 6e3e
000003f0: 91d3 803e 679c 893d cfbd 373e c76e 38bd

linear1.bias f4 [256]
-0.21352775 -0.01693445 -0.15248105 -0.054361727 -0.033151723 0.019731408 0.014656474 -0.31715867
0.06699323 -0.09170445 -0.05011723 -0.19374195 -0.036285274 -0.059907325 -0.005913592 0.035006285
-0.01923001 -0.08212186 -0.02308957 -0.12587355 -0.07585329 -0.051089954 0.0 -0.11543492
-0.0724614 -0.011314751 -0.028311003 0.0 -0.23411675 0.075740844 -0.17537042 -0.07049112
0.068299204 -0.04229908 -0.017631106 0.11875791 -0.06889731 -0.06877384 -0.10093119 0.012166732
0.0034155047 0.060362883 -0.017140435 0.0712592 -0.009511151 -0.21054204 -0.01427457 0.0
-0.12253664 -0.048099373 0.1841763 0.2681891 -0.026316797 -0.051056642 -0.027852342 -0.04771006
-0.034664635 0.058907107 0.014589218 0.039668866 0.062397037 -0.102673195 0.012578186 -0.036940396
-0.013242232 0.13708873 -0.12881395 0.051784202 -0.08835299 -0.019029599 -0.038509212 -0.028615957
-0.1494955 -0.026791 -0.16738693 0.089262605 0.052100286 0.0 -0.009455205 0.09622159
-0.13417226 0.08193091 0.080558985 0.040178735 -0.012770519 -0.11807174 -0.19257662 -0.053757787
0.027097315 -0.07177257 0.0 -0.10093207 -0.029772663 0.019850403 0.0 -0.01830186
-0.09512964 -0.20303868 -0.019492 -0.14225781 -0.007108285 -0.08029866 -0.014360489 -0.08170803
-0.052241724 -0.077455744 -0.12063278 0.03159794 -0.038795296 -0.047133226 -0.24467413 0.16891882
-0.047023363 -0.16684611 -0.022498833 0.017946696 0.0418441 0.0 0.14569385 0.12567805
-0.14052996 -0.059833333 -0.17096378 0.0 -0.027864277 -0.12259837 0.010730615 -0.017067004
-0.0634544 -0.09543651 0.012160683 0.030405764 -0.060036 0.031594906 0.013926067 -0.011099897
-0.0090276515 0.036694255 -0.015728584 -0.044075534 -0.03645042 -0.10126389 0.057162046 -0.11027225
0.020884098 0.08992293 -0.005861073 -0.06964833 0.025314687 -0.036766946 0.101450585 0.17967623
0.0 -0.16429688 -0.017572144 -0.19808069 -0.06621863 -0.059656624 -0.11402041 0.016299538
-0.15055203 -0.21137045 -0.22924985 0.13135393 -0.02811018 -0.12684923 0.1976284 -0.0509113
0.14450052 0.20590466 -0.012552628 -0.013206623 -0.013211242 -0.024173379 -0.07656522 -0.08454809
-0.013562187 0.18876071 -0.07242928 0.17317018 -0.04631641 -0.0005501929 0.020968655 -0.10592737
-0.10638996 -0.09018533 -0.02375849 -0.14418653 -0.32347462 0.1584377 -0.10381557 -0.023790918
-0.041850317 -0.039378926 -0.15091054 0.030397896 -0.111355364 0.09955652 -0.14553425 0.0070539587
-0.16443361 -0.09646168 -0.16957715 0.033414446 0.058199797 -0.059475783 -0.04228346 -0.030299686
-0.085908465 0.09431795 -0.09975216 0.056923397 -0.12582166 0.05078394 -0.06727391 0.1202568
-0.014574084 -0.03398423 0.014397399 -0.056935426 -0.029648965 -0.043899424 -0.012373823 0.035632953
-0.14779034 -0.06746709 -0.027238514 -0.05700836 -0.115881786 -0.06586802 -0.0751291 0.004787646
-0.055616304 -0.039653163 -0.0104971435 -0.04953085 0.103039786 -0.053696603 -0.028493138 -0.015549421
-0.13327941 0.045269698 0.13740009 -0.0413999 0.08523162 0.1317492 0.10571339 -0.026295172
0.17512722 0.10281185 -0.13749413 -0.17384851 -0.0358385 0.006579906 0.12000099 -0.07475523
00000000: 05a7 5abe 1eba 8abc fe23 1cbe 67aa 5ebd
00000010: 1aca 07bd c3a3 a13c b521 703c 9f62 a2be
00000020: bf33 893d 8bcf bbbd b947 4dbd 4a64 46be
00000030: de9f 14bd 6261 75bd cec6 c1bb c062 0f3d
00000040: 4188 9dbc 812f a8bd 5726 bdbc ffe4 00be
00000050: f858 9bbd b343 51bd 0000 0000 2569 ecbd
00000060: a466 94bd 8161 39bc 7aec e7bc 0000 0000
00000070: 4dbc 6fbe 041e 9b3d 4e94 33be a65d 90bd
00000080: 74e0 8b3d cd41 2dbd 1c6f 90bc 5937 f33d
00000090: 081a 8dbd 4dd9 8cbd 03b5 cebd f956 473c
000000a0: a9d6 5f3b 123f 773d 196a 8cbc 58f0 913d
000000b0: a9d4 1bbc 5598 57be e3df 69bc 0000 0000
000000c0: 7df4 fabd d903 45bd b698 3c3e 1550 893e
000000d0: 5396 d7bc c520 51bd 982a e4bc a06b 43bd
000000e0: 81fc 0dbd 9448 713d 9e07 6f3c d27b 223d
000000f0: 0994 7f3d 5346 d2bd bc14 4e3c d04e 17bd
00000100: f2f5 58bc fd60 0c3e cee7 03be ac1b 543d
00000110: 6af2 b4bd f6e3 9bbc d6bb 1dbd 036c eabc
00000120: 5915 19be cd78 dbbc 7b67 2bbe 50cf b63d
00000130: 1c67 553d 0000 0000 01ea 1abc d30f c53d
00000140: 7464 09be 65cb a73d 1cfc a43d 7592 243d
00000150: 703b 51bc 99cf f1bd ce32 45be 2031 5cbd
00000160: 30fb dd3c 7ffd 92bd 0000 0000 79b5 cebd
00000170: cde5 f3bc 509d a23c 0000 0000 c8ed 95bc
00000180: 54d3 c2bd 5fe9 4fbe b0ad 9fbc 08ac 11be
00000190: 9eec e8bb a073 a4bd 4248 6bbc 8a56 a7bd
000001a0: 6bfb 55bd 1ea1 9ebd 520e f7bd d76c 013d
000001b0: d1e7 1ebd c50e 41bd db8b 7abe 0ef9 2c3e
000001c0: 929b 40bd b5d9 2abe 794f b8bc f304 933c
000001d0: b864 2b3d 0000 0000 c530 153e bfb1 003e
000001e0: 16e7 0fbe cc13 75bd 2111 2fbe 0000 0000
000001f0: a043 e4bc db14 fbbd 76cf 2f3c 1ad0 8bbc
00000200: 61f4 81bd 3874 c3bd 9a3d 473c 8215 f93c
00000210: 4fe8 75bd a969 013d 292a 643c 58dc 35bc
00000220: b7e8 13bc b74c 163d 3bd9 80bc 8c88 34bd
00000230: 094d 15bd 7163 cfbd c022 6a3d 6bd6 e1bd
00000240: 2115 ab3c 8329 b83d 3e0e c0bb c9a3 8ebd
00000250: bf60 cf3c f098 16bd 53c5 cf3d 0cfd 373e
00000260: 0000 0000 713d 28be 75f3 8fbc aad5 4abe
00000270: a29d 87bd 815a 74bd 8883 e9bd 9c86 853c
00000280: 502a 1abe 7f71 58be 79c0 6abe a581 063e
00000290: 5247 e6bc c4e4 01be 195f 4a3e 5e88 50bd
000002a0: f2f7 133e acd8 523e 8aa9 4dbc 9760 58bc
000002b0: f773 58bc 4007 c6bc 3ace 9cbd 8d27 adbd
000002c0: ef33 5ebc 7d4a 413e cd55 94bd 8653 313e
000002d0: 47b6 3dbd d23a 10ba 75c6 ab3c 73f0 d8bd
000002e0: fbe2 d9bd 16b3 b8bd 2aa1 c2bc a2a5 13be
000002f0: 779e a5be 7e3d 223e 429d d4bd 2ce5 c2bc
00000300: 3d6b 2bbd cc4b 21bd 4b88 1abe 0205 f93c
00000310: 480e e4bd 4ae4 cb3d ee06 15be e524 e73b
00000320: 4961 28be b48d c5bd a2a5 2dbe 96dd 083d
00000330: e962 6e3d e19c 73bd 6c31 2dbd 0c37 f8bc
00000340: c7f0 afbd c529 c13d dc4a ccbd 8228 693d
00000350: 65d7 00be d202 503d e7c6 89bd 3249 f63d
00000360: 24c8 6ebc 0c33 0bbd 11e3 6b3c 1f35 69bd
00000370: 63e2 f2bc e2cf 33bd 93bb 4abc dcf3 113d
00000380: 5a56 17be 302c 8abd 4e23 dfbc 9981 69bd
00000390: 6e53 edbd d0e5 86bd 49dd 99bd afe1 9c3b
000003a0: eccd 63bd 5b6b 22bd 36fc 2bbc dce0 4abd
000003b0: 8606 d33d f8f0 5bbd 716a e9bc 00c3 7ebc
000003c0: 667a 08be b86c 393d 9cb2 0c3e f192 29bd
000003d0: ea8d ae3d 43e9 063e 4380 d83d f968 d7bc
000003e0: 8d54 333e 058f d23d 43cb 0cbe 5805 32be
000003f0: 64cb 12bd 419c d73b 14c3 f53d 4519 99bd

mean_linear.weight f4 [3, 256]
-0.34671107 -0.097993694 -0.25600305 -0.3877819 -0.11608458 -0.20874467 0.12742174 0.103398845
-0.6760226 0.24280065 0.91535443 -0.8681381 0.01656426 0.60519975 -0.26865828 -0.78436196
-0.09248637 0.14770694 -0.038361438 0.019498672 0.44018236 -0.40072516 -0.07908772 -0.6029944
1.1959751 -0.120889954 0.044963297 0.08619568 -0.62027925 -0.19177827 0.32993972 -0.067638025
0.35861176 -0.4522108 -0.036562484 0.09210395 -0.10099166 0.06934371 -0.068710856 -0.015719853
0.39601532 0.3525801 0.06320984 -0.27648914 -0.147101 2.1320584 -0.1202972 0.095642015
-0.1475074 0.5559571 -0.2862891 -0.82916576 -0.026360318 -0.5144083 0.0834842 0.3354801
0.16757934 0.7559415 0.34572345 -0.37720802 -0.07401503 -0.19969243 -0.1723702 0.09206206
-0.080025494 -0.048688672 -0.77451015 -0.49911308 -0.45767647 0.012423085 0.5987763 -0.09214673
-0.2278348 0.0027629372 0.2612734 0.07842685 0.009961745 0.079845026 -0.004989424 -0.4597519
0.20142251 0.36142558 0.26296934 0.2717617 -0.12815517 0.6370791 -0.039269697 0.040053744
-0.19140543 -0.8193008 -0.122829996 0.72579277 0.18897817 0.21692775 0.07232106 -0.099273205
0.2796934 0.30293578 0.05868111 0.7244693 -0.13492283 -0.45323938 0.062153142 0.1340974
-0.34961712 -0.6363302 0.7161546 0.1517837 0.10184761 -0.32673433 -0.09596534 -0.36090633
-0.3727564 0.29232562 0.3859146 0.33081922 0.12967691 0.02934593 0.2964136 -0.15718457
1.072058 -0.09621801 -0.49049374 0.01731874 -0.11432489 -0.1313521 0.43615878 -0.8200468
-0.27494988 0.5653751 0.6906209 0.23819533 -0.21569255 2.6563334 0.15231183 -0.49815375
0.03949644 -0.09783347 -0.5017833 -0.07542716 -0.22188194 0.140634 -0.13849936 -0.8289434
0.0879145 0.8771207 0.5909624 -0.19419229 0.82168055 -0.57612747 -0.40933713 -0.14472868
0.058862522 0.15596123 -0.34727272 0.52214646 -0.4189297 0.5351105 0.35206577 -0.93413913
-0.23970173 -1.0747247 0.7269798 -0.34200245 0.031488553 -0.019764526 0.6958437 0.046551872
0.06877902 -0.61059153 0.034871805 -0.88973564 -0.07117259 0.113788165 -0.2725244 -0.3294704
-0.0688704 -0.45057186 -0.12272993 0.0022336573 -0.4740587 0.15846606 -0.19670214 0.30122128
-0.8838472 -0.15054229 -0.09744343 -0.27561972 0.24700445 0.048630945 0.44948283 -0.047904257
-0.074271746 -0.78036445 0.10030655 0.2843333 0.429 0.30589938 -0.0414372 -0.047957167
-0.8077193 -0.8221206 0.57194006 -0.2777879 0.32795447 -0.3882367 -0.43854386 0.22357588
-0.75184953 -0.050216764 1.3896867 0.17089987 -0.5046198 0.1833271 -0.55431604 -0.44701436
0.06062014 -0.37472072 0.4487064 -0.092637874 -0.086399905 0.17018397 0.87593156 0.49076563
-0.24247375 -0.98313487 0.1045394 0.28684855 0.8410878 -1.1095716 -0.42867276 0.12935102
0.09457415 0.256749 -0.019426024 0.13007504 0.16222915 0.06415874 -0.05660419 0.122060664
0.6761702 0.07252164 -0.09072582 0.0731977 -0.7085282 1.1017971 -0.3933354 -0.034626245
-0.21089637 0.7529479 0.5750505 0.6174936 -0.40583098 0.13739909 0.3431081 0.07914089
00000000: 1d84 b1be ebb0 c8bd d512 83be 598b c6be
00000010: c1bd edbd 2ac1 55be d87a 023e c6c2 d33d
00000020: d10f 2dbf bca0 783e ab54 6a3f 4c3e 5ebf
00000030: c5b1 873c 5fee 1a3f 948d 89be f2cb 48bf
00000040: 7e69 bdbd 7d40 173e e220 1dbd aebb 9f3c
00000050: 955f e13e d92b cdbe bef8 a1bd d75d 1abf
00000060: b615 993f 2795 f7bd 6f2b 383d 5c87 b03d
00000070: 9fca 1ebf 8661 44be dced a83e ce85 8abd
00000080: f69b b73e 2d88 e7be 8bc2 15bd ffa0 bc3d
00000090: b7d4 cebd 1304 8e3d 47b8 8cbd ecc6 80bc
000000a0: 85c2 ca3e 6185 b43e 2974 813d fc8f 8dbe
000000b0: a5a1 16be a573 0840 615e f6bd f6df c33d
000000c0: 2e0c 17be 3453 0e3f 7c94 92be 3544 54bf
000000d0: 98f1 d7bc 43b0 03bf c4f9 aa3d 0cc4 ab3e
000000e0: eb99 2b3e 6285 413f aa02 b13e 6921 c1be
000000f0: 3195 97bd 2c7c 4cbe d081 30be 098b bc3d
00000100: 68e4 a3bd c66d 47bd 4c46 46bf c08b ffbe
00000110: 9254 eabe 328a 4b3c 6749 193f 6db7 bcbd
00000120: 874d 69be 6512 353b a1c5 853e 429e a03d
00000130: 9636 233c ca85 a33d 527e a3bb 9a64 ebbe
00000140: b441 4e3e c60c b93e eba3 863e 5924 8b3e
00000150: 1c3b 03be 9e17 233f 43d9 20bd 650f 243d
00000160: c9ff 43be b2bd 51bf 4b8e fbbd 8ecd 393f
00000170: 7e83 413e 4f22 5e3e 101d 943d c04f cbbd
00000180: f933 8f3e 661a 9b3e 9b5b 703d d276 393f
00000190: 3629 0abe fe0e e8be 4b94 7e3d d450 093e
000001a0: 0401 b3be 89e6 22bf e855 373f 306d 1b3e
000001b0: 7b95 d03d b949 a7be 7a89 c4bd b7c8 b8be
000001c0: edd9 bebe b4ab 953e 9996 c53e 2361 a93e
000001d0: 06ca 043e e066 f03c 86c3 973e fef4 20be
000001e0: 3239 893f f30d c5bd ff21 fbbe 08e0 8d3c
000001f0: 2b23 eabd 2a81 06be 3450 df3e 96ee 51bf
00000200: 3bc6 8cbe 6cbc 103f 88cc 303f 7ae9 733e
00000210: 82de 5cbe 5e01 2a40 a2f7 1b3e 020e ffbe
00000220: 05c7 213d ea5c c8bd df74 00bf 8e79 9abd
00000230: 0535 63be 5c02 103e c7d2 0dbe a235 54bf
00000240: 840c b43d fb8a 603f 5049 173f 58da 46be
00000250: a859 523f 177d 13bf a394 d1be c133 14be
00000260: d419 713d 4db4 1f3e bbcd b1be 64ab 053f
00000270: f47d d6be 00fd 083f f741 b43e be23 6fbf
00000280: 5f74 75be 9490 89bf 591b 3a3f f21a afbe
00000290: 24fa 003d 37e9 a1bc d022 323f 2dad 3e3d
000002a0: 04dc 8c3d ba4f 1cbf bdd5 0e3d b7c5 63bf
000002b0: efc2 91bd c509 e93d 5188 8bbe 58b0 a8be
000002c0: ed0b 8dbd 5bb1 e6be d459 fbbd 8d62 123b
000002d0: d2b7 f2be ed44 223e 496c 49be ad39 9a3e
000002e0: cf43 62bf c227 1abe 6c90 c7bd 071e 8dbe
000002f0: bcee 7c3e 3e31 473d 9d22 e63e 4137 44bd
00000300: c91b 98bd f7c5 47bf 856d cd3d 2294 913e
00000310: e3a5 db3e d89e 9c3e 0eba 29bd bc6e 44bd
00000320: b1c6 4ebf 7f76 52bf aa6a 123f 373a 8ebe
00000330: a6e9 a73e f6c6 c6be d288 e0be 13f1 643e
00000340: 3679 40bf 18b0 4dbd 41e1 b13f 6000 2f3e
00000350: c32e 01bf 19ba 3b3e a8e7 0dbf 11df e4be
00000360: d34c 783d 65db bfbe d8bc e53e edb8 bdbd
00000370: 6ff2 b0bd b544 2e3e 0d3d 603f a245 fb3e
00000380: 0a4b 78be baae 7bbf c118 d63d d0dd 923e
00000390: 8851 573f 7106 8ebf ff7a dbbe 9874 043e
000003a0: 18b0 c13d 9b74 833e 5323 9fbc 6432 053e
000003b0: 661f 263e a865 833d ccd9 67bd f1fa f93d
000003c0: 7d19 2d3f 3a86 943d 75ce b9bd ade8 953d
000003d0: 1b62 35bf b007 8d3f 4263 c9be 40d4 0dbd
000003e0: 38f5 57be 32c1 403f 8236 133f 1014 1e3f
000003f0: 14c9 cfbe 59b2 0c3e ddab af3e 9e14 a23d

mean_linear.bias f4 [3]
-0.0018522728 -0.057022076 -0.0066760117
00000000: f6c7 f2ba fb8f 69bd 72c2 dabb

log_std_linear.weight f4 [3, 256]
0.10827907 -0.029258164 -0.044190187 0.15683463 -0.0901622 -0.099619135 0.031766042 -0.039394688
-0.1079576 -0.08888551 -0.041835252 -0.04631112 -0.022694157 0.10096665 0.012557307 -0.19072177
0.027606035 0.016613143 -0.09037282 -0.048440546 0.143307 0.01147119 -0.11378891 -0.009245814
-0.3993643 0.0763442 -0.012052767 -0.024581447 -0.04562819 -0.17016944 0.01435306 0.0637131
0.032072585 0.049117807 0.11922028 0.00021075243 0.008199741 0.013411568 0.2528494 0.005208843
0.020814946 -0.012946954 -0.022468148 -0.4327409 0.051956683 0.5070729 0.1629368 0.08123481
-0.02517418 -0.036480702 -0.024980906 0.08860451 0.13994558 -0.029885352 -0.03784269 0.015355887
-0.11395757 0.11857071 -0.090969615 0.10447986 -0.04665764 0.14307463 0.088934645 -0.00070065126
0.12591603 0.08349346 0.17782041 0.07929157 -0.06620973 0.036492694 -0.099502884 0.1306984
-0.13361107 0.05168954 0.08716744 0.10093273 -0.02317369 -0.12279984 0.13875552 0.07723337
-0.29739985 -0.18854742 -0.45747948 -0.057061106 0.037592553 0.05611457 0.026208714 0.007891129
0.06206664 0.37219286 -0.0014803559 0.06694394 0.044993706 0.028669642 -0.06585623 0.022477947
-0.067862175 0.4412086 0.07998547 0.26351112 0.09706118 0.045741376 -0.0020348253 -0.11155864
0.18349726 -0.01293166 0.08293818 -0.03297473 -0.029215747 0.1369826 0.25027576 -0.12148616
-0.023056773 0.08909362 0.04539799 0.028361266 0.06765941 -0.105076194 -0.049303237 -0.1415605
0.08833374 0.061274398 0.13825741 0.009439662 -0.1209173 0.015445103 -0.06601643 -0.21702474
-0.008029799 0.099125855 -0.007969421 -0.013475011 0.14820796 -1.6623746 0.02878841 0.12426173
-0.06826824 -0.005941898 8.472877e-05 -0.041921698 -0.12297348 0.024720028 -0.06179617 -0.044431385
0.034460958 0.15603617 0.0683638 0.17519933 -0.34250316 -0.089336134 -0.00789277 -0.06545694
-0.062547944 -0.0203898 -0.021111831 -0.16682696 0.04409923 0.1659743 0.06376743 -0.18976368
0.04417331 -0.067950346 0.038516376 -0.042926293 0.082574286 0.018412773 -0.14278959 0.008752271
0.07624404 -0.01969918 -0.012290422 -0.102355495 -0.06696937 0.051392436 0.08185893 0.069086246
-0.09894091 -0.0078791175 -0.21359655 -0.1024182 0.3432272 0.015245318 -0.092963986 -0.011590835
0.5855402 0.109109126 0.038993526 -0.15492816 -0.0407656 0.059432484 -0.066693336 0.054582447
0.19641984 0.0034806523 -0.11681009 0.07788138 -0.046168808 -0.029528145 -0.009924947 -0.0011470508
0.008193786 0.26170525 -0.035935123 0.036526784 0.020312695 0.099290535 -0.21598195 0.11188748
0.062515296 0.06372981 -0.27761805 -0.034792114 0.046680752 0.15712279 0.10659748 -0.07514935
0.12290321 -0.0053180056 -0.10224452 0.08604886 -0.10344198 0.17746128 -0.04452974 -0.027190335
-0.06872937 -0.25650576 -0.016711183 -0.13813911 0.007126671 0.59645176 0.10623234 0.021028215
0.0007816562 -0.073021576 0.018732673 0.009828432 -0.07293715 -0.02426529 -0.060140327 -0.032022517
-0.1327117 -0.015319239 0.018379293 -0.03129018 -0.025426965 0.16896176 0.18294354 0.021020142
0.1399233 0.0375629 0.058922105 -0.09543982 0.082969666 -0.12182842 -0.01716247 -0.005292923
00000000: 6bc1 dd3d d1ae efbc c500 35bd 4299 203e
00000010: f6a6 b8bd 1e05 ccbd 1c1d 023d 535c 21bd
00000020: e018 ddbd 9b09 b6bd 715b 2bbd bbb0 3dbd
00000030: 19e9 b9bc 9ac7 ce3d 2abd 4d3c 914c 43be
00000040: 0d26 e23c 4918 883c 6315 b9bd 9869 46bd
00000050: 12bf 123e a8f1 3b3c 290a e9bd c17b 17bc
00000060: 7a79 ccbe 595a 9c3d f878 45bc 085f c9bc
00000070: a0e4 3abd e640 2ebe 1929 6b3c 047c 823d
00000080: 8b5e 033d c12f 493d c329 f43d 6dfd 5c39
00000090: 3558 063c 31bc 5b3c 7a75 813e f1ae aa3b
000000a0: 1b84 aa3c 761f 54bc 1f0f b8bc 3790 ddbe
000000b0: 88d0 543d 88cf 013f e8d8 263e 705e a63d
000000c0: 153a cebc ca6c 15bd c2a4 ccbc 4876 b53d
000000d0: e54d 0f3e 20d2 f4bc f000 1bbd 4297 7b3c
000000e0: 9662 e9bd 33d5 f23d 474e babd 89f9 d53d
000000f0: 151c 3fbd 2882 123e 5e23 b63d e9ab 37ba
00000100: 22f0 003e 9ffe aa3d 8e16 363e 9e63 a23d
00000110: f898 87bd 5d79 153d 2bc8 cbbd cdd5 053e
00000120: 57d1 08be 69b8 533d d884 b23d d2b5 ce3d
00000130: c0d6 bdbc 7c7e fbbd ed15 0e3e 872c 9e3d
00000140: cb44 98be 9312 41be c03a eabe e8b8 69bd
00000150: a6fa 193d 64d8 653d a8b3 d63c cb49 013c
00000160: 9739 7e3d 1090 be3e 8008 c2ba e819 893d
00000170: 524b 383d 99dc ea3c a2df 86bd ac23 b83c
00000180: 53fb 8abd 18e6 e13e 6ccf a33d eeea 863e
00000190: 03c8 c63d 4f5b 3b3d b45a 05bb db78 e4bd
000001a0: b5e6 3b3e 50df 53bc 7edb a93d 8310 07bd
000001b0: dd55 efbc 2b45 0c3e 2524 803e bccd f8bd
000001c0: 8fe1 bcbc b776 b63d 3ef3 393d e355 e83c
000001d0: 0491 8a3d 3032 d7bd 31f2 49bd 3cf5 10be
000001e0: 52e8 b43d ddfa 7a3d 5a93 0d3e d0a8 1a3c
000001f0: 7da3 f7bd 750d 7d3c 9f33 87bd bc3b 5ebe
00000200: 6b8f 03bc 7f02 cb3d 2d92 02bc 4bc6 5cbc
00000210: d4c3 173e b1c8 d4bf acd5 eb3c ef7c fe3d
00000220: 38d0 8bbd 41b4 c2bb 69b0 b138 16b6 2bbd
00000230: 85d9 fbbd a881 ca3c fb1d 7dbd affd 35bd
00000240: ef26 0d3d f2c7 1f3e 5202 8c3d 7467 333e
00000250: 935c afbe ddf5 b6bd ad50 01bc 4a0e 86bd
00000260: 2319 80bd 8308 a7bc b8f2 acbc b0d4 2abe
00000270: 65a1 343d 2bf5 293e 8098 823d 6951 42be
00000280: 13ef 343d 8d29 8bbd 59c3 1d3d 7bd3 2fbd
00000290: b51c a93d 62d6 963c 6f37 12be af65 0f3c
000002a0: d625 9c3d 2d60 a1bc c45d 49bc c29f d1bd
000002b0: 3d27 89bd e080 523d a8a5 a73d 177d 8d3d
000002c0: 88a1 cabd 6a17 01bc 0eb9 5abe a2c0 d1bd
000002d0: 7abb af3e 80c7 793c e763 bebd 7ce7 3dbc
000002e0: f6e5 153f 9b74 df3d adb7 1f3d 7da5 1ebe
000002f0: d4f9 26bd 7a6f 733d 8496 88bd d891 5f3d
00000300: 4822 493e a81b 643b 213a efbd 4680 9f3d
00000310: 811b 3dbd 02e5 f1bc 3f9c 22bc a358 96ba
00000320: 3b3f 063c 3bfe 853e b530 13bd 1c9d 153d
00000330: cf66 a63c d658 cb3d 5f2a 5dbe 4325 e53d
00000340: 0508 803d c684 823d f423 8ebe 2d82 0ebd
00000350: 5134 3f3d cce4 203e c84f da3d e7e7 99bd
00000360: aeb4 fb3d aa42 aebb 9365 d1bd 623a b03d
00000370: 64d9 d3bd 69b8 353e d164 36bd 44be debc
00000380: fcc1 8cbd b954 83be e4e5 88bc 5774 0dbe
00000390: d986 e93b 10b1 183f 5790 d93d 5d43 ac3c
000003a0: 0fe8 4c3a 568c 95bd 4375 993c 6f07 213c
000003b0: 1360 95bd 00c8 c6bc b455 76bd 0b2a 03bd
000003c0: 93e5 07be 8cfd 7abc 2c90 963c 222a 00bd
000003d0: 364c d0bc 5004 2d3e 8d55 3b3e 6f32 ac3c
000003e0: 0e48 0f3e 8edb 193d 4e58 713d f475 c3bd
000003f0: 00ec a93d 2e81 f9bd 4f98 8cbc 4270 adbb

log_std_linear.bias f4 [3]
-0.61250454 -0.5650155 -0.57465386
00000000: 19cd 1cbf dba4 10bf 841c 13bf
