hydrone_aerial_underwater_ddpg/scripts/Models/sac_stage_2_air2D_tanh_3layers/1300_policy_net.pth (torch_old, 294160 bytes, 8 tensors)

linear1.weight f4 [256, 24]
00000000: 31ef 17be 4246 02bc 820a ddbd e29e 19be
00000010: 1398 773c daa1 2dbe 031c e93c ce30 bb3d
00000020: 8b66 16be 5bbc 09be 716f 09be 06cb 223c
00000030: 7550 843d 4a48 d6bc 383e 713d 0592 91bd
00000040: 9203 1bbe febe 02bd 68c4 033c 68d8 ae3c
00000050: 519b c5bc 07c8 823d 1339 01be 163c 31bd
00000060: ce37 7cbd 7304 77be dcf9 5e3d da73 c53d
00000070: 39a0 d53d 53a2 eebd 71ce 643e e392 673b
00000080: d426 fcbd 90e1 253e 34ad a93d c617 bebc
00000090: 6932 01be 35a2 88bd c634 f5bd e0a4 89bd
000000a0: a47a 5abe ad2d 17be 6e00 bb3d 623e d03d
000000b0: 5f8e 2d3d ca21 4fbe 4a1d ebbf 2694 e03e
000000c0: d9dd 9f3d 7a5f 883e 5c87 643d 14b5 a93e
000000d0: 11b2 be3d 68e7 2bbd ffd6 2b3d d692 a6bd
000000e0: 33b9 62bd 6f2a bb3d 10ab 0ebe b11a 03be
000000f0: 8536 89bd db35 ee3d a37b 80be b568 b6bd
00000100: 4cdb d03d daab 8bbe 0cb4 dfbe 5139 09be
00000110: 7ce3 52bc 3af6 123f 8890 13be 6c36 9bbe
00000120: a000 dc3c 21be e5bd 05f8 933d 59ac dcbe
00000130: 6100 edbe 521c 383e 2b9e 0c3e 2720 3f3d
00000140: f48f ec3c 54ec 19bb f275 e93d c6aa c63d
00000150: 78e1 083e 20dc 1abe b0be 8dbe 86b0 953d
00000160: 6232 503c 93cc eabd 8da4 793e 5387 a53d
00000170: db59 99be 8558 303f 56cf 7a3b e0b7 12bf
00000180: 05d8 2e3e 9efd 983e d2d9 9ebc d8bf 9f3b
00000190: 84bd 81be 0b16 7bbd 2194 44bd 659e a4be
000001a0: ef0f ecbb d36c b13b ddf6 b1bd 14e6 b03d
000001b0: a987 f23d 0f12 84bd a5a0 613e 8fff 02be
000001c0: 78f4 b0be d42e 773d eba2 e7bd caa4 fdbd
000001d0: 2712 8bbd c569 98be 28f0 b13e a2d6 68be
000001e0: bfaa 3c3d 09bb 793c 1077 28be 7f89 88be
000001f0: 8c7a 56bd 91a8 64be 37ad 5c3e 5699 a53e
00000200: a5ec c1bc d604 e13d 8869 553d 925e 7a3e
00000210: 1ac2 bebd a9c1 80be e947 473d b97a 07be
00000220: 629c 4f3d f6c4 ffbc c67b 2a3e b5e5 e4bd
00000230: 800f e23e f258 68be e1cb 17bf e86c 13be
00000240: 87f2 6bbe 156a 0e3d d985 04bc 7138 5abe
00000250: 8022 eb3d b53d 0d3e a569 b6bd 27cd 1cbe
00000260: 768a 3dbe a24e 87be 651a 253e f9ce 8c3d
00000270: dfbc 723c 6aff 8e3e 08cd cd3c 1363 1dbe
00000280: cd46 473e 645d 363d ee88 153e 8d81 2e3d
00000290: 6a5f 8bbe e65a 333e 1187 53be 5190 1abf
000002a0: 3b27 3cbe 1da6 14be e73c f53d 8390 463e
000002b0: e5f7 b83b 9c56 8ebe 23fb 813d b970 573e
000002c0: 40a6 313e 2e8f b23d 35ed df3d 07da 7e3e
000002d0: 468e b9bd d287 babe 4da5 3b3e b543 49bc
000002e0: 2757 5fbd bd34 52be d366 b1bd 35e8 78bd
000002f0: a5b3 e63d f48c b4bd eb8c 473e f1a4 893d
00000300: 3728 44be dc65 6e3e a22c c5be 2670 4bbe
00000310: e415 b63c 7cb1 7b3e eefe 403e e09f ffbd
00000320: 0ac0 e33d 5285 03be 22ce 8bbe 6c5c 50be
00000330: 8e55 14be f966 aebd 2718 2bbd d2e7 43bd
00000340: aa08 153e d388 003d e375 70be 7d29 4fbe
00000350: 0746 913d c8c2 10bd 0b58 11be 5a82 233d
00000360: 3c74 73be 4326 103e 5359 173e e10f 83be
00000370: d696 a5ba 679a a93d e677 e03d e870 0dbd
00000380: 24d0 32be db2c fcbd f8eb 1bbe 9e33 663d
00000390: cbd8 393e 8238 ebbc 27eb 143e 7af5 33bd
000003a0: 9642 9a3d 6dcd 363c b196 5f3d d991 f53d
000003b0: 4865 d4be df66 e4be 852b 723e f7fa 883e
000003c0: cf8c 1bbe caaa 33be 067f e8bd 69ef 3e3d
000003d0: 8c06 4a3a 1e67 85bd 2222 b6be 3127 91be
000003e0: 8b46 f13d c877 39bc 2b9f 4abd 8078 663e
000003f0: b743 943e c0a9 0d3e a39f 483e 1f37 123e
-0.14837338 -0.007951321 -0.1079302 -0.15002015 0.015111941 -0.16956273 0.02845574 0.09140168
-0.14687555 -0.13450758 -0.13421418 0.0099361 0.064606585 -0.026157517 0.058897227 -0.07107929
-0.1513808 -0.031920426 0.008042432 0.021343425 -0.024121912 0.063858084 -0.12619428 -0.043270193
-0.061576657 -0.24122791 0.054437503 0.096412376 0.10430951 -0.11652055 0.22344376 0.0035335354
-0.123120934 0.16199327 0.08284989 -0.023204695 -0.12616886 -0.066715635 -0.11972956 -0.067209005
-0.21335846 -0.14763518 0.09130941 0.101681486 0.042372104 -0.20227733 -1.8368313 0.43863028
0.07805986 0.26635343 0.05579315 0.33145964 0.09311307 -0.041968733 0.041953083 -0.081334755
-0.0553524 0.09138953 -0.13932443 -0.1280315 -0.06699852 0.11631366 -0.25094327 -0.0890669
0.101980776 -0.2727955 -0.43692052 -0.1340077 -0.012871619 0.5740696 -0.14410603 -0.30314958
0.026855767 -0.11217905 0.0722504 -0.4310024 -0.46289352 0.17979553 0.13732211 0.046661522
0.028877236 -0.002348681 0.113994494 0.09700541 0.1336726 -0.15123034 -0.27684546 0.0730906
0.012707325 -0.11464801 0.24379177 0.08082452 -0.29951367 0.6888507 0.0038270555 -0.5731182
0.17074592 0.29880995 -0.019390974 0.0048751645 -0.253399 -0.06130032 -0.04799283 -0.32152095
-0.007204048 0.005414584 -0.086896636 0.08637634 0.11842281 -0.06448757 0.22033937 -0.127928
-0.34561515 0.060347393 -0.11310371 -0.12384947 -0.06790572 -0.29768196 0.34753537 -0.22738126
0.046061274 0.015242347 -0.16451669 -0.266674 -0.052362964 -0.22329928 0.21550451 0.3234355
-0.023672411 0.109872505 0.052102596 0.24450138 -0.09314366 -0.2514775 0.048652563 -0.13230409
0.050686248 -0.031221848 0.16648778 -0.11176626 0.4415245 -0.2269018 -0.5929547 -0.14397013
-0.23041736 0.034769136 -0.008088552 -0.21310593 0.1148119 0.1379307 -0.08906869 -0.15312634
-0.1850985 -0.2642718 0.1612335 0.068754144 0.014815538 0.2792924 0.02512218 -0.15369825
0.19460602 0.044522658 0.14603016 0.042604018 -0.27221233 0.17515144 -0.20656992 -0.6037646
-0.1837434 -0.14516492 0.11974507 0.19391064 0.0056447857 -0.27800453 0.06346729 0.21039094
0.17348576 0.087187156 0.109339155 0.24887858 -0.0906034 -0.36431748 0.18324776 -0.012284209
-0.054526474 -0.2052793 -0.0866219 -0.060768325 0.11264733 -0.08815947 0.1948735 0.06720913
-0.19155966 0.23281044 -0.38510615 -0.19867 0.022227235 0.24579424 0.18847248 -0.124816656
0.11120613 -0.12843826 -0.27305704 -0.20347756 -0.14485762 -0.08515734 -0.04177108 -0.047828503
0.14554086 0.031380486 -0.2348247 -0.2023067 0.07093435 -0.035342008 -0.14193742 0.039919235
-0.23774809 0.14077096 0.14780168 -0.25598052 -0.0012633454 0.08281403 0.10960369 -0.034531504
-0.17462212 -0.12313243 -0.15226734 0.05620157 0.18149106 -0.028713468 0.14542829 -0.043935277
0.075322315 0.011157376 0.05458707 0.11990709 -0.4148352 -0.44609734 0.23649414 0.2675397
-0.15190433 -0.1754562 -0.11352353 0.046615038 0.0007706664 -0.06513809 -0.35572916 -0.28350213
0.11781033 -0.011320062 -0.0494682 0.22506905 0.28957912 0.13834286 0.19592147 0.1427884

linear1.bias f4 [256]
00000000: dc67 ffbc c36f e4bd 6153 8e3c e0b8 363c
00000010: 6233 5fbc a0fb 20bb 1fa2 31ba 863a adbb
00000020: 5c7b 773d 383c c7bd 740a ef3b 8615 39bc
00000030: 207f 973d bc0c abbd 5717 4c3c 1d12 103d
00000040: a5d9 163b 2a3d 0bbe ef30 11bd 1aee 9ebd
00000050: 7a3a b1bd c512 263d 5fb8 0cbd 8baf 74bd
00000060: e153 103c 8864 653d c155 81bc 71bf f0bc
00000070: 119c 40bd 5bf7 bcbd ba9f 94bd 7c7d ab3c
00000080: 0d91 a3bd f798 173d 0529 783c 3083 083c
00000090: 84cb 213c 745d 27bd b687 f0bc 7397 eabb
000000a0: 6ad9 64bd e042 03bd 932a 873d b397 fdbb
000000b0: 3fc5 d0bc 84f5 2b3c bef3 f93b 15c8 68bd
000000c0: 316d a6bd 824f 86bd 6e95 8bbd 491e 86bd
000000d0: cabe 93bd ebc4 87bc f863 ecbc 138e cfbd
000000e0: 886e 02bc 72ab 0cbd b8b0 013b c402 e33d
000000f0: 7ae5 97bc 7f37 b83c fcc4 153d 1e8d 52bd
00000100: a95b 243d 7113 a7bd b513 4dbd 85ae 683c
00000110: e88b 0d3d 19fb 43bd 4bbc 62bb 8a55 ddbd
00000120: aa25 033c 9c0c 5bbd 0570 2bbd 2921 d0bc
00000130: 9c73 8cbc c7ae 2e3d 5705 9dbb 521c 9dbd
00000140: 23e8 79bd ea06 353d 7dc2 593c 91b6 e1bc
00000150: 4cda 633c bbd1 20bc a469 3fbd a458 8dbd
00000160: d2dc 6bba f1c9 833d 8686 49bd 40e1 15bd
00000170: 7d2c 263d 00bc c9bc 7a3c e6bc dd17 83bd
00000180: 0df8 d8bd fee5 e5bb 18a6 97bd 43f3 95bc
00000190: 569c f63c d0a5 6fbc fd22 11bb 7fdd 9abc
000001a0: f65a 40bd e45b a0bc c1f8 623c 25f3 c0bc
000001b0: f0c4 0abd c8c2 863d 4760 9abc 9c4d a6bc
000001c0: 45be 98bc e679 9cbd bd4e 833c ca41 373c
000001d0: 858f a9bc f925 75bd 2d74 fa3b 4c55 58bc
000001e0: 579d ab3d f140 a3bb f122 f1bc 99c6 193d
000001f0: 4cf6 6abb 543d 1abc ad8d 4c3c d379 03bd
00000200: 4a7e cb3d 7e2f 473b 6b7b 2bbc cefb 48bc
00000210: 4f12 04bd 0000 0000 6083 18bd 6a70 9b3d
00000220: 7283 083e 38b1 063d eded 8ebd 87b9 b9bd
00000230: 708b 70bc c9ad 573d df9b 46bd b430 803c
00000240: d1c4 73bd f306 833d ff07 b8bb 258e 10bc
00000250: 803d 06bb 4744 f33b 1916 de3c aa26 0c3b
00000260: e8dd a8bc 6876 27bd 6cac e2bd da06 b93c
00000270: df30 1e3d 48ca a73c 8eab 01bd dab7 80bd
00000280: 522e 51bb b283 193d 70d6 963b 537d 483c
00000290: 52b4 7b3d d9b4 503d 9f19 b7bb 094f b93d
000002a0: 44b4 60bd c6ab 9ebd 0e81 90bc 070c 05be
000002b0: a09f 8d3d cad3 3abd 7a2f 633d 8bfb 02bc
000002c0: 9a2b 87bc 3062 12ba c045 13bd aa7b 34bd
000002d0: 815c cdbb f0d0 5bbc d301 86bc 9686 ebbc
000002e0: c5e6 90bd 5e9e d0bd 632b 4abd 527e 31bc
000002f0: 122e 9ebd 2a64 f7bd 5667 6b3a 9400 bcbc
00000300: 7956 e7bd 3726 a23d 16e5 d5bc 47de 2d3d
00000310: 4119 533d 71ff e4bb 2153 9dbd db4e 43bd
00000320: 7784 fbbc 9031 63bd d2b8 4ebd ed23 9cbd
00000330: 3d3a f7bc d6da 8ebd ce5d 953c 9b3d 8dbc
00000340: dec7 a6bc 0cdb 34bd 82fa c5bc dee4 0ebd
00000350: 4654 4bbd 86a6 e9bc 8cf4 21bd 33c6 15bd
00000360: ef09 ce3c 527c f4bc 2c70 ed3c b8a6 a73c
00000370: 65c5 7eba eed1 ae3d 0000 0000 f087 2abd
00000380: 19db 12be db62 5dbc dc20 0b3e 76de 4ebd
00000390: 77e1 153d fad5 6d3c d27f a4bc d8f8 c0bc
000003a0: 9b71 3fbd 44d7 acbd 7538 86ba 95d1 743c
000003b0: 98bd 27bd 2651 4fbd 5251 adbc 0321 8ebd
000003c0: e887 abbc 1b26 3fbd 23f2 95ba d746 8ebc
000003d0: 41a9 14be ba9e 823c 3439 1fbd 57fc cb3c
000003e0: d3b3 e63c 8f1c cfbd 2f02 9abc 8337 6ebd
000003f0: 9d08 e938 9b47 54ba b55e 963c 229c 783c
-0.031177454 -0.11154129 0.017373743 0.011152476 -0.01362309 -0.0024564043 -0.0006776172 -0.0052865176
0.06042038 -0.09728283 0.0072949473 -0.0112966355 0.07397294 -0.08352038 0.0124567365 0.035173524
0.002301791 -0.13597551 -0.035447057 -0.07760258 -0.08653732 0.040545244 -0.034355517 -0.059737723
0.008809061 0.056004077 -0.015787961 -0.029388161 -0.047023837 -0.09226867 -0.07257028 0.020933859
-0.079866506 0.037011113 0.015146499 0.008332059 0.009875182 -0.04086061 -0.029361587 -0.0071591674
-0.055871405 -0.0320462 0.06599917 -0.007739031 -0.02548468 0.010495547 0.0076279333 -0.056831438
-0.08126295 -0.06558134 -0.06815611 -0.06548745 -0.072141245 -0.01657339 -0.028856263 -0.101345204
-0.007960923 -0.03434319 0.001978917 0.11084512 -0.01854204 0.0224874 0.036564812 -0.05140411
0.040126476 -0.08158005 -0.050067622 0.014201765 0.034557253 -0.047846887 -0.0034597095 -0.10807331
0.008004585 -0.053478822 -0.041854877 -0.025406437 -0.01714497 0.04264715 -0.0047918963 -0.07671417
-0.0610124 0.044196047 0.0132909985 -0.027552875 0.0139070265 -0.009815629 -0.046731606 -0.069016725
-0.00089974434 0.06435002 -0.049200557 -0.03659177 0.04056977 -0.024625778 -0.02810501 -0.06401036
-0.10594187 -0.0070159426 -0.07404727 -0.018304473 0.030103844 -0.014626935 -0.0022146099 -0.018904446
-0.046961747 -0.019575067 0.013853253 -0.02355344 -0.03387922 0.0658012 -0.018844737 -0.020300679
-0.018645415 -0.07640438 0.016028756 0.011185119 -0.020698318 -0.059850667 0.0076432438 -0.01320393
0.083796196 -0.004982107 -0.029435607 0.037542913 -0.003585237 -0.009414036 0.01248495 -0.032098603
0.09936197 0.0030393298 -0.010466437 -0.012267066 -0.032244023 0.0 -0.037234664 0.07589801
0.13331392 0.032883853 -0.069789745 -0.0906859 -0.014681682 0.05265597 -0.048488494 0.015648223
-0.05951387 0.0639781 -0.0056161876 -0.008822952 -0.0020483434 0.007423911 0.027110146 0.002138535
-0.020613626 -0.040884405 -0.11068043 0.022586275 0.038620826 0.020482197 -0.031657748 -0.06285067
-0.0031918478 0.03747911 0.0046031997 0.012236911 0.061451264 0.05095372 -0.005587771 0.09048278
-0.054859415 -0.07747607 -0.017639663 -0.1299287 0.06915212 -0.045612134 0.0554652 -0.007994543
-0.016500283 -0.0005584089 -0.03595519 -0.044063248 -0.006267131 -0.013416514 -0.016358292 -0.028750699
-0.07075266 -0.10186456 -0.049357783 -0.01083334 -0.07723631 -0.12079652 0.0008979937 -0.022949494
-0.1129579 0.07917445 -0.026110213 0.04244831 0.051537756 -0.006988459 -0.07681871 -0.047682624
-0.030702813 -0.05546719 -0.050469227 -0.0762404 -0.030179137 -0.069753334 0.018233206 -0.01724129
-0.020358976 -0.044154212 -0.024167303 -0.034886234 -0.049640916 -0.028521787 -0.03953986 -0.03656597
0.025151221 -0.029844437 0.028984152 0.02046524 -0.0009718745 0.08536135 0.0 -0.041633546
-0.14341392 -0.0135123385 0.13586754 -0.050505124 0.036591973 0.014516348 -0.02008048 -0.023556158
-0.046739202 -0.08439496 -0.0010240214 0.014942546 -0.040952295 -0.0506145 -0.02115694 -0.0693989
-0.020938829 -0.0466672 -0.001143996 -0.017367763 -0.1451769 0.015944827 -0.038872913 0.024900598
0.028161919 -0.10112869 -0.01879987 -0.05815841 0.0001111191 -0.0008097828 0.018355707 0.015173944

linear2.weight f4 [256, 256]
00000000: df12 b8bd d38b 0bbf 2c32 cabd d4d2 a13e
00000010: 3e68 bc3e 3d4c 8bbe 3e84 9e3c 002d 0abd
00000020: 2b76 3bbe f899 e3be 7aa3 4ebc 8eb4 333e
00000030: 1652 9ebd 9e15 6ebe 8ac2 59be 9187 97bd
00000040: 4aa1 8e3e 3462 b23d 8874 07be 8cf6 593e
00000050: 0aa4 4dbe b266 be3d 62a9 e7be 893f 2c3e
00000060: 3f03 21be e046 9e3e 08c5 3d3d 02d1 89bc
00000070: c146 cbbc dd10 4dbd c2e3 103d 1400 3f3e
00000080: fa03 48bd 4d18 633e c4c4 67be f4e3 52be
00000090: 0989 50bd 3d96 50be 784d a5be d314 e1be
000000a0: f7c9 833e 6f35 37be 72d6 8f3d eb4f 963e
000000b0: 6de4 8ebd f6e3 d83d 45a0 673c 5b76 493e
000000c0: 1a65 bbbe 3746 5e3b 078b c33d 92f6 43ba
000000d0: 7bec 80bd b79c 493e 2084 aa3d 0a98 66bd
000000e0: 6f53 5bbe bf71 da3c 67e3 34be e7ec 8fbe
000000f0: bac5 b3be bea1 cebd 12fe ba3d 7b9a a3be
00000100: 62f4 72be 326f 34be bee0 713e 39b2 e1be
00000110: 4455 8dbe e5c7 1ebc 3df8 9fbd 1493 61bd
00000120: 828c 56be ce61 3cbd e7b2 06bf c427 07be
00000130: e7ce f5bd 04dc bdbc 02b5 a1bd 8b61 f8bb
00000140: 2c8a 01be 0da8 1e3e 2a6a cfbe f76b 6cbe
00000150: 0df1 aa3d 245b c9be dba7 3bbd 8e93 aebd
00000160: 6030 ba3e faed 48bd d2bb ed3d d18b a43d
00000170: c0d4 a7bc bf38 09be 4010 ffba 4836 413e
00000180: 25d4 01be 680c f0bb 02cc 513d 9397 37bd
00000190: b6a8 d83d ea18 caba a2ff 12bf e62b 43bd
000001a0: f736 42be ad31 053c bec5 8b3d 31fb e2be
000001b0: a44c e03c 9109 6dbe 02d9 243e 1388 793d
000001c0: 9efd e2bd 109b d6bd 0e0b dd3d a5ac 19bf
000001d0: 549f a3be 2431 77bc bfd0 b1be b050 af3b
000001e0: f9e1 96be c99f 44bd b41c 16be b4d4 d0bd
000001f0: 0887 a43d 73fb a73d 94be b0bc e019 79be
00000200: a401 7e3e 5d6a 67bd 85d3 ab3d 2444 96be
00000210: 0a42 4bbd 44cb f33c e88b ad3c 8f15 58be
00000220: 310f 80be b8a4 f23d bdec 6cbc 597e 48bd
00000230: 9e56 0ebd ff31 b5bd ec73 6b3d d115 3fbe
00000240: 7cb1 553e aa29 d53e fcc8 113e d336 423c
00000250: 038e a13d 7924 5dbe 334a cdbe bc47 ce3d
00000260: a25b 1a3e 6a80 4c3e 857b 77be a1e2 1dbe
00000270: 4aae 36be 9444 1fbe c201 1abd cec4 723e
00000280: ad0c 9e3e 77e5 81bc 8447 1bbf b192 023e
00000290: fef0 b23e 8e47 533d 78f8 ae3b 3692 b2be
000002a0: b342 f83e e661 193d efe3 283e c697 16be
000002b0: 92ce f4b9 e2f3 6cbe 64f2 39be d7cd 58bd
000002c0: 254a 15be d2bf 81bc 6785 c93b 4c04 263d
000002d0: e462 5dbd 5e79 04bf c384 b9be ad71 cd3d
000002e0: 8906 07be f59f 09bf 1db5 e2bd d05b 073d
000002f0: b0e0 33be 6374 9f3d bbef 0c3e 1b9b 34bc
00000300: 47ee 9dbd 32a9 9cbe 6256 883e 0d73 6ebe
00000310: d48c a8be 929f 49be 8638 cfbe e747 003d
00000320: 9237 61be a305 9a3d a0e9 94be 529b b1bd
00000330: e9d1 52be 3465 dfbe 26c4 06be 9c15 9abe
00000340: 3fd4 96bd 22cd 97be f496 bcbd 6591 25be
00000350: 8b14 c63c a212 4b3e 1369 b6bd 2cfe abbe
00000360: ebc7 2ebf fa85 4abe a88b db3e 50bc 39bd
00000370: be25 f1be df57 c2bd 08d9 213c 19a3 36bf
00000380: cf20 033d c10f 19bf 10ea 333d ece7 03be
00000390: 7bea 953e 1fab 1abf af86 eebe 3e05 b6be
000003a0: 4030 7ebd 009b a73c 8b39 35be c632 1c3d
000003b0: cd6a 17bf cc73 84bd b3bf 043d 6987 103e
000003c0: 86a3 a43d eab5 093e 2595 e63d c46a 85be
000003d0: 7d89 2a3d 4473 85bd 17b3 953e 682d d8be
000003e0: 27e3 e7bd 405c 4f3e 7a87 3c3d 2204 1fbe
000003f0: 7d47 b8bd 968d 283e 628b 89be cd74 7d3c
-0.089879744 -0.5451023 -0.09872851 0.31606162 0.3679828 -0.27206603 0.019350167 -0.03373432
-0.18306796 -0.44453406 -0.012612218 0.17549345 -0.077305004 -0.23250434 -0.21265617 -0.07398904
0.2785743 0.08710137 -0.13228047 0.21285456 -0.20082107 0.09296931 -0.45246416 0.16821112
-0.15723895 0.30913448 0.04633048 -0.016823296 -0.024814012 -0.05006491 0.035373457 0.18652374
-0.048831917 0.22177239 -0.22633654 -0.2059477 -0.050911937 -0.20369811 -0.32285666 -0.439612
0.25740024 -0.17891477 0.07023324 0.29357848 -0.069771625 0.10590355 0.014137332 0.19674055
-0.36600572 0.0033916363 0.09548002 -0.00074754015 -0.06295105 0.19688688 0.08325982 -0.05629734
-0.21418546 0.026665566 -0.17664872 -0.2811043 -0.3511179 -0.100894436 0.09130491 -0.31953797
-0.23726037 -0.17620543 0.23620889 -0.44081286 -0.27604115 -0.009691213 -0.078110196 -0.055071905
-0.20952037 -0.04599171 -0.52616733 -0.13198763 -0.12002354 -0.0231762 -0.078958526 -0.0075799874
-0.12650365 0.15493794 -0.40510684 -0.2308806 0.08346758 -0.39327347 -0.045814376 -0.085242376
0.36365032 -0.049055077 0.116080895 0.0803448 -0.02048719 -0.13400553 -0.0019459799 0.18868363
-0.12678583 -0.0073256977 0.051219948 -0.044822287 0.10579054 -0.0015418802 -0.57421315 -0.047649287
-0.1896628 0.008129519 0.06824826 -0.4433227 0.027380295 -0.2314818 0.16098407 0.060920786
-0.1108353 -0.104787946 0.10793124 -0.6002906 -0.31957495 -0.0150874 -0.34729573 0.005350195
-0.29469278 -0.048003945 -0.14659387 -0.1019682 0.08033568 0.08202257 -0.02157525 -0.24326277
0.24805313 -0.05649792 0.083899535 -0.29348862 -0.049623527 0.02976001 0.021184877 -0.21101974
-0.2501159 0.11847824 -0.01446074 -0.04894862 -0.034750573 -0.088474266 0.0574836 -0.18660666
0.20868486 0.4163335 0.14236826 0.011853891 0.07888415 -0.21595944 -0.40095672 0.10072276
0.15074018 0.19970861 -0.24168213 -0.15418483 -0.17839924 -0.15553504 -0.037599333 0.23707888
0.30869046 -0.015856488 -0.60656 0.12751271 0.34949487 0.05158191 0.0053396784 -0.34877175
0.48488387 0.03744688 0.164932 -0.14706334 -0.00046693214 -0.23139909 -0.18158871 -0.05293068
-0.14579065 -0.015838537 0.006149936 0.04053144 -0.054049388 -0.5174769 -0.36234102 0.100314476
-0.13186087 -0.537597 -0.11069701 0.033046544 -0.1756618 0.07785871 0.13763325 -0.011023308
-0.077114634 -0.30597836 0.26628405 -0.23286076 -0.32919943 -0.19689777 -0.4047281 0.03131857
-0.21993855 0.07520606 -0.29084492 -0.08672203 -0.20587887 -0.436319 -0.13160762 -0.30094612
-0.073647015 -0.2964869 -0.092084795 -0.16168745 0.024179718 0.19831327 -0.0890676 -0.33592355
-0.682738 -0.1977767 0.42879987 -0.045345604 -0.47099108 -0.09489416 0.009878404 -0.7134262
0.03201371 -0.59789664 0.04392439 -0.1288144 0.29280457 -0.6041736 -0.4658713 -0.35550874
-0.062057734 0.020459652 -0.17697732 0.03813436 -0.5914734 -0.06467399 0.03240938 0.14114155
0.08039002 0.13448301 0.11258916 -0.26058018 0.041635025 -0.06516126 0.29238197 -0.42222142
-0.11322623 0.20250034 0.046027638 -0.1552892 -0.0899801 0.16460261 -0.26864153 0.015469742

linear2.bias f4 [256]
00000000: c98c a7bd 621b 1cbe 65a7 00be 9043 bbbb
00000010: d84b b8be 506e d13c 84bb 163d 4c1a d5bd
00000020: 05b5 c7bd 373b 94bd 1511 65bc f64f e0bd
00000030: f176 103e 3e37 ae3c b3ad f4bd d356 ff3c
00000040: 3f0b 17be 952b c1bd f589 25bb db1c 1abd
00000050: a7cd 133d 2730 a23d 1769 37bd e759 64bd
00000060: aaf3 57be c1b0 803e dae6 b23d 1ae8 823c
00000070: efba d3bd da3e 0ebe 5a12 af3d e60d 063e
00000080: 1e02 59bd 0885 093d e9e6 dc3d 502f 3dbd
00000090: e044 62bd 3bf6 24be 9220 fbbd 7bd4 813d
000000a0: 3dc5 2d3e ba99 a73d 12ae cdbd cc63 ecbc
000000b0: 22db 083c 564d 8dbd f6b0 b83d d878 0c3d
000000c0: f133 913d a577 9fbe 412f e0bd 8f04 4f3a
000000d0: 5083 1fbe 733b 3cbd 5bf2 583c 8132 26be
000000e0: 2022 4fbe 15f6 44be 5ce9 b1bc 832e 8abd
000000f0: 93f9 03be a299 813e ea13 543d e2db 9dbd
00000100: 5ce0 003c f130 463c 7429 4ebe 2533 0f3e
00000110: cfc8 f53c fc3b 9abd aadd 3f3f e629 4ebb
00000120: 321f 65bd a3f7 733d 4d96 a8bd de1f 4bbe
00000130: ec1b babc 4b9d 2cbe f513 59be 4bdc 583d
00000140: ddfd 973d 5744 bbbe 726e e1bc a9a3 68be
00000150: ecee 22be e545 c1bd f753 793d d60c 5e3c
00000160: 84fe afbc 67e5 c83d 0b3b a4bd 0bab d33d
00000170: 3343 3bbe 77ce a8bd b1ba d03d e0f9 81bd
00000180: c8bb 32be 0042 0d3d db42 4c3e 65a6 f2bd
00000190: a199 a1bc 7667 8e3c 64f8 033e 0772 64bd
000001a0: ffc8 8dbd 2e34 2e3d 9831 62bd fbf7 513f
000001b0: 2ed2 f53b f641 403d bc4b c33d 38bf 053d
000001c0: 0ebb 013e 79e1 e3bd 65d6 f5bc 3106 723d
000001d0: 29c0 aa3d 0064 71bd 0a24 2d3e 5656 b8bc
000001e0: 15c3 67bd b513 013c 8ac3 c5bd a318 8dbb
000001f0: 0c45 3bbd 9e3f 2bbd a404 c93d 003a ddbb
00000200: 7d73 f5bd 7d06 9fbd 3a5d 4ebd 0621 463d
00000210: a041 b4bd 49e3 5e3d 71cc 613c a445 fe3d
00000220: a817 03be 4613 94bc 8dda a53d db27 87bd
00000230: 8a95 9e3d c3fc f6bd 95da ccbd 5378 523f
00000240: 3e5d a7be bc78 62bd 2b11 a8be 3e37 233d
00000250: 135e 2b3f 450f 883d 0520 aa3d 7cf7 06be
00000260: eea3 b6bd 4581 01be 4c74 2ebe 7fca a43d
00000270: 9040 1b3d 7a9c 20be 8617 63be 78d8 f3bd
00000280: 7e0f ea3e 446e 2abe 4e3f 97bd 727a 1fbd
00000290: 059f 4e3d 12e7 50bd 56e9 393c 344d ba3d
000002a0: 4fbf 263e 7345 ff3c 5626 3ebe 4801 4bbe
000002b0: 80b8 e43d 7267 2ebd 4663 5c3f 782c 633c
000002c0: 79a1 48be fc95 1fbd d6cb 013e fc8a a1bd
000002d0: 4c16 be3d 1daa 52be 8492 5f3e 24e5 d7bd
000002e0: e1de a5be 7ea0 31be fd06 be3c fe96 1b3d
000002f0: 336d 05be 8d0a 10bd 3500 47bd 5c2b b1bd
00000300: 481c f0bd 3089 22be bd08 54bc 3af9 03bd
00000310: 1d64 bdbe f7e1 7fba e251 883c cb34 503c
00000320: 8fb8 25bd c087 13bd 3112 19be 881a 1bbe
00000330: 2089 6e3d b35b 82bd 769a ddbd e61e b9bd
00000340: ef49 e63c d8a2 93bd d0e2 1dbe 6482 cebd
00000350: 52c7 863d 172d 143c ef76 9b3d 2129 7e3b
00000360: 3677 983d 9ce3 2cbe 1ea6 50bc 16a1 41be
00000370: 7ad1 cf3c 87f1 08be 9afc c93d 200f af3d
00000380: 604c 273e aeab 8fbd bf05 8fbd 43ad 7a3d
00000390: 67a2 97bd 1583 85bc b7fe 98bd 5068 e5bd
000003a0: 494d 09bd 7efd 9a3d a3af b6bc d1b1 c5bc
000003b0: 4a27 3cbd 41df ce3d d3ac f23d 6c4e 3dbe
000003c0: b0fb b6be 6a6c 4dbe 6516 5abe c750 1e3d
000003d0: 55e1 d2bd de64 47be b3ed b8bd f21b b9bd
000003e0: a66b 0d3c 9689 1e3d 4770 15be 0180 c63d
000003f0: 2ec7 0338 878a 71bd 6125 c4bc e2c0 5dbd
-0.081811495 -0.1524482 -0.12563856 -0.005714841 -0.35995364 0.025565296 0.036799923 -0.10405406
-0.097513236 -0.07237857 -0.013981123 -0.10952751 0.14107873 0.021266576 -0.11947193 0.03116933
-0.14750384 -0.09432141 -0.002525923 -0.037625175 0.036084797 0.079193406 -0.044777956 -0.0557498
-0.21089044 0.25134853 0.08735438 0.015979815 -0.10338389 -0.13891163 0.08548422 0.1309124
-0.052980535 0.033574134 0.1078623 -0.0461877 -0.055241466 -0.16109554 -0.12262072 0.063393556
0.16969772 0.08183618 -0.10042967 -0.02885618 0.008353027 -0.06899516 0.090181276 0.034294933
0.07089985 -0.3114597 -0.10946513 0.00078971026 -0.15577435 -0.045955133 0.013241376 -0.16230203
-0.20227861 -0.19234498 -0.02171772 -0.06747153 -0.12888174 0.25312525 0.051776804 -0.07707955
0.007865991 0.0120966295 -0.20133 0.13984354 0.03000298 -0.07530972 0.7494761 -0.003145808
-0.055937953 0.059562337 -0.082317926 -0.19836375 -0.022718392 -0.16856878 -0.21199019 0.052944463
0.074214675 -0.36575577 -0.027518485 -0.22718681 -0.15911454 -0.094371594 0.06087109 0.013552865
-0.021483667 0.0980938 -0.08019074 0.10335358 -0.18287353 -0.08242505 0.101918586 -0.06346488
-0.17454445 0.03448677 0.19947378 -0.118481435 -0.019726576 0.017383318 0.12887722 -0.055772807
-0.069231026 0.04253023 -0.055223078 0.82019013 0.007501862 0.046937905 0.095359296 0.032653064
0.12669012 -0.1112699 -0.030009458 0.059087936 0.08337433 -0.058933258 0.16908279 -0.022502106
-0.05658253 0.007878234 -0.09656437 -0.0043059154 -0.045720145 -0.041808717 0.09815338 -0.006751299
-0.11984918 -0.077649094 -0.050381877 0.048371337 -0.088015795 0.054415975 0.013781653 0.12415627
-0.12801993 -0.018075597 0.08098326 -0.06599399 0.07743366 -0.12059929 -0.10002629 0.8221485
-0.32688326 -0.055290923 -0.32825598 0.039847605 0.6694042 0.066435374 0.083068885 -0.13180345
-0.08917986 -0.12646969 -0.17036551 0.080464356 0.03790337 -0.15684691 -0.22176942 -0.119065225
0.45714945 -0.16643625 -0.07385121 -0.038935132 0.05044462 -0.051001616 0.0113471355 0.090967566
0.16283916 0.031161046 -0.18569311 -0.19824708 0.11168003 -0.042579122 0.8608898 0.013865583
-0.19592847 -0.038961396 0.12675413 -0.07887837 0.092815965 -0.20572706 0.21833235 -0.10541752
-0.32396606 -0.17346379 0.023196692 0.037985794 -0.13029937 -0.035166312 -0.04858418 -0.08650848
-0.11724144 -0.15872645 -0.0129415365 -0.032220103 -0.36990443 -0.00097611494 0.016640607 0.012707899
-0.040459212 -0.036018133 -0.14948346 -0.1514684 0.05823624 -0.063651465 -0.10820477 -0.090390965
0.028111426 -0.07208794 -0.15418553 -0.10083464 0.06580986 0.009043953 0.07591044 0.003878184
0.07444613 -0.16883701 -0.012734918 -0.18909106 0.02536844 -0.13373385 0.09862633 0.08547807
0.16337729 -0.07015167 -0.06983518 0.06120039 -0.07404023 -0.016297856 -0.07470458 -0.11201537
-0.03352097 0.07567881 -0.022300547 -0.024132641 -0.045935906 0.10101176 0.1184937 -0.18486947
-0.35738897 -0.20060888 -0.21297605 0.038651254 -0.10296885 -0.19472072 -0.090297125 -0.09038533
0.008631622 0.03870543 -0.14593612 0.096923836 3.1418334e-05 -0.05897 -0.023943605 -0.054139026

mean_linear.weight f4 [2, 256]
00000000: 8758 0bbd 01e2 e1be 993d f93e a0b1 983e
00000010: 2775 a73e 1623 3e3e 5fc4 423d f0c7 02be
00000020: 9a48 c83c 0e7c 993e 7799 e8be d917 61be
00000030: 5e5b 7d3e dcdc 64be 3384 f0be 2671 893e
00000040: b188 b1be f3f6 9ebe cdab 903b f5b4 31bf
00000050: 9402 85be bb04 82be 65e6 a3be 855b fb3c
00000060: 28f0 edbe b7c0 503e 439f 873e e394 10be
00000070: 6471 413d 8055 10bf a99f 5bbd de10 0f3e
00000080: 18df f6bd a53a 983e 7f54 f4bb eac0 f6be
00000090: 2c2c d7bd 9386 b8be 0c7c 7ebe 7d9c aa3d
000000a0: b5f9 9abd c452 b93e 2c78 b93e c053 febe
000000b0: 965e 473f 1401 d2be 3991 bc3e e594 1cbf
000000c0: b02a 9dbb f883 33bd 6b1a 483d 9dba 9ebc
000000d0: 307f 1abe 0923 dc3c fa9d ae3e bd58 f8bd
000000e0: d5de a63c a9ec 04be 539a 923e cd8d bcbe
000000f0: 451f b93c 7d88 cc3e 24ed 2cbe 1be0 e53e
00000100: 65fa 5b3f 14db f2bd 2f00 6d3e cc80 043e
00000110: d06b d7bd d302 e13e ce36 8bbd 09e8 d73d
00000120: 822d c7bd fba7 d1bd 4638 233e ea32 c13e
00000130: 1038 6a3d ee8a ae3e f8a9 b6be 6e29 173e
00000140: c1b6 153f abe2 8bbf 01d0 513f 0a5c 143e
00000150: c949 c13c 7cb3 1e3e ad30 343e 8429 b3bc
00000160: e5eb 65bd 6f6f 0bbe 940a 893e b161 243d
00000170: c3b4 333e 7ff9 4d3d 7de6 133d 9815 ee3d
00000180: afe6 db3e 0552 623d 3212 583d 7bcc d0bd
00000190: caeb dbbe ffbe b33d f93a f1be 69e2 983e
000001a0: 4208 acbe 841e 0ebe 202a 13be faec 52bb
000001b0: 1ea2 473e a8ac 1bbe e922 1d3f 8d5f 653e
000001c0: a0f6 213f 3214 6abd 2138 ba3d d6c8 a43d
000001d0: 6440 d33c 271e 27bf ac95 863e b10c a33e
000001e0: f430 b7ba 4ea9 28be 0fd1 e83e 7166 a03e
000001f0: e03d 823d 8086 8abe 4164 9a3d 79c9 b63e
00000200: 7f59 5b3e 17b4 f1bd 94ea bc3e e54d 763e
00000210: 0382 31bf 8602 08bd b896 c63d b07e 293e
00000220: 4682 25bd edeb 4cbe 432f 09be eb6c 47be
00000230: faa4 92be 369f 70bf 8d93 513e aa67 9dbd
00000240: 2543 e03c 6ac1 9abe 30fa 343e 4355 d63e
00000250: c1da a03e 62f2 3d3d d1a8 9a3d 7e9a 41be
00000260: ade0 37be 0d22 763e e402 d3be e9e4 97bc
00000270: 3eac c83e 00df 1a3f d3fb a23e 42de 18bf
00000280: d105 9a3d 03ef 053e 770a 88be 84f9 643e
00000290: bf1a e63e 2b8b 60be cb83 c13d 4fcf c53e
000002a0: 4df4 19bd 222f b03e 5c85 99be 01ce 4a3f
000002b0: 329a 043f 92c3 8c3d bc34 d0bb 8160 7e3f
000002c0: 9806 703e 3c7a 35bf e8af c93d f00f 31bd
000002d0: 0eaa 93bc 4391 f6be 0ae0 ecbe 7682 ccbc
000002e0: 1b59 23be b808 1e3f 425d 98bd fb2e 5a3e
000002f0: a4ff 52bf c2c3 cc3e ce89 96bf f915 d3be
00000300: dbf3 23bf 674a 86be 8309 f9be 866f ca3e
00000310: 553e 04be c0c6 a73e beea 21bf 01e8 053e
00000320: 15d8 823e c727 0fbf 277d 1cbd ef2c ee3e
00000330: 7b33 14bf 44bb dc3c 5da2 7b3e e1b5 e83e
00000340: 7a91 ccbc 6bed 49bf 2573 923e d463 a5be
00000350: 00ec 8ebe 0b1f debe defa 283f 7613 56be
00000360: 98d8 c9be 6592 41bf 8de2 09bf 224b e8be
00000370: 6d0d 9abe 6ec9 01bf 1522 473d 103c 363e
00000380: 3c12 943e 6823 93be aa19 35bc deb1 26be
00000390: 9581 193d d7a5 c4be e00d d3be 0c9a cc3d
000003a0: 84a3 20be 80be da3c dfad 09be 59f4 64be
000003b0: 1c54 6e3e a0d0 c33e 49c4 e8bc 26aa eebe
000003c0: 9d9b e3be 38c5 8a3e 0935 1bbf e933 37bf
000003d0: 0690 7a3e 9f24 3fbe 7c53 e3be 3b2c 25bf
000003e0: c49e dd3e 97fc 023d 325a 74be 6ccf 373e
000003f0: ce94 9d3e a6b8 83bb d8d7 67be 077e e3be
-0.034019973 -0.4411774 0.48679808 0.29823017 0.32706568 0.18568072 0.047550555 -0.12771583
0.024448682 0.2997746 -0.45429584 -0.21981753 0.24741885 -0.22349876 -0.4697586 0.26844138
-0.346746 -0.31047782 0.0044150115 -0.69416744 -0.2597853 -0.25394234 -0.32011715 0.030683288
-0.46472287 0.20386015 0.26488695 -0.14119296 0.04722728 -0.5638046 -0.05361906 0.13971278
-0.120542705 0.29732242 -0.007456362 -0.48194057 -0.10506472 -0.36040172 -0.24852008 0.08330629
-0.07567159 0.36195958 0.36224496 -0.4967327 0.778787 -0.41016448 0.36829546 -0.61164695
-0.0047963485 -0.043827027 0.04885332 -0.019376094 -0.1508758 0.026872175 0.34104902 -0.121263005
0.020369926 -0.12980904 0.28633365 -0.36826935 0.022597918 0.39947882 -0.16887337 0.4489754
0.85928947 -0.11858192 0.23144601 0.12939757 -0.105186105 0.43947467 -0.067975625 0.10542304
-0.09725477 -0.10237118 0.15939435 0.37734157 0.05718237 0.3409037 -0.3567655 0.14761898
0.58481985 -1.0928549 0.81958014 0.14488235 0.023594754 0.15498155 0.17596693 -0.021870382
-0.05613317 -0.13616727 0.26765883 0.04013223 0.17549424 0.050286766 0.036108483 0.116252124
0.42949435 0.055254 0.052751727 -0.101952516 -0.4295333 0.08776664 -0.47115305 0.29860237
-0.3360005 -0.13878828 -0.14371538 -0.0032184706 0.19495437 -0.15202582 0.61381394 0.22399731
0.63266945 -0.057148166 0.09092737 0.08046119 0.02578754 -0.65280384 0.26286066 0.3184562
-0.0013976381 -0.16470835 0.45472 0.31328157 0.06359458 -0.2705574 0.07538653 0.35700586
0.21420859 -0.118019275 0.3689772 0.24053152 -0.6933901 -0.03320553 0.09696716 0.16552234
-0.04040744 -0.20011874 -0.13396935 -0.19475143 -0.28641492 -0.93992937 0.20466442 -0.07685788
0.027375767 -0.30225688 0.17673564 0.41861925 0.31416896 0.046373732 0.075517304 -0.1890659
-0.17956801 0.24036427 -0.41213143 -0.01854177 0.3919391 0.6049652 0.31832752 -0.5971414
0.07520641 0.13079457 -0.26570484 0.22360808 0.4494228 -0.21928088 0.09448966 0.38634726
-0.0375865 0.3441096 -0.29984558 0.79220587 0.51797783 0.068732396 -0.0063539427 0.99366003
0.23440015 -0.7088964 0.098480046 -0.04322809 -0.018025424 -0.481577 -0.46264678 -0.024964552
-0.1595196 0.61732054 -0.074396625 0.21306984 -0.82421327 0.399931 -1.1760805 -0.412277
-0.6404397 -0.2622864 -0.4864007 0.3953821 -0.12914403 0.32768822 -0.63248813 0.13076784
0.25555483 -0.5592007 -0.038205292 0.46518657 -0.5789105 0.026944764 0.24573655 0.45451263
-0.024971712 -0.78877896 0.28603473 -0.32302725 -0.2791443 -0.4338306 0.6600779 -0.20905861
-0.3942306 -0.75614005 -0.53861314 -0.45369822 -0.30088368 -0.5069798 0.048616488 0.1779635
0.28920162 -0.2873795 -0.011053482 -0.16278788 0.037477095 -0.38407776 -0.41221523 0.099903196
-0.15687376 0.026702166 -0.13445233 -0.22358836 0.23274273 0.38245106 -0.028413909 -0.46614188
-0.4445466 0.2710359 -0.606278 -0.71563584 0.24469003 -0.18666314 -0.4439963 -0.64520615
0.4328519 0.03197917 -0.23862532 0.17950219 0.3077759 -0.0040198145 -0.22640932 -0.4443209

mean_linear.bias f4 [2]
00000000: 6747 f73d 183d 203d
0.12074166 0.039120764

log_std_linear.weight f4 [2, 256]
00000000: 290c c13d 5e43 9b3d f57e b1bc 8326 9a3c
00000010: 0b48 033d 21a8 bbbb 1e7c 43bb d46a f23d
00000020: c6be 07bd 4f3c 8e3d c35b 023d 3ab7 44bd
00000030: 4724 be3c 3510 f8bc 59f8 b83d d1a3 9e3d
00000040: 6e33 fc3b 608c 283e e635 9c3b c67c db3e
00000050: ab1f ae3c 2a9b 9abc 2dbf 663d e017 e1bc
00000060: 1990 053f 687d f7bc 32ba c0bd e082 0c3d
00000070: f4e0 f3bc d2a1 1b3d ce53 723d 966a be3c
00000080: 3c11 253b 8d67 123e eff4 f13d b10a d93d
00000090: 87d9 b9bc d48a 7c3e d234 3c3d 8255 463a
000000a0: b2a0 123c a87c 0abd 3b1a a63e 1e8e b2bd
000000b0: bddf 8e3e bec1 313d 94ba bc3c 3fa9 883e
000000c0: 6622 063d 6c48 0cbd 5a9f 42bd 4a1f 7bbc
000000d0: 2ca7 e6bb c505 303c 8d5b 04bb 22f5 4a3a
000000e0: 6f90 e73c 3331 b6bb 608b fb3c 8837 89bc
000000f0: 3400 9bbd c0a9 823d a06c f5bd 16a9 b33e
00000100: f02c 803d 5375 f5bc c0d8 ddbc 2c49 7b3d
00000110: 544d 00be 7a92 0f3e e5c6 89be 6be6 bf3b
00000120: 2827 013e 581b 36be bc42 9d3d d22a 8abd
00000130: 1ca7 c43c ca90 ac3d d530 223e 2f9e 0cbc
00000140: a1e0 343e beaa 7b3e c697 203e 18ac 273d
00000150: 9ebd c8bd 1056 bebc b188 57bd 84a0 143c
00000160: 26a9 033e 1423 ee3c b0b2 c93d 90b4 63bd
00000170: 1ac3 4f3d 35c6 45bd 512d b4bc bb8d cc3c
00000180: 36c1 0e3d 73a6 2a3b 050e 2d3c 5e5f 79bd
00000190: 8fdf 653e 2c6b 56bc 06ca 023e 1966 4a3c
000001a0: 8dae 283c 1dfb 22bd 3439 dbbc 2749 bbbe
000001b0: 6e0d 4bbe 5c83 323d 3971 833d 8811 77bd
000001c0: e227 003e e932 f63c 3825 3d3c bbd0 f1bd
000001d0: f01b f13c e483 e23e 8d91 7e3d 5d3d 043d
000001e0: 8ef8 dc3a 7a87 00bd 9ea2 df3a e8d0 803d
000001f0: acd4 823c bbd1 febd 158a 743b eded 86bc
00000200: a5f3 3fbb bf79 a23d 78b1 c6bc 2a2a a63c
00000210: e716 a53e a49b e3bc 225e bbbc c4bf 733d
00000220: b690 043d f899 fdbc 6718 86bd aa36 c8bc
00000230: d2c9 963c 4768 a83e 7a06 2c3d 83ba 95be
00000240: 621b 38bc e680 0d3d da87 873c dade c43d
00000250: e572 f83d 536d 443c a979 64bc 662a 3d3d
00000260: a549 babd 5a73 2fbc fce7 da3d aa3a 5cbc
00000270: 3b20 863e 319d ac3e 9487 953c 5b03 983d
00000280: 4bdf 1dbc 1664 c03b 77a7 3bbd 24e2 d73b
00000290: 6717 7e3e 5f62 b4bd d9c9 293d df02 203c
000002a0: ccb5 19be 8f8b 363d 2e1f 9f3d f1c5 753e
000002b0: 135e 2c3e 7c1b 89bd ca67 b4be ad2c 403f
000002c0: 421c 58bc 4993 303f 75f9 1dbd 05d1 773d
000002d0: 3554 3c3d 5e93 603e 4717 a43e 153e 1dbe
000002e0: e3c0 dabb f65f 343d 63db 14bd 4fcc a23d
000002f0: b1ae 1b3e 6021 203e f64e c63e f598 273e
00000300: d698 b53e 6541 f33d 2e97 13ba 04a0 e13d
00000310: 2c6d 9bbc 063e 8b3d d7c4 a53d 7542 1d3c
00000320: 60ad 9a3c 02b9 1b3e a265 2cbd 77ba 1e3e
00000330: e3c6 5d3e eb99 573d 4ca7 a33d c2ef 1c3d
00000340: 9b47 033e 1a59 dd3e 97cf a93c d026 2d3d
00000350: 4268 003d ef62 9abd 88b3 983e ba8a 04bd
00000360: 8a18 77bd 8bd8 3d3f 1a16 3e3e 0075 b3bc
00000370: 404a 0bbc 15ab 153d 7d2e 1abd 5644 453d
00000380: 073f eb3d d347 bcbc b1de 853c 0d8e 693b
00000390: 1a49 3d3e c126 1cbd 4a91 71bd df8c fc3b
000003a0: 9c92 afbc d15c 29bd 02cc 173d 7703 453d
000003b0: 179b 86bc 5c83 273b a292 cdbd d213 983e
000003c0: 25cb e03b 7c04 193e 326c 9a3e e1be 933e
000003d0: 7c50 cebc e4e1 f0bb 9fe9 a73e 98e7 143f
000003e0: b2cb ad3d b498 923a 7d5a f2bb a334 833d
000003f0: 8f28 96bc 47ea 81bd 0c9c 893e 0b90 24bd
0.094261475 0.07581209 -0.021666983 0.018817192 0.032051127 -0.0057268296 -0.0029828618 0.11836782
-0.03314092 0.06945097 0.031825792 -0.0480263 0.023210658 -0.030281166 0.090317436 0.07746089
0.0076965606 0.16459799 0.0047671674 0.42868632 0.021255335 -0.018872816 0.056334663 -0.027477205
0.52173 -0.030211166 -0.09410514 0.0343045 -0.029770352 0.03799612 0.059161954 0.023244184
0.0025187274 0.14297314 0.118142955 0.10597742 -0.022686733 0.24662334 0.04594881 0.0007565842
0.008949446 -0.033810288 0.32441887 -0.08718513 0.27905074 0.043397658 0.023038186 0.26691625
0.03274765 -0.034248754 -0.04751525 -0.015327284 -0.0070389714 0.010743563 -0.002019617 0.0007742216
0.028267113 -0.005560064 0.030706108 -0.016750112 -0.07568398 0.063800335 -0.11983609 0.3508994
0.06258571 -0.029963171 -0.027080894 0.06134908 -0.12529498 0.1402072 -0.26909557 0.0058563254
0.12612593 -0.17783868 0.07678744 -0.067464486 0.024005465 0.08426054 0.1583894 -0.008582636
0.17663814 0.24576852 0.15682897 0.040935606 -0.098017916 -0.023234397 -0.052620593 0.009071473
0.12857494 0.02906946 0.09848535 -0.05559212 0.050723173 -0.048284728 -0.021994265 0.024969926
0.03485223 0.0026039153 0.010562425 -0.060881965 0.22448562 -0.013087075 0.12772378 0.012353444
0.010295522 -0.03979026 -0.026760675 -0.36579248 -0.19829342 0.043582305 0.0641808 -0.060319453
0.12515214 0.030053573 0.011544518 -0.1180739 0.029432267 0.4424125 0.062150527 0.032285083
0.0016858743 -0.0313792 0.0017062014 0.06289846 0.01597055 -0.12442347 0.0037313749 -0.016470874
-0.002928951 0.079333775 -0.024254546 0.020283777 0.32244036 -0.027784176 -0.022872034 0.059509054
0.03236457 -0.030957207 -0.06547623 -0.024440128 0.018406782 0.32892057 0.041998364 -0.2924386
-0.011236997 0.034546755 0.016544271 0.09612818 0.121312894 0.011988956 -0.013945022 0.046183012
-0.09096078 -0.010708654 0.10688779 -0.013441721 0.26196465 0.33713678 0.018253125 0.07422515
-0.009635757 0.005871306 -0.045814004 0.0065882374 0.24813615 -0.08807825 0.041452263 0.0097663095
-0.15010756 0.044566687 0.07769619 0.2400129 0.16832761 -0.06694695 -0.35235435 0.7506817
-0.013190331 0.6897474 -0.03856798 0.06050207 0.045978744 0.21931216 0.3204901 -0.15355714
-0.006675826 0.044036828 -0.036342036 0.07949125 0.15203358 0.15637732 0.38732117 0.16366942
0.35468167 0.118777074 -0.00056301325 0.11016849 -0.018972956 0.067989394 0.08094185 0.009598364
0.0188815 0.15207294 -0.042089112 0.15500818 0.216579 0.052637022 0.07990894 0.03831459
0.12820284 0.43232042 0.02072887 0.042273343 0.031349428 -0.07538401 0.2982447 -0.032358862
-0.060326137 0.74158543 0.18563119 -0.021906376 -0.008501589 0.03654011 -0.03764199 0.048160873
0.11486631 -0.022983467 0.01634154 0.0035637647 0.18484917 -0.038122896 -0.05897645 0.007707223
-0.021432213 -0.041348282 0.03705979 0.048099007 -0.016431374 0.0025560474 -0.100377336 0.29702622
0.006860154 0.14943117 0.3016067 0.28856567 -0.025184862 -0.007351147 0.32795426 0.58165884
0.084861174 0.0011184425 -0.007396041 0.06406524 -0.018329887 -0.06343513 0.26876867 -0.040176433

log_std_linear.bias f4 [2]
00000000: 844d 9bbf d209 a7bf
-1.2133031 -1.3049872
