hydrone_aerial_underwater_ddpg/scripts/Models/sac_stage_2_air2D_tanh_3layers/1620_policy_net.pth (torch_old, 294160 bytes, 8 tensors)

linear1.weight f4 [256, 24]
-0.37020034 -0.256569 0.042454187 -0.15666956 -0.28960964 -0.07313021 0.3072754 0.23591141
0.079823256 -0.06449023 -0.06470956 0.0053743008 0.10847369 0.21436039 0.104051426 0.0209245
0.011196054 -0.0073365937 -0.016694313 0.20896642 0.43379858 0.3720389 0.45995948 0.80985534
0.005945782 -0.10948353 -0.1610217 -0.15988177 -0.16150758 0.015232085 0.09537914 -0.11492069
-0.057977308 -0.07586 0.030716619 0.05898305 0.10594597 0.006870755 -0.09225252 -0.057091918
0.03375483 -0.056838654 -0.07828706 0.06244089 0.12788647 -0.08988833 -0.01794833 -0.09923269
0.03372925 0.1050406 0.047559492 0.023628889 0.38015106 0.30554962 0.01131089 0.015542201
-0.082157806 -0.17397691 -0.13971993 -0.2849706 -0.015948284 0.06946076 -0.15034482 -0.24204627
-0.2711585 -0.47778192 -0.13245445 0.12660524 -0.19856787 1.0512933 0.91013765 -0.56710654
0.0029424015 0.019839564 -0.0033243361 0.0014743372 -0.0565811 0.022373866 -0.12289702 -0.00841589
-0.016221771 0.004604134 0.044151995 0.074520156 -0.065240696 0.05172891 -0.15101844 -0.031656396
-0.12936172 -0.07567449 -0.15908547 -0.13169552 -0.087127425 0.019312402 -0.0895467 -0.10327105
-0.042949904 -0.024720283 0.03542789 0.057201754 0.0354638 0.10792277 0.116555616 0.0032150256
-0.12318094 -0.045866594 0.20765251 0.12376512 -0.04969315 -0.24243897 0.09298705 0.05593554
-0.13332464 0.13028336 0.07605703 -0.15295725 -0.26970553 0.22931002 -2.7827969 -0.46500677
-0.12865475 0.05422451 -0.02089061 -0.07321353 0.06517164 0.095453575 -0.14397377 -0.030397816
-0.124694586 -0.044798616 0.055976663 -0.1490729 0.034767047 -0.18115602 -0.09172894 -0.06485387
-0.08667598 -0.08675013 -0.06962918 0.03265768 0.03912362 0.08621868 0.024070159 -0.032559983
-0.037205357 -0.022699384 -0.10111076 0.11063067 0.05075917 0.04218529 -0.19914047 -0.41776928
-0.19367453 -0.2623934 -0.3092229 -0.25560522 0.17697273 0.020476367 -0.1756388 0.06840057
0.0703245 0.009299361 0.018947473 0.042038612 0.34616685 -1.106443 0.5322237 -1.1761134
0.08556799 0.20110062 0.11525868 0.17176798 0.15037283 -0.103048086 -0.30405676 -0.46179053
-0.48924333 -0.5860394 -0.5684447 -0.25207257 0.014640606 0.17939943 0.2632396 0.14955124
-0.02972344 0.15136354 -0.041823167 0.19273165 0.23911299 -0.059156686 -0.28678414 1.1245009
0.39846256 0.12511061 0.13868858 0.14591418 -0.07929261 0.020558938 -0.21448693 -0.024587967
-0.18490283 -0.3438686 -0.5155191 -0.63173586 -0.49198282 -0.34071574 -0.12479006 -0.014660845
0.14948735 0.091898106 0.2649074 -0.122213624 0.27960932 0.39560217 -1.0985547 0.23370948
-0.009214031 -0.048797034 0.047964968 0.03051611 -0.038020577 0.03453471 -0.0800126 -0.09956602
0.0071036965 -0.10883408 0.0745932 -0.1463353 -0.02515192 0.14107892 -0.087335944 0.088124946
-0.13593175 -0.111060426 0.016752861 -0.0027979515 -0.19398037 -0.3245049 -0.2318589 -1.6509304
-0.0016829695 0.055353485 -0.036392808 -0.19907404 -0.20879692 -0.21264239 -0.06320685 -0.44618618
-0.09995105 0.07768988 0.22754948 0.09986938 -0.12159706 -0.0713943 0.4569765 0.21931049
00000000: e68a bdbe 035d 83be 71e4 2d3d fc6d 20be
00000010: b747 94be 4bc5 95bd 3453 9d3e c392 713e
00000020: 607a a33d 7413 84bd 7286 84bd e71a b03b
00000030: 7427 de3d 4a81 5b3e ea18 d53d db69 ab3c
00000040: a76f 373c cf67 f0bb 83c2 88bc 4bfb 553e
00000050: d91a de3e e27b be3e cf7f eb3e ae52 4f3f
00000060: d6d4 c23b e738 e0bd dfe2 24be 0cb8 23be
00000070: 3e62 25be ff8f 793c 2356 c33d 8a5b ebbd
00000080: 9d79 6dbd 7d5c 9bbd 6ba1 fb3c 3698 713d
00000090: 33fa d83d 1224 e13b e4ee bcbd 37d9 69bd
000000a0: 8142 0a3d a6cf 68bd f754 a0bd 05c2 7f3d
000000b0: acf4 023e 5f17 b8bd 6008 93bc 823a cbbd
000000c0: af27 0a3d 871f d73d becd 423d 5f91 c13c
000000d0: 29a3 c23e 0071 9c3e 5051 393c b7a4 7e3c
000000e0: 5a42 a8bd 0127 32be be12 0fbe abe7 91be
000000f0: faa5 82bc 7141 8e3d fef3 19be fada 77be
00000100: 49d5 8abe d59f f4be 24a2 07be cea4 013e
00000110: 6055 4bbe c790 863f c8fe 683f e52d 11bf
00000120: 4ed5 403b 9586 a23c 1bdd 59bb 8c3e c13a
00000130: 95c1 67bd 6649 b73c 6fb1 fbbd cde2 09bc
00000140: 85e3 84bc 46de 963b b9d8 343d 069e 983d
00000150: ea9c 85bd b2e1 533d 94a4 1abe 23aa 01bd
00000160: 6677 04be 3afb 9abd 4de7 22be 31db 06be
00000170: dd6f b2bd 0b35 9e3c 4364 b7bd c67f d3bd
00000180: 3dec 2fbd 3182 cabc d61c 113d 634c 6a3d
00000190: 7d42 113d 9d06 dd3d b6b4 ee3d 2eb3 523b
000001a0: 4a46 fcbd 9cde 3bbd dca2 543e 9178 fd3d
000001b0: 0b8b 4bbd ec41 78be ff6f be3d aa1c 653d
000001c0: 4186 08be 0069 053e cac3 9b3d d3a0 1cbe
000001d0: d816 8abe 3fd0 6a3e 5819 32c0 5e15 eebe
000001e0: 12be 03be 851a 5e3d c922 abbc faf0 95bd
000001f0: b578 853d 2a7d c33d dc6d 13be d704 f9bc
00000200: e05f ffbd c17e 37bd c947 653d 91a6 18be
00000210: e467 0e3d f780 39be 62dc bbbd 1bd2 84bd
00000220: 2d83 b1bd 0daa b1bd be99 8ebd 0fc4 053d
00000230: 1740 203d 6b93 b03d c82e c53c 9e5d 05bd
00000240: a564 18bd 0ff4 b9bc 2813 cfbd 5592 e23d
00000250: d9e8 4f3d 7cca 2c3d 7beb 4bbe dbe5 d5be
00000260: 9e52 46be 6d58 86be 7752 9ebe b0de 82be
00000270: 5738 353e 0ebe a73c a8da 33be 9915 8c3d
00000280: 4b06 903d 595c 183c bb37 9b3c ae30 2c3d
00000290: c83c b13e ed9f 8dbf d03f 083f e28a 96bf
000002a0: 453e af3d 52ed 4d3e be0c ec3d f2e3 2f3e
000002b0: 56fb 193e e00a d3bd 54ad 9bbe cf6f ecbe
000002c0: 1a7e fabe ae06 16bf 9885 11bf a80f 81be
000002d0: 27df 6f3c 7cb4 373e 57c7 863e f623 193e
000002e0: 927e f3bc 0bff 1a3e c54e 2bbd 725b 453e
000002f0: 09da 743e 484e 72bd 5fd5 92be a5ef 8f3f
00000300: 4903 cc3e ff1c 003e 6104 0e3e 876a 153e
00000310: 2a64 a2bd 386b a83c 76a2 5bbe b46c c9bc
00000320: 2b57 3dbe 8c0f b0be 0ff9 03bf 71b9 21bf
00000330: 2ce5 fbbe 4b72 aebe ee91 ffbd 0a34 70bc
00000340: 3613 193e 1335 bc3d f1a1 873e 234b fabd
00000350: f428 8f3e 5e8c ca3e 719d 8cbf 8a51 6f3e
00000360: 72f6 16bc 66df 47bd ea76 443d ecfc f93c
00000370: 77bb 1bbd 4574 0d3d a5dd a3bd 45e9 cbbd
00000380: 20c6 e83b 67e4 debd 52c4 983d ecd8 15be
00000390: 660b cebc fe76 103e 30dd b2bd da7a b43d
000003a0: b131 0bbe a673 e3bd 4c3d 893c d65d 37bb
000003b0: caa2 46be 8225 a6be 6b6c 6dbe b051 d3bf
000003c0: 1697 dcba 56ba 623d a010 15bd 11da 4bbe
000003d0: dcce 55be edbe 59be 9872 81bd 8472 e4be
000003e0: 23b3 ccbd df1b 9f3d bb02 693e 5188 cc3d
000003f0: e107 f9bd 2d37 92bd d3f8 e93e ee92 603e

linear1.bias f4 [256]
-0.14976364 -0.018778479 0.045427598 -0.022172907 -0.03722286 -0.04119385 -0.091227315 0.13503017
0.12395539 -0.012716208 0.01973167 -0.045619085 -0.050010405 -0.015404828 0.10123109 -0.052908503
-0.028124062 -0.09548022 -0.0053358977 0.23169775 -0.042648666 -0.028188309 0.0 -0.009506491
0.047611743 0.1817141 -0.06339273 -0.021870147 0.02113253 -0.15282391 0.02982413 -0.0043425597
0.07270299 -0.01652625 0.033526596 -0.08542588 0.08445723 -0.0062136957 -0.039794374 0.007555109
-0.05348779 -0.15260252 0.13940082 -0.071737304 -0.012718812 -0.014098346 -0.08448009 0.14769727
-0.04952602 -0.010919145 0.006981845 -0.02831761 0.042403895 -0.00986478 -0.12699345 0.08966162
-0.02425753 0.03404712 0.020604843 -0.08773232 0.031225193 -0.0633882 0.15389717 -0.1717446
0.006631601 -0.028490342 0.026290532 -0.09079176 -0.015018003 -0.112284355 0.011778042 0.0
-0.08742128 -0.022395967 -0.05245665 -0.009622605 0.093318224 -0.045267567 0.016151367 -0.024591066
0.010205683 -0.0491519 0.0 -0.013407106 0.00063038437 -0.01773746 0.03855844 -0.019015146
0.057525013 0.07511256 -0.01400671 -0.14892124 -0.0061163637 -0.06969777 -0.009427705 -0.043597367
-0.019392801 -0.031084882 -0.054651387 -0.15110274 -0.013795326 0.030572586 -0.010830444 0.029474435
-0.05674949 0.0670413 0.029373748 -0.051550053 -0.030620966 -0.020777298 0.062512405 -0.016660491
-0.108747564 0.06730224 -0.055530727 0.08992335 -0.01671376 -0.13184923 -0.11224442 0.028565433
0.18199807 -0.035257533 -0.082279526 -0.026961891 0.034832172 -0.11098791 -0.02700074 -0.050138824
0.0 0.07535379 0.13011241 -0.009467941 -0.028469026 0.0 -0.019783664 0.004419412
0.053220883 0.06651075 -0.020396598 0.1277414 0.053371623 -0.12423225 0.107968844 0.04284191
0.0 0.0 0.030391358 -0.040485535 0.020374332 0.06148268 -0.066861935 0.010345995
-0.0880611 0.0029279178 0.014539465 0.064279996 0.1319621 -0.18600553 0.16162056 -0.08054352
-0.12828021 -0.01423619 0.041549034 -0.19740453 -0.013630915 -0.122378975 -0.017616527 -0.02470907
0.012342373 0.11411117 -0.10013598 0.017354114 -0.025829442 -0.0069666393 -0.0031789888 0.00749445
0.0 0.1893493 0.054238528 0.010126837 -0.011026091 -0.017060295 -0.054922912 0.0774674
0.09856431 -0.04060303 0.13701802 0.0 -0.07465282 0.019909421 -0.0785888 0.012878065
-0.029799845 0.035920788 0.075726874 -0.020922668 -0.033562005 -0.0499472 -0.0416177 0.078729
-0.09184841 -0.12735529 0.0674997 -0.07868601 -0.04789654 -0.13774505 0.06637277 0.010836116
0.010934752 -0.10224868 -0.024243992 -0.027926896 -0.100850746 0.029724067 0.026054293 0.016780531
-0.05566936 0.0019365796 0.041465268 -0.004058361 0.051048227 -0.059179157 0.039580062 0.13232306
-0.017015332 0.05955853 -0.034836326 -0.019465405 -0.022116534 -0.013686198 -0.07556825 -0.043201413
0.02366139 -0.029640594 -0.060250018 -0.09678123 -0.028115511 0.0046399 -0.045222364 -0.12314142
-0.019341717 0.06661983 -0.051738802 -0.02188757 -0.012511485 0.037912898 0.1002533 -0.025747074
-0.020216579 0.069458246 -0.008366595 0.085094094 0.08637503 -0.040339533 -0.1279895 0.064913385
00000000: a45b 19be 53d5 99bc 4a12 3a3d f5a3 b5bc
00000010: ff76 18bd e2ba 28bd 63d5 babd 5945 0a3e
00000020: 53dc fd3d a457 50bc 50a4 a13c 14db 3abd
00000030: b6d7 4cbd 8864 7cbc 3f52 cf3d 96b6 58bd
00000040: 6f64 e6bc 228b c3bd c1d8 aebb 2d42 6d3e
00000050: 5eb0 2ebd 2beb e6bc 0000 0000 1dc1 1bbc
00000060: 8804 433d 4313 3a3e 0cd4 81bd 0629 b3bc
00000070: 211e ad3c df7d 1cbe bc51 f43c 084c 8ebb
00000080: 4ee5 943d 0f62 87bc 2f53 093d c4f3 aebd
00000090: eaf7 ac3d 429c cbbb 6dff 22bd d990 f73b
000000a0: 0316 5bbd d643 1cbe 17bf 0e3e 02eb 92bd
000000b0: 9062 50bc c0fc 66bc e603 adbd f43d 173e
000000c0: ccdb 4abd 37e6 32bc f6c7 e43b 55fa e7bc
000000d0: b5af 2d3d e39f 21bc 920a 02be 83a0 b73d
000000e0: bab7 c6bc fe74 0b3d 7dcb a83c 01ad b3bd
000000f0: facb ff3c acd1 81bd 3897 1d3e d1dd 2fbe
00000100: e74d d93b 9464 e9bc 3e5f d73c 08f1 b9bd
00000110: 120e 76bc 57f5 e5bd b0f8 403c 0000 0000
00000120: ee09 b3bd bf77 b7bc c9dc 56bd 21a8 1dbc
00000130: a01d bf3d 7c6a 39bd df4f 843c 3473 c9bc
00000140: bd35 273c 8153 49bd 0000 0000 7aa9 5bbc
00000150: 6140 253a 264e 91bc 74ef 1d3d a7c5 9bbc
00000160: 599f 6b3d 9dd4 993d 667c 65bc cf7e 18be
00000170: c76b c8bb b4bd 8ebd a976 1abc 2793 32bd
00000180: a7dd 9ebc b9a5 febc 22da 5fbd adba 1abe
00000190: cb05 62bc 5c73 fa3c 2d72 31bc 5f74 f13c
000001a0: 2772 68bd f34c 893d 37a1 f03c 2626 53bd
000001b0: d2d8 fabc 2735 aabc 8106 803d 957b 88bc
000001c0: 0bb7 debd c2d5 893d 3074 63bd bc29 b83d
000001d0: 4ceb 88bc 7c03 07be 67e0 e5bd 0e02 ea3c
000001e0: b45d 3a3e 346a 10bd 2b82 a8bd 2fdf dcbc
000001f0: 2eac 0e3d a14d e3bd a830 ddbc 5e5e 4dbd
00000200: 0000 0000 1653 9a3d 303c 053e 6c1f 1bbc
00000210: e037 e9bc 0000 0000 5a11 a2bc b7d0 903b
00000220: 24fe 593d ca36 883d c416 a7bc a4ce 023e
00000230: 349c 5a3d 7a6d febd c51e dd3d 007b 2f3d
00000240: 0000 0000 0000 0000 4cf7 f83c 29d4 25bd
00000250: 12e8 a63c 43d5 7b3d e9ee 88bd 4082 293c
00000260: 6159 b4bd 4fe2 3f3b f036 6e3c 3ba5 833d
00000270: 1321 073e 3c78 3ebe dc7f 253e 00f4 a4bd
00000280: e35b 03be e93e 69bc 522f 2a3d 6a24 4abe
00000290: 3454 5fbc d4a1 fabd 8950 90bc ad6a cabc
000002a0: aa37 4a3c 1eb3 e93d 1814 cdbd 372a 8e3c
000002b0: 4498 d3bc 6848 e4bb 9556 50bb 0194 f53b
000002c0: 0000 0000 c8e4 413e 3829 5e3d 08eb 253c
000002d0: c7a6 34bc 08c2 8bbc d9f6 60bd 3aa7 9e3d
000002e0: 16dc c93d 5d4f 26bd 744e 0c3e 0000 0000
000002f0: 94e3 98bd 1519 a33c 2af3 a0bd 85fe 523c
00000300: ce1e f4bc ad21 133d b116 9b3d 0466 abbc
00000310: 5078 09bd 6f95 4cbd 5277 2abd ac3c a13d
00000320: 051b bcbd 6d69 02be 483d 8a3d 2126 a1bd
00000330: 2a2f 44bd 0a0d 0dbe 72ee 873d f789 313c
00000340: ad27 333c c267 d1bd 569b c6bc f2c6 e4bc
00000350: d68a cebd e37f f33c d06f d53c 5377 893c
00000360: 8e05 64bd d4d4 fd3a 7cd7 293d 00fc 84bb
00000370: f217 513d d865 72bd b41e 223d b27f 073e
00000380: bd63 8bbc a5f3 733d 89b0 0ebd ea75 9fbc
00000390: bc2d b5bc 133c 60bc 87c3 9abd f7f3 30bd
000003a0: 88d5 c13c d5d0 f2bc b9c8 76bd 3d35 c6bd
000003b0: 8052 e6bc 4d0a 983b 163b 39bd 9231 fcbd
000003c0: 8572 9ebc fa6f 883d 11ec 53bd 904d b3bc
000003d0: f9fc 4cbc 8e4a 1b3d 9a51 cd3d 87eb d2bc
000003e0: 3d9d a5bc 2040 8e3d 0b14 09bc d045 ae3d
000003f0: 64e5 b03d 113b 25bd ae0f 03be 4ff1 843d

linear2.weight f4 [256, 256]
-0.3930239 0.0051456764 -0.19806565 0.013859689 -0.22014152 0.04824232 -0.10731658 0.16704118
0.12669021 -0.004396598 0.20422861 0.07502685 0.23925029 -0.058634177 -0.055499084 -0.051053625
-0.085205294 -0.043770675 -0.75782734 -0.069486834 0.004666559 -0.05552517 -0.0077999234 0.041737042
-0.30681035 -0.020371571 -0.012214005 0.051440544 0.31746796 -0.10982719 -0.08325209 0.5210365
-0.35730428 0.055589505 -0.03550757 -0.5101909 -0.14311351 0.019141324 0.21568455 -0.30930272
0.25464457 -0.6548898 0.27157164 0.06966194 -0.29427636 -0.35903615 -0.357042 0.1898172
-0.70203114 -0.095081985 0.0894414 -0.33888793 -0.14951603 -0.022353685 0.14005513 -0.5055211
0.24436235 -0.277906 -0.14513157 0.1320511 0.23616783 -0.0748574 0.16714637 -0.09828398
-0.3896488 0.003384523 0.064088255 -0.6372733 -0.045313805 -0.31213287 0.17351373 -0.031382307
-0.15986882 0.25703317 -0.5117281 -0.22311573 -0.09228545 0.18071246 -0.11590816 0.05092191
0.06969118 -0.1838328 -0.10492131 -0.0669064 -0.09204237 -0.17795916 0.034862794 0.10472261
-0.1826552 -0.7458743 -0.060233295 0.12997952 0.22544767 -0.6178371 -0.035552308 0.12717512
0.40700778 0.03303262 -0.15401234 -0.1697623 0.58578384 -0.029853608 -0.43408525 0.11177225
-0.21268389 -0.5189296 -0.028746812 0.049646076 0.5994734 -0.27572793 -0.051540095 0.09424018
-0.051640715 -0.03439728 -0.16718152 0.08335431 -0.040385168 -0.23050645 -0.29762492 0.21290416
0.0952683 0.25156116 -0.009943215 0.03624495 -0.54719186 0.29868737 -0.025337443 0.3348594
-0.08037898 -0.049699377 0.03826795 0.02486118 0.019100122 0.051231764 0.045936566 0.051411483
-0.14269325 0.5388476 -0.09926887 0.14414954 0.0072601438 -0.0950203 0.038303386 -0.00369595
-0.011344947 -0.08686413 -0.18874483 0.15838665 -0.16891058 -0.4809034 0.07936452 -0.06931569
0.21513395 -0.0045956317 -0.29659215 -0.06326132 0.10557113 -0.30008632 0.32720387 -0.41395852
0.045461677 0.1537918 -0.28197777 -0.60343057 0.3719122 -0.16980626 -0.40266395 -0.07004009
-0.2570824 0.2806649 0.067559294 -0.25476533 -0.112177275 0.026178477 0.12015248 0.15090965
-0.0802077 0.12600735 -0.89208007 0.447113 -0.20173731 0.13465242 -0.13162273 -0.31821635
0.23706678 0.03649163 -0.27381223 0.106556185 -0.046618395 -0.23267299 -0.33706567 -0.705478
0.049239922 -0.32870275 -0.090263635 0.22477731 -0.8481407 -0.008950336 0.004679063 0.4159791
0.09964002 -0.027890379 -0.08588591 -0.07469181 0.22893292 -0.16405319 -0.29657602 -0.6650791
-0.10466867 -0.20497029 -0.26372677 -0.6691046 -0.1390548 0.06296112 -0.53802335 -0.4016718
-0.059643626 -0.2722051 0.034685742 0.023014547 -0.26329085 -0.1019666 -0.16381714 -0.28210855
0.010569304 -0.346374 -0.48879483 -0.18795545 -0.09287234 0.0501902 -0.2865017 -0.27154437
-0.5179934 -0.11589751 -0.14607936 -0.17652519 -0.5079392 -0.04369811 0.37415785 -0.7100007
-0.01777304 -0.11080711 -0.6009887 0.017517844 -0.025463827 -0.4425446 -0.76677746 0.14686671
-0.100763716 -0.11642968 -0.3134483 -0.30443558 -0.4340835 -0.12870261 -0.044714794 -0.3080209
00000000: 6e3a c9be 109d a83b b9d1 4abe c013 633c
00000010: c76c 61be bd99 453d ccc8 dbbd d80c 2b3e
00000020: 14bb 013e 5611 90bb 4e21 513e ada7 993d
00000030: 07fe 743e 642a 70bd 0253 63bd 9b1d 51bd
00000040: 1d80 aebd e148 33bd f900 42bf 1d4f 8ebd
00000050: efe9 983b 5c6e 63bd 8096 ffbb 76f4 2a3d
00000060: 3f16 9dbe 48e2 a6bc 401d 48bc 52b3 523d
00000070: 298b a23e 14ed e0bd 1280 aabd a662 053f
00000080: 96f0 b6be d2b1 633d 6370 11bd df9b 02bf
00000090: 598c 12be 44ce 9c3c 69dc 5c3e ed5c 9ebe
000000a0: c660 823e dca6 27bf 700b 8b3e ebaa 8e3d
000000b0: 64ab 96be 96d3 b7be 36ce b6be 715f 423e
000000c0: 50b8 33bf 58ba c2bd 0d2d b73d b882 adbe
000000d0: bb1a 19be 131f b7bc 9d6a 0f3e d569 01bf
000000e0: 203a 7a3e b249 8ebe 5f9d 14be 6738 073e
000000f0: fbd5 713e d64e 99bd 6b28 2b3e 1c49 c9bd
00000100: 0c80 c7be e0ce 5d3b b440 833d 5824 23bf
00000110: f89a 39bd e1cf 9fbe 95ad 313e bc8a 00bd
00000120: a7b4 23be da99 833e 9d00 03bf 7378 64be
00000130: 2700 bdbd b00c 393e 4261 edbd 7e93 503d
00000140: 40ba 8e3d aa3e 3cbe fce0 d6bd 3906 89bd
00000150: b680 bcbd ed3a 36be 4acc 0e3d cf78 d63d
00000160: f709 3bbe 9ef1 3ebf 30b7 76bd 5a19 053e
00000170: c1db 663e 922a 1ebf 4c9f 11bd 323a 023e
00000180: 5363 d03e 364d 073d 69b5 1dbe 2bd6 2dbe
00000190: eef5 153f 8e8f f4bc 6c40 debe d9e8 e43d
000001a0: cec9 59be 92d8 04bf 6f7e ebbc af59 4b3d
000001b0: 1777 193f 362c 8dbe b51b 53bd ff00 c13d
000001c0: 3785 53bd 2ae4 0cbd a231 2bbe aab5 aa3d
000001d0: eb6a 25bd e209 6cbe 4b62 98be 8c03 5a3e
000001e0: 071c c33d a0cc 803e dee8 22bc 9675 143d
000001f0: c414 0cbf 8ded 983e 7890 cfbc b172 ab3e
00000200: bc9d a4bd 9391 4bbd dbbe 1c3d aca9 cb3c
00000210: dc77 9c3c 66d8 513d fb27 3c3d d994 523d
00000220: 2e1e 12be ebf1 093f 7a4d cbbd f09b 133e
00000230: 80e6 ed3b 019a c2bd 03e4 1c3d c037 72bb
00000240: 28e0 39bc d2e5 b1bd 5346 41be 1c30 223e
00000250: e5f6 2cbe f838 f6be de89 a23d 62f5 8dbd
00000260: 134c 5c3e f496 96bb edda 97be 278f 81bd
00000270: ad35 d83d eaa4 99be 4487 a73e 5ff2 d3be
00000280: 0636 3a3d 997b 1d3e 645f 90be 6d7a 1abf
00000290: 476b be3e b1e1 2dbe f829 cebe 2e71 8fbd
000002a0: 4ea0 83be 4fb3 8f3e 875c 8a3d 9a70 82be
000002b0: 33bd e5bd 3f74 d63c 8112 f63d 0f88 1a3e
000002c0: ef43 a4bd 1208 013e 5c5f 64bf ffeb e43e
000002d0: 3a94 4ebe 53e2 093e 1cc8 06be 41ed a2be
000002e0: a2c1 723e 3f78 153d 1e31 8cbe 213a da3d
000002f0: eef2 3ebd d441 6ebe df93 acbe 359a 34bf
00000300: cdaf 493d ba4b a8be 24dc b8bd 062c 663e
00000310: c01f 59bf 6ea4 12bc d352 993b 36fb d43e
00000320: 1110 cc3d 5d7a e4bc f4e4 afbd 05f8 98bd
00000330: 646d 6a3e 8ffd 27be d0d8 97be a042 2abf
00000340: 875c d6bd bbe3 51be 3207 87be 704a 2bbf
00000350: 6264 0ebe c2f1 803d e6bb 09bf eda7 cdbe
00000360: e04c 74bd 785e 8bbe a312 0e3d 0189 bc3c
00000370: 0fce 86be ddd3 d0bd aebf 27be 8870 90be
00000380: e02a 2d3c ef57 b1be 5143 fabe 6577 40be
00000390: da33 bebd 3d94 4d3d 5ab0 92be dd07 8bbe
000003a0: 379b 04bf ac5b edbd d495 15be 05c3 34be
000003b0: 4e08 02bf cafc 32bd 9e91 bf3e 9bc2 35bf
000003c0: c498 91bc d7ee e2bd 65da 19bf 9581 8f3c
000003d0: 8499 d0bc 3595 e2be 874b 44bf 3a64 163e
000003e0: 355d cebd af72 eebd 4c7c a0be fbde 9bbe
000003f0: 3140 debe 9eca 03be dc26 37bd eab4 9dbe

linear2.bias f4 [256]
-0.27559352 0.06889484 0.29909667 0.07928038 0.22332399 -0.088465415 0.03811942 0.25536302
0.08864672 -0.4309966 0.26428813 0.19517902 -0.07238079 0.108384766 0.25790608 -0.0640528
0.1992765 0.27993897 0.34379637 0.060263347 -0.017226484 0.16721869 0.29864398 -0.19542356
-0.11416893 0.22724062 0.065163516 0.020482304 -0.106506996 0.13209215 -0.22551729 0.05183858
0.087364644 -0.04903556 0.13177015 -0.23105435 -0.06026262 0.026209151 0.027901879 0.15323661
0.13493238 0.45422783 -0.23282143 0.10598402 -0.0150777185 -0.12944731 -0.06572427 -0.073152155
-0.017441906 0.032148253 -0.02023873 -0.07906005 0.09789948 0.0036238672 0.027842356 0.10444186
0.056794 0.0922727 -0.059893034 0.0008064812 0.010825946 0.043974653 -0.19473717 -0.0103081865
0.06598761 -0.08231904 0.3017266 -0.056568332 -0.2286966 -0.0767483 -0.0026060622 -0.37850934
0.081140146 0.1901084 -0.35765135 -0.034283802 0.10997674 -0.36877254 0.012598465 -0.08285488
0.22663036 0.14201649 0.1380354 0.025120962 -0.042253044 -0.0775385 0.17265928 -0.059572693
-0.25443223 0.35404825 0.016395144 -0.19248368 -0.028603008 -0.06912735 0.016829353 0.15157743
-0.32010588 -0.11238126 -0.14299095 0.043492228 -0.022513075 0.16236751 0.13547686 0.023470346
0.27351457 0.1717847 0.45414072 0.18842393 0.094189435 0.09677313 -0.007982771 -0.020418752
0.07888904 0.010276841 0.017767854 -0.009826864 -0.13881928 -0.121469095 -0.09084135 -0.074509725
0.082581624 0.09596608 -0.08534936 -0.0481526 -0.038479865 0.2567105 0.32980496 0.11492945
-0.054304507 0.33090296 0.16366717 0.13689964 -0.11371577 0.13663854 0.00521604 -0.15935425
0.3670087 -0.025902316 -0.17352746 0.3649753 -0.06409373 0.018784028 -0.04588277 0.021292191
-0.086206585 -0.052486125 0.10441371 -0.0043876623 0.27108505 0.23767449 -0.075159274 -0.22466132
0.20577747 0.5872744 -0.069964156 -0.114030406 -0.119607165 0.5313365 0.0071545257 0.3082041
0.16708504 0.10004388 0.023300909 -0.04028959 0.06936087 -0.04835483 0.19700849 -0.008887669
0.074103706 -0.06499539 -0.12660594 -0.09194599 -0.055585634 0.23635131 0.063230716 -0.025088003
-0.05706198 -0.21695878 0.030764643 0.1212826 0.056124404 -0.14254953 -0.23290202 -0.09113873
-0.08494794 0.043869402 -0.16863355 -0.047037955 0.17909129 0.15906867 -0.19978765 -0.0006020812
-0.026593626 0.23489673 -0.2581312 0.0059551043 -0.007950031 -0.026082749 0.39798677 0.10971947
0.03208034 -0.10907665 -0.049867097 0.036500525 -0.04827751 -0.00037535245 -0.1056729 0.16178644
-0.050093964 0.083371095 -0.08348889 -0.055366393 0.06829693 -0.08092206 0.13513562 -0.14637284
0.11524526 0.22372195 0.026330752 -0.023819001 0.15247881 -0.22392064 -0.08758998 0.4645545
0.13079315 0.044747904 0.06598062 0.23847894 -0.05313208 -0.047587615 0.10334516 -0.05526854
-0.05359838 -0.07179536 0.075240806 -0.08887366 -0.006842233 -0.006417588 0.36030912 0.17215358
0.18548742 0.06459581 0.10866337 0.041409824 -0.12569866 -0.07573493 0.4682236 0.034640435
0.1487078 -0.07314113 -0.044406313 -0.06405669 0.3028975 -0.83215165 -0.07492602 0.3080643
00000000: 981a 8dbe bd18 8d3d 3323 993e c05d a23d
00000010: 0baf 643e 5b2d b5bd 1c23 1c3d f1be 823e
00000020: 698c b53d 96ab dcbe c650 873e 02dd 473e
00000030: 613c 94bd d5f8 dd3d 440c 843e 1d2e 83bd
00000040: 240f 4c3e 2954 8f3e 1406 b03e b3d6 763d
00000050: 8e1e 8dbc 603b 2b3e dde7 983e 1d1d 48be
00000060: 66d1 e9bd c4b1 683e 7374 853d 81ca a73c
00000070: 5720 dabd 2a43 073e 01ee 66be b154 543d
00000080: 3cec b23d 83d9 48bd c1ee 063e 8399 6cbe
00000090: f0d5 76bd 93b4 d63c 7b92 e43c 0fea 1c3e
000000a0: b72b 0a3e 8d90 e83e be68 6ebe 260e d93d
000000b0: 8908 77bc d68d 04be 729a 86bd ccd0 95bd
000000c0: 54e2 8ebc e3ad 033d b1cb a5bc 3cea a1bd
000000d0: 867f c83d 677e 6d3b a715 e43c 9de5 d53d
000000e0: d3a0 683d 78f9 bc3d 6652 75bd 0a6a 533a
000000f0: 4f5f 313c c41e 343d 2e69 47be abe3 28bc
00000100: 8324 873d e396 a8bd e97b 9a3e 32b4 67bd
00000110: 712f 6abe 362e 9dbd 78ca 2abb facb c1be
00000120: ce2c a63d c7ab 423e 141e b7be 2c6d 0cbd
00000130: 7c3b e13d c1cf bcbe cb69 4e3c d2af a9bd
00000140: ca11 683e c56c 113e 2759 0d3e 7aca cd3c
00000150: 8711 2dbd 81cc 9ebd 98cd 303e 7f02 74bd
00000160: f144 82be d045 b53e 1c4f 863c 711a 45be
00000170: db50 eabc a492 8dbd b6dd 893c 1d37 1b3e
00000180: ebe4 a3be 2528 e6bd 386c 12be e824 323d
00000190: 576d b8bc ab43 263e 72ba 0a3e e244 c03c
000001a0: 1a0a 8c3e 54e8 2f3e 2285 e83e 34f2 403e
000001b0: 64e6 c03d fe30 c63d 2bca 02bc 3a45 a7bc
000001c0: 9490 a13d 3260 283c e48d 913c db00 21bc
000001d0: a426 0ebe cac4 f8bd 080b babd 8e98 98bd
000001e0: 8e20 a93d dd89 c43d a5cb aebd a93b 45bd
000001f0: 109d 1dbd 8f6f 833e 32dc a83e 2260 eb3d
00000200: 676e 5ebd 1d6c a93e 5e98 273e 6b2f 0c3e
00000210: d0e3 e8bd f9ea 0b3e 51eb aa3b c32d 23be
00000220: 90e8 bb3e 1831 d4bc 2fb1 31be 0bde ba3e
00000230: 9343 83bd f6e0 993c 92ef 3bbd f66c ae3c
00000240: 148d b0bd b1fb 56bd dbd6 d53d 61c6 8fbb
00000250: a9cb 8a3e f160 733e 1bed 99bd 9e0d 66be
00000260: 54b7 523e 9d57 163f 5e49 8fbd c688 e9bd
00000270: 9af4 f4bd ab05 083f 8370 ea3b eecc 9d3e
00000280: 5718 2b3e cee3 cc3d 8ce1 be3c b206 25bd
00000290: 120d 8e3d b70f 46bd 98bc 493e 969d 11bc
000002a0: afc3 973d 4e1c 85bd fda4 01be 2e4e bcbd
000002b0: c3ad 63bd 1406 723e 1b7f 813d 5b85 cdbc
000002c0: d3b9 69bd 712a 5ebe 2206 fc3c 0363 f83d
000002d0: b4e2 653d 81f8 11be de7d 6ebe f1a6 babd
000002e0: 30f9 adbd 67b0 333d 46ae 2cbe dfaa 40bd
000002f0: b563 373e e6e2 223e 2295 4cbe fcd4 1dba
00000300: e0da d9bc c588 703e c629 84be 0923 c33b
00000310: d940 02bc 7dab d5bc ecc4 cb3e 9ab4 e03d
00000320: ad66 033d 9463 dfbd 7141 4cbd 9381 153d
00000330: a3be 45bd f4ca c4b9 096b d8bd 58ab 253e
00000340: 542f 4dbd 77be aa3d 39fc aabd dfc7 62bd
00000350: 43df 8b3d 77ba a5bd fe60 0a3e c3e2 15be
00000360: b505 ec3d 5e17 653e 97b3 d73c 1120 c3bc
00000370: 6823 1c3e 744b 65be 6062 b3bd 16da ed3e
00000380: a4ee 053e 9449 373d d920 873d d333 743e
00000390: 06a1 59bd 3beb 42bd a1a6 d33d 4461 62bd
000003a0: fa89 5bbd 7209 93bd da17 9a3d 6503 b6bd
000003b0: cf34 e0bb a14a d2bb 707a b83e 0749 303e
000003c0: 6af0 3d3e cf4a 843d e78a de3d 599d 293d
000003d0: 26b7 00be ea1a 9bbd 01bb ef3e 21e3 0d3d
000003e0: dc46 183e 04cb 95bd 65e3 35bd 2730 83bd
000003f0: 6215 9b3e e407 55bf d072 99bd 9bba 9d3e

mean_linear.weight f4 [2, 256]
-0.23569642 -0.43178612 0.115063906 0.15991598 0.41151467 -0.5575978 0.080892295 0.76002526
-0.30067512 -0.2867816 0.88625944 -0.28854913 0.0037686634 0.39863566 0.43136412 0.0426809
0.036022708 0.7192004 0.4300571 0.04923218 0.028164078 0.27147993 0.6700778 -0.3578643
-0.31840423 -0.42390653 -0.39919573 0.106137894 0.29187465 -0.74142617 -0.63246816 0.23159203
0.8299473 -0.39037445 0.015503479 0.2770529 -0.009134526 -0.4700907 0.7656768 -0.8127785
-0.70674443 0.18693352 0.21826617 -0.42509267 -0.6121247 -0.82302505 -0.08518441 0.12650856
0.25148246 -0.031077353 0.459852 0.5854482 -0.30857268 1.2112561 0.25898275 -0.12901777
0.1555855 0.51784474 -0.13728656 0.023068393 -0.7825043 1.0273488 -0.14675885 -0.26609525
0.382401 0.94195783 0.34083498 -0.0039036025 0.39256185 0.27808815 -0.6809884 0.1773258
-0.1993367 0.42515764 -0.120263435 -0.53266203 0.47071224 -0.48349628 0.03803111 -0.66403955
-0.13547564 -0.14694485 -0.19923142 0.32160968 0.005913005 -0.12854059 -1.3381425 -0.7682637
-0.2042734 -0.07260568 -0.05449651 0.14361079 -0.71637297 -0.03627879 0.12619236 0.295422
-0.22557066 0.057613358 -0.45706385 0.7186579 0.47566122 -0.37614807 0.5447604 0.2823917
0.13803264 -0.11932403 -0.075496845 0.35625005 0.19613695 0.9115818 -0.12802257 0.33190805
-0.6321335 0.6389405 0.5539158 0.24626167 -0.6922093 -0.21497001 0.5067347 -0.18923149
-0.0760285 0.0906575 -0.4422363 -0.09729458 -0.6327113 -0.97165555 -0.17072801 0.4293946
1.2141284 0.108616196 0.32981646 0.27870685 -0.051915612 -0.13365993 -0.0376233 -0.17030317
0.4044572 -0.077675655 0.032088485 -0.2563631 -0.4760246 -0.40597612 -0.17804244 0.14423352
0.14678665 -0.08943613 0.9813337 0.5833058 1.174991 -0.3488214 0.3604546 0.011302149
0.17185187 -0.19807826 0.7284691 0.52221745 -0.47346947 -0.253485 0.30430707 0.33366022
0.09180985 -0.74213964 0.2888163 -0.39946765 -0.6762072 -0.20249747 -0.47645628 -0.18973808
-0.08654176 -0.42651755 0.12292664 -0.054770246 -0.05020708 0.45587 -0.18071228 0.16661629
-0.016929543 -0.07913732 0.4097714 0.47916368 -0.43660378 -0.7542747 -0.0007602183 -0.17304885
0.13724141 0.25450236 0.008205907 -0.275099 0.6283907 -0.12356562 0.5965527 0.035077333
-0.54168916 -0.54226524 -0.09408568 0.25665268 -0.17786054 0.17894031 -0.4910538 0.2657455
0.06861263 -0.22335996 -0.15538305 0.37045148 -0.65807813 0.26962477 0.20489646 0.6006034
0.06662713 0.05378515 0.17883512 -0.96022815 0.35211274 -0.076888956 -0.06615958 -0.72542775
0.2884486 -0.61233854 0.47353524 -0.98198867 -0.386344 0.057958577 0.38566804 0.3527913
-0.047328576 -0.27487633 -0.2771874 -0.26743662 -0.022549713 -0.01759422 -0.82861406 -0.6185641
-0.043915 -0.3332578 -0.378828 -0.4700579 -0.38297057 0.49959362 0.18399476 -0.8561289
0.87814826 1.0511836 -0.7245246 1.1250391 -1.125409 -0.008505303 0.079705454 -0.40732187
-1.3912077 -0.27207047 0.5867529 -0.21139956 0.27905777 0.12063801 -0.20268868 0.076075405
00000000: 675a 71be 1213 ddbe a0a6 eb3d 04c1 233e
00000010: 0db2 d23e bbbe 0ebf dcaa a53d 0491 423f
00000020: 17f2 99be 0ad5 92be e6e1 623f b6bc 93be
00000030: aefb 763b f919 cc3e c2db dc3e 2bd2 2e3d
00000040: 8c8c 133d 841d 383f 7230 dc3e afa7 493d
00000050: 5ab8 e63c 6bff 8a3e 388a 2b3f fd39 b7be
00000060: e105 a3be 470a d9be 6263 ccbe d35e d93d
00000070: 9870 953e 1bce 3dbf 6fe9 21bf 7626 6d3e
00000080: 6d77 543f 29df c7be 4e02 7e3c e1d9 8d3e
00000090: fba8 15bc baaf f0be 6503 443f 4012 50bf
000000a0: 34ed 34bf 806b 3f3e 2b81 5f3e bfa5 d9be
000000b0: 34b4 1cbf c5b1 52bf 2a75 aebd 768b 013e
000000c0: 4fc2 803e ef95 febc b971 eb3e efdf 153f
000000d0: 3dfd 9dbe 710a 9b3f 6399 843e 3c1d 04be
000000e0: ce51 1f3e 7991 043f d994 0cbe edf9 bc3c
000000f0: 3452 48bf 2a80 833f f447 16be a33d 88be
00000100: 10ca c33e 2624 713f ec81 ae3e 95d3 7fbb
00000110: defd c83e 9261 8e3e 4155 2ebf e594 353e
00000120: eb1e 4cbe 43ae d93e ad4c f6bd 8a5c 08bf
00000130: 3201 f13e d38c f7be 82c6 1b3d 7ffe 29bf
00000140: 20ba 0abe b678 16be 5203 4cbe 06aa a43e
00000150: e2c1 c13b 25a0 03be 4148 abbf eeac 44bf
00000160: 0c2d 51be 49b2 94bd bc37 5fbd b50e 133e
00000170: 3864 37bf 1299 14bd 9238 013e 8d41 973e
00000180: fffb 66be fcfb 6b3d 4604 eabe f7f9 373f
00000190: de89 f33e 7b96 c0be 6b75 0b3f a595 903e
000001a0: 6e58 0d3e 2860 f4bd 179e 9abd 6866 b63e
000001b0: 20d8 483e 6d5d 693f 5918 03be daef a93e
000001c0: 80d3 21bf 9b91 233f 6dcd 0d3f 052c 7c3e
000001d0: a134 31bf 1921 5cbe 5eb9 013f e6c5 41be
000001e0: d5b4 9bbd a4aa b93d cc6c e2be 6142 c7bd
000001f0: 5ef9 21bf 6bbe 78bf 53d3 2ebe 9cd9 db3e
00000200: 8f68 9b3f 2b72 de3d b4dd a83e aab2 8e3e
00000210: 77a5 54bd 26de 08be e41a 1abd f463 2ebe
00000220: 0415 cf3e 6a14 9fbd 376f 033d 0642 83be
00000230: 7fb9 f3be 1adc cfbe c250 36be f4b1 133e
00000240: 3d4f 163e 4a2a b7bd af38 7b3f 8753 153f
00000250: 1b66 963f b898 b2be 818d b83e a62c 393c
00000260: f0f9 2f3e 07d5 4abe f37c 3a3f 0bb0 053f
00000270: 976a f2be c9c8 81be 23ce 9b3e 83d5 aa3e
00000280: cd06 bc3d ddfc 3dbf bbdf 933e 0687 ccbe
00000290: ea1b 2dbf 7f5b 4fbe 14f2 f3be b34a 42be
000002a0: ce3c b1bd 8260 dabe f6c0 fb3d c456 60bd
000002b0: f0a5 4dbd cb67 e93e a40c 39be 769d 2a3e
000002c0: d3af 8abc bf12 a2bd 8fcd d13e f154 f53e
000002d0: 888a dfbe 2618 41bf 6349 47ba b833 31be
000002e0: 0389 0c3e 224e 823e 1272 063c c7d9 8cbe
000002f0: 37de 203f f90f fdbd aeb7 183f 40ad 0f3d
00000300: 24ac 0abf e5d1 0abf feaf c0bd fb67 833e
00000310: 1321 36be 213c 373e 676b fbbe cb0f 883e
00000320: c784 8c3d 79b8 64be bc1c 1fbe d1ab bd3e
00000330: cf77 28bf 420c 8a3e 61d0 513e 25c1 193f
00000340: ce73 883d d14d 5c3d 8e20 373e 83d1 75bf
00000350: 1f48 b43e f577 9dbd ad7e 87bd a2b5 39bf
00000360: 89af 933e 38c2 1cbf 3673 f23e 9c63 7bbf
00000370: e1ce c5be f965 6d3d 4876 c53e 10a1 b43e
00000380: 9cdb 41bd 97bc 8cbe 82eb 8dbe 74ed 88be
00000390: 2dba b8bc c121 90bc 0d20 54bf 385a 1ebf
000003a0: 37e0 33bd c4a0 aabe bef5 c1be 6eab f0be
000003b0: b814 c4be bcca ff3e 1f69 3c3e 432b 5bbf
000003c0: 53ce 603f 2f8d 863f 727a 39bf 4801 903f
000003d0: 670d 90bf d459 0bbc 9d3c a33d 7e8c d0be
000003e0: 1813 b2bf d24c 8bbe 7035 163f 2079 58be
000003f0: a9e0 8e3e 1011 f73d 9f8d 4fbe 6ccd 9b3d

mean_linear.bias f4 [2]
-0.058628216 0.026954563
00000000: 2424 70bd d1cf dc3c

log_std_linear.weight f4 [2, 256]
-0.0334243 -0.24194337 -0.0035262285 -0.05310373 0.09340647 0.17177667 0.5694639 0.20330936
0.003122292 0.43750355 0.37626788 0.010354083 0.10130954 0.193125 0.043199718 0.02739379
0.03386385 0.33306056 0.2328082 -0.022632409 0.04821375 0.124492474 0.102452435 0.13483483
0.024325304 -0.0745597 -0.025992008 0.090125404 0.018435612 0.47488356 0.6799838 0.29515654
0.42736837 0.4918675 -0.11561145 -0.019567637 -0.015732374 0.027966565 0.50637674 0.3751035
0.2220318 0.098455675 -0.030558145 0.009427153 0.036769405 0.15331243 -0.06650242 0.010198614
0.3220709 0.0049568294 -0.041694865 0.054945495 0.33581528 0.7088692 0.02191967 -0.14144261
0.10409572 0.04693675 0.133546 0.05414899 0.05856356 0.090673506 0.15503173 -0.021143408
-0.022923851 0.36307704 -0.034569398 -0.047286242 0.07040677 -0.036103718 0.06865485 0.009222057
0.16506422 0.03279445 -0.04770819 0.22854497 0.00745898 0.11149384 0.008131853 0.32290968
-0.005800119 0.01303513 -0.054055165 0.1811231 -0.027398868 0.107792296 0.030416483 0.18973549
-0.00027921295 0.043735042 -0.08320568 0.0328725 0.5431096 0.078382745 -0.03368091 0.02648566
0.0121703865 -0.02316072 0.048934393 0.08765493 0.09103997 -0.17113627 0.004043465 -0.10091744
-0.22625284 -0.043813754 -0.058539793 -0.012880051 0.063714914 0.2525795 0.020899097 -0.001706168
0.0059590437 0.16651553 -0.014839505 0.09736285 0.41168278 -0.006142122 0.3658545 0.13061626
-0.069564454 -0.07897253 0.3844925 -0.0033211717 0.31600052 0.026358604 0.05373129 0.5133179
0.50869733 0.011463948 0.003417091 0.003836591 0.074005514 0.024794389 0.01597675 -0.122158825
0.13142546 0.25545964 0.008284631 0.007500205 0.24098317 0.031358484 0.05987607 -0.04738584
-0.010649366 0.12992793 0.17090008 0.32603413 0.6166409 0.36503232 0.0027137578 0.041351877
0.03404885 -0.15416153 0.36516407 0.5513988 -0.06305254 -0.02886327 0.007609331 -0.04921381
0.0018850502 -0.021440161 0.038017042 0.18214446 0.009395984 -0.025377518 0.09181264 0.043659203
0.020410355 0.35964975 0.03109184 0.026485678 -0.027247723 0.16580693 -0.09340012 0.12185812
-0.095697366 0.32739788 0.33877861 0.07625692 0.15234423 -0.07059526 0.07515805 -0.0037082557
0.12762976 0.4007068 0.057487417 0.039424233 -0.006564636 0.07062053 -0.08389187 0.11657231
0.116003215 0.4282792 0.027403293 -0.009244175 0.032605637 0.06426474 0.13212274 0.013750005
0.057215545 0.10495583 0.047085352 0.10185258 0.68482864 0.041933488 -0.05354197 0.32547313
0.031182857 -0.056872357 0.015031382 0.029966734 -0.09423725 0.012254814 0.30473766 0.30408493
0.056176934 0.026752146 0.034527294 0.14069839 -0.04773003 0.009901097 0.14889313 0.11616887
0.030174533 0.06982619 0.2220334 -0.023781983 -0.08543773 0.027281784 0.21360949 0.3527118
-0.12831987 0.007777395 0.16026369 0.31517473 0.08495342 0.1121571 -0.050905522 -0.03353368
0.28339988 0.5805762 0.13787198 0.25406417 1.1091124 -0.09374606 -0.014341249 0.009217298
0.24403128 0.15473174 0.14189516 0.040639453 0.06393594 -0.0062142583 0.06374572 0.047663547
00000000: ebe7 08bd 01c0 77be 4c18 67bb 4c83 59bd
00000010: e44b bf3d 39e6 2f3e 63c8 113f 5430 503e
00000020: 5e9f 4c3b 7700 e03e 2fa6 c03e 2ca4 293c
00000030: 607b cf3d 8fc2 453e 30f2 303d f168 e03c
00000040: d2b4 0a3d ea86 aa3e 4665 6e3e 9a67 b9bc
00000050: c87b 453d e9f5 fe3d 95d2 d13d 2412 0a3e
00000060: dc45 c73c c2b2 98bd 31ed d4bc ab93 b83d
00000070: 4806 973c f023 f33e 6b13 2e3f c21e 973e
00000080: 07d0 da3e 0fd6 fb3e b2c5 ecbd 4f4c a0bc
00000090: 2ee1 80bc 231a e53c e8a1 013f 910d c03e
000000a0: 4e5c 633e 21a3 c93d 1355 fabc 5874 1a3c
000000b0: 849b 163d effd 1c3e 6c32 88bd 1618 273c
000000c0: 7ae6 a43e e66c a23b 3cc8 2abd 870e 613d
000000d0: fbef ab3e 7478 353f e190 b33c 55d6 10be
000000e0: 2330 d53d c040 403d 48c0 083e 55cb 5d3d
000000f0: 58e0 6f3d 08b3 b93d a3c0 1e3e f134 adbc
00000100: cdca bbbc 3ce5 b93e a498 0dbd 38af 41bd
00000110: 6d31 903d 7ee1 13bd ea9a 8c3d 1c18 173c
00000120: 9806 293e 7953 063d aa69 43bd b107 6a3e
00000130: 766a f43b e256 e43d 773b 053c 6b54 a53e
00000140: ed0e bebb 4c91 553c f368 5dbd 5578 393e
00000150: 9773 e0bc 35c2 dc3d fd2b f93c 054a 423e
00000160: 5463 92b9 8423 333d bd67 aabd 51a5 063d
00000170: 3b09 0b3f 2287 a03d fef4 09bd 74f8 d83c
00000180: 4d66 473c 8dbb bdbc 6e6f 483d 6e84 b33d
00000190: 2a73 ba3d 593e 2fbe 0b7f 843b cead cebd
000001a0: d3ae 67be 0d76 33bd 6cc7 6fbd d906 53bc
000001b0: f77c 823d 1a52 813e 9534 ab3c 80a1 dfba
000001c0: 1544 c33b 0c83 2a3e 6521 73bc 2d66 c73d
000001d0: 16c8 d23e db43 c9bb 4851 bb3e 45c0 053e
000001e0: cf77 8ebd 5abc a1bd 33dc c43e 04a8 59bb
000001f0: d2ca a13e 00ee d73c 5715 5c3d cd68 033f
00000200: fd39 023f 48d3 3b3c 46f1 5f3b 516f 7b3b
00000210: 3490 973d 9a1d cb3c ace1 823c 682e fabd
00000220: 6594 063e 9bcb 823e 43bc 073c 48c4 f53b
00000230: 4bc4 763e c171 003d 9c40 753d a817 42bd
00000240: ae7a 2ebc d40b 053e 6e00 2f3e f2ed a63e
00000250: 2edc 1d3f 84e5 ba3e 4dd9 313b 9660 293d
00000260: cf76 0b3d 85dc 1dbe c9f6 ba3e 7928 0d3f
00000270: b121 81bd aa72 ecbc b257 f93b 6c94 49bd
00000280: ca13 f73a 47a3 afbc c2b7 1b3d 1484 3a3e
00000290: 9df1 193c 83e4 cfbc 4408 bc3d fed3 323d
000002a0: 9e33 a73c 0324 b83e 50b4 fe3c 7ef8 d83c
000002b0: 9e36 dfbc 4bc9 293e 9048 bfbd c090 f93d
000002c0: fbfc c3bd b2a0 a73e 6474 ad3e 972c 9c3d
000002d0: 2000 1c3e 3f94 90bd 77ec 993d 3506 73bb
000002e0: 60b1 023e 7129 cd3e ed77 6b3d 4e7b 213d
000002f0: 281c d7bb 7fa1 903d 80cf abbd 77bd ee3d
00000300: 1893 ed3d 6947 db3e df7c e03c e174 17bc
00000310: 7d8d 053d 3b9d 833d 2f4b 073e b347 613c
00000320: d95a 6a3d 15f3 d63d 92dc 403d 1698 d03d
00000330: ee50 2f3f 73c2 2b3d d34e 5bbd 6aa4 a63e
00000340: 3173 ff3c fdf2 68bd 3046 763c cc7c f53c
00000350: 76ff c0bd 6ac8 483c 9306 9c3e 05b1 9b3e
00000360: c919 663d 5127 db3c 7e6c 0d3d 3d13 103e
00000370: 9080 43bd 3638 223c 7177 183e f2e9 ed3d
00000380: 9530 f73c 0901 8f3d b95c 633e 6fd2 c2bc
00000390: faf9 aebd 0c7e df3c 72bc 5a3e a496 b43e
000003a0: 4966 03be 85d9 fe3b 2a1c 243e 955e a13e
000003b0: 0ffc ad3d 9fb2 e53d 4f82 50bd 9d5a 09bd
000003c0: ca19 913e a4a0 143f 502e 0d3e b314 823e
000003d0: 65f7 8d3f effd bfbd 8ff7 6abc 2604 173c
000003e0: 56e3 793e ff71 1e3e f74c 113e 8e75 263d
000003f0: d9f0 823d faa0 cbbb 1e8d 823d da3a 433d

log_std_linear.bias f4 [2]
-2.0813682 -2.2649372
00000000: 2335 05c0 bbf4 10c0
