hydrone_aerial_underwater_ddpg/scripts/Models/sac_stage_2_air2D_tanh_3layers/4280_policy_net.pth (torch_old, 294160 bytes, 8 tensors)

linear1.weight f4 [256, 24]
00000000: bcab a5be 8fee b8be 9a10 67be 2098 dfbe
00000010: 5cd2 cabe 7ee0 90be 0d5d 093d cbdc e8bd
00000020: 0035 0cbf 55f0 0bbf ec83 78be 874d 713c
00000030: 9b8d f4bd 12c8 be3a 0b7a c9bd 6d52 4ebc
00000040: 5c75 92bd bae7 923d a0d3 b03b 774d ae3e
00000050: ee50 063f 18b7 edbc 20ae e93f 0a4c 763f
00000060: d6d4 c23b e738 e0bd dfe2 24be 0cb8 23be
00000070: 3e62 25be ff8f 793c 2356 c33d 8a5b ebbd
00000080: 9d79 6dbd 7d5c 9bbd 6ba1 fb3c 3698 713d
00000090: 33fa d83d 1224 e13b e4ee bcbd 37d9 69bd
000000a0: 8142 0a3d a6cf 68bd f754 a0bd 05c2 7f3d
000000b0: acf4 023e 5f17 b8bd 6008 93bc 823a cbbd
000000c0: d5c4 073e 2c61 85b8 3343 953d e3d6 fd3d
000000d0: b951 da3e fe62 df3e e759 af3e 8756 f83d
000000e0: 62df 5b3d f1a3 033e fdf4 133e d3b7 d2bd
000000f0: b5b2 c43d e310 8b3d 8e8a 74be 730b b8be
00000100: 9826 ffbe 45ef 1dbf 534e 7cbe af88 a83d
00000110: a29b ea3d a1cf d0be 93ea 973f 6833 93bf
00000120: 4ed5 403b 9586 a23c 1bdd 59bb 8c3e c13a
00000130: 95c1 67bd 6649 b73c 6fb1 fbbd cde2 09bc
00000140: 85e3 84bc 46de 963b b9d8 343d 069e 983d
00000150: ea9c 85bd b2e1 533d 94a4 1abe 23aa 01bd
00000160: 6677 04be 3afb 9abd 4de7 22be 31db 06be
00000170: dd6f b2bd 0b35 9e3c 4364 b7bd c67f d3bd
00000180: 1b59 8c3d 172f fa3d 2ac5 da3d 9dcd fb3d
00000190: 9e7c 8d3e 49c5 5d3e f25b 853e 7dff 303e
000001a0: 8aec 20bd 93e2 97bd e139 1d3e dcd3 c33d
000001b0: 750a 70be 36f4 b9be 216a a4bc 4fc4 03bd
000001c0: a598 3dbe c896 d23d 93b9 9c3d 6b79 24be
000001d0: b998 efbe a2a9 423e ed4a 72c0 7dba 02bf
000001e0: 12be 03be 851a 5e3d c922 abbc faf0 95bd
000001f0: b578 853d 2a7d c33d dc6d 13be d704 f9bc
00000200: e05f ffbd c17e 37bd c947 653d 91a6 18be
00000210: e467 0e3d f780 39be 62dc bbbd 1bd2 84bd
00000220: 2d83 b1bd 0daa b1bd be99 8ebd 0fc4 053d
00000230: 1740 203d 6b93 b03d c82e c53c 9e5d 05bd
00000240: e5f0 bfbd 4a2f 59bd df3b 0dbe ff6b 923d
00000250: 3346 1f3c 4343 7339 741a 77be 6ea1 ebbe
00000260: 0042 72be 15c4 9cbe 17d7 b5be b58e 9ebe
00000270: 034e 213e dec5 47ba f3cd 4cbe 79cd b23d
00000280: d654 1a3d c875 d8bc c51f a2bc a6d1 0c3b
00000290: 2e93 b03e 12b7 88bf 85d7 0d3f 3652 96bf
000002a0: 664a 1b3e 16c3 9f3e c1d7 503e bea3 423e
000002b0: c745 443e a017 12bc d584 84be 1ed8 0abf
000002c0: 8b96 08bf 9afa 1ebf 1a70 1fbf e7fe 36be
000002d0: 859a 05bd 6125 2d3c 0648 653e 242d 3e3e
000002e0: 8b37 073b 950e f93d 055c 94bd c190 0c3e
000002f0: d209 423e 4e7d 253f 8866 0bbf f71e dc3f
00000300: 67e0 b33e b883 f13d c14b 973e 1758 8a3e
00000310: 99cf 2bbe 5a62 303c 3856 2b3a 60a6 bb3e
00000320: 2e40 0a3e 709f 5cbe ee03 02bf d99e 0cbf
00000330: 0d5a f5be 35af f1be 6fb2 19be 67e2 6bbb
00000340: 9b13 0e3e b3ba d33d 427e b43e 44b0 22be
00000350: 41ba 1c3f e091 68ba 64e9 07c0 6422 423f
00000360: 72f6 16bc 66df 47bd ea76 443d ecfc f93c
00000370: 77bb 1bbd 4574 0d3d a5dd a3bd 45e9 cbbd
00000380: 20c6 e83b 67e4 debd 52c4 983d ecd8 15be
00000390: 660b cebc fe76 103e 30dd b2bd da7a b43d
000003a0: b131 0bbe a673 e3bd 4c3d 893c d65d 37bb
000003b0: caa2 46be 8225 a6be 6b6c 6dbe b051 d3bf
000003c0: 13aa d83e a6b0 f43e 78ad 673e 79f0 5abe
000003d0: 351d b2bc 0684 b33d 917b 813e d27d c2be
000003e0: 5e31 edbe 6dc9 03bf 13b9 30be 8a22 11be
000003f0: 065b c5be ba11 a9be 7abd fe3d 44ae 15be
-0.32357585 -0.36119506 -0.22564927 -0.4367075 -0.39613616 -0.28296274 0.033536006 -0.11370238
-0.5476837 -0.5466359 -0.24269074 0.014727957 -0.119410716 0.0014555475 -0.09837731 -0.012592894
-0.07151291 0.071731046 0.0053963214 0.34043476 0.5246724 -0.02901797 1.8256264 0.96209776
0.005945782 -0.10948353 -0.1610217 -0.15988177 -0.16150758 0.015232085 0.09537914 -0.11492069
-0.057977308 -0.07586 0.030716619 0.05898305 0.10594597 0.006870755 -0.09225252 -0.057091918
0.03375483 -0.056838654 -0.07828706 0.06244089 0.12788647 -0.08988833 -0.01794833 -0.09923269
0.13258679 -6.360034e-05 0.07288208 0.12394502 0.42640474 0.43630213 0.34248278 0.12125879
0.05367983 0.12855507 0.14448924 -0.10288968 0.09604398 0.0679033 -0.2388098 -0.35946235
-0.49834132 -0.6169322 -0.24639253 0.08229195 0.11455466 -0.40783408 1.1868461 -1.1500063
0.0029424015 0.019839564 -0.0033243361 0.0014743372 -0.0565811 0.022373866 -0.12289702 -0.00841589
-0.016221771 0.004604134 0.044151995 0.074520156 -0.065240696 0.05172891 -0.15101844 -0.031656396
-0.12936172 -0.07567449 -0.15908547 -0.13169552 -0.087127425 0.019312402 -0.0895467 -0.10327105
0.06852933 0.12216013 0.10682137 0.12295077 0.27634138 0.2165729 0.2604671 0.17284961
-0.03928808 -0.074162625 0.1535411 0.09561893 -0.23441489 -0.3631913 -0.020070137 -0.032169636
-0.1851526 0.102826655 0.07652583 -0.16061942 -0.46796206 0.19010022 -3.785823 -0.5106581
-0.12865475 0.05422451 -0.02089061 -0.07321353 0.06517164 0.095453575 -0.14397377 -0.030397816
-0.124694586 -0.044798616 0.055976663 -0.1490729 0.034767047 -0.18115602 -0.09172894 -0.06485387
-0.08667598 -0.08675013 -0.06962918 0.03265768 0.03912362 0.08621868 0.024070159 -0.032559983
-0.09372119 -0.053023614 -0.1379237 0.07149505 0.009721327 0.00023199343 -0.24131185 -0.460216
-0.2365799 -0.3061835 -0.35515663 -0.30968252 0.15752415 -0.0007620732 -0.20000438 0.08730597
0.037678562 -0.02642335 -0.01979054 0.0021487265 0.3448729 -1.0680869 0.5540698 -1.1743839
0.151651 0.31203526 0.20394804 0.19007775 0.19167243 -0.008916765 -0.25882593 -0.5423602
-0.5335471 -0.6210114 -0.6228043 -0.17870675 -0.032618064 0.010567994 0.22390756 0.18571907
0.0020632471 0.121609844 -0.07244114 0.13727094 0.18949059 0.64644325 -0.54453325 1.719695
0.35132143 0.117927015 0.29549983 0.27020332 -0.16778411 0.010765636 0.000653598 0.36650372
0.13501045 -0.21545196 -0.50787246 -0.5492988 -0.47920266 -0.47203985 -0.15009473 -0.00359931
0.13874666 0.103383444 0.35252577 -0.15887552 0.612217 -0.0008871835 -2.12362 0.75833726
-0.009214031 -0.048797034 0.047964968 0.03051611 -0.038020577 0.03453471 -0.0800126 -0.09956602
0.0071036965 -0.10883408 0.0745932 -0.1463353 -0.02515192 0.14107892 -0.087335944 0.088124946
-0.13593175 -0.111060426 0.016752861 -0.0027979515 -0.19398037 -0.3245049 -0.2318589 -1.6509304
0.42317256 0.47791022 0.22624767 -0.21380796 -0.021742443 0.08765416 0.25289586 -0.37986618
-0.46326727 -0.51479226 -0.172581 -0.14173332 -0.38546008 -0.33021337 0.124384835 -0.14617258

linear1.bias f4 [256]
00000000: 0e8f 74be 53d5 99bc f7f5 e0bc f5a3 b5bc
00000010: 49df 3f3b e2ba 28bd 3ec2 02be 13b4 db3d
00000020: 7934 023e a457 50bc f4a7 d23d e9e3 5ebe
00000030: 703b c9b7 8864 7cbc 84e5 e73d fc15 f33d
00000040: 6f64 e6bc 6497 d0bb a46f 2b3d eaf5 8f3e
00000050: 5eb0 2ebd 2beb e6bc 0000 0000 1dc1 1bbc
00000060: 546f b23d 4e47 1c3e 7bea 553c b659 cdbd
00000070: 58a9 96bd 907a f5bd 2445 653c c417 3bbb
00000080: 0db9 183d 0f62 87bc e0ed 41bc 89cd a2bd
00000090: 56e8 1e3c 429c cbbb 9425 2e3d 7544 2dbb
000000a0: ccfb f3bc 6e58 47be e89d ce3e bbcd 5f3d
000000b0: de6c 8fbd d097 a13c bb28 4dbe 169b 4ebc
000000c0: 9b1e 873c 84a4 17be 6e36 3f3d 885d b23d
000000d0: 7a35 cc3b f65c 1cbd 20e0 e3bd 1b1e fd3c
000000e0: 8744 b4bd acdb 323d 1a8b 5f3e a2d4 e3bc
000000f0: ad16 d63d f353 073e 6381 243e 7ac2 27be
00000100: c4a7 0c3d 9464 e9bc d719 86be b03c 4b3d
00000110: 120e 76bc 1dfa c8bd 8740 f63c 0000 0000
00000120: 9ef0 3fbe a326 f7bd 09d9 e1bd e2a7 9cbc
00000130: bf80 1d3e 393c 66bd f85c 873d 3473 c9bc
00000140: dc2e 99be ff70 60bc 0000 0000 7aa9 5bbc
00000150: 8f24 183e 2b09 43bc 1bab 5bbd a7c5 9bbc
00000160: 1f35 013e 9bef 803e 07ba 6b3d 212f d0bc
00000170: 295c 863d 4076 febc 9d92 8abc 0f7c 11bd
00000180: 37d4 1dbd 413f dfbc 994b 8ebe 030e 2cbe
00000190: bd73 bfbc 527f cd3c 81a3 b13d d2b3 13bc
000001a0: 22c3 303d 6654 b43d 8c99 9cbc 2626 53bd
000001b0: 226c e1bd 6fdd a43d 03aa 583e 8261 d63d
000001c0: f0f2 c8bd 40dd 083d ab11 033e 2c41 a83d
000001d0: f678 0c3e 3f4a 9bbd fa89 77bc a9a7 b2bc
000001e0: 88b2 883e 2d7f bdbc 2fcd a8bd 1c61 15bd
000001f0: d548 193d 5409 2bbd a830 ddbc 2e67 433d
00000200: 0000 0000 45a4 303e 8705 523e 6c1f 1bbc
00000210: e037 e9bc 0000 0000 897e 89bc cc65 393e
00000220: d45e 393e 4c25 183e 8cb0 01be aa90 283e
00000230: 10da 743d 6a66 3abe 58ef 14bd 9e24 303e
00000240: 6f15 1cbc 0000 0000 64b0 c13d a842 b2bd
00000250: 3e74 e1bd ab97 133e 19ec 72be 21e1 bbbb
00000260: fedb b13d 1250 b33d c5cd 513d 0675 073e
00000270: bc30 fe3d 1f99 a0bd dfad a73e 189f 3abe
00000280: 4704 063c 176e bcbc 6317 983d 5e5b 3bbe
00000290: c7e2 16be 81df 083d 1a89 003c ad6a cabc
000002a0: 106f fe3a 5884 133e a910 cdbd 8453 babd
000002b0: a74b 603a 9ba4 323d c726 ce3d e377 b03d
000002c0: 0000 0000 57cd b03e a973 8e3c 2a41 713d
000002d0: 27a4 16be 94b1 efba d9f6 60bd 1fd0 113e
000002e0: 1bb9 183e 5d4f 26bd 4f88 e53d 0000 0000
000002f0: 7237 2dbc 9b77 9cbd 25d5 8bbb 7b97 373d
00000300: ce1e f4bc c218 693e a9bc 813e cdcd 28be
00000310: 0494 16be 298e 70bd 514e 043e 95af e23d
00000320: 2626 42be 8ed5 eabe 3116 073e 42ea 33bd
00000330: 2b0b 05be 790c 0bbe 00cf 333e 8fa1 413c
00000340: 00df e2bd d095 103c adc4 80bd b26e 973d
00000350: c161 cfbc ad87 b4bb 2fc4 3d3c 1808 b23e
00000360: 52e4 ef3d aeed 1b3e fd72 c23d e548 cebd
00000370: 883e 59be 1fe3 463e 6e87 45bd 44bf 463e
00000380: 7444 d9bc 1b65 f2bd 18aa 69bc 842d 653d
00000390: 2787 843d 97d9 5cbd fba3 0fbd f82a 51bd
000003a0: a719 b63c 1d62 e6ba 5cdc f2bc 8cb9 d9bd
000003b0: 0a4a 18bd 416d c5bd a685 9f3d 23aa 7e38
000003c0: 06c1 76bd 426c d33c 8e28 aabd 81f9 2abc
000003d0: 4d53 39be dce1 533d f21d c7bc 3cfd 94bd
000003e0: 21bb 5abe 60c8 123e bc35 8f3d f0bb f83d
000003f0: d342 463e 75e1 cfbd 46b7 4abe 00bc 2f3e
-0.23882696 -0.018778479 -0.027461035 -0.022172907 0.0029277375 -0.04119385 -0.1276941 0.10727706
0.12715329 -0.012716208 0.10285941 -0.21766628 -2.3988745e-05 -0.015404828 0.113230735 0.118694276
-0.028124062 -0.0063657034 0.041854516 0.28117305 -0.042648666 -0.028188309 0.0 -0.009506491
0.087126404 0.15261576 0.013056393 -0.10026877 -0.073565185 -0.119862676 0.013993535 -0.00285481
0.037285853 -0.01652625 -0.011836499 -0.07949359 0.009698948 -0.0062136957 0.042516306 -0.0026438509
-0.029783152 -0.19467327 0.40354848 0.05463956 -0.07003187 0.01972571 -0.20035069 -0.012610218
0.016494086 -0.14808851 0.046682768 0.08709246 0.006231961 -0.038174592 -0.11126733 0.030898144
-0.08802133 0.043666527 0.21830407 -0.027811352 0.10453544 0.13215618 0.16064982 -0.1638278
0.03433968 -0.028490342 -0.2619159 0.049618423 -0.015018003 -0.0981333 0.030060066 0.0
-0.18744132 -0.12067916 -0.11027724 -0.019123022 0.15381144 -0.056209777 0.06609529 -0.024591066
-0.29918563 -0.013698815 0.0 -0.013407106 0.14857696 -0.011904041 -0.053629976 -0.019015146
0.1261792 0.25182804 0.057550456 -0.025413098 0.06560547 -0.031062245 -0.016915614 -0.035518702
-0.038532462 -0.027251842 -0.2779205 -0.1680222 -0.023370618 0.025085125 0.08673764 -0.0090150405
0.043154843 0.0880516 -0.019116186 -0.051550053 -0.11006953 0.080500476 0.21158604 0.10467817
-0.09811962 0.033414125 0.12799709 0.082155555 0.13718018 -0.07582521 -0.01510858 -0.021808462
0.2669871 -0.023131931 -0.08242261 -0.036469564 0.037422974 -0.041756943 -0.02700074 0.04770582
0.0 0.17250164 0.20509921 -0.009467941 -0.028469026 0.0 -0.01678397 0.18105239
0.1810258 0.14857978 -0.12665004 0.16461435 0.059778273 -0.1820313 -0.03636107 0.17201468
-0.009526595 0.0 0.09457472 -0.0870412 -0.110084996 0.14413325 -0.23722877 -0.0057336246
0.08684538 0.087555066 0.051221628 0.13228235 0.12411639 -0.078417055 0.3274984 -0.18224752
0.008179731 -0.023001714 0.07426336 -0.18296573 -0.14734946 0.033416275 0.007845188 -0.02470907
0.0019411761 0.14405954 -0.10012943 -0.090979606 0.0008556195 0.04361401 0.1006599 0.086166166
0.0 0.34531662 0.017389135 0.058900036 -0.14711057 -0.0018287175 -0.054922912 0.14239548
0.14914362 -0.04060303 0.112076394 0.0 -0.010572301 -0.076400004 -0.004267352 0.044822197
-0.029799845 0.2276335 0.2533925 -0.16484757 -0.14704901 -0.058729324 0.129205 0.11068646
-0.18959865 -0.45866054 0.13192059 -0.043924578 -0.12992541 -0.13578977 0.17559433 0.011818304
-0.1107769 0.008824781 -0.06287513 0.0739416 -0.025315167 -0.005509338 0.011582418 0.347718
0.117134705 0.15227386 0.094945885 -0.10072497 -0.2121526 0.19422577 -0.04822486 0.194089
-0.026521899 -0.118356906 -0.014261745 0.05595161 0.06471091 -0.053918447 -0.035068493 -0.05106637
0.022229029 -0.0017576847 -0.029646091 -0.106310934 -0.037179984 -0.09639979 0.07789163 6.071677e-05
-0.060242675 0.025808457 -0.083085164 -0.010435463 -0.18098183 0.05172907 -0.024306271 -0.07274863
-0.21360447 0.1433425 0.06992671 0.12145221 0.19361429 -0.101504244 -0.19796476 0.1716156

linear2.weight f4 [256, 256]
00000000: 6e3a c9be 109d a83b b9d1 4abe c013 633c
00000010: c76c 61be bd99 453d ccc8 dbbd d34a 213e
00000020: 10f2 ef3d 5611 90bb 355f 473e ada7 993d
00000030: 07fe 743e 642a 70bd 0253 63bd 0126 78bd
00000040: 1d80 aebd c52e 5abd f900 42bf 1d4f 8ebd
00000050: efe9 983b 5c6e 63bd 8096 ffbb 76f4 2a3d
00000060: 49f7 a1be 17f2 f4bc 261f b2bc a8ab 2b3d
00000070: 298b a23e 14ed e0bd 1280 aabd 21f2 023f
00000080: 96f0 b6be d2b1 633d 6370 11bd df9b 02bf
00000090: 314e 1cbe 44ce 9c3c 6f1a 533e ed5c 9ebe
000000a0: c660 823e dca6 27bf 662a 863e ebaa 8e3d
000000b0: 608c 9bbe 96d3 b7be 36ce b6be 715f 423e
000000c0: 9328 36bf 58ba c2bd 00a9 a33d b882 adbe
000000d0: cedc 22be d797 02bd 87a8 053e d569 01bf
000000e0: 3c78 703e a22a 93be 5f9d 14be 6738 073e
000000f0: e113 683e d64e 99bd 6b28 2b3e 1c49 c9bd
00000100: 0c80 c7be e0ce 5d3b b440 833d cc94 25bf
00000110: f89a 39bd e1cf 9fbe 95ad 313e bc8a 00bd
00000120: b176 2dbe c171 7d3e 9d00 03bf 7378 64be
00000130: 2700 bdbd b00c 393e 4261 edbd 7e93 503d
00000140: 40ba 8e3d aa3e 3cbe fce0 d6bd 3906 89bd
00000150: f104 d0bd ed3a 36be 4acc 0e3d cf78 d63d
00000160: ebcb 44be 9ef1 3ebf 30b7 76bd 9fae f63d
00000170: c1db 663e 922a 1ebf 4c9f 11bd 323a 023e
00000180: 5363 d03e 364d 073d 69b5 1dbe 2bd6 2dbe
00000190: 7385 133f 8e8f f4bc 6c40 debe d9e8 e43d
000001a0: cec9 59be 92d8 04bf 9ac7 1cbd af59 4b3d
000001b0: 1777 193f 362c 8dbe 9423 7abd ff00 c13d
000001c0: 3785 53bd 9aec 33bd a9f3 34be 9831 973d
000001d0: ca6e 4cbd e209 6cbe 4b62 98be 8c03 5a3e
000001e0: d197 af3d feda 773e dee8 22bc 9675 143d
000001f0: c414 0cbf 030e 943e 7890 cfbc b172 ab3e
00000200: bc9d a4bd c399 72bd 106d eb3c aca9 cb3c
00000210: dc77 9c3c 66d8 513d fb27 3c3d d994 523d
00000220: 2e1e 12be ebf1 093f 7a4d cbbd d9d9 093e
00000230: 80e6 ed3b 019a c2bd 03e4 1c3d 36ad 58bc
00000240: 28e0 39bc d2e5 b1bd ab07 4bbe 1c30 223e
00000250: e5f6 2cbe f619 fbbe de89 a23d 62f5 8dbd
00000260: 134c 5c3e 1969 67bc edda 97be 1413 95bd
00000270: 07b2 c43d eaa4 99be 43a6 a23e 5ff2 d3be
00000280: 0636 3a3d 997b 1d3e 2240 95be 6d7a 1abf
00000290: 476b be3e b1e1 2dbe f829 cebe 2e71 8fbd
000002a0: 4581 88be 42d2 8a3e cdb0 6d3d 9a70 82be
000002b0: ed3f f9bd 9263 883c 8112 f63d 38c6 103e
000002c0: ef43 a4bd e98b ee3d 5c5f 64bf 230b e03e
000002d0: 3a94 4ebe 3c20 003e 1cc8 06be 41ed a2be
000002e0: a2c1 723e 3f78 153d fe11 91be 213a da3d
000002f0: eef2 3ebd d441 6ebe e974 b1be b20a 37bf
00000300: cdaf 493d ba4b a8be 4d60 ccbd 062c 663e
00000310: c01f 59bf d448 97bc d352 993b 331a d03e
00000320: 1110 cc3d 5d7a e4bc 0b69 c3bd 05f8 98bd
00000330: 646d 6a3e 8ffd 27be cbb9 9cbe a042 2abf
00000340: 875c d6bd bbe3 51be e3e7 8bbe 704a 2bbf
00000350: 5426 18be c2f1 803d e6bb 09bf eda7 cdbe
00000360: e04c 74bd 785e 8bbe ea18 ce3c 0ff5 5c3c
00000370: caae 8bbe ddd3 d0bd c581 31be c24f 95be
00000380: e02a 2d3c ef57 b1be 2b24 ffbe 6577 40be
00000390: f7b7 d1bd 3d94 4d3d 6291 97be b1e8 8fbe
000003a0: b20b 07bf ac5b edbd de57 1fbe 05c3 34be
000003b0: 4e08 02bf cafc 32bd 9e91 bf3e 0b33 38bf
000003c0: c498 91bc d156 f6bd 65da 19bf 98e7 023c
000003d0: 8499 d0bc 3595 e2be 874b 44bf 3a64 163e
000003e0: 355d cebd af72 eebd 4f5d a5be fbde 9bbe
000003f0: 031e e3be 9eca 03be dc26 37bd eab4 9dbe
-0.3930239 0.0051456764 -0.19806565 0.013859689 -0.22014152 0.04824232 -0.10731658 0.157512
0.11716092 -0.004396598 0.19469912 0.07502685 0.23925029 -0.058634177 -0.055499084 -0.06058312
-0.085205294 -0.05326726 -0.75782734 -0.069486834 0.004666559 -0.05552517 -0.0077999234 0.041737042
-0.31633976 -0.029900594 -0.021743368 0.04191175 0.31746796 -0.10982719 -0.08325209 0.5115071
-0.35730428 0.055589505 -0.03550757 -0.5101909 -0.15264203 0.019141324 0.20615552 -0.30930272
0.25464457 -0.6548898 0.26204222 0.06966194 -0.30380535 -0.35903615 -0.357042 0.1898172
-0.7115566 -0.095081985 0.079912186 -0.33888793 -0.15904543 -0.031883087 0.1305257 -0.5055211
0.23483366 -0.28743464 -0.14513157 0.1320511 0.22663833 -0.0748574 0.16714637 -0.09828398
-0.3896488 0.003384523 0.064088255 -0.6468017 -0.045313805 -0.31213287 0.17351373 -0.031382307
-0.16939808 0.24750425 -0.5117281 -0.22311573 -0.09228545 0.18071246 -0.11590816 0.05092191
0.06969118 -0.1838328 -0.10492131 -0.0669064 -0.101571925 -0.17795916 0.034862794 0.10472261
-0.19218414 -0.7458743 -0.060233295 0.12045025 0.22544767 -0.6178371 -0.035552308 0.12717512
0.40700778 0.03303262 -0.15401234 -0.1697623 0.576255 -0.029853608 -0.43408525 0.11177225
-0.21268389 -0.5189296 -0.038276292 0.049646076 0.5994734 -0.27572793 -0.061069086 0.09424018
-0.051640715 -0.043926813 -0.17671074 0.07382506 -0.049910344 -0.23050645 -0.29762492 0.21290416
0.085738786 0.24204633 -0.009943215 0.03624495 -0.54719186 0.2891694 -0.025337443 0.3348594
-0.08037898 -0.05922867 0.028738528 0.02486118 0.019100122 0.051231764 0.045936566 0.051411483
-0.14269325 0.5388476 -0.09926887 0.13462009 0.0072601438 -0.0950203 0.038303386 -0.01322489
-0.011344947 -0.08686413 -0.19827144 0.15838665 -0.16891058 -0.49043244 0.07936452 -0.06931569
0.21513395 -0.014124178 -0.29659215 -0.072790295 0.096042685 -0.30008632 0.31767473 -0.41395852
0.045461677 0.1537918 -0.29150492 -0.60343057 0.3719122 -0.16980626 -0.40266395 -0.07004009
-0.26661125 0.2711354 0.05802994 -0.25476533 -0.12170396 0.016649041 0.12015248 0.14138114
-0.0802077 0.116477795 -0.89208007 0.43758497 -0.20173731 0.12512296 -0.13162273 -0.31821635
0.23706678 0.03649163 -0.2833404 0.106556185 -0.046618395 -0.23267299 -0.34659508 -0.71500695
0.049239922 -0.32870275 -0.099793054 0.22477731 -0.8481407 -0.018467344 0.004679063 0.40644988
0.09964002 -0.027890379 -0.0954152 -0.07469181 0.22893292 -0.16405319 -0.306105 -0.6650791
-0.10466867 -0.20497029 -0.27325353 -0.6691046 -0.14858371 0.06296112 -0.53802335 -0.4016718
-0.059643626 -0.2722051 0.025158364 0.013486161 -0.2728179 -0.1019666 -0.1733466 -0.29162413
0.010569304 -0.346374 -0.4983228 -0.18795545 -0.10240167 0.0501902 -0.29603106 -0.28107217
-0.5275222 -0.11589751 -0.15560862 -0.17652519 -0.5079392 -0.04369811 0.37415785 -0.71952885
-0.01777304 -0.12028278 -0.6009887 0.007989787 -0.025463827 -0.4425446 -0.76677746 0.14686671
-0.100763716 -0.11642968 -0.3229775 -0.30443558 -0.44358835 -0.12870261 -0.044714794 -0.3080209

linear2.bias f4 [256]
00000000: 8ffb 91be bd18 8d3d 9324 0e3f f15b 82bb
00000010: ff35 393e ba10 d6bd 1c23 1c3d f650 ce3e
00000020: 36ee 053f 96ab dcbe a98d b03e 53a3 b03e
00000030: cd66 67be 702a 993d 3729 a73e 1d2e 83bd
00000040: ea8b 3c3e 1b73 8a3e cfa2 b33e 7e5f 09be
00000050: 5029 0b3e 4bd1 c93e b5d4 8b3e 9360 51be
00000060: d33d 07be 0f62 5a3e 3ed6 a23c 593a 15bd
00000070: 5720 dabd fe6a c53d 01ee 66be cc9c be3c
00000080: f7e6 f23d 83d9 48bd 03c1 a5bd 2414 bdbe
00000090: f0d5 76bd 93b4 d63c 6381 963c c3d6 b43d
000000a0: 3b47 c3bc 85c1 083f 353d f0bd 4699 f13d
000000b0: 8908 77bc dec4 cbbd 729a 86bd ccd0 95bd
000000c0: 54e2 8ebc ec03 5c3d bb17 a2bd f35d 92bd
000000d0: e81b 893d 3907 30bc c994 8f3c 8105 293d
000000e0: 9761 21bd d8ac 583d e236 4e3e 0a6a 533a
000000f0: 89eb 2c3d c41e 343d 759b b83e 3d50 efbd
00000100: 8f4e f53c e396 a8bd 980e af3e 32b4 67bd
00000110: 6c04 9ebe dd59 b0bd f8d3 46bc b8a0 ccbe
00000120: ce2c a63d c926 b93e d28b d6be 9ef1 aebd
00000130: 7c3b e13d 17f7 cabe c6fb a13d d2af a9bd
00000140: 5404 b0bd 920f 8c3d 160b b13e 7aca cd3c
00000150: feb8 473d 81cc 9ebd 4fec 203e 7f02 74bd
00000160: c79e 94be b183 1c3f 1c4f 863c 0b36 debe
00000170: b30d 81ba a492 8dbd 46f3 3e3e 764f 933e
00000180: 7d55 5abd 1c72 93bc 99ce 00be e824 323d
00000190: 576d b8bc cd42 353f 5784 b73e 67bc 393d
000001a0: 4ee7 f43e 6f35 8a3d ff38 bd3e 1cd0 513e
000001b0: 02f4 f13e 7377 273e 6569 1dbe 07b9 b9bc
000001c0: a239 4cbd 6e58 5a3e a6f2 b93d db00 21bc
000001d0: a426 0ebe ba9d 0abe 60a9 ecbd 1f3a ec3e
000001e0: 271f 353d b5c1 9e3d a5cb aebd 16dc aabd
000001f0: 30ca a4bd 8f6f 833e 43a9 973e 5846 603d
00000200: 83fe c4bd a91e 3b3f 3c30 8a3e f45e 953d
00000210: d0e3 e8bd 0995 253e 0b17 5fbc 80f1 41be
00000220: 421a b93e 5d10 3abd 195f a2be 971c f03e
00000230: 920b 8fbd f6e0 993c 0be8 4ebd 1a46 b4bd
00000240: 427b 3ebe b1fb 56bd dbe9 cd3d 61c6 8fbb
00000250: a9cb 8a3e 899a 7f3e a747 2dbe c030 61be
00000260: cd98 d93c e3ff 9c3e 0793 ebbd 2b30 1dbe
00000270: 9af4 f4bd 6462 ee3e 263e 353c 885b 143f
00000280: 2f48 543e fdb1 e33d 808e 953e 3de7 2fbe
00000290: 7e11 753d 2a94 61bd da73 7b3e 8490 85be
000002a0: 13b0 f23d 0703 d3bd caea c6be f013 2f3e
000002b0: fb46 d8bd 96a7 9e3e 44b0 a03e 5b85 cdbc
000002c0: 9160 88bd 712a 5ebe 2206 fc3c cd96 fbbc
000002d0: 00c1 773e 81f8 11be dbd9 073d f1a6 babd
000002e0: 30f9 adbd 6c30 173d 13fd 00be 502e 46be
000002f0: 8e93 693e 542e 3b3e b4d3 88be 2931 273e
00000300: e0da d9bc d6e9 aa3d abec 1bbd f851 f8bb
00000310: b370 5bbd 6e42 10be 92cb 4a3e 0fb2 083e
00000320: e600 2a3e 93e9 55be 856d 53be 1764 053e
00000330: 0bc7 6cbd f4ca c4b9 af67 08be fa89 483e
00000340: 542f 4dbd f08d 133d 76ae 25be 02a6 dbbd
00000350: 549b 63bb 77ba a5bd d382 143e e2a4 1fbe
00000360: b505 ec3d 9705 c53e 8730 70bc 1120 c3bc
00000370: eddd d53e 4c1c c7be d0e0 80be c260 233f
00000380: 2c8a 5c3e 8cdf 24be b6ff 0c3e b443 303f
00000390: 7e4b 80bd 9457 593c a91a 9a3c 2dd6 96bd
000003a0: fa89 5bbd 870a 493e da17 9a3d e91c d0bd
000003b0: cf34 e0bb d124 2dbc ac44 023f 7967 673e
000003c0: 9325 e23e fc8c 613d e5dc 1d3e 422b 23bd
000003d0: 0df1 e7bd ea1a 9bbd 3df9 d83e 58a7 5c3d
000003e0: dc46 183e 04cb 95bd 65e3 35bd 9fd4 e0bd
000003f0: 91f3 2c3f 1271 3dbf e7b6 aa3e 43cd a13d
-0.28512236 0.06889484 0.5552456 -0.0039782454 0.18087004 -0.10452409 0.03811942 0.40296143
0.52316606 -0.4309966 0.34483078 0.34499606 -0.22597809 0.074787974 0.32648632 -0.0640528
0.18412748 0.27040944 0.3508515 -0.13415334 0.13589978 0.3941749 0.2731072 -0.20446996
-0.13207178 0.21326469 0.01987755 -0.036432598 -0.106506996 0.09639548 -0.22551729 0.023268126
0.11860459 -0.04903556 -0.08093455 -0.3692943 -0.06026262 0.026209151 0.018372243 0.08830025
-0.023837676 0.5342029 -0.11730424 0.11796813 -0.0150777185 -0.09949659 -0.06572427 -0.073152155
-0.017441906 0.053714678 -0.079146825 -0.07146826 0.06694776 -0.0107439095 0.017527001 0.041265015
-0.03939971 0.05289921 0.20138124 0.0008064812 0.04221681 0.043974653 0.36056104 -0.11685226
0.029944686 -0.08231904 0.34190822 -0.056568332 -0.3086275 -0.0861089 -0.012135498 -0.3996637
0.081140146 0.36162403 -0.4190355 -0.085421786 0.10997674 -0.3964164 0.0790935 -0.08285488
-0.085945755 0.06838907 0.3457877 0.025120962 0.048760407 -0.0775385 0.15715145 -0.059572693
-0.29027387 0.61138445 0.016395144 -0.43400607 -0.0009846002 -0.06912735 0.18647489 0.2877156
-0.053304184 -0.017998748 -0.12578811 0.043492228 -0.022513075 0.70805055 0.35843155 0.04534569
0.4783272 0.06748473 0.36957547 0.20489544 0.47256476 0.1635416 -0.15372236 -0.022671236
-0.04985965 0.21322796 0.09079485 -0.009826864 -0.13881928 -0.1353673 -0.11555743 0.46138093
0.044219162 0.077517904 -0.08534936 -0.08342759 -0.08046377 0.2567105 0.29621324 0.054754585
-0.09618857 0.7309366 0.26989925 0.072935015 -0.11371577 0.16170134 -0.013616334 -0.18939781
0.36152846 -0.04542576 -0.3171318 0.46896812 -0.06984629 0.018784028 -0.050514262 -0.08802433
-0.18601707 -0.052486125 0.1005437 -0.0043876623 0.27108505 0.24961294 -0.16921864 -0.21991253
0.026562119 0.30663976 -0.115026526 -0.15350406 -0.119607165 0.4655944 0.011062181 0.57952166
0.20730661 0.11117933 0.2921028 -0.17178054 0.059831135 -0.05507294 0.24555913 -0.2608682
0.1184999 -0.10303312 -0.38851005 0.1709745 -0.105604135 0.30987233 0.3138448 -0.025088003
-0.066590436 -0.21695878 0.030764643 -0.030711556 0.24194717 -0.14254953 0.033166748 -0.09113873
-0.08494794 0.036911413 -0.1259654 -0.19353604 0.22810194 0.18279392 -0.26724017 0.16327347
-0.026593626 0.08345382 -0.0380675 -0.007578131 -0.053574275 -0.14087841 0.19804218 0.13349174
0.16601905 -0.20889883 -0.20647247 0.13026462 -0.05780701 -0.00037535245 -0.13320802 0.19583884
-0.050093964 0.036024034 -0.16179833 -0.10725023 -0.0034730034 -0.08092206 0.1450303 -0.15590242
0.11524526 0.38480827 -0.014660007 -0.023819001 0.41770878 -0.38888776 -0.25171518 0.63819516
0.21537083 -0.16100901 0.13769421 0.68853307 -0.06264399 0.013265509 0.01881154 -0.073650695
-0.05359838 0.19632922 0.075240806 -0.10161764 -0.006842233 -0.01056786 0.50886035 0.22598065
0.44169292 0.055066094 0.15416296 -0.039836176 -0.11325274 -0.07573493 0.42377654 0.05387053
0.1487078 -0.07314113 -0.044406313 -0.10978054 0.6755915 -0.74000657 0.33342668 0.07900479

mean_linear.weight f4 [2, 256]
00000000: 521b 7bbe 1213 ddbe d150 8e3f 8064 073f
00000010: bf73 42be 0e72 15bf dcaa a53d fd01 0c3e
00000020: 72f5 59be 0ad5 92be 61a6 4c3f 325c 2dbf
00000030: 2d6b 97be d142 363f 8828 743d 2bd2 2e3d
00000040: 9372 673d 0aad 353f 50f5 b33e aba6 eebe
00000050: c693 9a3d d9a9 9a3c d0ac 373f 3176 0cbe
00000060: ac83 e9be e87a cabe 3aac 0ebf 9471 af3e
00000070: 9870 953e 9ca4 66bf 6fe9 21bf 43e6 4f3e
00000080: b398 8f3f 29df c7be a05c c23e 2d57 39bd
00000090: fba8 15bc baaf f0be 0a93 413f f222 34bf
000000a0: 0789 09bf afb3 b9be 2fa0 303e 5ab6 3bbf
000000b0: 34b4 1cbf 1b10 4dbd 2a75 aebd 768b 013e
000000c0: 4fc2 803e d0f7 223e c7be c93e 9372 3d3e
000000d0: ba96 07bf 94b9 993f b252 c73e 22c8 8fbe
000000e0: 82ac 2a3d e263 5d3f c3a2 dabe edf9 bc3c
000000f0: aca8 db3e 2a80 833f 94dc 61bf b6a0 d4be
00000100: 6daf c63e 2624 713f 2b27 a23e 95d3 7fbb
00000110: b921 163f 0b43 7d3e 0ae5 2bbf b850 343e
00000120: eb1e 4cbe 4bb6 613f c27d 183e 7931 ebbe
00000130: 3201 f13e 59b1 d8be 319b 103e 7ffe 29bf
00000140: 3273 933c 22ca d1be 54e8 10bf 06aa a43e
00000150: 8a7d 4cbe 25a0 03be 29b1 a8bf eeac 44bf
00000160: 9108 22bf 246a c23d bc37 5fbd d869 cd3e
00000170: e4ce 31bf 1299 14bd fc71 b03d 3bb0 e73e
00000180: eadb 9bbe 66d1 9ebe aa68 bbbe f7f9 373f
00000190: de89 f33e 2194 92be 5ea6 9abe aa8b b53e
000001a0: e47e 373d ddb6 2cbe 124a a53e b350 9a3f
000001b0: ab66 f43d 9b42 113d 8b95 4b3d 6e7f d93e
000001c0: 8a75 22be a95a 36bf 9a83 503e 052c 7c3e
000001d0: a134 31bf 9fd5 3bbe fc30 e63e 3b8c b33c
000001e0: f0db adbe 1058 c23e cc6c e2be c1e8 5fbd
000001f0: 5e9b 1dbf 6bbe 78bf 2caa 6cbe fb93 813e
00000200: deec 833f b3f2 0a3e 40bc 913e c286 f63e
00000210: 77a5 54bd bd19 233d e9a7 66be 61b8 30be
00000220: a5c2 03bd e5a4 4bbd 5f25 00bf 1d32 04bb
00000230: a002 ecbe 1adc cfbe 92e4 d0be ef8d b2be
00000240: ca9d 673e 4a2a b7bd 427f 533f 8753 153f
00000250: 1b66 963f 299f adbe 4546 e1bd 9874 c2be
00000260: 3db0 b03e 38d8 e83d bae0 313f 6126 163f
00000270: 976a f2be 279c dfbd c2f8 ea3e c971 143d
00000280: 6c7a 99be 725d 90be e01f d03e 4021 b0be
00000290: 64ab 2abf 72db 42be e858 a5be c088 0a3e
000002a0: ff29 893e 2ade c6be ca79 4f3e 9f8d 8ebd
000002b0: f4bb 0bbe 49ce d93e 8c40 033f 769d 2a3e
000002c0: 7998 f3bb bf12 a2bd 8fcd d13e 317c 943e
000002d0: 97a8 acbe 2618 41bf e447 29be b833 31be
000002e0: 0389 0c3e 096a 7f3e 0ecb 78be 6c34 33bc
000002f0: d5b9 dbba a5ad a5bd 0eca f83e d0a6 7f3e
00000300: 24ac 0abf 73a8 0fbf 936e cb3c 6c01 793e
00000310: 571d 40bf 157a 5c3f 892b 1abf 50f4 cebe
00000320: b593 b23e b5bf 543d 6add 0abe 7450 463e
00000330: 37e7 2abf 420c 8a3e e2fb 0cbf 5c6c fd3d
00000340: ce73 883d f769 4b3d 100f 5a3c 4a1b 30bf
00000350: 95ce 12bf f577 9dbd 6dd6 a23e 6645 37bf
00000360: 89af 933e 1164 873e 87a3 933e 9c63 7bbf
00000370: 13d4 cbbe a390 233f 51c6 2ebf ca2a e63e
00000380: 00c8 af3d d867 01bf 8f29 b03e b85a a03b
00000390: 506b 55bc ca5f e2bd e8d9 c3be 8b49 e8be
000003a0: 37e0 33bd c551 58be bef5 c1be a7d4 fdbe
000003b0: b814 c4be d65f d43e 2bf6 493e d35f ccbe
000003c0: 691b 8fbb f254 853f dfe1 26bf 9c52 ad3e
000003d0: 84bd 82bf d459 0bbc c703 29bd 1fc1 69bf
000003e0: 1813 b2bf d24c 8bbe 7035 163f 5591 04bf
000003f0: f20d 8bbd 14cf 06bf 0cd8 46bf 1b87 81bc
-0.2452214 -0.43178612 1.1118413 0.52887726 -0.18989466 -0.5837716 0.080892295 0.13672633
-0.21285036 -0.2867816 0.79941374 -0.67718804 -0.29573956 0.71195704 0.059608966 0.0426809
0.05650575 0.7096716 0.35148096 -0.46611533 0.07547717 0.018879818 0.71748066 -0.13716961
-0.4560827 -0.39546895 -0.55731547 0.3426634 0.29187465 -0.90094924 -0.63246816 0.20302682
1.1218475 -0.39037445 0.37961292 -0.045249153 -0.009134526 -0.4700907 0.7561499 -0.7036582
-0.5372471 -0.362699 0.17248605 -0.7332512 -0.6121247 -0.050064187 -0.08518441 0.12650856
0.25148246 0.15914845 0.39403364 0.18500738 -0.52964365 1.2009759 0.3893028 -0.28082377
0.041668423 0.86480534 -0.42702302 0.023068393 0.42902124 1.0273488 -0.882272 -0.41528863
0.38805714 0.94195783 0.31670508 -0.0039036025 0.58645207 0.24732606 -0.6714636 0.17608917
-0.1993367 0.8816878 0.14891723 -0.45936182 0.47071224 -0.42322806 0.14121701 -0.66403955
0.017999265 -0.40974528 -0.56604505 0.32160968 -0.19969764 -0.12854059 -1.3179065 -0.7682637
-0.6329432 0.09492901 -0.05449651 0.40119815 -0.69456315 -0.03627879 0.08615491 0.4525164
-0.3044122 -0.31019133 -0.3660329 0.7186579 0.47566122 -0.28628638 -0.30205053 0.35458118
0.044798747 -0.16866632 0.32283074 1.2055877 0.11933645 0.03546391 0.049703162 0.42480034
-0.1586515 -0.71232086 0.20362702 0.24626167 -0.6922093 -0.18343209 0.44959247 0.021917453
-0.33956861 0.3795781 -0.4422363 -0.05466533 -0.61565197 -0.97165555 -0.2311179 0.25308213
1.0306661 0.13569145 0.28463936 0.48149687 -0.051915612 0.039819468 -0.2252499 -0.17257835
-0.03216805 -0.049717803 -0.50057024 -0.0020171471 -0.46095753 -0.40597612 -0.40799385 -0.34873912
0.22618786 -0.08943613 0.82616055 0.5833058 1.174991 -0.33910492 -0.10999731 -0.3797958
0.3450946 0.113693655 0.6948353 0.5865231 -0.47346947 -0.109184556 0.45892912 0.036241326
-0.29976213 -0.28196293 0.4064932 -0.34400368 -0.6666777 -0.19029024 -0.32294393 0.13528728
0.26789853 -0.38841373 0.20261303 -0.06960606 -0.13645917 0.42540196 0.51270366 0.16661629
-0.0074339476 -0.07913732 0.4097714 0.29001 -0.33722374 -0.7542747 -0.1653133 -0.17304885
0.13724141 0.24942793 -0.24296209 -0.010937791 -0.0016763756 -0.08089761 0.48591655 0.24965978
-0.54168916 -0.5611641 0.024833 0.24316949 -0.7504477 0.8612378 -0.6022268 -0.4042077
0.34878317 0.05194064 -0.13561025 0.19366628 -0.66759056 0.26962477 -0.5507184 0.123741835
0.06662713 0.049661603 0.013309255 -0.6879164 -0.5734647 -0.076888956 0.3180422 -0.7159027
0.2884486 0.26443532 0.288357 -0.98198867 -0.39810237 0.63892573 -0.68271357 0.4495452
0.08583069 -0.5054908 0.34406707 0.004893627 -0.013026074 -0.110534266 -0.38252187 -0.4536861
-0.043915 -0.21124943 -0.378828 -0.49576303 -0.38297057 0.41479367 0.19722812 -0.39916858
-0.004367281 1.0416548 -0.651884 0.33852088 -1.0214086 -0.008505303 -0.041263368 -0.91310304
-1.3912077 -0.27207047 0.5867529 -0.5178426 -0.06789769 -0.52659726 -0.7767341 -0.015811494

mean_linear.bias f4 [2]
00000000: 6c20 4cbf 7133 473e
-0.7973697 0.19453217

log_std_linear.weight f4 [2, 256]
00000000: 56c8 2fbd 01c0 77be ba48 e93e 2412 82bd
00000010: 6f44 4e3e 5489 253e 63c8 113f 419e b03c
00000020: 3d7d 363c 7700 e03e 9251 e0bd 5f61 913c
00000030: 9685 803e 763e 7ebc 81a8 093d f168 e03c
00000040: 3d21 2b3d 6967 af3e c52d 1e3a 3f23 493e
00000050: a88d 87bc 14e3 08bd a45f 633e 02e6 563d
00000060: 868b d63d 86a9 cabd ecc8 c53d 9e9a 263d
00000070: 4806 973c 6761 e73e 6b13 2e3f b1fa 9b3e
00000080: 6bee 103d 0fd6 fb3e c6c8 743e bbea e93e
00000090: 2ee1 80bc 231a e53c 7d64 fe3e 3dfd 033d
000000a0: 4fc7 e53c f1fc 033e 078f 0c3c 5d79 013e
000000b0: 849b 163d 4665 b03d 6c32 88bd 1618 273c
000000c0: 7ae6 a43e 7c85 67bd 6d9a 55bd 5a06 9abd
000000d0: ccac 373e fbec 363f f240 59bb 80cd 753e
000000e0: 065b e3bb 2350 123e 3639 a2bc 55cb 5d3d
000000f0: e6f6 75bd 08b3 b93d 295a 8a3e 1fac a73e
00000100: 4da3 f03b 3ce5 b93e ba0a 1d3d 38af 41bd
00000110: ed2e 853e 5382 84bd 2e81 723d db0e 3c3c
00000120: 9806 293e 43bd 943e 76ce 35bc b33a af3e
00000130: 766a f43b 019c b83d 8681 423d 6b54 a53e
00000140: aa49 8abb 34f3 013d 85f4 fc3c 5578 393e
00000150: 1844 473d 35c2 dc3d 2b2a 653d 054a 423e
00000160: 7254 c23c e715 cfbc bd67 aabd e50f 7f3d
00000170: 3117 0b3f 2287 a03d 77e1 06bb be1f 05bd
00000180: 4906 323d 5e69 263f 7106 843e 6e84 b33d
00000190: 2a73 ba3d 4ce9 293d d567 bf3d 2711 b43e
000001a0: 38f3 14bc 44fc 8abc 2fb9 7b3d ae8e de3d
000001b0: 199f 503d 24e1 dfbc 8e1e e43c 894a c0bc
000001c0: 7859 393e 6290 4e3e f4c7 463e 2d66 c73d
000001d0: 16c8 d23e d590 d3bc b406 993e 35be b33c
000001e0: c653 123e 07a5 593e 33dc c43e 0577 233d
000001f0: 3ef2 a03e 00ee d73c 8fed 71be a12f fd3e
00000200: 7ab6 f33e 0af4 f6bc 4247 b83d ae80 e43e
00000210: 3490 973d 0a97 9b3c a73a 133e f38f 91bd
00000220: c990 87bb 42da 843e 4e85 503d bfee 5e3e
00000230: 805a 653e c171 003d 164c a53d 059f ed3d
00000240: c81f 983e d40b 053e d4e4 bf3e f2ed a63e
00000250: 2edc 1d3f 72cf 063e 5310 e33d ffd8 2c3e
00000260: 4536 b13e 014b e43c 8e63 cb3e c906 f13e
00000270: b121 81bd 9365 853e 0404 3c3d 956c 463c
00000280: d844 c83d 88c8 983c 42d2 c83e fe30 a73e
00000290: df6d 04b9 1e8d 9abc bde8 323d 1a43 753c
000002a0: 7005 f7bd 1918 b83e fe44 f53d 7f9a 093c
000002b0: 742b 073e 08fb b43d b1f5 263d c090 f93d
000002c0: c4df d4bd b2a0 a73e 6474 ad3e 4a26 2b3e
000002d0: ec7b 0a3e 3f94 90bd d734 753d 3506 73bb
000002e0: 60b1 023e c9d3 d13e 2367 063e 0f02 cc3d
000002f0: cc06 9abd ce42 7d3e 24fc b2bd 215c 753d
00000300: 1893 ed3d 6094 b53e 7b46 963e ef42 5abb
00000310: 1640 0d3e dced 5b3e 06a1 1ebe d0f3 3c3e
00000320: 8b75 4d3d b3ef 023f 5631 823d 2697 af3a
00000330: 293c 2d3f 73c2 2b3d 369f 41bc 40d5 54bd
00000340: 3173 ff3c ea0a 26bd 8422 abbc 58df 403f
00000350: 8991 303f 6ac8 483c fadf 12be a966 a03e
00000360: c919 663d e732 3e3d fe60 f73e 3d13 103e
00000370: 035e a13d 75a4 b4bd ecca 303e 4c59 a1b9
00000380: 01ef 123d e1ab 583e 233f 47bc 9d13 583b
00000390: d76a c2bd c39d 8fbb fbcb 533e c4b9 a13e
000003a0: 4966 03be 85da a23d 2a1c 243e bad2 7e3e
000003b0: 0ffc ad3d 532f 933d 3425 13bd 97ac 8f3d
000003c0: 63f6 c53c a230 123f 6bcf bd3d a72e 983d
000003d0: edaa 163f effd bfbd 6409 753d 8009 6c3e
000003e0: 56e3 793e ff71 1e3e f74c 113e 759a 853d
000003f0: dff3 073a d997 a63d 731a 6a3d 54fc 543e
-0.042915665 -0.24194337 0.45563298 -0.06351116 0.20143293 0.16165668 0.5694639 0.021559836
0.011138258 0.43750355 -0.10953058 0.017746625 0.25101918 -0.015517822 0.033607963 0.02739379
0.041779745 0.34258583 0.0006034042 0.19642352 -0.01654704 -0.033419684 0.22204453 0.052465446
0.10475831 -0.09895615 0.096574634 0.0406748 0.018435612 0.451915 0.6799838 0.304647
0.035383623 0.4918675 0.23904714 0.45686898 -0.015732374 0.027966565 0.4968604 0.03222393
0.02804914 0.12889458 0.008579022 0.12643953 0.036769405 0.086130664 -0.06650242 0.010198614
0.3220709 -0.056523785 -0.052149225 -0.07520743 0.1793701 0.71455353 -0.0033150283 0.24004173
-0.006938341 0.14288382 -0.01980267 0.05414899 -0.060049914 0.090673506 0.27021912 0.32748505
0.0073436857 0.36307704 0.038340308 -0.047286242 0.26012364 -0.0647017 0.059205227 0.011478151
0.16506422 0.29050645 -0.011096587 0.3422447 0.00745898 0.090141304 0.047486804 0.32290968
-0.004220207 0.031726077 0.030878315 0.1811231 0.048648924 0.107792296 0.055948418 0.18973549
0.023721907 -0.025278999 -0.08320568 0.062271018 0.5433226 0.078382745 -0.0020581165 -0.032500975
0.043463025 0.6500453 0.25786164 0.08765493 0.09103997 0.041482255 0.09345976 0.35169336
-0.009091191 -0.016965993 0.0614559 0.10867058 0.050932977 -0.027329035 0.0278466 -0.023473041
0.18100536 0.20172265 0.19412214 0.09736285 0.41168278 -0.025825897 0.29887927 0.021941284
0.1428977 0.21254359 0.3844925 0.039908428 0.31434816 0.026358604 -0.23625778 0.494504
0.47600156 -0.030145664 0.08997966 0.44629425 0.074005514 0.01899292 0.14377843 -0.07107534
-0.004137133 0.25947767 0.05090838 0.21770762 0.22397804 0.031358484 0.08071153 0.11602596
0.29711747 0.12992793 0.3747927 0.32603413 0.6166409 0.13165072 0.11087098 0.16879652
0.34611717 0.027867796 0.39724392 0.4707549 -0.06305254 0.26054057 0.045902267 0.012110849
0.09778756 0.018650308 0.39222914 0.32654566 -0.00012629431 -0.018866118 0.043678988 0.014969612
-0.12061584 0.35955885 0.1197605 0.008398651 0.1320017 0.08836943 0.040761653 0.12185812
-0.103942424 0.32739788 0.33877861 0.16713825 0.13523835 -0.07059526 0.059864845 -0.0037082557
0.12762976 0.40981892 0.13125281 0.0996133 -0.07520828 0.24732515 -0.08739498 0.059902314
0.116003215 0.35464764 0.29350647 -0.0033304056 0.13793978 0.21477455 -0.15491113 0.18452382
0.050160926 0.51147 0.06357066 0.0013396486 0.6766992 0.041933488 -0.011817744 -0.051961184
0.031182857 -0.040537752 -0.020890482 0.75340796 0.6897207 0.012254814 -0.14343253 0.31328323
0.056176934 0.046435263 0.48316187 0.14069839 0.078792594 -0.0882043 0.17264909 -0.00030774844
0.035872463 0.21159317 -0.012161049 0.0032970675 -0.09493034 -0.0043828203 0.20683281 0.3158704
-0.12831987 0.079518355 0.16026369 0.24885073 0.08495342 0.07186761 -0.03592415 0.07015341
0.024165338 0.5710546 0.092680775 0.07430773 0.5885456 -0.09374606 0.05982341 0.23050499
0.24403128 0.15473174 0.14189516 0.06523601 0.0005186181 0.081344314 0.05715413 0.2079938

log_std_linear.bias f4 [2]
00000000: f89b 2fc0 0862 4dc0
-2.7438946 -3.2091084
