hydrone_aerial_underwater_ddpg/scripts/Models/sac_stage_2_air2D_tanh_3layers/820_policy_net.pth (torch_old, 294160 bytes, 8 tensors)

linear1.weight f4 [256, 24]
0	0xbeab2956	-0.33429974
1	0xbe938323	-0.28810987
2	0xbd442d1e	-0.04789459
3	0xbd898eb0	-0.067166686
4	0xbe394605	-0.18093117
5	0xbc893c1f	-0.0167523
6	0x3e470a2e	0.19437477
7	0x3e208858	0.15677011
8	0xbceee821	-0.029163422
9	0xbe37a7a1	-0.17935039
10	0xbdd718d0	-0.105027795
11	0x3d411c94	0.047146395
12	0x3e1c8c07	0.15287791
13	0x3e1fb8e3	0.15597872
14	0x3dc64b5a	0.09682341
15	0xbdad2d18	-0.084558666
16	0xbbf617c9	-0.0075101596
17	0xbb715fbb	-0.0036830741
18	0x3c869d4c	0.016432427
19	0x3e473dca	0.19457164
20	0x3eb0664c	0.34453046
21	0xbdeae8b1	-0.114701636
22	0x3e4ab2c2	0.19794753
23	0x3f3819ad	0.7191418
24	0x3bc2d4d6	0.005945782
25	0xbde038e7	-0.10948353
26	0xbe24e2df	-0.1610217
27	0xbe23b80c	-0.15988177
28	0xbe25623e	-0.16150758
29	0x3c798fff	0.015232085
30	0x3dc35623	0.09537914
31	0xbdeb5b8a	-0.11492069
32	0xbd6d799d	-0.057977308
33	0xbd9b5c7d	-0.07586
34	0x3cfba16b	0.030716619
35	0x3d719836	0.05898305
36	0x3dd8fa33	0.10594597
37	0x3be12412	0.006870755
38	0xbdbceee4	-0.09225252
39	0xbd69d937	-0.057091918
40	0x3d0a4281	0.03375483
41	0xbd68cfa6	-0.056838654
42	0xbda054f7	-0.07828706
43	0x3d7fc205	0.06244089
44	0x3e02f4ac	0.12788647
45	0xbdb8175f	-0.08988833
46	0xbc930860	-0.01794833
47	0xbdcb3a82	-0.09923269
48	0x3afb103e	0.0019154621
49	0x3d397fd8	0.045287937
50	0x3d73b1d3	0.05949576
51	0xbda8cf59	-0.082426734
52	0x3e73849f	0.2378106
53	0x3e6d2da0	0.23161936
54	0x3ab750aa	0.0013985832
55	0x3d398895	0.04529627
56	0xbd2bcdf3	-0.041944455
57	0xbdf4d99e	-0.1195557
58	0xbd0b7007	-0.034042384
59	0xbe09cac4	-0.13456255
60	0x3e322fd4	0.17401057
61	0x3e06e352	0.13172653
62	0xbd1fcfbb	-0.039016467
63	0xbe3ebb82	-0.18626216
64	0xbe14c66f	-0.14528821
65	0xbe8f4ed8	-0.2798984
66	0x3d1ef003	0.03880311
67	0x3e2f3b43	0.1711245
68	0xbeb95e77	-0.36204883
69	0x3f2016f5	0.6253503
70	0x3f46431f	0.7744617
71	0xbed12711	-0.40850118
72	0x3b40d54e	0.0029424015
73	0x3ca28695	0.019839564
74	0xbb59dd1b	-0.0033243361
75	0x3ac13e8c	0.0014743372
76	0xbd67c195	-0.0565811
77	0x3cb74966	0.022373866
78	0xbdfbb16f	-0.12289702
79	0xbc09e2cd	-0.00841589
80	0xbc84e385	-0.016221771
81	0x3b96de46	0.004604134
82	0x3d34d8b9	0.044151995
83	0x3d989e06	0.074520156
84	0xbd859cea	-0.065240696
85	0x3d53e1b2	0.05172891
86	0xbe1aa494	-0.15101844
87	0xbd01aa23	-0.031656396
88	0xbe047766	-0.12936172
89	0xbd9afb3a	-0.07567449
90	0xbe22e74d	-0.15908547
91	0xbe06db31	-0.13169552
92	0xbdb26fdd	-0.087127425
93	0x3c9e350b	0.019312402
94	0xbdb76443	-0.0895467
95	0xbdd37fc6	-0.10327105
96	0xbe06b3f0	-0.13154578
97	0xbbd530e0	-0.0065060705
98	0x3cabf24d	0.020989561
99	0x3d82cb25	0.06386403
100	0xbd3dd135	-0.046342093
101	0x3d0d939c	0.0345646
102	0x3e40103c	0.18756193
103	0x3de02f7c	0.10946557
104	0xbd240ed2	-0.040053196
105	0xbd3802a3	-0.04492439
106	0x3de18151	0.11010993
107	0x3d934d3c	0.07192466
108	0xbdeb83a0	-0.11499715
109	0xbe8a0919	-0.26960066
110	0x3e085915	0.13315232
111	0x3ddac1f1	0.10681523
112	0xbc1cba89	-0.009565958
113	0x3e11fac3	0.14255814
114	0x3cead375	0.028665284
115	0xbe8b9adb	-0.27266583
116	0xbec75d6f	-0.38938472
117	0x3e4ae8ce	0.1981537
118	0xbfbdd156	-1.4829509
119	0xbc337454	-0.010953028
120	0xbe03be12	-0.12865475
121	0x3d5e1a85	0.05422451
122	0xbcab22c9	-0.02089061
123	0xbd95f0fa	-0.07321353
124	0x3d8578b5	0.06517164
125	0x3dc37d2a	0.095453575
126	0xbe136ddc	-0.14397377
127	0xbcf904d7	-0.030397816
128	0xbdff5fe0	-0.124694586
129	0xbd377ec1	-0.044798616
130	0x3d6547c9	0.055976663
131	0xbe18a691	-0.1490729
132	0x3d0e67e4	0.034767047
133	0xbe3980f7	-0.18115602
134	0xbdbbdc62	-0.09172894
135	0xbd84d21b	-0.06485387
136	0xbdb1832d	-0.08667598
137	0xbdb1aa0d	-0.08675013
138	0xbd8e99be	-0.06962918
139	0x3d05c40f	0.03265768
140	0x3d204017	0.03912362
141	0x3db0936b	0.08621868
142	0x3cc52ec8	0.024070159
143	0xbd055d9e	-0.032559983
144	0x3cdee199	0.027207183
145	0x3d1a5587	0.03767922
146	0xbd74a85e	-0.05973088
147	0x3e1df4f9	0.15425481
148	0x3d73d88e	0.059532695
149	0x3d68044a	0.056644715
150	0xbde75e0d	-0.11297236
151	0xbe8c4b8b	-0.27401385
152	0xbd0f07ba	-0.034919478
153	0xbe013ba5	-0.12620409
154	0xbe3ebe06	-0.18627176
155	0xbe0e84ff	-0.13917921
156	0x3e62f44b	0.22163503
157	0xbd3442e3	-0.0440091
158	0xbe4f5575	-0.20247443
159	0x3df0c417	0.11756151
160	0x3d8920ba	0.06695695
161	0x3da92acb	0.08260115
162	0x3d20feec	0.039305612
163	0x3d6d9b3e	0.05800938
164	0x3e766402	0.24061587
165	0xbf520fb9	-0.8205524
166	0x3f0231e3	0.5085737
167	0xbf837724	-1.0270734
168	0xbcd26b6e	-0.025685992
169	0x3d9b67cf	0.07588159
170	0x3d75dca4	0.060024872
171	0x3dc135ab	0.094340645
172	0xbd72f589	-0.05931619
173	0xbe3a96e0	-0.18221617
174	0xbe4524c4	-0.19252306
175	0xbe842932	-0.2581268
176	0xbeb99246	-0.3624441
177	0xbef544cf	-0.4790406
178	0xbecbc53a	-0.3979891
179	0xbe2c77ff	-0.1684265
180	0x3d3ccd5b	0.04609428
181	0x3dcf2bfc	0.10115811
182	0x3e84599b	0.25849614
183	0x3e31aa5b	0.17350142
184	0xbd91c231	-0.07117117
185	0x3e301d40	0.17198658
186	0xbd7d8e62	-0.061903365
187	0x3e1d1b64	0.1534248
188	0x3df855d8	0.121257484
189	0x3d18aece	0.03727608
190	0xbe895a8f	-0.26826903
191	0x3f85f7e3	1.0466274
192	0x3ded035c	0.115729064
193	0x3da09521	0.07840944
194	0x3d52dfe1	0.05148304
195	0x3e0ee30e	0.13953802
196	0xbe3f4967	-0.18680345
197	0xbdcbece6	-0.09957294
198	0xbe0a9a3f	-0.13535403
199	0x3ddb7368	0.10715371
200	0x3cfb0f20	0.03064686
201	0xbe30d65e	-0.17269275
202	0xbea1777f	-0.3153648
203	0xbeceaed9	-0.40367773
204	0xbe99805d	-0.29980746
205	0xbe43e3d4	-0.19129878
206	0xbdcfde4e	-0.10149823
207	0xbd90d456	-0.0707175
208	0x3e8d9e2f	0.27659747
209	0x3df6cfb9	0.12051339
210	0x3e983c3f	0.29733464
211	0x3d85339e	0.06503986
212	0x3d9acc55	0.075585045
213	0xbd149abf	-0.03628039
214	0xbf2a4ba1	-0.6652165
215	0xbb9fb7e9	-0.0048742187
216	0x3a632f8f	0.00086664496
217	0xbce353bd	-0.02774989
218	0x3d87502c	0.066070884
219	0x3d290547	0.0412648
220	0xbccdab97	-0.025106234
221	0x3d59c152	0.05316288
222	0xbd8af28d	-0.06784544
223	0xbdba2b07	-0.09090238
224	0x3c56ae37	0.0131030595
225	0xbdd0df9a	-0.101988986
226	0x3dab07b3	0.08351078
227	0xbe0dc8bf	-0.1384611
228	0xbc9a6139	-0.018845188
229	0x3e150546	0.14552793
230	0xbda4ec7f	-0.080529206
231	0x3dc11361	0.09427524
232	0xbe0333b9	-0.128127
233	0xbdd01a78	-0.101612985
234	0x3cdfcb29	0.027318554
235	0x3c20e415	0.009820004
236	0xbe56a48e	-0.2096121
237	0xbeacb5cc	-0.3373245
238	0xbe757f02	-0.23974231
239	0xbfd0aec3	-1.6303333
240	0xbe426311	-0.18983103
241	0xbe0779ed	-0.13230105
242	0xbe3f1975	-0.18662055
243	0xbe8a9dd3	-0.27073535
244	0xbe57f986	-0.2109128
245	0xbe047f5a	-0.12939206
246	0x3d9d6ff5	0.0768737
247	0xbe79ab16	-0.2438167
248	0x3c813992	0.015774522
249	0x3dcce16a	0.10003932
250	0x3db303c8	0.087409556
251	0x3ca942c3	0.020661717
252	0xbdde9fb6	-0.10870306
253	0xbdbac35f	-0.09119295
254	0x3e71c73f	0.23611163
255	0x3dda35f6	0.106548235

linear1.bias f4 [256]
0	0xbde81d60	-0.11333728
1	0xbc99d553	-0.018778479
2	0x3d1f6c34	0.03892155
3	0xbcb5a3f5	-0.022172907
4	0xbd9dda28	-0.07707626
5	0xbd28bae2	-0.04119385
6	0xbd34b705	-0.044119854
7	0x3d976739	0.07392735
8	0x3db68726	0.08912496
9	0x3b2c808c	0.0026321737
10	0xbd06415e	-0.032777183
11	0xbcd7766d	-0.026301587
12	0xbd742f68	-0.059615523
13	0xbc7c6488	-0.015404828
14	0xbc7d0caa	-0.015444914
15	0xbcc25783	-0.02372337
16	0xbce6646f	-0.028124062
17	0xbd94969d	-0.0725529
18	0xbcd837b7	-0.026393754
19	0x3dd01ab7	0.101613455
20	0xbd2eb05e	-0.042648666
21	0xbce6eb2b	-0.028188309
22	0x00000000	0.0
23	0xbc1bc11d	-0.009506491
24	0x3bf49ff4	0.007465357
25	0x3e1534b7	0.1457089
26	0xbd5aa1b0	-0.053376853
27	0x3ca2cfe1	0.019874515
28	0x3cac55e4	0.02103705
29	0xbca3f91a	-0.020016242
30	0x3c67a52d	0.014138502
31	0x3c1e2318	0.009651922
32	0x3d82b135	0.06381456
33	0xbc87620f	-0.01652625
34	0x3d55ea0a	0.05222515
35	0xbcb16884	-0.021656282
36	0x3d4619e7	0.048364546
37	0xbbcb9c42	-0.0062136957
38	0xbd84d390	-0.06485665
39	0xbc452737	-0.012033275
40	0x3cbffc40	0.023435712
41	0xbc0f639b	-0.008751775
42	0x3da3efac	0.08004698
43	0xbd92eb02	-0.071737304
44	0xbcbfcda8	-0.023413494
45	0xbd027055	-0.03184541
46	0xbc86aa88	-0.016438738
47	0x3c40dfe6	0.011772132
48	0xbd97efaf	-0.07418763
49	0xbcd77d86	-0.026304971
50	0x3c8e279a	0.017352868
51	0xbb0123c2	-0.0019705151
52	0x3c664113	0.014053601
53	0xbc923979	-0.01784967
54	0xbdc228f7	-0.0948047
55	0xbc39c420	-0.011338264
56	0xbc06c723	-0.008226189
57	0x3a93e5f2	0.0011283739
58	0x3ae8f037	0.0017771785
59	0xbcf92bd7	-0.030416412
60	0x3c489431	0.012242363
61	0xbd0ce23f	-0.034395453
62	0x3d916658	0.07099599
63	0xbd789ddd	-0.060697425
64	0xbb5a93e8	-0.003335232
65	0xbce96494	-0.028490342
66	0x3d42d411	0.047565524
67	0xbca6dd0f	-0.02036908
68	0xbc760e12	-0.015018003
69	0xbdefa79e	-0.11701892
70	0x3d0bbce8	0.034115702
71	0x00000000	0.0
72	0xbd5facc4	-0.05460812
73	0x3d11716f	0.03550857
74	0xbc94f141	-0.018181445
75	0x3cf19cc0	0.02949369
76	0xbc3b194d	-0.011419606
77	0x3d18727c	0.037218556
78	0x3cef34e3	0.029200023
79	0xbcc97334	-0.024591066
80	0x3d3d1631	0.04616374
81	0xbd961cca	-0.0732971
82	0x00000000	0.0
83	0xbc5ba97a	-0.013407106
84	0xbd9dc802	-0.07704164
85	0xbdb01586	-0.08597855
86	0xbcda5433	-0.026651477
87	0xbc1b9fdd	-0.009498564
88	0x3d1b2e76	0.037886105
89	0x3ce7778a	0.028255243
90	0xbcf6d6f0	-0.030131787
91	0xbdc73524	-0.09726933
92	0xbc5f8b4f	-0.013644054
93	0xbc2feb77	-0.010737292
94	0xbc1a76a9	-0.009427705
95	0xbc5bfd52	-0.0134270955
96	0xbc3ed40d	-0.0116472365
97	0xbcadd652	-0.02122036
98	0x3b9a925d	0.004717155
99	0xbd446085	-0.04794361
100	0xbc835cfa	-0.016035546
101	0x3cc00275	0.023438672
102	0x3c526b71	0.012842999
103	0x3d18b8db	0.037285667
104	0xbd472eb9	-0.048628543
105	0xbc077b99	-0.008269214
106	0xbaf133df	-0.00184023
107	0xbd532626	-0.051550053
108	0x3bfc2236	0.007694508
109	0xbbb1366b	-0.0054080985
110	0x3db2e088	0.08734232
111	0xbc887b95	-0.016660491
112	0xbd8edc17	-0.069755726
113	0x3d345289	0.044024024
114	0xbca5b375	-0.020227173
115	0x3dcf4f79	0.1012258
116	0xbd1bfa79	-0.038080666
117	0xbddc998b	-0.107714735
118	0xbdd9075f	-0.10597109
119	0x3d312f59	0.043258045
120	0x3dfcc562	0.12342335
121	0xbdc8122d	-0.09769092
122	0xbc1b5b0e	-0.009482158
123	0xbcdcdf2f	-0.026961891
124	0xbbd52fed	-0.0065059573
125	0x3a824e7e	0.0009941605
126	0xbcdd30a8	-0.02700074
127	0x3c186ed5	0.009303768
128	0x00000000	0.0
129	0x3d86ff90	0.065917134
130	0x3df53780	0.119734764
131	0xbc1b1f6c	-0.009467941
132	0xbce937e0	-0.028469026
133	0x00000000	0.0
134	0xbd079ea6	-0.033110283
135	0xbd30acb7	-0.043133464
136	0x3c9c6b91	0.01909426
137	0x3bbe142f	0.005800746
138	0xbc07ebcb	-0.0082959635
139	0x3d8a5ef4	0.06756392
140	0x00000000	0.0
141	0xbcc21f38	-0.023696527
142	0x388c694a	6.695332e-05
143	0x3d963985	0.0733519
144	0x00000000	0.0
145	0x00000000	0.0
146	0xbbedd63a	-0.007258204
147	0xbd48b1c5	-0.04899766
148	0x3d28aebb	0.04118226
149	0x3d05b341	0.032641653
150	0xbd8ac814	-0.06776443
151	0xbc7ae527	-0.015313423
152	0xbc942e76	-0.01808856
153	0xbc54d84c	-0.012991022
154	0x3c529901	0.012853862
155	0x3d304f34	0.043044284
156	0x3cb6c6c4	0.022311576
157	0xbd22ec88	-0.039776355
158	0x3dd17de9	0.102290936
159	0x3c02f7d1	0.007993654
160	0xbd983cee	-0.074334964
161	0x3c1ec2c7	0.009689993
162	0x3d46552d	0.048421074
163	0xbdb4765a	-0.08811636
164	0xbd1547d6	-0.03644546
165	0xbd4dd58d	-0.050252486
166	0xbd1a386d	-0.037651468
167	0xbcca6aad	-0.02470907
168	0x3d2827e9	0.041053686
169	0x3dbcafeb	0.09213241
170	0xbcf70fa5	-0.030158827
171	0x3ac0b649	0.0014702763
172	0xbd1d8b19	-0.038462732
173	0xbb8aeb87	-0.004239503
174	0x3ce2a359	0.02766578
175	0xbd780db2	-0.060559936
176	0x00000000	0.0
177	0x3e4d5a22	0.20053914
178	0x3bdf447f	0.0068135853
179	0xbb95214b	-0.004551088
180	0x3c08b40c	0.008343708
181	0x3ca6f65a	0.020381141
182	0xbd60f6d9	-0.054922912
183	0x3cc56d76	0.024100047
184	0x3c739f2b	0.014869492
185	0xbd264f5d	-0.04060303
186	0x3e05d9d6	0.13071379
187	0x00000000	0.0
188	0xbd1e77ca	-0.03868846
189	0x3d2736d8	0.040823787
190	0xbc8820b9	-0.016617166
191	0xbbb23c4a	-0.005439316
192	0xbcf41ece	-0.029799845
193	0x3d63f0f2	0.055649705
194	0x3cc6e29a	0.024277974
195	0x3d1d8c26	0.038463734
196	0x39e6bab7	0.00044008132
197	0xbd548911	-0.05188853
198	0xba79ffe8	-0.0009536729
199	0x3d2d9d9f	0.042386647
200	0xbd2945a8	-0.041326195
201	0xbd4bd074	-0.049759343
202	0x3bd498b8	0.006487932
203	0xbd860d21	-0.06545473
204	0xbc332f79	-0.010936611
205	0xbd8ec41a	-0.06970997
206	0x3d0be943	0.034158003
207	0xbd0996af	-0.03359097
208	0xbc8fec74	-0.017568804
209	0xbd27e24d	-0.0409873
210	0xbb7c335d	-0.0038482763
211	0x3d43de31	0.04781932
212	0xbd6fa1f2	-0.058504052
213	0x3c6e11dd	0.014530626
214	0xbcb6b1a2	-0.022301499
215	0x3c5e5567	0.013570166
216	0xbcbb0eb2	-0.022834156
217	0xbd188912	-0.037240095
218	0x3b58ec59	0.0033099859
219	0xbc6ae142	-0.014335932
220	0x3d14c137	0.036317077
221	0x3bbb6780	0.0057191253
222	0x3b9ffb44	0.004882248
223	0x3db7c07a	0.08972259
224	0xbc8b63bd	-0.017015332
225	0x3b3d3921	0.0028873163
226	0xbda59a43	-0.08086064
227	0xbd1a91f8	-0.037736863
228	0x3c46bda1	0.012130172
229	0xbd6760b2	-0.0564887
230	0xbd85ec77	-0.06539243
231	0xbc9462e2	-0.018113557
232	0xbb0e8603	-0.0021747358
233	0x3d03feb2	0.03222532
234	0xbd504b0e	-0.050852828
235	0xbdc6353d	-0.09678123
236	0x3d2c68a3	0.042091977
237	0xbd08028f	-0.033205565
238	0xbd9a76c0	-0.07542181
239	0xbd826713	-0.06367316
240	0x3c5d76ae	0.013517065
241	0x3c5cf906	0.013487106
242	0xbd95b292	-0.0730945
243	0xbd3c5e2a	-0.04598824
244	0x3ca2b84a	0.019863266
245	0x3c82e20e	0.015976932
246	0x3dd7cb21	0.10536791
247	0xbd8bd357	-0.06827419
248	0x3d284504	0.041081443
249	0x3d47422a	0.048647083
250	0xbcc906d5	-0.02453939
251	0x3d34656e	0.044042043
252	0x3d1988d2	0.037483998
253	0xba0b9740	-0.0005324967
254	0x3c09c6e7	0.008409238
255	0xbb1a6be4	-0.0023562843

linear2.weight f4 [256, 256]
0	0xbeabc396	-0.33547658
1	0x3ba89d10	0.0051456764
2	0xbe47bf81	-0.19506647
3	0x3c6313c0	0.013859689
4	0xbe57a19f	-0.21057747
5	0x3d4599bd	0.04824232
6	0x3baf79cf	0.005355097
7	0x3e46d15d	0.19415803
8	0x3e70ba7f	0.23508643
9	0x3c01eb3c	0.007929619
10	0x3e802f8f	0.25036284
11	0x3d4da413	0.0502053
12	0x3e9b8d50	0.3038125
13	0xbd702a64	-0.058634177
14	0xbc90d31b	-0.017678788
15	0x3e45d12a	0.19318071
16	0xbdae801d	-0.085205294
17	0xbd1f4252	-0.038881607
18	0xbf4541d6	-0.7705358
19	0x3a8ff2ff	0.0010982453
20	0x3b98e9ef	0.004666559
21	0xbd636e5c	-0.05552517
22	0xbbff9680	-0.0077999234
23	0x3d2af476	0.041737042
24	0xbd8adfa4	-0.06780937
25	0xbd4ca820	-0.049965024
26	0x3e0386fa	0.12844458
27	0x3d1297e6	0.035789393
28	0x3ecee305	0.40407577
29	0xbe2bbf59	-0.16772212
30	0x3df9acb0	0.12191141
31	0x3f112e6b	0.56711453
32	0xbed3098e	-0.41218227
33	0x3d63b1d2	0.055589505
34	0xbd80bc15	-0.06285874
35	0xbed9049a	-0.42386323
36	0xbdd44c66	-0.10366134
37	0x3c9cce44	0.019141324
38	0x3eb33d85	0.35007873
39	0xbeac7522	-0.33683115
40	0x3e7ebbe3	0.2487636
41	0xbf1c8fd9	-0.61156994
42	0x3e894f9e	0.26818556
43	0x3d8eaaeb	0.06966194
44	0xbe5f3d8d	-0.21800824
45	0xbebc0c6b	-0.36728224
46	0xbe896a11	-0.26838735
47	0x3e0552f1	0.13019921
48	0xbf2d9625	-0.6780723
49	0xbc5a0e0c	-0.013309013
50	0xbce05dbb	-0.027388444
51	0xbdb55817	-0.088546924
52	0x3e88c688	0.26713967
53	0x3e2db652	0.16964081
54	0x3e4d5c09	0.2005464
55	0xbf015f9e	-0.50536525
56	0x3e7a8f2b	0.24468677
57	0xbe90a2dc	-0.28249252
58	0xbda9cff9	-0.08291621
59	0x3da633e0	0.08115363
60	0x3e65ec93	0.22453527
61	0xbd73fab7	-0.059565272
62	0x3d231215	0.039812166
63	0xbd531452	-0.05153305
64	0xbead19d1	-0.3380876
65	0x3b5dcee0	0.003384523
66	0x3c75dceb	0.015006284
67	0xbeeedd2b	-0.46653113
68	0xbd399af8	-0.045313805
69	0xbe83dced	-0.2575449
70	0xbe861b3f	-0.26192662
71	0xbd008abc	-0.031382307
72	0xbe79ada4	-0.24382645
73	0x3e944b83	0.2896386
74	0xbf010585	-0.5039905
75	0xbe5a11f2	-0.21295908
76	0xbdc84543	-0.097788356
77	0x3eaf526f	0.3424258
78	0xbe0e4765	-0.13894422
79	0x3d50937e	0.05092191
80	0x3e5783d6	0.21046385
81	0xbdb0a409	-0.08625037
82	0xbdd6e0fc	-0.10492131
83	0xbd890639	-0.0669064
84	0xbdd935bd	-0.10605953
85	0xbe881ce6	-0.26584548
86	0x3dbeb9fa	0.09312816
87	0x3dd678cf	0.10472261
88	0xbe264418	-0.16236913
89	0xbf36eb74	-0.7145302
90	0xbd99a3de	-0.07501958
91	0x3cc3b155	0.02388827
92	0x3ea374a3	0.31924924
93	0xbe943868	-0.28949285
94	0xbd119f4c	-0.035552308
95	0x3dd69eed	0.104795314
96	0x3eb2871a	0.348687
97	0xba8e629a	-0.0010863126
98	0x3d9ad8c7	0.07560878
99	0xbd335acf	-0.043787774
100	0x3f032a2c	0.51236224
101	0x3d12ab1b	0.03580771
102	0xbed5223c	-0.4162768
103	0x3d91792d	0.071031906
104	0xbe890cd3	-0.26767597
105	0xbe3c3899	-0.18380965
106	0xbc1daec5	-0.009624188
107	0x3d4b59af	0.049646076
108	0x3f1d63df	0.61480516
109	0xbce3a23e	-0.027787324
110	0xbca230c1	-0.019798638
111	0x3dc100ff	0.09424018
112	0xbd2c7e31	-0.042112533
113	0xbd785e19	-0.060636614
114	0xbe387ade	-0.1801562
115	0x3e4fbe45	0.20287426
116	0xbd830f17	-0.063993625
117	0xbea9eb1c	-0.33187187
118	0xbe9459e8	-0.28974843
119	0x3e0e3379	0.13886823
120	0x3d472de7	0.04862776
121	0x3e96bdc6	0.2944166
122	0xbc56aeed	-0.013103229
123	0x3d147596	0.03624495
124	0xbedaed82	-0.4275933
125	0x3eaf065f	0.34184548
126	0xbccf9078	-0.025337443
127	0x3e580c72	0.21098498
128	0xbda49dbc	-0.08037898
129	0xbd21fc9b	-0.039547544
130	0x3d3a60c3	0.045502435
131	0x3ccba9ac	0.02486118
132	0x3c9c77dc	0.019100122
133	0x3d51d866	0.051231764
134	0x3cb4324c	0.02199664
135	0x3e08472a	0.13308397
136	0x3cfadd05	0.030622968
137	0x3f13f117	0.5778975
138	0xbcfb2722	-0.030658308
139	0x3d3239c5	0.043512125
140	0x3bede680	0.0072601438
141	0xbe19f263	-0.1503387
142	0x3d59ed0a	0.053204574
143	0xbda1f31e	-0.07907699
144	0xbc39e028	-0.011344947
145	0xbdb1e5d2	-0.08686413
146	0xbe2cdcef	-0.16881154
147	0x3dc3f6eb	0.0956858
148	0x3ce34549	0.027742999
149	0xbedb894e	-0.42878193
150	0x3dab8f0a	0.08376892
151	0xbc67495d	-0.014116612
152	0x3e263a54	0.16233188
153	0xbe5828cb	-0.21109311
154	0xbe92cc3f	-0.28671452
155	0x3e30088d	0.17190762
156	0x3db348ee	0.087541446
157	0xbe99a4ea	-0.30008632
158	0x3e9c3588	0.3050959
159	0xbddf7ba2	-0.10912253
160	0x3dcfc148	0.10144287
161	0x3e585fd6	0.21130309
162	0xbe68a397	-0.22718655
163	0xbeba050f	-0.36331984
164	0x3e95693e	0.29181856
165	0x3de89bf8	0.11357874
166	0xbebb25a3	-0.36552152
167	0xbd8f712e	-0.07004009
168	0xbe743147	-0.23846923
169	0x3e8ae581	0.27128223
170	0x3e04df15	0.12975724
171	0xbe9bf8d5	-0.3046328
172	0xbcd85a29	-0.02641018
173	0x3db9df48	0.09075791
174	0x3df68208	0.1203652
175	0x3e0ea69a	0.13930741
176	0xbda443ef	-0.0802077
177	0x3e0e3135	0.13885958
178	0xbf5e6df8	-0.8688655
179	0x3eded6a9	0.43523148
180	0xbe91be82	-0.28465658
181	0x3e1f3a5c	0.15549606
182	0xbe06c81c	-0.13162273
183	0xbe594bb0	-0.21220279
184	0x3eb0eac5	0.34554115
185	0x3d15783f	0.03649163
186	0xbe8f9f9a	-0.28051454
187	0x3dda3a21	0.106556185
188	0xbdf86d4c	-0.12130222
189	0xbe729ebd	-0.23693366
190	0xbe8d9445	-0.27652183
191	0xbf240e6c	-0.64084506
192	0x3d49afcd	0.049239922
193	0xbe3c20f4	-0.18371946
194	0xbe12bc0d	-0.14329548
195	0x3e6199dc	0.22031349
196	0xbf4199ae	-0.7562512
197	0x3e94eee7	0.29088518
198	0x3c363c5d	0.01112279
199	0x3f031d55	0.5121663
200	0x3dc6d28f	0.097081296
201	0x3d4c4347	0.04986885
202	0xbe3b8638	-0.18312919
203	0xbd20d476	-0.03926512
204	0x3e29f073	0.1659563
205	0xbdc064c6	-0.09394221
206	0xbe827e63	-0.2548705
207	0xbf30e9ff	-0.6910705
208	0xbdd65c87	-0.10466867
209	0xbdf2b1ce	-0.1185032
210	0xbdfef0ee	-0.124482974
211	0xbef089c3	-0.46980104
212	0xbdbc3b2e	-0.09190975
213	0xbcf066be	-0.029345866
214	0xbd67cd4d	-0.056592274
215	0xbe316a6a	-0.1732575
216	0xbe3a43f0	-0.18189979
217	0xbe549e9f	-0.20763634
218	0xbab8072b	-0.0014040222
219	0x3dcc5505	0.09977154
220	0xbebd11db	-0.36927685
221	0xbdf2c7df	-0.11854529
222	0xbe5fb539	-0.21846475
223	0xbe1cb393	-0.15302877
224	0x3c2d2ae0	0.010569304
225	0xbe419383	-0.18903928
226	0xbecfef30	-0.40612173
227	0xbe80dd35	-0.25168768
228	0xbdc9ee3e	-0.09859894
229	0x3d78f8f5	0.0607843
230	0xbe06d74d	-0.13168068
231	0xbe77254a	-0.24135318
232	0xbe85c0f1	-0.26123765
233	0xbd5d3ee3	-0.05401505
234	0x3cac4a73	0.021031594
235	0xbe34c305	-0.17652519
236	0xbe8a907f	-0.27063367
237	0xbe5d2b5f	-0.21598576
238	0x3ec52b4c	0.38509595
239	0xbf34ec7e	-0.7067336
240	0x3e0a6f61	0.1351905
241	0xbe758433	-0.23976211
242	0xbebe89d2	-0.37214524
243	0x3d1546c8	0.036444455
244	0x3d144112	0.03619487
245	0xbea3e92a	-0.32013828
246	0xbf29e2b4	-0.66361547
247	0xbe2b7eaa	-0.16747537
248	0xbd9365f2	-0.07197179
249	0x3d7e9f2f	0.062163528
250	0xbe94b518	-0.29044414
251	0xbe8be24e	-0.27321094
252	0xbec8c404	-0.39212048
253	0xbd10a192	-0.035310335
254	0xbc4b9247	-0.012425012
255	0xbe79536f	-0.24348234

linear2.bias f4 [256]
0	0xbe6fadfa	-0.2340621
1	0x3da68a7b	0.08131882
2	0x3dab69b1	0.083697684
3	0xbd2a9ddc	-0.041654453
4	0x3dffd3a6	0.124915406
5	0xbdb52d5b	-0.088465415
6	0x3dbdf0d2	0.092744485
7	0x3da34a9c	0.07973215
8	0x3deef987	0.11668687
9	0xbe9508ef	-0.29108378
10	0x3e61962d	0.22029944
11	0x3d0196d0	0.031637967
12	0xbd422f0f	-0.04740816
13	0x3e20764f	0.15670131
14	0x3d882919	0.06648464
15	0xbd5f55a5	-0.054525036
16	0x3dbc774a	0.0920244
17	0x3d8ebb6c	0.06969342
18	0x3ecacd33	0.3960968
19	0x3d335845	0.043785352
20	0xbe399b3e	-0.18125626
21	0x3ceae30f	0.028672723
22	0x3e6ba999	0.23013915
23	0x3bc561fb	0.006023643
24	0xbd762057	-0.060089435
25	0x3de703f6	0.11280052
26	0x3d0a6635	0.03378888
27	0xbc155836	-0.009115269
28	0xbdda2057	-0.106506996
29	0x3e2ca289	0.16858877
30	0xbe25dcf7	-0.16197573
31	0x3d5454b1	0.05183858
32	0x3db2ec3c	0.087364644
33	0xbce9a57d	-0.028521294
34	0x3aa537b5	0.0012605103
35	0xbdfa8048	-0.12231499
36	0xbd4fcf4b	-0.0507348
37	0x3da7eb56	0.08199184
38	0x3d1951cc	0.037431523
39	0x3cff73f7	0.031183226
40	0x3d6e5196	0.058183275
41	0x3dc011d6	0.09378402
42	0xbc9989df	-0.0187425
43	0x3d013eb0	0.031553924
44	0xbc770889	-0.0150777185
45	0xbe2a9dfc	-0.16661829
46	0xbd662d2a	-0.056195416
47	0xbd95d0cc	-0.073152155
48	0xbc8ee254	-0.017441906
49	0xbc99f641	-0.01879418
50	0xbdc9f8fd	-0.09861944
51	0xbd234a1d	-0.0398656
52	0x3d20c8cf	0.039254006
53	0xbd2ad4e0	-0.04170692
54	0x3e02735d	0.1273932
55	0xbd14f765	-0.036368746
56	0x3bd0481d	0.006356253
57	0xbe2c361c	-0.16817516
58	0xbcc80465	-0.024416158
59	0x3ca2b5fb	0.019862166
60	0x3dde7c87	0.108635955
61	0x3d63565b	0.055502277
62	0xbd8d9892	-0.06913866
63	0x3dc13a4d	0.09434948
64	0x3d86531f	0.06558823
65	0xbd947522	-0.07248904
66	0x3e3208af	0.17386125
67	0xbd20cf4c	-0.039260194
68	0xbe57973c	-0.21053785
69	0xbd855c1c	-0.06511709
70	0xbaa2d7c9	-0.0012423928
71	0xbe989b4c	-0.29805982
72	0x3dd02d45	0.101648845
73	0x3d891269	0.066929646
74	0xbdca3aa4	-0.09874466
75	0x3da52396	0.08063428
76	0x3e12ca46	0.14334974
77	0xbe9f4237	-0.31105205
78	0xbcfd5d06	-0.030928146
79	0xbda9afd2	-0.08285488
80	0x3de6a6d8	0.11262292
81	0x3ca0a507	0.019609941
82	0xbd1f3d8d	-0.03887706
83	0xbd191bab	-0.0373799
84	0xbdb833d3	-0.0899426
85	0xbd2f8baf	-0.042857822
86	0x3e30cd98	0.17265928
87	0xbdae9de6	-0.085262105
88	0xbe015c18	-0.12632787
89	0x3d468a1b	0.04847155
90	0x3cd45f73	0.02592442
91	0xbc3e880c	-0.011629116
92	0xbc9c4078	-0.01907371
93	0xbd3161d6	-0.043306194
94	0xbb29b8d8	-0.002589753
95	0x3ca0b6a2	0.019618336
96	0xbe95b8c9	-0.29242542
97	0xbe5a8ea4	-0.21343476
98	0xbe34c701	-0.17654039
99	0x3e05b12a	0.13055864
100	0xbcb86d57	-0.022513075
101	0x3dc4dcb9	0.09612412
102	0xbc87d2ae	-0.016579952
103	0xbd5efda6	-0.054441117
104	0x3e577e1b	0.21044199
105	0x3d7a1ec5	0.0610645
106	0x3e81d3b9	0.25356844
107	0x3d82b42b	0.063820206
108	0x3db7ca82	0.08974172
109	0x395ea103	0.00021231551
110	0xbcb9e9cb	-0.022694489
111	0xbc326892	-0.010889189
112	0x3e15dff4	0.14636213
113	0x3d8ba1c8	0.06817967
114	0x3d7c4456	0.061588608
115	0x3c1741b9	0.009231978
116	0xbd4d1973	-0.0500731
117	0xbdd0a112	-0.10186972
118	0x3c93e7ad	0.018054808
119	0x3dcbb15f	0.0994594
120	0x3e289cad	0.16466017
121	0x3e21dc2e	0.15806648
122	0xbdbee377	-0.09320729
123	0xbcc30b0e	-0.023808982
124	0xbdbe765f	-0.09299921
125	0x3dcdb862	0.10044934
126	0x3e7fdca2	0.24986508
127	0x3cd0d362	0.02549142
128	0xbccce41f	-0.02501112
129	0x3e39a73f	0.18130206
130	0x3e0bb9fe	0.13645169
131	0x3e459c8f	0.19298004
132	0xbd9768e6	-0.07393055
133	0xbd669100	-0.056290627
134	0xbcd06bd3	-0.02544204
135	0xbdbfdeac	-0.09368643
136	0x3e9e5abe	0.30928606
137	0xbd08ed55	-0.033429462
138	0xbe9a3b4d	-0.30123368
139	0x3e5d8209	0.21631636
140	0xbd7fcbb5	-0.06245013
141	0x3dd81781	0.10551358
142	0xbd65d131	-0.056107704
143	0xbd12da0b	-0.035852473
144	0x3d568b11	0.052378718
145	0xbd5787c4	-0.05261971
146	0x3e2483e0	0.16065931
147	0xbb8fc661	-0.0043876623
148	0x3dda93f4	0.10672751
149	0x3e4159a5	0.18881853
150	0x3c3251ce	0.010883762
151	0xbe570611	-0.20998408
152	0x3c9c5edd	0.019088203
153	0x3f0c9d1b	0.54927224
154	0xbd5eef15	-0.054427225
155	0xbd9107a4	-0.070815355
156	0xbdbaed7c	-0.09127328
157	0x3f21c538	0.63191557
158	0xbe720f16	-0.23638567
159	0x3e563a36	0.20920643
160	0x3dde4356	0.10852687
161	0xbd0bbd19	-0.034115884
162	0x3dabff32	0.08398284
163	0x3d7b4021	0.061340455
164	0x3d8e0d12	0.06936087
165	0xbd460fb7	-0.04835483
166	0x3e1c52b4	0.15265924
167	0x3debb41d	0.11508963
168	0xbe4f3b48	-0.20237458
169	0xbd93e380	-0.072211266
170	0xbeaba48f	-0.33523986
171	0xbe07137e	-0.1319103
172	0xbd3d1051	-0.04615814
173	0xbb989ffe	-0.0046577444
174	0xbda51ab5	-0.080617346
175	0xbccd855b	-0.025088003
176	0xbd471d1d	-0.04861175
177	0xbe5e2a71	-0.21695878
178	0xbb664a35	-0.0035139446
179	0x3d56a246	0.05240085
180	0x3d84b62d	0.0648006
181	0xbddac724	-0.10682514
182	0xbe2b0280	-0.16700172
183	0xbdbaa6f1	-0.09113873
184	0xbdadf930	-0.08494794
185	0x3d0d53b1	0.034503642
186	0xbdc10c61	-0.09426189
187	0xbd6276f5	-0.055289228
188	0x3d6b9008	0.057510406
189	0x3d9aa923	0.075517915
190	0xbdddd8e0	-0.10832381
191	0xbc8d9fd5	-0.017288128
192	0xbcd9dae0	-0.026593626
193	0x3e1d9269	0.15387882
194	0xbdd9ea47	-0.10640388
195	0x3d80eba9	0.062949486
196	0xbde978d9	-0.11400003
197	0xbcd5ab7d	-0.026082749
198	0x3eb19050	0.34680414
199	0x3aaab3dd	0.0013023574
200	0xbd044daa	-0.03230063
201	0x3c9f14c6	0.019419085
202	0xbc1ad5b1	-0.009450362
203	0xbdc49a21	-0.0959971
204	0xbd36625e	-0.044527404
205	0x3c990ef8	0.018683895
206	0xbe60ae4f	-0.21941493
207	0x3e034600	0.12819672
208	0xbd4d2f54	-0.050093964
209	0x3dc3a361	0.095526464
210	0xbd5b365a	-0.05351863
211	0xbdbc992e	-0.09208904
212	0x3cfa1564	0.030527778
213	0xbd688c88	-0.056774646
214	0x3e3bd62a	0.18343416
215	0xbddd489f	-0.10804867
216	0x3d6a80fd	0.05725192
217	0x3e265290	0.16242433
218	0xbc4a06a8	-0.012330689
219	0xbc3b57ab	-0.011434476
220	0x3c93aac1	0.018025758
221	0xbdcb9a6c	-0.09941563
222	0xbd5707d3	-0.052497696
223	0x3e8f50c3	0.27991304
224	0xbdd085b5	-0.101817526
225	0xbd0f148f	-0.034931716
226	0x3d3dee7b	0.04637001
227	0x3e11a4a2	0.14222959
228	0xbd59a106	-0.05313208
229	0xbdd7a417	-0.105293445
230	0x3dee9d75	0.11651126
231	0x3d87b5bf	0.06626462
232	0x3dd10d60	0.10207629
233	0xbd979d93	-0.07403102
234	0x3e29d145	0.16583736
235	0xbdb7473a	-0.08949132
236	0xbbe034cf	-0.006842233
237	0xbbf7ca98	-0.007561993
238	0x3e646fb9	0.22308244
239	0x3d6c89f8	0.057748765
240	0x3cce0837	0.025150402
241	0x3d8ade2f	0.067806594
242	0x3e2c5322	0.16828588
243	0x3e2376f6	0.15963349
244	0x3c279980	0.010229468
245	0xbd87989e	-0.06620906
246	0x3e930e8a	0.2872203
247	0xbc813610	-0.01577285
248	0x3dfd4346	0.12366347
249	0xbd8246b6	-0.06361143
250	0x3c8fbc23	0.017545765
251	0xbca86666	-0.02055664
252	0x3d8e4f93	0.06948771
253	0xbf1b3b02	-0.60636914
254	0xbdde6ed7	-0.10860985
255	0x3e83d172	0.25745732

mean_linear.weight f4 [2, 256]
0	0xbedfb516	-0.43692845
1	0xbeddf4e6	-0.43350905
2	0x3db9fc5b	0.09081336
3	0xbcd09f20	-0.025466502
4	0x3d5bd3c7	0.053668763
5	0xbf0ebebb	-0.5575978
6	0x3ef7027d	0.48244086
7	0x3f641935	0.8910096
8	0x3e82a5ff	0.2551727
9	0xbe8f1454	-0.27945197
10	0x3f2eab1f	0.6822986
11	0xbe256ae9	-0.16154064
12	0xbc3b07da	-0.011415446
13	0x3f03416a	0.5127169
14	0x3ec11254	0.37709296
15	0x3d557e3b	0.052122336
16	0x3ea0c9b0	0.31403875
17	0x3f1ec3e8	0.6201768
18	0x3e9598be	0.29218096
19	0xbe53b15a	-0.20673123
20	0x3e99e10c	0.3005451
21	0x3efc91bd	0.4932994
22	0x3ea1b318	0.3158195
23	0xbe542d16	-0.20720324
24	0xbe70d682	-0.23519328
25	0xbf25e0eb	-0.6479632
26	0xbe5db108	-0.21649563
27	0xbe9fd6d0	-0.31218576
28	0x3e957098	0.29187465
29	0xbf84a2d4	-1.0362191
30	0xbebd12c3	-0.36928377
31	0x3e6d2676	0.23159203
32	0x3f54776d	0.8299473
33	0x3cb03f06	0.021514427
34	0x3da6be49	0.08141763
35	0x3ed7324f	0.4203057
36	0x39c9e9f9	0.0003851203
37	0xbf39815b	-0.72463006
38	0x3f467373	0.7751991
39	0xbf0370b9	-0.51343876
40	0xbe9367b5	-0.2879006
41	0x3f608a7f	0.8771133
42	0x3e3566a0	0.1771493
43	0xbef51fed	-0.4787592
44	0xbf1cb434	-0.6121247
45	0xbda5f4bc	-0.0810332
46	0xbd9af38a	-0.07565983
47	0x3e018b76	0.12650856
48	0x3e80c24f	0.25148246
49	0xbd79e45a	-0.06100879
50	0x3ea55118	0.32288432
51	0x3c878e46	0.016547333
52	0xbeffddc3	-0.49973878
53	0x3d993d97	0.074824505
54	0xbdffb5e2	-0.12485863
55	0x3e335638	0.17513359
56	0x3e1c19b1	0.15244175
57	0x3ee5eac5	0.44905677
58	0xbf866d8a	-1.0502179
59	0x3d2c3390	0.04204136
60	0xbf6b777f	-0.9197921
61	0x3ecaeb4c	0.39632642
62	0xbef9ef1d	-0.4881524
63	0xbe547445	-0.20747478
64	0x3f09734a	0.5369154
65	0x3f7c1e95	0.98484164
66	0x3ec3cf5a	0.38244134
67	0xb907a52f	-0.00012936139
68	0x3dd5db6e	0.104422435
69	0x3ea1aea9	0.31578568
70	0xbf3c0e88	-0.7345967
71	0x3e6844d4	0.22682506
72	0xbe3b37ff	-0.1828308
73	0x3ebc501c	0.3677987
74	0xbe36dc70	-0.17857528
75	0xbeb863a2	-0.36013514
76	0x3ee7be97	0.45262596
77	0xbded7a28	-0.11595565
78	0x3e3a3116	0.18182787
79	0xbf29fe7f	-0.66403955
80	0xbe034cb5	-0.1282223
81	0xbe586a85	-0.21134384
82	0xbe31502d	-0.17315741
83	0x3ebcd5e5	0.3688194
84	0xbe1ac0c1	-0.15112592
85	0xbe0b9c13	-0.13633756
86	0xbfab4841	-1.3381425
87	0xbf05a0ee	-0.52198684
88	0xbea70467	-0.32620546
89	0xbea00dce	-0.31260532
90	0xbd82ceb4	-0.06387082
91	0xbd714edf	-0.058913108
92	0xbf39d465	-0.72589713
93	0xbd59e952	-0.053201027
94	0xbe877bef	-0.2646174
95	0x3ebe550d	0.37174264
96	0xbde2b4f0	-0.11069667
97	0x3e707247	0.23481093
98	0xbe90aff0	-0.2825923
99	0x3f0ff1fb	0.5622861
100	0x3ef389de	0.47566122
101	0xbd23e69d	-0.04001485
102	0x3eeff864	0.46869195
103	0x3d9991f0	0.074985385
104	0x3e1f141c	0.15535015
105	0xbd8e1c86	-0.06939034
106	0xbf01276b	-0.5045077
107	0x3d97eb36	0.0741791
108	0x3dec691d	0.11543486
109	0x3e8350bb	0.2564753
110	0xbe9463d5	-0.28982416
111	0x3eaed0ba	0.3414362
112	0xbeac3437	-0.33633587
113	0x3ec765a0	0.3894472
114	0x3e21c692	0.15798405
115	0x3e87d6ae	0.26530975
116	0xbf39c21f	-0.7256183
117	0xbe274425	-0.16334589
118	0x3ea8185c	0.32831085
119	0xbed107d3	-0.40826282
120	0x3e449722	0.19198278
121	0x3ba06c1f	0.0048957015
122	0xbf55f993	-0.83583945
123	0xbdbd2618	-0.092357814
124	0xbe39f285	-0.1815892
125	0xbf7bc546	-0.9834789
126	0xbdf7fa4d	-0.12108288
127	0x3f60ab96	0.8776182
128	0x3e99ba82	0.30025107
129	0xbdbd3034	-0.0923771
130	0x3e8c7464	0.2743255
131	0x3ece736b	0.40322432
132	0xbcb54d4d	-0.022131586
133	0xbe7af900	-0.24509048
134	0xbe06697e	-0.1312618
135	0xbdf28022	-0.11840846
136	0x3e768129	0.24072708
137	0xbcfd4d72	-0.030920718
138	0x3e325ec7	0.17418967
139	0x3e111a55	0.14170201
140	0xbeeafc20	-0.4589548
141	0xbf140d4c	-0.5783279
142	0xbc8c5568	-0.017130569
143	0x3ddb6ec2	0.10714485
144	0x3ecf7ec2	0.40526396
145	0xbda5e281	-0.08099843
146	0x3f81e3fa	1.0147698
147	0x3f155387	0.5833058
148	0x3f353ab0	0.70792675
149	0xbf1d8270	-0.61527157
150	0x3ea90d96	0.33018178
151	0x3d62f7be	0.055412047
152	0xbd4f1e7b	-0.050566178
153	0xbdf52714	-0.11970344
154	0x3f245f74	0.6420815
155	0x3a8ec78b	0.0010893209
156	0xbdc4f578	-0.09617132
157	0xbde6ad95	-0.11263577
158	0xbdb10a8e	-0.08644591
159	0x3f48282a	0.78186285
160	0x3ccca7ed	0.024982417
161	0xbd4b68e5	-0.049660582
162	0x3eb906cc	0.36137998
163	0xbe7491db	-0.23883764
164	0xbf2d1bea	-0.6762072
165	0xbe4f5b7f	-0.20249747
166	0xbf507e6b	-0.814429
167	0xbe677c03	-0.226059
168	0xbe25a3fd	-0.16175838
169	0xbcfdd9f3	-0.030987715
170	0x3eaf88d9	0.34284094
171	0xbce8f719	-0.028438138
172	0xbd26ba24	-0.04070486
173	0x3e981050	0.29699945
174	0xbd89e28e	-0.06732665
175	0x3e2a9d76	0.16661629
176	0xbce786c2	-0.0282625
177	0xbda212bf	-0.07913732
178	0x3f368c0d	0.7130745
179	0x3e9eebd9	0.31039312
180	0xbed03936	-0.40668648
181	0xbf46276e	-0.77403915
182	0xbd82657e	-0.06367014
183	0xbe3133b8	-0.17304885
184	0x3e0c8903	0.13724141
185	0xbe3436a8	-0.17598975
186	0x3dc8955a	0.097941115
187	0xbe79be2c	-0.24388951
188	0x3e991758	0.29900622
189	0x3d8dd89b	0.0692608
190	0x3df9b70e	0.12193118
191	0x3d4a9b67	0.04946461
192	0xbf0aac24	-0.54168916
193	0xbe2cf8aa	-0.16891733
194	0xbd902649	-0.07038552
195	0x3e7a2eee	0.24431965
196	0xbd202ce0	-0.039105296
197	0x3e373c21	0.17894031
198	0xbe7fcfa7	-0.24981557
199	0x3e331bd8	0.1749109
200	0xbd7d797e	-0.061883442
201	0x3c0b3ccf	0.008498385
202	0xbbff057e	-0.007782637
203	0x3efca629	0.4934552
204	0xbef9149e	-0.48648542
205	0x3e939467	0.2882416
206	0xbf143503	-0.5789339
207	0x3f6b321e	0.9187335
208	0x3d8873ce	0.06662713
209	0x3e2bc0e8	0.16772807
210	0x3e22b595	0.1588958
211	0xbf2ff02e	-0.6872586
212	0x3e982ccb	0.29721674
213	0xbda81a82	-0.08208181
214	0xbe96bdce	-0.29441684
215	0xbebebbd8	-0.37252688
216	0x3e8a266e	0.26982445
217	0x3d8aeab0	0.06783044
218	0x3e364cb2	0.17802694
219	0xbf7c73f0	-0.98614407
220	0xbe9ea0a5	-0.30981937
221	0x3dc5d2f2	0.09659375
222	0x3eda37ab	0.42620596
223	0x3e5bb50c	0.21455783
224	0xbcb8a0d2	-0.022537623
225	0x3df86c3e	0.121300206
226	0xbf08887c	-0.5333326
227	0xbe71ab0f	-0.2360041
228	0xbcb8ba2d	-0.022549713
229	0xbabf6b07	-0.001460404
230	0xbc802824	-0.01564414
231	0xbf402308	-0.75053453
232	0x3b4a5aed	0.003087695
233	0xbe74610e	-0.23865148
234	0xbea4a138	-0.3215425
235	0xbeb6b2d7	-0.3568332
236	0xbec414b8	-0.38297057
237	0x3f3c3b04	0.7352755
238	0x3e5c40c1	0.21509077
239	0x3e809823	0.2511607
240	0x3f532239	0.82474095
241	0x3fa69534	1.3014283
242	0xbebefaea	-0.37300807
243	0x3f54c13e	0.83107364
244	0xbe0dc94f	-0.13846324
245	0xbc8e6724	-0.017383166
246	0xbcef6de2	-0.0292272
247	0xbe45c163	-0.19312052
248	0xbfa7b6a0	-1.3102608
249	0xbe902a7c	-0.28157413
250	0x3f002fa1	0.50072676
251	0x3eedb2e3	0.46425542
252	0x3d6ead5a	0.05827079
253	0xbe195b3b	-0.14976208
254	0x3d1b77ed	0.037956167
255	0x3e26991b	0.16269343

mean_linear.bias f4 [2]
0	0x3c31a85c	0.010843363
1	0x3c78a0ab	0.015175025

log_std_linear.weight f4 [2, 256]
0	0x3d927de8	0.07152921
1	0xbe8c2d72	-0.27378422
2	0x3c2cea08	0.010553844
3	0xba13d0e9	-0.0005638735
4	0xbdb8798f	-0.090075605
5	0x3e2fe639	0.17177667
6	0x3ea5121e	0.32240385
7	0x3e0b9af9	0.13633336
8	0x3d4f75f3	0.050649595
9	0x3d24fa16	0.040277563
10	0xbdf4df66	-0.11956672
11	0x3c7835fb	0.015149589
12	0xbdb19a39	-0.08671994
13	0xbcf3721a	-0.029717494
14	0xbd2e300c	-0.04252629
15	0x3c92b513	0.017908609
16	0x3c86f2c0	0.016473174
17	0x3d95866d	0.0730103
18	0xbd5f0727	-0.05445018
19	0x3cac35e5	0.021021793
20	0xbdbab582	-0.09116651
21	0x3d2f46fa	0.042792298
22	0xbdfb7676	-0.12278454
23	0x3d81ad5c	0.06331894
24	0x3cd0580a	0.025432605
25	0x3d0e349e	0.03471815
26	0xbc46ffdc	-0.012145963
27	0x3da3d6f5	0.07999984
28	0x3c970648	0.018435612
29	0x3f0463be	0.51714694
30	0x3db043b3	0.086066626
31	0x3e971ec2	0.29515654
32	0x3edad007	0.42736837
33	0x3e17dda3	0.14830641
34	0x3cd70e99	0.026252078
35	0xbb68180e	-0.0035414728
36	0xbcc7ca0a	-0.024388332
37	0x3da64c36	0.08120005
38	0x3efe687a	0.49689084
39	0x3d5e0121	0.054200295
40	0x3d8b168d	0.067914106
41	0x3e6ced62	0.2313743
42	0xbc7c05aa	-0.01538221
43	0x3e049ee0	0.12951231
44	0x3d169b84	0.036769405
45	0xbc2bccd3	-0.010485846
46	0xbd6974ce	-0.05699616
47	0x3c271816	0.010198614
48	0x3ea4e67a	0.3220709
49	0x3dab4b34	0.08363953
50	0xbd741e8c	-0.059599444
51	0xbd580299	-0.052736852
52	0x3e0a76ac	0.13521832
53	0x3e185ff4	0.14880353
54	0xbdc7643e	-0.097359166
55	0x3de6b297	0.11264532
56	0xbc95d3ea	-0.018289525
57	0xbd86996d	-0.065722324
58	0x3e3b1a22	0.18271688
59	0x3d53e8d0	0.0517357
60	0x3cc693e7	0.024240447
61	0x3dd69006	0.10476689
62	0x3e25ff96	0.1621078
63	0x3cfecd17	0.031103654
64	0x3dbbbfca	0.0916744
65	0x3e8aad8c	0.2708553
66	0xbd9cde2e	-0.07659565
67	0xbda90a36	-0.08253901
68	0x3d2b1c96	0.04177531
69	0xbd12b376	-0.03581568
70	0x3dc51c57	0.09624546
71	0xbc53ffac	-0.012939375
72	0x3e201404	0.15632635
73	0x3e3ac0bb	0.18237583
74	0xbc4f7019	-0.0126610035
75	0x3d45358d	0.048146773
76	0x3bc74684	0.006081404
77	0x3d3cfbb7	0.04613849
78	0xbdcedd85	-0.10100845
79	0x3ea5546b	0.32290968
80	0x3d080107	0.033204105
81	0x3cdfb721	0.027309002
82	0x3d088794	0.033332422
83	0xbdae453b	-0.085092984
84	0xbc571453	-0.013127404
85	0x3dccdd60	0.100031614
86	0x3cf92bfd	0.030416483
87	0x3e64f6c3	0.22359757
88	0x3c99f53d	0.018793697
89	0x3cab9fe6	0.020950269
90	0xbd995dad	-0.0748857
91	0x3e34cb1d	0.17655607
92	0x3f08994e	0.53358924
93	0x3d84c3e6	0.06482677
94	0x3df46902	0.11934091
95	0x3d9a39e2	0.075305715
96	0x3c0b5491	0.008504049
97	0xbcd548c3	-0.026035672
98	0x3e06f7bc	0.1318044
99	0x3e57bfec	0.21069306
100	0x3dba732a	0.09103997
101	0xbc9bba94	-0.019009866
102	0x3e3f5d62	0.18687966
103	0xbd128905	-0.035775203
104	0xbdd93b7c	-0.10607049
105	0xbd9a9dac	-0.07549605
106	0x3dcbe9a7	0.09956675
107	0x3bd468d8	0.006482225
108	0x3d5f1f54	0.054473236
109	0x3ea2fe39	0.31834581
110	0x3d258306	0.040408157
111	0xbc37d32b	-0.01121978
112	0x3d1b8c14	0.037975386
113	0x3c9818dc	0.018566541
114	0xbd9e1a91	-0.07719911
115	0x3dc7a0df	0.097474806
116	0x3e288167	0.16455613
117	0xbd08a618	-0.033361524
118	0x3e1696ab	0.14705913
119	0x3df74ea1	0.12075544
120	0xbc9f15fa	-0.019419659
121	0xbbbf0a08	-0.0058300532
122	0x3e87e851	0.2654443
123	0x3751a2ff	1.2495321e-05
124	0xbd62555b	-0.055257183
125	0x3dd46685	0.103711165
126	0x3da2465c	0.07923576
127	0x3ea315ca	0.3185256
128	0xbc1655f2	-0.009175764
129	0x3cd64a22	0.026158396
130	0x3b9a0f8d	0.004701561
131	0xbe46ae10	-0.19402337
132	0xbc50c397	-0.012741945
133	0x3a896553	0.0010482467
134	0x3d5206f2	0.051276155
135	0xbc577eed	-0.01315282
136	0x3cb9dd6c	0.02268859
137	0x3e76fe5e	0.24120471
138	0xbc17d8c0	-0.009267986
139	0xbb0c982e	-0.002145301
140	0x3e6508e3	0.22366671
141	0x3d094930	0.033517063
142	0xbd9d79b5	-0.076892294
143	0x3c154bb8	0.009112291
144	0xbd8577a2	-0.06516959
145	0x3e0dc9e4	0.13846546
146	0x3e2d3b11	0.16917063
147	0x3ea6edf2	0.32603413
148	0x3e3b61e5	0.18299063
149	0x3de8d9a5	0.113696374
150	0x3d588756	0.05286344
151	0xbcc19cbc	-0.023634307
152	0xbc0aadf6	-0.008464327
153	0xbe77b9ad	-0.24191923
154	0xbd7b21c5	-0.061311502
155	0x3e120d00	0.14262772
156	0x3ce92b48	0.02846302
157	0xbe3250c9	-0.1741363
158	0x3bcfb980	0.006339252
159	0x3d23ae6c	0.039961264
160	0xba1f1507	-0.0006068502
161	0x3b28d939	0.002576424
162	0xbdfb4297	-0.122685604
163	0xbcc8a591	-0.02449301
164	0x3c19f19d	0.009395984
165	0xbccfe483	-0.025377518
166	0xbdde7adb	-0.108632766
167	0xbcc4125e	-0.02393454
168	0x3c15bf81	0.009139896
169	0x3e4cf95f	0.20017003
170	0xbcb346b9	-0.02188431
171	0xbcc481b6	-0.023987632
172	0xbc951141	-0.018196704
173	0x3da6bbd0	0.08141291
174	0xbcb49bce	-0.02204695
175	0x3df990c0	0.12185812
176	0xbdce3808	-0.10069281
177	0x3ea7a0b2	0.32739788
178	0x3e333428	0.17500365
179	0xbdc391c4	-0.09549287
180	0x3d166f13	0.036727022
181	0xbdc118a5	-0.09428529
182	0x3cade68d	0.0212281
183	0xbb730635	-0.0037082557
184	0x3e02b160	0.12762976
185	0x3da20033	0.07910194
186	0x3c0afb5a	0.008482778
187	0x3c3b18b6	0.011419466
188	0x3cad3590	0.021143705
189	0xbdfa54f5	-0.122232355
190	0xbda5dd56	-0.08098857
191	0x3df76807	0.120803885
192	0x3ded9318	0.116003215
193	0x3dba1a87	0.09087091
194	0x3c480cb2	0.012210058
195	0xbd56466f	-0.052313264
196	0x3d013720	0.031546712
197	0x3d839d3b	0.06426474
198	0xbe8839dd	-0.26606646
199	0xb9f00507	-0.00045780113
200	0x3d4b5a74	0.04964681
201	0xbd0ba1a3	-0.034089696
202	0xbc1fdb31	-0.009756849
203	0xbb4d1439	-0.0031292571
204	0x3f40bbf9	0.75286824
205	0x3cbd7167	0.023125364
206	0x3daa5804	0.08317569
207	0x3e43a8da	0.1910738
208	0x3cff7331	0.031182857
209	0xbe132c18	-0.14372289
210	0x3bf2d469	0.007410575
211	0x3dedf625	0.11619214
212	0xbe8d061a	-0.27543718
213	0xbc3f8526	-0.01168946
214	0x39791a96	0.00023756395
215	0xba83f586	-0.0010067679
216	0xbd352dd2	-0.04423315
217	0x3a165bea	0.0005735742
218	0xbba968d0	-0.0051699653
219	0x3e091235	0.13385852
220	0x3d45fb70	0.048335493
221	0x3bc3b4cf	0.005972482
222	0x3ddff10b	0.10934647
223	0x3cfa9030	0.030586332
224	0x3d0465e4	0.032323733
225	0x3c2ed0dd	0.010669914
226	0x3dcc9fce	0.09991418
227	0xbd3b0119	-0.045655344
228	0xbdaef9fa	-0.08543773
229	0xbb59b3ba	-0.0033218698
230	0xbcdd4689	-0.027011173
231	0x3f04549c	0.51691604
232	0x3cda25d7	0.026629372
233	0xbca6121e	-0.02027231
234	0x3d16263c	0.036657557
235	0x3dd667ba	0.10469003
236	0x3dadfc0f	0.08495342
237	0x3cfd4a25	0.030919144
238	0xbd1dc592	-0.038518496
239	0x3ddf7379	0.109106965
240	0x3ea20632	0.31645352
241	0x3f205654	0.62631726
242	0x3e24a2c5	0.16077717
243	0x3cf34984	0.02969814
244	0x3d0ffb15	0.03515156
245	0xbdb3e260	-0.08783412
246	0xbd4bfdf4	-0.049802735
247	0xbd9eeb59	-0.07759733
248	0xbc1bbd66	-0.009505605
249	0x3e14b5d4	0.14522487
250	0x3cda89ca	0.026677031
251	0x3d46a639	0.048498366
252	0xbcae9fa9	-0.021316366
253	0x3c0fcecf	0.008777334
254	0x3cfc2671	0.030780049
255	0xbcb7a4c1	-0.022417428

log_std_linear.bias f4 [2]
0	0xbf9ca753	-1.2238563
1	0xbfa78151	-1.3086339
