hydrone_aerial_underwater_ddpg/scripts/Models/sac_stage_2_air2D_tanh_3layers/920_value_net.pth (torch_old, 585472 bytes, 10 tensors)

linear1_q1.weight f4 [256, 26]
000000 14 14 da bc af 82 14 be 55 a6 e6 bd ac 63 b9 bd
       -0.026620902 -0.14502977 -0.11262194 -0.09052214
000010 c0 7d 5a 3b c0 e3 6b 3c 6e fd 2c bd 44 e8 a9 bd
       0.0033339113 0.014397562 -0.042233877 -0.08296254
000020 18 02 f6 3c 60 ed d3 3b 4c 11 ec 3d a2 45 9c 3d
       0.030030295 0.0064675063 0.115267366 0.07630469
000030 60 5a f9 bd 40 fd 14 3b b4 48 ae bc bf 8a cd bd
       -0.12175441 0.0022733957 -0.021274902 -0.10036229
000040 1a 2f 5c bd a0 80 d1 bd ca 35 04 be a4 7b a8 bd
       -0.053755857 -0.102296114 -0.12911144 -0.082267076
000050 64 3c 4b 3d ea c5 36 bd 86 e1 8f 3d ce b2 29 bd
       0.04961814 -0.04462234 0.07025437 -0.041430287
000060 50 da 1a bd 48 01 e1 bd fb db da 3d 58 c7 ca 3d
       -0.037805855 -0.109865725 0.10686489 0.09901303
000070 d9 a6 0d be fd 4b 90 be 5d 7a ae 3d d8 dc 91 3d
       -0.13833179 -0.28182974 0.08519433 0.07122201
000080 27 ba 9b be ec 64 a0 bd c3 07 8c 3d 24 19 69 3e
       -0.3041546 -0.07831749 0.06837418 0.22763497
000090 c0 d9 df 3d 80 e7 02 3e 57 e7 19 be d7 ed 01 3e
       0.109302044 0.12783623 -0.15029655 0.12688385
0000a0 d3 4b 91 bd 3c 02 98 3d 7c 34 a9 3d e6 fe 92 3e
       -0.070945404 0.07422301 0.08261964 0.28710097
0000b0 5e 85 ad be 59 9c 9a 3d 3d 01 ac 3e c9 f3 39 bf
       -0.33890814 0.07549352 0.33594695 -0.7263761
0000c0 09 fd a9 be 6c ed 2f 3e 25 70 49 bf d3 df 09 bf
       -0.33200863 0.17180413 -0.78686744 -0.53857154
0000d0 9e 0d 2e 3d ef 67 07 3d e9 71 2e 3c 38 4e 83 be
       0.042493455 0.033058103 0.0106472755 -0.25645614
0000e0 55 58 fd bc 58 da d5 bd 84 0e 3c be 9e 64 2a 3e
       -0.030925909 -0.104420364 -0.18364912 0.16639945
0000f0 32 38 0b 3d 8e 6f 22 3e ed be 14 3e 81 1a 3c 3e
       0.03398914 0.15862867 0.14525957 0.18369485
000100 d6 55 28 3d 35 cc 43 bd ec 44 98 be ae da e7 bd
       0.041097485 -0.04780217 -0.29740083 -0.11321007
000110 1f 8b 36 3d 02 37 85 3d 23 2f 4a 3e 58 d2 57 3e
       0.04456627 0.065046325 0.19744544 0.21076334
000120 1f 75 3b bc b1 99 b9 bd 30 d5 06 be 15 2c 8e be
       -0.011441498 -0.090625174 -0.13167262 -0.27768007
000130 04 d9 56 be f8 a0 bb be cc 1d 42 be 51 a5 c5 bd
       -0.20981222 -0.36646247 -0.18956679 -0.09650672
000140 ac 58 ce be e7 3e a2 bd b3 0e c6 bd 57 65 d6 bd
       -0.40302026 -0.07922154 -0.096707724 -0.10468548
000150 3c a4 3c 3d cd 3f 8b 3e 57 f4 89 bd 30 e4 da 3d
       0.046055064 0.27197114 -0.06736057 0.106880546
000160 9a 90 97 3d 0d c8 ed bc b2 60 19 3e 34 8a 06 bd
       0.074006274 -0.029026056 0.14978293 -0.032846645
000170 b8 22 1e bd e6 69 a0 be f2 d6 50 3d d2 13 fe 3d
       -0.03860733 -0.31330794 0.050986238 0.12406124
000180 a2 91 a0 3e 2a ef 21 3d 5b df 27 3e 74 ad 92 bb
       0.3136111 0.039534725 0.16393797 -0.0044762436
000190 a7 cc 36 3d 00 81 3e bf 6a 40 9e 3d ab 6d 69 be
       0.044628765 -0.7441559 0.0772713 -0.22795741
0001a0 2b 59 41 3e c2 df c5 3b b4 90 70 be 26 2f 72 3b
       0.18881671 0.006038637 -0.234927 0.0036954372
0001b0 77 82 ac 3d 92 d4 8b be 20 ae 5f be 96 bc ed bd
       0.08423322 -0.27310616 -0.21843767 -0.116082355
0001c0 f7 94 09 bd 46 a9 02 be 95 63 3a 3e 65 8e 9a bc
       -0.03358933 -0.12759885 0.1820205 -0.018866727
0001d0 88 bd 3c bd c5 50 73 3c b3 4f fc 3d ef c6 84 bd
       -0.04607919 0.0148508 0.12319889 -0.06483256
0001e0 2c be 0b bd f5 c8 11 bd 58 27 ac 3e 7f 12 59 3e
       -0.03411691 -0.03559204 0.33623767 0.21198462
0001f0 61 22 7a 3e 69 53 03 3f 9d a3 3c 3e 3d c4 dd be
       0.24427177 0.5129915 0.18421789 -0.4331378
000200 43 f0 95 3d 2a a6 3b 3e 5c 04 34 bb 94 12 74 bd
       0.07321217 0.18325105 -0.0027468419 -0.05958803
000210 4f 63 8d 3d 26 2b 87 3d db e2 e5 bc 20 6b ff 3d
       0.06903707 0.06600027 -0.028062275 0.12471604
000220 c2 48 a9 bc 6d 0e ac 3d cf 11 57 3d a8 c6 83 bc
       -0.020664576 0.08401189 0.052507218 -0.016085938
000230 aa 93 7d bc 50 20 07 bd fd 6c ba 3d 12 d4 de 3d
       -0.0154771 -0.0329898 0.09102819 0.10880293
000240 6d b5 a4 3e 9d 9d 8a 3e 7a e1 1a be 95 1a 0c bd
       0.32169667 0.27073374 -0.15125075 -0.034205038
000250 c6 bd 7b be c1 6a 37 3e 74 86 bc be b7 1f a4 3b
       -0.24584112 0.17911817 -0.3682133 0.0050086635
000260 94 ec f4 bd 10 c1 52 bf 61 86 a0 3e 10 3a c0 3e
       -0.11959186 -0.8232584 0.31352523 0.37544298
000270 a4 f6 3b 3d d7 30 56 3d 55 6d 3c be 73 d0 8a be
       0.04588951 0.05229267 -0.18401082 -0.2711216
000280 be bc b7 bc 18 79 6a 3d 91 b0 a5 3d 46 36 16 3e
       -0.022428866 0.05724439 0.08090318 0.14669141
000290 3b b7 a6 3d ab 76 69 bd e6 70 9a bd bd bc 94 bd
       0.08140417 -0.056997936 -0.07541065 -0.072625615
0002a0 2d 31 ed bd 89 d2 13 be c7 07 e7 3d 73 7a fb bd
       -0.11581645 -0.14435782 0.1128078 -0.12279215
0002b0 9a 16 b0 bd 78 7c 10 bf 48 18 89 be 9a aa 9b 3e
       -0.08598061 -0.56439924 -0.26776338 0.30403596
0002c0 c8 3b 3e 3e 97 70 4a bf ed 18 95 be f0 01 ce 3e
       0.18577492 -0.7907805 -0.2912058 0.40235853
0002d0 4c 8a 01 3e a9 d7 03 be 0d ae 44 3c d0 95 ec 3d
       0.12650412 -0.12875237 0.012004388 0.11552012
0002e0 20 b0 94 3d 93 51 93 bd d4 51 8e 3b bd c6 89 3d
       0.07260156 -0.071932934 0.0043432508 0.067273594
0002f0 05 30 41 3d eb 28 23 be f3 c1 72 bc 23 43 39 3d
       0.047164936 -0.15933578 -0.014816749 0.045230042
000300 c7 37 35 be 6e 77 bd bd 03 52 5d be a6 0d b8 bd
       -0.17697059 -0.09251295 -0.21613316 -0.08986978
000310 23 03 2c 3d ef 81 ca 3c 56 90 15 3d 3e 92 81 bd
       0.04199518 0.02472016 0.036514603 -0.063267216
000320 05 10 27 3d 3a 6f 01 3e 78 79 88 be 12 c9 f3 3e
       0.04078676 0.12640086 -0.26655173 0.47614342
000330 6f b8 04 c0 2b 1c 9d 3e ab f5 95 3e cb 55 83 3e
       -2.073757 0.30685553 0.29288992 0.25651392
000340 e9 a1 88 be a0 6d 7f be de 1a ee 3d d1 e3 89 3d
       -0.26686028 -0.24944162 0.11626218 0.06732906
000350 2e bf 9d be b5 50 03 3e 3e 33 12 3d 22 fd 02 be
       -0.3080992 0.12823756 0.0356934 -0.12791875
000360 1c de 12 bd 08 47 cd 3d 97 77 94 bc f2 53 88 3e
       -0.03585635 0.10023314 -0.018123431 0.26626545
000370 1e 35 5f 3e f8 96 c6 bd c6 9a 38 bd 9d bb ec bd
       0.21797606 -0.09696764 -0.04506948 -0.11559222
000380 20 82 1e 3e 48 e5 1a 3e 82 9b 13 3e bd d7 1c be
       0.15479326 0.15126526 0.1441479 -0.15316673
000390 3d 28 f2 3d 82 4a 55 bf 2e 52 10 bf 4c b6 6a 3e
       0.11824081 -0.83316815 -0.56375396 0.22921103
0003a0 2c 72 12 bf 21 3f 3d 3f 75 9a 15 3d ea 51 eb 3e
       -0.5720546 0.7392445 0.036524255 0.45960933
0003b0 c7 a2 5c bd d4 bb e9 3d dd 5c c6 3c 96 5f 1f 3e
       -0.053866174 0.114127785 0.024214203 0.15563807
0003c0 e1 4e 9b 3d 54 3b 2b bc 37 89 4f bd 5f 7b 5b 3e
       0.07583404 -0.010451157 -0.050667968 0.21433781
0003d0 fb 93 6f 3c c2 98 87 be 8d a2 8b bd e4 33 af bd
       0.014622684 -0.26483732 -0.068181135 -0.08554819
0003e0 23 c5 80 bd 2b 9a ea bd 82 32 48 be da 4b 82 3c
       -0.06287601 -0.114551865 -0.19550517 0.01590531
0003f0 71 39 36 bd df a1 0b bc 0e 78 15 bf 2f 8d 8c bf
       -0.044488374 -0.00852248 -0.58386314 -1.0980586

linear1_q1.bias f4 [256]
000000 00 00 00 00 c4 99 85 3e 65 0d d4 3e 4b d8 92 3e
       0.0 0.26093876 0.4141647 0.28680643
000010 8f 7e a6 3e 4b 8d 15 be e9 32 5d 3e 59 5c 84 be
       0.32518432 -0.1460468 0.21601452 -0.25851706
000020 71 02 1f 3e 4d 09 4d 3e 50 f7 73 3e 7b a4 6f be
       0.15528275 0.20023079 0.23824811 -0.23402588
000030 2d 66 2e 3e 8b 87 51 bd 0b 46 af 3e 02 62 fc 3d
       0.17031164 -0.051154654 0.34233126 0.12323381
000040 de 57 c3 be f3 9a 94 3e 15 14 31 be ba 26 c1 bd
       -0.38152975 0.29024467 -0.17292817 -0.09431215
000050 9d 6f c8 bd bc ef e5 3d 9b 54 ce 3d 4c 64 d0 3e
       -0.097869135 0.11227366 0.10074731 0.4070152
000060 a5 93 df bd 26 a8 b4 be a4 c5 f0 3e 85 e5 84 bc
       -0.10916833 -0.35284537 0.47025788 -0.016222725
000070 b8 bb eb 3d 2f c5 c4 3e 96 be ac be 1c 14 e0 3e
       0.11510414 0.3843169 -0.33739156 0.43765342
000080 1d 82 99 3e a4 47 28 be 39 6e c7 3d 6a bb d6 bd
       0.2998208 -0.16433579 0.0973782 -0.10484965
000090 72 62 20 bd 16 25 80 be d2 4c 8c be 65 fd 3b be
       -0.039156385 -0.25028294 -0.2740236 -0.18358381
0000a0 2b b8 1b 3e 29 49 2a 3e 7b 74 2d be 99 ba f5 3d
       0.15206973 0.16629471 -0.16938965 0.11998481
0000b0 00 00 00 00 ea 5e b6 3e af c9 e2 3e 8d b7 30 3e
       0.0 0.3561929 0.44294497 0.17257519
0000c0 74 2d 7f be 7e 14 9f 3e 78 8f f5 3e 1b 3b 3b 3e
       -0.24919683 0.31070322 0.4796102 0.18284266
0000d0 72 8a 23 3e c2 b5 27 3e 6e f0 27 3d 83 33 b8 3e
       0.15970781 0.16377929 0.041000776 0.359768
0000e0 0d 83 db 3e d6 05 6b be ff 19 31 3b ab 20 f8 3e
       0.4287342 -0.22951445 0.0027023552 0.48462424
0000f0 b8 be 09 3e 57 ac 71 3e c0 9f 6f be d2 96 25 bc
       0.1345166 0.23600899 -0.23400784 -0.010106759
000100 44 9b 21 3e c1 2c 5c bb 8f 4d 96 3e 76 b8 ee bd
       0.15781885 -0.0033596011 0.29356048 -0.11656277
000110 ec a9 b1 3d 34 30 84 be ad d0 e3 bd 78 ef 9c 3e
       0.08674988 -0.25818026 -0.11123786 0.3065145
000120 f4 20 ab 3e b5 60 21 3e 6a ce cf 3e 10 55 09 3e
       0.3342358 0.15759547 0.4058717 0.13411355
000130 63 77 24 3c 3c 89 fb 3e ca 84 4c 3e 03 e1 36 3e
       0.01003823 0.4912814 0.1997253 0.17859273
000140 49 3c 7b be 4e 15 b2 3e a6 63 8c be 72 b1 db bb
       -0.24534716 0.3478188 -0.27419776 -0.0067045027
000150 8c bd 48 3e 01 b8 e7 bc 95 90 b0 be a5 a4 13 3e
       0.19603556 -0.028285982 -0.34485307 0.14418276
000160 89 19 1c bc 5c 29 11 be c3 52 65 be 98 e5 b0 3e
       -0.009527572 -0.14175934 -0.22394852 0.34550166
000170 3b df 3f be c4 e4 60 bd ce 9e 7e 3e 77 3a 88 3e
       -0.187375 -0.054905668 0.24865267 0.26607105
000180 28 48 05 3e 56 6c a1 3d 9d 85 cb be c1 44 df 3e
       0.13015807 0.078819916 -0.39750376 0.43607143
000190 87 32 19 bd 26 c2 b1 3e 5d 19 c9 bd 2d 56 94 3e
       -0.037401702 0.34718436 -0.09819291 0.28971997
0001a0 6b 6c 6a 3e 4d ed ee 3c 1e 8e 6b 3e 9b b3 c7 3e
       0.2289292 0.029165888 0.23003432 0.39004216
0001b0 f8 74 b6 be db 95 8a bd c5 9e b0 be 76 7c 36 be
       -0.35636115 -0.06766864 -0.34496132 -0.17820916
0001c0 0b 99 c6 3e 52 50 a8 be d5 d6 02 3f bd 48 20 3e
       0.38788638 -0.3287378 0.5110906 0.15652747
0001d0 60 e9 87 3e d3 76 95 3e d3 26 cd 3e 6f c3 83 be
       0.26545238 0.29192218 0.40068683 -0.25735041
0001e0 ac 2b 9d 3e 13 0b 89 be 90 12 68 3e 3d 35 3e be
       0.30697381 -0.2676626 0.22663331 -0.18574996
0001f0 07 75 9b bc 00 00 00 00 92 ce a3 be 59 59 84 be
       -0.018976701 0.0 -0.31993538 -0.25849417
000200 d9 31 43 3e 3c c5 71 be af b5 ea bd 5a d7 c9 3e
       0.19061984 -0.23610395 -0.11460435 0.39422113
000210 6d a6 eb 3e 79 9c 52 3e c4 17 95 3e fa 2d d3 3d
       0.4602541 0.20567502 0.29119694 0.10311504
000220 27 c3 9d be 19 1d d8 bd 87 28 aa 3e 74 06 36 3e
       -0.30812952 -0.10552425 0.33234045 0.17775899
000230 ce 9f bd be 2a 38 ba 3e f7 aa b5 bd 0d f1 a7 be
       -0.37035984 0.36370975 -0.088704996 -0.32801095
000240 37 2a 46 3e 23 98 22 3e 9e 94 a6 3e f9 79 47 be
       0.19352041 0.15878348 0.3253526 -0.19480123
000250 b0 ee d6 be f0 55 03 be b6 cd 53 be 01 21 0e 3f
       -0.4197898 -0.12825751 -0.20683941 0.5551911
000260 5e 1a 30 be 00 ac 97 3d 24 ac 45 be c1 09 88 3e
       -0.17197558 0.07405853 -0.19303948 0.26569942
000270 06 23 07 3e 9b 1c 25 be 7f 88 5e be b7 a9 5e be
       0.13196954 -0.16124193 -0.21731757 -0.21744429
000280 27 54 a1 3e c0 4d 0a be c8 b4 d5 3d e1 89 28 be
       0.31509516 -0.13506222 0.10434872 -0.16458847
000290 82 44 c1 3d dd 15 b6 3d 4a f2 a2 3e 7c 98 86 be
       0.09436895 0.08890889 0.31825477 -0.2628821
0002a0 e1 6a 6e 3e 45 b6 35 3e 0f ab e1 3e 24 52 62 be
       0.23282959 0.17745312 0.4407582 -0.22101647
0002b0 48 2b 8c ba d9 42 4c 3e 59 73 31 be 35 db a1 3e
       -0.0010694051 0.19947375 -0.17329158 0.31612554
0002c0 1b d4 c2 3d 7d bd fd bd a0 db c5 3e 4e 6b c7 3e
       0.09513112 -0.12389658 0.38644123 0.38949054
0002d0 cf 4e 25 bd 37 83 a7 be ca a8 2c be 19 c4 ac be
       -0.04035836 -0.32717296 -0.16861263 -0.3374336
0002e0 bc 9f de 3e 0d 4b e6 3e 22 c0 70 3d dc 3d 78 3e
       0.43481243 0.44979134 0.058776982 0.24242347
0002f0 b0 3a 48 3e ab 09 5f 3e 82 85 71 3e 5d ff a3 be
       0.19553638 0.21781032 0.23586085 -0.32030764
000300 61 0f 1e 3f ea 6a 10 be f8 8b 94 3d 40 5d 0b be
       0.61742216 -0.14103284 0.072532594 -0.13609791
000310 93 74 4d 3e 7d 5b eb 3c ee f1 89 3e 01 08 8e 3c
       0.20064001 0.028730148 0.2694239 0.017337801
000320 69 f8 b3 3e 42 1a 1e 3f d7 10 60 be 35 4f d1 3d
       0.3515046 0.61758816 -0.21881424 0.10220186
000330 c6 38 c7 3c dc 11 49 be fe 82 2b bc 40 75 36 be
       0.024319064 -0.19635719 -0.010468243 -0.17818165
000340 a7 a1 6a be 0a cf 95 3d e7 a4 e1 3d 95 02 d3 3e
       -0.22913228 0.0731488 0.11017781 0.41212907
000350 ed 30 b0 be 83 f4 30 be 0d eb bb 3d 34 f7 be be
       -0.34412327 -0.17280774 0.09175692 -0.37297976
000360 0d b5 05 3f b5 93 4f be 24 38 92 be fb ed 34 be
       0.52229387 -0.2027119 -0.28558457 -0.17668907
000370 02 cc e7 3e ac f8 c4 3d c8 c2 79 3e 5a 8c ac 3e
       0.45272833 0.09617743 0.2439071 0.3370083
000380 54 bd bb 3d ac b1 2e 3e 9c 70 b1 3e d1 be 85 be
       0.09166971 0.17059964 0.34656227 -0.26122144
000390 02 27 cd bd 57 cc 62 3b 4b 1c d2 3e 60 1f 98 3e
       -0.10017206 0.003460666 0.4103721 0.29711437
0003a0 62 d6 0c 3e ec 5b 60 3e 49 ed dd bc 1b 77 74 be
       0.13753656 0.21910065 -0.027090685 -0.2387356
0003b0 10 a0 6a 3d 7e f9 b1 3e 5e 63 18 3e b7 ce 09 3f
       0.057281554 0.3476066 0.14881656 0.53831047
0003c0 bf 03 42 3d a4 6e e8 bd ad d1 77 be 85 1e 69 3e
       0.047366854 -0.11349228 -0.24201079 0.22765549
0003d0 61 45 8b 3e 68 42 2e be 48 8b ba be 00 00 00 00
       0.2720137 -0.1701752 -0.36434388 0.0
0003e0 7d 95 a5 be 46 52 cb bc ab 92 93 3e 03 31 bb 3e
       -0.32340613 -0.024819504 0.28822836 0.3656083
0003f0 91 97 93 3e 44 4b 3f be de 4e 89 be 18 ee 3b 3d
       0.28826573 -0.18681055 -0.26817983 0.04588136

linear2_q1.weight f4 [256, 256]
000000 d4 79 ac 3c e8 38 e2 bd 9b 4c cb 3d 4e 9b 39 3f
       0.021054186 -0.1104601 0.09926721 0.725026
000010 4d 2b 03 bd 37 c2 24 3e b8 53 98 3d 28 65 23 3c
       -0.032023717 0.16089712 0.07437843 0.009972848
000020 94 0d 6d 3e be 21 00 be d2 5b 0d 3d 69 2a e9 3c
       0.23149711 -0.12512872 0.034511395 0.028462606
000030 ea 5d c2 3d 72 7d bf bd 18 c2 ca 3d ef 2d d2 bc
       0.09490569 -0.09350099 0.09900302 -0.025656668
000040 9b a8 a3 bd a9 b7 c7 3d f8 31 83 3d 11 65 00 be
       -0.07991143 0.09751827 0.06406015 -0.12538554
000050 2c 7b a3 be 63 ac 3f 3e ad dd f6 bd 3e aa 11 3d
       -0.3192991 0.18718104 -0.12054 0.035562746
000060 91 1c 4d 3e 0b 2b 20 be 27 83 1d 3e ad 9c 83 bc
       0.20030428 -0.1564142 0.15382062 -0.01606592
000070 77 96 4c be 9f b6 ca 3d 48 3d 27 3e 86 3a b6 3c
       -0.19979273 0.098981135 0.1633197 0.022244703
000080 fc b3 72 3d 67 0a 94 bf 4f 18 32 bc ba c2 12 3c
       0.059253678 -1.1565675 -0.010870053 0.008957559
000090 e8 2d 36 3f 37 5f 24 3e e7 d8 81 3d 2c 7b c7 3c
       0.711638 0.16051947 0.06340199 0.024350725
0000a0 b8 67 c1 bd 64 6b a1 bd 76 b7 82 3c 56 c2 90 38
       -0.09443611 -0.07881811 0.015956622 6.902653e-05
0000b0 20 2e 24 3b 5c 6e 3e 3e 0e 34 e2 3d e2 cf 66 3c
       0.0025051907 0.18596786 0.11045085 0.014087649
0000c0 f6 f9 99 3d 4a 97 46 bc cb e5 11 3d 99 20 16 bc
       0.075183794 -0.012121031 0.03561954 -0.009163045
0000d0 d1 4c 1a bd 72 2a c8 3d 8e db 05 bf df 9e ff 3d
       -0.037670914 0.09773721 -0.5228814 0.12481474
0000e0 4a 77 b8 3b 4c 00 4a 3d 8d 7b 41 3f d5 e4 48 3c
       0.0056294547 0.04931669 0.7557915 0.012261589
0000f0 fd 34 48 be 35 b3 00 be bc de 66 3e 23 1e 23 3d
       -0.19551463 -0.12568362 0.22545904 0.039823662
000100 c9 29 bc 3d 38 4a ba bd ec 27 a0 bd 80 f0 f4 3c
       0.091876574 -0.09096187 -0.078201145 0.029899836
000110 9d 85 91 3e 47 0b bb bd b2 6c 3b be 1a e8 9e 3c
       0.2842225 -0.0913301 -0.18303183 0.019397784
000120 c9 e3 c2 3d b0 d2 58 3e f0 2f b5 3e 15 d3 8e b9
       0.09516103 0.21174121 0.35388136 -0.0002724162
000130 ac c9 57 be 6f b6 84 3d 98 d6 42 be be 8e 62 bf
       -0.21073025 0.06480109 -0.19027174 -0.8849906
000140 51 30 97 bd 4b 18 17 3d 63 d2 a8 3d 25 47 cf 3d
       -0.073822625 0.036888402 0.08243253 0.101209916
000150 f0 36 93 3d 22 bd d3 bd d5 08 90 3d cf 63 b4 3b
       0.07188213 -0.103388086 0.070329346 0.005505062
000160 4b d5 db 3b bc 56 86 3d 0c 70 3e 3e 5d 0d 71 bd
       0.006708776 0.06559512 0.1859743 -0.058850635
000170 f0 ff a7 bd 6b 46 a8 3d ed 4d 5f be 86 73 35 3b
       -0.08203113 0.08216556 -0.2180707 0.0027687266
000180 b0 44 1a 3c 43 d5 b1 3e d5 68 17 3d 01 7a 30 bd
       0.00941579 0.34733018 0.03696521 -0.043085102
000190 f8 9f d9 3e f6 ab 77 3e 88 dd 02 3e 4f a2 4f be
       0.4250486 0.24186692 0.1277982 -0.2027676
0001a0 7e b8 77 3c ae a1 87 3f 17 3d ce bd b0 ed c1 3d
       0.01511967 1.0596216 -0.10070246 0.094691634
0001b0 79 17 24 3d de 42 f5 3d 8a c4 a6 3d 0f ee e8 3d
       0.040061448 0.119756445 0.081429556 0.11373531
0001c0 2c e4 34 bd 00 aa b7 bb c4 e6 84 bc b6 ff ba 3e
       -0.044162914 -0.0056049824 -0.016223319 0.36523217
0001d0 e7 2b e6 bc 27 23 e0 3d 07 87 a8 3d 82 b8 ba 3d
       -0.028097106 0.10944205 0.082288794 0.09117223
0001e0 91 c0 ca 3d ec 21 82 3d f7 49 fa 3e 6c 30 01 3e
       0.099000104 0.06354126 0.48884556 0.12616128
0001f0 9c d7 94 bc 8e ca 77 3d 41 4c 40 3d 71 e5 5a 3e
       -0.018169217 0.060495906 0.04694772 0.21376587
000200 f0 41 7c 3d f7 7a 00 3d c2 0d 86 3d d1 cf 0e 3e
       0.06158632 0.03136727 0.06545593 0.13946463
000210 29 54 cf 3b 07 2f 15 bd 8b de a8 bc 29 02 1f bd
       0.0063271713 -0.036421802 -0.02061393 -0.03882042
000220 94 a7 54 3b 26 48 66 be a1 24 9c 3d 17 83 c9 3e
       0.0032448517 -0.2248846 0.07624174 0.39357826
000230 ea 40 71 3d b9 39 2a 3e 95 e6 a1 bc f0 c4 ec 3d
       0.058899797 0.16623582 -0.01976327 0.11561
000240 db b0 51 3d c4 bf 0f bf c1 a2 ca 3d f9 02 2b 3e
       0.051194053 -0.56151986 0.09894324 0.16700353
000250 f7 1d 65 bd 6d fe d8 3b f7 94 34 3e 39 6c 8a bc
       -0.05593678 0.006622127 0.1763495 -0.016897308
000260 c1 84 a3 3c 48 72 e8 bd a2 84 52 3e 9b 46 27 be
       0.019960763 -0.113499224 0.20558408 -0.16335528
000270 41 b7 29 3f 09 9c c3 3c e9 f4 8d 3e 18 0b cc 3d
       0.6629525 0.023878114 0.27725914 0.099630535
000280 b5 66 8d 3e 2d a8 09 3e ae 0b 19 3e 87 0e 15 bf
       0.27617422 0.1344306 0.14945862 -0.5822529
000290 6b ea 8c 3d d6 03 e9 3c 03 96 e2 3d e9 aa 10 3e
       0.06880649 0.028444212 0.11063769 0.14127697
0002a0 ff eb 79 be db aa 09 3e 68 6d 02 3e 3b 3b 38 3e
       -0.24406432 0.13444082 0.12737048 0.17991345
0002b0 73 f7 14 bf 99 5b 12 3d e2 8b 24 3e 61 54 cc 3d
       -0.5819008 0.035731886 0.16068986 0.099770315
0002c0 98 4e b1 be 54 0c e4 3d 63 35 68 3d b4 9f c6 3b
       -0.34630275 0.11135164 0.05669154 0.0060615186
0002d0 bd 23 c5 bd aa f8 9f bd 99 2e 2b 3e aa db 1a 3d
       -0.09625957 -0.07811101 0.16716994 0.037807144
0002e0 16 31 7d 3d b2 27 d6 3d a4 ba 98 be 3b 6d 3c be
       0.06181439 0.1045679 -0.29829895 -0.18401043
0002f0 86 e0 13 3e 0a d1 89 3d 74 41 ad 3d f8 ba 0b 3e
       0.14441118 0.06729324 0.0845975 0.13645542
000300 f1 f1 37 3d db af 11 3b bc 54 1d bf 76 b5 55 3d
       0.044908468 0.0022230062 -0.6145742 0.052175008
000310 83 25 de 3d 15 97 8c be 3e 43 22 3d 9f c4 25 3e
       0.108469985 -0.27459016 0.03961491 0.16188286
000320 21 4b 12 3e 88 b7 f3 3d 4e 2a b4 3d 55 2a e5 bd
       0.14286472 0.1190024 0.087971315 -0.11189715
000330 71 12 26 bf 3e bf f5 3c 80 03 8d 3e 76 82 85 3e
       -0.6487189 0.029998418 0.27541733 0.26076096
000340 3f be 0f bd bc 32 57 bd 92 70 ea 3d 26 42 38 bd
       -0.035093542 -0.05253862 0.11447252 -0.04498496
000350 07 39 66 bc 5b af ae 3d 5d 42 15 3e cf e7 ea bb
       -0.014051682 0.0852954 0.14576097 -0.007168747
000360 f0 b1 bd 3d 00 af bf bd b8 f6 12 3e 1d 34 4e be
       0.092624545 -0.093595505 0.14351928 -0.20137067
000370 1d 05 5b bc 6e a6 21 bd 47 c1 43 3d 96 bd 4e bc
       -0.013367918 -0.03946536 0.047791746 -0.012618443
000380 86 e7 02 be 55 2b 8b be 1a d2 7c 3d 37 bf 58 3e
       -0.12783632 -0.27181497 0.061723806 0.21166693
000390 4a 3d a0 3e 90 80 92 be 41 b6 57 3d 87 dd ec bc
       0.3129676 -0.2861371 0.052664045 -0.028914226
0003a0 78 7a 63 3e a7 1a d2 3c fa c3 32 bd 38 4a 50 bd
       0.22214687 0.025647474 -0.04364393 -0.05085203
0003b0 ef 83 35 be 4b 1a 4c 3e 21 a4 61 3e 82 a6 1a 3d
       -0.1772611 0.19931905 0.22035266 0.03775645
0003c0 e2 94 94 be 7b 43 0a 3e ab 98 43 3e aa 85 f4 3d
       -0.2901984 0.13502304 0.19101207 0.11939557
0003d0 15 3a e4 3e 91 c2 ee 3c b7 fc b2 3d 70 fb 28 bc
       0.44575563 0.02914551 0.08739608 -0.010313854
0003e0 cb 42 b0 3d 2d d5 93 3d e3 04 ea 3c 8f 7e b6 3e
       0.0860649 0.072183944 0.028566783 0.35643432
0003f0 a5 d7 6a 3d 0e ff 03 bd 5b ee 7b bd db 1c 97 be
       0.05733456 -0.03222566 -0.06150661 -0.29514202

linear2_q1.bias f4 [256]
000000 dc 91 d2 3e 34 49 ca 3e 2b 57 23 be bc 6c 9a be
       0.41126907 0.39508975 -0.1595122 -0.30161083
000010 68 79 3c 3e 6a 40 a5 bd c8 7d cb 3e bc 3e b2 be
       0.18405688 -0.08068927 0.397444 -0.34813488
000020 1b 52 ba be 6c 25 b6 be 77 73 ef bc 44 61 1a 3f
       -0.36390767 -0.35575426 -0.029229863 0.60304666
000030 b7 c3 b6 bc 8a b2 18 bd 8e a3 a9 be 6d 65 d2 3e
       -0.022310121 -0.037279643 -0.33132595 0.41093007
000040 50 ff 06 3f 5d 18 6b be ac dd 90 3e ec 68 f9 3e
       0.52733326 -0.22958513 0.28294122 0.48712862
000050 20 5f 9b be 25 94 01 3f 74 a9 d3 3e ca e5 4c 3e
       -0.30346012 0.50616676 0.4134022 0.20009533
000060 51 ab 92 bc c8 af a0 be d9 00 9a be 47 5a 1a be
       -0.017903956 -0.3138411 -0.30078772 -0.150735
000070 9b c6 b9 3e b1 aa b8 be 5a c0 a8 be d1 21 22 3f
       0.36284336 -0.36067727 -0.32959253 0.6333285
000080 4a 5a ae be 97 34 ad be 0d e3 a8 3e 58 33 a2 bd
       -0.3405326 -0.33829185 0.32985726 -0.07919949
000090 5c a5 91 3e b7 10 ad be 6c 32 cd 3e df 5c da 3d
       0.28446472 -0.33801815 0.4007753 0.10662245
0000a0 e5 2e a9 be f1 71 c3 3e 03 82 bf 3e 91 a3 a9 be
       -0.3304359 0.38172868 0.3740388 -0.33132604
0000b0 97 b3 74 be 80 3a a7 3e 6d 87 07 3f 87 8b cf 3e
       -0.23896633 0.3266182 0.5294102 0.40536138
0000c0 95 cb aa be 0f 1c 9f bb 0d a9 af be d5 02 d1 3e
       -0.33358446 -0.0048556398 -0.34308663 0.40822473
0000d0 c3 b9 a1 be 34 af 8a be 57 3a ba be fe b1 9e be
       -0.31587037 -0.27086794 -0.36372635 -0.30995172
0000e0 1b 42 cd 3e 91 59 b2 be cf ec ad be 23 86 81 be
       0.40089497 -0.3483396 -0.33969733 -0.2529765
0000f0 77 d3 90 be 0e 98 c9 3d 3b ca a7 be 91 c4 a4 be
       -0.28286335 0.09843455 -0.32771477 -0.32181218
000100 f1 93 ae be 72 7c d4 bc ac e3 cb 3e 91 c5 0b 3f
       -0.34097245 -0.025938246 0.39822137 0.5459834
000110 93 80 b0 bd 01 e0 ae be 9e 7f 9b be bd 83 96 be
       -0.086182736 -0.34155276 -0.30370802 -0.29397383
000120 78 34 a1 be b2 2c a4 bc 08 ce ad 3e fc 2e bd 3e
       -0.31485343 -0.020040844 0.33946252 0.3694991
000130 aa a9 89 3e 07 43 17 3f 8e 12 be be a6 a2 34 be
       0.26887256 0.5908665 -0.3712353 -0.1764017
000140 54 2e 46 3f f6 98 a1 be ea a8 01 bd db c7 df 3e
       0.7741444 -0.31562012 -0.03165523 0.43707165
000150 bf bc 1b bd 62 6b b6 be 41 bf a6 be 71 93 9e be
       -0.0380218 -0.35628802 -0.3256779 -0.30971864
000160 93 9e ea bd 80 33 64 be b7 81 f2 3e 53 ae b1 3e
       -0.11456027 -0.2228527 0.4736459 0.3470331
000170 75 9f b3 be 85 c6 b7 be 42 37 88 3e 44 29 d2 3e
       -0.35082594 -0.35893646 0.26604658 0.41047108
000180 fa 13 b4 3e a2 ad 0d 3f 0c 59 b6 bc c3 8c b5 be
       0.3517149 0.5534307 -0.022259258 -0.35458955
000190 5f 1a 34 be ed dd b3 be 0a 04 c0 3e 4b 1e ea bc
       -0.17588185 -0.35130253 0.37503082 -0.028578898
0001a0 3c 92 ef 3e 5a 30 32 3e 1a 87 aa bc 7c 21 c5 3e
       0.46791255 0.17401257 -0.020816375 0.3850211
0001b0 56 3d be bc d1 03 9f be 17 88 8d be a1 b1 94 be
       -0.023222607 -0.310576 -0.2764289 -0.2904177
0001c0 19 66 d2 3e 5f b5 99 be f4 56 11 3f ef 0f 8f be
       0.4109352 -0.30021188 0.56773305 -0.27941844
0001d0 4a f0 95 be a4 c8 5f be 93 26 8f be 9b 6d a0 be
       -0.29284889 -0.21853882 -0.27959117 -0.31333622
0001e0 e8 2b a6 be 77 34 40 be e0 03 0d 3f 7a 9d a0 3d
       -0.32455373 -0.18770014 0.5508404 0.07842536
0001f0 6f 5d bb be 4d b0 83 3e a4 9f d9 bc 55 1a cb 3e
       -0.36594722 0.25720444 -0.02656538 0.39668527
000200 5c a5 27 be c4 af 1e 3f 46 72 b7 3e e9 a5 81 3e
       -0.16371673 0.6198695 0.3582937 0.25321892
000210 ac d2 a4 bc 80 e6 a1 be 32 d6 bd 3e 09 6e 4a be
       -0.020119987 -0.3162117 0.3707748 -0.19768538
000220 b8 97 0d 3f 98 08 03 bd 35 7f 92 bd 93 b4 74 be
       0.5530963 -0.031990618 -0.07153169 -0.23897009
000230 fa 08 85 be d0 04 04 bd 56 68 e9 bc d9 29 2f 3e
       -0.2598341 -0.032231152 -0.028492134 0.17105807
000240 54 27 c1 be 55 d4 1a be 83 20 9c bc 92 cf 0a 3f
       -0.37725317 -0.1512006 -0.019058472 0.5422298
000250 0b 07 a3 3e 0a 0e a2 3e f9 32 b0 be 53 26 af 3e
       0.3184131 0.31651336 -0.3441389 0.34208927
000260 9d 6f 95 be 10 65 63 be 3a e1 a9 be 59 18 aa be
       -0.29186717 -0.22206521 -0.33179647 -0.332217
000270 43 71 bd 3e 24 15 21 be ea 95 a4 bc 28 d3 cf 3e
       0.37000474 -0.15730721 -0.020091016 0.40590787
000280 63 c9 f5 3e 60 ed 9f be d5 21 1c bc f3 52 bb 3e
       0.48005208 -0.3123579 -0.009529551 0.36586723
000290 ce 2b 92 be 6c b6 ac 3e a2 3a c2 3e 8c e7 13 3f
       -0.28549045 0.33732927 0.37935358 0.5777519
0002a0 2c f5 eb 3e 1f 3c b9 bd a0 c4 97 be 95 8e aa 3e
       0.4608549 -0.0904467 -0.296422 0.33311906
0002b0 33 e9 5a 3e 24 4f af be 61 67 fd bd 9d 06 26 be
       0.21378021 -0.34240067 -0.123732336 -0.1621346
0002c0 70 fd 46 3e b2 57 14 be db 30 92 3e 9a 1c 9b be
       0.19432616 -0.14486578 0.285529 -0.3029526
0002d0 e3 49 97 be aa b7 7e bc 9d 5c a9 be bf ff 98 be
       -0.2954856 -0.015546719 -0.3307847 -0.2988262
0002e0 aa 95 78 3e e9 16 84 3e 39 bf 89 3e a4 4e bf 3e
       0.24275842 0.2579873 0.26903704 0.37364686
0002f0 8e 91 c3 bc 7f 8f 8e be 62 e2 af 3e 22 30 b7 be
       -0.023873117 -0.27843854 0.34352404 -0.3577891
000300 c2 47 81 be 5a 92 a1 be 2f 32 8e be 9a d4 aa bc
       -0.2525006 -0.3155697 -0.27772662 -0.02085333
000310 3d 1d ff 3e b0 1c cd 3e c7 00 c6 3e bb 40 13 be
       0.49826995 0.4006095 0.38672468 -0.14380161
000320 ce 0b a3 be 5e ae 98 be 12 61 6b 3e 71 f4 d2 3e
       -0.31844944 -0.29820532 0.22986248 0.4120212
000330 e4 79 8b be 3f 82 b5 be dd b8 ab be 48 8a fd 3c
       -0.27241433 -0.35450932 -0.33539477 0.030949727
000340 63 5a 8f 3e 9c 0d c0 3e 69 df a6 be 70 ea 95 be
       0.27998647 0.37510383 -0.32592323 -0.29280424
000350 4e af d5 3e 99 47 a6 be b9 7c e4 bc b4 42 a9 be
       0.4173531 -0.324765 -0.027891504 -0.33058703
000360 26 4a 82 be ab e8 9b 3e cf 17 a7 be 07 34 bf be
       -0.25447196 0.3045095 -0.32635352 -0.3734438
000370 5e 11 b4 be be b7 eb bd 07 f6 9b bc ee fe a9 3e
       -0.351695 -0.115096554 -0.019038213 0.33202308
000380 d6 74 77 bd 4e eb c2 3e 31 37 0a be 15 f0 8a 3e
       -0.060414158 0.38070148 -0.13497616 0.27136293
000390 6f dc ab be d4 9a ae 3e 0b a7 1b 3f 68 87 cd 3e
       -0.33566615 0.341025 0.6080176 0.4014237
0003a0 cd dd 95 bc 6f 52 ba be 2c 94 0a 3f f0 e0 9f be
       -0.01829424 -0.36391017 0.5413234 -0.312263
0003b0 23 70 a4 3e fd cf 9f be 43 b8 a1 be 5d 42 bb 3e
       0.32116804 -0.3121337 -0.31585893 0.3657407
0003c0 d2 27 c5 3e 90 4f a9 be 96 78 c8 3e 29 6f aa be
       0.38506943 -0.33068514 0.391545 -0.33287933
0003d0 84 03 19 3e 5b 26 43 bc 58 55 a7 be 89 99 17 3f
       0.14942747 -0.011911 -0.326823 0.5921865
0003e0 ab 17 d2 bc a2 bf 0a 3f c9 31 0e be 95 ed 9e be
       -0.025646051 0.5419866 -0.13886179 -0.31040636
0003f0 2f f2 fc 3e 8a 3b 8b be da 1d 2d be ce 0b c6 3e
       0.4940352 -0.27193862 -0.16905919 0.3868088

linear3_q1.weight f4 [1, 256]
000000 25 b0 0c 3e 9a b6 45 3e 55 12 16 c0 94 57 22 be
       0.13739069 0.19307938 -2.344869 -0.15853721
000010 30 fd a4 3f 2c 5b 10 c0 30 69 a1 3f bf 84 0e be
       1.2889767 -2.2555647 1.2610226 -0.13917826
000020 b9 9e b6 bd 1d cb 65 be fb 34 a8 3c e4 ab e3 3e
       -0.08916993 -0.22440763 0.020533076 0.4446708
000030 5c 6b 45 3b 70 83 e2 3c 02 d4 84 bd f0 bc 3d 3e
       0.0030123806 0.027650565 -0.0648575 0.18529105
000040 4f c7 bc 3e 62 ff 82 bf 22 f4 1c 40 77 51 aa 3e
       0.3687081 -1.0234187 2.4524007 0.33265278
000050 11 d0 8c be f4 79 e2 3e 9c 69 1a 3e 60 fc c7 3f
       -0.27502492 0.44233668 0.1507935 1.5623894
000060 1e 5b 5b bd 70 e3 8b be 4a 6d fa bc d9 db f9 bf
       -0.053553693 -0.2732196 -0.030569691 -1.9520217
000070 67 4f 89 3e e7 f4 52 be 07 ca d0 bd 46 8f 01 3f
       0.26818392 -0.20601235 -0.10194784 0.5060924
000080 e4 b1 4a be 55 0c 34 be 6a b8 f8 3f fd 57 43 c0
       -0.19794422 -0.1758283 1.9431279 -3.0522454
000090 e0 13 16 40 52 7e 6a be e3 23 9b 3d 68 e6 01 40
       2.344963 -0.2289975 0.07575204 2.029688
0000a0 cf 82 fe bd ea 52 f8 3d fd 80 e7 3f 03 d1 85 bd
       -0.124272935 0.121251896 1.8086239 -0.065340064
0000b0 0a 01 42 bf c9 71 45 3f 6a e1 84 3e 6f c6 58 3f
       -0.75782835 0.7712675 0.25953227 0.84677786
0000c0 30 d5 9c bd 2b 5d 0d 3e 1d 62 59 be dd 12 53 3e
       -0.0765785 0.13805072 -0.21228833 0.20612665
0000d0 15 81 32 bf 9e 04 96 bf 6b b8 e7 be fe 7d d7 bd
       -0.69728214 -1.1720159 -0.45257887 -0.10522078
0000e0 b2 66 7d 3e 58 3f 4c be 47 22 05 be c6 84 f5 be
       0.24746206 -0.19946039 -0.13001357 -0.4795286
0000f0 d6 80 5c be 1e c0 49 3f 8a b0 24 be 4b dc 05 be
       -0.21533522 0.7880877 -0.1608297 -0.13072316
000100 02 ef 1f bf 25 f2 f7 bd 67 37 38 3e 9e d5 a4 3e
       -0.6247407 -0.12106732 0.17989884 0.32194227
000110 4e 52 64 c0 c6 13 a0 bd 6b 69 41 be d3 38 f0 bd
       -3.5675235 -0.078162715 -0.1888787 -0.11729588
000120 4d e8 1f be 74 54 c1 bc 1c d2 8c 3e aa ce 25 3e
       -0.1561596 -0.02359984 0.2750405 0.16192117
000130 c9 72 9a 3f 1b a8 6f 3f 82 a7 a9 be 2b c7 1d c0
       1.206628 0.93615884 -0.3313561 -2.4652812
000140 9c 6c a1 3f e8 3a 2b be 38 92 71 c0 b2 d5 71 3e
       1.261127 -0.1672169 -3.7745495 0.23616675
000150 6d dc 09 bc 56 8d 82 bf 49 5f 2e be de 56 82 be
       -0.00841437 -1.0199382 -0.17028536 -0.254569
000160 f9 28 01 c0 0e 63 09 bf 77 13 da 3e 1e da 03 40
       -2.0181258 -0.5366677 0.42592975 2.0601878
000170 6e 8c b0 bd 98 9b 79 bd b1 da e3 3f 44 b5 1a 3f
       -0.08620535 -0.0609394 1.7801114 0.6043284
000180 7a 08 b1 3e 89 18 ac 3e c4 27 cb 3d 41 38 44 be
       0.3457678 0.3361247 0.09919694 -0.19162084
000190 4c c4 05 c0 64 4a c5 bd 79 5f 38 3e cb cd 2a bd
       -2.090106 -0.096333295 0.1800517 -0.041700166
0001a0 03 6c d5 3f b4 87 aa 3f 07 35 94 3d b2 7f 65 3e
       1.6673588 1.3322663 0.07236677 0.22411993
0001b0 78 ec 2d 3d ac 17 b7 bd c6 5d 79 be 74 48 88 be
       0.042461842 -0.08940062 -0.24352178 -0.26617777
0001c0 fb f7 42 3e bf 1d 49 be db 54 c1 3e 7c c0 05 bf
       0.1903991 -0.19640253 0.37760052 -0.5224683
0001d0 4a c5 1c be dd 8a cd bf 9e fb 6b be 73 c0 e1 bd
       -0.15309635 -1.6058003 -0.23045203 -0.11023035
0001e0 ed 8e 1c be d6 a3 c7 bf 1b a1 c1 3e 18 82 e0 3f
       -0.15288897 -1.5596874 0.37818226 1.7539701
0001f0 90 6a 5f be 4f db b4 3f f1 96 1e 3d 14 24 06 3e
       -0.21817994 1.4129428 0.038718168 0.130997
000200 68 48 57 c0 7c 4d c5 3e d5 6b 07 40 e8 b8 9b 3f
       -3.3637943 0.38535678 2.1159565 1.2165804
000210 20 37 e2 3d 63 19 5f be 94 ae f5 3f d2 1e 03 c0
       0.110456705 -0.21787028 1.9193902 -2.0487561
000220 1a 77 97 3e dc 27 a7 bd 85 78 a6 c0 ca dc 42 be
       0.29583055 -0.081618994 -5.202212 -0.19029537
000230 0f 24 58 be 54 90 e9 3d 6f 09 a1 3b 20 8a e6 3f
       -0.21107505 0.114044815 0.0049144547 1.8010902
000240 34 4c 8e be 7b 44 f3 bf 55 b1 00 be 4d 17 48 3e
       -0.27792513 -1.9005274 -0.12567647 0.19540139
000250 c1 29 fe 3f 97 26 93 3f 4c 64 14 bf 40 8b 16 40
       1.9856492 1.1496152 -0.5796554 2.3522491
000260 5c 48 a8 bd 50 5e 02 bf 6d a2 d1 bd 2e d8 79 be
       -0.082169265 -0.5092516 -0.102360584 -0.24398872
000270 80 43 75 3e 02 93 01 c0 0a c9 8c 3d 55 61 1b 3e
       0.2395153 -2.0245976 0.06874283 0.15173848
000280 ba 4d c8 3e e2 d3 19 be 26 38 bd 3c 75 ab 47 3e
       0.391218 -0.15022233 0.023098063 0.19499
000290 bd 8e 17 c0 17 c5 04 40 11 a6 e2 3f 52 ce c4 3e
       -2.368087 2.0745294 1.770693 0.3843866
0002a0 30 8c e0 3e 0b e1 05 c0 5d 84 83 bd 65 b2 fd 3f
       0.43856955 -2.0918605 -0.06421731 1.9820067
0002b0 99 58 df 3f 8a 62 08 be 56 06 c1 bf 14 fe c3 bf
       1.7448913 -0.1331884 -1.5080059 -1.5311913
0002c0 64 fe 89 3f 69 09 19 c0 9f c7 f3 3e d6 89 bc be
       1.0780759 -2.3911994 0.47613236 -0.3682391
0002d0 d5 2c 5f be e6 28 21 ba 5a 93 37 be 7d 82 3b be
       -0.21794446 -0.0006147757 -0.17927304 -0.18311496
0002e0 b0 e0 8f 3f 68 6e a2 3f f2 5a c4 3f f2 51 16 3e
       1.1240444 1.2689943 1.5340254 0.14679697
0002f0 fd b0 9d 3d 7c d8 0d c0 f4 3f bb 3e f3 b6 0f bf
       0.076997735 -2.2163382 0.3657223 -0.56138533
000300 34 e4 db bf 1d fe 11 be c0 90 3d be 8d 8f 90 bd
       -1.7179017 -0.14257093 -0.18512249 -0.0705863
000310 cc 31 a3 3f 08 24 ef 3d 53 84 07 40 9d 2f 84 bf
       1.2749572 0.11676794 2.1174514 -1.032703
000320 ff c6 09 be 4a 6e 2d be c9 5e 5c 3f 71 ba f8 3d
       -0.13454817 -0.16936603 0.8608213 0.12144936
000330 76 c0 a8 bf 14 cf dd be 96 dd 37 be 1d 3d 10 40
       -1.3183734 -0.4332205 -0.17955622 2.25373
000340 68 89 01 40 c1 fc 03 40 05 81 20 be bb ed 9b be
       2.0240116 2.0623019 -0.15674217 -0.3045481
000350 b5 db 6e 3e 4b c9 37 be 67 fb a5 ba f7 e9 00 be
       0.23325999 -0.17947881 -0.0012663425 -0.1258925
000360 82 e9 f9 be 0d 1b 2a 3e cd e4 b3 bd ce d0 47 be
       -0.48810965 0.16611882 -0.08783875 -0.19513246
000370 1a e1 02 be 4b af 98 3f f4 66 2a 3d 7f 30 44 3f
       -0.12781182 1.1928495 0.04160209 0.766365
000380 52 7c 9a c0 8e ed 6a 3e b5 12 f3 bf f4 b4 90 3f
       -4.827676 0.22942182 -1.8990084 1.1305223
000390 61 ad 0b be c6 7c e1 3d b1 44 e5 3e 48 7b 0f 3e
       -0.13640358 0.11010127 0.4477897 0.14011872
0003a0 f3 a7 c5 3b 15 03 a1 be 7b 6e 87 3e 40 84 fd bd
       0.006031984 -0.31447664 0.26451477 -0.1237874
0003b0 3d 45 e3 3f b6 6f 2e be 1b 42 7d be cd 17 ea 3f
       1.7755505 -0.17034802 -0.24732248 1.8288513
0003c0 fa 29 6a 3e 27 5c 50 be b7 55 6a 3e 4f a8 e7 bd
       0.22867575 -0.20347653 0.2288426 -0.11311399
0003d0 0a 3d 71 3f 9f 7d 64 3d e4 bb 93 be c1 53 f2 3e
       0.94233763 0.055783864 -0.28854287 0.47329524
0003e0 8c a0 14 bd d4 18 ee 3e 48 d7 94 c0 c3 16 11 be
       -0.036285922 0.46503317 -4.6512794 -0.14168839
0003f0 7c a7 6f 3e 61 61 83 be e8 b4 78 c0 7a 65 e4 3d
       0.23403734 -0.25660232 -3.8860416 0.111521676

linear1_q2.weight f4 [256, 26]
000000 96 51 e6 3d db 66 10 be 19 73 1e bf 19 0e 7b bd
       0.1124603 -0.14101736 -0.61894375 -0.06129274
000010 01 63 fd 3d 38 97 23 3e b1 f3 31 3d ae b3 41 3e
       0.12372399 0.15975654 0.043445293 0.18916199
000020 51 c9 15 3e 43 99 8c bd 5d 39 0b bd 23 c8 f6 3c
       0.14627577 -0.0686517 -0.033990253 0.03012473
000030 f8 6b a8 3d f9 2e 76 bd a4 69 a0 3c 3b 00 34 3e
       0.082237184 -0.06010339 0.019581623 0.17578213
000040 93 91 86 bb 8a 22 c0 be 9a 45 94 be 23 e1 87 3d
       -0.0041067093 -0.3752635 -0.28959352 0.06634738
000050 ec 3d 5d be d1 65 d0 be 00 94 b5 bb 2d 6f 36 3e
       -0.21605653 -0.4070268 -0.0055413246 0.17815848
000060 ef d4 32 3c 31 a9 69 3e 4e bf 46 3d ff c7 92 be
       0.010915025 0.22818448 0.048522286 -0.2866821
000070 df 58 bd bd ce b7 54 bd f3 37 2f 3d ed 5a 90 3e
       -0.092454664 -0.051933102 0.042777967 0.2819437
000080 4e e2 9d 3e 88 2b 03 be f5 05 22 be 6f 22 38 3d
       0.3083672 -0.12809575 -0.15822585 0.044954713
000090 28 49 16 3e 83 a9 9a 3d 95 51 e1 3d aa 5d 46 be
       0.14676344 0.07551863 0.11001889 -0.19371668
0000a0 35 88 ca ba 91 78 55 3e 3b 31 24 be 26 c7 b3 bd
       -0.001545197 0.20846774 -0.16034405 -0.08778219
0000b0 8d 8a 01 3d 4f bf c6 3d de b8 15 3f fe d0 7a bd
       0.031626273 0.09704458 0.5848521 -0.061234467
0000c0 73 1f 78 3d 8a bd d0 be 90 40 05 3f 09 66 36 bf
       0.060576867 -0.40769607 0.5205164 -0.71249443
0000d0 76 45 f4 bc e0 13 5b be af d1 b1 3c f0 a4 f9 3d
       -0.029818278 -0.213943 0.02170643 0.121896625
0000e0 29 52 b5 3d 33 c2 74 3e 0f 94 bb 3c da 48 9b be
       0.088535614 0.23902206 0.022897748 -0.3032902
0000f0 08 03 39 3e 39 2a 1a 3e ac 70 9c 3d 11 76 2e 3e
       0.18067563 0.15055169 0.07638678 0.17037226
000100 a0 42 31 3e 70 11 11 be b5 0e d1 bc 69 d8 b4 bd
       0.17310572 -0.14166808 -0.025519708 -0.088303395
000110 cf 43 4b 3e f1 18 91 3b ef 69 f7 bc 89 17 90 3d
       0.19850086 0.004428022 -0.03020188 0.07035739
000120 db e6 2c bf 30 0c 05 bf 27 bb 44 be 92 de 18 3f
       -0.6753976 -0.5197172 -0.19212018 0.59714615
000130 bb 61 3c 3f 41 c0 49 bf b7 a3 cd 3d 72 8c 30 be
       0.73586625 -0.7880898 0.10040992 -0.17241076
000140 e0 3a 66 bd 57 6f 6d bd cd 45 a5 ba 3d 00 26 3d
       -0.05620849 -0.05796751 -0.0012609303 0.04052757
000150 9c 33 50 3d 86 95 85 3e 99 92 3c 3d 3e 16 91 be
       0.05083047 0.2609064 0.046038244 -0.28337282
000160 12 e3 e3 3c e8 70 60 bd 10 86 a1 bb 6c 6c 12 3c
       0.027818237 -0.054795176 -0.0049293116 0.008936983
000170 e6 e6 9d bd 80 89 62 be 1a 12 44 bc 3e 89 bd bc
       -0.07710056 -0.22122765 -0.011967206 -0.023136731
000180 92 4e ae 3e fc 00 71 3e 20 f0 42 3e b9 f3 d4 3c
       0.3404432 0.23535532 0.19036913 0.025995122
000190 f6 eb 59 3e f3 ce 4e bf 36 d9 61 3d ba 35 fd bd
       0.21281418 -0.8078453 0.05513879 -0.12363763
0001a0 47 8c 0f bb bc e7 9e 3e 3f f6 2e 3d 8c 34 18 3e
       -0.002190368 0.31036174 0.042715307 0.14863795
0001b0 d9 9d c7 bc 8e 13 f6 bd 0a 23 32 3d db f6 cd 3d
       -0.02436726 -0.120154485 0.043490447 0.100568496
0001c0 93 ba 81 3d e2 a7 f7 bb ca b6 1b 3a e9 6e 3e be
       0.06334414 -0.007557855 0.00059400185 -0.18596996
0001d0 ed f4 0c be 55 0f 43 be 95 6d 51 3e 65 d5 29 3e
       -0.13765307 -0.19048817 0.20451958 0.1658531
0001e0 ba 88 1d 3e 8d ed 01 be a4 18 2d be 68 93 18 bd
       0.15384188 -0.12688275 -0.16903931 -0.037249953
0001f0 d7 da 31 bd ca 2b 29 bf 82 27 36 be 5e f2 b0 be
       -0.043421593 -0.6608244 -0.17788509 -0.3455991
000200 cc 4a c1 bd f9 3c 24 be 8a 6c 70 3e 08 bd a4 bd
       -0.094380945 -0.16038884 0.23478904 -0.08043867
000210 f8 91 fe 3c 36 fd b1 be ae c9 c7 be 6c 70 63 bd
       0.031075463 -0.34763497 -0.39021057 -0.055527136
000220 a2 75 9f 3d b3 59 85 3e d6 96 86 3e 68 d1 ba ba
       0.077861086 0.26044998 0.26286954 -0.0014253082
000230 c1 fb 59 be 9d ce d2 3d e8 59 bd 3d 57 d9 9e 3d
       -0.21287443 0.102933146 0.09245664 0.07756298
000240 2d 23 02 bd 31 ed aa 3d 87 14 c9 3c 63 04 98 be
       -0.031771827 0.08346022 0.024545921 -0.29690847
000250 8e d8 e4 3a a7 55 ce 3d 04 70 ce bd 8f a0 5f be
       0.0017459558 0.10074931 -0.10079959 -0.21838592
000260 2a 3c 01 be 1f 08 de be 02 44 3b 3e 06 0e f2 3d
       -0.12620607 -0.4336557 0.18287662 0.11819081
000270 14 b5 70 bd 6e ed 91 3e 9e e0 6d 3e 65 90 9f 3c
       -0.05876644 0.28501457 0.23230216 0.019478032
000280 90 51 0e bd f2 ff 09 3e dc c8 86 bd 18 19 d8 bd
       -0.034745753 0.13476542 -0.0658128 -0.10551661
000290 cc e0 17 bd e3 21 55 3d c6 c9 2c 3e 02 63 7c bb
       -0.037079617 0.05203427 0.16873845 -0.0038511162
0002a0 9c 67 dd 3c f3 30 00 be 7e f6 2e be 9e fd d4 bd
       0.027026944 -0.12518673 -0.17086217 -0.10399936
0002b0 c1 51 9c bd aa 2f 33 bd 68 e5 be 3d f0 e7 ac 3d
       -0.07632781 -0.043746628 0.093210995 0.08442676
0002c0 35 5e 49 be 46 da 48 bd 50 cb 27 3e 12 46 ca 3e
       -0.19664843 -0.049036287 0.16386151 0.39506584
0002d0 88 51 24 bf 84 ec b2 be 04 2e 79 3d a8 14 91 3d
       -0.64186907 -0.34946072 0.0608349 0.07084018
0002e0 6b 55 0b be d2 0e 46 be 1c 7f ba bc 9c bf 83 3d
       -0.13606803 -0.19341591 -0.022765689 0.06433031
0002f0 3d b3 40 3e 55 b5 76 be c6 58 93 bd 53 2d 8a 3d
       0.18818374 -0.2409261 -0.071946666 0.06746926
000300 98 f5 7e bd 6f be 5a 3d c9 07 ad be ae 8c 94 bc
       -0.062245935 0.053404268 -0.33795002 -0.018133488
000310 03 32 33 3e a7 79 d5 bc c0 48 ef bc 5d 7a 4f bd
       0.17499547 -0.026058985 -0.029209495 -0.050653804
000320 d5 b5 08 3e f9 ba 6f 3d 74 ac 91 3e bb a8 0e 3f
       0.13350613 0.05852792 0.28451884 0.5572621
000330 48 47 4b bf 03 43 9b be e4 b3 b7 bd f0 27 d3 3e
       -0.7940564 -0.30324563 -0.08969858 0.41241407
000340 0d 9e 15 3d 62 7d 2b 3e 5d 1a 01 be d2 72 f9 bc
       0.036527682 0.16747048 -0.12607713 -0.030450258
000350 c0 9b 8e 3d 19 04 6a 3e 04 db 46 3c f6 60 84 be
       0.06963301 0.22853126 0.012137178 -0.25855225
000360 81 8e fc 3d 3d 34 85 3d 8b 95 3c 3d 5e b4 95 bd
       0.12331868 0.06504104 0.046041053 -0.07309793
000370 43 d3 c2 be 96 38 f8 bd bf 4b 68 bd a0 f3 dd bc
       -0.38051805 -0.12120168 -0.056712862 -0.027093709
000380 e8 9d 5a 3c 40 3b 5c be 4d 66 0f 3e 39 09 7c 3d
       0.013343312 -0.21506977 0.14003868 0.061532233
000390 14 2e 24 3e ac 6f c6 3e 92 ab 94 bf 39 2c 83 3d
       0.16033202 0.38757074 -1.1614859 0.06404919
0003a0 f7 29 d4 3e d2 9e 76 be 41 db 46 be 85 95 5e 3d
       0.41438267 -0.24084023 -0.19419576 0.05434181
0003b0 92 4f 15 be 03 c9 80 3b 3b 33 03 be c4 b8 c2 bd
       -0.14581135 0.0039302125 -0.12812512 -0.095078975
0003c0 e1 e6 41 be b3 5f 97 be 98 2a 25 3d f1 f1 6a 3d
       -0.1893573 -0.295652 0.040323824 0.05735964
0003d0 74 77 a9 be 50 07 1c be 78 46 77 bd 04 98 a9 3d
       -0.33098948 -0.15237164 -0.06036994 0.08280948
0003e0 3e dd 23 be 18 9f 1a 3e fe 0c 5f be 4c 03 1e 3e
       -0.16002366 0.15099752 -0.217823 0.15430945
0003f0 35 a1 aa 3e 77 b2 35 bc 14 99 ea be 9c ae e5 3e
       0.33326116 -0.011089913 -0.45819914 0.4485978

linear1_q2.bias f4 [256]
000000 7d 8c 86 3e d8 99 84 3e 50 82 92 be c2 0f c2 3e
       0.2627906 0.25898623 -0.28615046 0.37902647
000010 c8 4e 1b 3e b5 19 ac 3e 6a f0 76 3e 44 70 05 be
       0.15166771 0.33613363 0.24115148 -0.13031107
000020 89 be 2d be 67 a2 06 be 12 29 3e be e0 60 f2 3e
       -0.16967215 -0.13147889 -0.18570355 0.47339535
000030 eb 4e 52 be 0c 55 df bd 0e 2e 31 3e 0d 87 6a bd
       -0.20537917 -0.10904893 0.17302725 -0.0572577
000040 35 52 81 3e 7c a2 ee 3e 33 ce 6c 3e 76 c4 74 be
       0.2525803 0.4660834 0.23125534 -0.23903069
000050 be 68 35 3d 2a 1e 8e bd b4 b9 88 3e 96 67 38 3e
       0.044289343 -0.06939347 0.2670418 0.18008265
000060 d0 21 46 3c 68 e9 19 3c bb 18 f7 3d 12 b5 cb 3d
       0.0120930225 0.009394027 0.12065264 0.09946646
000070 d2 86 2f 3e ba 67 30 be 7a 41 21 3e 57 d1 1c 3e
       0.17141274 -0.17227069 0.15747634 0.15314232
000080 0e 14 c0 b8 75 68 5b 3d 1c 85 11 3e 8e 65 77 3e
       -9.159009e-05 0.053566415 0.14210933 0.24159834
000090 f9 79 66 be 15 f1 a6 be cb 39 53 be 90 91 21 bd
       -0.22507466 -0.32605806 -0.20627515 -0.03944546
0000a0 63 4d d4 3e c6 c3 5b be 01 9d 5c 3e 1c 8b e3 3d
       0.4146529 -0.214614 0.21544267 0.111105174
0000b0 34 0d a0 3e ac a6 a3 3e 60 fb dc 3e 1d d6 7f 3d
       0.31260073 0.31963098 0.43160534 0.062460054
0000c0 30 5a 0e be 84 f0 f1 bd 70 42 59 bd b1 29 d9 3e
       -0.13901591 -0.11813453 -0.053041875 0.4241462
0000d0 8f 0c 5b be 83 51 be 3e f3 ae 30 3e 83 2a d3 bc
       -0.2139151 0.37171564 0.17254238 -0.025777107
0000e0 43 be 8d 3e 08 b4 9a 3e 07 51 b6 bc c1 02 1a be
       0.2768422 0.30215478 -0.022255434 -0.15040113
0000f0 f5 7b 8e be 15 06 fa 3d ff 1a a2 be ab d2 75 bd
       -0.27828947 0.12208191 -0.3166122 -0.06001536
000100 86 b2 84 be 17 af 91 3e 9d 3f 8a be 1f 96 3e 3c
       -0.25917453 0.28453895 -0.27001658 0.011632471
000110 aa 0a 5f 3e d4 81 ef 3c 27 89 d1 bc 75 7f 66 bd
       0.21781412 0.029236712 -0.025578095 -0.056273896
000120 0d 5a 04 be 08 cb 17 3e 5a dd 2f be 56 3b 78 3e
       -0.12924977 0.14823544 -0.17174283 0.24241385
000130 94 39 70 be 37 3a 4e bd 95 fd ca 3e 7a 3c 16 be
       -0.23459464 -0.050348487 0.39646593 -0.14671507
000140 46 e7 15 3e 84 c0 4a be 28 3b 7b 3e 9e 64 77 3e
       0.14639005 -0.19800001 0.24534285 0.24159476
000150 c2 c8 73 3e 5d ae 41 be 03 95 90 3e 76 07 c0 3e
       0.23807052 -0.1891417 0.28238687 0.37505692
000160 57 d0 59 3e 6c 0b c4 3d 90 b9 4a 3d cf ea 8d be
       0.21270882 0.09572491 0.049493372 -0.27718207
000170 17 db ab 3c 86 b5 33 be 31 b5 d2 be c7 e1 14 be
       0.020978494 -0.17549714 -0.41153863 -0.14539252
000180 32 46 82 3e f2 b7 95 be 67 38 72 be 71 66 59 3e
       0.2544418 -0.29241902 -0.23654328 0.21230485
000190 f2 f0 40 3e ab 5b 28 3e 67 59 c1 be f3 63 b0 3e
       0.18841913 0.16441219 -0.3776352 0.34451255
0001a0 b0 b1 58 be e7 ac 40 3e 6b 0e 7d 3e de 1f a3 be
       -0.21161532 0.18815957 0.24712531 -0.3186025
0001b0 e6 b6 f0 3d 5e 78 0d bd 15 9f 8c be a2 a7 11 bd
       0.11753635 -0.03453862 -0.2746512 -0.035560258
0001c0 23 20 03 3e 51 de bc 3e 19 ec 6c bd 92 cb 47 3e
       0.12805228 0.36888364 -0.057842348 0.1951125
0001d0 86 de cb 3d 57 de 22 be aa 4a c0 bd ae 8a 0b be
       0.09954552 -0.15905128 -0.09389241 -0.13627121
0001e0 ba 17 77 3e c4 44 05 3e 60 fe 18 3e 60 93 08 3e
       0.24130145 0.13014513 0.14940786 0.13337469
0001f0 97 c1 41 3e 6d 88 10 bb ed e0 33 3e 81 91 96 3e
       0.18921505 -0.0022053972 0.17566271 0.29407886
000200 1d 9b 8e 3e 81 5f c3 3e 22 76 67 be e4 2f 1f bd
       0.27852717 0.381588 -0.22603658 -0.03886403
000210 5a a9 4e 3d c4 82 f4 bc 19 af 81 be b9 af 2e be
       0.050454475 -0.02984751 -0.253289 -0.1705922
000220 c3 60 ac be ac 12 a5 bd 15 58 a8 3d 18 4b 8f bd
       -0.33667573 -0.08060202 0.08219925 -0.06996745
000230 3c 48 99 3e 20 9a 28 be dc 90 b2 3e 16 46 3a 3e
       0.29937923 -0.16465044 0.34876144 0.18190798
000240 b0 ea e0 3b 0e ed 00 3e c3 01 8a 3e ec bc 0a 3d
       0.0068639144 0.12590429 0.2695447 0.033871576
000250 72 a1 7a 3e ae 3c a6 3e e8 af 0c be ec 8f a5 be
       0.24475649 0.3246817 -0.13738978 -0.32336366
000260 aa b9 0b 3e f1 2e 65 3e 7e 98 b6 3e 39 35 12 3d
       0.13645044 0.22381188 0.35663217 0.03569529
000270 34 ac e2 3e e9 63 51 3c 58 34 7f be e9 5f 39 bd
       0.44272006 0.012780168 -0.24922311 -0.045257483
000280 3b 88 a7 3e 66 92 01 bf 48 93 24 3e ed 0c 64 3e
       0.32721123 -0.5061401 0.16071808 0.22270556
000290 79 f1 4d 3e f8 ec 29 3e 60 47 c3 3e b4 c1 9d be
       0.20111646 0.16594303 0.38140392 -0.30811846
0002a0 c1 41 51 be d1 02 30 3e a8 36 85 be 90 0e 23 bd
       -0.2043524 0.17188574 -0.26018262 -0.03980881
0002b0 a1 1d 1c bc 62 3f 25 3e 97 76 a5 3e e9 3e 32 3e
       -0.009528548 0.1613746 0.3231704 0.17406811
0002c0 3a 06 1f be 56 93 ae be 80 52 89 3e a6 ff b3 3d
       -0.15529719 -0.34096783 0.26820755 0.087889954
0002d0 26 b8 b5 bd be 62 b4 3e d5 b9 7f be fd df aa 3e
       -0.08873014 0.35231584 -0.24973233 0.33374014
0002e0 ee a3 ed bc df 40 c6 3e 98 b6 9d be 4e df 8d be
       -0.029008832 0.38721368 -0.3080337 -0.2770943
0002f0 04 1f 52 be 47 eb 01 3f ad 16 9c 3e 0b 5f 4b be
       -0.20519644 0.5074963 0.3048605 -0.19860475
000300 54 8b e7 3c 0a ba 6f 3e b0 53 8a 3d e3 6e b6 be
       0.028264679 0.23410812 0.067542434 -0.35631475
000310 a2 c2 96 3e f6 fe 18 3e 2b f2 f0 bd 3a 31 a4 3e
       0.29445368 0.1494101 -0.1176494 0.32068807
000320 30 a8 44 3e 2a f4 36 3e 37 8a b4 3c 75 03 b0 be
       0.19204783 0.17866579 0.022038562 -0.34377638
000330 f9 49 f8 bc a0 ce bc 3e 56 17 79 be 47 a0 8c bc
       -0.03030871 0.36876392 -0.24325308 -0.01716627
000340 64 84 3f be d8 1f 33 be 17 b8 cf 3e 95 b2 ac 3e
       -0.18702847 -0.17492616 0.40570137 0.33729997
000350 9f 74 03 bd 25 0b 45 be e7 94 60 3e a0 48 6b bd
       -0.03209364 -0.19242533 0.21931802 -0.057442307
000360 51 31 1b be 25 56 19 3e 4b 0d 88 bc 33 ba bc bd
       -0.15155531 0.14974268 -0.016607901 -0.09215202
000370 bf 72 a7 be 5d 6c 2e 3e 54 e7 aa 3e 00 00 00 00
       -0.32704732 0.17033525 0.33379614 0.0
000380 a9 87 e6 3d 42 92 67 be 0f da ea bd 83 f5 1e 3d
       0.11256344 -0.22614387 -0.114673726 0.038808357
000390 6e 9e c4 3e 33 04 9d 3e 59 ed f3 bc d2 a1 cf 3d
       0.38402122 0.30667266 -0.029776262 0.10138287
0003a0 0f 63 b8 3e aa 82 9f 3e 34 ec a6 be fb 55 2f be
       0.36013076 0.31154376 -0.32602084 -0.17122643
0003b0 9b 8f 8b 3e 61 d9 68 be ca af 89 ba 97 9e 18 be
       0.27258 -0.22739173 -0.001050466 -0.14904247
0003c0 87 3b 60 3e 5d 19 24 3e a1 ac 76 be 50 d1 1d be
       0.21897708 0.160253 -0.2408929 -0.15411878
0003d0 89 34 91 3e 18 73 ae 3e ee 2f 8b bd 27 0c d6 3e
       0.28360394 0.34072185 -0.06796251 0.41806147
0003e0 64 e8 15 3e 00 00 00 00 5c 5f 8e 3e 22 7d 27 bd
       0.14639431 0.0 0.27807128 -0.04089082
0003f0 41 22 1c bc 47 b6 9c be 3d 31 6d 3e 54 0c a0 be
       -0.009529651 -0.30607817 0.23163314 -0.31259406
