hydrone_aerial_underwater_ddpg/scripts/Models/sac_stage_2_air2D_tanh_3layers/980_policy_net.pth (torch_old, 294160 bytes, 8 tensors)

linear1.weight f4 [256, 24]
0	0xbebcb9de	-0.36860555
1	0xbe8ca4cb	-0.27469477
2	0xbc89d103	-0.016823297
3	0xbd7e9abd	-0.06215929
4	0xbe4e6190	-0.20154405
5	0xbd3a2018	-0.045440763
6	0x3e5b7488	0.21431172
7	0x3e296a7f	0.16544531
8	0xbcf9a4cc	-0.03047409
9	0xbe15d366	-0.14631423
10	0xbd961ae0	-0.07329345
11	0x3d6ec592	0.058293886
12	0x3e339b47	0.17539702
13	0x3e2fe6c7	0.17177878
14	0x3dda9c19	0.106743045
15	0xbd4e07e6	-0.0503005
16	0x3ca7ee9f	0.020499526
17	0x39dd6930	0.00042230776
18	0xbc1587f5	-0.009126653
19	0x3e463aa0	0.19358301
20	0x3ed2c2d7	0.41164276
21	0xbb99e71e	-0.004696741
22	0x3da1d4fe	0.07901953
23	0x3f47b77f	0.7801437
24	0x3bc2d4d6	0.005945782
25	0xbde038e7	-0.10948353
26	0xbe24e2df	-0.1610217
27	0xbe23b80c	-0.15988177
28	0xbe25623e	-0.16150758
29	0x3c798fff	0.015232085
30	0x3dc35623	0.09537914
31	0xbdeb5b8a	-0.11492069
32	0xbd6d799d	-0.057977308
33	0xbd9b5c7d	-0.07586
34	0x3cfba16b	0.030716619
35	0x3d719836	0.05898305
36	0x3dd8fa33	0.10594597
37	0x3be12412	0.006870755
38	0xbdbceee4	-0.09225252
39	0xbd69d937	-0.057091918
40	0x3d0a4281	0.03375483
41	0xbd68cfa6	-0.056838654
42	0xbda054f7	-0.07828706
43	0x3d7fc205	0.06244089
44	0x3e02f4ac	0.12788647
45	0xbdb8175f	-0.08988833
46	0xbc930860	-0.01794833
47	0xbdcb3a82	-0.09923269
48	0x39f8f6e5	0.00047486197
49	0x3d089081	0.033340935
50	0x3d1e1e62	0.038603194
51	0xbde51c58	-0.11187047
52	0x3e6544eb	0.22389571
53	0x3e656850	0.22403073
54	0xbd03da42	-0.03219057
55	0x3cd83557	0.026392622
56	0xbceb916b	-0.028755864
57	0xbe130fdc	-0.14361519
58	0xbd42f99f	-0.04760134
59	0xbdfbc3f1	-0.12293232
60	0x3e2a6b03	0.16642384
61	0x3e0c7694	0.13717109
62	0xbcc3e095	-0.0239108
63	0xbe3c7e12	-0.18407467
64	0xbe099667	-0.1343628
65	0xbe917ed4	-0.28417075
66	0x3d249311	0.040179316
67	0x3e3c7a75	0.18406089
68	0xbe41d858	-0.18930185
69	0x3f3eede9	0.7458177
70	0x3f58fe4b	0.8476302
71	0xbf0c1810	-0.54724216
72	0x3b40d54e	0.0029424015
73	0x3ca28695	0.019839564
74	0xbb59dd1b	-0.0033243361
75	0x3ac13e8c	0.0014743372
76	0xbd67c195	-0.0565811
77	0x3cb74966	0.022373866
78	0xbdfbb16f	-0.12289702
79	0xbc09e2cd	-0.00841589
80	0xbc84e385	-0.016221771
81	0x3b96de46	0.004604134
82	0x3d34d8b9	0.044151995
83	0x3d989e06	0.074520156
84	0xbd859cea	-0.065240696
85	0x3d53e1b2	0.05172891
86	0xbe1aa494	-0.15101844
87	0xbd01aa23	-0.031656396
88	0xbe047766	-0.12936172
89	0xbd9afb3a	-0.07567449
90	0xbe22e74d	-0.15908547
91	0xbe06db31	-0.13169552
92	0xbdb26fdd	-0.087127425
93	0x3c9e350b	0.019312402
94	0xbdb76443	-0.0895467
95	0xbdd37fc6	-0.10327105
96	0xbddb467e	-0.10706805
97	0xbc1adde2	-0.009452315
98	0x3c34e345	0.011040513
99	0x3dc2076a	0.0947407
100	0x3cafab04	0.021443851
101	0x3db48c29	0.08815796
102	0x3e35ded3	0.17760782
103	0x3d532ed9	0.05155835
104	0xbdbaf2b1	-0.09128321
105	0xbc753722	-0.014966758
106	0x3e165c3c	0.14683622
107	0x3dbd204c	0.09234676
108	0xbdc7544a	-0.09732874
109	0xbe7de2b7	-0.24793516
110	0x3e16a2c0	0.14710522
111	0x3dbf61ce	0.09344827
112	0xbd658ed8	-0.05604443
113	0x3de5643a	0.11200757
114	0x3ca8d9fb	0.020611754
115	0xbe755897	-0.23959576
116	0xbec273c7	-0.37978956
117	0x3e27e27e	0.16394994
118	0xbfdda5ca	-1.731622
119	0xbe0953b5	-0.13410838
120	0xbe03be12	-0.12865475
121	0x3d5e1a85	0.05422451
122	0xbcab22c9	-0.02089061
123	0xbd95f0fa	-0.07321353
124	0x3d8578b5	0.06517164
125	0x3dc37d2a	0.095453575
126	0xbe136ddc	-0.14397377
127	0xbcf904d7	-0.030397816
128	0xbdff5fe0	-0.124694586
129	0xbd377ec1	-0.044798616
130	0x3d6547c9	0.055976663
131	0xbe18a691	-0.1490729
132	0x3d0e67e4	0.034767047
133	0xbe3980f7	-0.18115602
134	0xbdbbdc62	-0.09172894
135	0xbd84d21b	-0.06485387
136	0xbdb1832d	-0.08667598
137	0xbdb1aa0d	-0.08675013
138	0xbd8e99be	-0.06962918
139	0x3d05c40f	0.03265768
140	0x3d204017	0.03912362
141	0x3db0936b	0.08621868
142	0x3cc52ec8	0.024070159
143	0xbd055d9e	-0.032559983
144	0x3a41a84a	0.0007387443
145	0x3d2b78bd	0.041863192
146	0xbd4228a0	-0.047402024
147	0x3e220088	0.15820515
148	0x3dc67027	0.0968936
149	0x3dbd310f	0.09237873
150	0xbe054603	-0.13014989
151	0xbea779e5	-0.32710186
152	0xbdd10bef	-0.10207354
153	0xbe39d864	-0.18148953
154	0xbe6ff1bb	-0.23432057
155	0xbe4a7568	-0.1977135
156	0x3e544ef7	0.20733248
157	0x3cb61dc9	0.022231
158	0xbe2c251f	-0.16811036
159	0x3dcd4a46	0.10023932
160	0x3dd3086e	0.10304342
161	0x3d421a14	0.04738815
162	0x3cb29248	0.021798268
163	0x3da536a9	0.08067066
164	0x3e4aa070	0.19787765
165	0xbf96c17b	-1.1777796
166	0x3f1e4b68	0.6183381
167	0xbf854182	-1.0410616
168	0xbce14f62	-0.027503673
169	0x3db3acb6	0.08773176
170	0x3da6380b	0.08116158
171	0x3df4898a	0.11940296
172	0xbc85943e	-0.016306039
173	0xbe2d27c9	-0.16909708
174	0xbe4f6f3e	-0.2025728
175	0xbe8799c1	-0.26484492
176	0xbeb728ca	-0.35773307
177	0xbef84ad0	-0.48494577
178	0xbee352d3	-0.44399127
179	0xbe48db3c	-0.19614881
180	0x3c220c76	0.009890666
181	0x3d3b17f4	0.04567714
182	0x3e824a5d	0.2544736
183	0x3e40006a	0.18750158
184	0xbd7149ca	-0.05890826
185	0x3e1ff07c	0.15619081
186	0xbdaacfa6	-0.08340387
187	0x3e196102	0.14978412
188	0x3baa7927	0.0052024308
189	0x3dfa4681	0.12220479
190	0xbee20b56	-0.44149274
191	0x3f8c324c	1.0952849
192	0x3df28c8d	0.11843214
193	0x3d1d6e76	0.038435422
194	0x3d94911c	0.0725424
195	0x3e18266b	0.14858405
196	0xbe4a3da3	-0.19750075
197	0xbdbed7fd	-0.0931854
198	0xbdcbd310	-0.09952366
199	0x3e239aea	0.15977064
200	0x3c3b3926	0.0114271995
201	0xbe3a6b73	-0.18205051
202	0xbea510ed	-0.32239476
203	0xbee50f18	-0.44738078
204	0xbeb75afb	-0.358116
205	0xbe57ad59	-0.2106222
206	0xbe011f06	-0.12609491
207	0xbda490f2	-0.080354586
208	0x3e7da2a5	0.24769075
209	0x3dc4d052	0.096100464
210	0x3e916528	0.2839749
211	0x3d85eabc	0.06538913
212	0xbcec9ce3	-0.028883403
213	0x3de548bc	0.111955136
214	0xbeedc230	-0.46437216
215	0xbdaac752	-0.083387986
216	0x3b03fd93	0.0020140156
217	0xbd0e14f2	-0.034687944
218	0x3d70cef4	0.058791116
219	0x3d160cc7	0.03663328
220	0xbce506e9	-0.027957397
221	0x3d372b71	0.044719163
222	0xbd914750	-0.0709368
223	0xbdbb52d8	-0.091466606
224	0x3c7a990d	0.015295279
225	0xbdcddd89	-0.1005202
226	0x3daa043d	0.0830159
227	0xbe0d1e25	-0.1378103
228	0xbc8755ed	-0.016520465
229	0x3e196de2	0.14983323
230	0xbda09ab3	-0.078420065
231	0x3dc527ed	0.09626756
232	0xbe0204f8	-0.12697208
233	0xbdcd72e3	-0.100316785
234	0x3cea79ac	0.02862247
235	0x3c178fef	0.009250625
236	0xbe50873c	-0.20364088
237	0xbeaad697	-0.33366844
238	0xbe7c532e	-0.24641106
239	0xbfd1f264	-1.6402097
240	0xbe6cdb37	-0.23130499
241	0xbe43ee87	-0.1913396
242	0xbe6e5210	-0.23273492
243	0xbea66ed1	-0.3250642
244	0xbe824fba	-0.25451452
245	0xbe27d6a5	-0.16390474
246	0x3d1c84e5	0.038212676
247	0xbe99779d	-0.2997407
248	0xbd4d35f7	-0.050100293
249	0x3da0736a	0.078345135
250	0x3e0dccfb	0.13847725
251	0x3d53f5af	0.051747974
252	0xbd852ea6	-0.06503038
253	0xbd8490db	-0.064729415
254	0x3eb2193a	0.3478487
255	0x3e145d21	0.14488651

linear1.bias f4 [256]
0	0xbdebeba3	-0.115195535
1	0xbc99d553	-0.018778479
2	0x3cf21390	0.029550344
3	0xbcb5a3f5	-0.022172907
4	0xbd6589b5	-0.05603953
5	0xbd28bae2	-0.04119385
6	0xbd1801e3	-0.037111174
7	0x3d9608fe	0.07325934
8	0x3dace2d1	0.08441699
9	0xbafacb45	-0.0019134065
10	0xbd14ed28	-0.036358982
11	0xbcb44d8d	-0.022009635
12	0xbd64d7d4	-0.055869892
13	0xbc7c6488	-0.015404828
14	0xbc132b8f	-0.008982553
15	0xbd22cabf	-0.039744135
16	0xbce6646f	-0.028124062
17	0xbd9861fc	-0.07440564
18	0xbd47319d	-0.0486313
19	0x3dde45c7	0.10853153
20	0xbd2eb05e	-0.042648666
21	0xbce6eb2b	-0.028188309
22	0x00000000	0.0
23	0xbc1bc11d	-0.009506491
24	0x3b24c981	0.002514452
25	0x3df48201	0.11938859
26	0xbd884100	-0.06653023
27	0x3c0571ad	0.008144778
28	0x3c5157e5	0.012777303
29	0xbd29e004	-0.041473404
30	0x3d1fe916	0.039040647
31	0xbc0931e6	-0.008373713
32	0x3d92811b	0.07153531
33	0xbc87620f	-0.01652625
34	0x3d4d8202	0.050172813
35	0xbd378d22	-0.04481233
36	0x3d694d80	0.056958675
37	0xbbcb9c42	-0.0062136957
38	0xbd541d49	-0.05178574
39	0xbcdf1e09	-0.027236002
40	0xbcd6712c	-0.026177011
41	0xbc94ff71	-0.01818821
42	0x3df61bac	0.12016997
43	0xbd92eb02	-0.071737304
44	0xbd12777c	-0.03575848
45	0xbcbb3f54	-0.022857346
46	0xbd42a9d3	-0.04752524
47	0x3beef1bd	0.007292001
48	0xbd8efa7b	-0.06981369
49	0xbd1f6ec5	-0.038923997
50	0x3ce94a81	0.028477909
51	0xbc2ead27	-0.0106614
52	0xb9e6825d	-0.00043966147
53	0xbc3b17d1	-0.0114192525
54	0xbdb2d921	-0.0873282
55	0xbc21028d	-0.009827268
56	0xbc71945c	-0.014744844
57	0x3c799ae5	0.015234684
58	0xbd3df82b	-0.04637925
59	0xbd025415	-0.031818468
60	0x3c09d0ef	0.00841163
61	0xbd4e6c60	-0.050396323
62	0x3d8e7403	0.06955721
63	0xbda170a4	-0.078828126
64	0x3b4e6f7b	0.0031499553
65	0xbce96494	-0.028490342
66	0x3cda1d9c	0.026625447
67	0xbcf77330	-0.030206293
68	0xbc760e12	-0.015018003
69	0xbdd798c2	-0.10527183
70	0x3d0c1edf	0.03420913
71	0x00000000	0.0
72	0xbda144fa	-0.07874484
73	0x3c824152	0.015900288
74	0xbce6a812	-0.028156314
75	0xbc1da821	-0.009622605
76	0xbc9fd103	-0.019508844
77	0x3c9e20e4	0.019302793
78	0x3cba9b8c	0.022779249
79	0xbcc97334	-0.024591066
80	0x3d518836	0.05115529
81	0xbd695768	-0.056968123
82	0x00000000	0.0
83	0xbc5ba97a	-0.013407106
84	0xbdc5c2f9	-0.09656329
85	0xbd9d9263	-0.07693937
86	0xbc07d3e7	-0.008290268
87	0xbc9bc5a7	-0.019015146
88	0x3d119072	0.035538144
89	0x3d408545	0.047002096
90	0x3b928eda	0.0044725956
91	0xbdbd550f	-0.09244739
92	0xbd4db8d1	-0.050225083
93	0xbbdea983	-0.0067951097
94	0xbc1a76a9	-0.009427705
95	0xbd051c1a	-0.032497503
96	0x3bbb9652	0.0057247067
97	0xbc95db4c	-0.018293045
98	0xbb100424	-0.0021975124
99	0xbd158360	-0.036502242
100	0xbcd85da0	-0.026411831
101	0x3c6ff5ae	0.014645977
102	0x3c9ca5ef	0.019122092
103	0x3caada44	0.02085603
104	0xbd262aea	-0.04056827
105	0x3b980b25	0.0046400004
106	0x3b8e59d4	0.0043442044
107	0xbd532626	-0.051550053
108	0x3ce38aec	0.027776204
109	0x3b952a81	0.004552186
110	0x3d9a412f	0.07531964
111	0xbc887b95	-0.016660491
112	0xbd9dd257	-0.07706135
113	0x3d7c10c5	0.06153943
114	0xbd649e1c	-0.055814847
115	0x3dc8350e	0.097757444
116	0xbd16d9b0	-0.036828697
117	0xbe00f675	-0.12594016
118	0xbde69775	-0.11259357
119	0x3d54cb59	0.05195174
120	0x3e040bf7	0.12895189
121	0xbd93e6ad	-0.07221732
122	0xbc9cf6f6	-0.019160729
123	0xbcdcdf2f	-0.026961891
124	0xbccf4bff	-0.025304792
125	0x3c9eb3f2	0.019372914
126	0xbcdd30a8	-0.02700074
127	0x3cd3da1d	0.02586084
128	0x00000000	0.0
129	0x3d318257	0.043337192
130	0x3de8e9a8	0.113726914
131	0xbc1b1f6c	-0.009467941
132	0xbce937e0	-0.028469026
133	0x00000000	0.0
134	0xbd1b3e0e	-0.037900977
135	0xbcf6f5d5	-0.030146519
136	0x3c82c64d	0.015963698
137	0x3d01caa5	0.031687398
138	0xbcba8141	-0.022766711
139	0x3da11784	0.078658134
140	0x00000000	0.0
141	0xbd54f48b	-0.051991027
142	0x3c8e68de	0.017383989
143	0x3d484080	0.048889637
144	0x00000000	0.0
145	0x00000000	0.0
146	0xbc2cfb0f	-0.010557904
147	0xbd075753	-0.033042263
148	0x3d0bf4fc	0.034169182
149	0x3d30c77d	0.043158997
150	0xbd3dfde1	-0.046384696
151	0xbd47fea0	-0.048826814
152	0xbdbac016	-0.09118669
153	0xbd0689d5	-0.03284629
154	0x3c5061dd	0.012718645
155	0x3da58370	0.0808171
156	0x3c821b1d	0.01588207
157	0xbd014e66	-0.031568907
158	0x3de32f5b	0.11093017
159	0xbc25636b	-0.010094504
160	0xbd92c089	-0.071656294
161	0xbc9946e1	-0.018710556
162	0x3d69168c	0.056906268
163	0xbdc88c5d	-0.09792397
164	0xbd25694e	-0.04038363
165	0xbd4887a3	-0.04895748
166	0xbcc4be92	-0.024016652
167	0xbcca6aad	-0.02470907
168	0x3d41f893	0.0473562
169	0x3d855eee	0.06512247
170	0xbd590396	-0.052981935
171	0xbcdca459	-0.026933836
172	0xbd29b676	-0.041433774
173	0xbbbfc2f5	-0.005852098
174	0x3c0f2b39	0.008738332
175	0xbd93b9c3	-0.072131656
176	0x00000000	0.0
177	0x3e45a3f2	0.19300821
178	0x3d1a1a18	0.03762254
179	0xbb9a1f53	-0.004703441
180	0x3c61bfd9	0.01377865
181	0x3b8bcdef	0.0042664926
182	0xbd60f6d9	-0.054922912
183	0x3cdec6cc	0.027194403
184	0x3d3d5d3b	0.04623149
185	0xbd264f5d	-0.04060303
186	0x3e1298f7	0.14316164
187	0x00000000	0.0
188	0xbd7be022	-0.061493047
189	0x3cbb5c93	0.022871291
190	0xbce3f24e	-0.0278255
191	0x3ab989f8	0.0014155498
192	0xbcf41ece	-0.029799845
193	0x3c9f3be1	0.019437732
194	0x3d2016fd	0.039084423
195	0x3c4268e2	0.011865826
196	0xbc842050	-0.016128689
197	0xbc958d14	-0.018255748
198	0x3ba7d9c2	0.0051223943
199	0x3d633a45	0.055475492
200	0xbd471451	-0.04860336
201	0xbd67abf0	-0.056560457
202	0x3d1f7098	0.038925737
203	0xbcde1c2b	-0.02711304
204	0xbcd30513	-0.025759256
205	0xbdc63bb9	-0.0967936
206	0x3d30772c	0.0430824
207	0xbc6d8089	-0.014495977
208	0xbc8fec74	-0.017568804
209	0xbd4e0f3a	-0.05030749
210	0xbba6b412	-0.005087384
211	0x3d3b195f	0.045678493
212	0xbd358e07	-0.0443249
213	0x3c243ae0	0.0100238025
214	0x3c3edbac	0.011649054
215	0x3bff1ff5	0.007785792
216	0xbd1008d3	-0.035164665
217	0xba8ccba8	-0.0010741847
218	0x3c5c4859	0.013444983
219	0x3cd821c3	0.026383286
220	0x3c943dee	0.018095937
221	0x3bc8acec	0.0061241295
222	0xba482bff	-0.00076359505
223	0x3df04dd0	0.117335916
224	0xbc8b63bd	-0.017015332
225	0x3cbcb827	0.02303703
226	0xbd8cc36b	-0.068732105
227	0xbd4f587d	-0.0506215
228	0xbacadca6	-0.0015477135
229	0xbd5dd46d	-0.054157663
230	0xbe0543f2	-0.130142
231	0xbc051488	-0.008122571
232	0xbc786c8b	-0.015162597
233	0x3ca3c304	0.019990452
234	0xbd773d07	-0.060360935
235	0xbdc6353d	-0.09678123
236	0x3cf0dbc3	0.029401666
237	0xbca9d16f	-0.020729749
238	0xbd5d4efc	-0.054030403
239	0xbdbfa540	-0.09357691
240	0x3bc9ee59	0.0061624465
241	0x3ca41e38	0.02003394
242	0xbd91d062	-0.07119824
243	0xbcb58037	-0.022155864
244	0xb8e8e6cf	-0.000111056135
245	0xbc05cc69	-0.008166411
246	0x3dbb9421	0.09159113
247	0xbd4a03ee	-0.049320154
248	0x3d183e98	0.03716907
249	0x3d4441d8	0.047914356
250	0xbc7f4c5b	-0.015582169
251	0x3ce410c4	0.027840026
252	0x3d36c498	0.04462108
253	0x3c927066	0.017875861
254	0xbc0cbda2	-0.008590134
255	0x3c675d95	0.014121433

linear2.weight f4 [256, 256]
0	0xbec45961	-0.3834944
1	0x3ba89d10	0.0051456764
2	0xbe3f54fc	-0.18684763
3	0x3c6313c0	0.013859689
4	0xbe2052d0	-0.1565659
5	0x3d4599bd	0.04824232
6	0xbdaac152	-0.08337654
7	0x3e477b2a	0.19480577
8	0x3e20fb01	0.1572075
9	0xbb901156	-0.004396598
10	0x3e5ae36c	0.21375817
11	0x3da44be8	0.080222905
12	0x3e7ec026	0.24877986
13	0xbd702a64	-0.058634177
14	0xbd3c4a92	-0.045969553
15	0xbc839154	-0.016060509
16	0xbdae801d	-0.085205294
17	0xbcf3b1ce	-0.02974787
18	0xbf3f915e	-0.7483119
19	0xbd8e4f1d	-0.069486834
20	0x3b98e9ef	0.004666559
21	0xbd636e5c	-0.05552517
22	0xbbff9680	-0.0077999234
23	0x3d2af476	0.041737042
24	0xbe85a1fe	-0.26100153
25	0xbb49284d	-0.0030694187
26	0x3c08f4a6	0.00835911
27	0x3d98bd00	0.07457924
28	0x3ea76c34	0.3269974
29	0xbe65fea5	-0.2246042
30	0xbda82cc8	-0.08211666
31	0x3f0b63d7	0.5444922
32	0xbeb6f096	-0.35730428
33	0x3d63b1d2	0.055589505
34	0xbd116f48	-0.035506517
35	0xbf0901a4	-0.5351813
36	0xbdd5a028	-0.10430938
37	0x3c9cce44	0.019141324
38	0x3eb0ded1	0.34544995
39	0xbe997be7	-0.29977342
40	0x3e8741d3	0.26417407
41	0xbf30cfc9	-0.69067055
42	0x3e9ad7ff	0.30242917
43	0x3d8eaaeb	0.06966194
44	0xbea7f95c	-0.32807434
45	0xbebbdc62	-0.36691576
46	0xbe9c7c88	-0.3056376
47	0x3e4c218f	0.19934677
48	0xbf33b850	-0.70203114
49	0xbd923c77	-0.07140439
50	0x3dcf4036	0.10119669
51	0xbe866c6f	-0.26254603
52	0xbdc96745	-0.0983415
53	0x3be22e68	0.0069025047
54	0x3e56a278	0.20960414
55	0xbefdf525	-0.49601093
56	0x3e8226bb	0.25420174
57	0xbe7f2b1b	-0.24918787
58	0xbe149d5f	-0.14513157
59	0x3e2b92e5	0.16755255
60	0x3e5ea892	0.21743992
61	0xbd994ed6	-0.0748574
62	0x3e34ea6d	0.17667551
63	0xbd90084b	-0.07032832
64	0xbecd0e0d	-0.40049782
65	0x3b5dcee0	0.003384523
66	0x3ddcc435	0.10779611
67	0xbf12476b	-0.57140225
68	0xbd399af8	-0.045313805
69	0xbeacea1d	-0.33772364
70	0x3dd1ec7b	0.10250183
71	0xbd008abc	-0.031382307
72	0xbe240746	-0.160184
73	0x3e9d4eb4	0.30724108
74	0xbf222cce	-0.63349617
75	0xbe647873	-0.22311573
76	0xbdbd0027	-0.09228545
77	0x3e44388f	0.191622
78	0xbdc677b2	-0.09690799
79	0x3d50937e	0.05092191
80	0x3d5a69a2	0.053323396
81	0xbde45e75	-0.11150829
82	0xbdd6e0fc	-0.10492131
83	0xbd890639	-0.0669064
84	0xbde0d43e	-0.10977982
85	0xbe363aed	-0.17795916
86	0x3d35d4d3	0.044392418
87	0x3dd678cf	0.10472261
88	0xbe24439f	-0.1604142
89	0xbf32463d	-0.69638425
90	0xbddc7934	-0.10765305
91	0x3deec7d7	0.1165921
92	0x3e66dbc1	0.22544767
93	0xbf226ae2	-0.6344434
94	0xbd119f4c	-0.035552308
95	0x3e0bfc3c	0.13670439
96	0x3ed54460	0.41653728
97	0x3d2e55a6	0.04256215
98	0xbdf5cd03	-0.120019935
99	0xbe22e693	-0.1590827
100	0x3f15f5ee	0.58578384
101	0xbcf7e4ae	-0.03026041
102	0xbee6cc56	-0.4507777
103	0x3e018974	0.1265009
104	0xbe5aae46	-0.21355543
105	0xbeda8f39	-0.42687395
106	0x3d23c038	0.039978236
107	0x3d4b59af	0.049646076
108	0x3f1f2357	0.621633
109	0xbe6a9d83	-0.22911648
110	0xbd7552be	-0.059893362
111	0x3dc100ff	0.09424018
112	0xbd2c7e31	-0.042112533
113	0xbc03ea6c	-0.008051496
114	0xbdf82689	-0.12116725
115	0x3e1f5499	0.15559615
116	0xbcc698d5	-0.024242798
117	0xbe80dec0	-0.25169945
118	0xbe98624b	-0.29762492
119	0x3e735d9e	0.23766181
120	0x3dbe7743	0.09300091
121	0x3e80cecc	0.25157773
122	0x3cae074d	0.021243716
123	0x3d147596	0.03624495
124	0xbf0895ef	-0.5335378
125	0x3ea522bd	0.32253066
126	0xbccf9078	-0.025337443
127	0x3e97e137	0.29664013
128	0xbda49dbc	-0.08037898
129	0xbd555484	-0.052082554
130	0x3d25d536	0.040486537
131	0x3ccba9ac	0.02486118
132	0x3c9c77dc	0.019100122
133	0x3d51d866	0.051231764
134	0x3da8fc46	0.08251242
135	0x3d5294d9	0.051411483
136	0xbda3156e	-0.07963072
137	0x3f0c6270	0.54837704
138	0xbdb7c95c	-0.08973953
139	0x3e354303	0.17701344
140	0x3bede680	0.0072601438
141	0xbd97229c	-0.07379648
142	0x3d2b6c62	0.04185141
143	0xbd579135	-0.052628715
144	0xbc39e028	-0.011344947
145	0xbdb1e5d2	-0.08686413
146	0xbe414653	-0.18874483
147	0x3dbe2c69	0.09285814
148	0xbde75fbf	-0.11297559
149	0xbed1ab46	-0.40950984
150	0x3db60e19	0.08889408
151	0xbd74e26b	-0.05978624
152	0x3df48d26	0.119409844
153	0xbb9696f4	-0.0045956317
154	0xbe866683	-0.26250085
155	0xbd9196eb	-0.071088634
156	0x3d91b87d	0.071152665
157	0xbe99a4ea	-0.30008632
158	0x3ea85545	0.32877555
159	0xbea15e6c	-0.3151735
160	0x3da98ed6	0.08279197
161	0x3e1fad5e	0.15593478
162	0xbe7fab49	-0.24967684
163	0xbf018841	-0.5059853
164	0x3ec34c50	0.3814416
165	0xbde3bc29	-0.11119873
166	0xbec948eb	-0.39313444
167	0xbd8f712e	-0.07004009
168	0xbe6ca7c3	-0.23110871
169	0x3e9efb16	0.31050938
170	0x3dbc06fb	0.09181019
171	0xbe90db6f	-0.28292415
172	0xbdb05d97	-0.08611601
173	0x3d100766	0.035163306
174	0x3e2fb366	0.17158279
175	0x3df8e1ad	0.12152419
176	0xbda443ef	-0.0802077
177	0x3e2111e0	0.15729475
178	0xbf57d823	-0.84314173
179	0x3ee4ebff	0.447113
180	0xbe76d2e8	-0.24103892
181	0x3e02f727	0.12789594
182	0xbe06c81c	-0.13162273
183	0xbe9e0c39	-0.308687
184	0x3e63c11a	0.22241631
185	0x3d15783f	0.03649163
186	0xbe832020	-0.25610447
187	0x3dda3a21	0.106556185
188	0xbd3a4165	-0.04547252
189	0xbe5155f1	-0.2044294
190	0xbe9a2c3d	-0.30111876
191	0xbf2cc01f	-0.67480654
192	0x3d49afcd	0.049239922
193	0xbea7d7ec	-0.32781923
194	0xbd4d4205	-0.05011179
195	0x3e7ae346	0.2450076
196	0xbf548930	-0.8302183
197	0x3dc0c087	0.09411722
198	0x3d19e70c	0.03757386
199	0x3eeb91db	0.46009716
200	0x3ddf944d	0.10916958
201	0x3cfffd03	0.031248575
202	0xbda2c8cb	-0.079484545
203	0xbd20d476	-0.03926512
204	0x3e93ee7b	0.28892884
205	0xbe059602	-0.13045505
206	0xbe8813fa	-0.2657774
207	0xbf2e5fba	-0.6811482
208	0xbdd65c87	-0.10466867
209	0xbe479f78	-0.19494426
210	0xbe9a52f5	-0.30141416
211	0xbf1f88ec	-0.623183
212	0xbde10e37	-0.109890394
213	0x3d9469f3	0.07246771
214	0xbee52948	-0.44758058
215	0xbebc6e45	-0.3680288
216	0xbdb10f64	-0.08645514
217	0xbe711799	-0.23544158
218	0x3cd9e03e	0.026596185
219	0xbb4b5298	-0.0031024572
220	0xbe6c64c7	-0.23085319
221	0xbd8a969f	-0.0676701
222	0xbe0c3b7b	-0.13694565
223	0xbe746a20	-0.23868608
224	0x3c2d2ae0	0.010569304
225	0xbe9c7305	-0.30556503
226	0xbef56253	-0.47926578
227	0xbe36b544	-0.17842585
228	0xbd9af058	-0.07565373
229	0x3d749c9c	0.059719667
230	0xbe9a2a0e	-0.3011021
231	0xbe8e6b91	-0.27816442
232	0xbec74a7d	-0.38924018
233	0xbde15fad	-0.11004577
234	0xbd4dfe1b	-0.050291162
235	0xbe34c305	-0.17652519
236	0xbee218f0	-0.4415965
237	0xbe0efa8d	-0.13962765
238	0x3ec472ab	0.38368735
239	0xbf25e62f	-0.6480436
240	0x3d9e9927	0.07744055
241	0xbdd4c8b9	-0.10389847
242	0xbf191827	-0.5980248
243	0x3d442e53	0.04789574
244	0xbc828888	-0.015934244
245	0xbee9668a	-0.45586044
246	0xbf4205bf	-0.7579002
247	0x3e202644	0.15639597
248	0xbdcd9529	-0.10038216
249	0xbdee72af	-0.11642968
250	0xbeaf992f	-0.34296557
251	0xbe96fdf8	-0.29490638
252	0xbed2a228	-0.4113934
253	0xbd9ec194	-0.07751766
254	0xbcb8f65e	-0.022578415
255	0xbe5d0eda	-0.21587697

linear2.bias f4 [256]
0	0xbe74cf50	-0.23907208
1	0x3d8d18bd	0.06889484
2	0x3e25bc4e	0.16185114
3	0xbd84b21d	-0.06479285
4	0x3e2a4a4f	0.16629909
5	0xbdb52d5b	-0.088465415
6	0x3db9b7d4	0.090682656
7	0x3e05bdf4	0.13060743
8	0x3e16f79a	0.1474289
9	0xbecc9a1f	-0.39961335
10	0x3e7ef450	0.24897885
11	0x3d8cc3e0	0.06873298
12	0xbd422f0f	-0.04740816
13	0x3df65f72	0.120299235
14	0x3e40871f	0.18801545
15	0xbd5f55a5	-0.054525036
16	0x3dbae69e	0.09126018
17	0x3e05127e	0.12995335
18	0x3ec5ecac	0.3865713
19	0x3dad6d96	0.084681675
20	0xbe84fcb3	-0.25974044
21	0x3d4e6256	0.05038675
22	0x3e7d85da	0.24758092
23	0x3d32304c	0.04350309
24	0xbd5d9842	-0.054100282
25	0x3e1a8ad9	0.15092029
26	0x3ce17c55	0.027525106
27	0xbc9defeb	-0.01927944
28	0xbdda2057	-0.106506996
29	0x3e42578a	0.18978706
30	0xbe310912	-0.17288616
31	0x3d5454b1	0.05183858
32	0x3db2ec3c	0.087364644
33	0xbade04ce	-0.0016938688
34	0x3e129aa0	0.14316797
35	0xbe325695	-0.17415841
36	0xbd76d5f0	-0.06026262
37	0x3dae4114	0.085085064
38	0x3d1951cc	0.037431523
39	0x3981c812	0.0002475386
40	0x3d329186	0.043595813
41	0x3e2a868d	0.1665289
42	0xbd25b781	-0.040458206
43	0xbc028886	-0.00796712
44	0xbc770889	-0.0150777185
45	0xbdda5d20	-0.106622934
46	0xbd869a72	-0.06572427
47	0xbd95d0cc	-0.073152155
48	0xbc8ee254	-0.017441906
49	0xbb85c279	-0.004082021
50	0xbd8d9e6a	-0.06914981
51	0xbdca36e0	-0.09873748
52	0x3dfd53c2	0.12369491
53	0xbd2ad4e0	-0.04170692
54	0x3e0f4269	0.13990177
55	0x3d031ce3	0.03200997
56	0xbd346c15	-0.044048388
57	0xbe39c8ac	-0.18142956
58	0xbd8ae834	-0.067825705
59	0x3a536a0a	0.0008064812
60	0x3dd59aa6	0.104298875
61	0x3d8f171d	0.069868304
62	0xbdf1267a	-0.11774917
63	0x3d655af3	0.05599494
64	0x3dbb256f	0.09137999
65	0xbd947522	-0.07248904
66	0x3e6fa287	0.23401843
67	0xbd20cf4c	-0.039260194
68	0xbe887106	-0.2664873
69	0xbd98dfe5	-0.074645795
70	0xbaa2d7c9	-0.0012423928
71	0xbeb2acae	-0.3489737
72	0x3dd02d45	0.101648845
73	0x3dd80c9f	0.10549282
74	0xbe09c25b	-0.13453047
75	0x3da881bf	0.08227872
76	0x3de13b7c	0.10997674
77	0xbea674be	-0.32510942
78	0xbc416603	-0.011804107
79	0xbda9afd2	-0.08285488
80	0x3daf7832	0.08567847
81	0x3d468d9c	0.048474893
82	0xbcb3be20	-0.021941245
83	0xbce51a4b	-0.027966639
84	0xbd7e5e3c	-0.062101588
85	0xbd403044	-0.04692103
86	0x3e30cd98	0.17265928
87	0xbd52940a	-0.051410712
88	0xbdf9d312	-0.121984616
89	0x3e0a1b28	0.13486922
90	0x3c864f1c	0.016395144
91	0xbd8cdbe1	-0.06877876
92	0xbcea50db	-0.028603008
93	0xbd3161d6	-0.043306194
94	0xbcdc0e3a	-0.026862253
95	0x3d8e9325	0.06961659
96	0xbe911fd4	-0.28344595
97	0xbe0f183b	-0.13974087
98	0xbe008b02	-0.12553027
99	0x3dcf72d4	0.101293236
100	0xbcb86d57	-0.022513075
101	0x3dc4dcb9	0.09612412
102	0x3c2dd52f	0.010609909
103	0x3c0f9ca4	0.008765373
104	0x3e52685e	0.20547625
105	0x3db25c16	0.0870897
106	0x3e78d8a8	0.24301398
107	0x3d7768a5	0.06040253
108	0x3de4570e	0.11149417
109	0xbd5c5787	-0.05379441
110	0xbd46b537	-0.048512664
111	0xbc326892	-0.010889189
112	0x3d7bb06c	0.061447546
113	0x3cc73ab6	0.024319988
114	0x3db31f31	0.08746184
115	0x3c1741b9	0.009231978
116	0xbd6b4227	-0.057436135
117	0xbdf8c4ca	-0.121469095
118	0xbd4743d8	-0.048648685
119	0x3d949498	0.072549045
120	0x3e31a6a0	0.17348719
121	0x3e49a198	0.1969055
122	0xbdc4a925	-0.09602574
123	0xbcc30b0e	-0.023808982
124	0xbd899ee1	-0.06719757
125	0x3dba3414	0.09091964
126	0x3e9db757	0.3080394
127	0x3db23886	0.08702187
128	0xbc46715d	-0.012111989
129	0x3e3b0de7	0.18267022
130	0x3daa97a0	0.083297014
131	0x3e388b50	0.18021894
132	0xbd9c08ed	-0.0761889
133	0xbd5085e0	-0.050908923
134	0xbcbd872c	-0.023135744
135	0xbd1d7495	-0.03844126
136	0x3eac70c2	0.33679777
137	0xbd08ed55	-0.033429462
138	0xbe78612d	-0.2425582
139	0x3e680a56	0.22660193
140	0xbd7fcbb5	-0.06245013
141	0x3cf1ddf3	0.029524779
142	0xbd65d131	-0.056107704
143	0xbcfbcf25	-0.030738423
144	0x3ccdcc75	0.025121907
145	0xbd5787c4	-0.05261971
146	0x3dd5d6db	0.10441371
147	0xbb8fc661	-0.0043876623
148	0x3dbbf5ec	0.09177765
149	0x3e33c4a6	0.17555484
150	0xbd384bff	-0.04499435
151	0xbe4c2803	-0.19937138
152	0x3b025e65	0.001989269
153	0x3f0f3a69	0.559485
154	0xbd921572	-0.071329966
155	0xbda48bd8	-0.080344856
156	0xbdbaed7c	-0.09127328
157	0x3f1c4aa1	0.61051375
158	0xbe1d795f	-0.1537833
159	0x3e90fa13	0.2831579
160	0x3d92b2c3	0.07163002
161	0xbc3e7b2e	-0.011626048
162	0x3d64065e	0.055670135
163	0x3e1e9dc7	0.15489875
164	0x3d8e0d12	0.06936087
165	0xbd460fb7	-0.04835483
166	0x3e622da8	0.22087729
167	0x3e065835	0.13119586
168	0xbdc25e1b	-0.094906054
169	0xbd90a529	-0.07062752
170	0xbe8b5ae8	-0.27217793
171	0xbe349b0d	-0.17637272
172	0xbd3d1051	-0.04615814
173	0xbbc734b3	-0.0060792803
174	0xbe066818	-0.13125646
175	0xbccd855b	-0.025088003
176	0xbd471d1d	-0.04861175
177	0xbe5e2a71	-0.21695878
178	0x3d262619	0.040563677
179	0x3d349ba5	0.044093747
180	0x3d35ac1f	0.0443536
181	0xbddac724	-0.10682514
182	0xbde301e9	-0.11084349
183	0xbdbaa6f1	-0.09113873
184	0xbdadf930	-0.08494794
185	0x3d2088c5	0.039192934
186	0xbdb84913	-0.08998313
187	0xbd8ae030	-0.067810416
188	0x3e1518d0	0.14560246
189	0x3da27d0f	0.07934009
190	0xbe243e2a	-0.16039339
191	0xbc8d9fd5	-0.017288128
192	0xbcd9dae0	-0.026593626
193	0x3e1fbaa5	0.15598543
194	0xbe006bb0	-0.1254108
195	0x3bc32309	0.0059551043
196	0xbdd7291f	-0.1050589
197	0xbcd5ab7d	-0.026082749
198	0x3eb7615f	0.35816476
199	0x3d9d4e01	0.07680894
200	0x3ba80446	0.0051274626
201	0x3d09e0c4	0.03366162
202	0xbd0a3e6f	-0.033750948
203	0xbe2fb90e	-0.17160437
204	0xbd106693	-0.035254072
205	0x3c15fc23	0.009154352
206	0xbe1d7a29	-0.15378632
207	0x3e13df11	0.14440562
208	0xbd4d2f54	-0.050093964
209	0x3db01f14	0.08599678
210	0xbd5b365a	-0.05351863
211	0xbdbc992e	-0.09208904
212	0x3d66501b	0.05622874
213	0xbd9b2902	-0.07576181
214	0x3e4172dc	0.18891472
215	0xbda2c4fd	-0.07947729
216	0x3dcb3a9a	0.09923287
217	0x3e399598	0.18123472
218	0x3da7ea9a	0.081990436
219	0xbcc32011	-0.023819001
220	0x3be11615	0.0068690875
221	0xbd96c552	-0.073618546
222	0xbd5707d3	-0.052497696
223	0x3e86446b	0.26224074
224	0xbd0a421a	-0.033754446
225	0xbd361ce1	-0.044461135
226	0x3d85cd01	0.06533242
227	0x3e1e8d24	0.15483528
228	0xbd59a106	-0.05313208
229	0xbda74f37	-0.08169406
230	0x3da8dd6b	0.08245357
231	0x3d04e2e8	0.032442957
232	0x3d0302d6	0.031985126
233	0xbe0b4f8e	-0.13604566
234	0x3dde2166	0.10846214
235	0xbdb7473a	-0.08949132
236	0xbbe034cf	-0.006842233
237	0x3cb9127f	0.022591827
238	0x3e6e5908	0.2327615
239	0x3d2993b1	0.041400615
240	0x3d5b25aa	0.053502716
241	0x3d8ade2f	0.067806594
242	0x3e6fd11c	0.23419613
243	0x3e2e93b1	0.17048527
244	0xbc906935	-0.017628292
245	0xbd87989e	-0.06620906
246	0x3e9ca3fc	0.3059386
247	0x3bf997d8	0.007616978
248	0x3e1846dc	0.1487078
249	0xbd8246b6	-0.06361143
250	0xbd35e365	-0.044406313
251	0xbd07df80	-0.03317213
252	0x3deed349	0.11661393
253	0xbf2cab2a	-0.67448676
254	0xbdd290a4	-0.10281494
255	0x3e6c6560	0.23085546

mean_linear.weight f4 [2, 256]
0	0xbe819b87	-0.2531397
1	0xbedd1312	-0.43178612
2	0x3e138003	0.14404301
3	0x3d33c7d7	0.043891754
4	0x3c5321b1	0.012886451
5	0xbf0ebebb	-0.5575978
6	0x3f2e153d	0.6800116
7	0x3f621fa6	0.8832954
8	0x3e7d896b	0.24759452
9	0xbea4f1d6	-0.32215756
10	0x3f3baff4	0.7331536
11	0xbe182a3f	-0.14859866
12	0xbc3b07da	-0.011415446
13	0x3f0b765e	0.5447749
14	0x3eda2149	0.4260352
15	0x3d557e3b	0.052122336
16	0x3e525d3c	0.20543379
17	0x3f2b667e	0.66953266
18	0x3e9a69cb	0.3015884
19	0xbdd55683	-0.104168914
20	0x3e8dba49	0.27681187
21	0x3f016356	0.505422
22	0x3ea71389	0.32632092
23	0xbe44ea95	-0.19230111
24	0xbec16831	-0.37774804
25	0xbe2189ff	-0.15775298
26	0xbe81d96c	-0.25361192
27	0xbe971ede	-0.29515737
28	0x3e957098	0.29187465
29	0xbf5c92cc	-0.86161494
30	0xbe88796c	-0.26655138
31	0x3e6d2676	0.23159203
32	0x3f54776d	0.8299473
33	0xbeb5454f	-0.3540444
34	0xbe28e0c0	-0.16491985
35	0x3e57a7cd	0.21060105
36	0xbc15a8fb	-0.009134526
37	0xbf4dbd66	-0.80367124
38	0x3f467373	0.7751991
39	0xbf24846e	-0.6426457
40	0xbe9bc92b	-0.30426916
41	0x3f4d0bdf	0.8009624
42	0x3e31331e	0.17304656
43	0xbebb3f60	-0.3657179
44	0xbf1cb434	-0.6121247
45	0xbeb0cf3f	-0.34533116
46	0xbdae752a	-0.08518441
47	0x3e018b76	0.12650856
48	0x3e80c24f	0.25148246
49	0xbd74342c	-0.059620067
50	0x3f06faf0	0.5272665
51	0x3e98c1f4	0.29835474
52	0xbf1f2b71	-0.6217566
53	0x3d993d97	0.074824505
54	0xbde20479	-0.11036009
55	0x3dc338a5	0.095322885
56	0x3e4f4d1c	0.20244259
57	0x3edbeb54	0.4295298
58	0xbf6996bb	-0.9124562
59	0x3cbcf9ed	0.023068393
60	0xbf76660e	-0.96249473
61	0x3ec7ecb8	0.3904779
62	0xbe744cc6	-0.23857412
63	0xbe32fb80	-0.17478752
64	0x3f08e298	0.53470755
65	0x3f7c1e95	0.98484164
66	0x3f08bd57	0.5341391
67	0xb907a52f	-0.00012936139
68	0x3dc02847	0.09382682
69	0x3e9cd7a0	0.3063326
70	0xbf3c0e88	-0.7345967
71	0x3e4cae66	0.19988403
72	0xbe3b37ff	-0.1828308
73	0x3eda2ebd	0.42613783
74	0xbe704f79	-0.23467816
75	0xbeb65df5	-0.3561856
76	0x3ef10132	0.47071224
77	0x3e355dea	0.17711607
78	0x3e151752	0.14559677
79	0xbf29fe7f	-0.66403955
80	0xbdfa690d	-0.12227068
81	0xbdaa9ee4	-0.08331087
82	0xbe13fa81	-0.14451028
83	0x3f1a29d2	0.6022006
84	0xbd7d4902	-0.061837204
85	0xbe0c1c5d	-0.13682695
86	0xbfab4841	-1.3381425
87	0xbf43550a	-0.76301634
88	0xbebb9352	-0.36635834
89	0xbeab71e2	-0.33485323
90	0xbd5f37bc	-0.05449651
91	0x3e40a69f	0.18813561
92	0xbf376438	-0.71637297
93	0xbd59e952	-0.053201027
94	0xbf033421	-0.5125142
95	0x3eedeb8f	0.4646878
96	0xbd9213f1	-0.0713271
97	0x3e4f9998	0.20273435
98	0xbf139096	-0.57642496
99	0x3f07db1d	0.53068715
100	0x3ef389de	0.47566122
101	0xbd23e69d	-0.04001485
102	0x3ec1e71f	0.37871644
103	0x3e5beba4	0.21476609
104	0x3e125f7b	0.14294235
105	0xbe01329d	-0.12616964
106	0xbf0385ae	-0.51375854
107	0x3e017ed1	0.12646033
108	0x3da428f6	0.08015625
109	0x3f3d4d7b	0.7394635
110	0xbe61c344	-0.22047144
111	0x3eaed0ba	0.3414362
112	0xbe8ac13f	-0.2710056
113	0x3f06b0c3	0.52613467
114	0x3e660c56	0.22465643
115	0x3e87d6ae	0.26530975
116	0xbf3772a4	-0.716593
117	0xbe5c2119	-0.21497001
118	0x3f0c726d	0.548621
119	0xbeab706f	-0.33484218
120	0x3e570fe3	0.21002154
121	0xbd22b803	-0.03972627
122	0xbf0eee3f	-0.55832285
123	0xbdbd2618	-0.092357814
124	0xbd918680	-0.07105732
125	0xbf7954cc	-0.97395015
126	0xbe612327	-0.21986066
127	0x3f69d330	0.9133787
128	0x3f05aa70	0.5221319
129	0xbd5dfd6c	-0.05419676
130	0x3e9f740b	0.3114322
131	0x3ebacc9e	0.36484236
132	0xbd314fff	-0.04328918
133	0xbe8751e6	-0.2642967
134	0xbebc8896	-0.36822957
135	0xbd991d89	-0.074763365
136	0x3e7bcad9	0.24589099
137	0xbcfd4d72	-0.030920718
138	0x3de134ec	0.10996422
139	0x3de68751	0.11256278
140	0xbeeafc20	-0.4589548
141	0xbf167f85	-0.5878833
142	0xbc8c5568	-0.017130569
143	0x3daf5a67	0.08562165
144	0x3e91b478	0.28458
145	0xbda5e281	-0.08099843
146	0x3f7b38af	0.9813337
147	0x3f155387	0.5833058
148	0x3f329719	0.69761807
149	0xbf270e35	-0.65256053
150	0x3e96f7b6	0.29485863
151	0xbc64fdbb	-0.01397651
152	0xbd3aba1f	-0.045587655
153	0xbe00e754	-0.12588245
154	0x3f0dc7f1	0.5538321
155	0xbc09f7c0	-0.008420885
156	0xbdc4f578	-0.09617132
157	0xbe1d21d7	-0.1534494
158	0x3da89b96	0.08232801
159	0x3e602c5d	0.21891923
160	0xbd14a1fa	-0.036287285
161	0xbe2f5e17	-0.17125736
162	0x3e8ee54d	0.27909318
163	0xbebcc1ff	-0.36866757
164	0xbf2d1bea	-0.6762072
165	0xbe4f5b7f	-0.20249747
166	0xbf539e76	-0.8266367
167	0xbe3a4348	-0.18189728
168	0xbe197fa0	-0.14990091
169	0xbe1775bd	-0.14791007
170	0x3e8c17d3	0.27361926
171	0xbd7801c3	-0.060548555
172	0xbd26ba24	-0.04070486
173	0x3e95aa55	0.29231516
174	0xbeb3dd3f	-0.35129735
175	0x3e2a9d76	0.16661629
176	0xbce786c2	-0.0282625
177	0xbda212bf	-0.07913732
178	0x3f3e86d5	0.7442449
179	0x3e66bdb5	0.22533305
180	0xbefa26a9	-0.4885762
181	0xbf46276e	-0.77403915
182	0xbddc785f	-0.107651465
183	0xbe3133b8	-0.17304885
184	0x3e0c8903	0.13724141
185	0x3e5929c2	0.21207336
186	0x3d83daeb	0.0643824
187	0xbe378a87	-0.17923938
188	0x3e96f882	0.2948647
189	0x3e79ad19	0.24382438
190	0x3e1aec31	0.15129162
191	0x3d4a9b67	0.04946461
192	0xbf0aac24	-0.54168916
193	0xbe06a29f	-0.13147973
194	0xbd23247d	-0.03982972
195	0x3e8367fb	0.25665268
196	0xbdbd790a	-0.09251602
197	0x3e373c21	0.17894031
198	0xbea43521	-0.32071784
199	0x3e7a45a1	0.24440624
200	0x3ccc649b	0.024950316
201	0xbb92557e	-0.004465758
202	0xbd181028	-0.037124783
203	0x3efeaaaf	0.49739596
204	0xbf2f226e	-0.6841191
205	0x3e8eec03	0.27914438
206	0xbe989ab6	-0.29805535
207	0x3f4ae35d	0.7925318
208	0x3d8873ce	0.06662713
209	0x3e358182	0.17725185
210	0x3e22b595	0.1588958
211	0xbf2ff02e	-0.6872586
212	0x3eb66194	0.3562132
213	0xbda80007	-0.0820313
214	0xbe3d0e59	-0.18462504
215	0xbe982713	-0.2971731
216	0x3e406afb	0.1879081
217	0xbd78977e	-0.06069135
218	0x3dcb4aa7	0.09926348
219	0xbf7b639c	-0.98198867
220	0xbea6b98e	-0.32563442
221	0x3dc11eda	0.094297126
222	0x3eda37ab	0.42620596
223	0x3e2d71f9	0.16938008
224	0xbdaff835	-0.085922636
225	0x3de50283	0.1118212
226	0xbec1531d	-0.37758723
227	0xbec6b250	-0.38807917
228	0xbcb8ba2d	-0.022549713
229	0xbd398783	-0.04529525
230	0xbcb708c6	-0.02234305
231	0xbf1516a3	-0.58237666
232	0xbddbf461	-0.10739971
233	0xbeb77eb1	-0.35838845
234	0xbecae6d7	-0.39629242
235	0xbeb6b2d7	-0.3568332
236	0xbec414b8	-0.38297057
237	0x3f4ed945	0.80800277
238	0x3e0938fe	0.13400647
239	0xbe3d619b	-0.18494265
240	0x3f6aa64b	0.9165999
241	0x3fa69534	1.3014283
242	0xbef79b23	-0.48360547
243	0x3fb88f00	1.441864
244	0xbf2f4e49	-0.6847883
245	0xbc8e6724	-0.017383166
246	0x3df71839	0.12065167
247	0xbee15db3	-0.440168
248	0xbfb21318	-1.3912077
249	0xbe902a7c	-0.28157413
250	0x3f163570	0.5867529
251	0x3e2f1b69	0.171003
252	0x3dcfe94b	0.10151919
253	0xbdd33853	-0.10313477
254	0xbcec6c0a	-0.02886011
255	0x3ddcc5eb	0.10779937

mean_linear.bias f4 [2]
0	0xbc4b5892	-0.0124112535
1	0xbb90c639	-0.004418161

log_std_linear.weight f4 [2, 256]
0	0xbe30ac9b	-0.17253344
1	0xbe77c001	-0.24194337
2	0xbc1ebfab	-0.009689252
3	0xbd517708	-0.051138908
4	0x3ccf6a73	0.025319314
5	0x3e2fe639	0.17177667
6	0x3eb7b836	0.3588273
7	0x3e370bd6	0.17875609
8	0xbccc4c5e	-0.024938758
9	0x3ed79821	0.42108253
10	0x3c5c7d92	0.013457673
11	0x3c419ac5	0.011816685
12	0xbdb19a39	-0.08671994
13	0x3e306be8	0.17228663
14	0x3d270ad7	0.040781822
15	0x3c92b513	0.017908609
16	0xbdef96cb	-0.11698683
17	0x3d3ef7f8	0.0466232
18	0xbd3904df	-0.04517066
19	0xbbfcfc75	-0.007720525
20	0xbcbc56e8	-0.022990659
21	0x3d81062a	0.06300004
22	0xbe0f906e	-0.1401994
23	0xbc5ca026	-0.013465917
24	0xbcd3e9b1	-0.025868269
25	0x3dfd197d	0.12358377
26	0xbc471ec2	-0.012153329
27	0x3e3b62a6	0.1829935
28	0x3c970648	0.018435612
29	0x3f393b52	0.7235614
30	0xbc263ae3	-0.010145876
31	0x3e971ec2	0.29515654
32	0x3edad007	0.42736837
33	0x3ed5423d	0.41652098
34	0x3c40956f	0.011754378
35	0x3c9c173d	0.01905405
36	0xbc80e12e	-0.015732374
37	0x3d34852f	0.044072326
38	0x3efe687a	0.49689084
39	0x3df8af20	0.121427774
40	0x3e15ab07	0.14616023
41	0x3c9cf678	0.019160494
42	0xbc76bf60	-0.015060276
43	0xbbb19f63	-0.0054206117
44	0x3d169b84	0.036769405
45	0x3d40cbfa	0.047069527
46	0xbd88326c	-0.06650242
47	0x3c271816	0.010198614
48	0x3ea4e67a	0.3220709
49	0x3d9d0d26	0.076685235
50	0x3e0f632d	0.14002676
51	0x3caa539f	0.020791827
52	0x3e110987	0.1416379
53	0x3e185ff4	0.14880353
54	0xbe44c227	-0.19214688
55	0xbe531f93	-0.20617513
56	0x3b992b73	0.004674369
57	0x3d8d3f0c	0.06896791
58	0x3cba5847	0.022747172
59	0x3d5dcb55	0.05414899
60	0x3e491045	0.19635113
61	0x3ccaf15e	0.024773296
62	0x3e78f5db	0.24312536
63	0x3dafe360	0.0858829
64	0x3d92200e	0.0713502
65	0x3e8aad8c	0.2708553
66	0xbd41cd0f	-0.0473147
67	0xbda90a36	-0.08253901
68	0x3d803712	0.06260504
69	0xbd397b68	-0.045283705
70	0x3dc51c57	0.09624546
71	0xbd06267e	-0.032751553
72	0x3e201404	0.15632635
73	0x3df2bc31	0.11852301
74	0xbc1c4030	-0.009536788
75	0x3dcf9efc	0.10137746
76	0x3bf46a76	0.00745898
77	0xbe03a259	-0.128549
78	0xbdfd8417	-0.1237871
79	0x3ea5546b	0.32290968
80	0xbd943b6b	-0.072378956
81	0xbc5db631	-0.013532207
82	0x3d2d4e08	0.042310745
83	0x3c9f5ef1	0.019454451
84	0x3d43c5df	0.047796126
85	0x3dc8e8a6	0.09809999
86	0x3cf92bfd	0.030416483
87	0x3e36b75d	0.17843385
88	0xbc86a80f	-0.016437558
89	0x3c8e48fc	0.017368786
90	0xbdaa67bd	-0.08320568
91	0x3c910916	0.017704528
92	0x3f0b093b	0.5431096
93	0x3d84c3e6	0.06482677
94	0x3e377ada	0.17917958
95	0x3d95f335	0.07321779
96	0x3cd50f98	0.026008412
97	0x3d3b264c	0.04569082
98	0x3d1d2e9d	0.038374532
99	0x3e56a2bb	0.20960514
100	0x3dba732a	0.09103997
101	0xbc9bba94	-0.019009866
102	0x3e15bb05	0.14622124
103	0xbe9d2757	-0.30694076
104	0xbda6c664	-0.08143309
105	0x3c44d800	0.012014389
106	0x3ccd6b99	0.02507572
107	0x3cd0369e	0.025416669
108	0x3cecf3f0	0.028924912
109	0x3dcbd780	0.09953213
110	0x3d13ed16	0.036114775
111	0xbc37d32b	-0.01121978
112	0xbd136097	-0.035980787
113	0x3de2746e	0.110573635
114	0x3c61f2fe	0.013790844
115	0x3dc7a0df	0.097474806
116	0x3e49624b	0.19666402
117	0xbbc943db	-0.006142122
118	0x3eb409d0	0.35163736
119	0x3ac001ed	0.0014649011
120	0x3d14ae3b	0.03629897
121	0x3cb081dc	0.021546297
122	0x3f12b07f	0.5730056
123	0x3751a2ff	1.2495321e-05
124	0xbd004002	-0.031311043
125	0x3dc0e3c0	0.0941844
126	0x3c2ddc51	0.01061161
127	0x3e454abe	0.19266793
128	0x3dbb71de	0.09152578
129	0x3cec7f87	0.028869404
130	0x3d3bcd36	0.04585
131	0xbe0e0bff	-0.13871764
132	0x3d0a8869	0.033821497
133	0xb994a393	-0.00028350632
134	0xbdfd2cac	-0.12362036
135	0x3ca43285	0.02004362
136	0x3d9d2145	0.07672361
137	0x3e76fe5e	0.24120471
138	0x3bc76887	0.0060854587
139	0xbcf28e0b	-0.029608747
140	0x3e6508e3	0.22366671
141	0x3de29437	0.11063426
142	0xbd9d79b5	-0.076892294
143	0x3cb6e806	0.022327434
144	0x3c5fe135	0.013664533
145	0x3e0dc9e4	0.13846546
146	0x3e2f006e	0.17090008
147	0x3ea6edf2	0.32603413
148	0x3e2be91a	0.1678814
149	0xbcebb184	-0.02877117
150	0x3d3cc902	0.046090133
151	0xbb836f55	-0.0040110745
152	0x3d1aac25	0.037761826
153	0xbe741f40	-0.23840046
154	0xbe5c5760	-0.21517706
155	0x3e1bc81c	0.15213054
156	0x3ce92b48	0.02846302
157	0xbe3cbf80	-0.18432426
158	0x3d972e02	0.07381822
159	0x3c8181fd	0.015809054
160	0x3cad802c	0.021179281
161	0x3ceab0e5	0.028648803
162	0xbd6a946a	-0.057270445
163	0x3d8b4b9f	0.06801533
164	0x3c19f19d	0.009395984
165	0xbccfe483	-0.025377518
166	0xbc8816a6	-0.016612362
167	0x3d9e9c64	0.07744673
168	0x3cb5575b	0.02213638
169	0x3e623a9d	0.22092672
170	0xbb7e2187	-0.0038777308
171	0xbc74397d	-0.014906284
172	0xbc951141	-0.018196704
173	0x3c92c7df	0.017917572
174	0x3e33866d	0.17531748
175	0x3df990c0	0.12185812
176	0xbdce3808	-0.10069281
177	0x3ea7a0b2	0.32739788
178	0x3de5cf15	0.112211384
179	0xbcc96f83	-0.024589306
180	0x3d1e045e	0.038578384
181	0xbdc118a5	-0.09428529
182	0xba0ce588	-0.0005374779
183	0xbb730635	-0.0037082557
184	0x3e02b160	0.12762976
185	0x3dbe11d2	0.09280743
186	0xbd806136	-0.062685415
187	0xbccb9f3f	-0.024856208
188	0x3d8ebb9d	0.06969378
189	0x3da064d2	0.0783173
190	0x3da73c95	0.08165852
191	0x3df76807	0.120803885
192	0x3ded9318	0.116003215
193	0x3dfe0600	0.12403488
194	0xbc6ac3d9	-0.01432892
195	0xbc1774e1	-0.009244175
196	0x3d2b59e4	0.041833773
197	0x3d839d3b	0.06426474
198	0xbd6c2f4c	-0.057662293
199	0xbc1955f7	-0.0093588745
200	0xbcc648f0	-0.024204701
201	0x3ab81cf2	0.0014046712
202	0xbbf019ca	-0.007327293
203	0xbe020756	-0.12698111
204	0x3f2e717c	0.68141913
205	0x3d05465e	0.03253781
206	0x3c7b18ca	0.015325734
207	0xbcd730f0	-0.026268452
208	0x3cff7331	0.031182857
209	0xbe0971cf	-0.13422321
210	0x3bf2d469	0.007410575
211	0x3dedf625	0.11619214
212	0xbeb303e9	-0.3496392
213	0x3be8fe8b	0.007110422
214	0x3cc90ced	0.024542296
215	0x3c826a22	0.015919749
216	0x3c8b780f	0.017025022
217	0xbce05950	-0.027386338
218	0xbd1f93af	-0.0389592
219	0x3e10133d	0.14069839
220	0x3d8c7c4e	0.06859647
221	0xbb75a24c	-0.003748077
222	0x3ddff10b	0.10934647
223	0xbcf4fa34	-0.029904462
224	0x3cc603a0	0.02417165
225	0x3ca43497	0.020044608
226	0x3ea00afc	0.3125838
227	0x3c3fcfe0	0.011707276
228	0xbdaef9fa	-0.08543773
229	0xbce21d76	-0.027601939
230	0x3db932ca	0.0904289
231	0x3f094d80	0.5363388
232	0x3d5ee207	0.054414775
233	0x3d5bf007	0.053695705
234	0x3e207559	0.15669765
235	0x3dd667ba	0.10469003
236	0x3dadfc0f	0.08495342
237	0xbd987a3a	-0.07445188
238	0x3da2bcd7	0.079461746
239	0x3e6cd26d	0.23127146
240	0x3e9de157	0.30835983
241	0x3f205654	0.62631726
242	0x3dd8bb51	0.10582603
243	0x3e2c529d	0.1682839
244	0x3ebc890c	0.36823308
245	0xbdb3e260	-0.08783412
246	0xbd25081c	-0.040290937
247	0x3bef9be1	0.0073122834
248	0x3e79e356	0.24403128
249	0x3e14b5d4	0.14522487
250	0x3e114cf7	0.14189516
251	0x3bfac826	0.007653254
252	0xbdeae945	-0.11470274
253	0x3cfae26c	0.030625544
254	0xbe2e4a56	-0.17020544
255	0xbb650d92	-0.0034950715

log_std_linear.bias f4 [2]
0	0xbfab56ec	-1.3385901
1	0xbfb4da30	-1.4129086
