hydrone_aerial_underwater_ddpg/scripts/Models/sac_stage_2_air2D_tanh_5layers/2400_value_net.pth (torch_old, 585472 bytes, 10 tensors)

linear1_q1.weight f4 [256, 26]
0.0510078 0.29746267 0.2386189 0.24433337 -0.0150888525 0.187786 0.03546831 0.047222886
0.21448787 -0.18149307 -0.265064 -0.086655445 -0.09777782 -0.16238837 -0.15562399 -0.059406087
-0.49812448 -0.04130748 0.1829895 0.006913006 -1.1295052 -0.3503509 1.225893 -1.7202823
-0.098918974 1.5804654 -0.04314551 -0.04716548 -0.027356807 0.03655132 -0.046207823 0.19749312
0.045589812 0.02028685 0.039298 -0.08880057 -0.040393066 -0.10218729 0.051463332 0.15962899
-0.045021232 0.13398592 -0.2180887 -0.11401898 -0.10350458 0.18258339 0.59937 -0.69135475
-0.10593088 1.8121057 -0.49827093 -0.6463613 0.2486714 0.14199363 0.15846092 0.05807317
-0.4602047 -0.2963237 -0.3328805 0.03678509 0.19751744 0.28573763 0.02429991 0.10678862
-0.22902985 -0.10963056 -0.223386 -0.3617079 0.0348098 0.10059518 0.038022142 0.12082081
0.92885673 0.54269 1.5017016 2.138159 0.8069871 -1.1003851 0.14648998 -0.14004974
-0.62277347 -0.04879321 0.013075015 -0.701756 -0.18452692 -0.12125855 0.059083957 0.11161831
0.33645144 0.40676323 0.044539753 -0.41495556 0.21338457 0.14196678 -0.070165366 -0.06606091
0.0360785 0.4633515 -1.3972758 -0.89194626 -0.09723766 0.108887084 0.9862559 0.076660424
-0.6183313 -0.8220636 -0.20886531 0.1994453 0.64389694 0.6911648 0.4667052 0.3639897
0.008702361 -0.14503512 0.10826337 -0.40910155 -0.3186821 -0.3164817 0.0065244916 -0.1734947
0.17239049 -0.15718658 -0.0015307415 0.11457805 0.42460477 -0.075667575 -0.4352 -1.0645481
-0.19176272 0.013794603 0.2339995 -0.05286269 0.015203502 -0.1222278 0.21981257 0.024147104
0.09488292 0.21399376 0.12719068 0.17394394 -0.033278964 -0.6018428 -1.3837765 -0.41832128
-0.26783684 -0.046627738 0.06549042 0.18014514 0.22811854 0.1143209 0.0040721856 0.26192695
1.0500205 0.7003662 0.59922904 0.5656324 0.03825541 0.103968635 0.10524854 -0.06961156
-0.19672589 0.3658167 -0.098937884 0.05968154 -0.020653287 -0.071639985 -0.14119476 0.002860334
0.1920263 0.2485237 -0.1921939 0.0026618086 0.23081939 0.04741678 0.083263285 -0.03884622
-0.22550268 -0.4517731 -0.4636945 -1.4151582 0.35752967 -0.17410162 0.0915449 -0.19430295
-0.058712088 0.011707684 0.049410827 0.14202113 -0.03290531 -0.011637534 0.108696565 0.1278214
-0.091538884 -0.027782831 0.24624431 -0.07755441 0.01615184 -0.008384802 -0.045667164 0.093078576
0.16484024 0.04899744 0.2682452 0.090668954 0.4824781 2.7856517 0.14713882 1.721143
-0.474387 -0.106544584 -0.017723223 0.033794228 0.17541192 0.005346006 0.39648357 0.39922827
0.18151675 -0.07598395 0.14271183 0.017336426 -0.08432613 -0.028248142 0.2804527 0.21352252
0.09945498 -0.04276568 -0.09821589 -0.3257864 0.33122978 1.1746204 -0.04885658 -1.847754
-1.1510264 -0.9079931 0.15020905 0.02545748 -0.053678207 -0.25445035 -0.02900552 -0.073764026
0.7449705 0.3359369 0.07554156 -0.031207118 -0.029558191 -0.028719062 0.10648366 -0.090897456
-0.1381552 -0.8646133 -0.026509555 0.030811219 0.09432313 0.078741156 0.081095666 -0.103058904
00000000: 8eed 503d 074d 983e 8358 743e 8732 7a3e
00000010: 3c37 77bc f94a 403e 3847 113d c96c 413d
00000020: b5a2 5b3e 52d9 39be 78b6 87be 6978 b1bd
00000030: bd3f c8bd 2349 26be e55b 1fbe cc53 73bd
00000040: 2c0a ffbe 0832 29bd 9961 3b3e 7f86 e23b
00000050: a093 90bf 3161 b3be 10ea 9c3f 3632 dcbf
00000060: 0896 cabd b14c ca3f 59b9 30bd 9730 41bd
00000070: 621b e0bc d6b6 153d 6a44 3dbd a33b 4a3e
00000080: 62bc 3a3d 9c30 a63c f1f6 203d 13dd b5bd
00000090: 3373 25bd 9247 d1bd 37cb 523d c875 233e
000000a0: 2f68 38bd 9b33 093e a552 5fbe c882 e9bd
000000b0: 36fa d3bd 24f7 3a3e 5070 193f a0fc 30bf
000000c0: 4af2 d8bd 14f3 e73f 5e1d ffbe ef77 25bf
000000d0: b7a3 7e3e c766 113e 9443 223e 22de 6d3d
000000e0: f39f ebbe bdb7 97be 506f aabe f6ab 163d
000000f0: 0342 4a3e 344c 923e 9b10 c73c feb3 da3d
00000100: cd86 6abe fd85 e0bd 4dbf 64be c731 b9be
00000110: b994 0e3d d904 ce3d 1bbd 1b3d e770 f73d
00000120: 8ec9 6d3f bbed 0a3f c237 c03f 99d7 0840
00000130: b596 4e3f 6bd9 8cbf 7801 163e 3369 0fbe
00000140: 156e 1fbf 64db 47bd 9638 563c 48a6 33bf
00000150: a0f4 3cbe 6756 f8bd 0502 723d 2498 e43d
00000160: 5d43 ac3e 4543 d03e 516f 363d 0e75 d4be
00000170: 7c81 5a3e bd5f 113e dcb2 8fbd f14a 87bd
00000180: 0dc7 133d 683c ed3e efd9 b2bf 9756 64bf
00000190: 8a24 c7bd 3100 df3d 447b 7c3f 2400 9d3d
000001a0: f64a 1ebf c372 52bf cae0 55be 643b 4c3e
000001b0: 6ed6 243f 2df0 303f fcf3 ee3e dc5c ba3e
000001c0: 5994 0e3c 1684 14be 30b9 dd3d c275 d1be
000001d0: 4d2a a3be e409 a2be 67cb d53b 98a8 31be
000001e0: 2287 303e 85f5 20be 29a3 c8ba e6a7 ea3d
000001f0: cc65 d93e 9af7 9abd 89d2 debe 1d43 88bf
00000200: 725d 44be c202 623c 919d 6f3e 8c86 58bd
00000210: 1c18 793c 9252 fabd 8c16 613e 26d0 c53c
00000220: fa51 c23d 2e21 5b3e 463e 023e 5c1e 323e
00000230: 864f 08bd 5f12 1abf 971f b1bf 352e d6be
00000240: e921 89be bafc 3ebd d71f 863d f877 383e
00000250: e897 693e 1321 ea3d f86f 853b 4a1b 863e
00000260: 1267 863f 334b 333f 1367 193f 49cd 103f
00000270: b4b1 1c3d 82ed d43d 8c8c d73d 8190 8ebd
00000280: 8372 49be 544c bb3e f29f cabd a174 743d
00000290: 1531 a9bc fcb7 92bd 5c95 10be 7174 3b3b
000002a0: 8ba2 443e ff7c 7e3e 7ace 44be bd71 2e3b
000002b0: eb5b 6c3e 1938 423d f185 aa3d 371d 1fbd
000002c0: 2dea 66be ce4e e7be 5e69 edbe e723 b5bf
000002d0: 210e b73e b247 32be e47b bb3d 5af7 46be
000002e0: 167c 70bd 96d1 3f3c 0263 4a3d fd6d 113e
000002f0: b8c7 06bd 5bab 3ebc 4e9c de3d 9de3 023e
00000300: bd78 bbbd d298 e3bc 7827 7c3e d9d4 9ebd
00000310: dd50 843c 6960 09bc 7e0d 3bbd fb9f be3d
00000320: e1cb 283e 8ab1 483d 6f57 893e a5b0 b93d
00000330: 5f07 f73e 1e48 3240 8fab 163e 6a4e dc3f
00000340: dae2 f2be 0c34 dabd 4b30 91bc d16b 0a3d
00000350: 2f9f 333e 8c2d af3b e5ff ca3e a667 cc3e
00000360: 87df 393e 799d 9bbd 0d23 123e 1f05 8e3c
00000370: 2eb3 acbd a668 e7bc 7f97 8f3e a6a5 5a3e
00000380: 0daf cb3d 112b 2fbd 6a25 c9bd 7acd a6be
00000390: f396 a93e f659 963f d61d 48bd 3483 ecbf
000003a0: d554 93bf 3c72 68bf 67d0 193e 358c d03c
000003b0: aedd 5bbd 5147 82be fc9c edbc 9811 97bd
000003c0: 63b6 3e3f ecff ab3e 89b5 9a3d 12a6 ffbc
000003d0: 0524 f2bc 3d44 ebbc 1b14 da3d 7228 babd
000003e0: 8f78 0dbe 4c57 5dbf 912a d9bc cf67 fc3c
000003f0: 7c2c c13d 0b43 a13d 7c15 a63d 8c10 d3bd

linear1_q1.bias f4 [256]
-0.060590073 0.23191366 -0.33006838 0.3420371 0.74845266 0.11650097 1.2934544 -0.4099695
-0.06102264 0.89757764 0.31783548 1.126978 -0.1973379 0.59053314 -0.1275498 -0.5133441
0.2076993 0.68747234 0.11655966 -0.028255763 0.5766635 0.12280604 0.77567774 -0.1378819
0.30530164 0.12391984 -0.33534595 0.44741526 -0.09779645 -0.07348439 0.5302243 0.23518246
-0.9304727 0.94019204 -0.12621526 0.31052965 -0.02199892 -0.033764657 0.91787434 -0.94356924
0.7861423 0.02841524 0.1594747 0.788115 1.6609229 0.90628713 -0.13098805 -0.15000683
0.19239081 0.21728604 -0.055347662 -0.26988208 -0.009529725 -0.30477878 -0.3189854 -0.050366793
1.596519 1.5373944 0.8014314 0.62252504 0.7195983 -0.04566792 0.22885394 1.0708767
-0.58731765 0.20161901 0.5374526 -0.15192302 1.5005478 0.012616233 0.24927536 0.0001689959
0.91510594 -0.03720607 0.0 0.010921972 0.72827494 0.33100033 1.2605417 1.236776
-0.27640557 0.5951715 0.11875418 -0.20538776 0.09011439 0.4989311 -0.16505532 -0.28467226
-0.04942046 0.12982215 -0.07856575 0.14108084 0.8233592 -0.30414802 0.78259647 -0.47452965
0.33022892 0.74178666 1.503987 0.8317735 -0.18645257 0.0 0.86032915 0.708722
1.589037 -0.03267705 0.869294 -0.45649195 -0.34890676 -0.61060065 -0.49821565 0.785576
1.4275987 0.027602868 0.63817614 0.40204236 0.96641064 0.030181613 1.0734051 -0.048076734
-0.28183785 -0.42630172 -0.58256584 -0.23004566 -0.4568383 0.45053592 1.6590995 -0.015200705
0.94458777 1.5217175 1.0075938 0.26421988 0.03591182 0.10246392 -0.023376884 -0.50493246
-0.38735923 -0.8106106 0.05109542 1.5928397 0.03868168 -0.026015747 0.0874467 -0.18962122
0.13786788 0.7694597 0.5538384 0.8973451 -0.35584933 0.0 -0.25600222 0.24533628
0.96986413 0.43535864 -0.74619067 1.4978704 -0.09916427 0.51444757 1.2520777 0.058176592
0.21583949 0.27740914 0.48080254 0.48676947 -0.15594578 0.46681404 -0.5019629 -0.46513668
-0.44204682 0.004216588 0.42672947 -0.9469899 -0.61594236 0.09143601 -0.16219462 0.66351885
0.4275386 -0.5533486 1.0545582 -0.0070536197 0.14906396 0.21891037 -0.6247257 -0.38001516
-0.24864218 1.4887749 -0.77496964 0.12162685 0.23654363 0.5751394 0.028041357 0.5593641
-0.7468093 0.024221579 -0.81401664 -0.27333674 -0.50692517 -0.036022678 0.72830844 1.3852886
-0.009520732 0.9785334 0.5948896 -1.0281401 0.7095192 -0.048441358 0.14158377 -0.6303307
0.32830483 0.36002028 0.3620218 -0.009528628 1.1150485 1.5496669 -0.036103114 -0.9366963
-0.05612502 0.1325737 -0.063234136 -0.0035287584 -0.072842866 -0.053845823 0.92186934 -0.09416546
-0.5337064 0.01836598 0.015878536 -0.42076534 0.26894403 0.021194695 -0.758588 0.24830566
0.3939154 0.827821 0.30596188 0.50598764 0.902608 0.8524877 -0.3188855 -0.32473186
-0.09009728 -0.22379811 0.2178666 0.28379625 0.0 0.5358121 0.5787118 1.2255954
0.098837025 -0.5438205 0.77036804 1.736767 -0.4319273 -0.28444758 0.21431077 0.33809888
00000000: 4c2d 78bd c67a 6d3e b9fe a8be 7d1f af3e
00000010: 989a 3f3f 1098 ee3d ea8f a53f 86e7 d1be
00000020: e0f2 79bd a6c7 653f 55bb a23e d140 903f
00000030: f212 4abe 2e2d 173f 6a9c 02be 856a 03bf
00000040: 20af 543e 30fe 2f3f d5b6 ee3d a178 e7bc
00000050: 38a0 133f bc81 fb3d d192 463f ea30 0dbe
00000060: 7f50 9c3e afc9 fd3d 77b2 abbe 9d13 e53e
00000070: 8149 c8bd fc7e 96bd c8bc 073f acd3 703e
00000080: 7533 6ebf 6db0 703f 933e 01be befd 9e3e
00000090: 1437 b4bc cf4c 0abd d0f9 6a3f c18d 71bf
000000a0: 9f40 493f 14c7 e83c 564d 233e e8c1 493f
000000b0: 1f99 d43f 6f02 683f bb21 06be 649b 19be
000000c0: 1902 453e 3b80 5e3e 3bb4 62bd fc2d 8abe
000000d0: 9022 1cbc f70b 9cbe 0e52 a3be 694d 4ebd
000000e0: bc5a cc3f 57c9 c43f 9c2a 4d3f cd5d 1f3f
000000f0: 9837 383f 490e 3bbd b058 6a3e 7d12 893f
00000100: 735a 16bf 3775 4e3e 7e96 093f b591 1bbe
00000110: f311 c03f 51b4 4e3c 0a42 7f3e 7e34 3139
00000120: 6244 6a3f 6465 18bd 0000 0000 12f2 323c
00000130: 3a70 3a3f e078 a93e 6e59 a13f ad4e 9e3f
00000140: 0885 8dbe 295d 183f 6435 f33d 2b51 52be
00000150: e58d b83d e673 ff3e 4304 29be 90c0 91be
00000160: 1c6d 4abd 19f0 043e 14e7 a0bd 7f77 103e
00000170: abc7 523f 4ab9 9bbe 3e58 483f 8df5 f2be
00000180: c413 a93e bbe5 3d3f a582 c03f 1cef 543f
00000190: 6ced 3ebe 0000 0000 883e 5c3f ce6e 353f
000001a0: 9065 cb3f 5fd8 05bd 0d8a 5e3f 50b9 e9be
000001b0: e8a3 b2be 5350 1cbf 1f16 ffbe 821b 493f
000001c0: 8ebb b63f 691f e23c 835f 233f 7fd8 cd3e
000001d0: b066 773f 6e3f f73c 5765 893f 1cec 44bd
000001e0: 0d4d 90be 3844 dabe 0923 15bf 1791 6bbe
000001f0: b6e6 e9be a5ac e63e 5f5d d43f 610c 79bc
00000200: 81d0 713f a4c7 c23f d5f8 803f d447 873e
00000210: 4618 133d 9bd8 d13d e180 bfbc 4143 01bf
00000220: f353 c6be 2d84 4fbf 6e49 513d 2ce2 cb3f
00000230: ae70 1e3d fa1e d5bc 4117 b33d 112c 42be
00000240: 3d2d 0d3e 50fb 443f 5ac8 0d3f 69b8 653f
00000250: e231 b6be 0000 0000 b912 83be 6f39 7b3e
00000260: 0449 783f 54e7 de3e 5a06 3fbf 38ba bf3f
00000270: a316 cbbd d6b2 033f 1544 a03f 944a 6e3d
00000280: 0705 5d3e 9208 8e3e c02b f63e d939 f93e
00000290: 40b0 1fbe 4002 ef3e a480 00bf 6526 eebe
000002a0: f653 e2be 4e2b 8a3b 497c da3e ee6d 72bf
000002b0: 66ae 1dbf ce42 bb3d 5916 26be 5fdc 293f
000002c0: 57e6 da3e 41a8 0dbf c3fb 863f 0d22 e7bb
000002d0: 39a4 183e 0a2a 603e 06ee 1fbf 5991 c2be
000002e0: 0e9c 7ebe 2d90 be3f 6964 46bf 7f17 f93d
000002f0: 7e38 723e 563c 133f fdb6 e53c 7c32 0f3f
00000300: e52e 3fbf 556c c63c 6563 50bf cbf2 8bbe
00000310: d9c5 01bf 848c 13bd 6c72 3a3f 2351 b13f
00000320: d8fc 1bbc 2a81 7a3f af4a 183f 189a 83bf
00000330: 0da3 353f 726a 46bd 56fb 103e 5a5d 21bf
00000340: 9217 a83e 9454 b83e ec5a b93e f61d 1cbc
00000350: e9b9 8e3f 7c5b c63f dce0 13bd 54cb 6fbf
00000360: 59e3 65bd 66c1 073e e680 81bd be42 67bb
00000370: a42e 95bd 708d 5cbd a1ff 6b3f d2d9 c0bd
00000380: fca0 08bf 4074 963c b413 823c 8e6e d7be
00000390: 08b3 893e 7fa0 ad3c d332 42bf d743 7e3e
000003a0: 48af c93e 14ec 533f 09a7 9c3e 6888 013f
000003b0: 5111 673f a23c 5a3f f644 a3be 4143 a6be
000003c0: ec84 b8bd 552b 65be 6c18 5f3e be4d 913e
000003d0: 0000 0000 fb2a 093f 7526 143f 4fe0 9c3f
000003e0: 116b ca3d d237 0bbf d736 453f 624e de3f
000003f0: 9325 ddbe 1da3 91be 4874 5b3e 4c1b ad3e

linear2_q1.weight f4 [256, 256]
-0.24172834 -0.037095286 0.7166304 0.01020749 0.6118567 -0.6939725 0.11326425 -0.17326209
-0.14725603 0.20683885 0.9731808 -0.28680256 -0.21075746 0.22747421 0.22009675 0.13922726
-0.44127822 0.12705126 -0.23381609 -0.115764104 0.35039324 -0.14682768 0.12692967 0.7207507
-0.22939943 0.2526474 -0.097512364 0.31215787 0.34545392 -0.022046937 0.104270674 0.5492312
0.06505026 0.097861625 -0.0016421659 -0.017991154 -0.09474241 0.102437295 -0.35066736 -0.41524482
-0.012937259 -0.003089492 0.49542445 -0.07140647 0.17174156 0.17137964 0.8294558 0.29336014
-0.806814 -0.20867757 0.118731536 -0.41735286 0.008449778 -0.17465445 -0.14389619 0.02535588
-0.018482482 0.0025926789 -0.19776054 0.38215643 0.1660894 0.13628004 -1.0364616 0.21351795
0.56733847 0.07150373 -0.34369832 -0.05670107 0.14613494 -0.34955046 0.18219572 -0.4627242
0.31560174 -0.8009236 -0.07372525 0.2870195 -0.16005078 0.69604367 0.026344726 0.05212081
-0.19243835 -0.29967436 -0.048204996 -0.16472732 0.08284231 0.28199762 -0.0035508452 -0.10818186
-0.06070605 -0.004225214 -0.04411631 -0.21646167 -0.07800986 0.114308625 -0.17210546 0.26662734
0.15670949 0.44637185 0.053112186 0.49301475 0.20608047 -0.025526658 -0.0026224183 0.17732336
0.05220144 0.19153792 -0.44901222 0.02245984 -0.18511364 -0.09333513 -0.4631538 -0.28270423
-0.26934463 -0.2310008 -0.06730163 0.08889647 -0.063290924 -0.93438697 -0.042533603 -0.08304557
-0.16833627 0.03933746 0.09464315 -0.64067906 -0.096461505 -0.12634544 -0.04320281 -0.0041767745
0.12026851 -0.11798164 0.4541763 -0.08001184 1.0484573 0.35365245 1.1228807 -0.11287582
-0.08739114 0.02356495 -0.08591857 0.1087962 -1.0053614 -0.7213349 -0.09997839 0.19468763
0.5218706 0.43958506 -0.03564277 0.027903553 0.012137659 -0.051633485 -0.2803696 0.20722494
0.07976435 0.20212816 -0.35130692 0.060460143 -0.36513683 0.029847711 0.33186716 0.04821556
0.77763313 -0.1383862 -0.1800312 -0.31767434 0.5603996 -0.1316558 -0.22684236 0.087082796
-0.25257435 -0.005624771 -0.15369765 0.15629566 -0.8711019 0.10126116 -0.015176767 -0.9844614
0.19015378 -0.40617698 -0.013773767 0.6516051 0.031366646 0.13496898 -0.01995212 -0.08526575
0.102866635 0.06407744 0.31925046 -1.0760739 0.14432804 0.031448178 0.042933114 0.3640183
-0.12227878 -0.24710412 0.040254086 0.07850292 0.09643524 0.09376795 -0.24383457 0.41347992
0.05625794 0.023944117 0.045709588 0.26409158 -0.4108811 0.1629707 0.018435637 0.31792042
0.37841496 0.2537172 0.078663476 -0.056088965 -0.25362998 -0.030495837 -0.025350854 -0.10045916
0.16121687 -0.069422215 0.9076024 -0.05527739 -0.0021947313 0.0057840124 0.18965106 -0.6176617
-0.81695837 -0.060146596 -0.33450088 0.21204542 0.28593856 -0.3906363 0.084205456 -0.73381895
0.6783385 -0.22086303 -0.10106309 -0.26213455 0.22269966 -0.6569987 0.52981865 -0.28775373
-0.27756742 0.14899667 0.3445797 -0.12074193 -0.0389458 0.2333616 -0.068384394 -0.32427225
0.6799183 0.19546178 0.24366757 0.05116542 -0.062163297 -0.11629375 0.07962572 0.26984936
00000000: a287 77be 3af1 17bd 1775 373f 513d 273c
00000010: a4a2 1c3f 2fa8 31bf 16f7 e73d 9e6b 31be
00000020: 49ca 16be 90cd 533e 6022 793f c9d7 92be
00000030: ced0 57be 00ef 683e 0b61 613e 9791 0e3e
00000040: 38ef e1be ba19 023e 7c6d 6fbe bb15 edbd
00000050: be66 b33e ff59 16be daf9 013e 1e83 383f
00000060: afe7 6abe 005b 813e 90b4 c7bd 28d3 9f3e
00000070: 56df b03e c79b b4bc dd8b d53d 6a9a 0c3f
00000080: 1239 853d ad6b c83d f23d d7ba 2f62 93bc
00000090: 4f08 c2bd a5ca d13d ac8a b3be f89a d4be
000000a0: ccf6 53bc 1379 4abb 46a8 fd3e 8e3d 92bd
000000b0: 05dd 2f3e 257e 2f3e 3757 543f 4d33 963e
000000c0: 5d8b 4ebf 93af 55be 8529 f33d 46af d5be
000000d0: f070 0a3c 9ed8 32be 8659 13be 22b7 cf3c
000000e0: 9368 97bc efe9 293b bd81 4abe 02aa c33e
000000f0: 5713 2a3e ff8c 0b3e c6aa 84bf 73a4 5a3e
00000100: 183d 113f 8c70 923d 3af9 afbe 623f 68bd
00000110: 66a4 153e 47f8 b2be 8491 3a3e 30ea ecbe
00000120: 8d96 a13e 5409 4dbf 44fd 96bd 38f4 923e
00000130: 5ae4 23be eb2f 323f e5d0 d73c a17c 553d
00000140: 8f0e 45be eb6e 99be 9a72 45bd 47ae 28be
00000150: 3ba9 a93d fe61 903e 4cb5 68bb 738e ddbd
00000160: e8a6 78bd aa73 8abb 4eb3 34bd 21a8 5dbe
00000170: a2c3 9fbd a41a ea3d 6a3c 30be 6183 883e
00000180: 7478 203e da8a e43e 2a8c 593d 6e6c fc3e
00000190: c206 533e 481d d1bc e1dc 2bbb 4194 353e
000001a0: 2dd1 553d 8422 443e eee4 e5be b3fd b73c
000001b0: 6e8e 3dbe 7d26 bfbd 7f22 edbe 9cbe 90be
000001c0: 8ae7 89be 798b 6cbe 70d5 89bd 5a0f b63d
000001d0: ac9e 81bd fc33 6fbf b737 2ebd cc13 aabd
000001e0: 5860 2cbe 5120 213d 45d4 c13d 8b03 24bf
000001f0: 9c8d c5bd b360 01be 6ef5 30bd 53dd 88bb
00000200: 564f f63d 5ca0 f1bd cc89 e83e 3fdd a3bd
00000210: d933 863f ef11 b53e 8eba 8f3f 702b e7bd
00000220: 20fa b2bd 480b c13c 13f6 afbd 8bd0 de3d
00000230: afaf 80bf 67a9 38bf 78c1 ccbd 325c 473e
00000240: 5099 053f 4b11 e13e 27fe 11bd fe95 e43c
00000250: 08dd 463c a27d 53bd 9b8c 8fbe c632 543e
00000260: 7e5b a33d affa 4e3e 80de b3be 0ea5 773d
00000270: 37f3 babe 3083 f43c 7eea a93e ae7d 453d
00000280: f712 473f 1db5 0dbe 195a 38be 36a6 a2be
00000290: 5976 0f3f c7d0 06be 5d49 68be 7758 b23d
000002a0: 6d51 81be 0050 b8bb eb62 1dbe f80b 203e
000002b0: 8900 5fbf 0362 cf3d f9a7 78bc aa05 7cbf
000002c0: acb7 423e 6ef6 cfbe 5eab 61bc 98cf 263f
000002d0: 507a 003d 4f35 0a3e a172 a3bc cf9f aebd
000002e0: beab d23d 083b 833d cc74 a33e cabc 89bf
000002f0: bbca 133e cecf 003d a2da 2f3d 9b60 ba3e
00000300: 4c6d fabd dd08 7dbe 78e1 243d 24c6 a03d
00000310: d77f c53d 6909 c03d c5af 79be a4b3 d33e
00000320: ba6e 663d 7426 c43c fa39 3b3d 0337 873e
00000330: 025f d2be cbe1 263e 5506 973c 77c6 a23e
00000340: 9bbf c13e 39e7 813e 511a a13d 8bbd 65bd
00000350: cadb 81be 68d2 f9bc 98ac cfbc 88bd cdbd
00000360: 0916 253e 3c2d 8ebd a258 683f 8b6a 62bd
00000370: 7bd5 0fbb d087 bd3b e333 423e 141f 1ebf
00000380: 2f24 51bf 475c 76bd b343 abbe 6f22 593e
00000390: 8a66 923e 7b01 c8be e973 ac3d 8fdb 3bbf
000003a0: 98a7 2d3f eb29 62be 2afa cebd 8036 86be
000003b0: 610b 643e 1131 28bf 32a2 073f 7554 93be
000003c0: 511d 8ebe 9592 183e c06c b03e 8c47 f7bd
000003d0: a285 1fbd 58f6 6e3e 1e0d 8cbd 0307 a6be
000003e0: 200f 2e3f 2227 483e fe83 793e d592 513d
000003f0: f19e 7ebd 6b2b eebd cf12 a33d b229 8a3e

linear2_q1.bias f4 [256]
-0.30583954 -0.07139707 -1.4154273 -0.01110087 -0.9622964 -0.84222275 1.5718135 -1.2948072
-0.03619083 -0.1685394 0.5196697 1.9014565 1.5776929 -0.08326424 -0.017397305 0.24126951
-0.43939012 -0.4043321 0.584904 -0.37518865 1.0011845 1.5343828 -0.024872743 -0.59236
0.2855891 0.1441399 1.5360123 -0.012793103 -0.6101235 -0.9241361 -0.2975841 -0.021337755
-0.014715836 -0.00016485775 0.05713873 0.9523484 -0.18130217 0.19964696 0.02582472 -0.06853251
-0.88415253 -1.6684045 1.6411291 -0.18047892 -0.048913416 0.9369524 -1.2009611 0.34601396
-0.13679352 -1.0895782 -0.1666714 0.057208233 -0.14118451 0.4387833 -1.3303863 -0.033814732
-0.41416785 1.9860114 -0.01528247 -0.31530008 0.76359975 -0.034139656 1.3201344 0.07658805
0.11750023 0.027695928 0.28239077 -0.030311715 0.19164252 0.26232818 -1.097035 0.5380535
0.27278233 0.29252616 -0.020936642 -0.8660198 -0.028698508 0.920858 1.2582588 0.3363018
-1.525192 -1.0292591 0.10787845 0.87883174 -0.08851696 -1.5480171 -0.019074544 0.17730834
0.32256755 0.6201774 1.6737171 0.38844043 0.30028728 -0.2911882 0.48302615 -1.5633454
0.06797666 -0.06480828 1.7040837 1.8075757 1.6265002 -0.037444573 0.96263915 0.31016725
-0.02478377 0.4741386 -0.60075074 0.016710581 0.21987718 -0.9954909 -0.016487628 1.7849745
1.7724738 -0.45211726 -0.034606628 -0.5201288 -0.061454404 0.04476792 1.6359473 0.59632736
0.09578622 -0.3728504 1.3466854 0.1505037 -0.01903863 0.01665769 0.46967784 -0.029535739
0.29046914 -0.027073367 1.6467166 -0.029719193 -0.4483237 0.2260672 -1.3774077 -0.03657392
-0.02857997 -0.023824848 -0.0504031 -0.13827783 -1.167385 0.84052074 -1.1255907 -1.301949
-0.27067083 -0.023587428 0.57942486 0.25424275 0.34444898 0.050539892 -0.04662829 1.2268488
-0.02761102 0.06807343 0.26390594 0.3859765 0.028514136 -0.21586068 -0.49965087 -0.30748466
-0.072581634 1.0747087 0.6901304 -0.18366465 1.2405486 1.4437062 1.6419566 -0.02391052
-0.025960898 1.3529855 0.0944194 0.37920824 1.9519445 -0.13532557 -0.0351176 0.0948429
0.5495693 -0.034938768 -1.3205158 0.26989597 1.62881 -0.030688612 0.32177165 0.066846624
-0.025478529 -0.9954106 0.1226566 0.16524333 0.08810561 0.23981543 -0.25436658 1.9987758
0.021164652 -1.6201202 -0.32939702 -0.018521352 -0.031445496 0.24367933 1.7122723 0.81727916
-0.5060084 -0.018243236 -1.324236 0.8540503 -0.024935883 -0.02615534 1.6024721 -1.4203831
0.8420668 -0.540308 -0.13138993 -1.4788185 -1.0925617 0.5192854 -0.028523935 0.035669077
1.406257 -1.1350849 -1.5071809 1.5909503 -0.014726521 0.123913676 0.1630781 0.24770665
-1.4989731 0.15926217 -0.0577079 0.24150778 -0.20886993 0.29045424 0.020871388 -0.56197083
1.3136108 -0.039271258 -1.6014029 -0.9772995 0.40465856 -1.1534803 0.07646637 -0.025178052
-0.094846055 0.2503953 1.9074707 1.5743536 0.24803284 -0.8008984 -1.5600147 0.20798661
0.03024846 -0.017622415 -0.13801238 0.92115384 -0.0601023 -0.02256896 1.427642 0.22145817
00000000: 0097 9cbe a138 92bd b92c b5bf 6ce0 35bc
00000010: 0f59 76bf e99b 57bf 2f31 c93f 3ebc a5bf
00000020: d63c 14bd 9895 2cbe 1309 053f ed62 f33f
00000030: d7f1 c93f 7186 aabd cb84 8ebc 5b0f 773e
00000040: bef7 e0be 9e04 cfbe 45bc 153f ba18 c0be
00000050: d026 803f a866 c43f ecc1 cbbc e8a4 17bf
00000060: bc38 923e 6999 133e 0d9c c43f 2a9a 51bc
00000070: 0e31 1cbf 2f94 6cbf f15c 98be 84cc aebc
00000080: b11a 71bc aadd 2cb9 4d0a 6a3d 1bcd 733f
00000090: 47a7 39be 4170 4c3e 5d8e d33c c65a 8cbd
000000a0: d257 62bf 478e d5bf 8510 d23f 77cf 38be
000000b0: 6f59 48bd 1ddc 6f3f 18b9 99bf be28 b13e
000000c0: 9a13 0cbe 4c77 8bbf e8ab 2abe 2e53 6a3d
000000d0: ac92 10be 34a8 e03e 194a aabf 5181 0abd
000000e0: cf0d d4be 9f35 fe3f 5363 7abc 036f a1be
000000f0: 467b 433f 06d6 0bbd 2afa a83f 32da 9c3d
00000100: f6a3 f03d 92e2 e23c 8695 903e 4650 f8bc
00000110: f03d 443e e14f 863e a56b 8cbf e0bd 093f
00000120: 20aa 8b3e fdc5 953e 5283 abbc 79b3 5dbf
00000130: 2219 ebbc 5abd 6b3f a00e a13f c02f ac3e
00000140: 7e39 c3bf c3be 83bf 60ef dc3d 1efb 603f
00000150: 6148 b5bd 6d25 c6bf 3842 9cbc 5190 353e
00000160: 9327 a53e f2c3 1e3f 5d3c d63f aae1 c63e
00000170: 41bf 993e 9f16 95be 344f f73e b41b c8bf
00000180: 5937 8b3d 34ba 84bd 6a1f da3f a45e e73f
00000190: 2931 d03f 7b5f 19bd 856f 763f 3ece 9e3e
000001a0: 5507 cbbc 4bc2 f23e cdca 19bf a1e4 883c
000001b0: 7c27 613e 7ed8 7ebf 1011 87bc 0b7a e43f
000001c0: 6ce0 e23f ea7b e7be aebf 0dbd 2927 05bf
000001d0: 9db7 7bbd 915e 373d b966 d13f e9a8 183f
000001e0: 912b c43d 3fe6 bebe 3060 ac3f a41d 1a3e
000001f0: e7f6 9bbc b575 883c 9d79 f03e eff4 f1bc
00000200: 5fb8 943e f7c8 ddbc 9cc7 d23f aa75 f3bc
00000210: af8a e5be 297e 673e e54e b0bf 89ce 15bd
00000220: 8b20 eabc 542c c3bc 7b73 4ebd b498 0dbe
00000230: df6c 95bf 5e2c 573f 5b13 90bf 44a6 a6bf
00000240: 5e95 8abe 6c3a c1bc 3055 143f 1b2c 823e
00000250: 9e5b b03e eb02 4f3d 4efd 3ebd 6209 9d3f
00000260: 8130 e2bc 156a 8b3d ae1e 873e b69e c53e
00000270: 7a96 e93c 950a 5dbe 3dd2 ffbe a16e 9dbe
00000280: aea5 94bd 0e90 893f 63ac 303f 9612 3cbe
00000290: 4cca 9e3f 5dcb b83f a22b d23f ffdf c3bc
000002a0: f3ab d4bc a12e ad3f f55e c13d 9527 c23e
000002b0: 51d9 f93f c992 0abe 79d7 0fbd ff3c c23d
000002c0: 93b0 0c3f f41b 0fbd a906 a9bf ce2f 8a3e
000002d0: d97c d03f af66 fbbc 41bf a43e e2e6 883d
000002e0: 59b8 d0bc 3bd3 7ebf 6233 fb3d 8c35 293e
000002f0: b770 b43d 2d92 753e 563c 82be e3d7 ff3f
00000300: 7e61 ad3c 1960 cfbf baa6 a8be 17ba 97bc
00000310: fecc 00bd 1387 793e bd2b db3f 3539 513f
00000320: c489 01bf d772 95bc 9180 a9bf 0aa3 5a3f
00000330: 5646 ccbc b943 d6bc ce1d cd3f 1dcf b5bf
00000340: b191 573f a051 0abf 158b 06be ed49 bdbf
00000350: 10d9 8bbf e3ef 043f 07ab e9bc bd19 123d
00000360: 3b00 b43f 764a 91bf 4eeb c0bf 42a4 cb3f
00000370: 8247 71bc 74c6 fd3d f2fd 263e d0a6 7d3e
00000380: 5ade bfbf 9f15 233e 1e5f 6cbd d14d 773e
00000390: 00e2 55be 6bb6 943e 79fa aa3c 52dd 0fbf
000003a0: 6624 a83f e6da 20bd c5fa ccbf 4d30 7abf
000003b0: 682f cf3e 3ea5 93bf 669a 9c3d 3442 cebc
000003c0: a63e c2bd d033 803e 0028 f43f 6b84 c93f
000003d0: 52fc 7d3e ad07 4dbf 90ae c7bf 71fa 543e
000003e0: 9ecb f73c e25c 90bc 1e53 0dbe bdd0 6b3f
000003f0: d42d 76bd 8ae2 b8bc f9bc b63f eec5 623e

linear3_q1.weight f4 [1, 256]
-1.684383 -7.5345454 -0.49298316 0.09179712 -1.8792646 -1.1224236 0.5488283 -0.97691625
-0.09066533 -5.0565157 2.2132733 0.9334467 0.73938817 -4.3213806 0.12055224 2.210261
-2.9133224 -3.870648 2.7363765 -1.7000703 1.7697598 0.63465166 -0.00017689783 -2.3744025
4.7575707 -7.258741 0.6668627 0.06946551 -2.1148474 -1.0079162 -2.5870843 -1.6320938
0.057271894 -8.295284 2.0183544 1.4781066 -5.07076 3.6849964 -7.051426 -3.7393637
-0.7095404 -0.48030868 0.1716027 -2.9720466 -5.056205 2.6749296 -1.7194642 3.9582973
-4.4079666 -0.6852325 -4.6724973 -8.392633 -6.4517403 2.393258 -0.6998866 -0.06764689
-3.1458902 0.538806 0.019586207 -4.1162157 1.7414503 -0.10375382 0.79560333 -7.9002156
-7.248051 3.7026503 3.9830625 0.1110179 3.652053 1.5566688 -1.5665487 1.2001646
2.726783 4.102793 0.038606554 -1.5149902 -0.025467534 1.1233889 0.85917455 3.720247
-0.76008165 -0.77272207 3.2717562 1.8510855 -5.672618 -0.4994824 -2.7670467 5.2478294
4.5627446 2.684054 0.6454829 4.2915306 4.284186 -2.9310699 1.512754 -0.5659183
3.6581864 -6.3330545 1.0445352 0.57345814 0.18842518 0.012412588 1.3560731 4.377953
-0.107013725 3.5111105 -1.9894779 1.9875673 3.6880803 -1.3030063 -0.018794263 0.6164428
0.65201813 -1.7175535 0.02055961 -1.9555565 -5.174186 1.5018342 0.50063205 2.880511
3.2794268 -3.1434522 0.6147055 -9.580657 -0.0063845464 3.6599426 4.220077 0.0515471
5.235612 -0.0029813265 0.23009399 0.0513811 -3.3471248 3.6786637 -0.41652653 -0.08922471
0.084859565 -0.10660333 -3.830864 -3.5703416 -0.7954569 1.6125469 -0.7244578 -0.5344312
-5.5976124 3.7201777 3.261025 -14.711193 4.95446 -4.090066 -0.019480279 0.81583273
-0.048178043 2.9093282 4.1771564 3.7470787 -7.5941887 -3.3559363 -2.151975 -2.3596015
-4.7989244 1.7293937 2.4583461 -1.7777194 0.8654618 0.614304 0.47127673 0.00937873
-0.098237514 0.7354447 1.5337331 3.258544 0.54230696 -6.1162057 -0.0901422 3.7910233
1.6011615 0.11266687 -0.6699387 3.0254915 0.60667056 0.10380725 4.1805253 -14.097303
-0.003176535 -2.4491184 -5.606488 4.1249833 -6.390566 4.25134 -3.1690764 0.61371064
-3.5240483 -0.5890446 -3.0619788 0.067473136 0.0077125765 -9.273208 0.6125567 1.752952
-2.0949664 -0.12619673 -0.8105792 1.0106487 0.006513773 5.2708063 0.63279855 -0.85350996
1.0581694 -1.6355673 -3.7745185 -0.45006067 -0.9907984 3.7138257 0.07794565 3.974967
1.2346169 -1.3118998 -0.7399973 0.62287414 0.017598277 3.174488 2.7979095 -11.655085
-0.84560776 3.158293 -3.7514894 4.1810784 -3.9086926 3.0494745 4.682455 -1.8601887
0.6654581 -0.023535782 -0.51267505 -2.437945 4.0505266 -0.82300943 -4.708958 -0.07894755
-2.6767576 2.9960685 0.62368566 0.60217756 3.939232 -1.2279716 -0.59707236 -14.112303
-8.833586 0.044842694 -3.0955849 1.47829 -6.932543 -0.071576 0.6611448 4.4419217
00000000: dd99 d7bf ff1a f1c0 4a68 fcbe 2100 bc3d
00000010: be8b f0bf 94ab 8fbf 0380 0c3f 2f17 7abf
00000020: bfae b9bd face a1c0 45a6 0d40 5df6 6e3f
00000030: 8b48 3d3f c048 8ac0 18e4 f63d eb74 0d40
00000040: e073 3ac0 b2b8 77c0 cb20 2f40 e79b d9bf
00000050: 7d87 e23f 8878 223f a67d 39b9 36f6 17c0
00000060: 053e 9840 9b47 e8c0 84b7 2a3f ef43 8e3d
00000070: a959 07c0 6603 81bf ca92 25c0 73e8 d0bf
00000080: ef95 6a3d 7cb9 04c1 b82c 0140 9932 bd3f
00000090: aa43 a2c0 fbd6 6b40 48a5 e1c0 bc51 6fc0
000000a0: 71a4 35bf 05eb f5be 9eb8 2f3e 0336 3ec0
000000b0: 6ecc a1c0 0c32 2b40 6717 dcbf be54 7d40
000000c0: 100e 8dc0 666b 2fbf 1985 95c0 3a48 06c1
000000d0: a874 cec0 242b 1940 c52b 33bf 748a 8abd
000000e0: 4456 49c0 31ef 093f 4173 a03c 0ab8 83c0
000000f0: d8e7 de3f e27c d4bd a9ac 4b3f 91ce fcc0
00000100: 09f0 e7c0 39f8 6c40 7fea 7e40 5a5d e33d
00000110: 3dbb 6940 ec40 c73f ab84 c8bf fe9e 993f
00000120: 9d83 2e40 154a 8340 e821 1e3d 33eb c1bf
00000130: 4aa1 d0bc 35cb 8f3f ddf2 5b3f 8718 6e40
00000140: b694 42bf 1dd1 45bf 7464 5140 5ff0 ec3f
00000150: 1686 b5c0 28bc ffbe 4b17 31c0 38ee a740
00000160: 0102 9240 8ac7 2b40 5e3e 253f 3854 8940
00000170: 0d18 8940 a696 3bc0 eca1 c13f 06e0 10bf
00000180: ba1f 6a40 62a8 cac0 54b3 853f 27ce 123f
00000190: 88f2 403e 2b5e 4b3c ce93 ad3f 3118 8c40
000001a0: 032a dbbd 09b6 6040 36a7 febf 9b68 fe3f
000001b0: 8209 6c40 e9c8 a6bf 6df6 99bc 32cf 1d3f
000001c0: a9ea 263f cbd8 dbbf a16c a83c ad4f fabf
000001d0: ef92 a5c0 1a3c c03f 6c29 003f 4b5a 3840
000001e0: 21e2 5140 522e 49c0 575d 1d3f 5f4a 19c1
000001f0: 7535 d1bb 803c 6a40 df0a 8740 0d23 533d
00000200: 228a a740 5c62 43bb c29d 6b3e fd74 523d
00000210: 4b37 56c0 3a6f 6b40 f742 d5be 72bb b6bd
00000220: daca ad3d d952 dabd e02c 75c0 7a80 64c0
00000230: 10a3 4bbf f067 ce3f 1176 39bf 7cd0 08bf
00000240: a41f b3c0 6417 6e40 a2b4 5040 0c61 6bc1
00000250: f08a 9e40 d2e1 82c0 1b95 9fbc 6ada 503f
00000260: 5756 45bd 6f32 3a40 44ab 8540 23d0 6f40
00000270: 9803 f3c0 a9c7 56c0 f5b9 09c0 b603 17c0
00000280: ca90 99c0 c65c dd3f 8b55 1d40 4f8c e3bf
00000290: e88e 5d3f 0743 1d3f 2f4b f13e 3fa9 193c
000002a0: c030 c9bd 1b46 3c3f 5e51 c43f fc8b 5040
000002b0: a1d4 0a3f f5b7 c3c0 799c b8bd 20a0 7240
000002c0: dcf2 cc3f e3bd e63d 1a81 2bbf a7a1 4140
000002d0: c34e 1b3f e598 d43d ddc6 8540 8e8e 61c1
000002e0: 6a2d 50bb 5bbe 1cc0 5a68 b3c0 ddff 8340
000002f0: 847f ccc0 fa0a 8840 26d2 4ac0 241c 1d3f
00000300: 028a 61c0 a0cb 16bf 76f7 43c0 5b2f 8a3d
00000310: c8b9 fc3b 0f5f 14c1 84d0 1c3f bb60 e03f
00000320: ee13 06c0 b739 01be 1e82 4fbf f05c 813f
00000330: 7d71 d53b 72aa a840 16ff 213f a17f 5abf
00000340: 1872 873f 455a d1bf b691 71c0 5a6e e6be
00000350: f7a4 7dbf 52af 6d40 f8a1 9f3d dc65 7e40
00000360: ed07 9e3f 55ec a7bf 7770 3dbf ae74 1f3f
00000370: 432a 903c d02a 4b40 f310 3340 3a7b 3ac1
00000380: c079 58bf 7921 4a40 6718 70c0 65cb 8540
00000390: 0528 7ac0 972a 4340 acd6 9540 aa1a eebf
000003a0: 765b 2a3f 1dce c0bc ac3e 03bf 4a07 1cc0
000003b0: ea9d 8140 bfb0 52bf c9af 96c0 41af a1bd
000003c0: ff4f 2bc0 96bf 3f40 dda9 1f3f 4f28 1a3f
000003d0: 611c 7c40 2c2e 9dbf bcd9 18bf fecb 61c1
000003e0: 5e56 0dc1 f9ac 373d 101e 46c0 9b38 bd3f
000003f0: 64d7 ddc0 7096 92bd c940 293f 3924 8e40

linear1_q2.weight f4 [256, 26]
0.19394901 0.55704296 0.100918695 -0.050304636 -0.4237788 -0.31499055 0.3322226 0.23318653
0.360711 0.16671379 -0.20907567 -0.4079242 -0.25841868 -0.12919913 -0.3571195 -0.1928239
0.006982023 0.18561803 -0.314535 -0.313387 0.39381355 0.026203882 -1.3274329 -0.49740142
0.32303584 -0.6331789 0.28574958 0.6129818 0.3838589 0.22962756 0.10901526 0.06982386
0.12899768 -0.38339376 -0.49987984 -0.71099126 -0.47849926 -0.2462231 -0.13763857 -0.15190436
0.19450277 0.047890484 -0.105217665 -0.15481217 -0.13859119 0.10703866 -0.5717556 -0.60587007
1.0387734 0.01542 0.74358994 0.14203586 0.1466133 0.18588269 -0.10960198 0.13766524
0.03660046 -0.12278128 0.15836725 0.07910933 -0.18957993 -0.09216449 0.124408565 0.20735526
0.14697064 0.19396117 0.071425 -0.09822933 0.05645114 0.08722912 0.061908897 0.010047135
-0.039756004 0.078969546 0.85519725 -1.1549922 -0.0011798699 -0.06541211 0.22320636 0.08476445
-0.12816916 0.17302571 -0.0032153213 -0.060543038 0.08099802 -0.053812273 0.27961197 0.13434882
0.06980698 0.13099512 -0.07628132 0.10174239 -0.27970332 -0.2548241 -0.27328423 -0.27024636
0.11473538 -0.0665247 -0.89415705 1.301909 0.09540057 -3.3575375 1.0852956 -1.2210877
-0.49817535 -0.27378905 -0.3573404 -0.109291196 -0.007913025 0.18293467 -0.10131384 -0.044635613
0.025513858 -0.47549662 -0.20153174 0.093243875 0.41581583 -0.13584985 0.16963384 0.31662193
0.3341974 0.07968655 0.023944868 0.15808131 -0.5503072 0.89666027 0.6492689 0.19640963
0.12205997 0.017247349 -0.079363085 -0.21834376 -0.18095368 -0.05376926 0.19522873 -0.024222005
-0.091378406 0.1514471 0.17431913 0.15067868 0.0042458368 -0.10477231 -0.06646974 0.35127428
0.22576067 -0.16033013 -0.11657075 -0.104458764 0.04056414 0.1022468 -0.37537733 -1.6775577
-0.29782525 2.426758 -0.56048197 -0.5072745 0.27103862 -0.074825555 -0.1638459 -0.14182296
-0.1402193 -0.33284354 0.3297699 0.36951384 -0.0984604 0.08343106 0.1184715 -0.046164062
-0.15213297 0.1386748 0.43764296 -0.064539745 -0.1923661 -0.044856925 0.08373596 0.20888348
1.3765434 -0.0781117 -1.0933276 -2.1914647 0.71569794 0.08608005 0.020898957 0.056404114
0.02147847 -0.029504811 0.044883166 0.09526794 -0.02053192 0.13661958 0.22588478 0.12499576
0.122381955 0.11169214 -0.014229725 0.06984061 0.07963622 0.012617342 -0.029160718 -0.14801048
-0.047298588 0.04745965 -0.10254221 -0.0919392 0.035870995 -1.2217066 -0.058646146 0.04976694
0.082653776 0.2820885 0.10428017 0.24284296 -0.18434307 0.10935063 -0.29109254 -0.5410887
0.06697261 0.23954713 0.02023684 -0.11609396 -0.1021837 0.09381954 0.16373572 0.30070746
-0.016618634 0.044012178 -0.1610445 -0.19213016 -0.22464293 -0.2834451 -0.7604265 -2.8478668
0.1647962 0.7831375 -0.11957599 -0.4911266 -0.16573219 0.1580655 0.07073218 -0.17188787
-0.074332304 -0.11945367 -0.37922728 -0.31743443 0.053363238 0.27076113 0.26065764 0.10985138
-0.112778656 0.20621221 0.37489834 -0.08972843 -0.13078636 0.21227273 0.52852714 1.9069709
00000000: 929a 463e 5e9a 0e3f 76ae ce3d 3c0c 4ebd
00000010: 89f9 d8be 7146 a1be 1519 aa3e 73c8 6e3e
00000020: 1daf b83e 05b7 2a3e ef17 56be 71db d0be
00000030: 744f 84be c74c 04be 5ed8 b6be a173 45be
00000040: 74c9 e43b a712 3e3e bb0a a1be 4374 a0be
00000050: eea1 c93e 86a9 d63c 52e9 a9bf 66ab febe
00000060: f464 a53e 0318 22bf c54d 923e 60ec 1c3f
00000070: 2789 c43e 7d23 6b3e 6543 df3d d0ff 8e3d
00000080: f817 043e 304c c4be 40f0 ffbe 8603 36bf
00000090: dbfd f4be e921 7cbe 20f1 0cbe d18c 1bbe
000000a0: bc2b 473e d028 443d 5c7c d7bd 1587 1ebe
000000b0: d9ea 0dbe 1637 db3d 935e 12bf 4d1a 1bbf
000000c0: 87f6 843f 2ba4 7c3c e95b 3e3f d971 113e
000000d0: cc21 163e 0858 3e3e 0177 e0bd 1ef8 0c3e
000000e0: 5dea 153d c074 fbbd 062b 223e 1304 a23d
000000f0: 3e21 42be bcc0 bcbd ebc9 fe3d f054 543e
00000100: 797f 163e c29d 463e 4547 923d 752c c9bd
00000110: 5039 673d 2ea5 b23d 2f94 7d3d bd9c 243c
00000120: 31d7 22bd c9ba a13d 35ee 5a3f c9d6 93bf
00000130: dda5 9aba c9f6 85bd 3590 643e fc98 ad3d
00000140: c73e 03be a72d 313e 24b8 52bb fafb 77bd
00000150: 4ae2 a53d 426a 5cbd 4d29 8f3e bd92 093e
00000160: f6f6 8e3d 9623 063e 6139 9cbd 505e d03d
00000170: 4635 8fbe 4e78 82be e9eb 8bbe bb5d 8abe
00000180: 62fa ea3d 1a3e 88bd 7ae7 64bf f4a4 a63f
00000190: 6061 c33d e5e1 56c0 f7ea 8a3f 9a4c 9cbf
000001a0: d710 ffbe 142e 8cbe 52f5 b6be 10d4 dfbd
000001b0: a2a5 01bc 3a53 3b3e a17d cfbd d5d3 36bd
000001c0: 7002 d13c 4b74 f3be 565e 4ebe a5f6 be3d
000001d0: d0e5 d43e 391c 0bbe 7eb4 2d3e 451c a23e
000001e0: ec1b ab3e b432 a33d 0728 c43c 11e0 213e
000001f0: efe0 0cbf 878b 653f 7d36 263f 9b1f 493e
00000200: 94fa f93d 504a 8d3c 1d89 a2bd 8295 5fbe
00000210: ec4b 39be 283d 5cbd 0aea 473e 3a6d c6bc
00000220: 9a24 bbbd f314 1b3e b780 323e 834b 1a3e
00000230: a920 8b3b dd92 d6bd 4921 88bd 39da b33e
00000240: ce2d 673e 952d 24be a5bc eebd 7aee d5bd
00000250: 9526 263d c566 d13d 7531 c0be 36ba d6bf
00000260: 8d7c 98be 0150 1b40 bf7b 0fbf bedc 01bf
00000270: 93c5 8a3e 243e 99bd 38c7 27be 0a3a 11be
00000280: a695 0fbe 786a aabe 9ad7 a83e eb30 bd3e
00000290: 9ba5 c9bd e7dd aa3d 30a1 f23d 8716 3dbd
000002a0: bfc8 1bbe c400 0e3e bd12 e03e 6a2d 84bd
000002b0: 9efb 44be e5bb 37bd c27d ab3d 8de5 553e
000002c0: 9332 b03f 07f9 9fbd 29f2 8bbf f540 0cc0
000002d0: fb37 373f bd4a b03d 4a34 ab3c 0008 673d
000002e0: 9ef3 af3c 13b4 f1bc 69d7 373d d61b c33d
000002f0: 8f32 a8bc 01e6 0b3e 574e 673e c7fd ff3d
00000300: 64a3 fa3d d9be e43d cb23 69bc 9808 8f3d
00000310: 5118 a33d f8b8 4e3c 75e2 eebc 0f90 17be
00000320: 2abc 41bd 0d65 423d a601 d2bd 9f4a bcbd
00000330: 77ed 123d e260 9cbf f136 70bd 6bd8 4b3d
00000340: 6246 a93d e76d 903e d790 d53d d3ab 783e
00000350: 6ec4 3cbe 39f3 df3d 150a 95be ca84 0abf
00000360: f028 893d d84b 753e bbc7 a53c acc2 edbd
00000370: b045 d1bd 7624 c03d 56aa 273e 54f6 993e
00000380: cd23 88bc 1d46 343d d9e8 24be c5bd 44be
00000390: cc08 66be b71f 91be 50ab 42bf 7343 36c0
000003a0: 56c0 283e b37b 483f 42e4 f4bd f274 fbbe
000003b0: b3b5 29be ecdb 213e 08dc 903d 6003 30be
000003c0: 893b 98bd 20a4 f4bd 142a c2be c486 a2be
000003d0: 6993 5a3d 34a1 8a3e eb74 853e c3f9 e03d
000003e0: 7ff8 e6bd 4b29 533e adf2 bf3e 8ac3 b7bd
000003f0: dcec 05be 065e 593e 8e4d 073f 9f17 f43f

linear1_q2.bias f4 [256]
0.29732752 0.18663152 1.7831868 0.2156115 -0.07658665 -0.36396194 0.8626313 1.6689202
0.494607 -0.16262656 0.121923916 1.4469708 -0.06775009 -0.15410005 -0.9014008 -0.34868556
-0.20984492 0.05889195 0.14144234 0.23073052 -0.34670472 0.38315755 0.056569763 0.46432725
-0.25324845 -0.019059166 -1.2319479 0.32241878 0.9317174 -0.674056 0.11961142 0.19199224
0.012064183 -0.540654 0.82693326 0.58952063 0.3795358 0.55136186 0.589954 1.5399371
1.1196064 -0.45596245 0.52351797 0.5246939 -0.85716766 0.30937 -0.5875705 -0.5301938
1.0278894 -0.6387723 -0.006853758 0.14817202 0.15689304 -0.48595446 0.096942775 -0.5193397
0.7511395 0.7538663 -0.26739708 -0.009528743 0.16369863 0.1697926 0.032948103 -0.300307
0.17250013 0.10197278 0.9214968 0.1364887 -0.27013072 -0.2644314 0.12794025 -0.74706763
-0.2401948 0.6517829 0.96787095 -0.16859278 0.41420335 -0.03927835 0.15358375 0.3636592
1.3114823 0.3769875 -0.40848067 1.827145 -0.5270093 -0.10625318 0.3652355 0.3051673
-0.048535477 -0.05130941 -0.28622082 0.28569287 0.25324124 -0.6915498 -0.707734 0.27134404
0.17216533 -0.3242817 1.3198034 0.27249107 0.05161858 1.2244395 0.0807337 0.5756554
-0.69746345 -0.35367796 -0.023953978 0.22066109 -0.3261477 -0.48668408 1.4361794 0.039432235
-0.01832534 0.1516683 -0.5526504 0.8216584 0.94127744 -0.17368482 0.11036017 0.2539567
-0.032743372 0.74701715 0.3477918 0.39717075 0.016056139 -0.0035946388 -0.0083906595 0.64514047
-0.15620175 0.8212198 -0.25174618 -0.06567492 0.035069995 0.001977232 -0.47347754 -0.2634491
0.4246521 0.92569315 0.026812254 -0.0014478582 -0.14374085 0.6315892 -0.4524701 0.0013728897
-0.03988192 0.91601175 -0.7481901 0.03726239 0.85621095 0.5008068 0.45672125 -0.042622793
0.14916751 -0.099250294 0.16821128 0.14769563 0.9399585 0.17006972 -0.3025672 0.967604
0.61914355 0.6737125 0.5412917 0.2801004 0.056009147 -0.14731383 -0.04353943 -0.306789
0.214391 0.31970677 -0.17745665 -0.16441691 1.2624729 1.0929945 -0.2234331 0.03417045
-0.45103222 0.06881121 0.01778522 -0.32833195 0.4560125 0.04008856 -0.2152976 -0.70572376
0.022372602 0.29423067 0.62336266 8.123375e-05 -0.07906917 0.8803762 0.5880704 0.422429
-0.52485317 0.21629164 0.7303184 0.058868848 0.14868216 0.05693415 -0.3368219 -0.43615288
-0.4668646 0.03474968 -0.088110045 0.99378383 -0.1228449 0.4192498 -0.2726364 1.5069147
0.12510236 -0.010717512 -0.32035387 1.1149037 0.11490163 -0.2641481 0.91996086 0.14076959
0.07127607 -0.65525997 1.0673577 -0.67814 0.10413543 0.030260501 -0.22279218 -0.45396614
0.6802213 0.03778898 0.67384875 0.6859876 0.4955631 -0.6024365 0.65792775 0.1359059
1.791617 0.117909215 0.8524657 0.29503414 1.0238023 0.46103135 0.8992692 0.57373315
-0.5548586 -0.29084545 0.21033461 0.21175407 -0.566032 0.43654588 -0.03161166 -0.57522666
0.33153385 1.8035604 -0.5867409 -0.018068885 -0.0038501583 0.15868092 0.9256439 0.89542
00000000: 503b 983e 551c 3f3e 773f e43f 43c9 5c3e
00000010: 76d9 9cbd 3859 babe 68d5 5c3f 2d9f d53f
00000020: 213d fd3e 9487 26be 3fb3 f93d 5736 b93f
00000030: 8fc0 8abd 67cc 1dbe 34c2 66bf ea86 b2be
00000040: 96e1 56be af38 713d 43d6 103e 9f44 6c3e
00000050: 4883 b1be 3a2d c43e b2b5 673d 4dbc ed3e
00000060: c8a9 81be f821 9cbc 78b0 9dbf 1314 a53e
00000070: 0885 6e3f ef8e 2cbf d5f6 f43d 9d99 443e
00000080: daa8 453c 4d68 0abf e6b1 533f d3ea 163f
00000090: 8452 c23e 0d26 0d3f 3a07 173f a91c c53f
000000a0: 434f 8f3f e973 e9be 4605 063f 5752 063f
000000b0: 576f 5bbf bf65 9e3e 056b 16bf c8ba 07bf
000000c0: e191 833f 9586 23bf 7d95 e0bb 68ba 173e
000000d0: 92a8 203e 06cf f8be ef89 c63d 72f3 04bf
000000e0: ae4a 403f 62fd 403f 45e8 88be 721e 1cbc
000000f0: 9da0 273e 1dde 2d3e 97f4 063d d7c1 99be
00000100: e0a3 303e 1bd7 d03d 37e7 6b3f b2c3 0b3e
00000110: 934e 8abe 8d63 87be c502 033e d33f 3fbf
00000120: a0f5 75be 3edb 263f 64c6 773f 96a3 2cbe
00000130: 7612 d43e 56e2 20bd 0f45 1d3e 8a31 ba3e
00000140: a7de a73f 8104 c13e 6124 d1be e3df e93f
00000150: 15ea 06bf 449b d9bd 2600 bb3e e33e 9c3e
00000160: 23cd 46bd d129 52bd 898b 92be 5646 923e
00000170: d6a8 813e 6809 31bf 0e2e 35bf 9bed 8a3e
00000180: 1c4c 303e 4008 a6be 51ef a83f f383 8b3e
00000190: 016e 533d 6fba 9c3f b657 a53d 275e 133f
000001a0: f78c 32bf 4715 b5be 223b c4bc fbf4 613e
000001b0: d5fc a6be a82e f9be bad4 b73f b283 213d
000001c0: 061f 96bc ef4e 1b3e 7f7a 0dbf 3458 523f
000001d0: 8ff7 703f 6fda 31be 8304 e23d 9d06 823e
000001e0: ea1d 06bd 843c 3f3f c411 b23e f759 cb3e
000001f0: 2a88 833c 0894 6bbb fa78 09bc ed27 253f
00000200: 5af3 1fbe 763b 523f e0e4 80be 9380 86bd
00000210: 8ea5 0f3d 7394 013b a66b f2be cde2 86be
00000220: 006c d93e 3afa 6c3f 5fa5 db3c 0fc6 bdba
00000230: cd30 13be d4af 213f 29aa e7be 89f2 b33a
00000240: 395b 23bd bf7f 6a3f 6389 3fbf 73a0 183d
00000250: a430 5b3f e034 003f 5ed7 e93e 3d95 2ebd
00000260: 5ebf 183e bd43 cbbd 943f 2c3e 863d 173e
00000270: 1fa1 703f c226 2e3e 17ea 9abe e5b4 773f
00000280: 3180 1e3f 6c78 2c3f 1892 0a3f 5269 8f3e
00000290: d969 653d 70d9 16be 6756 32bd 7313 9dbe
000002a0: 5089 5b3e 9bb0 a33e 32b7 35be e85c 28be
000002b0: b698 a13f 3ee7 8b3f a6cb 64be 50f6 0b3d
000002c0: b2ed e6be e4ec 8c3d 4fb2 913c 201b a8be
000002d0: 787a e93e e733 243d f976 5cbe 50aa 34bf
000002e0: bf46 b73c 67a5 963e b294 1f3f 0a5c aa38
000002f0: 04ef a1bd 5660 613f c88b 163f 9d48 d83e
00000300: c75c 06bf 8e7b 5d3e 26f6 3a3f 7620 713d
00000310: 2340 183e c933 693d ec73 acbe 6e4f dfbe
00000320: e008 efbe ae55 0e3d 0a73 b4bd 9e68 7e3f
00000330: 1b96 fbbd e9a7 d63e 0097 8bbe 95e2 c03f
00000340: d51a 003e 8198 2fbc 6c05 a4be 2ab5 8e3f
00000350: 8c51 eb3d 6b3e 87be 8e82 6b3f e725 103e
00000360: 30f9 913d 1ebf 27bf 2d9f 883f 959a 2dbf
00000370: f544 d53d dfe4 f73c a223 64be 406e e8be
00000380: fc22 2e3f 9ec8 1a3d 5a81 2c3f e29c 2f3f
00000390: 72ba fd3e 4739 1abf f46d 283f eb2a 0b3e
000003a0: b553 e53f 637a f13d 313b 5a3f b70e 973e
000003b0: f40b 833f 4d0c ec3e 8236 663f 2de0 123f
000003c0: 370b 0ebf b2e9 94be f561 573e 0fd6 583e
000003d0: 79e7 10bf f182 df3e 3a7b 01bd 0e42 13bf
000003e0: cebe a93e 11db e63f a734 16bf 3305 94bc
000003f0: f052 7cbb 407d 223e 00f7 6c3f 3f3a 653f

linear2_q2.weight f4 [256, 256]
-0.0004918948 0.102456324 -0.09544403 0.04906317 -0.0919268 -0.05789644 -0.06897391 0.08664369
-0.09019342 -0.033893097 -0.10241598 -0.07020133 -0.111155905 -0.09040263 -0.10459558 0.05779256
-0.011470824 0.081608586 -0.05877174 0.102216296 -0.020879412 -0.00064155925 -0.101563305 0.028030705
0.055117633 -0.028501444 0.005825486 0.05618452 0.0075078974 0.052879654 0.0054493025 -0.120997444
-0.06590064 0.065969445 -0.09113024 -0.102630675 -0.04702397 -0.1024976 -0.03056945 0.052068315
0.019291658 -0.0589313 -0.040377602 -0.09005496 -0.007583034 0.07609361 -0.043071933 0.013915393
-0.103082456 -0.017390715 -0.0041937456 0.08434863 -0.0824699 -0.0039273202 0.019686706 -0.09733354
-0.078624405 -0.12152657 -0.08477103 -0.04272726 0.005745524 -0.093290694 0.016899712 0.007851455
0.05443845 0.045568924 -0.0901871 0.0027566701 -0.06965351 -0.058249265 -0.047412332 -0.017811013
0.0682299 0.03770452 -0.072438136 0.054750264 0.060785733 -0.029538274 0.012238637 -0.038625013
0.07291215 0.088408954 0.06729446 0.0112576205 -0.0875592 0.02863855 0.008900054 -0.03361522
-0.082330965 -0.059762884 -0.071069 -0.10626723 -0.0067721587 -0.063798375 -0.0071795713 -0.009533209
0.07990231 0.07474291 -0.016608583 -0.0557944 -0.042213082 -0.011643741 0.10034972 -0.052796606
0.078445636 -0.06383724 -0.0142088905 0.04563659 -0.06370983 -0.084545836 0.018849226 -0.0106795505
0.0016755983 -0.08590338 0.07928273 -0.03043665 -0.121676095 -0.07894201 -0.0724549 -0.007186918
0.045401298 0.09651838 -0.058396608 -0.0069658086 0.053073898 0.049017627 0.030353852 -0.10671541
0.072619185 -0.030651424 -0.033384934 -0.007112459 0.052591685 0.0738381 -0.0588717 -0.06730862
0.08629312 0.058765307 -0.09067989 -0.064101554 0.07991617 -0.053697225 0.007673987 -0.048658583
0.08630932 -0.11309862 0.05831658 -0.07672812 0.031556234 0.055910807 0.01523166 0.08066171
0.01750505 0.07776871 0.03292524 0.001869967 -0.008587677 0.083129905 -0.06241992 -0.019816529
0.014451283 -0.042848464 0.09382487 -0.05099705 -0.07593348 -0.0011649373 -0.10102238 0.005177666
-0.10040633 -0.048661694 0.032581892 -0.067533255 -0.0025129225 0.041306544 -0.061630465 0.0952351
0.023420295 0.033174444 -0.07826109 -0.08930437 -0.036285333 0.10713031 -0.047372133 0.04843443
-0.08438527 -0.120695576 -0.031612825 -0.0153457895 -0.00270582 0.022463592 0.015354555 -0.08569761
-0.07131478 -0.093763 -0.0555552 -0.00033145593 -0.025228776 -0.06812359 0.07225671 0.08100801
-0.09480248 -0.025478376 0.08737568 -0.11619091 0.079265065 0.03506554 -0.1075549 0.018382424
-0.050816186 0.037611358 -0.10648081 0.07315686 0.09122356 -0.05421464 -0.018938994 -0.04491093
-0.09678131 0.04052142 0.027655473 -0.0084043 -0.04951407 0.0013321489 0.020350166 0.08877004
-0.07159561 -0.095451735 0.0032558616 0.087504014 -0.08263909 -0.013131864 -0.03240478 0.028840475
-0.01044832 -0.06453638 -0.031779088 0.0059244684 -0.013510068 0.06627955 0.07470306 -0.066242814
-0.107660055 0.07365421 -0.016078262 -0.037750065 0.030144645 0.06414015 0.052480884 -0.0384441
0.046630345 -0.10752952 -0.0030828898 -0.033882543 0.091338836 0.066005535 -0.09888579 -0.0067576678
00000000: 80f2 00ba 9fd4 d13d 2978 c3bd 76f6 483d
00000010: 1e44 bcbd d124 6dbd 3142 8dbd 3f72 b13d
00000020: 54b7 b8bd 7dd3 0abd 78bf d1bd b7c5 8fbd
00000030: b5a5 e3bd 0425 b9bd 3536 d6bd e4b7 6c3d
00000040: 1ff0 3bbc 6722 a73d a3ba 70bd c756 d13d
00000050: 4d0b abbc 502e 28ba 6c00 d0bd a6a0 e53c
00000060: 07c3 613d dc7b e9bc b8e3 be3b bd21 663d
00000070: cf04 f63b 5698 583d 1090 b23b 82cd f7bd
00000080: eaf6 86bd fd1a 873d 7ea2 babd 0830 d2bd
00000090: 359c 40bd 43ea d1bd c96c fabc 9645 553d
000000a0: 8a09 9e3c f261 71bd fc62 25bd bc6e b8bd
000000b0: 1a7b f8bb f7d6 9b3d 326c 30bd 63fd 633c
000000c0: e51c d3bd f976 8ebc b06b 89bb f9be ac3d
000000d0: fbe5 a8bd c0b0 80bb 0446 a13c cf56 c7bd
000000e0: d505 a1bd ece2 f8bd 6f9c adbd c802 2fbd
000000f0: f344 bc3b 310f bfbd 4471 8a3c 64a3 003c
00000100: dafa 5e3d 7ba6 3a3d 04b4 b8bd 40a9 343b
00000110: 80a6 8ebd c896 6ebd 6f33 42bd 67e8 91bc
00000120: 1ebc 8b3d 0e70 1a3d 725a 94bd d041 603d
00000130: 76fa 783d 40fa f1bc 9084 483c 4335 1ebd
00000140: f752 953d c10f b53d aed1 893d e271 383c
00000150: 3d52 b3bd 649b ea3c 88d1 113c 1db0 09bd
00000160: 239d a8bd edc9 74bd a08c 91bd a2a2 d9bd
00000170: fce8 ddbb b9a8 82bd 9c42 ebbb 2d31 1cbc
00000180: d3a3 a33d d012 993d b90e 88bc ab88 64bd
00000190: a0e7 2cbd 64c5 3ebc 2784 cd3d 4141 58bd
000001a0: 1ba8 a03d 19bd 82bd 68cc 68bc 6fed 3a3d
000001b0: 4d7a 82bd 5e26 adbd b169 9a3c 48f9 2ebc
000001c0: c09f db3a 1cee afbd fc5e a23d 4856 f9bc
000001d0: 5131 f9bd 59ac a1bd 3c63 94bd 3d80 ebbb
000001e0: b6f6 393d 6eab c53d 4831 6fbd 7041 e4bb
000001f0: 0464 593d b5c6 483d a4a8 f83c 9c8d dabd
00000200: 5eb9 943d b218 fbbc a4be 08bd a10f e9bb
00000210: 616a 573d 6e38 973d 7423 71bd 1ad9 89bd
00000220: 73ba b03d e4b3 703d 61b6 b9bd ad47 83bd
00000230: 17ab a33d 9ff1 5bbd 1276 fb3b 394e 47bd
00000240: f1c2 b03d 40a0 e7bd 5edd 6e3d a223 9dbd
00000250: 1c41 013d bb02 653d 368e 793c f731 a53d
00000260: c066 8f3c 3445 9f3d 9edc 063d ae19 f53a
00000270: 54b3 0cbc 0340 aa3d 08ac 7fbd 4656 a2bc
00000280: 13c5 6c3c df81 2fbd 4127 c03d 48e2 50bd
00000290: 0383 9bbd cfb0 98ba d2e4 cebd 69a9 a93b
000002a0: d5a1 cdbd 7c51 47bd 9774 053d e04e 8abd
000002b0: d8af 24bb 0d31 293d 3a70 7cbd 9f0a c33d
000002c0: ebdb bf3c ede1 073d 5a47 a0bd 36e5 b6bd
000002d0: ee9f 14bd 2367 db3d 4809 42bd 2e63 463d
000002e0: 2fd2 acbd 3e2f f7bd 737c 01bd e86c 7bbc
000002f0: 2054 31bb 9105 b83c ac91 7b3c 3b82 afbd
00000300: 7c0d 92bd d106 c0bd d98d 63bd 43c7 adb9
00000310: 94ac cebc 6184 8bbd 53fb 933d 87e7 a53d
00000320: cd27 c2bd 07b8 d0bc 05f2 b23d 80f5 edbd
00000330: b955 a23d e2a0 0f3d be45 dcbd bd96 963c
00000340: a224 50bd 5e0e 1a3d 9c12 dabd 44d3 953d
00000350: 6bd3 ba3d 2c10 5ebd f325 9bbc 86f4 37bd
00000360: 4835 c6bd caf9 253d bb8d e23c 30b2 09bc
00000370: 44cf 4abd 809b ae3a 64b5 a63c 11cd b53d
00000380: b8a0 92bd 337c c3bd 4b60 553b 4e35 b33d
00000390: af3e a9bd 0827 57bc e0ba 04bd dc42 ec3c
000003a0: 6e2f 2bbc a62b 84bd ca2a 02bd 0b22 c23b
000003b0: 5559 5dbc 93bd 873d ebfd 983d 50aa 87bd
000003c0: e07c dcbd 05d8 963d 8fb6 83bc d09f 1abd
000003d0: e7f1 f63c e95b 833d 32f6 563d 9077 1dbd
000003e0: 76ff 3e3d 7038 dcbd 4f0a 4abb 6cc8 0abd
000003f0: db0f bb3d e92d 873d a284 cabd 6d6f ddbb
