hydrone_aerial_underwater_ddpg/scripts/Models/sac_stage_2_air2D_tanh_5layers/2780_value_net.pth (torch_old, 585472 bytes, 10 tensors)

linear1_q1.weight f4 [256, 26]
000000 df 12 e6 3d 2e 94 9e 3e 7b 35 6f 3e 6e 1e 96 3e
       0.11234068 0.30972427 0.23360245 0.2932009
000010 16 89 30 3d 43 76 77 3e 22 23 9e bd ca 8d c8 bd
       0.043099485 0.24166207 -0.07721545 -0.09792669
000020 04 75 69 3e fa 57 4c be 7b 8c 6b be 5e 31 84 bb
       0.22798544 -0.19955435 -0.23002808 -0.0040342053
000030 2a aa bd bd 70 c4 29 be f2 cb 0d be 6e 17 a3 bd
       -0.09260972 -0.16578841 -0.1384733 -0.07963453
000040 88 d5 05 bf 41 2e 9b 3c c4 6e 60 3e 55 e4 4e 3a
       -0.5227895 0.018942954 0.21917254 0.00078923005
000050 86 81 a4 bf 39 f9 46 3e 1b 25 6c 3f 0c 8f f8 bf
       -1.2852027 0.19431008 0.9224412 -1.9418654
000060 c0 f2 6c be 14 46 aa 3f 13 c8 de bc 57 43 ae bd
       -0.23139477 1.3302636 -0.027195012 -0.08508938
000070 04 8b 89 ba 4c 7e b6 bb 45 e9 06 bd 84 d6 13 3e
       -0.00104937 -0.005569255 -0.032937307 0.144373
000080 a1 d4 97 3d 20 22 33 3d 45 ec 6f 3d c4 61 8c bd
       0.074136026 0.043733716 0.058574934 -0.06854585
000090 e5 68 65 bc ba 40 31 bd 55 9d 42 3d 03 cd ff 3d
       -0.01400206 -0.04327462 0.047513325 0.12490275
0000a0 df 67 5b bd f4 00 1b 3e d4 0c 3e be b1 ba ff bd
       -0.053565856 0.15137082 -0.18559581 -0.124867804
0000b0 62 ce 01 be 4a e7 26 3e a7 00 2a 3f 46 3e 3a bf
       -0.12676385 0.16299167 0.66407245 -0.7275127
0000c0 6b 2f 3d bd 53 01 05 40 bb 8c 28 bf 0e f5 18 bf
       -0.0461878 2.0782058 -0.6583974 -0.59748924
0000d0 d2 c4 59 3e a5 c4 cb 3d bf 7b 16 3e 64 70 b1 3c
       0.21266487 0.09949616 0.14695643 0.021660037
0000e0 78 4f 02 bf 46 0d 91 be 9f 33 91 be 00 16 19 3e
       -0.5090251 -0.2833044 -0.28359696 0.14949799
0000f0 84 25 3d 3e 02 b7 83 3e 44 49 fd ba d0 e0 51 3d
       0.18471342 0.2572556 -0.0019324203 0.05123979
000100 30 38 61 be bf 0e 37 be 79 fb 87 be 36 1a ba be
       -0.2199409 -0.17876719 -0.26559046 -0.36348122
000110 b9 c3 0b 3d 82 f8 fa 3d 40 08 09 3e 75 b5 1d 3e
       0.034122203 0.1225443 0.13382053 0.15401252
000120 45 29 6f 3f 25 75 45 3f 02 da c4 3f ed 3e 12 40
       0.9342235 0.77131873 1.5379031 2.2850907
000130 94 f8 23 3f 18 e2 7e bf 14 35 8a bd 06 fa 63 be
       0.64051175 -0.9956374 -0.06748405 -0.22263345
000140 1b 74 2f bf 98 ce 9c bd 05 75 2d be bf 28 51 bf
       -0.6853654 -0.07656592 -0.1693917 -0.817028
000150 36 b6 01 be 0d 7b 63 be 2e 43 71 3e c8 77 0f 3e
       -0.12667164 -0.22214909 0.23560783 0.14010537
000160 bd 5b c9 3e 01 b6 fd 3e db 75 8f bc 5f e2 d3 be
       0.39327803 0.4955292 -0.017512253 -0.41383645
000170 9f 5c 86 3e 10 d4 4c 3e 49 c6 0d be df 54 84 3c
       0.2624254 0.2000277 -0.13845171 0.016153751
000180 1e a4 e8 bc 67 d0 1c 3f ae 3d 6e bf 62 7a 09 bf
       -0.02839857 0.61255497 -0.93062866 -0.53702366
000190 e8 4d bf be ca 49 01 3e 41 3b 71 3f 17 95 e0 be
       -0.37364125 0.12625805 0.9423104 -0.43863747
0001a0 4f e0 0f bf 85 0c 85 bf 3f 8a 66 be 09 f2 ed 3d
       -0.5620164 -1.0394446 -0.22513674 0.1161843
0001b0 b4 9f 18 3f bb 1d 38 3f ff 70 02 3f 2e 27 bb 3e
       0.5961869 0.71920365 0.5095367 0.3655333
0001c0 f9 a6 a0 bd e1 05 7b be 9b 63 d0 bc 69 e1 07 bf
       -0.078443475 -0.24513961 -0.02543812 -0.53078324
0001d0 98 64 7b be ab 73 34 be f2 a3 1e bb f5 09 82 be
       -0.24550092 -0.17622249 -0.0024206606 -0.25398222
0001e0 f6 3f 0c 3e e7 b6 5b be a0 24 c4 3d 8c ae 47 3e
       0.13696274 -0.2145649 0.09577298 0.19500178
0001f0 3a f9 d4 3e df 45 41 be e5 25 38 be c0 3d b0 bf
       0.41596395 -0.1887431 -0.17983206 -1.3768845
000200 c3 7e f0 3d d1 fc c1 3c dc 33 a6 3e 14 94 db 3d
       0.11742928 0.023680123 0.3246144 0.10721603
000210 58 4c 15 be 4e 21 a9 bd 07 bc 94 3d 92 07 c0 3c
       -0.14579904 -0.082583055 0.07262426 0.02344111
000220 50 9c 04 3e 89 63 7f 3e b8 a1 8d 3e 1f e7 7f 3e
       0.12950253 0.24940313 0.27662444 0.2499051
000230 5e 67 13 be 83 3a 2f bf b7 a1 c5 bf 44 49 fd be
       -0.143949 -0.68448657 -1.5439976 -0.4946996
000240 88 50 58 be 69 d6 33 be 08 cf 2d 3d 64 5d 71 3e
       -0.2112447 -0.1756226 0.04243377 0.23570782
000250 b5 b0 83 3e 3f 4e 4e 3e 61 78 4c 3d 32 d2 dd 3c
       0.25720754 0.20147036 0.04991949 0.027077768
000260 19 69 4c 3f 32 e3 33 3f cc b7 92 3e 27 ca 3e 3e
       0.79847866 0.7026855 0.2865585 0.18631802
000270 58 7c ad bc 22 ff c3 3d 2c e5 ed 3d 7d 2a 6b bc
       -0.021177456 0.09570147 0.11615977 -0.014353392
000280 5d ca 86 be dc 8d cf 3e 69 6d ce bd f4 cc 7d 3d
       -0.26326266 0.40537918 -0.10079462 0.061963037
000290 99 72 c6 3c 36 df b6 bd 01 29 53 be b4 18 15 3d
       0.024224566 -0.08929293 -0.2062111 0.03640051
0002a0 74 63 66 3e b1 00 7d 3e f9 76 3c be 53 fa a9 bd
       0.22498876 0.24707295 -0.1840476 -0.08299699
0002b0 e0 75 63 3e a9 c4 61 3d 25 da 56 bc 79 25 c1 bc
       0.22212934 0.05511919 -0.013113533 -0.023577439
0002c0 c3 9a c3 bd 37 8a 20 bf 57 e3 fb be 80 45 c0 bf
       -0.09551003 -0.627109 -0.49196884 -1.502121
0002d0 04 da 34 3e 58 73 1f be a9 67 23 3d 7d 5c 4e be
       0.17661291 -0.15571344 0.03989378 -0.20152469
0002e0 c9 e2 8c bd af f3 83 bc 97 c6 f7 3b 9b 8f be 3d
       -0.06879193 -0.016107408 0.0075615156 0.09304734
0002f0 70 0f b4 bd 4a 4d 20 bd 6f d2 8f 3d 32 37 ec 3d
       -0.08792007 -0.03913621 0.07022559 0.11533965
000300 92 0b cf bd 67 23 27 bd fb c4 7a 3e 4d 85 d1 bd
       -0.10109629 -0.040805247 0.24489205 -0.10230503
000310 b9 0b 63 3c 3c 05 d9 bb 8e d7 a4 bd 1c 1f 4f 3d
       0.013857775 -0.0066229384 -0.08048926 0.050566778
000320 c9 e3 11 3e 4c d5 22 3d ca 71 5e 3e 5f d6 e2 3d
       0.1424705 0.039754197 0.21723095 0.11076044
000330 6d 21 02 3f 67 26 43 40 4c da 7b 3e e5 69 e8 3f
       0.50832254 3.049219 0.24594992 1.8157316
000340 93 12 eb be 43 9a 5f bd 20 9b e5 3d 2f 26 2d 3e
       -0.45912609 -0.054590475 0.11211228 0.16909097
000350 76 fa 5e 3e 24 77 1a 39 14 1c dc 3e 64 a1 d5 3e
       0.21775231 0.00014730968 0.42990172 0.41724694
000360 55 55 a2 3e c2 2f b9 bc be 22 09 3e b2 e6 4d bc
       0.31705728 -0.02260578 0.1339216 -0.012567209
000370 b0 30 90 bd a9 35 a4 bd 70 da 94 3e f4 d5 40 3e
       -0.070405364 -0.08018047 0.29072905 0.18831617
000380 ae 37 82 3d 1d 81 93 bd 65 ec 9d bd 14 7a b7 be
       0.06358276 -0.07202361 -0.07711104 -0.35835326
000390 e3 36 60 3e 6f 47 77 3f c1 79 1b 3d eb c1 07 c0
       0.21895938 0.96593374 0.03795791 -2.1212108
0003a0 48 4c 8b bf 6f ea 88 bf fe a4 66 bd a2 7c 31 bd
       -1.0882654 -1.0696543 -0.056309693 -0.04333175
0003b0 32 b6 d2 bd 34 84 88 be 81 7f 29 bd d5 7e 88 bd
       -0.10288657 -0.26663363 -0.041381363 -0.06664816
0003c0 15 b3 41 3f 5e 5f a2 3e d0 51 34 3e 42 fc 5a 3d
       0.7566388 0.31713384 0.17609334 0.053463228
0003d0 06 3c e7 3b 13 e0 8a 3c b9 45 cc 3d d6 b7 d0 bc
       0.007056716 0.01695255 0.09974236 -0.025478285
0003e0 60 28 9c 3b 09 93 51 bf 40 44 7e bd e2 c3 06 3e
       0.0047655553 -0.8186498 -0.062076807 0.13160661
0003f0 c9 b2 8a 3e 30 2f 9e 3c b0 cb a7 3d 37 41 4c 3e
       0.27089527 0.01930961 0.08193147 0.19946752

linear1_q1.bias f4 [256]
000000 72 ab 43 3b c5 31 47 3e 4d 7d d0 be 4b 20 00 3f
       0.0029856828 0.1945258 -0.40720597 0.50049275
000010 7e a9 55 3f cc f8 37 3e c8 c0 bb 3f 43 b0 03 bf
       0.8346175 0.17966002 1.4668207 -0.5144083
000020 c7 26 e2 3c d5 1c 89 3f 97 2f bb 3e 53 d9 ad 3f
       0.027606381 1.0711924 0.36559746 1.3581947
000030 ac e1 9e bd ae 69 1c 3f 36 09 fc bd 73 89 1b bf
       -0.07757887 0.61098754 -0.12306444 -0.60756606
000040 7e 18 34 3e 6b 65 4a 3f 92 0e e5 3c 9a fd bf bd
       0.17587468 0.79061 0.02796105 -0.093745425
000050 37 31 0c 3f ef ae 11 3e cb ea 4c 3f 85 e3 2d be
       0.54762596 0.14226888 0.80045766 -0.16981323
000060 83 8d 87 3e 97 de 09 3e f3 0b 5c be 5d 1c e1 3e
       0.26475152 0.13463818 -0.21488933 0.43966952
000070 e8 0e d9 bd dc 6d bc bd b0 b2 05 3f 3e 87 9a 3e
       -0.10598546 -0.092006415 0.5222578 0.30181307
000080 0c 6e 83 bf 17 4c 88 3f ce a1 5a be 09 62 d2 3e
       -1.0267959 1.0648221 -0.21350786 0.4109042
000090 14 37 b4 bc cf 4c 0a bd c8 05 74 3f 6f ba 7d bf
       -0.02199892 -0.033764657 0.9532132 -0.991126
0000a0 ff c5 5e 3f 90 a0 1b 3d 20 5e 6a 3e b1 55 60 3f
       0.8702087 0.03799492 0.22887468 0.87630755
0000b0 f9 dd fb 3f cb 66 7c 3f 24 5f 33 be ef 97 32 be
       1.9677116 0.9859435 -0.17516762 -0.1744077
0000c0 99 d1 76 3e 54 8e 90 3e 31 0c 18 be 44 23 8e be
       0.24103393 0.28233588 -0.148484 -0.2776128
0000d0 90 22 1c bc 9a e3 c7 be 93 41 c0 be 95 4e 02 be
       -0.009529725 -0.39040834 -0.3755003 -0.12725289
0000e0 09 44 f1 3f cb 46 eb 3f 5b a1 66 3f de 0f 2e 3f
       1.8848888 1.8380979 0.9008996 0.6799296
0000f0 62 7d 4a 3f 75 2d f8 bb 82 a0 8a 3e e3 83 95 3f
       0.7909757 -0.0075737783 0.27075583 1.1680874
000100 5d b7 26 bf 30 78 6b 3e 47 6d 31 3f cd de 1d bd
       -0.6512354 0.22995067 0.6930737 -0.038542558
000110 fe 2f dc 3f 48 ae b4 bc ea cc 24 3e 82 a6 92 bc
       1.7202146 -0.02205576 0.16093794 -0.017901663
000120 39 35 81 3f 06 b6 e4 bd 00 00 00 00 d3 55 a4 3d
       1.0094367 -0.11167531 0.0 0.08024182
000130 24 29 5f 3f dd 14 ba 3e 0f b2 bf 3f e5 26 9f 3f
       0.8717215 0.36344042 1.4976214 1.2433745
000140 4e 9f 93 be fa d5 29 3f 46 fc 97 3d 2b d7 83 be
       -0.28832477 0.6634213 0.07421164 -0.25750098
000150 89 12 12 3c 10 a3 ec 3e a3 07 51 be 30 38 c4 be
       0.008915552 0.46218157 -0.2041307 -0.38324118
000160 1c 6d 4a bd ed 40 a9 3d 60 e9 30 bd aa 06 6c 3e
       -0.04942046 0.08264337 -0.043191314 0.23049417
000170 22 7b 6a 3f 73 10 e6 be 99 1d 60 3f 2d eb 1c bf
       0.91594136 -0.44934425 0.8754516 -0.6129635
000180 01 52 b3 3e 4e 4d 4a 3f 8f 11 e6 3f 0a 55 5c 3f
       0.35023502 0.7902421 1.7974108 0.8606726
000190 cc 8a 6f be 00 00 00 00 ca 9b 83 3f 7f 3c 4e 3f
       -0.2339279 0.0 1.0281918 0.8056106
0001a0 0c 22 ee 3f 6d e1 d0 bd e5 c4 6d 3f c1 a9 0c bf
       1.860414 -0.101992466 0.9287856 -0.54946524
0001b0 ae 99 e9 be bd e7 3f bf 62 66 fa be a8 bf 5d 3f
       -0.4562506 -0.7496298 -0.48906237 0.8662057
0001c0 56 29 cc 3f e3 b9 ea ba b1 e8 30 3f 3c d7 f0 3e
       1.5950115 -0.0017908182 0.6910506 0.4703921
0001d0 6d d8 8b 3f 73 0e 35 3b 03 dd 9e 3f cb df c9 bd
       1.0925423 0.002762702 1.2411197 -0.09857138
0001e0 5b fa c4 be 2f 5b eb be b8 b8 3e bf 3d ba 45 be
       -0.38472256 -0.45968005 -0.7450061 -0.19309326
0001f0 75 58 01 bf de 37 ea 3e 2b b5 f9 3f 47 57 93 3d
       -0.505256 0.45745748 1.9508413 0.07194381
000200 22 eb 87 3f df d8 ce 3f 93 71 8b 3f e9 5f a9 3e
       1.0618632 1.6159934 1.0894035 0.33080986
000210 57 1a 29 3d 1b 91 0a 3e a6 a5 6f bd c4 73 0f bf
       0.041284885 0.13531916 -0.058507584 -0.5603602
000220 a3 1d 09 bf 11 5f 68 bf b6 2c 12 3e e1 91 f6 3f
       -0.5356085 -0.9077006 0.14274868 1.9263269
000230 e7 3c 45 3d cf 96 54 3c dd b9 ac 3d 26 bc 9a be
       0.048153784 0.012975409 0.08433888 -0.3022167
000240 d0 87 69 3e ab 8a 49 3f eb 7a 18 3f 46 96 8a 3f
       0.22805715 0.78727216 0.5956256 1.082711
000250 0f 71 cb be 00 00 00 00 db 69 ac be 96 00 45 3e
       -0.39734694 0.0 -0.3367451 0.19238505
000260 6c f9 8a 3f 9e cb 0f 3f bf 39 70 bf 84 5f cc 3f
       1.0857368 0.5617007 -0.93838114 1.5966649
000270 f7 3a 8b bd 8d 7e 09 3f 0c 2f c1 3f 94 4a 6e 3d
       -0.06798356 0.53708726 1.5092483 0.058176592
000280 db f2 57 3e 01 f3 86 3e 79 e6 10 3f 8c 75 0e 3f
       0.21088736 0.26357272 0.56601673 0.5564811
000290 e8 8e 04 be c1 f5 05 3f 79 d8 14 bf 89 f8 0d bf
       -0.1294514 0.52328116 -0.5814281 -0.5545736
0002a0 dc 8b 0f bf f1 eb 86 bc ae 1c da 3e d2 ae 89 bf
       -0.56072783 -0.016469928 0.42600006 -1.0756476
0002b0 6c 90 20 bf ca d2 16 3e 82 f1 1c be bd 0d 34 3f
       -0.6272037 0.14728847 -0.15326503 0.7033346
0002c0 36 10 1f 3f 3e 30 2f bf 06 b6 93 3f 90 7b ad bc
       0.6213411 -0.68432987 1.1539924 -0.021177083
0002d0 90 a1 5a 3e 70 cb 38 3e c9 1c 35 bf cb 93 f4 be
       0.21350694 0.18046355 -0.7074705 -0.47769007
0002e0 42 86 b6 be f2 63 db 3f 3f cf 63 bf b2 0f 46 3e
       -0.35649306 1.7139876 -0.8898811 0.19341925
0002f0 7e 38 72 3e c2 86 26 3f bb 49 09 3d 42 ef 06 3f
       0.23654363 0.65049374 0.03351758 0.5270883
000300 b8 e1 4e bf 0d 5f b5 3d 37 9e 7d bf 1b a2 b7 be
       -0.8081317 0.0885602 -0.9906954 -0.35865864
000310 d9 f8 16 bf 84 8c 13 bd 4c 4e 4c 3f 69 b2 cc 3f
       -0.5897346 -0.036022678 0.7980697 1.5991946
000320 d8 fc 1b bc 89 61 8b 3f bf 23 20 3f ae 39 8f bf
       -0.009520732 1.088914 0.62554544 -1.1189477
000330 29 82 39 3f f2 ff 0b bd c0 44 3a 3e 39 34 2c bf
       0.72464234 -0.034179635 0.18190289 -0.67267185
000340 12 a7 a9 3e 2b 60 ce 3e f3 02 d0 3e f6 1d 1c bc
       0.33135277 0.40307745 0.4062725 -0.009528628
000350 47 ad a4 3f 0a ef dd 3f dc e0 13 bd af c7 7a bf
       1.286538 1.7338574 -0.036103114 -0.97960943
000360 09 48 4f 3c c7 4f 82 3d 13 f2 e1 bd be 42 67 bb
       0.012651452 0.063628726 -0.110325 -0.0035287584
000370 a4 2e 95 bd 09 cb 81 bd e0 5b 82 3f 21 fc 73 bd
       -0.072842866 -0.06337554 1.0184288 -0.05956662
000380 a7 c1 0c bf eb d9 23 bd ca 87 42 bd 10 ed 10 bf
       -0.5498299 -0.040002745 -0.04749278 -0.5661173
000390 4c fa 9a 3e 5f 3d ca 3d 0f 16 5e bf 6b 44 84 3e
       0.30269086 0.09874987 -0.8675241 0.2583345
0003a0 b7 b2 c2 3e af e9 66 3f 09 a7 9c 3e 55 46 01 3f
       0.38026974 0.9020032 0.30596188 0.50497943
0003b0 c8 88 73 3f 82 b5 7d 3f af 87 9a be ba 55 be be
       0.95130587 0.99105084 -0.30181643 -0.3717478
0003c0 c2 5a 26 be f8 95 94 be d0 ea 75 3e b6 ca 99 3e
       -0.16245559 -0.29020667 0.24015355 0.3003747
0003d0 00 00 00 00 25 d7 36 3f 02 ca 21 3f ab c8 a9 3f
       0.0 0.71422035 0.63198864 1.3264364
0003e0 12 51 09 3e b1 64 0d bf bc b2 74 3f 6e 78 01 40
       0.13409832 -0.5523177 0.95585227 2.0229754
0003f0 2e e5 01 bf 93 b3 8c be 80 64 ad 3e 11 1e c0 3e
       -0.50740325 -0.27480754 0.33865738 0.3752294

linear2_q1.weight f4 [256, 256]
000000 33 7f e5 be 40 a7 7a 3d c2 75 38 3f 84 75 94 3d
       -0.44823608 0.06119466 0.72054684 0.07248977
000010 03 46 11 3f 96 92 ab bf 71 6f 6c 3e 1c 57 cf bd
       0.56747454 -1.340411 0.23089387 -0.10124037
000020 72 a5 b0 bd cf 8d aa 3e 7d ce 0f 3f 9d b3 9f be
       -0.08625306 0.33311316 0.5617445 -0.31191722
000030 3f 2b bf be 7f 3c 09 3e 34 c0 fc 3d e8 06 a3 3d
       -0.37337682 0.13401984 0.12341347 0.07960302
000040 24 a7 69 be 9f 50 3a 3e 84 87 87 be 1a b8 23 be
       -0.22817665 0.18194817 -0.26470578 -0.15988198
000050 4c da 14 3d 3a ab a4 3c fb cf 3c be 60 15 23 3f
       0.036340997 0.020101178 -0.18438713 0.6370449
000060 a3 bd 59 bf 75 11 bf bc 93 ea 99 3d 74 50 9a 3e
       -0.8505499 -0.023323754 0.075154446 0.30139506
000070 c0 0c 5b 3e 03 96 9c bd 7d 22 b7 bc 66 0b 20 3f
       0.21391582 -0.076458 -0.022355312 0.6251739
000080 7e d5 2e 3e 96 bf c1 be ad 52 fa 3c 7c df 03 3d
       0.17073628 -0.3784148 0.030557001 0.032195553
000090 4f 08 c2 bd a5 ca d1 3d 29 b3 8c be 88 24 59 be
       -0.09474241 0.102437295 -0.27480438 -0.21205342
0000a0 8d 04 10 bc d3 32 f6 bc d1 65 0a 3f 4d 7a 46 bd
       -0.0087901475 -0.030053532 0.5406161 -0.04845648
0000b0 ec ab 79 3e bc 59 12 3e f5 f6 39 3f c1 71 91 3c
       0.24381989 0.14292043 0.7264245 0.017754437
0000c0 da 6b 59 bf 08 35 ae be 18 a0 5b be 13 b4 08 bf
       -0.84930193 -0.34024835 -0.2144779 -0.5339977
0000d0 f0 70 0a 3c e6 f3 38 be 12 54 06 be bf b6 97 bd
       0.008449778 -0.1806179 -0.13118008 -0.07407903
0000e0 2b da db 3d 92 0a 10 3d a2 81 18 be 38 c2 05 be
       0.107349716 0.03516633 -0.14893201 -0.1306237
0000f0 1f 2f 09 be 4a df 84 3e 3a a0 9d bf 70 6b 42 3e
       -0.13396882 0.25951606 -1.2314522 0.18986297
000100 5c b8 1c 3e 4e 5d bc bb fa e9 e4 be 85 a9 ab be
       0.15304703 -0.0057484275 -0.4470976 -0.3352777
000110 07 fe 24 3e a5 84 a6 be 88 49 36 3d 41 35 f7 be
       0.16112529 -0.32523075 0.04450372 -0.48282817
000120 b2 15 b8 3e 3b d4 24 be 44 fd 96 bd c7 b4 e2 3e
       0.35954052 -0.16096584 -0.07372525 0.44278547
000130 54 c9 15 3e 0f ce 5f 3f b4 05 e5 3d 3a dd d3 be
       0.14627582 0.87423795 0.111827284 -0.4137972
000140 b9 98 d1 bd 1a b1 e6 be 7d d4 97 3d c7 08 4f be
       -0.10234208 -0.45056993 0.07413576 -0.20218192
000150 01 15 32 be a9 c0 0d 3e 8c 91 77 bc 93 e9 2e be
       -0.17390825 0.13843025 -0.015110385 -0.17081289
000160 e8 a6 78 bd 09 e8 5b bd fe 47 53 bf a8 e6 90 be
       -0.06070605 -0.053688083 -0.82531726 -0.28300977
000170 fe 50 18 be 92 bc 39 3e d8 da 94 bd 4c d6 18 3e
       -0.14874646 0.1813834 -0.07268304 0.14925498
000180 c8 1a ad 3d 9b cb 7c 3e 66 c0 b5 3d 3b 13 0a 3f
       0.08452374 0.24687044 0.08874588 0.53935593
000190 e2 d3 98 3e 48 1d d1 bc 9d bf f0 bd 4a f9 a7 3d
       0.29849154 -0.025526658 -0.11755297 0.08201845
0001a0 82 80 b3 3d 42 ea 45 3e fb 1e 46 be db 5d 2e bd
       0.08764745 0.19327644 -0.19347756 -0.042569976
0001b0 a5 19 9d be 40 fc d5 bc 18 a7 fa be 3c 5b 2d be
       -0.30683628 -0.026121259 -0.48955607 -0.16929334
0001c0 f8 35 8f be a7 11 36 be cf fc 84 be f9 6b 82 be
       -0.27970862 -0.17780171 -0.25974128 -0.25473002
0001d0 23 ce 96 3d fa 08 8f bf e3 2c 71 bd ef 6f a7 bd
       0.07363536 -1.1174614 -0.058880698 -0.081756465
0001e0 fa 93 64 be cb 1b 2a 3e 5d 15 85 3d e4 07 81 bf
       -0.22322074 0.16612165 0.06498215 -1.0080533
0001f0 d9 56 8c 3c a0 21 04 bf cb 4e 02 bb a5 1e e5 3e
       0.017131256 -0.5161381 -0.001988339 0.44749942
000200 1a 00 f5 3d 7c f0 c5 bc 62 45 e6 3e 9b 50 27 3b
       0.1196291 -0.024162523 0.4497481 0.0025530222
000210 47 b3 92 3f b7 12 75 3e b5 57 8f 3e 88 c2 4b be
       1.1460961 0.2393292 0.27996603 -0.19898427
000220 20 d7 98 bd e6 ae cd 3d cd 8a 17 3d 96 21 2e 3e
       -0.07462907 0.10043125 0.036997605 0.17005
000230 43 c2 61 bf c1 ba 26 bf a4 94 1f be b3 16 50 3e
       -0.88187045 -0.65128714 -0.15584046 0.20321159
000240 e7 29 20 3f 97 7c f3 3d 11 03 05 bd a6 ee 9b 3d
       0.6256394 0.11888998 -0.032473627 0.07613878
000250 14 0f 69 bd a2 7d 53 bd 66 2c 2b 3e b2 0a 4a 3e
       -0.056899145 -0.051633485 0.16716155 0.19730642
000260 15 dc 63 3e 67 bb 43 3e a8 2e d1 be a2 f0 66 3d
       0.22251923 0.19114457 -0.40855908 0.05638183
000270 87 a0 70 bc 6a 7d db bc 5f 8f 81 3e ae 7d 45 3d
       -0.01468671 -0.0267932 0.25304696 0.04821556
000280 1a 96 f6 3e f7 60 f4 be 6d 20 f1 bd 61 c3 b6 be
       0.48161393 -0.47730228 -0.11773763 -0.35695937
000290 5c 50 09 3f 37 ca 72 be a8 99 49 be 54 da b9 3d
       0.53638244 -0.23709951 -0.19687521 0.09074846
0002a0 11 b0 b5 be a1 b7 32 3d c7 91 4c bc 7c 18 82 3e
       -0.3548589 0.043632153 -0.012485928 0.25409305
0002b0 6e 20 26 bf 8c a3 83 3e 6b 29 0c be 4f df 5b bf
       -0.64893234 0.25710714 -0.13687675 -0.85887617
0002c0 bc 88 bc 3e ac 45 6e be 98 cc 9f 3d 53 96 1e 3e
       0.3682307 -0.23268765 0.07802695 0.15487032
0002d0 53 1d 28 3e 38 3f f0 3d f3 66 e3 bc 0f bf a0 be
       0.16417436 0.11730808 -0.027759051 -0.31395766
0002e0 1e 41 8c be b0 51 08 3e 24 45 7c be a3 31 d1 bf
       -0.2739343 0.13312411 -0.2463575 -1.6343273
0002f0 bb ca 13 3e c2 7d 92 3d cc 49 22 3e c5 fe 29 3e
       0.14432804 0.07152893 0.15848464 0.16601093
000300 a6 95 03 be 23 b5 27 3d 5f 47 91 3d 19 ee 1e 3e
       -0.12850055 0.04094423 0.07093691 0.15520515
000310 bf d4 e6 bc 69 09 c0 3d a8 b2 27 bd 36 75 09 3f
       -0.028177617 0.09376795 -0.040941864 0.53694475
000320 ba 6e 66 3d 02 b6 df 3d db 05 af be 76 b9 d8 3e
       0.05625794 0.10923387 -0.34184155 0.42328995
000330 9e 8c ac be 6d b8 82 b8 fd 35 bb 3e 67 73 21 3e
       -0.33701032 -6.233235e-05 0.36564627 0.15766679
000340 5f 42 41 3e 64 2f 32 3e aa ff 81 bc 8b bd 65 bd
       0.18872975 0.1740089 -0.01586898 -0.056088965
000350 2c 5e 83 be 30 69 8f be 98 ac cf bc 20 5e 50 be
       -0.25657785 -0.2800994 -0.025350854 -0.20348406
000360 ad c9 90 3c 5b 6b 0c 3e 7c 0c 35 3f 8b 6a 62 bd
       0.017674292 0.13712828 0.70722175 -0.05527739
000370 7b d5 0f bb d0 87 bd 3b c5 ac cc 3e ca 51 f5 be
       -0.0021947313 0.0057840124 0.39975563 -0.47913963
000380 7e dc 74 bf db 20 5c 3d d3 77 93 be 20 1e c0 3e
       -0.95648944 0.05374227 -0.28802356 0.37522984
000390 48 fe 8a 3e 68 64 00 bf 39 fd de 3d 65 8a 4b bf
       0.27147126 -0.5015321 0.10888142 -0.7950805
0003a0 43 5d 01 3f 36 d9 ac be 2a fa ce bd d2 63 b7 be
       0.5053293 -0.3375947 -0.10106309 -0.35818344
0003b0 21 f5 25 3e 4e a9 24 bf 04 af 0e 3f b8 84 87 bd
       0.1620679 -0.6432084 0.557358 -0.06617111
0003c0 40 fa 91 be 0f dc 8e 3c 3c d4 f9 3e 14 45 e0 bd
       -0.28511238 0.017438916 0.48794734 -0.109506756
0003d0 a2 85 1f bd 28 b6 9d be 6e 7e 1c be 13 a1 90 be
       -0.0389458 -0.30803037 -0.15282604 -0.2824789
0003e0 8d a9 aa 3e 59 1c 8c 3d 00 a3 cb 3e 06 a6 05 3e
       0.33332482 0.068413444 0.39772797 0.13051614
0003f0 27 e3 c9 39 81 83 2d be c6 a1 4f 3e 73 b4 36 3d
       0.0003850695 -0.16944696 0.20276555 0.044605684

linear2_q1.bias f4 [256]
000000 e9 9f bf be 7b ec 84 bd cd 6e bc bf 71 da 66 3c
       -0.3742669 -0.064904176 -1.4721314 0.014090166
000010 bb a1 75 bf 66 b5 5f bf d4 e9 de 3f 26 96 ad bf
       -0.95949906 -0.8738617 1.7415109 -1.3561447
000020 d6 3c 14 bd 98 95 2c be bc bf 1f 3f ea ea 05 40
       -0.03619083 -0.1685394 0.6240194 2.092463
000030 43 70 df 3f e5 39 c6 bd cb 84 8e bc 5b 0f 77 3e
       1.7456135 -0.09679011 -0.017397305 0.24126951
000040 da 6a dd be de 34 14 bf b6 ac 07 3f 82 6d 01 bf
       -0.43245584 -0.5789317 0.5299791 -0.5055772
000050 04 65 7b 3f 77 c7 d3 3f ec c1 cb bc fe ec 21 bf
       0.9820101 1.6545247 -0.024872743 -0.63252246
000060 aa 57 8d 3e 43 37 de 3d 94 9d db 3f 76 dc b6 bc
       0.27605945 0.10850384 1.7157464 -0.02232192
000070 bc 7b 2f bf 58 97 79 bf dc 82 bc be bd 69 94 bd
       -0.6854818 -0.9749656 -0.36818588 -0.072467305
000080 b1 1a 71 bc aa dd 2c b9 4d 0a 6a 3d 95 92 8f 3f
       -0.014715836 -0.00016485775 0.05713873 1.1216608
000090 be dd 65 be 16 f7 a8 3e 19 4a 62 3d d2 86 03 bd
       -0.22447869 0.33001012 0.055246446 -0.032110997
0000a0 aa ec 6e bf 21 36 e3 bf 3e 6b e3 3f 72 cd 1e be
       -0.9332987 -1.7750894 1.7767103 -0.15508059
0000b0 4b 83 0c bd a8 ac 74 3f e4 5e ac bf be 28 b1 3e
       -0.0343049 0.9557595 -1.3466458 0.34601396
0000c0 9a 13 0c be 05 59 96 bf e8 ab 2a be f1 44 b6 3d
       -0.13679352 -1.1745917 -0.1666714 0.08899868
0000d0 ac 92 10 be 66 65 0a 3f 12 05 bc bf 51 81 0a bd
       -0.14118451 0.5406097 -1.4689047 -0.033814732
0000e0 bc 19 d6 be ba 0b 09 40 53 63 7a bc cf 1c 9a be
       -0.4181651 2.1413407 -0.01528247 -0.30100104
0000f0 36 51 3b 3f 06 d6 0b bd 8c f8 b8 3f a0 f6 c2 3d
       0.73170793 -0.034139656 1.445085 0.09519696
000100 13 7e 0e 3e 92 e2 e2 3c a8 d5 7e 3e 46 50 f8 bc
       0.13915281 0.027695928 0.24886191 -0.030311715
000110 ea 42 2f 3e e1 4f 86 3e 37 bf 95 bf 6a 7c 02 3f
       0.1711537 0.26232818 -1.1698979 0.5097109
000120 0f c9 86 3e fd c5 95 3e 52 83 ab bc 42 75 4c bf
       0.2632527 0.29252616 -0.020936642 -0.7986642
000130 22 19 eb bc 6e d2 69 3f a6 e1 b2 3f ce 00 a6 3e
       -0.028698508 0.91336715 1.3975112 0.3242249
000140 dd be d5 bf f2 3e 8b bf 60 ef dc 3d 91 96 70 3f
       -1.6698872 -1.0878584 0.10787845 0.93979746
000150 d8 b6 1a 3a 06 60 d8 bf f2 54 bf bd 2b ce 2b 3e
       0.00059018796 -1.6904304 -0.09342374 0.16777866
000160 14 ec 9d 3e 5f 3e 17 3f 3d b7 ee 3f 70 d1 dc 3e
       0.30844176 0.59079546 1.864967 0.43128538
000170 1f 1c 8b 3e 47 e0 69 be 7c cd fc 3e 36 a8 dc bf
       0.27169892 -0.22839461 0.49375522 -1.7238834
000180 89 81 15 3d 06 a1 80 bb 03 fc f2 3f 4d 92 fd 3f
       0.036500487 -0.0039254455 1.8983158 1.9810272
000190 24 b1 e1 3f 7b 5f 19 bd cf 46 8a 3f 3e ce 9e 3e
       1.7632184 -0.037444573 1.0802859 0.31016725
0001a0 55 07 cb bc 10 c8 f8 3e b5 31 1d bf a1 e4 88 3c
       -0.02478377 0.48590136 -0.6140397 0.016710581
0001b0 92 00 13 3e 33 97 8a bf 10 11 87 bc 7c ff fa 3f
       0.14355686 -1.0827392 -0.016487628 1.9609218
0001c0 c5 59 fe 3f 5b 12 f6 be ae bf 0d bd 3f 5d 14 bf
       1.9871145 -0.4806088 -0.034606628 -0.5795478
0001d0 6a d8 cc bd 91 5e 37 3d 78 d6 e3 3f 9a 65 12 3f
       -0.10002215 0.04476792 1.7799826 0.5718628
0001e0 91 2b c4 3d 00 18 c6 be 2e 5f c2 3f 6f 31 83 3e
       0.09578622 -0.38690186 1.5185297 0.25623652
0001f0 e7 f6 9b bc b5 75 88 3c e1 67 04 3f ef f4 f1 bc
       -0.01903863 0.01665769 0.51721007 -0.029535739
000200 17 04 e3 3e f7 c8 dd bc 5c 98 e4 3f aa 75 f3 bc
       0.44339058 -0.027073367 1.7858996 -0.029719193
000210 af 8a e5 be 86 f5 65 3e 2d f6 c2 bf 89 ce 15 bd
       -0.4483237 0.22456941 -1.5231377 -0.03657392
000220 8b 20 ea bc 54 2c c3 bc dd 42 38 bc 48 41 13 be
       -0.02857997 -0.023824848 -0.01124641 -0.14380372
000230 34 43 99 bf 30 0d 54 3f d2 92 9b bf a6 33 b6 bf
       -1.1973634 0.8283262 -1.2154181 -1.4234512
000240 97 de 22 be 6c 3a c1 bc 35 74 1f 3f f0 d9 a7 3e
       -0.15905224 -0.023587428 0.6228669 0.3278346
000250 da 2c b1 3e 62 d8 16 3d 4e fd 3e bd cc ab a0 3f
       0.34604532 0.036827452 -0.04662829 1.2552428
000260 81 30 e2 bc dc c2 48 3d fb 83 83 3e b6 9e c5 3e
       -0.02761102 0.049013957 0.2568663 0.3859765
000270 28 72 80 3d af c1 56 be 9a 57 e8 be 55 cd 90 be
       0.062717736 -0.20972322 -0.45379335 -0.28281656
000280 03 f8 25 bd 0b 27 8a 3f ee 1e 43 3f 5b bb 88 be
       -0.040519726 1.0793165 0.7621907 -0.2670544
000290 c6 d1 ac 3f 24 c0 cd 3f 64 93 e4 3f ff df c3 bc
       1.3501518 1.6074262 1.785748 -0.02391052
0002a0 f3 ab d4 bc 4f 01 c0 3f f5 5e c1 3d 98 1f a8 3e
       -0.025960898 1.5000399 0.0944194 0.32836604
0002b0 22 f4 08 40 c9 92 0a be 79 d7 0f bd ff 3c c2 3d
       2.1399007 -0.13532557 -0.0351176 0.0948429
0002c0 99 9b 19 3f f4 1b 0f bd ac 11 a7 bf ce 2f 8a 3e
       0.6000305 -0.034938768 -1.3052268 0.26989597
0002d0 76 85 e6 3f af 66 fb bc 99 b1 ae 3e 60 b4 0b 3e
       1.8009479 -0.030688612 0.3411987 0.13643026
0002e0 59 b8 d0 bc d3 44 74 bf cf 52 71 3e 88 d2 04 3e
       -0.025478529 -0.9541752 0.23566745 0.12970936
0002f0 b7 70 b4 3d ea e8 6b 3e 42 5e 84 be 0c 4a 0d 40
       0.08810561 0.23038068 -0.25853163 2.2076445
000300 8c f7 d8 3d 95 97 e5 bf c6 38 9c be 17 ba 97 bc
       0.10594091 -1.7936884 -0.30512065 -0.018521352
000310 fe cc 00 bd b0 c0 92 3e e7 c7 f2 3f 21 49 6f 3f
       -0.031445496 0.28662634 1.8967255 0.9347096
000320 eb 0d 0d bf d7 72 95 bc fd af ba bf 9e f8 6a 3f
       -0.5509936 -0.018243236 -1.4584957 0.9178561
000330 56 46 cc bc b9 43 d6 bc 7a ed e4 3f 2f 46 c7 bf
       -0.024935883 -0.02615534 1.7884972 -1.5568293
000340 4a 08 60 3f d4 8c 08 bf 27 d8 02 be 1c 65 cc bf
       0.8751265 -0.53339887 -0.12777768 -1.5968356
000350 a3 29 93 bf 99 3e e4 3e 07 ab e9 bc bd 19 12 3d
       -1.1497082 0.44579008 -0.028523935 0.035669077
000360 10 98 c7 3f cf cb a2 bf 8a 6c d3 bf 67 73 dd 3f
       1.5593281 -1.2718447 -1.6517498 1.7300843
000370 82 47 71 bc 74 c6 fd 3d f2 fd 26 3e a4 1b 70 3e
       -0.014726521 0.123913676 0.1630781 0.23448044
000380 99 d8 cd bf 9f 15 23 3e 75 1b c4 3c ba 8b 6d 3e
       -1.6081725 0.15926217 0.023938874 0.23197833
000390 00 e2 55 be 49 24 98 3e 79 fa aa 3c 37 f7 09 bf
       -0.20886993 0.29715183 0.020871388 -0.53892845
0003a0 92 4a c4 3f e6 da 20 bd 2c da df bf ce 9e 71 bf
       1.5335257 -0.039271258 -1.7488456 -0.9438294
0003b0 d5 0a d0 3e 5d b7 af bf 18 59 84 3d 34 42 ce bc
       0.40633264 -1.3727833 0.06462306 -0.025178052
0003c0 f8 3a 92 bd ff 45 79 3e de 7c 06 40 12 7f d8 3f
       -0.07140154 0.24343108 2.1013713 1.6913779
0003d0 b5 e9 49 3e b6 8d 6b bf 1f ed e0 bf 9c 0a 81 3e
       0.19718058 -0.9201311 -1.7572364 0.25203407
0003e0 b2 c8 b9 3d e2 5c 90 bc 9d 8b fe bc b4 f0 8a 3f
       0.09071483 -0.017622415 -0.031072432 1.0854707
0003f0 6b 88 4c bd 8a e2 b8 bc e2 a7 bd 3f ee c5 62 3e
       -0.049934786 -0.02256896 1.4816859 0.22145817

linear3_q1.weight f4 [1, 256]
000000 70 49 db bf 42 bb f7 c0 74 9c ee be b0 0d 26 3e
       -1.7131786 -7.7416086 -0.4660374 0.16216159
000010 0e 4b 15 c0 14 3c 9a bf 88 a6 09 3f 8b 68 4b bf
       -2.332706 -1.2049584 0.5376973 -0.79456395
000020 bf ae b9 bd fa ce a1 c0 ab 80 fe 3f 79 b1 57 3f
       -0.09066533 -5.0565157 1.9883016 0.84255177
000030 bf b2 2b 3f b4 e7 92 c0 18 e4 f6 3d eb 74 0d 40
       0.6706962 -4.590784 0.12055224 2.210261
000040 13 5a 3d c0 09 10 6f c0 77 a4 20 40 04 1e c4 bf
       -2.9586227 -3.7353537 2.5100381 -1.532166
000050 90 a3 04 40 f1 26 21 3f a6 7d 39 b9 da 6b 30 c0
       2.072483 0.62950045 -0.00017689783 -2.7565827
000060 f6 ef 97 40 d6 54 05 c1 b6 cc 31 3f b5 9f 75 3d
       4.748042 -8.333212 0.6945299 0.05996676
000070 0b 33 01 c0 7f 39 7d bf 64 7f 15 c0 b0 cd bf bf
       -2.0187404 -0.9891586 -2.3359003 -1.4984646
000080 ef 95 6a 3d 7c b9 04 c1 b8 2c 01 40 24 a1 bb 3f
       0.057271894 -8.295284 2.0183544 1.4658551
000090 d8 f1 a7 c0 97 78 79 40 e4 e8 ee c0 fd fa 76 c0
       -5.248272 3.8979852 -7.465929 -3.859069
0000a0 fa 2f 35 bf 95 d2 dd be e6 d5 04 3e 3f 25 48 c0
       -0.7077633 -0.43324724 0.12972221 -3.1272733
0000b0 f7 6b c9 c0 0d c9 31 40 18 87 b5 bf be 54 7d 40
       -6.2944293 2.7778962 -1.4181852 3.9582973
0000c0 10 0e 8d c0 dc 1f 34 bf 19 85 95 c0 01 b5 23 c1
       -4.4079666 -0.70361114 -4.6724973 -10.23169
0000d0 a8 74 ce c0 be 04 35 40 b4 94 27 bf 74 8a 8a bd
       -6.4517403 2.8284144 -0.6546128 -0.06764689
0000e0 6a e2 6a c0 13 3b f8 3e 41 73 a0 3c 72 f0 90 c0
       -3.6700692 0.4848257 0.019586207 -4.529351
0000f0 ca 9d 00 40 e2 7c d4 bd 8b 79 33 3f d8 24 19 c1
       2.0096307 -0.10375382 0.70107335 -9.571495
000100 1a 03 04 c1 39 f8 6c 40 ec 40 81 40 5a 5d e3 3d
       -8.250757 3.7026503 4.039175 0.1110179
000110 84 24 75 40 ec 40 c7 3f 7c 6f c9 bf 77 ac 90 3f
       3.8303537 1.5566688 -1.5737147 1.1302632
000120 7e e7 2d 40 15 4a 83 40 e8 21 1e 3d 25 fb b5 bf
       2.7172542 4.102793 0.038606554 -1.4217268
000130 4a a1 d0 bc aa 23 a7 3f f5 ce 63 3f 01 ae 6d 40
       -0.025467534 1.3057759 0.88987666 3.7137454
000140 c8 82 26 bf 6e 06 9d bf 74 64 51 40 9b 7a da 3f
       -0.65043306 -1.2267587 3.2717562 1.7068666
000150 d9 fa ce c0 7d 71 fb be 15 f5 12 c0 2a a0 a7 40
       -6.468121 -0.49110022 -2.2962086 5.2383013
000160 39 94 91 40 51 bc 1b 40 1d 2d 1a 3f 4b fb 82 40
       4.5493436 2.433369 0.6022509 4.0931754
000170 e5 2d 88 40 80 66 41 c0 df 2b bd 3f d7 4e 19 bf
       4.2556024 -3.021881 1.4779013 -0.59885925
000180 2b fa 69 40 6d e0 df c0 ec ce 74 3f 7a 2c 04 3f
       3.655894 -6.9961457 0.9562824 0.51630366
000190 16 78 0a 3e 2b 5e 4b 3c 5f a0 a1 3f 31 18 8c 40
       0.13522372 0.012412588 1.2627066 4.377953
0001a0 03 2a db bd 1e 1b 69 40 d9 fb ed bf 9b 68 fe 3f
       -0.107013725 3.64228 -1.8592483 1.9875673
0001b0 ae f1 70 40 85 cd a6 bf 6d f6 99 bc 98 ca 0d 3f
       3.764751 -1.303147 -0.018794263 0.5538726
0001c0 0e 0b 25 3f 45 02 d6 bf a1 6c a8 3c d1 8a f9 bf
       0.64469993 -1.6719443 0.02055961 -1.9495488
0001d0 e6 13 cf c0 1a 3c c0 3f 0b 3e f9 3e 71 13 37 40
       -6.471179 1.5018342 0.48680148 2.8605616
0001e0 21 e2 51 40 00 0e 5c c0 c7 32 13 3f f6 d7 1c c1
       3.2794268 -3.4383545 0.57499355 -9.802725
0001f0 75 35 d1 bb 80 3c 6a 40 cc aa 84 40 0d 23 53 3d
       -0.0063845464 3.6599426 4.145849 0.0515471
000200 d6 88 af 40 5c 62 43 bb 37 a3 45 3e fd 74 52 3d
       5.4854536 -0.0029813265 0.19300543 0.0513811
000210 4b 37 56 c0 44 34 6d 40 40 35 d4 be 72 bb b6 bd
       -3.3471248 3.706315 -0.41446877 -0.08922471
000220 da ca ad 3d d9 52 da bd f8 89 64 c0 b9 ef 57 c0
       0.084859565 -0.10660333 -3.570921 -3.3740065
000230 34 c6 44 bf 9f c6 e6 3f 02 0e 21 bf f2 34 20 bf
       -0.76864934 1.8029364 -0.62912 -0.6258079
000240 86 56 b9 c0 64 17 6e 40 39 5b 7b 40 1b d8 8a c1
       -5.791812 3.7201777 3.9274428 -17.35552
000250 68 92 9a 40 04 c0 86 c0 1b 95 9f bc 9a 90 61 3f
       4.830372 -4.2109394 -0.019480279 0.8811127
000260 57 56 45 bd 32 fa 38 40 8e e9 85 40 23 d0 6f 40
       -0.048178043 2.8902707 4.18476 3.7470787
000270 8d 78 07 c1 e3 c6 6f c0 51 33 07 c0 92 99 32 c0
       -8.466931 -3.746514 -2.112507 -2.7906232
000280 f9 9a bf c0 f7 37 df 3f 93 fc 15 40 3b a3 de bf
       -5.9876676 1.7438954 2.343541 -1.7393564
000290 5f 34 69 3f 33 ae 1e 3f 3f 54 e8 3e 3f a9 19 3c
       0.91095537 0.61984557 0.45376775 0.00937873
0002a0 c0 30 c9 bd 5f aa 35 3f 5e 51 c4 3f e9 c4 54 40
       -0.098237514 0.7096309 1.5337331 3.3245184
0002b0 a6 f3 01 3f f5 b7 c3 c0 79 9c b8 bd 20 a0 72 40
       0.50762403 -6.1162057 -0.0901422 3.7910233
0002c0 f3 2a b5 3f e3 bd e6 3d b0 09 80 bf a7 a1 41 40
       1.4153732 0.11266687 -1.0002956 3.0254915
0002d0 54 a3 19 3f e5 98 d4 3d 0c 35 92 40 3c b1 7b c1
       0.60014844 0.10380725 4.5689754 -15.73077
0002e0 6a 2d 50 bb d1 1d 1e c0 ed b8 b7 c0 fe c7 82 40
       -0.003176535 -2.4705698 -5.741324 4.086913
0002f0 84 7f cc c0 08 9c 87 40 a7 46 40 c0 e0 45 11 3f
       -6.390566 4.237797 -3.0043123 0.56747246
000300 82 a5 84 c0 13 6c 28 bf 1c bc 6d c0 5b 2f 8a 3d
       -4.1452036 -0.6578991 -3.7146063 0.067473136
000310 c8 b9 fc 3b ca 15 18 c1 57 41 12 3f 77 60 e9 3f
       0.0077125765 -9.50532 0.5713095 1.8232564
000320 f4 55 16 c0 b7 39 01 be b4 04 6a bf 06 27 8a 3f
       -2.3489962 -0.12619673 -0.91413426 1.0793159
000330 7d 71 d5 3b 72 aa a8 40 6f 70 24 3f c1 10 43 bf
       0.006513773 5.2708063 0.6423406 -0.7619744
000340 81 22 9f 3f f1 ec c0 bf cb 1e 94 c0 ac 87 e0 be
       1.2432405 -1.5072309 -4.628759 -0.4385351
000350 bb 41 63 bf f7 0a 71 40 f8 a1 9f 3d dc 65 7e 40
       -0.8877217 3.7662942 0.07794565 3.974967
000360 19 a9 9c 3f 9d 62 9c bf ca 8f 1a bf 59 c1 1a 3f
       1.2239105 -1.2217594 -0.60375655 0.60451275
000370 43 2a 90 3c d0 2a 4b 40 f3 10 33 40 98 17 4f c1
       0.017598277 3.174488 2.7979095 -12.94326
000380 5b 38 4b bf 79 21 4a 40 85 97 5a c0 59 7d 85 40
       -0.79382867 3.158293 -3.415498 4.171551
000390 05 28 7a c0 c5 02 48 40 ac d6 95 40 dc 56 04 c0
       -3.9086926 3.125169 4.682455 -2.0678015
0003a0 b4 fd 20 3f 1d ce c0 bc 7e 73 1f bf 62 85 21 c0
       0.6288712 -0.023535782 -0.622856 -2.523766
0003b0 01 83 90 40 63 6a 50 bf 26 8e 9d c0 41 af a1 bd
       4.5159917 -0.81412333 -4.923602 -0.07894755
0003c0 bd f0 29 c0 73 d7 5a 40 2e 5a 1b 3f 07 cd 11 3f
       -2.6553185 3.4194 0.6068448 0.5695347
0003d0 c3 cf 72 40 ac 07 8c bf fe b7 10 bf af fe 72 c1
       3.7939308 -1.0939841 -0.5653075 -15.187179
0003e0 eb c3 23 c1 f9 ac 37 3d 83 5e 45 c0 87 03 b6 3f
       -10.235332 0.044842694 -3.0838935 1.4219826
0003f0 9f f3 ea c0 70 96 92 bd 43 75 1e 3f 39 24 8e 40
       -7.342239 -0.071576 0.6189768 4.4419217

linear1_q2.weight f4 [256, 26]
000000 f5 9a 18 3e 61 aa 09 3f 7f c8 67 3e d4 4c 15 3d
       0.14902861 0.537756 0.22635077 0.036450222
000010 27 b8 c9 be 44 24 ee be fe 5d a7 3e 62 6b 61 3e
       -0.3939831 -0.46512043 0.32688898 0.2201362
000020 20 b6 be 3e 2d 96 4f 3d 1f 7d f1 bd 80 39 9b be
       0.37248325 0.05068033 -0.11791443 -0.30317307
000030 7f 7d 7b be 6a 3b 68 be 9c e0 f1 be 42 25 4c be
       -0.24559592 -0.22678915 -0.47241676 -0.19936088
000040 94 98 fe 3c c4 c0 44 3e 82 38 e8 be 63 f5 b6 be
       0.031078614 0.19214159 -0.45355612 -0.3573409
000050 60 4a 22 3e 17 8a 73 bd ca 0a 96 bf 13 bd 18 bf
       0.15848684 -0.059457865 -1.1722043 -0.59663504
000060 21 bf bc 3e f3 e1 f7 be 81 4b 98 3e 62 23 24 3f
       0.3686457 -0.48414573 0.29745105 0.6411649
000070 2a c0 e7 3e 20 fd 59 3e e9 b6 1f bd e9 c9 1a 3d
       0.45263797 0.21287966 -0.038992796 0.037790213
000080 ee db b4 bb 1b c2 e5 be 47 95 f9 be d9 16 29 bf
       -0.0055193817 -0.44874653 -0.48746702 -0.6605049
000090 27 31 ec be 4f 63 4c be a0 27 04 be 1f 90 0f be
       -0.4613125 -0.19959758 -0.1290574 -0.14019822
0000a0 e5 6b 06 3e 5a 31 77 bd 95 45 3b be 2e 7c aa bd
       0.13127096 -0.0603498 -0.18288262 -0.08324467
0000b0 d0 22 e5 bd ba b1 01 3e 9f 76 4e be 27 aa 18 bf
       -0.111882806 0.12665454 -0.20162438 -0.5963463
0000c0 e6 c1 82 3f 09 77 4f be 62 b7 2f 3f b0 f9 c3 3e
       1.0215423 -0.20260252 0.68639195 0.38276434
0000d0 35 f8 c5 3d 07 ad 35 3e 0e 12 a3 bd 2d 42 ac 3d
       0.09666482 0.17741786 -0.07962428 0.084110595
0000e0 de 2c 1e 3d 8b 65 ee bd 07 76 0d 3e 58 0b 59 3d
       0.038617007 -0.116404615 0.13814555 0.052989334
0000f0 c7 9b 13 be ca 67 cd bd cb 0c b0 3d 98 1f 1d 3e
       -0.14414893 -0.10029562 0.0859619 0.15344083
000100 9f 5d bf 3d cd e3 11 3e db 39 21 3d d1 9c ba bd
       0.09344029 0.14247055 0.039361816 -0.091119416
000110 e7 7e 5c 3c b5 5f 3b 3d af d0 1a 3d 2f 0b 93 bb
       0.01345799 0.04574557 0.037796672 -0.004487417
000120 25 d6 14 be d5 9f c5 3c a4 7f 43 3f a0 95 95 bf
       -0.14534815 0.024124065 0.7636664 -1.1686287
000130 9c 4b 65 3c d7 d9 2e bd f5 f1 6d 3e a2 b9 87 3d
       0.013995077 -0.042688217 0.2323683 0.066272035
000140 7f 8b 5e bd ff f0 6d 3e fa db 18 bc 3d ec 93 bc
       -0.054332253 0.23236464 -0.00932979 -0.018056983
000150 bb 92 f4 3d 40 79 7e bd 7e 1f b7 3e f5 23 dc 3d
       0.11942049 -0.06212735 0.35766214 0.10749046
000160 12 79 40 3d 84 e7 1b 3e 9f 77 da bd ee 82 1e 3e
       0.04699046 0.15225035 -0.10667347 0.15479633
000170 5a e4 b6 be d5 53 80 be 53 47 5c be 76 9b 7a be
       -0.35721093 -0.2506396 -0.21511583 -0.24473366
000180 f7 52 5d 3d c7 0c d5 bd df 9d 6c bf ea 46 04 40
       0.0540342 -0.10402828 -0.9242839 2.0668283
000190 63 cd 6d bd 42 83 67 c0 e9 6f 44 3f 2c 61 78 bf
       -0.0580572 -3.6173863 0.7673326 -0.9702327
0001a0 73 af ea be 60 09 56 be df ef c8 be 4b 51 6c bd
       -0.45836982 -0.20902014 -0.39245507 -0.057694715
0001b0 24 b0 0f bc 5b 5f 29 3e f5 09 e0 bc 25 5c 8b bc
       -0.008770023 0.16540281 -0.027348498 -0.017011711
0001c0 2e 7e 3f 3d d0 9d 10 bf bc 9d 3c be 2d e0 1e 3e
       0.046751194 -0.564908 -0.18419546 0.15515204
0001d0 2d 03 d2 3e 6e 05 09 be 01 ba 6a 3d c9 e9 a5 3e
       0.41018048 -0.13380978 0.057306293 0.32404926
0001e0 3b 62 a0 3e 48 99 ae 3d a6 04 6e 3d 07 e0 a0 3d
       0.31324944 0.0852533 0.0581099 0.0785523
0001f0 c0 aa 2d bf 83 fd 91 3f c1 57 2a 3f a4 be 11 3f
       -0.6783867 1.1405491 0.6654015 0.5693152
000200 d0 4e 2c 3e 63 20 c2 3e 02 91 b2 bd 96 3d 66 be
       0.1682694 0.37915334 -0.08719064 -0.2248443
000210 f9 97 50 be fb bc 29 bd 81 7c 5f 3e 41 37 67 3c
       -0.20370473 -0.04143999 0.21824838 0.014112295
000220 c5 93 0f be 71 c5 0f 3e eb 41 f2 3d f0 87 13 3e
       -0.14021213 0.14040162 0.11828979 0.14407325
000230 5b 8f 19 bd 52 51 0b be 98 db 9b bd ca b2 b0 3e
       -0.03749023 -0.1360524 -0.076102436 0.34511405
000240 8f cc 63 3e 0a b4 25 be 81 aa e3 bd 7d 62 0e bd
       0.22246002 -0.1618196 -0.111165054 -0.034761894
000250 fd 2d ae 3b 5d c4 a1 3d 2d e0 ae be 16 db d2 bf
       0.005315541 0.078987814 -0.34155408 -1.647311
000260 57 6f 99 be 5c 54 2d 40 5f b7 09 bf 0d a5 3f bf
       -0.29967758 2.708274 -0.5379543 -0.7486122
000270 92 36 a3 3e 5f e9 70 bd 85 2f 04 be 0c ea 4c be
       0.3187757 -0.05881631 -0.12908752 -0.20011157
000280 3c 11 43 be 8a 5c b7 be ef 70 7e 3e 69 f6 c2 3e
       -0.19049543 -0.3581279 0.24847768 0.3807862
000290 19 e3 e5 bd 90 ff dc 3d 17 87 0b 3e 89 39 14 be
       -0.11224956 0.10790932 0.13625751 -0.14475073
0002a0 6f 3e 76 be d9 4d c2 3d 98 5e 08 3f b3 e4 9d bd
       -0.24047254 0.094875045 0.5326934 -0.077096365
0002b0 60 a5 79 be 3b 67 80 bd 0f 91 98 3d 2e 7f 81 3e
       -0.24379492 -0.0626969 0.07449543 0.25292343
0002c0 3e 3a a5 3f d4 29 44 3e dc 52 9d bf 76 15 1c c0
       1.2908399 0.19156581 -1.2290912 -2.4388099
0002d0 99 60 09 3f e8 53 05 3d 8c e9 49 3c 73 99 e7 3c
       0.5366302 0.032550722 0.012323748 0.028271412
0002e0 a5 d4 f6 3c d8 94 0d bc 24 a0 14 3c c1 1d 6b 3d
       0.030130694 -0.008641444 0.009071384 0.057401422
0002f0 c7 a2 4d bd d9 2d 99 3d 70 14 4f 3e 51 2c bb 3d
       -0.050204065 0.07479448 0.2022264 0.09139312
000300 02 cf d7 3d 28 17 9e 3d 09 fa 81 bd d0 91 ad 3d
       0.105375305 0.077192605 -0.063465185 0.08475077
000310 c5 6c a3 3d 3a 25 c4 bc 56 89 db bc 17 d8 1a be
       0.079797305 -0.023943532 -0.026798885 -0.15121494
000320 dd 15 cb bc 98 52 13 3b cb c5 c3 bc 2b a5 d0 ba
       -0.024790699 0.002247965 -0.023898026 -0.0015918365
000330 ca bd 3f be cc 52 8d bf d8 5b 99 3d f9 92 b5 bb
       -0.18724743 -1.1040893 0.07488221 -0.005541202
000340 d6 02 82 3e fc c9 9b 3e 8c 14 1b 3e c8 19 3e 3e
       0.2539279 0.3042754 0.15144557 0.18564522
000350 e3 cf 02 be f1 94 4f 3e 05 72 8e be 8b 74 03 bf
       -0.12774615 0.2027166 -0.27821365 -0.51349705
000360 35 f7 01 3d bd 68 13 3e ce 61 64 bb c8 54 02 be
       0.031729896 0.14395423 -0.0034848335 -0.12727654
000370 7a e2 85 bd 3c 6d 5f 3d a5 0a 24 3e be 66 82 3e
       -0.065373376 0.054547533 0.16019686 0.2546901
000380 0c 55 5b bd 18 a5 23 3d 4c fc be bd e8 9c 5d be
       -0.053547904 0.039952368 -0.093254656 -0.21641886
000390 19 c9 d9 3c 77 cb d5 be 98 c6 33 bf 0b e5 4d c0
       0.026585149 -0.41756794 -0.70224905 -3.2171047
0003a0 98 f5 5e 3e 44 fb 29 3f 47 bd 1b be 39 e0 34 bf
       0.21773374 0.66399026 -0.15208922 -0.70654637
0003b0 01 64 85 be a4 c1 79 3e d1 f2 1a 3e f8 3e e4 bd
       -0.2605286 0.24390274 0.1513169 -0.11144823
0003c0 02 88 67 bd 86 57 2a be c8 b9 cb be 16 02 d0 be
       -0.05652619 -0.1663495 -0.39790177 -0.4062659
0003d0 0d 20 d4 bb 98 bf 69 3e 6a 9c a6 3e f5 55 31 3e
       -0.0064735473 0.22826993 0.3254121 0.17317946
0003e0 3f 2e 70 bd cb 58 57 3e 5d e4 dc 3e b7 21 d4 38
       -0.058637854 0.21029966 0.43142977 0.000101152276
0003f0 f8 40 2a be fe 7d 30 3e ab f8 47 3f 52 3e 04 40
       -0.16626346 0.17235562 0.7811381 2.0663037

linear1_q2.bias f4 [256]
000000 39 aa 9c 3e a7 77 73 3e d2 76 01 40 fc 7f 6d 3e
       0.3059862 0.23776112 2.0228772 0.23193353
000010 3e bb 2b be e8 00 da be 71 05 6e 3f 23 98 f9 3f
       -0.16770646 -0.42578816 0.9297705 1.9499553
000020 0f e7 26 3f 23 e7 b9 bd b2 4d 1c 3e cb 3e d0 3f
       0.6519632 -0.09077289 0.15264013 1.6269163
000030 fe db 7c bd a0 c8 53 be d0 af 78 bf 31 fe a8 be
       -0.06173324 -0.20682001 -0.9714327 -0.33006433
000040 1a aa 74 be df e3 f9 3d 8c 8e f9 3d c4 fa 88 3e
       -0.23893014 0.12201666 0.12185392 0.2675382
000050 da 5e e0 be bc 71 cd 3e 2e f6 10 3d cd 2e 04 3f
       -0.43822366 0.40125835 0.035391025 0.5163391
000060 cc af 9c be f8 21 9c bc 26 ad af bf e1 b1 a8 3e
       -0.30602872 -0.019059166 -1.3724716 0.3294821
000070 0b 97 80 3f 1e 46 5c bf d3 ff 78 3d c4 54 65 3e
       1.0046095 -0.8604449 0.060790848 0.22395617
000080 cc 83 58 bd f7 f7 24 bf e5 74 7f 3f 6c 6a 3d 3f
       -0.052860066 -0.64440864 0.9978774 0.7399051
000090 e9 2d b0 3e f2 c6 15 3f 17 62 28 3f 9e 49 e8 3f
       0.34410027 0.5850669 0.65774673 1.8147466
0000a0 b8 3c 9d 3f c7 c5 f0 be 20 5a 23 3f c3 1c 06 3f
       1.2284155 -0.47025892 0.63809395 0.52387637
0000b0 c7 42 84 bf 6e b0 9a 3e 95 31 35 bf 8e a7 15 bf
       -1.0332879 0.3021273 -0.7077878 -0.58458793
0000c0 ab 81 90 3f c8 50 2d bf 7d 95 e0 bb 21 0f 25 3e
       1.1289572 -0.6770139 -0.006853758 0.16119052
0000d0 a7 75 b7 3d eb a6 03 bf 7e e2 31 3e 5d bf 13 bf
       0.08957987 -0.5142657 0.17371556 -0.5771387
0000e0 2c a1 53 3f f2 9a 56 3f 50 82 6a be 72 1e 1c bc
       0.82667804 0.8383018 -0.22901273 -0.009528743
0000f0 f6 0c cd 3d 1d de 2d 3e 3f 77 54 3d 66 8b a8 be
       0.10012238 0.1697926 0.051871534 -0.32918853
000100 33 64 7d 3e 90 7a 39 3e 7d e2 80 3f a1 9f 16 3e
       0.24745254 0.1811316 1.0069119 0.14709331
000110 4c 94 c4 be a4 d7 ce be 15 41 1e 3e 2d 8a 7c bf
       -0.38394392 -0.40398896 0.15454514 -0.9864834
000120 35 35 99 be 2a a1 37 3f 3b 72 8e 3f dd 3d 55 be
       -0.29923406 0.7173029 1.112861 -0.2082438
000130 21 e9 f7 3e 1b 93 70 bd 70 41 54 3e 93 1c c1 3e
       0.4842005 -0.05873404 0.20728087 0.37717113
000140 b6 70 c3 3f c4 84 c4 3e 70 11 eb be 15 05 07 40
       1.5268772 0.38382542 -0.4591174 2.1096852
000150 20 69 24 bf 48 9e 10 be e1 92 01 3f 32 2f 6a 3e
       -0.6422291 -0.1412288 0.50614744 0.22869566
000160 45 3a 50 bc b2 51 ef bd cc 13 9e be 8e 40 9c 3e
       -0.012709205 -0.11685504 -0.3087448 0.30518
000170 60 bb ad 3e 6e 74 42 bf b7 b5 4f bf bb 46 2e 3e
       0.33932018 -0.7595891 -0.8113665 0.17019169
000180 85 05 64 3e 56 95 c0 be f4 bc ba 3f d1 f2 8a 3e
       0.2226773 -0.37613934 1.4588914 0.2713838
000190 66 48 58 bc b7 8a b3 3f b6 57 a5 3d 98 6a 2d 3f
       -0.013200855 1.4026707 0.0807337 0.67740774
0001a0 5e de 41 bf 98 e9 dd be 22 3b c4 bc 7e d6 81 3e
       -0.7572993 -0.4334228 -0.023953978 0.25358957
0001b0 97 b4 f0 be 94 24 0f bf b9 db d5 3f dc eb d8 bc
       -0.4701278 -0.5591519 1.6707679 -0.026479654
0001c0 42 e3 28 3d eb a0 e6 3d 31 ac 1f bf 78 60 73 3f
       0.041232355 0.112611614 -0.6237212 0.95069075
0001d0 f8 05 92 3f 3f 6c 8a be a8 a3 00 3e a8 93 a0 3e
       1.1408072 -0.2703571 0.1256243 0.31362653
0001e0 ea 1d 06 bd e2 2d 7c 3f 97 69 e5 3e 92 2a da 3e
       -0.032743372 0.9850751 0.4480712 0.42610604
0001f0 9c 43 5f 3d 6a 13 ef 3b fa 78 09 bc 84 41 2c 3f
       0.054507837 0.0072960155 -0.0083906595 0.6728747
000200 73 44 b7 bd 75 c2 7c 3f 0c da a0 be b6 31 a0 bd
       -0.089486025 0.9873422 -0.31416357 -0.078219816
000210 83 24 a5 3d 39 0d 84 bd fa df ec be f5 4f 99 be
       0.08063605 -0.064478345 -0.4626463 -0.29943815
000220 3b fc 05 3f 14 bf 83 3f 2f 08 db 3c 23 ad 17 bd
       0.52338 1.0292687 0.0267373 -0.03703035
000230 eb 8f 40 be 3f 5f 34 3f 06 4c f3 be 26 b8 c1 bc
       -0.188049 0.70457834 -0.4751894 -0.02364738
000240 e1 63 4a bd bd 0f 81 3f 26 a5 60 bf 34 b7 9f 3a
       -0.04941166 1.0082928 -0.87751997 0.0012185336
000250 e5 0d 6d 3f 95 df e2 3e 2a 1e f7 3e 3d 95 2e bd
       0.92599326 0.44311205 0.482652 -0.042622793
000260 69 b8 64 3e d3 2c 1a be 59 2c d7 3d cd 5e 15 3e
       0.22335972 -0.15056162 0.105065055 0.14586945
000270 10 1b 84 3f ac 6f 82 3e ec 93 ab be 98 57 85 3f
       1.0320759 0.25475824 -0.33511293 1.0417356
000280 eb 2d 33 3f a5 3b 36 3f b9 90 23 3f 37 fc aa 3e
       0.6999194 0.7118476 0.63892704 0.3339555
000290 4c d9 65 3d 33 44 39 be ac cc a2 bd 69 08 8e be
       0.056115434 -0.18092422 -0.07949194 -0.2774079
0002a0 f3 9e 64 3e 8a 84 ac 3e 54 80 4b be e5 0c 46 be
       0.2232626 0.3369487 -0.19873172 -0.19340856
0002b0 22 09 b1 3f ba 90 98 3f 0f 2b 91 be d6 6c c4 3d
       1.3830912 1.1919167 -0.28353164 0.09591071
0002c0 0a 6c f4 be 14 57 bd 3d ec 5f 58 3c ce a9 ca be
       -0.47738677 0.092451245 0.013206463 -0.39582676
0002d0 d9 f6 f0 3e e7 33 24 3d 03 2a 4a be 52 75 57 bf
       0.4706333 0.04008856 -0.19742589 -0.8416339
0002e0 65 e8 17 3c 1e 6a ad 3e a1 c5 32 3f 19 62 80 3d
       0.009271716 0.33870023 0.6983281 0.06268711
0002f0 e7 eb 49 bd 1d 8f 85 3f 5a 68 1d 3f 7a 6c ca 3e
       -0.04929724 1.04343 0.6148735 0.39535886
000300 43 64 23 bf 24 77 84 3e 45 24 61 3f 16 d7 1c bc
       -0.6382486 0.25872147 0.8794597 -0.009572765
000310 e5 3e 4b 3e fe 71 30 3d 5f cb d5 be d1 b7 c4 be
       0.19848211 0.04307746 -0.41756722 -0.3842149
000320 2e 3d ff be ee 23 af 3d c3 da ed bd 49 d3 89 3f
       -0.49851364 0.08551775 -0.11613991 1.0767604
000330 27 89 f7 bd e9 8f 00 3f 17 94 9f be 45 8e dd 3f
       -0.120867066 0.5021959 -0.3116767 1.7309042
000340 d5 1a 00 3e 81 98 2f bc 83 63 ef be 8e b3 9b 3f
       0.12510236 -0.010717512 -0.4675561 1.2164171
000350 8c 51 eb 3d 0e f7 5f be 53 30 75 3f 6b 77 28 3e
       0.11490163 -0.21871588 0.9577686 0.16451804
000360 a9 98 1a 3e d3 f5 4e bf 4d 03 97 3f 6a 24 2f bf
       0.15097298 -0.8084385 1.1797882 -0.6841494
000370 b2 81 ff 3d f2 40 22 3e 3d 99 56 be 0f e1 f5 be
       0.12475909 0.15845087 -0.20956893 -0.4802327
000380 79 91 47 3f ea 90 b0 3a ee ed 3c 3f 0b a5 57 3f
       0.7795635 0.0013470922 0.7380055 0.8423621
000390 9e eb 00 3f 5f f5 22 bf 3e 9b 40 3f 4a bc 26 3e
       0.50359523 -0.63655657 0.7523688 0.16282764
0003a0 46 89 04 40 4d 73 fd 3d 0a 34 75 3f 2c 94 bb 3e
       2.0708785 0.123755075 0.9578253 0.36636484
0003b0 3c 64 8f 3f 21 d1 02 3f 03 ad 82 3f ca 33 0b 3f
       1.1202464 0.51100355 1.0209049 0.543759
0003c0 06 78 53 bf b7 1c b9 be 76 da cd 3e 75 28 61 3e
       -0.82605016 -0.3615472 0.40205735 0.2198809
0003d0 8a 5a 3f bf a6 2e 02 3f 3a 7b 01 bd 1f 38 30 bf
       -0.74747527 0.5085243 -0.03161166 -0.68835634
0003e0 ee ce cc 3e 74 90 04 40 8b c1 4c bf 1c d4 90 bd
       0.40001625 2.0713167 -0.79982823 -0.07071707
0003f0 f0 52 7c bb be a6 e5 3d 0d 17 80 3f fc 4d 7c 3f
       -0.0038501583 0.11213444 1.0007035 0.98556495
