hydrone_aerial_underwater_ddpg/scripts/Models/sac_stage_1_air3D_tanh_4layers/160_policy_net.pth (torch_old, 561675 bytes, 10 tensors)

linear1.weight f4 [256, 26]
00000000: 850a 1bbe 0fbf dcbd f1d3 693c 1f1e 32be
00000010: 5ab3 7bbe efdf f1bd 2c17 48be d900 20be
00000020: 4115 63be 9669 80be f24c 203d f426 d6bd
00000030: 82c2 633d 5023 1b3d e26c 513d a9c8 2f3e
00000040: 6734 333e fd67 db3d 24d5 6b3e f9bd 6f3d
00000050: b4fc 58be 58da c63d 2516 28be ae20 dd3e
00000060: bf98 86be b1a1 913d 9f98 ccbd be5e 11bd
00000070: 6ad9 d0bd 80c7 02be 6e6c a93d a455 76bd
00000080: 5be9 d1bc a9af e8bc 81c1 e1bd 1e24 3bbd
00000090: e787 c33d 2644 87bd 4b93 54bd 61c8 11be
000000a0: 2201 fc3d 7986 f03d bfcd 10be 59a1 cfbc
000000b0: 2c9a 67bd 2120 1abe 0c2f 0bbe 51de 073d
000000c0: 8e8c 9b3d 70ee 1cbe 82a5 e53c da01 863d
000000d0: 5477 053c 36d4 b0bb 92fe a8bd 46c7 ae3b
000000e0: 446b cdbc 11dc 14be 1d28 c83d ae77 93bc
000000f0: 75fd 37bd f693 35bc efef afbd c765 a1bd
00000100: 7045 433c f3ea 1dbe f91f b13c 7574 0ebe
00000110: 7554 29bd b0d9 0d3d 5df5 c7bd 74ba e33d
00000120: b2ab f83d 358e 2dbd 552f 063c 49a6 a63d
00000130: c1a0 ac3d c6f1 1cbe a1e0 a53c c3b3 f03d
00000140: de20 8cbc 4459 97bd 8b7c d33a 2867 833d
00000150: 7e01 b6bb b779 7b3d 03da 64bd 613b acbd
00000160: 416e 06be 129c 95bb 956b 0bbc 08e6 02be
00000170: 5281 e5ba b310 ecbd 8a95 a7bd 62fb 593d
00000180: 96a9 753d d165 c63d f79b c73d e0bf 69be
00000190: e4b0 6d3e 57d0 50be f973 833e f823 a8be
000001a0: a15a 56be 9b3f a93d 46d8 933d b355 f63d
000001b0: 16a8 d2bd 82d3 f3bd 2cee 5c3d 11a1 3ebe
000001c0: 2dbb e73c ccdc 22bd 7679 4b3e 285b a23d
000001d0: 5eb5 a33c 547b 8dbd 8f21 35be 8569 623d
000001e0: 6e87 debc 5ec4 68bc 6d63 c33d 2b7b b63d
000001f0: 725b 233c 4e7a c5be e6c8 c5be 48e6 99bd
00000200: 7c64 fcbe 3ecd 9b3c 9419 c93c c1ea 0d3e
00000210: 81e2 93bd 43ed 42bd 5db2 723b af61 f03d
00000220: 937f 93bd d437 f3bc 369e 193d 53ee 18be
00000230: a976 3ebe 0644 e5bd 4c15 7f3d 708f 9ebd
00000240: fe7e 323e c8c0 c73d c0d0 2fbd e304 f03d
00000250: 980a 053d 41a7 c7bd b401 c53d de23 5fbe
00000260: f89f 483e a703 5bbe c52c 143f b69e e4bd
00000270: 1cd9 483e 5f2b c3bd de1e eebc 622c 933c
00000280: 7b5a 4a3e 7959 3ebd e0af 4cbd ecf8 d13d
00000290: 1ccf 083b 9d7b a53d f3db ba3d d643 ebbb
000002a0: 3562 6fbe 37ba b1bd e89d 38be becf 75be
000002b0: 3c88 be3a d3e3 223d 29b8 d6bd 72b8 9abd
000002c0: c0e6 a0be ffd3 233d 87bd 913e 62a8 f1bd
000002d0: 4449 a1be c7a3 aa3d e593 c5bd 0455 a6bd
000002e0: 0e87 803c 2f34 85bd 45b8 87bd e997 0e3e
000002f0: 4c60 303e 95c8 f1bb 7a43 b6bb 157c c1bd
00000300: d479 293e 3a0d 363e 027c a2bc 2d17 9dbd
00000310: b731 3e3e 726d e53d de5b cabd 2296 b7ba
00000320: a72a a43d 0dac 35bd 9011 bb3e 9a7a 123e
00000330: 62ed 63bc bbf9 183d 99fb c33d 32ff 84be
00000340: cb57 94bd c65c 973d 32d7 ce3d 7652 453d
00000350: b534 65bd 6504 cbbd 49bc 62bd c1d5 c0bd
00000360: d62a 473e 2513 a0bd 5586 adbd 8234 c9bd
00000370: 058c a4bd 67cd 1dbe 5806 ea3c fce2 dfbd
00000380: b123 473c baec 513e 5a09 123e c008 b8bd
00000390: e89c d93e 74e8 08be 2b62 37bd 27bb 5bbe
000003a0: 2265 993e 0812 153e 0099 733c 18b9 6bbd
000003b0: cc9d 1c3d d0ef 49bc 04bf 0fbe 53bc 83bd
000003c0: e80f 403d b055 00bc 4fbe 81bd 0048 95b9
000003d0: b086 073c 485c 0fbe d4c5 243d 432d e5bd
000003e0: 69ea d8bd cac3 6abd 0df4 e2bd 6cdf 7d3d
000003f0: 5c43 b8bd 18a1 383d a07f 583d 6078 b23c
-0.15140732 -0.10778629 0.014271722 -0.17394303 -0.24580136 -0.1181029 -0.1954009 -0.15625323
-0.22176076 -0.25080556 0.03913588 -0.104566485 0.05560542 0.037875473 0.05112923 0.1716639
0.17500459 0.107131936 0.23030525 0.05853078 -0.21190149 0.097096145 -0.16414697 0.43188995
-0.2628841 0.07110918 -0.09990048 -0.035490744 -0.101977184 -0.12771416 0.082726344 -0.060140267
-0.025623968 -0.028404074 -0.11023236 -0.04568874 0.09547406 -0.06604795 -0.051898282 -0.14236595
0.123049036 0.117443986 -0.14140986 -0.025345491 -0.056543514 -0.15051319 -0.13592166 0.033171
0.07595168 -0.15325332 0.028033022 0.06543322 0.008146126 -0.0053963913 -0.082516804 0.005333814
-0.025075562 -0.14537074 0.09773276 -0.018001404 -0.04491945 -0.01108264 -0.085906856 -0.078807406
0.011918411 -0.15421657 0.021621691 -0.13911612 -0.04134031 0.03463143 -0.09763596 0.111195475
0.12142123 -0.042371947 0.008189996 0.08137185 0.08429099 -0.15326604 0.020248713 0.11753037
-0.017105516 -0.07390073 0.0016135139 0.0641616 -0.005554377 0.061395373 -0.055871975 -0.08409763
-0.13127996 -0.004565724 -0.008509536 -0.12783062 -0.0017509854 -0.115266226 -0.08182819 0.053218253
0.059976183 0.09687389 0.09746545 -0.22827101 0.2321201 -0.20391975 0.25674418 -0.32839942
-0.2093301 0.08264085 0.07218985 0.120280646 -0.10285966 -0.11905576 0.053938076 -0.1861613
0.028287495 -0.03976135 0.19870552 0.07927543 0.019983944 -0.069082886 -0.17688583 0.055276413
-0.027164187 -0.014206974 0.09540448 0.08910211 0.009970533 -0.38569874 -0.38629836 -0.07514626
-0.49295413 0.019018766 0.02454833 0.13859083 -0.072209366 -0.04758955 0.0037032582 0.11737382
-0.07202067 -0.029689707 0.037504397 -0.14934663 -0.18599953 -0.11194615 0.06227617 -0.07742202
0.17431256 0.09753567 -0.04292369 0.11719682 0.032480806 -0.09748698 0.096194655 -0.21791026
0.19592273 -0.21388112 0.5788081 -0.11163084 0.1961407 -0.09529757 -0.029067453 0.0179655
0.19761078 -0.046472047 -0.049972415 0.10252556 0.00208754 0.08080218 0.09123983 -0.0071797175
-0.23377307 -0.08678096 -0.18028986 -0.24005029 0.0014536451 0.03976805 -0.104843445 -0.075547114
-0.31426048 0.039997097 0.2846491 -0.117996946 -0.3150121 0.08332019 -0.09647349 -0.08121684
0.0156894 -0.06504094 -0.066269435 0.13925137 0.17224234 -0.0073786476 -0.005562243 -0.09447495
0.1655038 0.17778483 -0.019834522 -0.07670436 0.18573652 0.11202516 -0.098808035 -0.0014006535
0.08015948 -0.044353534 0.36536837 0.14304581 -0.013911577 0.037347537 0.09569473 -0.2597595
-0.07243308 0.07390742 0.10099639 0.048174344 -0.05595847 -0.099129476 -0.055355344 -0.0941577
0.19449934 -0.078161515 -0.084728874 -0.09824468 -0.08034519 -0.15410386 0.028567478 -0.10931966
0.012154506 0.2050046 0.1426138 -0.08986044 0.42502522 -0.13369924 -0.044771355 -0.21458112
0.2995997 0.1455766 0.014868021 -0.057549566 0.038236424 -0.012325242 -0.1403771 -0.06432404
0.04689017 -0.0078329295 -0.063351266 -0.0002847314 0.008271858 -0.14000046 0.040227726 -0.111902736
-0.10591585 -0.057315625 -0.11081705 0.06198065 -0.08997223 0.045075506 0.052856088 0.021785915

linear1.bias f4 [256]
00000000: 4946 5f3c c024 95bc d5fa 81bc 4911 84bc
00000010: cb9a 11bd 9e2e ab3c f5e6 5c3c f7ae 09bd
00000020: 8d66 ae3c 0000 0000 cc50 243c 3ff6 013d
00000030: 7e7e 89bc 2ae0 80bc eb3f a9bb 4e63 1bbc
00000040: 2538 c93c e996 8cbc 8de5 aebc fa1b 93bb
00000050: 0174 a9bb eaa2 56bc d15d d439 0000 0000
00000060: cc94 ec3a ee02 45bb ea10 8d3c f581 a5bc
00000070: 0000 0000 fa13 483d 7115 993b 24c4 90bc
00000080: 9867 c93c 8b5e 6dbc 2501 a2bc a54c b9bc
00000090: de9f 1d3c 770b 22bd b2de 0ebc 401b e1bc
000000a0: 4ce1 523b 1e57 19bb 0815 7fbc 6df0 863b
000000b0: 802c dabc b190 83bc 6772 08bc 389b bc3b
000000c0: 4171 23bd cb90 a2bc b736 0c3d 169c 7e3d
000000d0: 5c37 fbbc 16d4 73bc 7877 0abd a77b 02bd
000000e0: 2919 83bb 3f64 50bb 621f 593c 1846 4f3d
000000f0: 7c4e d03b a283 01bd 43c4 1bbc 6ae2 eebc
00000100: 507d f7bc 13a1 b2bc d62c 09bc b491 74bc
00000110: 4722 ecbc ccdd 933c 714a 1fbb 520c 713c
00000120: 5483 133c 6e57 cb3c 9c10 723d 5198 0cbc
00000130: 3c09 5dbd c9ef 13bd fb00 6e3d 61da fcbc
00000140: 4112 3fbb 38b6 a33c 4796 fdbb f74f a2bc
00000150: 275d c4bb 8715 13bd 2e47 913d 6114 e6bb
00000160: 0ede 223c 2625 14bd c3b8 d1bc 4b08 06bd
00000170: 0c89 0b3d f11c 18bd 7dd1 2cbd ec79 11bd
00000180: 8de6 853c 7f88 113b 51cc f6bc f8c2 4cbc
00000190: 4d77 713d b6e3 da3c 5996 cdbc efbc 8fbc
000001a0: 1570 0ebd 0000 0000 d899 8dbd b1cc 70bd
000001b0: bec9 08bd 0000 0000 6eee 523c 9381 b2bc
000001c0: ca82 13bb dc39 17bd af24 03bc a61e ccbc
000001d0: 6bd4 753c 5804 733d 5865 9c3d a320 06bc
000001e0: 2f7d 05bd e4c2 9bbc 0f58 9b3d 208b 58bd
000001f0: 1a3a afbc 2b43 2c3d dd7e 383d da4f a6bc
00000200: 0757 54bd 77da 13bd 9e7c e03c 3a32 193c
00000210: ade3 313d c555 0d3d 4478 333d 4224 63bc
00000220: c886 a8bc 231b c43d 88fe 2fbd 9101 93bb
00000230: 1867 533a 00e8 fa3a 8d4e 1bbc 3206 0dbc
00000240: 3691 51bd 930e 8a3c c17c b5bc 5016 ee3b
00000250: 4932 5ebc 8e3a 37bd 72a0 5cbd ba12 eebb
00000260: 2138 c0bc a37f 34bc ea24 0bbd e47e d23b
00000270: 4e8a a5bc 9c96 d9bc 2c88 0bbd 2fde 48bd
00000280: 6e6c 183c cf4a 323c c16c 4ebc bd9c 073b
00000290: 6dca 84bc 1986 633d 60a1 00bc 6fff 213d
000002a0: 1109 12bd 95a7 4ebc 5caa 53bc ddea 023d
000002b0: 4156 05bd 5acd 6a3d 127a 48bc 1247 4bbc
000002c0: 9886 a6bb ff65 f6bc 5cdf 2ebb 5271 0b3d
000002d0: ec86 2f3b 6d5c 8c3d 0000 0000 ccb6 c8bc
000002e0: 83e7 953c ee9b 9bbb b8e1 02bc 49fc 03bb
000002f0: c96d 373c 44df 523d 09ef 343c ff2e 923d
00000300: fba0 febc 6c88 85bc b7cb 89bb a2be 68bd
00000310: 6f87 7cbc 4e49 6dbc 8516 13bd aca1 053b
00000320: 1e9f 9ebb a931 26bd 84fd faba 5ca9 19bc
00000330: 2534 a8bb 5571 87bb 782d b8ba 434b 8b3d
00000340: 26f3 e63c ebac 7a3d e9f1 4cbb ff7b cdbc
00000350: b8ff 47bc 97fa a6bc f1ac 1bbc 8089 883d
00000360: 3d4b 0c3c bd11 16bd 8417 283c 0c96 ad3b
00000370: 9d92 d1bb 81dc dfbb ada6 aebc 4fc9 b53b
00000380: 0000 0000 5432 dd3a 3c38 48bb 0000 0000
00000390: d8e1 babc f070 21bd b3c2 0bbc 2cd4 e0bc
000003a0: dff4 8abc 10c4 f23c d7ee c33d 25d8 173d
000003b0: 0000 0000 c89c 633d 1d2d 8ebc 9534 a83b
000003c0: 5b98 09bd 0516 4f3c d98e 81bc f46f 133d
000003d0: ce85 39bc 0000 0000 9830 65bd fca0 72bc
000003e0: c99f aebc 8dc6 debb 2e6c 95bc e566 023d
000003f0: 69f7 7ebd 0e8c c13c 217b f4bc 60aa 74bc
0.013627597 -0.018206 -0.015866676 -0.016121523 -0.035548013 0.020896252 0.013482799 -0.033614125
0.021289134 0.0 0.010029029 0.03172898 -0.016783949 -0.01573189 -0.0051650903 -0.009484125
0.024562905 -0.017161803 -0.021349693 -0.004489419 -0.0051712994 -0.013100365 0.0004050569 0.0
0.0018049716 -0.003006156 0.01721998 -0.02020357 0.0 0.048847176 0.0046717455 -0.017671652
0.02458553 -0.014487873 -0.019775936 -0.022619555 0.009620635 -0.039561715 -0.008720087 -0.027478814
0.0032177744 -0.0023397873 -0.015568979 0.0041180165 -0.026632547 -0.016060205 -0.008328057 0.005755808
-0.03990293 -0.019844433 0.034231868 0.062160574 -0.030666046 -0.014882108 -0.03380534 -0.031856205
-0.004000802 -0.0031798033 0.013252111 0.050603956 0.0063570123 -0.031619675 -0.009507242 -0.029160697
-0.03021112 -0.021805322 -0.008372506 -0.014927316 -0.028824938 0.018050097 -0.0024305845 0.01471241
0.009003479 0.024821963 0.05909787 -0.008581237 -0.053963885 -0.03611735 0.058106404 -0.03086585
-0.0029155167 0.01998435 -0.0077388617 -0.01981352 -0.00599255 -0.035909202 0.070936546 -0.0070214723
0.009940637 -0.03616824 -0.025600797 -0.032722753 0.034066245 -0.037136976 -0.04219197 -0.035516664
0.016345287 0.0022206602 -0.030126723 -0.012497656 0.058951665 0.02671991 -0.025096105 -0.017546145
-0.03477486 0.0 -0.06914109 -0.05878896 -0.03339552 0.0 0.012874229 -0.021790301
-0.0022508376 -0.036920413 -0.0080043515 -0.024916958 0.015004258 0.059330314 0.07636517 -0.008186492
-0.032590088 -0.01901383 0.07585155 -0.052867055 -0.02139001 0.042056244 0.04504286 -0.020301748
-0.05184081 -0.036097016 0.027403172 0.009350354 0.04343002 0.034505624 0.043815866 -0.013863625
-0.020572081 0.095754884 -0.04296735 -0.0044862707 0.00080643734 0.0019142628 -0.009479177 -0.008607434
-0.051163875 0.016852653 -0.022154214 0.0072658435 -0.013561794 -0.044733576 -0.05386395 -0.007265416
-0.023464264 -0.011016759 -0.03397075 0.006423818 -0.02020755 -0.026561074 -0.03406541 -0.049040016
0.009303195 0.010882094 -0.012599171 0.0020692789 -0.016209805 0.055547807 -0.007850975 0.03955024
-0.035653178 -0.012613197 -0.012919035 0.031962264 -0.03255296 0.057324745 -0.012236135 -0.012407081
-0.005081963 -0.030077932 -0.0026683426 0.034043618 0.00267833 0.06853566 0.0 -0.024501227
0.01829887 -0.004748813 -0.007988386 -0.0020139387 0.011195608 0.051482454 0.011043319 0.0713787
-0.03108262 -0.016300403 -0.004205193 -0.056822427 -0.015413149 -0.014482809 -0.03591015 0.0020390553
-0.0048407456 -0.040574703 -0.001914904 -0.009378757 -0.0051331692 -0.0041333833 -0.0014051637 0.068014644
0.028192114 0.061200064 -0.003127212 -0.02508354 -0.012206964 -0.020383162 -0.009501682 0.06666851
0.00856286 -0.03663801 0.010259513 0.005297428 -0.0063956515 -0.006831706 -0.021319712 0.0055476795
0.0 0.0016875961 -0.0030551096 0.0 -0.022812769 -0.039414346 -0.008530307 -0.027444921
-0.016962467 0.029634506 0.095670395 0.037071366 0.0 0.05556944 -0.017355496 0.0051332214
-0.033592563 0.012639527 -0.015815185 0.03599544 -0.011323405 0.0 -0.055954546 -0.0148088895
-0.021316426 -0.0067985714 -0.01824006 0.03183641 -0.062247667 0.023626354 -0.029843869 -0.014933199

linear2.weight f4 [256, 256]
00000000: 06b1 73bd 1203 e9bd 295a c13d 0d35 4f3b
00000010: 47d0 663d eabd a33c 2532 9cbd 1f99 03be
00000020: f68c c53d f608 5b3d bfde c23d e60a 623d
00000030: 41db a5bd 6825 853d a6f5 b23d a034 07bb
00000040: 42a6 353e 9b4f e0bc 3340 88bc 8312 3fbe
00000050: b342 053e b868 83bc 8be2 05be 430c ca3d
00000060: 78a7 bd3d 1584 953d 9066 913d 3561 243e
00000070: c09b afbc b47e 89bd 27f5 243d 508f 973d
00000080: 6d76 383d 4060 e63c b344 86bb 0097 a8bc
00000090: b0b7 ad3d 5192 b5bd 2cb6 4b3e 1311 c23c
000000a0: 8c91 5f3d e5f9 5a3c f1c6 0d3d 7384 273e
000000b0: 0f48 943d d9de 13be b219 40bd 64f0 12bd
000000c0: 84b0 f4bc 0829 db3d cc64 203d 2818 17bd
000000d0: 5df9 203e 52d5 f9bd 088a df3d 9777 493d
000000e0: facb ffbd 11bb b63d ab6d a23c 2e2b 443e
000000f0: bb84 1fbe 405d 1c3a 1d98 9f3d 458c ea3d
00000100: 0d22 1e3d 1b02 f93d b65a e8bd df60 9fbd
00000110: af89 153d d337 51bc 8000 90bc 8ff5 dc3d
00000120: a756 373d a179 9f3c 57d3 cebd f243 123d
00000130: 0e71 1cbe 2ba9 fb3c 223e 123d fbdd c4bb
00000140: 8be0 9abc 2437 9ebd 99c9 2ebd 0519 04be
00000150: 7f52 87bd 3d7a a33b a630 10bd e629 cfbd
00000160: 2de3 273d 726d e53c 2419 91bd c3dc 86bc
00000170: a4f1 343c c47d b33c 4b0c 52bd 0ce3 59be
00000180: c399 dcbd f821 eabc 1c95 ccbd 62ea 63bd
00000190: 8e87 27bd 70f1 6fbd 33d2 15bd 2b14 c2ba
000001a0: 443e ee3d a870 23bc 128b 8b3d 0954 6b3d
000001b0: 47da ec3d 8082 5fbb 0f61 0f3e b999 273e
000001c0: 7993 8b3d b42a 89bb cf36 41bd 6fa1 8abd
000001d0: 1325 1d3e c954 2ebe c1c3 cd3d 4d52 8a3d
000001e0: 6f1b 73be 3024 48bc b720 853e c181 ab3b
000001f0: c9d8 b83c 001c a1bd d3ee 4dbc 205a 1d3e
00000200: ae9b babd cf3b 883d f27f c4bd d6a9 4b3d
00000210: 2b8c 82bd abe0 233d 9733 b2bc 9961 b5bd
00000220: 3ba8 a83d f8b9 65be 0307 9dbd ad8a 77bd
00000230: 286c 053e adea 3ebe d9db 823d d4f5 da3c
00000240: 062e 7bbd 0f07 8dbd dc53 463d 995c 03be
00000250: 9583 c73d 565b 80bd f21b 413d f93e c0bd
00000260: 2b31 9cbd a3cf 6ebd 800b 88bd a58d 843d
00000270: 583b 0a3e 21d3 6d3d 488b 0b3c 356e 0e3d
00000280: fc0c adbd 594f 0b3e 25fb 49bc 5352 07be
00000290: 5e7a 203e c9e4 e1bc 2ac5 a0bd 8ba8 a2bd
000002a0: 3a65 a5bd 76ab e0bd df54 f13c 7c5c b6bc
000002b0: e3cf 913d 8240 e53d 0588 173c 1826 edbd
000002c0: 6edd d53d 91e3 0a3e c867 12be 330b d2be
000002d0: 5926 c5bc e8ee 66be 1275 7f3d 758e 923b
000002e0: dc29 d23c 8bb3 ab3c 8163 43bd 5ab4 4d3d
000002f0: 82e1 0c3e 048b 0b3e e98c 933d d342 bcbc
00000300: 0ebd f5bc 86c9 0e3d 034b 53bd 7649 ef3d
00000310: c7ab 14be 2ecd 383e 571d fe3c e652 463d
00000320: 71e8 1a3c db5f 7f3c e56a 93bd 6ee5 3a3c
00000330: 4338 4a3c 66ba c8bd c1c5 1f3e b22c 33be
00000340: 1671 89be 1502 5dbe cb1a c3bd eb57 57bd
00000350: cd6d ef3c 8fdc 213e 7878 773d 2ac6 123e
00000360: 51cb 763e ee07 c3bb 709b 183e 529f 353e
00000370: 40d1 5bbd 5c0b 543c ec56 313e 41e3 a03c
00000380: 5e44 4f3d c294 053e 94a4 88bd 32dd a3bd
00000390: fac1 973d 3305 c3bd 3f4c 933c 36c7 9dbd
000003a0: 72c4 873c ce8c fdbd c368 b6bd e638 2abc
000003b0: 4b98 83bd 82b5 623c 13e0 b33c 9195 21bc
000003c0: 9b83 cbbd 1ff3 293e b543 853d 3871 133d
000003d0: 1ef3 a3bb 4fa0 a13d 9eff cebd 723f 46be
000003e0: 3c64 8e3d 11ed 0cbe e4cc 1cbc a072 e1be
000003f0: 6cdc 6e3d 5885 0c3e 5bb9 aa3d 771d 033d
-0.059494995 -0.11377539 0.09441025 0.0031617314 0.056350973 0.019988019 -0.07626752 -0.1285138
0.09646027 0.053475343 0.09515142 0.055186175 -0.0809846 0.06501275 0.0873826 -0.0020630732
0.17739204 -0.027381709 -0.016632175 -0.18659405 0.13013725 -0.016041145 -0.130747 0.0986562
0.09260458 0.07300583 0.0709964 0.16052707 -0.021436572 -0.0671362 0.040272858 0.074003816
0.045034815 0.028122067 -0.004097545 -0.020579815 0.08482301 -0.08865798 0.19893712 0.023689782
0.054582164 0.013365244 0.034613553 0.16359119 0.072403066 -0.14440478 -0.046899505 -0.035873786
-0.029869325 0.107011855 0.039158627 -0.03688827 0.15720125 -0.12198891 0.10914999 0.049186315
-0.12490077 0.08922399 0.019827684 0.19157097 -0.15577976 0.0005964823 0.07792685 0.114525355
0.038606692 0.12158605 -0.11345427 -0.077821486 0.03650826 -0.012769657 -0.017578363 0.10789024
0.044760372 0.019467177 -0.100989036 0.03570933 -0.15277502 0.030720314 0.035703786 -0.0060079074
-0.018905899 -0.07725361 -0.042672727 -0.12900169 -0.06607532 0.004988937 -0.035202645 -0.10115413
0.040988136 0.02800629 -0.07084873 -0.01646269 0.01104394 0.021910556 -0.051281255 -0.21278018
-0.10771515 -0.02858065 -0.09989378 -0.055643447 -0.04090076 -0.058579862 -0.036577415 -0.0014807036
0.1163297 -0.00997559 0.06813635 0.05745319 0.115650706 -0.0034104884 0.14001869 0.16367234
0.068152376 -0.004185999 -0.04717141 -0.06769072 0.15346174 -0.1702453 0.10047103 0.06753979
-0.23740934 -0.012215659 0.26001522 0.0052339737 0.022564309 -0.07866669 -0.012569147 0.15366411
-0.09111725 0.066520326 -0.09594716 0.049722515 -0.06374391 0.040009182 -0.021753116 -0.08856506
0.082352124 -0.22434223 -0.07667353 -0.060434986 0.1302954 -0.18644209 0.06389589 0.026728548
-0.06132319 -0.06886112 0.04841982 -0.12828292 0.09741894 -0.06267421 0.04714579 -0.09387011
-0.076265655 -0.058303487 -0.066428185 0.06472329 0.134992 0.058062676 0.008517094 0.03477307
-0.08449742 0.13604487 -0.012327944 -0.13214998 0.1567168 -0.027574914 -0.07850106 -0.07942303
-0.08075948 -0.109702036 0.029459415 -0.022260897 0.07119729 0.111939445 0.009248738 -0.115795314
0.10442625 0.13563372 -0.14297402 -0.4102417 -0.024066137 -0.22552073 0.062367506 0.0044725486
0.025654726 0.020959636 -0.047702316 0.050220825 0.137579 0.13627249 0.07204611 -0.022981083
-0.029997375 0.034860156 -0.05158521 0.116839334 -0.14518653 0.1804702 0.03101985 0.0484189
0.009454832 0.015586819 -0.07198123 0.011407239 0.012342515 -0.09801178 0.15602781 -0.17497519
-0.2684409 -0.21582825 -0.09526595 -0.05257408 0.029227162 0.15806793 0.060417622 0.14333406
0.24100997 -0.005951873 0.14903045 0.17736557 -0.053666353 0.012942161 0.17318314 0.019639613
0.05060231 0.13045028 -0.06672016 -0.08001174 0.07410045 -0.09522476 0.017980693 -0.07704012
0.016573165 -0.12380372 -0.089067005 -0.010389542 -0.06425532 0.01383722 0.021957433 -0.00986232
-0.09937211 0.1659665 0.06507055 0.035996646 -0.005003347 0.078919046 -0.10107349 -0.1936014
0.06952712 -0.13762309 -0.009570334 -0.44032764 0.05831568 0.13722742 0.08336135 0.03201052

linear2.bias f4 [256]
00000000: 88b8 b5bc 3a2a f739 bc82 4d3d af49 febb
00000010: 94c6 0dbd 5893 0fbd 53c1 e1bc 79a7 a73c
00000020: 308b 97bc d55e 31bb 4261 25bd a394 f5bd
00000030: 91fc d33c 3993 d6bc 1a9f 0cbd efb4 ffbc
00000040: a04a a9bb 468c f9bc 463a c2bd dbdc 09bd
00000050: 7c3a 3f3c d13a 7b3d 30c9 913c 2ad2 843d
00000060: ddfd 773d f119 d03c d738 4bbd 0703 4fbc
00000070: f78e 653c 2e75 e7bc 0ab1 b4bc bf96 cdbd
00000080: cf5f 5bbc f13b 673d 33ce 87bc 87f6 12bd
00000090: 48c2 e8bc 8f2d 36bc 231c 6a3d 0368 42bb
000000a0: 5f43 94bc 888b 2cbd eb2d 92bc fff1 9dbc
000000b0: ecc0 f0bc 38c2 9fbb 6b4c 093d 01b5 13bd
000000c0: f5f4 a8bc 3f04 d4bc ec4d 76bc ec66 9c3b
000000d0: 6f5b 3e3d fe14 00bd 292d ebbc 30b3 1fbd
000000e0: e40c aebd a95f f3bc ca9b 213b a1c3 bdbb
000000f0: 1d7c 8f3d 88d7 d8bc 9a73 96bc 4eb1 a6bd
00000100: 8981 f1bc b597 0cbd 1b87 c5bd d3ec 963d
00000110: 6c77 7ebc d86d 803d 560e b23c 6b11 51bd
00000120: b18a 273d abe2 1c3d 74b7 23bd 5e24 443d
00000130: 17a7 e2bd be09 a1bc 7cda fcbc 6a19 c7bc
00000140: 5330 00bd ea9c 473c 431f 86bd 4f25 30bd
00000150: 87d2 c63c 2ded 043d e44f b4bc e3f7 083d
00000160: 7100 b33c 5bf0 423b f47b 3dbb 4c76 7e3d
00000170: c3e2 d8bc 8bb6 78bd 9bc0 33bd e643 debc
00000180: 5132 22bd 3958 dabc 2c99 033d 4eb7 6fbc
00000190: 8073 e039 125f 33bd 2311 8cbc 1ea1 d9bc
000001a0: 0366 0fbd d8cc e7bc 7209 6f3d 4bac 863c
000001b0: c1a4 7e3b 115d bbbc dc3b 67bc 5c61 f8b8
000001c0: 4768 e83b af91 8c3d dfa9 22bd d0af 923d
000001d0: a6f0 4e3c 5307 233c 72ac d2bc 91a8 8c3b
000001e0: a89c ccbc aca6 ce3b df82 cabc 71e0 f9bc
000001f0: 9af0 99bc 817d 733d 11a9 debc 67ee 523b
00000200: cf51 d6bd 0b65 26bd aee1 743d 1d9d 9bbc
00000210: 2f39 943d 7f8d 4a3d 160e 9abc 897e e03c
00000220: 8498 e1bd 0c11 63bd 1c15 5cbd cc5e 3bbc
00000230: d74b 8f3c e906 15bd cb14 71bd ccfc 44bd
00000240: e9da b1bd 5392 b13d 6f39 23bc fe76 6b3d
00000250: 7a12 b6bc ccce 2bbb 3c49 8abb d725 173c
00000260: 567b d2bc 7085 d83c 253d 56bd ca93 75bb
00000270: 6d7f ae3c d4a0 dabc 22f6 d5bc 14d5 38bc
00000280: e1eb db3c 7cb5 f63c 9fda 843d ef8c 1bbd
00000290: 7ab9 bdbc 5b8e 63bc b0d2 6d3c 0634 2fbd
000002a0: 4785 82bd e75a 00be 82fc 193d 2e3b fcbc
000002b0: 7355 17bd 447f b53b 8611 21bd 29fa d83c
000002c0: dda9 d2bc 6467 43bc 0fee a53a 4e9d f5bc
000002d0: 60f9 443d 814d a63d a939 af3c 3af3 023b
000002e0: 25a3 3bb9 4fcf 0c3d e386 00bd 5801 c93c
000002f0: 6125 0ebd 5bd7 1cbd 7199 903c 6900 103d
00000300: 44b2 c33b 8ac0 c03c bdcb a13c d1dd c2ba
00000310: 46e2 2bbd 74a7 043d 571b 92bc 340c f9bc
00000320: 9041 b73d 4c56 013d 906f 043d 2c72 973b
00000330: 3e56 18bd 493a be3c 7c2b 0bbd bacb 59bd
00000340: 0e8f abbc 28cb 79bd 3a2f 083d 5e03 f5bc
00000350: affa e13b d127 b63c d850 623d 736e 9fbc
00000360: a967 f1bc 0171 843c 86b2 40bc 463f 423c
00000370: f073 5a3c 7e2d b8bc fa11 4a3d ec0f 65bd
00000380: a3f4 55bd bb1c a5bc 2c18 6aba b8eb 1ebd
00000390: 9610 c9bc 6718 3cbd f6af 1bbd 2a72 acbb
000003a0: 61ae 073d 423d 3ebd 34e2 efbc 998b 893d
000003b0: 8734 85bc 2af6 b73c aecc 52bd 58a0 b3bc
000003c0: 8ba2 97bd 4019 233c 9d3f 263d cb1c eabc
000003d0: 24f9 6dbd defe 433d 73e8 7e3d 27e1 29bd
000003e0: 0799 27bd 799d d93b 2dd5 8cbd 23a5 13bd
000003f0: 6821 043d 46a5 c4bc d5a4 e2bc db6b a7bd
-0.022182718 0.00047142972 0.050173506 -0.0077602486 -0.034613207 -0.035052627 -0.027558004 0.0204656
-0.018498987 -0.002706458 -0.040375955 -0.11991241 0.025877269 -0.026193248 -0.03433142 -0.031214206
-0.0051663667 -0.030462395 -0.09483771 -0.03365789 0.011671659 0.06133539 0.017796129 0.06485398
0.060544837 0.025402995 -0.049614754 -0.012634999 0.014011136 -0.028254118 -0.022057075 -0.10038518
-0.013389542 0.05645365 -0.016577816 -0.035879638 -0.028412953 -0.01111926 0.05715574 -0.0029664047
-0.018098531 -0.042125255 -0.017844161 -0.019280432 -0.029388867 -0.0048754476 0.033520143 -0.03606129
-0.020624617 -0.025880931 -0.015033226 0.0047730114 0.046473917 -0.03127002 -0.028708057 -0.038989246
-0.084985524 -0.0297087 0.0024659508 -0.005791143 0.070060946 -0.02646996 -0.01836567 -0.08139287
-0.029480712 -0.034324367 -0.0964491 0.073693894 -0.015531402 0.06270951 0.021735352 -0.051042
0.04090375 0.038302105 -0.039969876 0.047886245 -0.11067026 -0.019657966 -0.0308659 -0.02430411
-0.031296086 0.012183407 -0.065489314 -0.04300433 0.02427031 0.03245275 -0.022010751 0.03343953
0.021850796 0.0029745314 -0.0028912993 0.062124535 -0.026475316 -0.06072096 -0.043884855 -0.027131986
-0.039598767 -0.026653396 0.032128498 -0.014631106 0.00042810664 -0.043791838 -0.017098015 -0.026566084
-0.035009395 -0.02829592 0.058358617 0.016439578 0.0038855525 -0.022871526 -0.014113393 -0.00011843696
0.007092509 0.068637244 -0.039712783 0.0716244 0.012630617 0.009950477 -0.025716994 0.0042925556
-0.024977043 0.00630649 -0.024720607 -0.03050253 -0.018791486 0.05944586 -0.027180227 0.0032185556
-0.104648225 -0.040623706 0.059785537 -0.018995816 0.072374694 0.049451347 -0.018805545 0.027404087
-0.11015418 -0.05543618 -0.05373107 -0.011436176 0.017492218 -0.036383543 -0.05885772 -0.04809265
-0.08684332 0.08670487 -0.009962424 0.057486527 -0.022225607 -0.002621579 -0.004220156 0.00922533
-0.025693577 0.026430815 -0.052304406 -0.0037472122 0.021300996 -0.026688017 -0.026118342 -0.0112812705
0.026845874 0.030115835 0.06487011 -0.0379762 -0.023159731 -0.013888921 0.014515564 -0.042774223
-0.06373077 -0.12534676 0.037594326 -0.030789938 -0.036946725 0.005538853 -0.039323352 0.026486473
-0.025715763 -0.011926506 0.0012659448 -0.029982235 0.048089385 0.081202514 0.0213898 0.00199814
-0.00017894486 0.034377392 -0.031378638 0.024536774 -0.034703616 -0.038291316 0.017651292 0.03515664
0.0059721787 0.02352931 0.01975047 -0.0014867132 -0.041963838 0.03238626 -0.017835302 -0.030401327
0.08948052 0.03157644 0.032332957 0.0046217646 -0.037191622 0.023221152 -0.033977017 -0.053172804
-0.020942237 -0.06098476 0.033248164 -0.029908832 0.006896339 0.022235783 0.05525288 -0.019461846
-0.029468374 0.016167166 -0.011761313 0.011855906 0.013333306 -0.02248263 0.04933355 -0.055923387
-0.052235257 -0.020155301 -0.00089299935 -0.038799018 -0.024544042 -0.04592171 -0.038009606 -0.005262633
0.033125285 -0.04644514 -0.029282667 0.06716079 -0.016260399 0.022456247 -0.05146473 -0.021927044
-0.074040495 0.009954751 0.04058801 -0.028578183 -0.058098927 0.047850482 0.0622334 -0.041474488
-0.040917423 0.0066410867 -0.068765976 -0.03604616 0.03225842 -0.02400459 -0.027666489 -0.08174869

linear3.weight f4 [256, 256]
00000000: 499e 06bd 41e3 873d 3ae1 cd3c e9eb 813e
00000010: 528e 75bc a66f b03c 46b8 99bd a417 7ebd
00000020: 5c65 9abe 6c4e a3bd 410f 5e3d 18e9 4a3d
00000030: cd71 c93d ba53 e2bd aec4 f03b 0c81 29bd
00000040: 92ba ae3d ec36 09be 66bb 20be 32e2 753c
00000050: a4b6 373e 8db8 33be f8ca e93c 77b6 a3bd
00000060: ef97 693d 5095 13bd 5f42 f33d 1553 5f3e
00000070: aff1 e63d a687 763c e88e dcbc 90c9 e9bd
00000080: d707 923d 256e 113e dde9 06bd 145e cebd
00000090: d132 463e 2b9d 01bd ce52 133c 489b 01bf
000000a0: 31c6 c2bd f7d3 d33d e7c1 dbbd 0331 123e
000000b0: 594e 543d a560 063d 67a0 0cbe 9fdb 46bd
000000c0: d66b bd3b edc0 80bd 4bce 60bd 28dd 8dbc
000000d0: 7e5e 97bd 3f90 ab3d 8764 14be e992 b43d
000000e0: 018c 8c3e 9a49 6fbd 3777 d7bd 6467 0c3e
000000f0: 871b c1bd f1d8 063c 8e9c 693d 3b8c 58be
00000100: c8dc f1bc 3604 7fbd d595 11be 5703 e6bc
00000110: 1ebf d9bc d355 6c3d 7171 06be 52dd 4b3e
00000120: c122 84be d3f1 933c 0a28 24bd cfd6 2cbe
00000130: 4e8d 213e b299 09be 6d15 f7bd b129 1abe
00000140: e395 c1bd 16aa eb3b 0a80 4b3e 47ae e33d
00000150: 3609 3bbe dc44 b53d cdf3 793d 2e53 dbbd
00000160: 48dd 92bd c2a0 da3d e263 ab3e 7ebc edbb
00000170: e272 fabc 01fc e73d 7c73 e9bd d7f6 a23d
00000180: 8470 d43d 8d3a 103d ef9a ef3d 16a1 cc3c
00000190: deab 4b3e bb53 39bd d185 a93d 1e86 81bd
000001a0: 6f4e 963d e95f 1fbd bf9b 013c 4272 553c
000001b0: ce9b 60be 76c0 62be 4b79 ea3c 4c75 ba3c
000001c0: e99f 033c a520 1a3e 7d5f a03d 92e3 123d
000001d0: 7e85 00be 1678 483e e77a 1cbd a3ed 0f3e
000001e0: 28cd 4d3e 9df4 ed3d 73c1 ee3c 7e5b 983d
000001f0: 0993 c03d e2f4 b9bb c461 ce3a 0ea5 5cbd
00000200: e238 333e efd6 323d 7a4c 8dbd 6d83 adbd
00000210: 509c b23d 1ad8 333d 3f0c e6bd 75ad 66bc
00000220: a791 61be 9b42 6dbe ef6f 80bd 476d 4e3d
00000230: 2eca 2c3d de07 7a3e 3351 4bbe 747d b8bb
00000240: cfd4 433e ee08 17be aa0e cfbc c541 efbc
00000250: 1e67 023e 2de2 4e3e 03bd 3abe 00f1 0f3d
00000260: b892 0ebd fcdc ed3c 4009 b43d aadf 89bd
00000270: 0795 10bd da9b 9b3d 6097 3e3c 8e88 78be
00000280: 0ab0 413e 8bfb a83d 0d42 10be e4b7 8e3d
00000290: 568b 94bc a8b4 23be 7b7a c1bd 4abf 75bd
000002a0: b9e0 09bb b362 e0be cf8d c9bd d71d 27bd
000002b0: 967e fd3d 0892 bbbd 9a71 ae3d 67e9 cebc
000002c0: 3445 093d c609 28be c2fb 123d 6776 abbb
000002d0: 80bd 943e 7609 3b3e 68ba a9bc 3389 26be
000002e0: c4d3 22be b0c4 3cbd 2a00 91bd ff14 11be
000002f0: c21e f1bc fc9e 013d b3ab 80bd 5d7f bbbe
00000300: 0c75 293d f8cc ecbb c6ab e33d fc29 89be
00000310: 7706 4c3d c260 f9bd b74e 473d fed8 a53d
00000320: 5943 75bd f6ad 2bbe d66b d23d 1854 243d
00000330: f3a2 c3bd 9ede 52bc 6d52 24bc 8c0a e0bc
00000340: 4b11 3b3d 81eb 493d 4ed4 d03b c9df 2bbd
00000350: 3ca1 fabc b9b7 94ba b64c 3fbe 0231 333d
00000360: 30cb 83bd ea8f d0bc b430 04be f5b8 63be
00000370: 5ece b63d f7d5 8d3c 345c 233e 9798 383e
00000380: 60a6 e3bd 2e93 08bd 90de f03d 1aff 66bd
00000390: 93a0 01be 12a5 e33d f6b7 693d 5438 bfbd
000003a0: 4b1d eebd f054 50bd 9f55 69be 46f4 4dbd
000003b0: 4ff5 33bc 683a e7bc e082 d93d 50be 27be
000003c0: b140 12be 4c79 623a 90f7 8abe ccfd 203d
000003d0: b21a 98bd fd34 37bd 0be9 82bd 2006 9f3c
000003e0: 7d2c 17be 2284 df3d a13b 6cbe 8052 63bd
000003f0: befd 92be 2dc0 0fbd 3a13 d2bc f015 b2bd
-0.032865796 0.06635142 0.02513181 0.25375298 -0.014987545 0.021537613 -0.075058505 -0.062034264
-0.30155456 -0.07973942 0.054213766 0.0495387 0.09836159 -0.11051126 0.007347665 -0.041382834
0.08531679 -0.13399857 -0.15696487 0.015007542 0.17940766 -0.1755087 0.028539166 -0.07993787
0.05702966 -0.036031067 0.11877894 0.21809037 0.11276566 0.01504699 -0.026923612 -0.11415398
0.071304016 0.14202173 -0.032937873 -0.10076538 0.19355322 -0.031644028 0.00899191 -0.50627565
-0.09510458 0.103431635 -0.10730343 0.14276509 0.05183253 0.03280701 -0.13733064 -0.04854929
0.0057806773 -0.06286798 -0.054884236 -0.01731737 -0.0739107 0.08377122 -0.14491473 0.088170834
0.27450565 -0.0584198 -0.10520785 0.13711315 -0.094290785 0.008230434 0.057034068 -0.21147244
-0.029524222 -0.062259875 -0.14217313 -0.028077764 -0.02658039 0.057699036 -0.13129212 0.19908646
-0.25807765 0.018059647 -0.040077247 -0.16878818 0.1577656 -0.13437536 -0.120646335 -0.15054967
-0.09452417 0.0071919067 0.19873062 0.11117225 -0.18265232 0.088510245 0.061023522 -0.10709225
-0.07171112 0.10675193 0.33474642 -0.007255136 -0.030572359 0.11327363 -0.1139898 0.07957237
0.10373023 0.03521209 0.11699473 0.024979156 0.19889781 -0.045245867 0.082774766 -0.06324409
0.07339179 -0.038909826 0.007910668 0.0130277295 -0.21934435 -0.2214373 0.02862229 0.02276101
0.008033731 0.15051515 0.07830713 0.03586156 -0.12550923 0.19577059 -0.038203146 0.14055495
0.20097792 0.11618922 0.029144978 0.07439326 0.09403045 -0.0056749443 0.0015745689 -0.053868346
0.17502168 0.043662008 -0.06899352 -0.08472333 0.087212205 0.043907262 -0.112328045 -0.014079441
-0.22028218 -0.23169939 -0.0627135 0.050397184 0.042185 0.24417064 -0.19855194 -0.0056301896
0.19124149 -0.147495 -0.025275547 -0.029206166 0.12734649 0.20203467 -0.18236165 0.035141945
-0.03480789 0.029036038 0.08790827 -0.06732114 -0.035298374 0.07598086 0.01163277 -0.24270841
0.1891481 0.08251103 -0.14087696 0.06968668 -0.018132847 -0.15986884 -0.094471894 -0.05999688
-0.0021038486 -0.43825302 -0.09841501 -0.040799942 0.1237766 -0.091587126 0.085177615 -0.02525778
0.033513263 -0.16409978 0.035884626 -0.0052326205 0.29050827 0.18265328 -0.020718768 -0.16263275
-0.15901095 -0.046086013 -0.070801094 -0.14168166 -0.029433612 0.03164576 -0.06282749 -0.36620608
0.04137139 -0.0072265826 0.111167476 -0.26789844 0.049810853 -0.12176658 0.048659053 0.080980286
-0.05987868 -0.1676558 0.10274474 0.04011926 -0.095525645 -0.012870459 -0.010029417 -0.02734878
0.04567079 0.04929686 0.006372965 -0.041961465 -0.03059446 -0.0011346258 -0.18681607 0.04374791
-0.06435239 -0.025459249 -0.12909204 -0.22238524 0.0892608 0.01731394 0.15953141 0.18026958
-0.11115718 -0.033343486 0.117612004 -0.056395628 -0.1265891 0.11115469 0.057060204 -0.093369156
-0.11626681 -0.050862253 -0.22786568 -0.050281785 -0.010983779 -0.028226092 0.106206656 -0.16381192
-0.1428249 0.00086392905 -0.27142 0.03930454 -0.07426967 -0.044728268 -0.06392106 0.0194121
-0.14763065 0.10913874 -0.23069622 -0.0554986 -0.28709215 -0.035095382 -0.025643934 -0.086955905

linear3.bias f4 [256]
00000000: 0891 90bd f238 e83a 1737 e3bd e04a 8e3c
00000010: 3ae7 a4bd cb2e d0bb 8d8e 51bc cad5 013d
00000020: 77c7 4f3d b7d9 b4bd 87f7 9fbd 89f5 333d
00000030: f77d 093b 05f6 5b3b afe0 dc3d f502 1cbd
00000040: 0c2a 62bd ec9e f2bd 823d 6cbc 7d1c a4bd
00000050: 5526 923a e9fc b9bd 3171 bc3b 5d53 28bb
00000060: 7d9b 913b d91f 8abc 34cc e73d dcc5 06bc
00000070: 0b98 71bd ef74 093c f0fa 0dbd e7f9 d13e
00000080: 8832 44bd ab8f 0b3d 72ef c6bb 2f84 6abd
00000090: e072 39bd ee4e 253b a51a 28bd 1d20 3e3d
000000a0: a9e4 ee3c 6cd4 68bd e817 dfbc cbaf 8b3b
000000b0: 2fae fd3d 4543 893d 3069 913b ba8a 42bd
000000c0: 489d a83c a0e5 65bb 3fe3 94bc 6de2 a7bb
000000d0: ba4e 1f3b 31de 4ebd e9dd 69bc c9f0 5bbc
000000e0: bd36 d13c e11c 64bd 88e1 66bd 79fd 85bc
000000f0: 3fe8 00bd ee22 4f3e 08ca 8e3d adb1 8ebb
00000100: 5610 a33d 4c35 17bd 8bc4 54bd d386 073e
00000110: 06ba 863b bfd5 c1bd 8337 c0bc bfa5 cebc
00000120: af10 48bd 046b ed3d 7c7b d43c 30ca 8d3c
00000130: 1a61 48bd 7a20 993d eb1c 21bd 0f0e 873e
00000140: 15b4 4abc 36b8 903d 3ba7 5fbd 26ce 4ebc
00000150: 0d73 d9bd 6e13 3f3d a65b cbbb a357 27bd
00000160: ebe8 16bd 9f38 19bc a5d8 fc3b dcfb 0fbd
00000170: 93dd 87bd dc21 3dbc 82e7 c83c 5b34 093d
00000180: f7ca f9ba 6f08 c23c fce3 7c3d a48d a5bd
00000190: 813c 8dbd 004b c63c f34d bb3c 2bc6 d9bc
000001a0: 6b4c 06bd 2cf2 e93c 86a1 02bd b0b9 7cbc
000001b0: 3e7c 483b fded ba3c 557e 013d 750c eebc
000001c0: f17e d13d c0ac 883d daf1 823d 5c35 153c
000001d0: f374 87bc f86c f8bd d414 7dbc 4c69 c23b
000001e0: fc71 13be 4f73 fa3d b1ae 40bc 0cf9 e53c
000001f0: 4818 06be 8cf5 d7bd 4a24 aa3c 7de1 a73c
00000200: c5a7 3abd 063e 4a3c ee73 e2bd 0cfa 523e
00000210: b868 08bc 3235 b93d e5d4 2bbc 4183 103d
00000220: d76e a03c 1b98 b53d 43e5 26bd 4ad8 8ebd
00000230: 01a0 7abd 1843 863d a3ec 4fbd 57d5 693d
00000240: 2592 3b3d 5169 e13c f4b5 73bd 62f8 acbc
00000250: ea3d e93d bd90 5ebd 99d1 60bd eef6 333d
00000260: 8f7f 87bd b34b 97bd a904 dd3c f2cb 9f3c
00000270: 2cd5 d2bc 239f b2bb f295 a9bd 194e 283b
00000280: 13b1 da3d c7d3 383d 3c46 aebc fe53 a63c
00000290: 6326 c3bc 3d87 6bbd 415a 15bd c6e7 51bd
000002a0: acf4 f63c 3620 483c cdfa c1bc cf57 843d
000002b0: 7744 b1bd 0621 31bd d3f2 943b e1b4 fb3b
000002c0: bf0d 80bd 77f9 5abd 5b5d 62bc d108 ac3d
000002d0: 5be7 e3ba f927 ed3c 5d5c cfbd ae6c c5bc
000002e0: b28b 8fbd 98db a2bd 35a6 a33c 37a7 bdbc
000002f0: 4cc2 903d 2a6b 173e f030 853d b77e 4d3c
00000300: 6364 afbb 0d75 79bd 1b46 8ebc d3bd 8e3c
00000310: dfee 9c3d 721a a03d aff7 6a3c 56cc 843d
00000320: 236d aa3c d618 21bd 51e2 b33d 8ec7 27bd
00000330: 5bf7 ed3a 0934 b0bd d52e 723c 7f77 e03c
00000340: 52f4 fe3a dc18 52bb ca8f 963d e570 863d
00000350: 2807 093d c901 633d b9e9 c83b 0256 3cbd
00000360: 4fea 17bd a9a6 2b3d ccd8 9dbc 94cf 2dbc
00000370: 9ccf 34bd 4f35 d1bc 2c77 fbbb 048b 4ebd
00000380: 26b3 193b 0935 263d c6dc 07be 6001 4e3c
00000390: b66f 333d 6aeb 3cbd 2c6e 2c3e 5289 c6bc
000003a0: 286c df3c f1af 973d 57a6 98bd 4218 13bd
000003b0: 4e91 063c 7ad6 11be 80aa 60bd b30c 72bd
000003c0: 1f13 423d c071 8d3d 4917 9b3c f27c 40bc
000003d0: 118a dcbc 8744 0f3d b18b 953c eddf 4abd
000003e0: 65cf b0bc 69e6 3c3d a573 95bd 1a5a fbbc
000003f0: e6e2 4cbd 6e29 793c d18c a4bc 3651 a1bd
-0.070589125 0.0017717166 -0.11094492 0.017369688 -0.080519155 -0.0063532344 -0.012790334 0.031698026
0.050727334 -0.08830588 -0.07810884 0.043935332 0.0020979622 0.0033563387 0.107850425 -0.038088758
-0.05521588 -0.11846718 -0.0144189615 -0.08013246 0.001115034 -0.09081442 0.005750798 -0.0025684454
0.0044435845 -0.01686089 0.113182455 -0.008225884 -0.05898289 0.008389696 -0.03466314 0.41010973
-0.047899753 0.03407256 -0.0060710246 -0.057254966 -0.04527557 0.0025224048 -0.041041035 0.046417344
0.029161768 -0.056843206 -0.02723308 0.0042628995 0.123867385 0.06702284 0.004437588 -0.04749558
0.02058281 -0.0035079494 -0.018174766 -0.0051234276 0.00243084 -0.050504867 -0.014274099 -0.013424107
0.025538797 -0.055691604 -0.056367427 -0.016356217 -0.031471487 0.20228168 0.06972128 -0.0043546767
0.079621 -0.036916062 -0.05194525 0.13235025 0.004111531 -0.09464597 -0.02346397 -0.025225518
-0.048844036 0.11592677 0.025937788 0.017308325 -0.04892073 0.074768975 -0.03933422 0.26377913
-0.012372036 0.070663854 -0.054602843 -0.012622392 -0.10617647 0.04664939 -0.0062059937 -0.04085506
-0.03684322 -0.009351878 0.0077162557 -0.0351523 -0.06634059 -0.011543717 0.024524454 0.033497196
-0.0019057681 0.023685662 0.06174086 -0.080836564 -0.06896306 0.024205685 0.022864318 -0.026583752
-0.03278772 0.02855786 -0.031892322 -0.015425131 0.0030591632 0.02281856 0.03161462 -0.029058674
0.1022929 0.066735744 0.06393786 0.00910696 -0.016535258 -0.12130159 -0.01544686 0.0059329625
-0.1439895 0.122290246 -0.0117604 0.028072856 -0.130952 -0.10544881 0.020769257 0.020493263
-0.045570154 0.012343889 -0.11057268 0.20603198 -0.008325748 0.09043349 -0.01048777 0.035281423
0.019584103 0.088669024 -0.040745985 -0.069748476 -0.061187748 0.06555766 -0.050762784 0.057088222
0.04579367 0.02751604 -0.059499696 -0.021114532 0.11388762 -0.054337252 -0.054887388 0.043936662
-0.06616127 -0.07387485 0.026979761 0.019506428 -0.025736414 -0.0054510995 -0.08280553 0.0025681315
0.106783055 0.04512384 -0.021273725 0.020303722 -0.023822015 -0.05750202 -0.036463026 -0.051246427
0.030145966 0.012214711 -0.023679161 0.06462061 -0.08655637 -0.043244384 0.0045455485 0.0076814746
-0.06252622 -0.053460564 -0.013816203 0.08400119 -0.0017387675 0.028949725 -0.10125039 -0.024099674
-0.07009067 -0.079520404 0.019976715 -0.023151023 0.07068309 0.14786974 0.06503475 0.012542418
-0.005352543 -0.060902644 -0.017367413 0.0174245 0.076627485 0.07817544 0.014341279 0.064842865
0.020803994 -0.039330326 0.08783401 -0.040961795 0.0018155383 -0.08603675 0.014781673 0.02740073
0.0019451475 -0.0032058274 0.07351644 0.06564502 0.03345409 0.055421624 0.0061313775 -0.04598046
-0.03708869 0.041906986 -0.019268416 -0.0106085725 -0.044143304 -0.025538115 -0.0076741185 -0.050425544
0.0023452728 0.040577922 -0.13267812 0.01257357 0.043807708 -0.046122946 0.16838902 -0.024235401
0.027273253 0.07406605 -0.07453602 -0.035911806 0.008213354 -0.14241973 -0.0548501 -0.059094142
0.047381517 0.06906462 0.018932002 -0.011748539 -0.026921304 0.034977462 0.018255087 -0.04952996
-0.021583268 0.046118174 -0.07297448 -0.030682612 -0.050021075 0.0152076315 -0.020086678 -0.07876818

mean_linear.weight f4 [3, 256]
00000000: 70a0 be3e 133f 03be 0532 02bb 9f04 87bc
00000010: d60d 0b3f 3bb1 bdbe 4413 a0be dece f1bc
00000020: 83f3 1e3e 161c 3a3e 5cc3 11bf 8982 c4bd
00000030: 47cc 94bd 0201 35bd 5d7c 8a3d fc8a 9e3e
00000040: a657 f6bd 86ac e8bb 9bf7 81be 2de2 853e
00000050: 8f99 863d e57e 15bd f89c dd3d f62f 6cbe
00000060: 3e08 a33e 568b 8dbe 761a 603c 4b8d 0c3e
00000070: b020 57be 0047 a6bd 2d94 03be 9575 de3b
00000080: c54d 473e 827b 7dbd f70c 3d3e d000 7f3d
00000090: 80b2 503e 8fa5 dcbc e8ed ff3d 6f66 953d
000000a0: 8bc3 78be 674d 5abe 56a2 88be f3f8 0d3e
000000b0: 5656 8e3e c53f b63e 86fe 813e 33af 09bb
000000c0: 8883 80be 44ca c73d 9541 01be 9ec9 9e3e
000000d0: fc1b bdbd d6b7 be3d 505d 2fbe b522 c8be
000000e0: b131 d1be 7f98 1c3e a1e1 003e 5f76 8b3e
000000f0: 9969 093e eae5 57bb 36a2 d6be 5a00 5a3e
00000100: 3fc5 f93e 1223 83bd 8508 933d 46b1 023e
00000110: 6907 a1bd 3d60 69be 85d7 adbd 7c96 cfbe
00000120: 28ad cabe a087 f63d 4347 dcbd d0d2 a8be
00000130: 8a6b a03e 76fc 293e d190 0e3f 74fa 3b3c
00000140: 791e 813e 8d79 2dbe cf33 a0be 3538 9bbe
00000150: bed2 48bd e159 1d3e e1c9 cdbe fbbf 273e
00000160: 8602 993e 9b76 dbbd 31f2 6ebe e0c1 483e
00000170: d662 a3be 5281 f3bc 4904 fcbd a927 80be
00000180: 958d febe 2e26 48be 98c0 36bd b461 ce3d
00000190: 28e8 6cbe 5118 a0be ebf3 7ebd 69e9 5a3e
000001a0: 679f 31be 6c3e 3e3e 8ad1 3d3e 8624 83be
000001b0: 8ad3 d1bc 67b0 6bbe 1f0c 3bbe 3cae 9e3e
000001c0: 7326 c23d 8eeb 23be 5d84 59bd fff7 cb3e
000001d0: 39c9 eabc a556 fa3e 6342 99bd 4a30 653e
000001e0: b558 8d3e f955 96bc cad8 bb3d 606d 15be
000001f0: 3a2c e83d 0a8b bbbd f913 dfbd fbf7 d6be
00000200: fbf7 723e 79bc 2cbe e363 6fbe 142d b8bc
00000210: b905 ee3e 6b40 1ebe f497 1c3e 6a2d 00bf
00000220: e307 e5be eacc 3bbc eae9 1f3d c68c 123e
00000230: d474 243e 3161 eabc c7f4 c4bd 9f05 9dbc
00000240: 3736 603d 3254 53be 4ac7 06be 006f 89bd
00000250: 0a4d b63d 8070 3c3e a3e3 a3be 4635 193e
00000260: e512 b8bb 510f ab3e bc92 a53e f298 1a3e
00000270: 572f edbe ff1b 043f fec3 ab3d 90bb 2cbe
00000280: e9c8 a23c b034 d5bd a50b bcbe 9aaf c53d
00000290: 5ab0 98be 89c4 cabe 8ddc 163d ce53 b1be
000002a0: baca fe3d 1d37 2c3e b2f9 9c3d 9d26 3a3e
000002b0: 9709 cc3e f7ef 713e 220f 29be e934 e73d
000002c0: 1a96 0d3f 10c5 f23e cbb6 f1bd 73fb 2a3d
000002d0: 4e37 883e ac30 b8be 9b75 afbe b66b 58be
000002e0: f28c 3e3e ad4f bdbd 0232 823d a486 e4be
000002f0: be34 243d 4ea4 6f3c 2322 8d3d 626c ebbe
00000300: 747c 593d c7e9 c4be 590d a13e 38b6 303e
00000310: 3728 fd3d a873 063f f919 09be 5211 283c
00000320: 67af d73e 82b2 99be c3c1 b93d 821e 073e
00000330: 552b 7ebe ddcb ed3e f13e 283e 8739 a8be
00000340: 27c3 7abe cfa0 ba3e 5057 3cbf 0320 bcbc
00000350: a470 b23d bc13 e2bd 8a16 8e3e 458c 8bbe
00000360: 0738 10bc 36f0 6dbd 6099 b23d bd69 7a3e
00000370: aa5e a9be 4964 58bd a166 1a3e 64c9 1a3f
00000380: c3f2 56be c92e a33e 09bf 753e ba2e aebe
00000390: 0db7 bd3e d66e 933d 29a6 a8bd afda 6f3e
000003a0: 29c9 033e fb45 293e 3f35 763d 311c 60bd
000003b0: 771f 583e 2c2e 1b3d a1a2 16bf ab56 23be
000003c0: 3d84 59bd 1069 273e e2ea 183e e47f 6f3e
000003d0: 157e 41bf d872 2abe 95fd a9be d76d fcbe
000003e0: afd5 1abe ecf1 d5bd 6dad b2bd b841 22be
000003f0: 2e72 083e 03c4 4cbe e00a 00be 7b7c 863e
0.3723178 -0.1281703 -0.001986624 -0.016481696 0.54317987 -0.3704928 -0.31264699 -0.029517587
0.1552258 0.18174776 -0.5693872 -0.0959521 -0.07265525 -0.044190414 0.06762002 0.30965412
-0.12028436 -0.0071006445 -0.2538422 0.2614912 0.06572258 -0.03649797 0.10820955 -0.2306517
0.31842226 -0.27645367 0.013678184 0.13725774 -0.21008563 -0.08119011 -0.12849493 0.006788919
0.1946326 -0.061885364 0.18461977 0.062256634 0.20380592 -0.026934413 0.12496549 0.07294928
-0.24293344 -0.21318589 -0.26686352 0.13864498 0.27800244 0.35595527 0.25389498 -0.0021008968
-0.2510035 0.09755376 -0.12622674 0.31013197 -0.09233853 0.09312408 -0.1712544 -0.3908898
-0.40858224 0.15292548 0.1258607 0.27238747 0.13419189 -0.0032943436 -0.41920632 0.21289197
0.487833 -0.064031735 0.07179359 0.12762937 -0.078627415 -0.22790618 -0.08488373 -0.40544498
-0.39585233 0.12037587 -0.107557796 -0.32973337 0.31332046 0.16600212 0.5568972 0.011473287
0.2521856 -0.16940899 -0.31289527 -0.3031632 -0.049029104 0.15366317 -0.40193084 0.16381828
0.29884738 -0.107159816 -0.23334576 0.19605207 -0.31911343 -0.02972475 -0.12305505 -0.25030258
-0.49717394 -0.19545814 -0.044617265 0.10077229 -0.23135436 -0.31268552 -0.062244337 0.21378101
-0.17345963 0.185785 0.18536964 -0.25613803 -0.025613565 -0.23016511 -0.18266343 0.30992305
0.0947999 -0.16007826 -0.053104747 0.39837644 -0.028660404 0.4889423 -0.074833654 0.22381702
0.2760674 -0.018351542 0.091722086 -0.14592505 0.113365605 -0.09157379 -0.10892481 -0.4198607
0.2372741 -0.16868772 -0.23377948 -0.022482432 0.4648874 -0.15454261 0.1529234 -0.50069296
-0.4473258 -0.01146243 0.039041437 0.14311513 0.16060191 -0.028610798 -0.09617 -0.01916772
0.054739203 -0.20637587 -0.1316196 -0.06710625 0.08901413 0.1840229 -0.3200961 0.14961728
-0.005617487 0.33410123 0.32338512 0.15097407 -0.4632518 0.5160522 0.08386992 -0.16868424
0.019871192 -0.1041044 -0.36727634 0.09652634 -0.29822046 -0.3960307 0.036831427 -0.3463425
0.12441011 0.16817899 0.07664813 0.18178792 0.39851066 0.23626696 -0.16509679 0.11289389
0.5530716 0.47415972 -0.11802443 0.041743707 0.26604694 -0.35974634 -0.34269413 -0.21134838
0.18608454 -0.092437126 0.063571945 -0.44633973 0.04008936 0.014626576 0.06891277 -0.45981127
0.053097203 -0.38459608 0.31455496 0.17257011 0.12361186 0.5252023 -0.13388814 0.010258036
0.4212601 -0.30019003 0.0907016 0.13195232 -0.24821217 0.46444598 0.1643026 -0.3285639
-0.24488507 0.36450812 -0.7357073 -0.022964483 0.08712891 -0.1103892 0.2775157 -0.27255455
-0.00880242 -0.05809041 0.0872066 0.24454398 -0.33080035 -0.052830014 0.15078212 0.6046355
-0.20991044 0.31871632 0.23998655 -0.34020025 0.3705372 0.07198875 -0.082348175 0.23423265
0.12869705 0.16530602 0.060109373 -0.054714385 0.21105753 0.03788583 -0.588419 -0.1595103
-0.053104628 0.16348672 0.1493335 0.2338863 -0.7558301 -0.16645372 -0.3320128 -0.4930255
-0.15120576 -0.104465336 -0.087244846 -0.15845382 0.13324806 -0.19996648 -0.12504148 0.26266846

mean_linear.bias f4 [3]
00000000: 07ef a8ba 844d 94bc 714b 423c
-0.0012888619 -0.018103369 0.011858807
