hydrone_aerial_underwater_ddpg/scripts/Models/sac_stage_1_air3D_tanh_4layers/680_policy_net.pth (torch_old, 561675 bytes, 10 tensors)

linear1.weight f4 [256, 26]
000000 3b a2 2e be 3c cf f7 bd 15 f4 38 3c f0 72 1e be
       -0.17054074 -0.12100074 0.011288662 -0.15473533
000010 4a cb 8a be 3a bb 24 be 5c 84 78 be ca 52 36 be
       -0.27108222 -0.16087046 -0.24269241 -0.17805019
000020 1d 3e 95 be 8d b2 a3 be 00 df e6 3b bc 58 30 be
       -0.2914895 -0.3197216 0.0070456266 -0.1722135
000030 bc f5 c1 3c bc 4b c0 3d 5b 9d 06 3e 4d 35 7c 3e
       0.023676746 0.09389445 0.13145964 0.24629708
000040 38 5d 81 3e 4b 8c 98 3d b6 8d 67 3e 55 c2 0d 3e
       0.25266433 0.07448634 0.22612652 0.13843663
000050 38 a7 46 3d dc 06 b5 3e f0 4d 8f be a1 b5 82 3f
       0.048499316 0.35356796 -0.2798915 1.0211679
000060 e7 9c a2 be fa 83 e8 3d 9f 98 cc bd be 5e 11 bd
       -0.31760332 0.113532975 -0.09990048 -0.035490744
000070 6a d9 d0 bd 80 c7 02 be 6e 6c a9 3d a4 55 76 bd
       -0.101977184 -0.12771416 0.082726344 -0.060140267
000080 5b e9 d1 bc a9 af e8 bc 81 c1 e1 bd 1e 24 3b bd
       -0.025623968 -0.028404074 -0.11023236 -0.04568874
000090 e7 87 c3 3d 26 44 87 bd 4b 93 54 bd 61 c8 11 be
       0.09547406 -0.06604795 -0.051898282 -0.14236595
0000a0 22 01 fc 3d 79 86 f0 3d bf cd 10 be 59 a1 cf bc
       0.123049036 0.117443986 -0.14140986 -0.025345491
0000b0 2c 9a 67 bd 21 20 1a be 0c 2f 0b be 51 de 07 3d
       -0.056543514 -0.15051319 -0.13592166 0.033171
0000c0 8e 8c 9b 3d 70 ee 1c be 82 a5 e5 3c da 01 86 3d
       0.07595168 -0.15325332 0.028033022 0.06543322
0000d0 07 dd ef bb 00 8f a8 bc ec b6 c7 bd 70 23 1c bc
       -0.0073200497 -0.020576 -0.097516865 -0.009529933
0000e0 e1 19 23 bd e2 d5 23 be 58 7b aa 3d 85 bf 08 bd
       -0.039819602 -0.15999559 0.08324307 -0.033385772
0000f0 fc 5f 7b bd cd 78 e0 bc 11 20 d1 bd 17 5c c2 bd
       -0.061370835 -0.027401352 -0.10211194 -0.09490221
000100 02 dd 84 bb 97 1d 2e be 5f f0 c5 3b d4 e9 1d be
       -0.0040546665 -0.17003475 0.0060406174 -0.1542123
000110 cf e5 63 bd 1a 1d 90 3c da a7 ea bd 53 33 c1 3d
       -0.055639084 0.017592002 -0.114577964 0.094336174
000120 4d 04 f4 3d f8 1a c3 bc 0d c5 0d bc f8 e2 83 3d
       0.11914883 -0.02381657 -0.008652938 0.06439775
000130 70 7f ac 3d f8 27 2e be 32 cc 11 bd dd bf 81 3c
       0.08422744 -0.17007434 -0.035595126 0.015838558
000140 bf e7 4b be ff 16 48 be 07 07 a3 bd c1 3d 6a 3c
       -0.19912623 -0.19540022 -0.07960325 0.01429695
000150 c6 13 89 bd f5 1e 39 bd 42 95 1b be 24 01 81 be
       -0.066932246 -0.04519554 -0.15193656 -0.25196183
000160 8a 65 9e be 88 9b 35 be 24 27 0e be 4d 20 48 be
       -0.30936843 -0.17735112 -0.13882118 -0.19543572
000170 9f 68 a5 bd 3a 59 1e be b4 fe 83 bd 0e 47 8a 3d
       -0.080765955 -0.15463725 -0.06445065 0.06751834
000180 09 f5 5d 3e f9 c9 22 3e 3d b7 b7 3e 84 da ae be
       0.21675505 0.15897359 0.35881987 -0.3415109
000190 33 f3 82 bf c6 4e ab be f5 9a 0b 3f 65 ce ab be
       -1.0230469 -0.33458537 0.5453332 -0.33555904
0001a0 66 d6 6d be 1e 5d c3 3d 7d f2 41 3e 8e 9d ba 3d
       -0.23226318 0.09539245 0.18940158 0.091120824
0001b0 10 85 5a be e3 93 68 be 58 01 00 bd ab b9 61 be
       -0.21339822 -0.22712664 -0.03125128 -0.22043483
0001c0 d4 ca 23 3d 6d ad b6 bc 87 26 85 3e 24 59 11 3e
       0.039988354 -0.022299493 0.26005957 0.1419416
0001d0 e0 57 56 bc 57 9c 17 be d0 b2 87 be 43 18 ea 3b
       -0.0130824745 -0.14805733 -0.2650361 0.0071440055
0001e0 dd b7 8c bd 70 2e 90 3c 8d 00 3d 3e 88 ca e5 3d
       -0.06871007 0.017600268 0.18457241 0.112202704
0001f0 57 6f a4 be dd 9b 4b bf 94 f9 24 bf 79 b2 12 be
       -0.32116196 -0.79534703 -0.64443326 -0.14325894
000200 52 39 32 bf 01 89 4e 3e 1b 42 ac 3c 02 d2 0b 3e
       -0.69618714 0.2016945 0.021027615 0.1365433
000210 aa a1 ee bd ca 5a 5c bd b1 23 84 3d d1 1d 28 3e
       -0.11651929 -0.05379752 0.0645212 0.16417624
000220 1a ff de bc 46 30 fa ba 41 7a 8c 3d 32 5b 3b be
       -0.027221251 -0.0019087873 0.068592556 -0.18296507
000230 d2 f7 4d be 86 2d de bd 26 e0 a9 3d 3a 2b 65 bd
       -0.20114067 -0.10848527 0.08294706 -0.055949427
000240 fe da 5a 3e 85 30 12 3e 20 32 4f bd e9 14 a5 3d
       0.21372601 0.14276321 -0.050584912 0.08060629
000250 42 f0 01 3b 29 c2 38 be d1 4e c9 3e b2 3f 0d be
       0.0019827043 -0.18042816 0.39317945 -0.13793829
000260 db 43 90 3e 2a 80 58 be 12 e0 a3 3f b3 b7 48 bf
       0.2817677 -0.2114264 1.2802756 -0.784053
000270 b3 eb 73 3e 7e ec a3 bd a9 01 ad 3d 23 3a bf 3d
       0.23820381 -0.08004092 0.08447582 0.093372606
000280 f7 d6 92 3e 1d 2c fa bc aa 9f 59 3d a4 68 45 3e
       0.2867963 -0.030538613 0.053130783 0.19278198
000290 73 42 dc 3d 6a 89 55 3e 47 37 57 3e cd 8f 57 3d
       0.10754862 0.208532 0.2101718 0.052627373
0002a0 87 3c 76 be 7e e2 0c be a2 20 81 be b6 31 bc be
       -0.24046527 -0.13758275 -0.2522021 -0.36756676
0002b0 0e 59 25 be b9 7c 10 be 56 27 ab be 76 eb 46 be
       -0.16147253 -0.14110078 -0.33428448 -0.19425759
0002c0 ae 97 61 bf c6 f7 a3 bd 8c 0c 09 3e 5b c9 07 bf
       -0.8812207 -0.080062434 0.13383693 -0.5304162
0002d0 c5 ce d5 be a3 40 be 3e 4d cc 05 be 4a 44 a2 bd
       -0.41759315 0.3715869 -0.13066216 -0.07923181
0002e0 24 8f ab bc 2c f5 6a bd 41 47 97 bc 23 23 65 3e
       -0.020942278 -0.05736272 -0.018466594 0.22376685
0002f0 7a ab 4a 3e ac 93 15 3c 39 cf d3 bc c7 47 e7 bd
       0.19791976 0.009129446 -0.025855647 -0.11292987
000300 75 0f 16 3e 27 a3 42 3e ff 9e 0d bd ba 31 af bd
       0.14654334 0.1900755 -0.03457546 -0.085544065
000310 fb a9 23 3e 12 a4 ca 3d d1 31 e0 bd 0f fe 3d bd
       0.15982811 0.09894575 -0.10947002 -0.046384867
000320 88 47 70 3d fd d7 89 bd a3 ab 3c 3f 65 fd 1d 3f
       0.058661968 -0.067306496 0.73699397 0.61714774
000330 7d b1 bb 3e 21 72 12 3b 7e 2b 14 bf 5a e8 43 bf
       0.3665885 0.0022345858 -0.57878864 -0.76526415
000340 c2 3d 8d bd 25 d0 66 3d 35 10 0c 3e c2 d6 05 3d
       -0.06896545 0.056350846 0.13678057 0.032675512
000350 9e 35 27 bd c5 4b 79 bd 6a 4f 33 bd 2d cc 49 bd
       -0.040822618 -0.060863275 -0.043776907 -0.049266983
000360 dc 8b 6e 3e 13 cc 5d bc 91 6b 5d bd fc 65 2b be
       0.2329554 -0.013537425 -0.05405766 -0.16738123
000370 bd 76 56 be 3c 42 86 be 1c 34 8a bd b6 4d 3c be
       -0.20943733 -0.26222408 -0.0674822 -0.1838902
000380 57 b1 2e bd 0b a1 80 3e eb a4 17 3e c7 c2 09 be
       -0.042649593 0.25122866 0.14809005 -0.13453208
000390 f4 fd 38 3f 46 27 0f bd 5d 6a 8e bb 98 5f 48 bf
       0.722625 -0.034949563 -0.0043461756 -0.78270864
0003a0 5f d7 81 3e 17 e6 a9 3e 00 99 73 3c 18 b9 6b bd
       0.25359628 0.33183357 0.014868021 -0.057549566
0003b0 cc 9d 1c 3d d0 ef 49 bc 04 bf 0f be 53 bc 83 bd
       0.038236424 -0.012325242 -0.1403771 -0.06432404
0003c0 e8 0f 40 3d b0 55 00 bc 4f be 81 bd 00 48 95 b9
       0.04689017 -0.0078329295 -0.063351266 -0.0002847314
0003d0 b0 86 07 3c 48 5c 0f be d4 c5 24 3d 43 2d e5 bd
       0.008271858 -0.14000046 0.040227726 -0.111902736
0003e0 69 ea d8 bd ca c3 6a bd 0d f4 e2 bd 6c df 7d 3d
       -0.10591585 -0.057315625 -0.11081705 0.06198065
0003f0 5c 43 b8 bd 18 a1 38 3d a0 7f 58 3d 60 78 b2 3c
       -0.08997223 0.045075506 0.052856088 0.021785915

linear1.bias f4 [256]
000000 28 84 4b 3d c0 24 95 bc 8a 01 06 bd bb e1 a8 3c
       0.04968658 -0.018206 -0.03271631 0.02061545
000010 af c6 3a bd cc 30 25 bc 2a ba 0e 3d 0d d9 4d bd
       -0.045599636 -0.010082435 0.03484551 -0.050255824
000020 3d c0 26 bc 00 00 00 00 f9 b0 2d bc d0 d2 31 3e
       -0.010177669 0.0 -0.010601276 0.17365575
000030 fb 3a 34 3d 30 ea a3 ba 17 bb 1d bd 4e 63 1b bc
       0.04400156 -0.0012505706 -0.0385085 -0.009484125
000040 d2 6a 7c 3c e9 96 8c bc c3 fe 1e bd 42 4b ca ba
       0.015406327 -0.017161803 -0.03881718 -0.0015433806
000050 3c b9 62 bd 9e 0b 53 3d f6 18 4b bd 00 00 00 00
       -0.055352435 0.05152475 -0.04958435 0.0
000060 8d 99 a5 3c 3c 96 f8 39 11 0d 04 3d 34 12 0e bd
       0.02021482 0.0004741418 0.032239024 -0.03468533
000070 00 00 00 00 7b 52 c8 3d b5 62 7a 3d 34 ff 3e 3c
       0.0 0.09781357 0.06112929 0.011657525
000080 f5 1d 7a 3d 1c 6f c4 bc e9 fc ef bc 23 7c 24 bc
       0.061063726 -0.023978762 -0.029295402 -0.010039362
000090 b6 39 63 bb 09 c0 28 bd 31 6a 33 3c 73 ff 00 bd
       -0.003467185 -0.041198764 0.010950611 -0.031493615
0000a0 8a 4d 1d 3b 23 bb 4b bb 0a f7 0f bd e1 9a 64 3b
       0.0024002516 -0.0031086884 -0.035147704 0.0034882354
0000b0 e5 76 13 bd 6e c8 5f bc 0d 4c 49 bd 5c c8 de bc
       -0.03600206 -0.013658626 -0.049144793 -0.027195148
0000c0 ed 27 8d bd f5 3d 70 3a f6 aa 81 3d 5e 89 6a 3d
       -0.06892381 0.0009164506 0.06331436 0.05725991
0000d0 3e 9c 38 bd 16 37 81 bc e6 7f 4c 3c a7 7b 02 bd
       -0.04507088 -0.015773337 0.012481665 -0.031856205
0000e0 a2 8f 30 bd 74 84 36 bc 51 be 95 ba dc 20 80 3d
       -0.04310573 -0.011139978 -0.0011424517 0.062562674
0000f0 21 f8 27 3b 0b 4d 84 bc 43 c4 1b bc ed 3f 78 bc
       0.0025630074 -0.016150018 -0.009507242 -0.01515196
000100 c7 ce 0b bc 15 d7 f1 bc 7f fc 34 bc ce 04 18 bc
       -0.008533186 -0.029521504 -0.011046528 -0.009278489
000110 47 22 ec bc 1a 57 55 3d 42 ce 75 ba 2a 15 7e 3d
       -0.028824938 0.05208502 -0.0009376743 0.062031902
000120 4c 6b 39 bc 59 77 c3 3d a1 74 ce 3d e6 4a 2c ba
       -0.0113170855 0.09544248 0.10080839 -0.000657244
000130 aa 87 ae bd 70 e9 3a bd a6 4b 2e 3e 22 6e 6d bd
       -0.085219696 -0.04563278 0.17021045 -0.05796636
000140 6a 97 f3 3c 79 e8 85 3b 56 eb 49 3d 7f d7 68 bd
       0.029735286 0.004086551 0.0492967 -0.056846138
000150 e9 62 d0 3c 1a 39 93 bd f2 c3 39 3d 6c 57 9b bc
       0.025437789 -0.07188626 0.045352884 -0.018962584
000160 c5 68 0c bb a0 03 65 3a c3 b8 d1 bc 06 81 23 bd
       -0.0021424752 0.0008736197 -0.025600797 -0.03991797
000170 c9 ae d3 3d c1 da af bc df ee 4d bd c8 93 6a bd
       0.10336072 -0.021466615 -0.050276633 -0.05726984
000180 43 e2 ae 3c 8e 35 59 bc f3 f0 58 bd 40 d5 9c 3a
       0.021348124 -0.013257397 -0.052964162 0.0011965409
000190 06 10 45 3e 45 76 7e 3d 2c 1e 1d bd ad 1b d1 bc
       0.19244394 0.06212451 -0.038358852 -0.025525892
0001a0 70 5e 2f bd 00 00 00 00 f0 ec 98 bd ba f7 53 bd
       -0.042814672 0.0 -0.07467067 -0.051749922
0001b0 d7 0b 3d bd b4 9d 5c bc f1 a9 83 bc e1 2b 19 bd
       -0.04615387 -0.013465334 -0.016072245 -0.03739536
0001c0 5e f0 a4 3d dc 39 17 bd 80 b5 75 bc 78 90 35 bd
       0.08053659 -0.036920413 -0.014996886 -0.04432723
0001d0 e9 af 8c bc da d2 97 3d 28 fc a4 3d 0d 44 3a bd
       -0.017173724 0.074132636 0.080559075 -0.045475055
0001e0 01 be a0 bd 5f 77 00 bd 4b 77 95 3d db d1 80 bd
       -0.0784874 -0.03136384 0.07298144 -0.06290027
0001f0 98 ae 83 bd a3 fa be 3d 8c 87 dc 3d 9c bd c3 bc
       -0.064297855 0.09325149 0.10768041 -0.023894124
000200 a9 70 9a bd 07 94 dc 3c ad 12 14 3b 7d bc cf 3c
       -0.075410195 0.026926054 0.002259414 0.025358433
000210 a8 e7 3a 3d 21 e0 db 3c e7 e0 45 3d 6a 93 bf bc
       0.04563108 0.026840271 0.048310187 -0.023385722
000220 8b 8a 9b bc c2 0e 1e 3e 83 63 4c bc f8 96 31 bd
       -0.01898696 0.15435317 -0.012474897 -0.043356866
000230 2f d8 c4 bb d5 16 64 bc 8d 4e 1b bc 32 06 0d bc
       -0.0060072164 -0.013921459 -0.009479177 -0.008607434
000240 5a 84 73 bd 8f 34 a3 bd 2c b8 2e 3b 37 1c 89 bc
       -0.059452392 -0.07969009 0.0026660068 -0.016737087
000250 b9 d2 9d bc 5b 7d 8d bd 9b b2 b2 bd 00 43 d2 3b
       -0.01926552 -0.06908675 -0.087254725 0.0064166784
000260 b7 52 ea bc 4d 76 1d bd d1 f7 87 3c 8d 5c 03 3c
       -0.028603895 -0.0384429 0.01659766 0.008017671
000270 d6 4d a4 bc 9c 96 d9 bc 19 c8 8d bd 06 e3 64 bd
       -0.020056646 -0.026561074 -0.06922931 -0.05588057
000280 19 6e d8 bc 0c ec 1f bc 30 04 b0 3c 78 b9 32 bb
       -0.026419686 -0.009760868 0.021486372 -0.0027271193
000290 2a 56 56 bd ab ae f7 3d 60 a1 00 bc 04 2e c3 3d
       -0.052328266 0.12093862 -0.007850975 0.09530261
0002a0 4a 7d f8 bc db f0 47 bc 27 82 dd bc 2f 69 85 3b
       -0.03033318 -0.0122034205 -0.0270396 0.0040713768
0002b0 31 81 e5 bc c6 1e d2 3d 12 7a 48 bc f7 38 51 bd
       -0.028015705 0.10259776 -0.012236135 -0.051079717
0002c0 67 fb c0 bb e0 69 79 bd 94 99 10 3d 99 a1 17 3c
       -0.0058893445 -0.060891986 0.035302714 0.0092548365
0002d0 b6 95 12 bd 0e f1 db 3d 00 00 00 00 cd 72 3b bd
       -0.035787307 0.10739337 0.0 -0.04576378
0002e0 79 59 43 bd 16 f3 66 bc 8d af 85 bc d6 5f b1 bc
       -0.04769275 -0.014096042 -0.01631906 -0.021652143
0002f0 95 5e 2c 3c bc 99 59 3d 96 de 94 3a a6 4d a9 3d
       0.010520597 0.05312513 0.001135784 0.082667634
000300 fb a0 fe bc ab fb 08 bd 0d a1 a3 bc ea 76 27 be
       -0.03108262 -0.033443134 -0.019974256 -0.16353956
000310 9d 55 24 bd 46 1f 90 bd f6 1a 8f bd 06 6e d4 bc
       -0.04012071 -0.07037215 -0.06987564 -0.02593137
000320 2e 3f e2 bc 72 98 2b bd c2 9e 1e bd 5c a9 19 bc
       -0.027618017 -0.04189343 -0.038725622 -0.009378757
000330 57 11 fb bb 75 4a d3 bb 8c 5f 29 3c ae dc a9 3d
       -0.007661979 -0.006448085 0.010337722 0.082940444
000340 59 68 1a 3c a1 b6 f8 3d 55 dc ae bc fe 2b 06 bd
       0.0094242925 0.12144209 -0.021345297 -0.032756798
000350 3b 8f d7 3c 32 b1 b0 bd f1 ac 1b bc 80 09 f1 3d
       0.026313415 -0.08627547 -0.009501682 0.1176939
000360 ec fd 48 3c 77 a1 16 bd bd ca 91 bb f1 15 11 bc
       0.012267571 -0.03677508 -0.004449217 -0.008855329
000370 3d 28 f9 3c 0e df c1 3c e3 f3 11 bd 08 7e a6 3c
       0.030414695 0.023665931 -0.03563298 0.020323768
000380 00 00 00 00 9e 7b 90 bc 43 18 29 bd 00 00 00 00
       0.0 -0.01763707 -0.041282903 0.0
000390 93 fd 21 bd d0 29 68 bd b3 c2 0b bc c1 6d 82 bd
       -0.039548468 -0.0566805 -0.008530307 -0.0636859
0003a0 df f4 8a bc 94 e7 8f 3d 13 2c f1 3d 99 1c b5 3d
       -0.016962467 0.07026592 0.117759846 0.08843345
0003b0 00 00 00 00 0d 34 df 3d d5 9a db bc 0b fe a2 3b
       0.0 0.108986 -0.026807228 0.004974132
0003c0 71 d0 36 bd 4c 6b 74 bc 13 71 a5 bc 91 ea bd bc
       -0.04463238 -0.01491816 -0.02019552 -0.023183139
0003d0 5d 4f 87 bb 00 00 00 00 a1 c2 97 bd 62 0d 10 bd
       -0.004129334 0.0 -0.074101694 -0.035169013
0003e0 40 a3 3e bd 46 26 63 bc 2a 68 e3 bc 49 63 90 3c
       -0.046542406 -0.013864106 -0.02775963 0.017625468
0003f0 d1 f3 0c bd 8e ad 01 3d 8c 25 14 bd 60 aa 74 bc
       -0.03441221 0.031659655 -0.03616862 -0.014933199

linear2.weight f4 [256, 256]
000000 f4 95 c3 bd 12 03 e9 bd d0 c5 d5 3d 1d 2f 69 3c
       -0.09550086 -0.11377539 0.1043812 0.014232424
000010 e5 74 20 3e 7e 47 68 3e 2b cb 93 be 99 e5 1b 3c
       0.15669592 0.22683522 -0.28865942 0.00951519
000020 a1 3b 32 3c f6 08 5b 3d 90 05 98 3d 31 28 02 3a
       0.010878474 0.053475343 0.07422936 0.00049650954
000030 68 46 b0 3e 9e bb de 3e b6 d4 eb 3e a0 34 07 bb
       0.34428716 0.43502516 0.46060723 -0.0020630732
000040 af 8e 3d 3d 9b 4f e0 bc 7e 5b 47 3b c7 0e 26 bd
       0.04627865 -0.027381709 0.0030419524 -0.040541437
000050 78 93 12 3e 04 dc 5a 3b 41 04 9f be 43 0c ca 3d
       0.14314067 0.00333953 -0.31057933 0.0986562
000060 36 85 86 3d 2c fb 67 3d 97 1f 79 3e b1 1b fa 3b
       0.06568377 0.05663602 0.24328457 0.0076326956
000070 c0 9b af bc 8f 0a 31 bd 98 68 e5 3d ee ce 3d 3e
       -0.021436572 -0.04322296 0.1120159 0.18535969
000080 86 43 a5 bd 40 60 e6 3c b3 44 86 bb 29 c8 57 bd
       -0.0806952 0.028122067 -0.004097545 -0.052681122
000090 32 ef e2 3c a6 e0 6e 3e 0a a0 8d 3b fe 69 31 3d
       0.027701948 0.23327884 0.0043220567 0.043313973
0000a0 e4 c8 57 be fc af 68 3b 29 54 1b be 51 8c 0b 3e
       -0.21072727 0.0035505285 -0.15168823 0.13627745
0000b0 09 ad a7 3d 1f 92 4c 3e cb 00 56 3e 09 3c 17 bd
       0.08187301 0.19977616 0.2089874 -0.03692249
0000c0 84 21 17 3e 95 12 bf bc 4f 0f 06 3e 68 70 30 3c
       0.14758879 -0.02332429 0.13091777 0.010768987
0000d0 4e d2 8c 3e 75 16 7f bd e3 26 af 3e 97 77 49 3d
       0.275042 -0.062277276 0.34209356 0.049186315
0000e0 d7 b2 28 3c 88 63 42 3d f2 df 8c be 8b 61 b9 3e
       0.010296545 0.0474582 -0.27514607 0.36207232
0000f0 74 4f 98 bc ff 2f 39 3e 1d 98 9f 3d 33 37 d9 3e
       -0.018592574 0.18084715 0.07792685 0.42424926
000100 39 a5 93 3e 25 95 88 3c c6 e9 79 3d 7a 0e 0d 3d
       0.28836992 0.01667268 0.06101396 0.034437634
000110 af 89 15 3d 5f 6a f7 bb 53 b3 51 3d a9 7e 80 be
       0.03650826 -0.007550522 0.051196408 -0.25096634
000120 2c 6a 4a 3e 72 62 10 bd 98 df 25 3e b1 c5 c8 3e
       0.19767064 -0.035250135 0.16198575 0.39213327
000130 05 99 05 3e e3 46 ae 3c 30 d5 0b 3e 49 75 bd 3e
       0.13046654 0.021274036 0.13655543 0.37003544
000140 c7 ad d3 3d e8 ad 78 bd 02 18 0f be 44 ef 91 be
       0.1033588 -0.060712725 -0.13974002 -0.28502858
000150 48 3a e2 3d a8 58 57 bd 25 ae a8 3e 01 56 81 bd
       0.110462725 -0.052574784 0.32945362 -0.06315232
000160 31 1b 8a 3e 68 ee 83 bc 24 19 91 bd 20 0f 05 be
       0.2697387 -0.016104892 -0.07084873 -0.12994051
000170 75 c9 53 3e ae c9 bc 3c 7f 87 45 be 4d 09 44 be
       0.20682319 0.023045387 -0.19289969 -0.19144173
000180 e6 36 11 be fe 4f 08 3c 5a 11 a2 3c 60 16 4c 3e
       -0.14181098 0.008319853 0.019783664 0.1993041
000190 e2 31 be be 1c 1e 85 bc 3b 63 00 be b2 f9 40 3e
       -0.37147433 -0.016249709 -0.12537853 0.18845251
0001a0 50 8e 59 bd a8 70 23 bc e2 d3 5d 3e 1b 35 13 bd
       -0.053114235 -0.00997559 0.21662858 -0.035939317
0001b0 17 0d 93 3d ba 50 16 bc 22 17 10 3e 08 36 14 3e
       0.07180231 -0.00917452 0.14071324 0.14473736
0001c0 9f 81 2d 3e b4 2a 89 bb 9b 51 29 bd 33 36 75 be
       0.16943978 -0.004185999 -0.04133759 -0.23946457
0001d0 e9 24 35 bd b0 60 99 be 90 86 b8 3e 89 d8 07 3e
       -0.044224653 -0.2995658 0.36040163 0.13266195
0001e0 b4 96 ab be 30 24 48 bc 37 3a cf 3e 93 9c e9 3c
       -0.33513415 -0.012215659 0.40474102 0.028517043
0001f0 41 00 17 3e 5f 09 4f be 03 5b 9f 3d 94 34 a4 3e
       0.1474619 -0.20218419 0.07781031 0.32071364
000200 cb c9 f6 3a 39 b0 97 3e 57 1d f0 3d 80 37 a2 3e
       0.001882845 0.29626635 0.11724346 0.31682968
000210 7a 08 12 3e b9 71 59 be be 18 f8 3d 91 3c a2 bd
       0.14261046 -0.21234788 0.12114094 -0.079217084
000220 a0 c9 26 3e 0b 6b 7e bb 0a 41 6a 3c ec cb b6 be
       0.16287851 -0.0038821127 0.014297733 -0.35702455
000230 d5 69 c6 3e 6c f5 70 be d9 db 82 3d d4 f5 da 3c
       0.38752618 -0.23531121 0.06389589 0.026728548
000240 8e 1a 09 3e 84 1a d9 bd ab c8 6b 3e 11 cc d0 3c
       0.13389036 -0.106007606 0.23025768 0.025487931
000250 fc 0f e2 3d f5 ad 83 be 65 54 11 3c 03 b4 3c 3b
       0.11038205 -0.25718656 0.008870219 0.0028793819
000260 c9 c5 13 be be dd b5 bd 42 d9 b8 be 21 e4 2f bc
       -0.14430918 -0.088801846 -0.36103255 -0.0107355425
000270 a7 87 47 3e 21 d3 6d 3d 69 84 0c be 80 15 60 bd
       0.19485341 0.058062676 -0.13722385 -0.054708004
000280 85 99 37 bd 51 58 92 3e d8 b4 14 bd a7 6e ed bc
       -0.044824142 0.28583005 -0.03630528 -0.028983427
000290 cf 67 e8 3d 1c fb 58 3d 2a c5 a0 bd 2f 13 12 3e
       0.11347925 0.05297385 -0.07850106 0.1426513
0002a0 c1 cf 1b be 3b ee 0a be 90 53 3a bd e1 4f a7 bb
       -0.1521597 -0.1356744 -0.045489848 -0.005105958
0002b0 1c b5 aa bd e0 40 74 3e 05 88 17 3c 50 f4 89 be
       -0.08335325 0.23852873 0.009248738 -0.26944208
0002c0 58 86 ef 3d 63 13 f6 3d 4a eb e4 bd 8c 8a 1a bf
       0.11695546 0.120154165 -0.1117769 -0.60367656
0002d0 80 4f a0 bd ed b1 d5 bd 12 75 7f 3d aa f1 56 3d
       -0.078276634 -0.10434327 0.062367506 0.052476563
0002e0 65 86 74 3d 6a f6 3e 3b 59 73 1c bd af ff 99 bd
       0.05969848 0.0029138573 -0.03819594 -0.07519471
0002f0 93 a4 e9 3c 56 b6 45 3e ae c4 30 3e 0f 20 1d be
       0.028520858 0.19307837 0.17262527 -0.1534426
000300 0e bd f5 bc f5 02 cc 3d 3f 56 52 3c 3e 98 a2 3c
       -0.029997375 0.099615015 0.0128379455 0.019847985
000310 ab a1 5a be 8e d4 b4 3d a5 de 99 bc 82 30 0b be
       -0.21350734 0.08829604 -0.018782923 -0.13592723
000320 88 9f 1e 3d 9c 08 26 bd b6 aa 65 3e 6e e5 3a 3c
       0.03872636 -0.040535554 0.22428402 0.011407239
000330 91 8e 40 3e c4 a5 ad be 35 c2 12 3e 9d 8a 48 be
       0.18804385 -0.33915532 0.14331897 -0.19584127
000340 9d 57 8a be cd 21 16 be a5 c4 f5 bb 95 f3 85 be
       -0.2701997 -0.14661331 -0.0075002485 -0.261624
000350 1e d1 90 3e b9 34 a0 3e 78 78 77 3d 94 c7 fd 3d
       0.28284544 0.31290224 0.060417622 0.12391582
000360 d3 4b 25 3e e1 1c 00 be c2 5d 8c 3d 91 41 28 3e
       0.16142206 -0.12511016 0.068538204 0.16431262
000370 83 d8 31 bd 70 f7 a8 bc 93 17 52 3e ca b3 b0 3d
       -0.043419372 -0.0206258 0.20516805 0.08628042
000380 5e 44 4f 3d 32 26 cc 3d ba 1a 20 3e 32 dd a3 bd
       0.05060231 0.09968223 0.15635195 -0.08001174
000390 5d b4 80 bd d4 c8 68 be 3f 4c 93 3c 15 50 b1 3c
       -0.062844016 -0.2273286 0.017980693 0.021644631
0003a0 72 c4 87 3c 99 46 23 be 90 75 14 be 17 cd 3c 3e
       0.016573165 -0.159449 -0.14497972 0.1843761
0003b0 4b 98 83 bd f0 c9 e7 3e 81 5f 00 3d 3c b9 0f 3d
       -0.06425532 0.45271254 0.03134108 0.035088763
0003c0 5f ec b9 bd 10 74 49 bd 35 00 0a 3e d8 ec 02 3d
       -0.09078287 -0.04918295 0.13476641 0.031964153
0003d0 12 d4 65 3d 4f a0 a1 3d 94 63 19 3e d5 f1 76 3c
       0.05611045 0.078919046 0.14979392 0.015072306
0003e0 e8 49 27 3e b4 82 86 3b c5 49 9a bc 19 dd 04 be
       0.16336787 0.0041049365 -0.018834004 -0.12974967
0003f0 68 9e 76 bc 12 0d f1 3d 0a 58 61 3d 77 1d 03 3d
       -0.015052415 0.11770071 0.0550156 0.03201052

linear2.bias f4 [256]
000000 07 8a 87 be 75 61 8f 3e 84 d1 35 3e 37 88 bf 3d
       -0.26472494 0.2800404 0.17755705 0.09352153
000010 05 1c 96 3d be 1c 82 bd fe d9 85 bd fe fb 1b bd
       0.07329563 -0.063531384 -0.06535719 -0.038082115
000020 8b fb 23 bd 02 00 2e 3d 6e 47 a2 bd 04 8c ee be
       -0.040034812 0.042480476 -0.079237804 -0.46591198
000030 a1 5b 9e bc 4b 43 62 bd d4 3a e9 3b f5 13 45 bd
       -0.019330801 -0.055239957 0.0071176086 -0.048114736
000040 6f a4 24 3b e3 2d b8 be 9c 82 83 be ef b9 30 bd
       0.0025122424 -0.3597251 -0.25685585 -0.04314607
000050 52 d2 7f bc 93 46 54 3e 6e 99 42 3e 74 59 8e 3e
       -0.015614109 0.20730047 0.19003841 0.27802622
000060 ac 7c 28 3e 32 ad 07 3e ea 0c 3c be 6b 7c fa 3c
       0.16453809 0.13249663 -0.18364301 0.030576905
000070 85 d3 48 3e 96 98 e7 3d 48 3b 43 bd 79 5c d8 be
       0.19611938 0.113084 -0.047663957 -0.4225805
000080 6e 49 23 bd 2d 8d 06 3d 40 bc 36 be 52 78 5f bd
       -0.03986495 0.03284948 -0.17845249 -0.054558106
000090 3d 39 eb bc d1 24 0c be 9a 88 79 3e 67 8c a9 bc
       -0.028713817 -0.1368592 0.24368516 -0.020696832
0000a0 da bb 18 3e 88 8b 2c bd a1 f3 df bc f2 20 eb bd
       0.1491541 -0.042125255 -0.027337851 -0.11480893
0000b0 dc aa 2a bd 28 f1 4e bd 9c 23 2b 3e 0e d0 66 bd
       -0.04166685 -0.050522953 0.16712803 -0.05635076
0000c0 a2 be 21 bd 62 3d 06 3d 34 b0 15 bd 2b 67 c4 3d
       -0.039488442 0.032773383 -0.036544994 0.0958999
0000d0 2b 24 38 3e ac 36 50 be 72 91 75 be 86 c1 6d bd
       0.17982547 -0.20333356 -0.23981264 -0.058045886
0000e0 d4 45 5d be 77 a9 dd 3d cf 77 bc 3c ac e5 3a be
       -0.21608669 0.108233385 0.023006348 -0.18251675
0000f0 7f 3c 1e 3e d0 d9 03 3d bf 80 6c 3d b2 80 40 be
       0.15452765 0.032190144 0.05773997 -0.18799093
000100 c7 cb 46 bd fd 85 8a be bc f5 84 bd cd 5c 6a 3e
       -0.04853418 -0.2705535 -0.064921826 0.22886963
000110 c4 0d bc 3d b6 b7 84 3d 1b 3c 16 be d1 8b 76 be
       0.09182313 0.064803526 -0.14671366 -0.24076773
000120 78 ec ff 3c c3 96 4b 3e 12 f3 2b be 17 ea 45 3e
       0.031240687 0.1988173 -0.16791943 0.1932758
000130 7d 95 b2 be 1b 4f 26 3d 28 5e 46 bd 54 c1 22 bd
       -0.34879676 0.040602785 -0.04842964 -0.039735153
000140 55 0b 99 3d 86 63 81 3e 4e 32 f6 bd 8b 39 70 bd
       0.074728645 0.25271243 -0.120213136 -0.058648627
000150 e4 ec 1b 3e 64 92 50 3b 41 41 1e bd 5b d7 ad 3d
       0.15227085 0.0031825537 -0.03863645 0.084883414
000160 2d 8d d5 bd 39 6b 07 be 24 6b 87 3d e1 ec 55 3e
       -0.10427318 -0.13224496 0.06612232 0.20891143
000170 93 1d 26 3c 11 ac cd bd 50 7b 14 bd 7e fe 3d bd
       0.010138887 -0.10042585 -0.036250412 -0.04638528
000180 e9 88 23 bc be 89 8e bd d0 83 cb 3c b7 a1 8f bd
       -0.009981372 -0.06959866 0.024843127 -0.070132665
000190 67 b7 98 3d 8f cf 77 bd 50 72 3c bd 59 8f 4b bd
       0.07456856 -0.060500678 -0.046007454 -0.049697254
0001a0 61 c7 6f bd 21 25 c6 bd b3 83 30 3e a7 89 b1 bd
       -0.058539752 -0.096750505 0.1723774 -0.08668833
0001b0 05 a7 03 be 1a 10 0a bd 27 44 d7 bd 67 1b b7 3c
       -0.12856682 -0.033706762 -0.10511046 0.022351934
0001c0 d9 e0 0b be ae b7 34 3e 11 d1 0d 3d e2 d9 9f 3d
       -0.13659991 0.17648193 0.03462321 0.0780523
0001d0 25 0b 23 3e 7b df 03 3e 40 d4 5d bd 05 49 48 be
       0.1592222 0.1287822 -0.054157495 -0.19559105
0001e0 ca 6a 97 bc 73 9f ee bd 52 37 06 3d 04 e9 74 bd
       -0.018483538 -0.11651506 0.0327676 -0.059792534
0001f0 e1 bb 1a 3d c6 be e4 3d c1 e2 17 bd 2c bf 2a 3e
       0.03777683 0.111692 -0.037081484 0.16674489
000200 67 72 a5 be 7b 63 74 bd ae 21 7d bd f8 3c 3a 3e
       -0.32313845 -0.059665184 -0.061799698 0.1818732
000210 ea d3 55 3e 58 52 71 ba 74 f6 c2 bc 5b d7 1a 3e
       0.2088162 -0.00092056906 -0.023799159 0.15121214
000220 68 aa a0 be 89 f7 81 be 5c 97 43 be f5 b4 df bc
       -0.3138001 -0.25384167 -0.19100708 -0.027307967
000230 ed 9a 07 3d b1 77 1c bd dd 2e 05 3e d3 f9 6b bd
       0.033106733 -0.038200084 0.13006158 -0.057611298
000240 a6 12 6e bd 39 bd 79 3e 13 84 61 be c0 83 c9 3c
       -0.058123253 0.24388589 -0.22023039 0.024598956
000250 ff ac 96 bd 6c dc 9a bd be 97 15 3e 7a ac a3 bc
       -0.07357215 -0.075615734 0.14608666 -0.019979704
000260 d2 46 84 bd f4 df b7 3c 0c 71 44 be 9a 06 8e 3d
       -0.064588204 0.022445656 -0.19183749 0.06934853
000270 a5 a3 94 bd a7 22 6f be 29 d5 08 3e 83 62 87 3d
       -0.07257775 -0.23353063 0.13362564 0.066105865
000280 c4 4a bb 3d 15 c1 bd 3d df 6d 55 3d c8 13 26 3e
       0.0914512 0.09265343 0.052106734 0.16218483
000290 aa d3 53 bd 7b 30 04 be 2a 72 1c 3e 82 df 96 bd
       -0.05171553 -0.12909119 0.15277925 -0.073668495
0002a0 ea dd b0 bd 71 0e 10 be 71 0f 38 3e a8 59 ac 3d
       -0.08636077 -0.14068009 0.1797464 0.08415538
0002b0 c8 61 c3 bd 8e 25 af 3d 3c b5 fa bd d4 b6 65 3d
       -0.09540135 0.08552085 -0.12241599 0.05608256
0002c0 27 b6 3e bd d9 fb 87 be 80 3b 9e 3d 09 49 d4 bc
       -0.046560433 -0.26559332 0.077261925 -0.025913732
0002d0 ea f6 9d bd 70 82 22 3e 9d 86 5e 3d a2 0e 0f 3d
       -0.07713111 0.1587007 0.054327596 0.034926064
0002e0 08 8f 1a 3c ca af b7 3d fd 24 24 bd 59 ee 3f 3d
       0.009433515 0.08969076 -0.040074337 0.046858165
0002f0 61 25 0e bd 15 cf 20 3e e5 8b a5 3d 6d b7 4b 3e
       -0.034703616 0.15703996 0.080833234 0.1989419
000300 2a 51 b6 bb 19 1e 09 3e 77 ad cd bc fd c1 ba bd
       -0.0055638747 0.13390388 -0.025107129 -0.091190316
000310 c3 27 6e bd 72 a8 d0 3d 1f cb 9d 3d 35 52 4a bd
       -0.05814339 0.101883784 0.07704758 -0.049394805
000320 81 81 6d 3e bf 30 89 3d ad da 59 3e fc 4f 59 3e
       0.23193933 0.06698751 0.21274824 0.21221918
000330 e8 88 ad 3d 27 8a eb 3d c5 88 cd 3d 88 22 21 be
       0.084733784 0.1150096 0.10035852 -0.15735829
000340 97 c9 38 3c 8b 43 09 bd fa 2b 07 3c 06 b5 62 bd
       0.0112785315 -0.03351168 0.008250231 -0.05534842
000350 33 84 7c 3e 09 12 07 3e 7a 2d 30 3e 34 90 a6 be
       0.24659805 0.13190474 0.17204848 -0.32531893
000360 a2 25 8d 3d 91 63 5c bd 42 a7 b4 3c 5b cb 0f bc
       0.068919435 -0.05380589 0.022052411 -0.008776511
000370 d4 f4 99 bd 42 d9 9c 3d ba e4 ab 3d 1e 50 19 be
       -0.075174004 0.07658626 0.083932355 -0.14971969
000380 5f fe f9 3d 49 16 bf bd 89 d5 e0 bc 39 cb f0 bd
       0.122067206 -0.093304224 -0.027445571 -0.11757512
000390 9b 2d 9e be f7 99 73 bd a2 2e 63 be c8 f2 1b 3b
       -0.3089417 -0.059473004 -0.22185758 0.0023795832
0003a0 4d 9b 96 3d 4e f7 7f bd 5e fc c1 bd 5b 56 27 3d
       0.0735384 -0.062491708 -0.09471963 0.04085384
0003b0 f1 29 7a 3d 64 90 04 3e 32 cb a8 be 99 b9 95 be
       0.061075155 0.12945706 -0.32967526 -0.29243162
0003c0 5f 99 9d be f7 c3 a6 3d 00 e5 e1 3d d8 c3 1b bd
       -0.30781075 0.08142846 0.110300064 -0.038028568
0003d0 3e bb fe bd 66 bd 24 3d fc 25 71 bc 1c 0c 07 bc
       -0.12438057 0.040219687 -0.014718529 -0.008242633
0003e0 39 0d d7 bd f8 9e b8 bb da 77 97 bd c9 68 0a bc
       -0.10500569 -0.005634185 -0.07395907 -0.008447834
0003f0 03 d6 bc bc 61 c1 3d bd b0 22 66 bd 04 c8 e3 be
       -0.023051267 -0.046327 -0.056185424 -0.44488537

linear3.weight f4 [256, 256]
000000 4e c1 0c be 5b 1f 8f bd a1 5d b1 bd 0b 95 fd 3d
       -0.13745615 -0.069884025 -0.086604364 0.12381943
000010 0e 03 56 3e a6 6f b0 3c 16 0b 82 bd 92 73 ec bd
       0.20899603 0.021537613 -0.06349771 -0.11545481
000020 ad 30 04 bf 13 b1 04 3e 05 64 9b 3d 12 77 a7 bd
       -0.51636773 0.12958173 0.075874366 -0.08177008
000030 cb 66 6c be ba 53 e2 bd 4e 44 48 bc 0c 81 29 bd
       -0.23086087 -0.11051126 -0.012223316 -0.041382834
000040 5f d8 a8 bd c3 3a 6f bd a6 a9 07 bf ac 17 d1 3b
       -0.082443945 -0.05840565 -0.5299324 0.0063809957
000050 0a d6 70 3e 12 a0 60 be 56 18 f6 bd 76 26 ff bd
       0.2351915 -0.21936062 -0.120163605 -0.12458508
000060 6e aa 01 3c 7b 5c 0b bf c2 8d 61 3e 0b e3 20 be
       0.007914169 -0.5443799 0.22026733 -0.1571161
000070 db be 1d be 57 a5 4d 3c f6 a7 13 bd 1c ee 87 be
       -0.15404837 0.012551627 -0.036048852 -0.2654885
000080 1c a6 8b 3d bc 13 2f be b9 61 47 3d 44 af d7 bd
       0.06818792 -0.17097372 0.04867718 -0.10531476
000090 2d b0 b9 3e 82 d6 3d 3d d1 a9 b0 bd cf 11 8f be
       0.36267224 0.04634715 -0.0862614 -0.27943274
0000a0 21 a7 2d 3d f7 d3 d3 3d e7 c1 db bd 39 97 42 3e
       0.042395715 0.103431635 -0.10730343 0.19003
0000b0 69 09 21 3d 43 87 97 3d 7d 94 95 bd 9f db 46 bd
       0.039315615 0.07398846 -0.073037125 -0.04854929
0000c0 de 6f 41 3c cd 9d 8f 3d ab 52 75 bd b9 7d 8c bd
       0.011806456 0.0701252 -0.05989329 -0.06859917
0000d0 e1 7a f8 bc 08 2a 88 be c2 3f 83 be e9 92 b4 3d
       -0.03033203 -0.26594567 -0.2563458 0.088170834
0000e0 fb 59 1b 3e a3 b3 9b 3d 95 ca 03 be 76 b4 52 bc
       0.15171044 0.07602622 -0.12870248 -0.012860408
0000f0 8d 64 03 3d b8 f6 82 bd 64 a4 df bd 81 ae c9 be
       0.032078315 -0.06394714 -0.10920027 -0.39390948
000100 7a 49 1e bd ac df 6f 3d 8c 2e 8d 3d af 04 02 3e
       -0.03864429 0.05856292 0.06893644 0.12697099
000110 6a ca f8 be dd bb 13 3e 3a fc d1 3c 8b 04 9e 3e
       -0.4859193 0.14427133 0.025632966 0.3086284
000120 3b bf 81 be 12 ff 75 be d2 40 f0 3d 0c b7 03 bc
       -0.2534121 -0.24023083 0.117311135 -0.008039247
000130 90 b4 20 be a0 ac 01 bd 72 d7 f6 bd e5 80 6a 3e
       -0.15693879 -0.03165877 -0.12052812 0.22900732
000140 f2 ee 78 bc 25 50 4d bc 63 0d c4 3e 76 24 d3 3d
       -0.015193688 -0.012531315 0.38291463 0.10309689
000150 7a f7 a3 be 37 00 92 3e ab 3f 62 3d 42 5b c7 ba
       -0.32024747 0.2851579 0.0552365 -0.0015209692
000160 7f 9d 58 3d 89 9a 29 be 24 9b 8f 3d e9 8b 0d 3d
       0.052884575 -0.16562857 0.070120126 0.034557257
000170 22 ee 29 3e 0c 88 9d 3c cb 6a 9f 3e d7 f6 a2 3d
       0.16594747 0.019229911 0.31136164 0.07957237
000180 d8 d9 3a 3e 2e c6 d3 be 60 61 81 3d 2f 3b f2 3c
       0.18247163 -0.41362137 0.06317401 0.029569237
000190 28 5d f1 3e 59 9e 55 bd 52 3d 2d 3d 59 15 54 bd
       0.47141385 -0.052152965 0.042294808 -0.05177817
0001a0 55 13 be 3d a6 ed 0d be 24 76 2a be 48 bd 82 be
       0.09281031 -0.13860187 -0.1664663 -0.25535035
0001b0 c2 13 b3 be 60 d3 8a be b0 ab cc bd e0 eb 65 bc
       -0.34976012 -0.2711439 -0.09993684 -0.014033288
0001c0 c1 98 3c 3e 5c d8 8b 3e b5 3a dc 3d 95 46 4d 3d
       0.18417646 0.27313507 0.10753385 0.05011614
0001d0 3f 89 a5 be 7c a4 a0 3e 0a 51 42 bd 27 fa a5 3d
       -0.32331273 0.31375492 -0.047440566 0.081043534
0001e0 12 06 96 be 58 6b 12 be bc 73 80 bd c7 6a 84 3d
       -0.29301506 -0.14298761 -0.062720746 0.06465679
0001f0 e4 3b dc be 77 73 e8 be 71 90 de bb 48 5e 4b bd
       -0.43014443 -0.45400593 -0.006792121 -0.04965046
000200 b9 a5 22 bd 4c f0 ce 3c 66 b0 81 be 00 c4 56 bf
       -0.039708827 0.025261067 -0.25329894 -0.8389282
000210 ca 8f c7 be 72 1f 43 3e 7f b7 ad be be b2 9b be
       -0.3897689 0.19054964 -0.3392906 -0.30409807
000220 cb 66 43 bd 73 cb 08 bf 54 6c 9e bd 47 6d 4e 3d
       -0.047705453 -0.5343544 -0.07735506 0.050397184
000230 6a ab 5c 3e 5d 93 be be 6d 45 e7 3b 74 7d b8 bb
       0.21549764 -0.37221804 0.0070578367 -0.0056301896
000240 54 51 76 bd 1f 36 a8 be ee 26 2f 3e 87 c7 72 3c
       -0.060136154 -0.3285379 0.17104694 0.014818079
000250 6a 60 52 3e a1 c7 a7 3e 74 cd 44 3d 4e f5 3d 3d
       0.20544592 0.32769492 0.048047498 0.04637652
000260 18 ce e2 bc 5f cb b0 3d 98 2e f9 3d a0 95 1f 3e
       -0.027686164 0.0863254 0.1216709 0.15584421
000270 35 49 2d bd 91 2b 8e 3b 38 fb 53 be 82 d3 99 bd
       -0.042306144 0.0043386896 -0.20701301 -0.07511045
000280 78 77 02 3e 29 73 a9 bd 89 40 01 bf 04 58 8e 3d
       0.12740886 -0.08273918 -0.504891 0.069503814
000290 56 8b 94 bc 4a 28 80 be f2 2e 1a bf 27 38 3e bf
       -0.018132847 -0.25030738 -0.6022788 -0.7430443
0002a0 43 ff 66 bc 69 22 91 be d4 aa ef be 9d ed 8e be
       -0.014098945 -0.28346565 -0.4681002 -0.2791566
0002b0 c0 e4 f6 3d dc a5 ac be ba 87 8a be a3 b6 8f 3e
       0.12055349 -0.3372029 -0.27056676 0.28069028
0002c0 34 45 09 3d 02 e0 1b 3e 42 32 4d bd d2 b9 6d be
       0.033513263 0.15222171 -0.050096758 -0.23215416
0002d0 90 7f 39 3e e5 d4 91 3d 39 ff 51 be 97 e8 89 3d
       0.18115067 0.071206845 -0.20507516 0.06733816
0002e0 d4 7e 41 3e f9 0f 8b 3d 2a 00 91 bd 7a a9 ae ba
       0.18896037 0.06790156 -0.070801094 -0.0013325654
0002f0 c2 1e f1 bc a4 67 e0 bd 45 49 41 be f7 28 7c bf
       -0.029433612 -0.10957268 -0.18875606 -0.9850001
000300 fa a3 39 be 07 de 2e be 66 1e b3 be 2e a6 87 be
       -0.18128958 -0.17076884 -0.3498413 -0.26493973
000310 2c d3 6a 3d 74 c9 08 3c ea 6a ab bb fe d8 a5 3d
       0.057330295 0.008348811 -0.005231251 0.080980286
000320 07 25 4e bd 76 8a ed bd 48 d9 63 be f7 70 58 3c
       -0.05032828 -0.11598675 -0.22250855 0.013210527
000330 84 93 36 bd 59 55 bf 3c 6b b9 50 be b2 f3 ee bd
       -0.044574276 0.023356127 -0.20383231 -0.11667575
000340 78 22 83 3d 49 33 1a 3e 9f fe 4c 3e c9 df 2b bd
       0.06403059 0.15058626 0.20019005 -0.041961465
000350 8a 94 a8 be a0 82 3b be f4 76 4b 3d 74 37 00 be
       -0.32925826 -0.18311548 0.04967399 -0.12521154
000360 f4 35 b9 be 51 30 17 bc 5b fc 11 be f3 96 ab bc
       -0.36173975 -0.009227828 -0.14256422 -0.020946002
000370 e7 60 20 3e 8f 1b d8 bd ca 11 d3 3d b3 ee 93 3e
       0.15661965 -0.105521314 0.10306127 0.2889305
000380 07 b5 cf 3d 9e 15 81 3e 8d da 43 3e 0b a0 fc be
       0.1014195 0.25211805 0.1912634 -0.49340853
000390 5f 21 87 3c 32 69 00 3d 37 0e 76 3e 38 5c a4 bd
       0.016495405 0.031350322 0.2402886 -0.08025402
0003a0 03 da 17 3e f0 54 50 bd 54 b2 c3 be 5c 9f fa be
       0.14829259 -0.050862253 -0.3822199 -0.48949707
0003b0 49 9f 20 bf d3 ac c5 be 19 83 7c 3d 76 18 6e 3c
       -0.6274305 -0.38608417 0.061648462 0.014532199
0003c0 e2 2d 60 3d 76 bc d7 3b f5 c4 37 be cc 9f bc 3e
       0.054731257 0.0065837456 -0.17946227 0.36840665
0003d0 88 7c 16 3e a3 ec bf be 7c 72 c5 3c b3 16 8a be
       0.14695942 -0.37485227 0.024102442 -0.26970443
0003e0 3c 00 98 bd 16 9e df 3d d3 1a bc bd d2 f1 a4 be
       -0.0742192 0.109188244 -0.09184804 -0.32215744
0003f0 34 02 3e be 2d c0 0f bd a8 cb ee bc bf 5d 87 bd
       -0.18555528 -0.035095382 -0.029149845 -0.066096775

linear3.bias f4 [256]
000000 6e 47 94 3d 3d b2 91 be 0b 9f e7 bd f0 05 35 be
       0.07240187 -0.28456298 -0.11309632 -0.17678046
000010 f3 35 a7 bd 29 20 b0 bd e3 ff 78 be 77 6c a1 bd
       -0.08164587 -0.08599884 -0.24316363 -0.07882016
000020 5a 8a 38 3e 1b 59 0e be 37 7b 8b be 61 6d b2 bd
       0.18021527 -0.13901179 -0.27242443 -0.087122686
000030 f6 92 2e be 72 06 05 be 84 12 06 3e aa 50 b4 bd
       -0.17048249 -0.1299074 0.13093 -0.08804448
000040 90 f8 38 bb b4 79 aa be f0 fc 17 be 7b 3e 16 be
       -0.0028224327 -0.33295977 -0.14842582 -0.14672272
000050 b1 e3 12 be 1a 64 31 be 8a b0 0f 3e 07 26 b6 bd
       -0.1434467 -0.17323342 0.14032188 -0.08893972
000060 08 44 4a bd cf c8 90 be 9d 89 51 3e ec 3a e4 bd
       -0.049381286 -0.28278205 0.20462652 -0.11144051
000070 3e 24 3c bc 9d 29 2b be a6 7b 20 be 6d ea 55 3f
       -0.01148325 -0.16715093 -0.15672168 0.8356083
000080 74 c7 f5 3d 16 97 3c bc 6e 42 7c bd e6 6d 74 be
       0.12000933 -0.011510631 -0.06158679 -0.23870048
000090 90 72 0d be 37 30 dc 3d 01 da 2e be 95 a4 38 be
       -0.13813233 0.10751384 -0.1707535 -0.18031533
0000a0 1a 09 88 be 8e b6 8a be 61 c2 64 be f6 00 ab bc
       -0.26569444 -0.27092403 -0.22339775 -0.020874482
0000b0 0b 1e dd 3c 10 d1 5b 3e e8 7e d1 ba 15 89 6a be
       0.026991865 0.2146647 -0.0015983256 -0.22903855
0000c0 85 50 1e be d9 13 7f 3d c2 f5 4c be 6c 68 d6 3d
       -0.15460403 0.062274788 -0.20015624 0.10469136
0000d0 80 9b 04 be 23 58 24 be aa d9 52 bd 20 ca 68 be
       -0.12949944 -0.16049246 -0.051477112 -0.22733355
0000e0 ae b5 2b be 32 a4 dd bd e9 5d 81 be 30 65 3a 3d
       -0.16768524 -0.108223334 -0.2526696 0.045506656
0000f0 5f ea 63 be fd 5e f6 3e 29 b5 43 be b9 db 97 3c
       -0.22257374 0.48119345 -0.19112076 0.01853739
000100 85 39 c4 3d 6e b1 9b be 68 4e 68 bd e2 94 24 3e
       0.095812835 -0.30408806 -0.0567154 0.1607242
000110 eb 9c 0f be 3f 27 9c be 8c 14 21 be 41 13 a8 bd
       -0.14024703 -0.30498692 -0.15730494 -0.082067974
000120 17 e4 26 be f5 3b b2 3e 77 83 1f be 7e a1 27 be
       -0.16297947 0.3481137 -0.15577494 -0.16370198
000130 d3 d9 22 be f7 03 b1 bd b7 95 c1 bd ff f2 44 3f
       -0.15903406 -0.08643334 -0.09452384 0.7693328
000140 90 cf 87 bd 49 57 f1 bd 93 f1 76 be b6 cc 16 be
       -0.06631386 -0.117842264 -0.24115591 -0.14726529
000150 b3 ce 93 be 45 f8 65 3e dd 82 37 be e2 8a cf bd
       -0.28868636 0.22457989 -0.17921014 -0.10133912
000160 08 c0 45 be a2 90 46 be b9 2c 03 be 8b 0d 1b bd
       -0.19311535 -0.1939111 -0.12810029 -0.037854712
000170 e3 5a a6 be e6 0b 57 be 2f 65 89 bd 9c 39 08 3e
       -0.32491216 -0.21000633 -0.06708752 0.13303226
000180 5f 3f f5 bd e2 1a 14 bd b4 b7 61 3c 1d 2a a8 be
       -0.11974978 -0.03615845 0.013776708 -0.3284463
000190 f2 f3 92 be c1 1f 39 be 5a 48 ca 3d d3 ac 31 be
       -0.2870174 -0.1807852 0.09877081 -0.17351083
0001a0 7c 09 25 be eb b1 f3 bd bf 25 92 be de b9 21 be
       -0.16116899 -0.118991695 -0.28544423 -0.15793559
0001b0 82 b2 ca be e2 da 85 be 4b fa 0f 3e 56 05 8e bd
       -0.39589316 -0.26143557 0.14060323 -0.069346115
0001c0 03 14 76 3d 60 29 52 3d b5 92 36 3e 46 26 11 bc
       0.06007768 0.05130899 0.17829402 -0.008859223
0001d0 20 1b 15 3e 0c 00 81 3d d1 f2 0a be a3 f4 1b be
       0.14561129 0.06298837 -0.1356919 -0.1523004
0001e0 b4 e9 28 be f5 e0 c4 3d 97 3a 0b be 59 57 cc bd
       -0.164954 0.0961322 -0.13596569 -0.09977598
0001f0 07 13 0e be dd 5b 43 be a5 c0 f9 bd ee 58 79 bd
       -0.13874446 -0.19078012 -0.12194947 -0.060875826
000200 10 62 e1 3c 6f ce 2c 3d 6a 93 79 be de 70 44 3f
       0.02751258 0.042189058 -0.2437264 0.7673472
000210 1a af 00 be 0e 25 23 be a7 4e ef bd 0b ce 61 3d
       -0.12566796 -0.15932104 -0.116849236 0.05512814
000220 76 8c 27 be ac e4 b5 3e 98 92 39 bd 19 41 0d be
       -0.16362175 0.35526025 -0.04530582 -0.13794364
000230 21 0a 4d be 75 bd 0c 3e 10 f6 86 3d 36 be 36 be
       -0.20023395 0.13744147 0.065899014 -0.17845997
000240 a6 7c 6c 3c 5d 86 16 be 88 4c 8a be 2d fa a5 bd
       0.014434015 -0.14699693 -0.27011514 -0.08104358
000250 2b 3f d0 3e 35 5c c3 bd 71 81 09 be e1 0f 87 bc
       0.40673193 -0.095390715 -0.13428284 -0.016487064
000260 df 9b 14 be da 70 45 be 2d 95 14 3e 37 a8 b0 bd
       -0.14512585 -0.1928133 0.14510031 -0.086258344
000270 35 81 02 be b7 17 ee 3d 8f 27 43 bd 6b 44 6e bc
       -0.12744601 0.11625617 -0.047645148 -0.014542679
000280 d6 00 cf 3d 25 c0 83 be 9b a6 8e bd 73 ed e0 3c
       0.10107581 -0.25732532 -0.06965371 0.027456975
000290 d5 a9 2f be 97 0a eb be f6 24 a4 bd 8d d4 3d 3d
       -0.1715463 -0.45906517 -0.08014862 0.046345282
0002a0 b3 64 86 3d cc a0 10 3e 8b 40 6d be a0 24 c8 3d
       0.065621756 0.14123839 -0.23169152 0.09772611
0002b0 b0 8a 82 be 4e d4 82 bc f3 54 8c be 1e 85 19 be
       -0.25496435 -0.015970375 -0.2740856 -0.14992186
0002c0 7b 50 22 bd 5c a0 04 be 70 7d 5b be 8a 44 92 3e
       -0.039627533 -0.12951797 -0.2143457 0.28567916
0002d0 53 55 c0 3d 50 c0 88 bc e7 8a 92 be 81 6f 93 bd
       0.09391274 -0.016693264 -0.286216 -0.07199002
0002e0 b6 5d 32 be 0a 08 4f be 10 69 ee bd fc 5c 28 be
       -0.1741856 -0.2021791 -0.11641133 -0.1644172
0002f0 2c ef 88 3e a0 06 32 3d 75 34 48 be 45 ef d9 bd
       0.26744974 0.04346335 -0.19551261 -0.1064134
000300 a3 6a 30 be 63 39 7c be 09 03 3a 3c 2a f9 c3 bb
       -0.17228179 -0.24631266 0.011353263 -0.0059806304
000310 9b c5 61 3e 57 57 83 3d 29 7f 42 be 20 94 27 3d
       0.22048037 0.06413143 -0.1899382 0.040912747
000320 86 31 99 3e 0f f8 bd bd c8 8c 09 3d e0 ab b0 3c
       0.29920596 -0.09275829 0.033581525 0.021566331
000330 77 86 46 be 7f ac d1 bd a3 88 b4 bd d7 0b 56 be
       -0.19387232 -0.10237979 -0.08815124 -0.20902954
000340 64 fa f2 bd 2e a4 99 3e ec 61 b3 bc e1 8c e5 bd
       -0.118641645 0.30008072 -0.021897279 -0.11208511
000350 27 49 9c bc 50 f4 be bd c8 f1 1d 3e a4 20 06 3d
       -0.01907785 -0.09323943 0.15424263 0.032745972
000360 f9 f5 1b be 75 16 08 3e a9 c1 e2 bd fd 0c ac 3d
       -0.1523055 0.13289817 -0.11072094 0.08400915
000370 9d 77 6c bd 3f 18 12 3d 78 49 22 3e 80 8e b6 bd
       -0.05773126 0.035667654 0.15848339 -0.089138985
000380 1a 97 17 be 88 1f 6c 3d b1 c1 f5 bd 51 8c 9e be
       -0.14803734 0.057647258 -0.11999834 -0.30966428
000390 3b 44 da 3d 0c 8f 64 be 7b ba 88 3e e1 85 05 bc
       0.10657545 -0.22320193 0.26704773 -0.008149595
0003a0 a2 7f b5 bd 8b e5 46 3e b0 ff c3 be 9c 51 06 3d
       -0.08862235 0.19423501 -0.38281012 0.032792673
0003b0 d2 96 c2 bd 1b a5 05 bf d6 09 19 be f6 8d 16 be
       -0.09501423 -0.52205056 -0.14945158 -0.14702591
0003c0 00 59 1b be ae 62 df 3d 76 fb 92 bd a2 d6 df bd
       -0.1517067 0.109074935 -0.071768686 -0.1092961
0003d0 2a 23 9a bd 03 65 03 3d ec bb e8 3c 99 5c 3b be
       -0.07526238 0.032078754 0.02840992 -0.18297042
0003e0 83 bf d4 bd f3 6d 69 bd bf e6 36 be 75 14 8b be
       -0.103880905 -0.05698962 -0.1786146 -0.27164045
0003f0 35 c8 83 be 6a 60 cf bd 3b e7 27 be f8 dd 0f 3c
       -0.25738683 -0.101258114 -0.16396801 0.008780949

mean_linear.weight f4 [3, 256]
000000 db 3d 94 3e 75 0b 9e be 94 e1 6d bc 29 13 52 3e
       0.28953442 -0.30868116 -0.014519114 0.20515122
000010 cc 7f c9 3e da 4c 16 bf 59 08 c6 bd 62 f1 52 bd
       0.39355314 -0.58711016 -0.09669561 -0.05149973
000020 04 8a ea bc e6 71 83 bd ae 2d 93 bf 24 5b 9c bd
       -0.028630264 -0.06418209 -1.1498315 -0.07634571
000030 fe 2c a2 3c 36 e6 08 be 47 f2 ef 3d 70 de 9d 3e
       0.019796845 -0.13369069 0.117161326 0.3083377
000040 69 cf 08 3d 94 49 ba 3c da a5 8d be 53 bb 07 3e
       0.033400927 0.022740163 -0.27665597 0.13255052
000050 e9 df 0b 3d d3 b4 2b be b1 61 45 3d 08 45 a3 bc
       0.034149084 -0.16768198 0.04818887 -0.019930378
000060 73 93 c3 3e 29 f2 46 be 33 4c d9 3c 8c 87 09 3d
       0.38198432 -0.19428314 0.026525592 0.033576533
000070 ae 24 76 bd 5f 65 88 bc 3d aa 37 be b5 03 f7 3d
       -0.060093574 -0.0166499 -0.17936035 0.12061254
000080 7b d3 b6 bd 79 a8 9f bd 19 37 fa 3d c5 a4 1f 3e
       -0.089270554 -0.077958055 0.1221754 0.15590198
000090 54 33 83 3e 29 9e 05 be 92 d4 80 3e 25 87 86 3e
       0.25625098 -0.13048615 0.25162178 0.26274982
0000a0 2a fa 33 be 9c 3a 94 3e 04 a4 ca bd dc c6 62 3d
       -0.17575899 0.28950965 -0.09894565 0.05536543
0000b0 6c b5 51 3e bb 0e c1 3e ba 8a 3d 3e 31 cf 74 be
       0.20479363 0.3770655 0.18509951 -0.23907162
0000c0 c9 5f 0d be fe 3a d4 bc 18 f4 94 3e b9 91 a8 3e
       -0.1380607 -0.025907036 0.2909248 0.32923678
0000d0 e1 2e 5f be 8c f5 83 bc 11 ca ac bc 53 27 95 3d
       -0.21795227 -0.016108297 -0.021092447 0.07282891
0000e0 2b 2d 01 bf 71 a0 fc 3d 3a 68 70 3d 42 c9 9a bb
       -0.50459546 0.12335289 0.05869315 -0.004723699
0000f0 2d dd 16 3c 6d 11 74 3a 3f 9c e1 be ba ff 5d 3e
       0.009208006 0.0009310458 -0.4406452 0.21679583
000100 a1 cc 10 3f 6d 8d 4e bd 6c e3 a7 3e 6c 7e 98 3e
       0.5656224 -0.050427843 0.32790697 0.29783952
000110 af 82 06 bd 19 48 03 be 40 e5 43 be 5d fc 8f be
       -0.032839473 -0.12820472 -0.1913042 -0.28122225
000120 e2 f5 c3 be 7e e8 71 3e e4 d8 fb bc 2c fc 9d be
       -0.3827353 0.23623845 -0.03074307 -0.30856454
000130 bb 9d a5 3d 60 2c b9 bd ec 84 5b 3e ed 06 21 3d
       0.08086725 -0.09041667 0.21437424 0.039313246
000140 55 75 47 3e 3b e7 47 be 50 bf 25 be 40 ae df be
       0.19478352 -0.19521801 -0.16186261 -0.4368763
000150 9b ad 87 3e 45 1e 82 3e bd a4 3d be 85 b1 7d 3d
       0.26499638 0.2541372 -0.18519874 0.061936874
000160 b8 75 3b 3e 27 8c 54 3e 4f 69 70 be 90 61 b5 3e
       0.18306625 0.20756589 -0.23477672 0.35425997
000170 4a f8 7a be d2 35 88 be ef 7e ab be 95 7c 10 bc
       -0.24508777 -0.26603562 -0.3349528 -0.008818765
000180 cc cd 00 bf 50 37 cf 3d 7f f1 9a 3c 30 90 ae 3e
       -0.5031402 0.10117972 0.018913982 0.3409438
000190 d4 b3 8a be 4e 75 b1 be 6b 2a ac bd 50 d5 ac 3d
       -0.27090323 -0.3465981 -0.08406528 0.08439124
0001a0 8e 58 ba bc 35 5b 41 bd a9 c0 e5 3d 89 fc e5 bd
       -0.022747304 -0.047206122 0.11218388 -0.11229808
0001b0 42 29 a8 3d fc b1 d3 bd 16 de 4d 3c e1 6f f1 3e
       0.08210994 -0.10336682 0.012565156 0.4715567
0001c0 1d 43 36 3e 28 d3 b6 bd af 38 46 be 9c b6 ae bd
       0.17799039 -0.089269936 -0.1935756 -0.08530924
0001d0 67 2f 26 be 6b 18 e7 3e 67 ff 17 3e b8 17 c0 3e
       -0.1622902 0.45135817 0.14843522 0.37518096
0001e0 fd 12 89 3e 95 1f bc bd 44 a1 72 bb 69 39 68 be
       0.267723 -0.09185711 -0.0037022391 -0.2267815
0001f0 6d 23 78 3e e9 cc d4 bc 9f 70 a0 3d 4a f4 6f be
       0.24232264 -0.025976615 0.07833981 -0.23433033
000200 6c 81 fa 3e 75 61 ee bd 70 82 0a bf cb 56 10 bd
       0.48926866 -0.11639682 -0.5410528 -0.035239022
000210 43 a3 de 3e 8e c3 00 be 92 7e d8 3d c0 21 04 bf
       0.43483934 -0.12574598 0.10571016 -0.51614
000220 c9 2f 0d be 52 74 4d 3d 3a 8e 1c be e1 c7 02 3e
       -0.1378776 0.05015976 -0.1528863 0.1277156
000230 12 fb 64 3f e3 32 2b 3e e9 ee 9f bd 6e c4 10 be
       0.894456 0.1671863 -0.0780924 -0.14137432
000240 11 b4 35 be 68 ae 58 be 04 3f b6 bd a5 f7 f1 3d
       -0.17744471 -0.2116028 -0.08898738 0.118148126
000250 91 4e ed 3c 1c 65 c3 bb 81 fa 27 3d 4d dc db 3d
       0.028968127 -0.005962981 0.041010384 0.107353784
000260 02 27 61 3e 6b 7c 96 3e 08 b6 62 3e 9c 9f e3 3d
       0.21987537 0.29391798 0.22139752 0.111144274
000270 a4 1f 2d bf 9a 1d 00 3e 03 ef d2 3d eb 9d e0 3c
       -0.67626405 0.12511292 0.10299494 0.027419051
000280 23 62 00 3d f6 5e 6c be 5e 71 4f be 3b 9f fe bd
       0.03134359 -0.230831 -0.2025809 -0.124327146
000290 27 d2 88 be c6 b5 11 be 79 ac e1 3c 8e e7 a3 be
       -0.26722834 -0.14229497 0.027548062 -0.320126
0002a0 c6 16 52 3e 4e 93 45 3d 0b fb 5f 3e 67 d2 2e 3d
       0.205165 0.048236184 0.21873109 0.042681124
0002b0 b6 0f c1 3e 5f 4b c6 3e 14 9c 39 bc 36 72 80 3b
       0.377073 0.3872938 -0.011328716 0.003919865
0002c0 5b 52 a4 3e 6c 80 96 3e dc c1 70 bd b3 dc 72 be
       0.32094082 0.29394853 -0.05877863 -0.23717003
0002d0 74 e6 5c 3e 28 b2 b3 be 81 be 89 bd bd bb 1c be
       0.21572286 -0.3509686 -0.06725789 -0.15305991
0002e0 be 5c b3 3d b4 d6 cc bd ba bc 29 3d 50 41 00 be
       0.087579235 -0.10001889 0.04143975 -0.12524915
0002f0 5e 12 a3 3e 33 75 29 3e 7e 4a 5b be 87 08 a4 be
       0.3184995 0.16548614 -0.21415135 -0.32037756
000300 9e 44 1e 3d 51 3b e3 bd b3 92 20 3f 00 df 2f 3e
       0.038639657 -0.11095298 0.62723845 0.17174911
000310 5e d6 57 3e 5e 2a 76 3d f0 55 ab 3d 2c 77 74 be
       0.21077868 0.060099 0.08366001 -0.23873585
000320 d5 a8 80 3e 57 a0 65 be f4 97 6a 3d 4f c5 32 bc
       0.2512881 -0.22424446 0.05727382 -0.0109113
000330 00 cd 33 3e 9c 65 22 39 a9 33 a2 3d 69 83 4f bc
       0.1755867 0.00015487376 0.0792001 -0.012665608
000340 34 c8 1e be 4c ba ae 3e 8b 3f 94 be ef d1 8d bd
       -0.15506059 0.34126508 -0.2895473 -0.06924807
000350 0d 10 b2 3d b3 5c a0 bd b2 d7 92 3e 8a a3 ee bd
       0.08694468 -0.07830181 0.28680187 -0.11652286
000360 07 ca 95 3d b0 cf 3e bb 7b 87 68 bd 51 60 db 3d
       0.07313924 -0.002911549 -0.05676983 0.1071173
000370 82 6a c5 bb 1c 84 8f 3c 91 dc b8 3e 6b e7 b9 3e
       -0.0060246596 0.01751905 0.3610578 0.3630937
000380 2a 64 0d bf 8c 49 dc 3d 6d 25 57 3e 53 bb 58 be
       -0.55230963 0.107562155 0.2101037 -0.21165209
000390 a3 06 cb 3d 80 a2 1b 3c 1b 14 cd bd 25 ba 03 bf
       0.09913375 0.009499192 -0.100136004 -0.5145591
0003a0 cd 80 af be 8b 23 f8 3d 2f b2 2b bd c3 b1 77 3d
       -0.34277955 0.12116154 -0.041917976 0.06047226
0003b0 af b8 ac 3d 2b a6 81 bc 68 80 2a be b8 78 38 3d
       0.08433663 -0.015826305 -0.16650546 0.045037
0003c0 70 1d bc bd 56 b2 8d 3c 9a 49 d2 bd 05 bc 57 3e
       -0.09185302 0.017296951 -0.10267945 0.21067818
0003d0 a9 7c 87 be bc 46 ea bd 18 ca 68 bd b0 a7 ce be
       -0.26462296 -0.11439273 -0.056833357 -0.4036231
0003e0 64 e8 5a be 87 c5 5b be a5 d1 58 be 20 5b 5b be
       -0.21377712 -0.2146207 -0.21173723 -0.2142148
0003f0 f0 79 b5 3e ce 6e c5 bd a2 91 0a bb b7 57 10 3e
       0.35444593 -0.09640275 -0.0021143933 0.1409596

mean_linear.bias f4 [3]
000000 31 d4 fa 3d fa 79 df 3c 2e 34 f4 bc
       0.122475035 0.027279843 -0.029810037
