hydrone_aerial_underwater_ddpg/scripts/Models/ddpg_stage_2_air2D_tanh_lstm/1440_actor.pt (torch_old, 30961 bytes, 6 tensors)

lstm_layer.weight_ih_l0 f4 [128, 24]
0.38642356 0.14148083 -0.188281 0.041099694 0.5646879 0.75935715 0.31823522 -0.2006829
-0.2568062 -0.052509315 -0.2091497 -0.17890282 0.14666393 0.21470968 0.37090898 0.23787455
-0.45498738 -0.3655666 0.14758694 -0.19014467 1.5780559 -0.62736386 1.3462778 -0.4454494
0.03581715 0.07036308 0.2825276 0.14275204 -0.038538195 -0.004816335 -0.28452596 -0.1130227
0.043993883 0.040348954 -0.17835948 -0.6266276 -0.0055194385 0.12621538 0.21247965 0.19512744
-0.39606646 0.19969994 -0.06273514 -0.109540686 -2.7694643 0.4264409 -1.0487919 3.4188073
0.20725524 0.27440822 0.27502146 0.30909026 0.68816763 0.24196255 -0.27569702 -0.26118448
-0.13762067 -0.1668253 -0.29892576 -0.5041123 -0.22917892 0.024464723 -0.31062448 0.2465836
-0.15163834 0.5120485 -0.032019865 0.03181713 0.9026771 1.0953369 -1.6887616 -0.40386644
0.442343 0.37006074 0.429107 0.051008333 0.09758483 -0.35987866 -0.3777622 0.067619964
0.46863848 0.17932913 0.35091963 -0.13068952 -0.48911557 -0.11672553 0.061123207 -0.28206477
-0.7718509 -0.05270578 0.09299844 0.096588686 -0.62113136 0.31181052 -0.00671326 0.83274335
0.013787518 0.3579767 -0.036682732 -0.5970782 -0.53607816 -0.2135112 -0.14792646 0.50980216
0.5681123 0.5166632 0.8447083 -0.06069397 -0.173239 -0.05618369 -0.09567678 0.029070055
-0.1453913 0.18203989 0.061718274 0.22591697 -1.5388191 0.8224298 -1.8506485 -0.12228873
0.09082605 0.22934888 0.44767612 -0.06069877 0.6305813 0.12960915 -0.33377767 -0.35250026
-0.4239474 -0.40026653 -0.5399401 -0.07442991 -0.3880419 -0.38087445 0.35419488 0.29296657
-0.1320584 0.08454751 0.08182404 0.48501647 2.1116102 -0.27695915 0.63970304 -0.7363306
-0.2755233 -0.08264688 0.51678234 0.121644326 -0.5398399 -0.18748647 -0.6725246 -0.3062236
0.039742857 -0.1408206 -0.07587872 0.26509374 0.31508058 -0.08968757 -0.09815366 0.21369177
0.30322245 -0.09151684 0.023572614 0.15739067 -0.15931909 0.42335123 -1.2217103 1.5572506
-0.112813056 -0.2548075 -0.22829536 -0.12191386 0.28280935 0.4357431 0.074181266 0.33184576
-0.1050306 -0.46165147 -0.14142977 -0.026683472 -0.38585484 -0.035967823 0.035624497 -0.021260059
0.05277075 -0.07726101 -0.24160056 0.19552563 0.36745578 0.67044926 -4.328071 0.32738626
-0.06562279 0.10663508 -0.28796664 -0.3955199 0.21192592 -0.095344834 0.32121906 -0.059059042
-0.32575458 -0.59071356 0.33741155 1.1585076 1.0691488 0.37333128 0.5194587 0.06713382
-0.36813992 0.055379145 -0.25074258 -0.25618 -1.5039489 -2.350623 -0.038669128 0.6932086
-0.09342568 -0.5756726 -0.23556985 0.41957682 0.8819851 0.99432456 0.35898104 -0.034093484
-0.27125812 -0.13528408 0.14812241 -0.5683632 -0.21952564 -0.32290515 0.34295404 0.368225
0.29083604 -0.036716342 -0.09571496 -0.3792942 -1.9152864 -1.6318594 -0.32037112 0.94641346
0.2508424 0.1953049 0.11810074 -0.03580114 -0.021439238 0.16044578 0.6931746 0.50146836
0.21875381 -0.02858125 -0.8319618 -0.008338854 -0.19876865 -0.1646887 0.2784857 -0.5454741
00000000: 4fd9 c53e 5ae0 103e bccc 40be 2758 283d
00000010: 638f 103f 3b65 423f baef a23e d17f 4dbe
00000020: 1a7c 83be 0214 57bd 572b 56be 4d32 37be
00000030: 122f 163e dbdc 5b3e c8e7 bd3e 6395 733e
00000040: 1bf4 e8be 8c2b bbbe 0821 173e 49b5 42be
00000050: bcfd c93f eb9a 20bf d552 ac3f f211 e4be
00000060: 01b5 123d 851a 903d 75a7 903e 972d 123e
00000070: 3ada 1dbd 59d2 9dbb 63ad 91be 7278 e7bd
00000080: ee32 343d f244 253d dea3 36be ab6a 20bf
00000090: 68dc b4bb 9b3e 013e 4494 593e 7dcf 473e
000000a0: 39c9 cabe 247e 4c3e 487b 80bd de56 e0bd
000000b0: e73e 31c0 7656 da3e d03e 86bf bdcd 5a40
000000c0: b83a 543e 3c7f 8c3e 9dcf 8c3e 1441 9e3e
000000d0: c12b 303f 08c5 773e 2928 8dbe f9b9 85be
000000e0: 6fec 0cbe 40d4 2abe cc0c 99be 810d 01bf
000000f0: e1ad 6abe 3e6a c83c 2c0a 9fbe 6980 7c3e
00000100: 1547 1bbe 9c15 033f 4327 03bd ae52 023d
00000110: d915 673f 0034 8c3f 5729 d8bf 95c7 cebe
00000120: c87a e23e 9a78 bd3e eab3 db3e 1dee 503d
00000130: 8eda c73d 0442 b8be 0c6a c1be 567c 8a3d
00000140: 62f1 ef3e 0ea2 373e bdab b33e 79d3 05be
00000150: 5b6d fabe cb0d efbd 545c 7a3d cb6a 90be
00000160: 0598 45bf 04e2 57bd f775 be3d 4ad0 c53d
00000170: 7702 1fbf a1a5 9f3e e8fa dbbb ab2e 553f
00000180: 0be5 613c b948 b73e a240 16bd 1eda 18bf
00000190: 6b3c 09bf aea2 5abe 097a 17be 6582 023f
000001a0: cf6f 113f 0a44 043f ce3e 583f 3e9a 78bd
000001b0: 9065 31be de20 66bd 30f2 c3bd 5324 ee3c
000001c0: 75e1 14be aa68 3a3e 4dcc 7c3d c756 673e
000001d0: 06f8 c4bf c28a 523f 0de2 ecbf 8472 fabd
000001e0: 0203 ba3d 6fda 6a3e ce35 e53e 469f 78bd
000001f0: c76d 213f 43b8 043e e8e4 aabe ea7a b4be
00000200: a20f d9be bcef ccbe 8439 0abf b56e 98bd
00000210: 6ead c6be fa01 c3be 0859 b53e b7ff 953e
00000220: 513a 07be 3f27 ad3d 5d93 a73d 1454 f83e
00000230: 9f24 0740 97cd 8dbe 94c3 233f 2a80 3cbf
00000240: 6411 8dbe c442 a9bd d94b 043f a920 f93d
00000250: f332 0abf 74fc 3fbe 922a 2cbf 57c9 9cbe
00000260: 68c9 223d 4633 10be 4d66 9bbd 5eba 873e
00000270: 3e52 a13e 1eae b7bd c904 c9bd 04d2 5a3e
00000280: f93f 9b3e 2e6d bbbd 5b1b c13c 052b 213e
00000290: 8b24 23be 7ec1 d83e 0161 9cbf fd53 c73f
000002a0: 880a e7bd 2176 82be 42c6 69be f9ad f9bd
000002b0: 63cc 903e b819 df3e 59ec 973d b0e7 a93e
000002c0: 491a d7bd 955d ecbe f7d2 10be 4c97 dabc
000002d0: c48e c5be ff52 13bd feea 113d 9329 aebc
000002e0: 2426 583d 053b 9ebd 2366 77be df37 483e
000002f0: 2a23 bc3e 90a2 2b3f 8f7f 8ac0 2c9f a73e
00000300: 3e65 86bd 7e63 da3d 5d70 93be 9681 cabe
00000310: 1c03 593e 2744 c3bd d376 a43e e5e7 71bd
00000320: 4ec9 a6be 0139 17bf 35c1 ac3e fa49 943f
00000330: ded9 883f 4725 bf3e 3ffb 043f 757d 893d
00000340: d67c bcbe 3ed5 623d 5561 80be 062a 83be
00000350: 6681 c0bf 9b70 16c0 8563 1ebd 1e76 313f
00000360: f755 bfbd 485f 13bf 3939 71be c6d2 d63e
00000370: c7c9 613f 0e8c 7e3f 5dcc b73e 9ca5 0bbd
00000380: 58e2 8abe e987 0abe 67ad 173e 4080 11bf
00000390: 54cb 60be d353 a5be ac97 af3e fd87 bc3e
000003a0: 76e8 943e e063 16bd 3406 c4bd d932 c2be
000003b0: 1b28 f5bf c5e0 d0bf af07 a4be 2748 723f
000003c0: 6a6e 803e 02fe 473e cdde f13d 37a4 12bd
000003d0: 57a1 afbc e64b 243e e473 313f 3b60 003f
000003e0: 0001 603e 3a23 eabc 73fb 54bf b09f 08bc
000003f0: 028a 4bbe 28a4 28be ad95 8e3e 31a4 0bbf

lstm_layer.weight_hh_l0 f4 [128, 32]
-0.096910715 0.050904885 -0.035983667 -0.06766529 0.0613627 -0.11569783 -0.13298757 0.052571148
0.0076088756 -0.107843205 -0.0832591 -0.115784176 0.09909773 0.14979093 0.027560413 0.10136716
0.0033275783 -0.025336996 0.062677205 -0.099242866 -0.102503195 0.14497535 0.12413703 0.096594706
0.12387868 -0.0005905181 -0.06671953 -0.112628154 -0.043747917 -0.028081536 0.0055143237 0.16733663
-0.03297119 0.106697604 -0.037757352 -0.09151516 -0.026712582 0.07769452 0.11503132 -0.17006719
0.102720365 0.0067079663 -0.032005116 -0.010882184 -0.011457473 0.1516157 0.15216134 0.045242373
0.13622631 -0.021637753 0.040201455 -0.030653149 0.16261102 0.05888237 -0.094537914 0.15514587
-0.13525213 -0.15987536 0.06326547 -0.00076928735 0.15055723 0.05944848 -0.14920235 0.09658952
0.0146000665 -0.07235373 -0.026475847 -0.15751064 0.17331497 -0.025475368 -0.023790943 0.12624423
-0.042007834 0.016242743 0.10862304 0.004019873 0.08451502 -0.16410303 -0.12644544 0.08980881
0.059228778 -0.0061028027 0.018280312 0.036776543 0.12215467 -0.07082986 -0.043917164 0.15951945
0.16437618 -0.10096901 -0.13690236 -0.05590429 -0.11407394 -0.09403345 0.029664576 -0.02834177
0.11114146 -0.14337337 0.12248324 0.089635365 -0.15656395 0.014052197 -0.066293284 -0.09147569
-0.07889178 0.14942531 0.11059965 -0.1444686 0.16306107 0.17138793 0.10408223 -0.048336998
-0.054949522 0.16710077 0.033071786 -0.027861401 0.097737476 0.04264216 -0.13519813 -0.0059194565
0.06557192 -0.08392896 0.14649 -0.16856113 -0.051080316 0.17522152 -0.15802965 0.105165616
0.115889296 -0.04707201 0.046555072 0.067485005 -0.124681205 0.0142929405 0.13840114 -0.0027555972
-0.021731287 0.056640893 -0.13990135 0.14758258 0.007710457 0.12552245 0.06529263 0.0622862
0.17120947 -0.005056843 -0.13863122 -0.06514149 0.1088603 0.1257462 0.12278594 -0.11078967
-0.102420725 0.15564938 -0.118872955 -0.14535874 0.11400835 0.09641795 -0.08569175 -0.13314407
-0.013872951 0.0676593 -0.06420959 0.10993157 0.16891469 0.15144746 -0.13034959 -0.10514591
-0.15835302 -0.13688563 -0.124427944 -0.14236008 0.043231294 -0.0466789 0.16552328 -0.08823784
0.06853069 0.17334 0.14462017 0.10738288 0.16389023 0.001623258 0.10528417 -0.14656799
0.11544077 -0.060937367 0.15118308 0.14933424 0.13915862 0.17258827 -0.088455886 -0.03960973
0.006491497 -0.13380958 -0.10844179 0.12155415 -0.14659211 0.011960685 0.0656278 -0.03678213
-0.10885667 -0.1762812 -0.047362283 -0.0079404265 -0.114148855 0.14385022 -0.03260915 0.13444366
0.017885432 0.09409271 -0.05052516 0.06892738 0.14052193 0.09066461 -0.06354432 0.10145639
0.11751853 0.060114697 -0.071593165 -0.06755055 0.04482737 -0.16184437 -0.14337063 0.115192786
0.054672793 -0.113701366 -0.10395253 0.1755944 -0.13089877 0.14461352 -0.024586365 -0.10734617
-0.13293093 -0.1040723 0.16488476 0.13811992 -0.16908859 0.010421783 0.056062475 0.107125565
-0.043653995 -0.033513755 -0.06262385 0.077235475 0.11954339 0.12647824 0.17523746 -0.10173798
-0.07085221 0.17444713 -0.081293516 -0.0456679 -0.16526535 0.015030786 0.12088002 -0.115425654
00000000: 2079 c6bd a481 503d 9c63 13bd 1994 8abd
00000010: 7457 7b3d fcf2 ecbd e52d 08be d854 573d
00000020: e053 f93b e6dc dcbd bf83 aabd 4120 edbd
00000030: c0f3 ca3d cb62 193e 60c6 e13c 9699 cf3d
00000040: 8013 5a3b 888f cfbc e85c 803d d83f cbbd
00000050: 32ed d1bd 6b74 143e 8e3b fe3d 72d3 c53d
00000060: 1bb4 fd3d 00cd 1aba 40a4 88bd 97a9 e6bd
00000070: 0431 33bd 400b e6bc 80b1 b43b 4b5a 2b3e
00000080: cc0c 07bd 4684 da3d 74a7 1abd 4d6c bbbd
00000090: 58d4 dabc 4e1e 9f3d 8a95 eb3d 1826 2ebe
000000a0: 0e5f d23d 80ce db3b cc17 03bd 304b 32bc
000000b0: 20b8 3bbc 2541 1b3e 2fd0 1b3e 1150 393d
000000c0: e97e 0b3e a841 b1bc 48aa 243d 501c fbbc
000000d0: 8183 263e a42e 713d 189d c1bd 8fde 1e3e
000000e0: 897f 0abe 5eb6 23be 5491 813d 00aa 49ba
000000f0: ad2b 1a3e 4080 733d 80c8 18be bad0 c53d
00000100: 1e35 6f3c 312e 94bd e0e3 d8bc 784a 21be
00000110: 7b79 313e b8b1 d0bc 39e5 c2bc 2b46 013e
00000120: 6810 2cbd 800f 853c c275 de3d 24b9 833b
00000130: 3616 ad3d a00a 28be ea7a 01be aeed b73d
00000140: e099 723d 05fa c7bb 98c0 953c 00a3 163d
00000150: 3a2c fa3d 3f0f 91bd 7ce2 33bd 1159 233e
00000160: 3b52 283e d7c8 cebd 2230 0cbe e6fb 64bd
00000170: 999f e9bd 9c94 c0bd 2003 f33c 002d e8bc
00000180: 229e e33d 78d0 12be 7ed8 fa3d bf92 b73d
00000190: 4d52 20be 303b 663c c6c4 87bd 9b57 bbbd
000001a0: 0392 a1bd f302 193e 1282 e23d 94ef 13be
000001b0: 7bf9 263e 5180 2f3e 1029 d53d 04fd 45bd
000001c0: c012 61bd 771c 2b3e 4876 073d 983d e4bc
000001d0: 962a c83d 8ca9 2e3d 6171 0abe 00f8 c1bb
000001e0: 924a 863d f2e2 abbd 7901 163e 4a9b 2cbe
000001f0: 9839 51bd 456d 333e 86d2 21be 1261 d73d
00000200: 5e57 ed3d 94ce 40bd 88b0 3e3d 9435 8a3d
00000210: dc58 ffbd f02c 6a3c 07b9 0d3e 4097 34bb
00000220: d005 b2bc 4800 683d 4d42 0fbe e31f 173e
00000230: 00a8 fc3b f588 003e 24b8 853d d01f 7f3d
00000240: 8951 2f3e e0b3 a5bb 58f5 0dbe e768 85bd
00000250: 26f2 de3d 9dc3 003e 3277 fb3d b2e5 e2bd
00000260: f5c1 d1bd 8d62 1f3e aa73 f3bd ecd8 14be
00000270: 367d e93d c676 c53d 287f afbd eb56 08be
00000280: 604b 63bc f690 8a3d 5180 83bd ce23 e13d
00000290: f9f7 2c3e 0b15 1b3e 5d7a 05be bd56 d7bd
000002a0: 4b27 22be bf2b 0cbe 14d4 febd d7c6 11be
000002b0: 4c13 313d 6032 3fbd ef7e 293e 0ab6 b4bd
000002c0: d259 8c3d 0a80 313e 4f17 143e 8eeb db3d
000002d0: d7d2 273e 80c3 d43a 3a9f d73d eb15 16be
000002e0: 366c ec3d 7699 79bd bdcf 1a3e 13eb 183e
000002f0: 997f 0e3e fbba 303e 5c28 b5bd d03d 22bd
00000300: a0b6 d43b 6105 09be bb16 debd 62f1 f83d
00000310: 3e1c 16be c0f6 433c de67 863d dca8 16bd
00000320: 3ff0 debd 0f83 34be f4fe 41bd 9018 02bc
00000330: e0c6 e9bd 794d 133e 2c91 05bd 99ab 093e
00000340: 7884 923c aeb3 c03d 78f3 4ebd cc29 8d3d
00000350: fbe4 0f3e 5eae b93d 8623 82bd 5ec8 cf3d
00000360: 8ead f03d d43a 763d 709f 92bd f157 8abd
00000370: e89c 373d 88ba 25be c0cf 12be 32ea eb3d
00000380: 94f0 5f3d 43dc e8bd 10e5 d4bd 05cf 333e
00000390: 540a 06be 9115 143e 5869 c9bc 4fd8 dbbd
000003a0: 0c1f 08be dc23 d5bd 8dd7 283e 4f6f 0d3e
000003b0: 8f25 2dbe 20c0 2a3c c4a1 653d a664 db3d
000003c0: 88ce 32bd b845 09bd ef40 80bd a22d 9e3d
000003d0: 2ad3 f43d 8383 013e 7371 333e 015c d0bd
000003e0: f71a 91bd 45a2 323e 377d a6bd 440e 3bbd
000003f0: 523b 29be b043 763c f28f f73d 4964 ecbd

lstm_layer.bias_ih_l0 f4 [128]
0.070274726 0.015309191 -0.043702926 -0.18087788 0.059561275 0.27218112 -0.0020810838 -0.14972647
0.09411582 -0.149271 0.15255713 0.2183843 -0.07852016 -0.24699028 -0.1276835 -0.2710557
0.11192088 -0.025488615 0.009583191 0.10799665 0.20543088 -0.26122642 -0.18525371 0.053075094
-0.2142047 0.23426497 0.18966027 0.2546145 0.21479286 -0.26177064 -0.028833367 -0.05149124
-0.0389435 0.07883002 -0.1649882 -0.15664801 0.059868753 0.024511795 -0.123513594 0.105810784
-0.13248825 0.12659445 0.0906222 0.12502767 -0.15574622 -0.16764767 -0.058178686 -0.09459605
0.020490631 -0.06814443 0.071029514 -0.056492984 -0.10975385 0.040296644 -0.038211614 -0.14621475
0.08207391 0.06700045 0.017170474 0.026376486 -0.052314393 -0.05142021 -0.025137976 0.08745436
-0.2103296 0.0051943595 -0.2638614 0.21288761 0.2558383 -0.030980589 -0.09778077 -0.26066804
0.31274697 -0.30343902 0.053118 0.12987891 -0.10099287 0.08480221 0.033808745 0.16097389
-0.03541784 0.13953547 -0.36748338 -0.61136866 -0.06920599 0.07419735 0.118374616 -0.005582224
0.30970404 0.07733276 0.101613134 0.10571558 0.13270824 0.18236673 0.26110634 0.045418464
-0.29738587 0.338385 -0.17129563 -0.046262488 0.28286266 0.06800688 -0.26182646 -0.31411085
0.23710072 -0.028729526 -0.14768814 0.3373957 -0.1732238 -0.15335871 -0.0673133 0.23089348
-0.21680681 -9.588374e-05 0.06250584 -0.042467106 -0.1192724 -0.10956512 0.18324609 0.020566411
0.15107194 0.18091102 0.117284134 -0.15982014 0.030358177 -0.0703697 -0.12974484 -0.09544501
00000000: 32ec 8f3d 67d3 7a3c d701 33bd 0d38 39be
00000010: 86f6 733d 535b 8b3e cb62 08bb e551 19be
00000020: ccbf c03d 7fda 18be f037 1c3e 22a0 5f3e
00000030: 2dcf a0bd 05eb 7cbe 77bf 02be d0c7 8abe
00000040: c636 e53d 80cd d0bc d102 1d3c 592d dd3d
00000050: 795c 523e 78bf 85be 26b3 3dbe 4565 593d
00000060: 7a58 5bbe 28e3 6f3e 4d36 423e d55c 823e
00000070: a9f2 5b3e cd06 86be f433 ecbc 7ae8 52bd
00000080: 3883 1fbd a271 a13d abf2 28be 5668 20be
00000090: f038 753d f6cc c83c b2f4 fcbd 53b3 d83d
000000a0: 00ab 07be faa1 013e 2298 b93d 4107 003e
000000b0: f07b 1fbe d5ab 2bbe c64c 6ebd 93bb c1bd
000000c0: f8db a73c 4f8f 8bbd ec77 913d 3065 67bd
000000d0: a0c6 e0bd 180e 253d c883 1cbd 52b9 15be
000000e0: 5e16 a83d 8837 893d 18a9 8c3c 8013 d83c
000000f0: 9e47 56bd 009e 52bd 28ee cdbc 461b b33d
00000100: a560 57be 7235 aa3b d718 87be 36ff 593e
00000110: 3dfd 823e 01cb fdbc 4941 c8bd 4876 85be
00000120: 5f20 a03e 5c5c 9bbe 4392 593d fafe 043e
00000130: 5ad5 cebd c8ac ad3d 0a7b 0a3d 57d6 243e
00000140: 4c12 11bd 63e2 0e3e c826 bcbe a882 1cbf
00000150: dfbb 8dbd c8f4 973d 646e f23d 17eb b6bb
00000160: 8791 9e3e a360 9e3d 8c1a d03d 6981 d83d
00000170: abe4 073e 58be 3a3e bbaf 853e b608 3a3d
00000180: f642 98be cc40 ad3e 1f68 2fbe bc7d 3dbd
00000190: 60d3 903e 3147 8b3d 1e0e 86be 23d3 a0be
000001a0: 88ca 723e 2f5a ebbc 8f3b 17be 21bf ac3e
000001b0: 9461 31be 110a 1dbe 8edb 89bd 576f 6c3e
000001c0: 9b02 5ebe 3115 c9b8 1003 803d fdf1 2dbd
000001d0: 1745 f4bd ad63 e0bd dda4 3b3e e47a a83c
000001e0: 9ab2 1a3e bd40 393e aa32 f03d e4a7 23be
000001f0: b6b1 f83c fd1d 90bd d5db 04be ac78 c3bd

lstm_layer.bias_hh_l0 f4 [128]
-0.17689289 -0.14421225 -0.16141485 -0.04016254 0.11670554 0.25813589 0.12193877 -0.12697488
0.22424197 -0.052506413 0.12740687 0.12958571 -0.052894246 -0.23757479 -0.17030989 -0.3861499
0.22733878 -0.16487785 -0.07685513 -0.028136963 0.24862158 -0.23567803 -0.105601825 0.23064129
-0.16399005 0.24442878 0.088354625 0.13442916 0.044566013 -0.10868713 -0.19620885 0.057375308
0.14006607 -0.128503 -0.15732929 -0.1509969 0.011949748 -0.106114 0.045455635 -0.020544395
-0.15134987 0.062628776 -0.0981598 -0.10796541 -0.1666655 -0.102758504 0.109836444 -0.09327658
-0.033188373 0.16015835 -0.048358634 -0.049267918 -0.053203925 0.026746998 0.0023557842 -0.09435954
-0.030527234 -0.13555084 0.010891169 -0.02297323 -0.025460169 -0.1733185 0.08095576 -0.1297259
-0.106154755 -0.16728993 -0.05154819 0.21238121 0.050655685 -0.123924606 -0.2590576 0.05762288
0.44665593 -0.29595867 0.18613198 -0.07225019 -0.061544277 -0.17207395 -0.1382071 -0.00153861
-0.1370087 0.12121756 -0.46082687 -0.5874514 -0.15394282 0.11235485 0.07195668 0.24813248
0.15383384 0.07873616 0.3346333 0.115565 0.13312326 -0.041513678 0.078115664 0.2759942
-0.20976123 0.2301261 0.029496415 0.0851461 0.08516342 0.22597758 -0.0819161 -0.21959129
0.010928596 0.027566096 -0.11662901 0.5689447 -0.187289 -0.14800678 -0.08551514 -0.010312271
-0.10308222 -0.0035629312 0.06622939 0.29025844 -0.12495561 0.13109034 0.48283395 -0.047340322
-0.13217369 0.31760502 0.085800916 -0.15117893 -0.1304699 -0.2542395 -0.17152 -0.19164096
00000000: 6923 35be 60ac 13be ef49 25be 7a81 24bd
00000010: 5003 ef3d 632a 843e 09bb f93d b405 02be
00000020: b09f 653e f710 57bd f276 023e 1eb2 043e
00000030: a3a7 58bd ce46 73be b765 2ebe 71b5 c5be
00000040: 7fcb 683e bdd5 28be 3966 9dbd 7d7f e6bc
00000050: a896 7e3e 9555 71be c545 d8bd 3b2d 6c3e
00000060: 02ed 27be 8a4b 7a3e 45f3 b43d cca7 093e
00000070: da8a 363d 5c97 debd f9ea 48be 5f02 6b3d
00000080: 7b6d 0f3e 4a96 03be ee1a 21be ee9e 1abe
00000090: e0c8 433c 4c52 d9bd b02f 3a3d b84c a8bc
000000a0: 76fb 1abe 8443 803d 0108 c9bd f81c ddbd
000000b0: 5caa 2abe 0d73 d2bd eef1 e03d cb07 bfbd
000000c0: 88f0 07bd 8d00 243e b413 46bd 28cd 49bd
000000d0: 5cec 59bd 851c db3c 8063 1a3b 933f c1bd
000000e0: 4014 fabc d7cd 0abe e070 323c 5b32 bcbc
000000f0: d891 d0bc 687a 31be 22cc a53d ded6 04be
00000100: aa67 d9bd 0d4e 2bbe 3224 53bd 767a 593e
00000110: 567c 4f3d 2fcc fdbd 33a3 84be f805 6c3d
00000120: 16b0 e43e e587 97be 6299 3e3e e8f7 93bd
00000130: da15 7cbd 2734 30be 2986 0dbe 2fab c9ba
00000140: 024c 0cbe e940 f83d 80f1 ebbe 3763 16bf
00000150: 30a3 1dbe 4d1a e63d 065e 933d 7116 7e3e
00000160: 9e86 1d3e 6d40 a13d 0e55 ab3e 58ad ec3d
00000170: 7751 083e 3f0a 2abd 1bfb 9f3d 1d4f 8d3e
00000180: a6cb 56be 2da6 6b3e 77a2 f13c 1461 ae3d
00000190: 296a ae3d ab66 673e a1c3 a7bd 8adc 60be
000001a0: db0d 333c 4bd2 e13c 31db eebd 5ca6 113f
000001b0: b0c8 3fbe 178f 17be 9022 afbd cdf4 28bc
000001c0: c51c d3bd 1180 69bb 46a3 873d c19c 943e
000001d0: bae8 ffbd 8c3c 063e 0336 f73e ede7 41bd
000001e0: 8a58 07be 209d a23e 64b8 af3d a6ce 1abe
000001f0: e799 05be ae2b 82be f0a2 2fbe 873d 44be

fa1.weight f4 [2, 32]
4.0350366 -3.6851475 3.2003996 2.382548 2.290043 -2.2565906 -0.51206344 -3.0436363
-1.6004227 -2.3086014 -1.6714867 -3.0396578 1.7354014 -1.3056636 0.9200079 1.6551864
2.50694 0.5658817 -2.866774 -2.8289707 -0.025066411 3.0170577 1.7368891 2.2561932
0.086352475 -3.6652129 5.5514784 0.9241479 0.82479465 -0.67414206 0.9775707 3.9034042
-1.6616663 -1.7125967 -1.067264 2.2194762 1.6078615 -3.1911879 2.3742125 -3.9900393
2.197601 -0.91809756 -4.468048 1.7849075 2.3754408 -1.5799502 -3.6210582 -3.3636904
-1.8029314 -2.690004 2.249705 2.124844 -2.0314837 -3.5471485 2.8565857 2.1662376
2.4819708 1.836108 1.2376866 -2.1527934 3.1980128 -2.146027 3.3539314 0.30714482
00000000: 051f 8140 75d9 6bc0 59d3 4c40 ab7b 1840
00000010: 1190 1240 fb6b 10c0 9716 03bf f0ca 42c0
00000020: a7da ccbf 20c0 13c0 47f3 d5bf c189 42c0
00000030: a221 de3f fc1f a7bf a385 6b3f 26dd d33f
00000040: b471 2040 a0dd 103f 3a79 37c0 db0d 35c0
00000050: 1358 cdbc 7917 4140 6252 de3f 7865 1040
00000060: 91d9 b03d d992 6ac0 b6a5 b140 f594 6c3f
00000070: be25 533f 9394 2cbf 1342 7a3f 60d1 7940
00000080: 7bb1 d4bf 5e36 dbbf 1b9c 88bf e60b 0e40
00000090: 68ce cd3f 6c3c 4cc0 19f3 1740 ce5c 7fc0
000000a0: 7fa5 0c40 7108 6bbf 40fa 8ec0 d977 e43f
000000b0: 3907 1840 cf3b cabf 6bbf 67c0 b446 57c0
000000c0: 75c6 e6bf 0729 2cc0 2bfb 0f40 72fd 0740
000000d0: d403 02c0 7b04 63c0 4dd2 3640 a3a3 0a40
000000e0: 9cd8 1e40 9605 eb3f 846c 9e3f 5ec7 09c0
000000f0: 3eac 4c40 8258 09c0 d0a6 5640 1642 9d3e

fa1.bias f4 [2]
-3.4827056 0.16461684
00000000: a6e4 5ec0 5191 283e
