hydrone_aerial_underwater_ddpg/scripts/Models/sac_stage_1_air2D_tanh_4layers/1400_policy_net.pth (torch_old, 557571 bytes, 10 tensors)

linear1.weight f4 [256, 24]
000000 57 d3 02 be 11 ba 89 be 31 99 12 be 64 35 aa bd
       -0.12775932 -0.2689977 -0.1431625 -0.08310965
000010 52 d2 49 bd 36 7c 6e bb e5 c7 33 3e 49 96 1e 3d
       -0.049272843 -0.0036389953 0.17556722 0.03871754
000020 c4 73 03 3e 5e ad 82 3e a7 37 79 3e 57 a8 ac 3b
       0.1283713 0.25522894 0.24337636 0.005269091
000030 e6 55 07 3e cb e9 9e 3d 71 2f b1 bd 14 ef 8f 3d
       0.13216361 0.07759436 -0.08651627 0.070280224
000040 4a 46 44 3e 30 d1 96 bd e2 d9 aa be 06 68 9c be
       0.19167438 -0.07364118 -0.33369356 -0.30548114
000050 bd b6 1e bf 31 7e dd be 0e 71 4b 3f 77 2c 14 3f
       -0.61997586 -0.4326034 0.7946938 0.5788035
000060 96 eb 97 bd 4a 1e 6c be 30 c0 5d be f2 7a 0c bd
       -0.07417981 -0.2305843 -0.21655345 -0.034296937
000070 b7 07 40 3e f1 e1 4b 3c 7c 21 71 3d 77 3e 3c 3d
       0.18752943 0.012444005 0.058869824 0.04595801
000080 46 1b 14 3c 63 fa 29 be 29 ec 32 bd b6 98 34 be
       0.009039706 -0.16599421 -0.04368225 -0.1763638
000090 cd 03 8f be 50 ab 4d be 46 22 48 be 2c 05 3e bc
       -0.27932587 -0.20084882 -0.19544324 -0.011597913
0000a0 ac a4 cd 3d 0d ff 5c bb a1 87 8e 3e d8 54 8f 3e
       0.10041174 -0.0033721358 0.27837852 0.27994418
0000b0 de ee 23 3c 2c d6 ef 3d 69 bc 84 3f 5b b8 81 3f
       0.010005681 0.11710772 1.0369998 1.0134386
0000c0 4c 9f 83 bc 28 be 8d 3c b1 16 1e 3e 6d f5 ec 3c
       -0.01606717 0.017302588 0.15438344 0.028925622
0000d0 a9 7d 35 be cd 60 c0 bd 1d d2 11 be 0b ad 61 be
       -0.17723717 -0.09393463 -0.14240308 -0.22038667
0000e0 37 71 70 be ca 37 0f bd 84 74 4c 3d 29 ed a2 3d
       -0.23480688 -0.034965314 0.049915805 0.07955391
0000f0 bb 79 b6 bd 74 24 39 3e 27 5c 40 3c c6 20 dd 3d
       -0.08909937 0.18080312 0.011740721 0.10797267
000100 05 3a 51 3e c6 5d 25 3e 02 f2 22 3c b5 87 5f be
       0.20432289 0.16149053 0.0099453945 -0.21829112
000110 4f 54 0a 3e 12 0d a2 be 32 b6 c4 3f 71 b6 97 3f
       0.13508724 -0.31650597 1.5368102 1.1852552
000120 d5 2f 6d 3e ba ed 4b bd 2c 0c a8 bc 5c 6d e7 3d
       0.23162778 -0.04978726 -0.020513617 0.113001555
000130 15 03 6b bd 26 8d 59 bd 19 e9 cc be 97 2d a4 be
       -0.057375986 -0.053113125 -0.4002159 -0.32066032
000140 fe 08 a5 be 35 31 c0 be ba 3a 7a bd 9c ff f6 ba
       -0.32233423 -0.37537542 -0.061091162 -0.0018844488
000150 66 21 aa bd 46 0c 5f be 53 f1 eb 3d 7f 87 d1 3e
       -0.083071515 -0.21782026 0.11520638 0.40923688
000160 04 87 1d 3d da 3f c7 bd cc 1a 77 3d 4b f0 cd bd
       0.03845884 -0.097289756 0.06032829 -0.10055598
000170 72 d4 8a bd 56 83 02 3e df 23 2d bf 38 1e ba 3f
       -0.06778802 0.12745413 -0.6763286 1.4540472
000180 66 b6 a8 be 18 dd 68 be fc 34 a1 3d cf 65 a2 3e
       -0.3295166 -0.2274059 0.07871434 0.317183
000190 3a 50 b2 3b 7d 09 e0 bc 7e fa cc 3d 00 43 8c 3e
       0.0054416927 -0.027348274 0.10008715 0.27394867
0001a0 b8 99 1e 3e 35 65 7f 3e fd a0 2d 3e 4b b1 03 3c
       0.15488327 0.24940951 0.16955943 0.008037875
0001b0 b1 04 27 be 8c ce 0d 3e 36 05 09 3e 01 73 9f 3d
       -0.16310383 0.13848323 0.13380894 0.07785607
0001c0 a5 53 1c 3d b8 31 1d be 98 67 8d be 96 f5 a8 be
       0.038165707 -0.15350997 -0.27618098 -0.32999867
0001d0 89 1f 03 be 07 b9 8e be 33 dd 00 bf f0 14 06 3e
       -0.12804998 -0.2787554 -0.50337523 0.13093925
0001e0 d8 68 b0 bb c6 e2 81 bc 17 d7 21 bd f5 48 57 be
       -0.005383592 -0.015855204 -0.039511766 -0.21023925
0001f0 87 13 e4 bc 5b 07 64 bd bc 93 9f bd 56 99 ca bd
       -0.027841343 -0.055671077 -0.0779185 -0.09892528
000200 d5 92 4d be 53 f9 cc 3d 85 9e f2 3d 73 4c bf 3c
       -0.20075543 0.10008492 0.118466415 0.023351884
000210 a3 59 2c be 43 06 5b be 00 64 76 3d 4f a1 99 3d
       -0.16831069 -0.21389107 0.06015396 0.0750147
000220 38 6c 00 3e 97 10 97 3d 6b 48 65 3e b6 2c d4 3c
       0.12541282 0.07376211 0.22390907 0.025900226
000230 0d 4d 2f bf a0 9b 58 3e 73 e0 d4 3f d1 fd 72 bf
       -0.68476945 0.21153116 1.6630996 -0.94918543
000240 6a b0 8f bc 6e d9 96 bd 08 91 2b be d3 6c 6b 3d
       -0.017540175 -0.0736569 -0.16754544 0.05747683
000250 b7 0f 2e 3d 17 7a fe bc 7b 9d e0 3d b9 1a ba 3c
       0.042495456 -0.031064076 0.10967537 0.02271782
000260 39 3a 06 be 9e 94 03 be 8d 7a a1 be e3 d8 31 3c
       -0.13108148 -0.12849662 -0.3153881 0.0108549325
000270 84 d0 56 be a2 e6 86 be 99 e1 b0 be dc 4d 8c bc
       -0.2097798 -0.26347834 -0.34547117 -0.01712697
000280 d3 ce a8 bd 9c 9b 08 3e 1d 57 30 3e 38 c4 05 bc
       -0.082425736 0.1334061 0.17220731 -0.008164458
000290 d0 e3 9f 3e 69 5b c9 3e 27 4b e2 bf 0d 2c 9d 3f
       0.31228495 0.39327553 -1.7679185 1.2279068
0002a0 fa 56 1d 3e 54 ad 5b 3e d3 d9 89 bd 09 5e 22 bd
       0.1536521 0.21452838 -0.06731 -0.03964046
0002b0 7a 38 6a be f3 d9 c8 bd dd ab 08 be 16 6c 0b 3d
       -0.22873107 -0.098071955 -0.1334681 0.034038626
0002c0 91 92 4d be fc 4c 14 be eb b3 cc be d4 cc 60 be
       -0.20075442 -0.14482492 -0.39981017 -0.21953136
0002d0 03 b6 e0 be 7c 18 ab be 04 c7 43 bd 19 fc 06 be
       -0.43888864 -0.33417118 -0.047797218 -0.13182105
0002e0 01 fe 01 bd 10 e8 a2 3e 78 bd 2a 3d 66 19 24 3e
       -0.031736378 0.31817675 0.041684598 0.16025314
0002f0 94 c1 b6 be 78 11 2f 3f 5e 9b cc 3f dd cd bf be
       -0.35694563 0.6838603 1.5984914 -0.3746175
000300 39 02 a6 bb 12 16 19 bc 26 14 56 3e ab 0b 32 be
       -0.005066183 -0.009343641 0.20906124 -0.17387263
000310 cf 90 e9 3c b4 98 eb 3b 4b ec 05 be 09 17 95 be
       0.028511433 0.0071898345 -0.1307842 -0.29119137
000320 ed 94 99 be 5a ef b9 be 6b bd 0d bf bc ff f9 be
       -0.29996434 -0.36315423 -0.55367154 -0.48827922
000330 bc c1 89 be 46 72 b7 be ca b4 41 be 5d d8 29 3d
       -0.2690562 -0.3582937 -0.18916622 0.041466106
000340 4c fb 4f 3e 5e 77 14 3d 0c 96 94 3e 38 0f 7b 3e
       0.20310706 0.03624665 0.29020727 0.24517524
000350 32 66 3c 3e f0 80 96 3e 98 1f 29 bf 41 39 6b bf
       0.1839836 0.29395247 -0.66063833 -0.9188424
000360 9a 0c 00 be fc 12 be bd 24 d6 ee bd b8 7d 00 bd
       -0.12504807 -0.09280965 -0.11661938 -0.031369895
000370 bf bf af bd f4 dd f8 bd 3c a5 77 3d 60 2d f6 bd
       -0.085814945 -0.12151709 0.060460314 -0.12020373
000380 dc 89 30 3d 28 20 ef bc 85 50 b8 bd cc 39 f4 3d
       0.043100223 -0.029190138 -0.08999733 0.119250864
000390 3c 4d 06 be 98 62 40 bd 9c 69 67 3d 66 07 ea bd
       -0.131154 -0.046969026 0.0564972 -0.114271924
0003a0 80 13 1d bb d8 be 1c 3d 9c ed 54 bd 18 75 a1 bc
       -0.0023967922 0.03826794 -0.051984414 -0.019709155
0003b0 00 3f 55 3c 96 ea 4c bd f0 f7 3e 3c b0 7f 05 3c
       0.013015509 -0.050028406 0.011655793 0.008148119
0003c0 a9 6f 8d be 44 9b 90 bd a6 9e 29 bd ec 49 b6 be
       -0.27624252 -0.070608646 -0.041411065 -0.35603273
0003d0 86 c2 ea bd 1a fb b4 3d ab 8b 6d 3d 46 8d ad 3b
       -0.11462884 0.08836956 0.057994526 0.005296382
0003e0 cd bc 60 bd 12 ee 2e be 3b 45 d8 bc e5 41 8f be
       -0.054867554 -0.17083004 -0.0264002 -0.2797996
0003f0 8c 4d 85 bc ec ec 98 3e e2 4e 01 3f 08 5d 62 3e
       -0.016272329 0.29868257 0.5051099 0.22105801

linear1.bias f4 [256]
000000 0f c7 07 bd 46 62 b1 bb 94 04 3e bd 21 8c a1 3d
       -0.03314882 -0.0054133264 -0.046391085 0.078880556
000010 c0 a4 78 bd cf e7 a4 bb 14 18 1f bd 54 81 61 3d
       -0.060703993 -0.0050325166 -0.038841322 0.055054978
000020 9c df d1 3d 00 00 00 00 b2 85 53 bd c3 8d 02 bd
       0.10247728 0.0 -0.051641174 -0.031873476
000030 d0 31 31 3d 2e aa b2 bd 95 fb 5c bc 96 c7 68 bc
       0.043260396 -0.087238654 -0.013487716 -0.014207741
000040 d5 f8 cf 3c c3 89 e1 bc 7d bd 1d 3e af 97 24 bd
       0.025387207 -0.02753151 0.15404315 -0.04018372
000050 3d 75 ba bc 9e 55 a2 3d 22 55 10 bd 68 e0 84 bd
       -0.022760982 0.079264864 -0.03523744 -0.064881146
000060 91 91 08 bb 52 57 e2 bc dc be 86 3c b7 92 c5 bb
       -0.0020838717 -0.027629528 0.01644843 -0.0060294527
000070 ce 95 93 bd fc be c4 ba e4 c2 95 bc d8 a7 00 3d
       -0.07206307 -0.0015010531 -0.018281408 0.03141007
000080 1a df 28 bd 9c 5c c6 3b 5d 61 77 bc 2c f7 1d bd
       -0.04122839 0.0060535204 -0.015098897 -0.0385658
000090 f3 12 05 3c 8f 82 8e bd 3e cc 5a bd ba 3a 67 3c
       0.008122194 -0.06958496 -0.053417437 0.014113123
0000a0 ed 84 e9 3d 4d 4d 30 bc 2e bc 2e 3d da 24 19 3c
       0.11402307 -0.010760617 0.04265993 0.009347165
0000b0 0d a9 98 bc 56 8c be 3d ec 25 7f bd 8f a7 9e 3c
       -0.018635297 0.09304111 -0.062292024 0.019367008
0000c0 40 ff aa 3c d9 08 ad bc e6 a0 51 bb a7 6f 9a bd
       0.020873666 -0.021122383 -0.0031986772 -0.07540827
0000d0 42 78 ce 3c 4e 81 f2 bc b8 f2 43 3d 99 db 5d bd
       0.025203828 -0.029602673 0.047838897 -0.054164503
0000e0 7e 70 1c bc 70 ee c2 bc ed c6 45 3d bf 3f 08 3d
       -0.009548305 -0.023795336 0.048285414 0.033263918
0000f0 51 fb 71 3c b0 81 da bb 90 9a 14 bc 9c f5 c6 3d
       0.014769391 -0.006668292 -0.009070054 0.09714815
000100 89 3a fd 3d 74 37 f0 3d d0 5b 13 3d fb 96 9d bc
       0.1236468 0.11729327 0.03597623 -0.019237032
000110 33 77 2f 3d f6 df ba 3d 78 47 a8 3d 81 dd cb bb
       0.042838287 0.091247484 0.082167566 -0.0062214737
000120 09 b5 4d 3e 69 3e 66 3d aa 6a 28 be cc 36 43 bd
       0.2008859 0.056211863 -0.16446939 -0.04765968
000130 0a 38 71 3d 0d 87 d5 3c 88 88 e0 bc 37 83 58 bd
       0.058891334 0.026065374 -0.027408853 -0.05285951
000140 38 59 cd bc b9 ff 1c bd 00 00 00 00 a8 5d 03 bd
       -0.025066957 -0.038329814 0.0 -0.03207174
000150 fb 21 4c 3d ca e2 46 3d de 90 be bc b7 35 75 bc
       0.049837094 0.048556127 -0.023262437 -0.01496642
000160 bd 8b 6d 3c 1d 10 75 bd c0 fd 2c 3d 5c 3b 9f bc
       0.014498648 -0.05982982 0.042234182 -0.019437484
000170 85 99 8f 3d 46 6b 80 bd cb 67 b6 bd f0 a0 43 3d
       0.070117034 -0.06270461 -0.08906516 0.047760904
000180 17 9d 06 3e 8a 61 d7 bc 0d 00 3c bd c7 da 6a bd
       0.13145863 -0.026291627 -0.045898486 -0.05733755
000190 5e 7a 68 bc e3 3e 1a bc 47 c1 45 3d bb 2f f9 3d
       -0.014189331 -0.009414407 0.048280027 0.12167307
0001a0 92 82 eb bc bd 25 8c 3d 23 4b 41 bd 73 81 69 bd
       -0.028748784 0.068431355 -0.047190797 -0.057008218
0001b0 ff 68 32 bd a2 00 8e 3c a5 78 ab 3d fc eb ba bd
       -0.043557163 0.017334286 0.083726205 -0.09127042
0001c0 34 b3 31 3d 00 00 00 00 73 ca 1b bc 58 be 24 3e
       0.043383792 0.0 -0.009508717 0.16088235
0001d0 bb 88 aa bd 6c ab 37 bd 58 f2 13 bd d4 d4 8c bd
       -0.083268605 -0.044841215 -0.03611979 -0.06876531
0001e0 2b cf e9 3c 22 8d 7d bd 41 88 71 bc ba 5f bd bc
       0.028541168 -0.061902173 -0.014741958 -0.023116935
0001f0 e9 74 4f bc 17 2d 83 bc da fd a6 3c 87 1a fd 3b
       -0.012662151 -0.016012711 0.020384718 0.0077241096
000200 1e 49 6e b9 ac fb 93 bd 07 68 94 bd 83 53 fd 3c
       -0.00022724687 -0.07225737 -0.07246404 0.03092361
000210 17 9e 26 bd f0 d7 02 3d 5d aa 69 bd c3 68 94 bc
       -0.04067811 0.031944215 -0.057047237 -0.01811636
000220 e3 d9 8c bc d2 e3 1b bc ac e8 23 3d 69 5a 49 bd
       -0.01719374 -0.009514766 0.040016815 -0.049158487
000230 45 4b a1 bd 74 07 07 3d 36 d4 80 bd 01 c3 2d 3b
       -0.07875685 0.032966092 -0.06290476 0.0026513936
000240 bc e0 00 3d 4a 76 ce 3b a7 ac d3 bc 8c f3 6d 3d
       0.031464323 0.0063007222 -0.025839163 0.058093593
000250 52 cb a0 bc 16 6e 18 3d e7 06 37 3e 24 60 9d bc
       -0.0196282 0.03721436 0.17873727 -0.019210882
000260 6c 5f 12 3d 09 ee a2 bc 7b 52 1e 3e 26 48 d5 bc
       0.035735533 -0.019888895 0.15461151 -0.02603538
000270 02 06 fe 3c 3f 29 ce bd fd eb 20 bd 7a 5a 12 bd
       0.031008724 -0.10066461 -0.039287556 -0.035730816
000280 d6 3a e6 bc 90 85 9a ba 79 cd d6 bb d6 e4 dd 3d
       -0.028104227 -0.0011789072 -0.006555256 0.108346626
000290 f4 0e 18 bd 8a 22 c7 bd a5 2b 36 3d 83 33 a5 3d
       -0.037123635 -0.09723385 0.044475216 0.08066466
0002a0 fb 8a e0 3b 52 45 97 bd ef a3 40 bd 00 00 00 00
       0.0068525053 -0.07386269 -0.04703134 0.0
0002b0 a0 4b c9 bc 51 7b 3c bd d2 bd 78 bc 62 62 8c bc
       -0.024572194 -0.04601604 -0.015181975 -0.017136756
0002c0 ee 5d 89 bd 72 5f e3 bc d0 df 1a be a3 9b ef 3c
       -0.06707369 -0.027755473 -0.1512444 0.029249018
0002d0 0d 71 b1 3d 39 e1 df bc af 49 bb 3d 51 d7 e8 bd
       0.08664141 -0.027329074 0.091449134 -0.11369193
0002e0 00 00 00 00 3f 4d 50 3e d5 5c 4c bd 00 e4 97 3c
       0.0 0.20341967 -0.04989322 0.018541336
0002f0 b9 39 1d 3d 91 e0 97 bc 7e 7f 94 bc 72 49 e6 3b
       0.038385127 -0.018539699 -0.0181272 0.0070277983
000300 c9 61 be 3b 81 99 d2 bd fe 57 ab bc 8a c0 83 bd
       0.0058099967 -0.10283185 -0.020915981 -0.06433208
000310 19 87 8b bd a0 6b f5 3c 43 a1 bc bc 87 68 d9 3c
       -0.06812877 0.029958546 -0.023026114 0.0265391
000320 5d 14 f1 bc ba 6e 67 3d 36 0c 81 bd 75 ee 14 3d
       -0.029428655 0.05650208 -0.06301157 0.036360223
000330 24 b2 31 bd b2 1d 6c 3d 30 a1 c9 3d 6e 5a e6 bc
       -0.04338278 0.057645507 0.09845197 -0.028119292
000340 86 9a b8 3b 4d 91 84 bb 90 05 06 3c 2b 2b 76 bd
       0.005633655 -0.0040456415 0.008180037 -0.060099762
000350 79 6d 9a 3d 2f b1 b3 bc fd ba 01 3d 64 2c 11 bc
       0.075404115 -0.021935074 0.031672467 -0.008860681
000360 b1 60 3f 3e 89 ab d6 bc ea 72 9c 3b a0 80 ff 3b
       0.18689229 -0.026204841 0.004774441 0.0077973157
000370 0a e9 67 3d b9 9a c4 3d 46 c4 5a 3c 0a 16 04 bc
       0.056618728 0.095998235 0.013352459 -0.008061895
000380 c2 4f 86 bc ef 31 f1 3c 3e a5 8f 3d b9 26 8a 3d
       -0.016395453 0.029442756 0.07013939 0.06745667
000390 1f 6b db bc ba 09 35 bc ff d4 44 3d 9a ae f4 bd
       -0.026784478 -0.011049682 0.04805469 -0.11947365
0003a0 3c 87 23 3d 68 18 92 3c e0 0c 9a bd 44 d1 b5 3c
       0.03992389 0.017833903 -0.07521987 0.022194512
0003b0 d9 b6 55 bc d7 20 64 bd 45 19 9b bd 25 74 8e 3d
       -0.013044083 -0.05569538 -0.07573179 0.069557466
0003c0 29 6e a7 bd cd 4a a9 bc 62 b3 52 bd b7 f9 82 bd
       -0.08175308 -0.02066555 -0.051440604 -0.063952856
0003d0 71 a1 ec bb 2e cd bf bc b4 18 e3 bd 1a 53 8f bd
       -0.0072213938 -0.023413267 -0.11088696 -0.06998272
0003e0 eb b3 88 bd c7 9a 83 bc ce 4d 9b 3d fa bc 2c 3d
       -0.06674942 -0.016065015 0.075831994 0.04217241
0003f0 7d f1 68 bc 3e 59 8f 3d 6f 49 fc bc cd 75 08 bd
       -0.014217732 0.069994435 -0.030796735 -0.03331547

linear2.weight f4 [256, 256]
000000 a2 cf 00 3d d0 72 f8 bc e7 db a4 be 2d 30 f0 be
       0.031448014 -0.030328184 -0.32199022 -0.46911755
000010 ed 82 67 bc cc d1 64 3e 74 68 b9 bd 9d ed 39 bf
       -0.014130336 0.22345656 -0.09053126 -0.72628194
000020 8f f7 c1 bd 42 c4 7d bd 10 47 ee 3e 94 3a 3a bd
       -0.09471046 -0.061954744 0.4653859 -0.04546602
000030 60 55 0d 3e 14 74 0d bf aa d0 69 3d eb 06 51 bc
       0.13802099 -0.55255246 0.057083763 -0.012757997
000040 eb 34 ac be f6 b0 09 bf ed 9c 84 bd 47 11 3e 3e
       -0.33634123 -0.53785646 -0.06475244 0.18561278
000050 f9 64 db bd e4 1b 78 3d 50 c3 09 3e da 1d fe be
       -0.107126184 0.060573474 0.13453412 -0.4963215
000060 aa d0 b8 bd b9 36 d5 be c4 c6 65 bd 1c 5b c9 bd
       -0.090241745 -0.41643313 -0.05609776 -0.09831831
000070 1e 35 f2 bd 11 0c 6c be 33 13 bb bc 0b 67 09 bf
       -0.118265375 -0.23051478 -0.022836303 -0.53672856
000080 7b 71 08 bf 50 84 8e 3e 96 e9 8c 3e e3 ae b0 3e
       -0.5329816 0.2783532 0.27521962 0.34508428
000090 83 f8 59 3d f8 2e 89 3e a4 d9 52 3e 60 1e a2 3b
       0.053215515 0.26793647 0.20590836 0.0049474686
0000a0 1a 1e 53 3e 21 5d 9c 3d a5 ce 8a 3e 3a 44 66 be
       0.20616952 0.076349504 0.27110782 -0.22486964
0000b0 18 ba 37 be 69 9a 43 bf 96 b1 0e bf 5f 7d b4 bd
       -0.17942083 -0.76407486 -0.55739725 -0.08812975
0000c0 21 62 d4 bd 89 5c bd 3d d7 85 c4 be bb 84 58 3e
       -0.10370279 0.09246165 -0.38383362 0.21144383
0000d0 7b ab c3 be 90 49 26 bd a1 73 5d 3d f6 81 5c 3e
       -0.38216767 -0.0405975 0.05406535 0.21533951
0000e0 7b 12 44 3e 4e 39 50 3d 5b da 26 bf b1 cf bd 3e
       0.19147675 0.0508359 -0.65176934 0.37072518
0000f0 d2 37 77 bd bb 98 fe be 98 37 a2 be 5b ab 33 be
       -0.06035597 -0.497259 -0.3168304 -0.17545836
000100 51 f2 aa 3d 79 b6 8e be ca f5 0c 3e da d1 26 3e
       0.083469994 -0.2787359 0.13765636 0.1629099
000110 95 c3 06 3e 68 ba 02 bd 0c 4f 46 bf 60 11 d3 be
       0.13160546 -0.031916052 -0.77464366 -0.41224194
000120 e4 8e be bd 3b 35 89 bf e2 26 15 3e 76 3f 9c 3e
       -0.09304598 -1.071937 0.14565614 0.30517167
000130 18 1c e8 be a4 58 02 bf 5e 5f 94 bd f0 8c 7f 3d
       -0.45333934 -0.50916505 -0.07244752 0.062390268
000140 b8 fd 5a bc d4 10 31 3c b7 6a a9 3d 10 55 7a 3e
       -0.013366155 0.010807235 0.08272307 0.24446511
000150 63 1d bb bc 15 6d d7 3e d4 1c 2d bd b9 5d 9b 3e
       -0.022841161 0.4207541 -0.04226382 0.30344942
000160 f0 3a f5 be 55 9c 26 3e 05 12 c9 be d7 72 36 be
       -0.47896528 0.16270573 -0.3927156 -0.17817245
000170 d3 25 eb 3d 68 33 93 be 58 39 9e be 69 8a af be
       0.11481824 -0.28750157 -0.30903125 -0.34285286
000180 09 90 d2 3e 56 a9 5f 3d fe e2 33 bd 38 10 04 3c
       0.41125515 0.05460485 -0.04391765 0.0080605075
000190 a6 09 31 3d 76 e6 14 bd 7d 77 af 3e f3 45 3a bd
       0.043222092 -0.036352597 0.3427085 -0.045476865
0001a0 43 35 00 bd 4f c3 5c be 7a 74 03 be d2 6a 87 bd
       -0.031300794 -0.2155888 -0.12837401 -0.06612171
0001b0 ca f7 1f bd e0 a0 67 3d 90 2c 8e 3b b1 3a b2 bd
       -0.03905467 0.056549907 0.0043388084 -0.08702601
0001c0 f3 ae b1 be bf 1e 4d bd 77 79 da 3d 1c 67 43 bf
       -0.34703788 -0.05007815 0.10667699 -0.7632921
0001d0 cf dd 98 3e 53 10 9c 3d 9c 78 35 3e c6 3c 25 bf
       0.29856727 0.07620301 0.1772179 -0.6454586
0001e0 bd 7d bd 3e 5c 4d 66 3e 7e 18 df be 70 b1 82 3d
       0.37009993 0.22490448 -0.43573374 0.063815
0001f0 7e df 21 3d 52 50 36 3d 2f f6 4f 3e eb 71 4e bf
       0.03951978 0.044510193 0.20308755 -0.80642575
000200 cf c8 97 3d 16 83 cd 3c 5b f4 c3 be 89 01 8a 3e
       0.07411348 0.02508692 -0.38272366 0.26954296
000210 2d 95 f2 3d f1 90 2f 3e a8 e6 09 bc 39 66 5d be
       0.11844859 0.17145135 -0.008416809 -0.21621026
000220 b6 fb 32 3c d8 0e 81 bd 51 22 49 bf 4d 6c 95 be
       0.01092427 -0.06301659 -0.7856799 -0.2918419
000230 2d 02 82 3d e0 1f 5c 3e 59 7f ca be 3b 10 ab bd
       0.06348071 0.21496534 -0.39550284 -0.08352705
000240 e6 17 66 3d db af 8c 3e c5 d9 d5 3d c9 d2 27 be
       0.056175135 0.27477917 0.10441927 -0.16389002
000250 65 78 e4 3d 6f 46 51 3e c6 3a 83 bd c7 40 c1 3d
       0.11155776 0.20437025 -0.064076945 0.094361834
000260 18 d4 92 3e ae 09 a8 bd e6 2b 89 bf d0 ae cd 3d
       0.2867744 -0.08204971 -1.0716522 0.100431085
000270 3d e4 01 bf 23 5b 32 be 32 2a 1b 3d db eb 46 bd
       -0.5073889 -0.17417578 0.037882037 -0.048564773
000280 ab 66 1f be dc 7d 64 3e a1 25 d6 3d f5 db 4c be
       -0.15566508 0.22313637 0.10456396 -0.20005782
000290 c3 3f 4f bd 04 29 a7 3e 22 66 81 3e 20 af ec 3e
       -0.050597917 0.3264848 0.25273234 0.4622736
0002a0 8b eb 17 be 71 4a ee 3d ae 92 ac 3e 18 49 dd bd
       -0.14835946 0.11635292 0.33705658 -0.10804957
0002b0 09 86 a0 3e a6 71 53 be 8c f0 64 be 2e 91 4a be
       0.3135226 -0.20648822 -0.22357386 -0.19781944
0002c0 68 68 f5 3c ab 66 16 bd 16 d1 03 bf 11 05 3b be
       0.029957011 -0.036719006 -0.51490915 -0.18263651
0002d0 c9 b6 d2 3d c6 03 e2 3e 69 64 c8 bd 53 4f fb 3d
       0.1028877 0.44143504 -0.09784777 0.12270989
0002e0 e6 a0 75 3d 54 27 ac be 55 f7 0d be 20 94 d4 3e
       0.059967898 -0.33623755 -0.13863881 0.4151926
0002f0 c1 c1 71 bd a0 7b 89 3d 5b b4 d7 3d ae 51 bf 3e
       -0.05902267 0.06713033 0.10532447 0.37367004
000300 19 f3 7d 3e 45 8d f3 3e ab 04 2a 3d 1a 16 38 3f
       0.24799766 0.47568718 0.041508358 0.71908724
000310 88 de 82 3c b0 8b 92 3e 99 a4 b7 bd 3d 20 c2 be
       0.015975252 0.28622198 -0.089669414 -0.3791522
000320 6d 5b f8 3c 10 d9 f2 3c 93 02 13 be f6 bd 01 3e
       0.030317033 0.02964452 -0.1435645 0.1267012
000330 75 f8 7f 3d e5 15 48 be 58 95 4e 3e fe e6 4b 3e
       0.062492806 -0.19539602 0.20174158 0.19912335
000340 a9 98 fb 3e a5 5b 19 3e 79 4b 08 be f4 1f 80 be
       0.49139908 0.14976366 -0.1331004 -0.25024378
000350 26 81 8a 3e 93 c5 42 bd 63 be 8d be 8f 51 3c 3d
       0.27051657 -0.047551703 -0.27684316 0.045976218
000360 28 ba 34 3d aa 84 a2 3d ec de bb 3d 60 cc 1b bf
       0.044122845 0.0793546 0.09173378 -0.60858727
000370 09 6c 08 3e b3 b7 2f bf 50 62 d0 be 1f 63 88 3c
       0.13322462 -0.6863968 -0.40700006 0.016648827
000380 07 f6 16 bd 63 01 20 3e 33 1f 88 3d 0c b9 97 bd
       -0.036855724 0.15625529 0.06646576 -0.07408342
000390 bb a7 28 bd fb a3 03 bf 8c aa de 3d 00 09 69 3d
       -0.041175585 -0.5142209 0.10872373 0.05689335
0003a0 8b fb 94 be 69 dc 0e 3e 74 ec 22 3d fc 5d c6 bd
       -0.29098162 0.13951267 0.03977628 -0.09685895
0003b0 c2 02 f5 3c 5d 54 85 3e 69 a4 b6 be e3 30 be be
       0.029908542 0.26040927 -0.3567231 -0.37146673
0003c0 0a e9 8b 3e 2b 7f d9 be 4f 0b ea be 5d 1c e8 be
       0.27326232 -0.42479834 -0.45711753 -0.4533414
0003d0 f4 4e 9a 3e d9 54 24 bd 0d 30 36 3e 0e c9 10 bf
       0.3013836 -0.04011998 0.17791767 -0.56556785
0003e0 7a de 6a 3d 38 9f b9 bd e0 36 47 be 8d 69 e8 be
       0.057341076 -0.09063572 -0.19454527 -0.4539303
0003f0 7d 0f d2 be 29 0d 29 be 27 d4 05 bd 8c 42 4a 3d
       -0.41027442 -0.16508926 -0.032673027 0.04937987

linear2.bias f4 [256]
000000 9d dd 4d be a9 ee 77 3d 79 a3 8b 3c e4 72 95 be
       -0.2010407 0.06053034 0.017045723 -0.29189217
000010 79 f6 4d 3d 22 31 0b bd bb 37 a3 bd ba 8b d8 bd
       0.050283883 -0.033982404 -0.07969614 -0.10573526
000020 f4 5c 9c be 6d f9 c0 3c c7 91 6c 3e 29 be 37 3d
       -0.30539668 0.023556435 0.23102485 0.044859085
000030 cb e6 f3 bd fb 0e ba 3e fd 37 19 3d 49 c9 de bc
       -0.11909255 0.36339554 0.03740691 -0.02719559
000040 f9 82 4e be 46 87 16 3e 2c 2d 05 bf ed 23 2e bf
       -0.2016715 0.1470004 -0.5202205 -0.6802357
000050 3b d9 07 be 2e ad fb bd e7 32 57 3e 46 6e f7 3d
       -0.1326646 -0.12288891 0.21015511 0.1208158
000060 09 36 8c 3d f6 ef d5 be 9c 35 31 3e 74 dc 47 3e
       0.06846244 -0.41784638 0.17305607 0.1951769
000070 63 e3 99 bd 8b f5 9f bd eb 4e 49 3e f0 fb cc 3d
       -0.07514074 -0.078105055 0.19659011 0.10008991
000080 1f 6e d9 3c 1d a0 f7 3c 5d fc 07 bd 35 59 57 3d
       0.026541768 0.030227715 -0.033199657 0.05257531
000090 4c 45 7a 3e 3a de 21 3e e1 e4 35 3e b2 07 de 3c
       0.24440497 0.15807429 0.17763092 0.027103279
0000a0 a0 4c 8a bd e1 0d a7 bd a2 9e f2 3c fc 7c a0 bd
       -0.06752896 -0.08156944 0.029616658 -0.07836339
0000b0 24 a2 d0 3d d0 2d 21 be c5 7d 4a 3d e0 ff 72 be
       0.10187176 -0.15740132 0.04943635 -0.23730421
0000c0 9a 4f 0c be 15 c2 b1 be 67 93 9a bd 17 a9 20 3c
       -0.1370224 -0.34718385 -0.07547646 0.009805939
0000d0 17 59 07 3d bd 40 82 3e 3c 9f 5d 3e 55 ec 83 3e
       0.033043947 0.25440016 0.21642774 0.25766245
0000e0 93 72 a3 3c 9c e3 fe ba a7 65 34 bd fd 68 a8 be
       0.019952094 -0.0019446495 -0.044042256 -0.328926
0000f0 33 5b 5c 3d 48 4b 02 be 69 c0 cc bd a3 b5 4f 3e
       0.05379791 -0.1272403 -0.09997637 0.20284133
000100 30 c1 b0 ba c8 bf 06 3e b4 e0 53 bf 3f 54 8a 3e
       -0.0013485309 0.13159096 -0.82764745 0.270174
000110 13 88 0c 3d ac c0 4b bf 55 77 19 3e 90 fe c1 3c
       0.034309458 -0.7959087 0.14986928 0.023680955
000120 0e d1 73 3d 7c 76 43 3d 72 8b 99 bc 7b 87 8f 3d
       0.059525542 0.047720417 -0.01874325 0.07008263
000130 b9 d9 1d 3e e4 81 85 bd f1 8d 8a 3e e9 4f 41 3e
       0.15415086 -0.06518915 0.27061418 0.1887814
000140 28 52 95 bc 1b d9 c5 be 82 6f d2 3c 5f 36 55 bd
       -0.018227652 -0.386422 0.025687937 -0.052053805
000150 71 7d ab bd e8 dd b0 3d 72 66 5a 3d 89 3d 21 bd
       -0.083735354 0.08636075 0.053320356 -0.039365325
000160 09 2c 4f be 44 ec 80 bd 9a 5f 07 3e 8e 2f 0e be
       -0.20231642 -0.06295064 0.13220063 -0.13885328
000170 c5 5e ac 3c 2b 8b 98 3d 8b b2 73 3e 57 c3 90 be
       0.021041283 0.07448419 0.23798577 -0.28274032
000180 c5 53 a6 bd 91 74 53 3d 32 e6 3e be ab 8e ce bd
       -0.081214465 0.05162484 -0.186425 -0.100858055
000190 82 60 ab 3d 8e 0e c9 3c 64 c9 69 3e 54 82 96 3d
       0.08368017 0.024543073 0.2283073 0.07349077
0001a0 bf 11 9f 3d 68 dc 26 3e 9b a3 8b be 92 bd 25 be
       0.07767057 0.16295016 -0.2727326 -0.16185597
0001b0 c9 e7 d5 3c 77 43 71 bd 20 90 76 3e 52 8b 35 3e
       0.0261115 -0.05890223 0.24078417 0.17728928
0001c0 c7 ea d7 3d b8 a7 91 3d 92 50 28 bd 31 ce 2a 3d
       0.10542827 0.07112068 -0.041092463 0.041700546
0001d0 03 6f 4a 3a 8a 71 ab bd c2 4c 2b bd b7 d4 a1 bd
       0.00077222305 -0.08371265 -0.04182125 -0.079019
0001e0 f6 a2 82 bd 2b 17 27 3e 6b d5 05 be 90 b3 a5 3c
       -0.063787386 0.16317432 -0.13069694 0.020227224
0001f0 25 da be bd 56 3f 83 bd 40 0a f8 3c 0e f2 44 bd
       -0.093189515 -0.06408565 0.030278325 -0.048082404
000200 15 19 ab 3c d1 06 13 bc 7c 49 ce 3d ce 60 b0 3d
       0.020885983 -0.008973793 0.1007261 0.08612214
000210 17 f0 83 3d dd ec 02 3d 68 bd 56 3b 34 ba 0f be
       0.06442278 0.03196417 0.0032766704 -0.14035875
000220 3a 6e ad 3d 22 3e 1e be 1f da 0e 3d 36 34 41 bd
       0.0846829 -0.1545339 0.034875985 -0.047168933
000230 ba a5 55 be d7 f5 e9 3d f5 38 86 bd c1 78 b4 bc
       -0.20864001 0.11423843 -0.065538324 -0.022030236
000240 26 d0 47 3e 9e 90 9c bd bf df 46 3c c5 da 99 be
       0.19512996 -0.07644771 0.012138306 -0.3004972
000250 6a 5b a2 3e c9 f1 8f be ca ad eb bd 7b 21 31 3e
       0.31710368 -0.28114155 -0.11507757 0.17297928
000260 18 08 1e 3e 8a 2b 0e 3d 02 b2 4b bd 5a 2c b3 be
       0.15432775 0.03470949 -0.04973031 -0.34994775
000270 28 69 65 3e cd 6a 8d 3d 79 29 06 3e 15 2c b7 3d
       0.22403395 0.06905136 0.13101758 0.08943955
000280 eb 6f 52 bd a5 e5 93 bd 34 51 81 be 4a 7c b1 be
       -0.051376265 -0.072215356 -0.25257266 -0.34665138
000290 44 96 46 3b d9 21 b4 bc b5 09 8f bd 83 98 5f be
       0.0030301968 -0.021988796 -0.06984273 -0.21835522
0002a0 ee ee a0 be 0d 70 00 3e 77 68 64 3d e3 39 90 3e
       -0.3143229 0.12542744 0.055763688 0.28169164
0002b0 54 54 fb bc f6 35 41 be 01 b5 97 bc b7 8e 1f 3e
       -0.03067986 -0.1886824 -0.018518927 0.15581785
0002c0 8c 19 98 bd d0 1d f6 3d 3b e1 51 bb 1a e9 8d bc
       -0.07426748 0.12017405 -0.0032025117 -0.017323066
0002d0 44 72 1d 3e f0 91 9e bd 14 2a e9 3d 1c a6 35 3e
       0.1537562 -0.07742679 0.11384979 0.17739147
0002e0 27 33 4a be ba f9 8e be 6e 2b 45 bd d8 64 dc 3d
       -0.19746076 -0.279249 -0.04813712 0.10761422
0002f0 c0 c0 9b 3b 3a 95 26 be 8c 52 bf 3d 0c 62 0b 3e
       0.004753202 -0.16267863 0.093419164 0.1361162
000300 af 0d 25 3d 17 60 f3 3b c5 6c 8d 3d 82 5c ae 3d
       0.040296253 0.0074272263 0.06905512 0.08513738
000310 a2 77 5c bd ad e8 a4 bc 3c 57 99 3e 12 30 29 3d
       -0.05382503 -0.02013048 0.29949367 0.04130561
000320 a0 9d 19 3e 5e 26 a7 3d f3 28 13 3e fa 79 14 3e
       0.15001535 0.08161615 0.1437109 0.14499655
000330 63 71 7e be a7 4b 5c 3e 8a 1a af bd a4 bb 00 be
       -0.24847941 0.21513234 -0.08549984 -0.12571579
000340 de 8a 78 3e b4 2b 5d 3e 53 ed a6 3d c9 44 19 be
       0.24271724 0.21598703 0.08150735 -0.14967646
000350 04 86 84 3e c7 d7 35 bd 3c 4b ec bd 35 7b 13 3e
       0.25883496 -0.044395234 -0.11537787 0.14402469
000360 d4 07 32 3e 9b cb c1 3d 9a c3 04 be e5 aa d7 bd
       0.17385799 0.09462663 -0.12965241 -0.105306424
000370 76 1f 3f 3e d8 b5 32 3e 08 6d 86 bd 80 34 e3 3d
       0.18664345 0.1745218 -0.06563765 0.11093998
000380 79 83 0a be dc 6f 19 3e 61 31 86 bc ef b3 25 be
       -0.13526715 0.14984077 -0.016380968 -0.1618192
000390 0b e9 80 be df da 41 3d 30 f0 bc 3d 56 ba 44 be
       -0.25177798 0.047327872 0.092255 -0.19211707
0003a0 2a 25 4b be d7 22 4b 3d 4a 36 2c bf 1c f6 05 3d
       -0.19838396 0.049593773 -0.6727034 0.03270541
0003b0 45 38 d2 3d 7d b4 d7 bd 6f f2 69 bd 66 03 0b 3e
       0.10264639 -0.10532472 -0.05711597 0.13575515
0003c0 ea ec 32 be 28 42 f9 bd 45 c1 45 3d 80 62 99 be
       -0.17473188 -0.121708214 0.04828002 -0.29957962
0003d0 3b 5c 37 3c 18 05 6f bd fd b5 ec bd d0 c3 83 3e
       0.011191423 -0.058354467 -0.11558149 0.2573533
0003e0 62 de 61 3e d8 6d 01 3e 24 0d 49 3e 56 ad 57 3e
       0.22057489 0.12639558 0.19633919 0.21062216
0003f0 50 3a 30 3e 98 2c 8e bd ff 64 88 be 7c 3d 5e bc
       0.17209744 -0.06942099 -0.26639554 -0.013564464

linear3.weight f4 [256, 256]
000000 b2 47 57 bf 92 95 32 be fd 33 6b 3e a7 a8 af be
       -0.84093773 -0.17439869 0.2296905 -0.3430836
000010 fc 05 f1 3b 73 83 d7 bd 34 d3 c1 39 72 28 df be
       0.0073554497 -0.10523119 0.00036969187 -0.43585545
000020 4c af 29 be 87 a4 4e be 36 3c 3e be d6 1c ad be
       -0.16570777 -0.2017995 -0.18577656 -0.33811063
000030 52 3f 7f 3e 5e b0 54 bc ea 39 33 bf 90 b1 04 bf
       0.24926499 -0.012981502 -0.70010245 -0.5183344
000040 a1 ca d8 be 7e 0d 2a be 1d fc 03 bf c6 6b c8 be
       -0.42342094 -0.1660671 -0.5155657 -0.39144725
000050 36 a2 01 be 5c 6c 58 be f4 73 21 be 20 50 19 bd
       -0.12659535 -0.21135086 -0.15766889 -0.03742993
000060 45 6f 27 3e 82 80 2f be 2b b7 4f be ab 96 a5 bd
       0.1635104 -0.17138866 -0.20284717 -0.08085378
000070 75 15 14 bd c3 38 5c 3d 60 1d 8e be da 08 0a bd
       -0.036153276 0.05376507 -0.27756786 -0.033699848
000080 79 0a 22 bf 04 39 d3 bd a3 b8 69 bc e6 21 b3 be
       -0.6329723 -0.10313609 -0.014265212 -0.349868
000090 76 da f6 3d ff 7a c7 3e be 99 69 3e ee 06 e7 bd
       0.12053387 0.38961026 0.22812554 -0.112806186
0000a0 e2 e8 a0 bd 10 db 81 3d 94 4d f3 bd 70 35 ca be
       -0.07856919 0.06340611 -0.11880031 -0.39493895
0000b0 d1 e6 92 3d 1d eb 36 3e 10 00 8e be d7 9c a3 be
       0.07172931 0.17863126 -0.27734423 -0.31955597
0000c0 a4 54 35 3e c8 75 6d 3e 1e a3 96 bd 7a 6b ac 3c
       0.17708069 0.23189461 -0.07355331 0.021047343
0000d0 c0 1c 0f bf 50 26 b7 be c4 d7 25 be 8a 28 81 3e
       -0.55903244 -0.35771418 -0.1619559 0.2522624
0000e0 13 2e ae bd cc ac 17 3d 15 97 06 3e c1 2c fa be
       -0.08504882 0.037030026 0.1314357 -0.4886227
0000f0 70 05 7f 3d a6 de 0f bd f9 d4 39 be ae 0d 2a 3d
       0.062261045 -0.035124443 -0.18147649 0.041516952
000100 ae 35 31 bf 6f 89 8e be 54 38 69 be de 0b 51 be
       -0.69222534 -0.2783923 -0.22775394 -0.20414683
000110 ff fc f7 3d 94 fb 26 be 22 b8 27 3d 33 81 30 3d
       0.12108802 -0.16306907 0.040947087 0.043091964
000120 10 d3 63 be 57 b3 5f 3e df 5d bf bd ac 52 fb bd
       -0.22248483 0.21845756 -0.09344076 -0.12271628
000130 9a 4c de be 31 91 46 bc ad 31 1d bf b4 62 57 be
       -0.43417817 -0.012119577 -0.61403924 -0.21033746
000140 46 d5 05 bf ed 13 9d be 8e 41 4a 3e 5f 86 02 be
       -0.52278554 -0.30679265 0.1975157 -0.12746571
000150 81 e9 a8 3d 57 92 61 be 55 47 35 be d8 21 04 3e
       0.08247662 -0.2202848 -0.17702992 0.12903535
000160 a5 08 85 bc 15 eb b5 3d b0 e6 6a bd 51 bd ad be
       -0.016239474 0.08882729 -0.057348907 -0.339335
000170 ce 55 a8 3c 86 78 39 be b9 57 02 3e c5 ec 7e bd
       0.020548727 -0.18112382 0.12728776 -0.06223752
000180 f9 f3 bd ba ff d6 f8 bd bb bc 12 bf 91 9a f5 bb
       -0.0014492265 -0.12150382 -0.5731923 -0.0074952324
000190 a1 13 db be 0b a4 b5 3d e2 bb 81 3e f9 94 fa bd
       -0.42788413 0.08869179 0.25338656 -0.122354455
0001a0 0e 06 87 be c7 f3 f2 be 7d ae fe be f9 5c 10 be
       -0.26371807 -0.47451612 -0.497425 -0.14097966
0001b0 97 9c 40 3d 28 56 07 3e 2e d3 c7 be a0 62 6d 3e
       0.047024336 0.1321646 -0.39028305 0.23182154
0001c0 5e 70 38 bd 66 82 08 bf e2 cb 6b be 51 df 44 be
       -0.045029037 -0.5332397 -0.23026994 -0.19225813
0001d0 fe c0 83 be 69 93 4c bf 7c b3 82 3d da 4a 84 bd
       -0.2573318 -0.7991243 0.0638189 -0.06459589
0001e0 78 37 f5 3e 46 e6 a3 be 2a 7b ee be 78 e3 da bd
       0.47893882 -0.32011622 -0.46578342 -0.106879175
0001f0 c0 9b 56 be ab 75 46 bc 2b f1 42 be 99 0d c4 bc
       -0.20957851 -0.012113015 -0.19037311 -0.023932265
000200 59 9a 5a bd e2 b2 0c bf 53 7d 47 be cf 7c 60 be
       -0.053369854 -0.54960454 -0.19481401 -0.2192261
000210 88 f4 63 be 2b 4b 0c be 18 8a 95 be 4b 9b 6f 3e
       -0.2226125 -0.1370055 -0.2920692 0.23399083
000220 8b b1 cd 3c 53 48 63 bd 9a 53 85 be ae a4 b2 be
       0.025109073 -0.055488896 -0.26040345 -0.34891266
000230 8c 18 b1 be fb e6 a2 be ef f4 69 3d 6b dd f8 bd
       -0.3458904 -0.3181685 0.057118353 -0.12151607
000240 65 dd d8 bc 75 8e 83 be ff 2d 3a bf c9 a6 bb be
       -0.026472757 -0.25694624 -0.72726434 -0.36650684
000250 c4 57 00 3e 25 9e db bd 10 22 28 bd 31 6c d5 bd
       0.1253348 -0.10723523 -0.04104811 -0.104210265
000260 0a 9d 76 3e ef 9b 97 bd 0b 29 9d bd 86 19 30 bd
       0.24083343 -0.07402789 -0.07673844 -0.04299309
000270 f8 c3 fc bd d3 cc 82 be b2 a3 82 bd b1 25 ac 3d
       -0.123420656 -0.25546893 -0.06378879 0.084056266
000280 dd 0b 2e 3d e7 9c 07 3d 93 31 c3 be ed c9 d1 bc
       0.042491782 0.033108618 -0.3812376 -0.025608981
000290 c5 b9 41 3c f4 12 d3 3d 1b 70 51 bc ed cf bc 3e
       0.011824076 0.103063494 -0.012783076 0.36877385
0002a0 f6 bb 04 3d 3d 6f 2e 3e 08 6a b0 bd 6f a9 68 3d
       0.032405816 0.17034622 -0.08613974 0.05680221
0002b0 c3 aa eb be f1 f5 c9 3d 4c 55 4c be b5 c8 98 be
       -0.46028718 0.09861363 -0.19954413 -0.29840627
0002c0 70 bb f9 be f3 38 63 be 3e 00 fe 3d 93 b7 15 3e
       -0.48775816 -0.22189693 0.1240239 0.1462081
0002d0 82 8f a1 3d 85 3e f8 be 74 ce 83 3e d9 f3 64 3d
       0.078887 -0.484852 0.2574345 0.055896614
0002e0 54 ca 7f be 21 63 e6 be ea c6 a2 be f6 ce 5d 3e
       -0.24979526 -0.44997504 -0.31792384 0.2166098
0002f0 0e a5 04 3f 52 49 55 be 44 8c c5 3d 54 7c 87 3c
       0.51814353 -0.2082875 0.09645894 0.016538776
000300 05 bd 6e bd 14 f5 49 3e 22 91 3d be 4d af 20 bd
       -0.05828573 0.19722396 -0.18512395 -0.03922968
000310 55 8d ce be d2 3b 51 be a9 85 12 3c 45 e2 70 3e
       -0.40342203 -0.20432976 0.008943 0.23523815
000320 3a 40 9f be 52 40 09 3e db 2a f2 3e cd 4a ac be
       -0.31103688 0.13403443 0.4729832 -0.33650818
000330 1e 3f 44 3d 03 b4 39 be 3d 28 a4 3d f2 97 17 bd
       0.047911756 -0.18135075 0.08015487 -0.03701014
000340 ed 9a 11 3c 1d 09 43 be 8d 40 06 be c6 6e bd bc
       0.008887035 -0.19046445 -0.13110562 -0.02312411
000350 93 a6 63 bb 36 72 05 3e d3 9c bb be 67 91 4f be
       -0.0034736737 0.1303185 -0.36643085 -0.2027031
000360 1e 73 cd ba 26 d6 8b 3e b4 97 7e 3d 58 fc 63 be
       -0.0015674566 0.2731182 0.062156394 -0.2226423
000370 2e 73 0a 3e 33 ea 1e bd ac 9f 4e bd 26 c1 aa bd
       0.135205 -0.03879757 -0.050445244 -0.083376214
000380 a3 e4 8a 3d c0 b8 e4 3d 95 c3 4b be d7 cc e5 bc
       0.0678189 0.11168051 -0.19898827 -0.028051777
000390 a2 9e e5 bd be 58 99 be 21 1c 20 be 38 cc d3 be
       -0.112118974 -0.29950517 -0.1563573 -0.41366744
0003a0 a2 73 15 be 92 e4 0f 3e 2d 3b b0 be 18 f1 cf bd
       -0.14594892 0.14052036 -0.34420148 -0.10153407
0003b0 97 6c 10 bf 6b d5 69 be 81 56 a5 3d 01 aa 99 3e
       -0.56415695 -0.22835319 0.0807314 0.30012515
0003c0 6f af e5 3d 60 14 3e be 0a 90 e9 bc 42 a7 d6 bc
       0.11215102 -0.1856246 -0.028511066 -0.026202802
0003d0 c5 f5 aa bc cf 21 49 be 84 47 71 3d f6 83 91 be
       -0.020869145 -0.19641803 0.058906093 -0.2842099
0003e0 d7 15 d7 3e eb 6c 8b be 31 8b 3a 3e 19 23 cb 3d
       0.4200885 -0.27231535 0.1821716 0.09918804
0003f0 02 1b 89 bd cd 3e dd bd 30 ad 53 bd d1 ad 6a be
       -0.066946045 -0.10802994 -0.051678836 -0.22917868

linear3.bias f4 [256]
000000 06 c2 ab be cb 15 1e be 45 15 e7 3d 15 42 71 be
       -0.33546466 -0.15438001 0.11283354 -0.23560365
000010 a9 c2 ba bd a1 26 87 3e 45 48 4f 3d 81 1e 56 be
       -0.0911916 0.2639666 0.05060603 -0.20910074
000020 25 89 53 bc 1d c0 1c be 77 9a 48 be 1e 5f 3a be
       -0.012911116 -0.1530766 -0.19590174 -0.18200347
000030 b9 ab cd bc ba 5f a9 3b 43 8b bb 3d a7 29 bb be
       -0.025106298 0.005168882 0.091574214 -0.36555216
000040 7f 93 78 bd 1f c3 96 be dd 20 a8 3d 33 56 af bd
       -0.06068754 -0.2944574 0.08209393 -0.08561363
000050 b9 37 7e bc 3c 43 aa 3d e9 33 3c be 9a 8c 08 be
       -0.015516215 0.08313605 -0.18379177 -0.13334885
000060 29 77 af bd 07 e4 6d be e8 e1 25 be 4e d6 ef bd
       -0.0856765 -0.23231517 -0.16199458 -0.11710797
000070 91 b4 a5 bd ca 42 27 be e3 50 99 bd 5b af 94 3c
       -0.08091081 -0.16334072 -0.07486131 0.018150022
000080 49 04 49 be 16 5a f1 bd e2 64 3a 3d 7b 92 8f bd
       -0.19630541 -0.11784761 0.045506366 -0.07010361
000090 00 2e 4d 3e ca ec e6 bb 1a fc 92 bd 8c 59 1f 3e
       0.20037079 -0.0070472704 -0.07176991 0.15561503
0000a0 38 9b 8f 3c 14 3d ec 3d 34 4d 16 be 9c 50 2a 3e
       0.017530069 0.11535087 -0.14677888 0.16632313
0000b0 73 e3 47 3e a8 8e a8 bd dd 1d 01 be a3 2d d6 be
       0.19520359 -0.082303345 -0.12609048 -0.41831693
0000c0 be fe 94 be 09 98 56 3d 82 18 48 3e 1a 2f 3d 3d
       -0.29100603 0.052391086 0.19540599 0.046187498
0000d0 0f 04 3d 3e 81 7d c2 bd 79 aa ac bd b5 d4 ea bd
       0.1845858 -0.09496594 -0.084309526 -0.11466352
0000e0 78 a9 e3 3d 0e 2b 8e bc 2f fd 85 bc e0 3e 60 be
       0.11116308 -0.017354514 -0.016356079 -0.21898985
0000f0 a3 49 c5 3d 43 bc a3 be 2e a9 ee bd 49 ef 0c be
       0.09633186 -0.3197957 -0.11653362 -0.13763155
000100 51 8a 15 3e 37 43 af 3c ef 73 57 be a4 40 f2 bd
       0.14603545 0.021394355 -0.21040319 -0.118287355
000110 1a d1 e2 bd 95 1d e0 bc f7 b1 a5 3c f4 e2 c9 3e
       -0.11075039 -0.027357856 0.020226462 0.39430964
000120 02 04 a9 be f9 ae 02 3d f3 f8 2e 3c 54 70 07 3e
       -0.3301087 0.03190515 0.010679471 0.13226444
000130 fc ee fa 3c 18 e3 4c be 44 19 b2 3d e4 c9 6f bd
       0.030631535 -0.20008504 0.08696225 -0.058542147
000140 1a 20 b2 bd e2 22 67 bd a5 78 05 be a6 8c 9e 3d
       -0.08697529 -0.05642975 -0.13034303 0.0774167
000150 e0 ba c4 be 7f 9e b6 bd f4 02 84 be 7c c2 b1 be
       -0.38423824 -0.089169495 -0.25783503 -0.34718692
000160 9b 72 79 be 01 13 bd 3d 8b 8b df bd 74 3f 5c 3e
       -0.24360125 0.0923214 -0.109152876 0.2150858
000170 a5 ee b1 be b6 37 9a 3d 34 08 24 be 4c be b5 bd
       -0.34752384 0.07530157 -0.16018754 -0.08874187
000180 ff 45 36 be 40 0e b4 3c 8c 0e 85 3c a4 54 dc 3d
       -0.17800139 0.021979451 0.016242288 0.107583314
000190 8e 2c 0d be 16 11 6b be 41 20 86 bd e0 e4 0a 3e
       -0.13786528 -0.22955737 -0.06549121 0.13563871
0001a0 81 51 4d be 49 51 ce bd 5d 34 06 bc ac 13 04 be
       -0.20050623 -0.10074098 -0.008191195 -0.12898129
0001b0 5b 3b 0b be b3 22 14 3c 77 fd 03 be 04 1a 6d 3b
       -0.13596861 0.009041476 -0.12889658 0.0036178837
0001c0 1e 2d 73 3e 41 2a c0 be d8 2d bb 3c c3 4d 21 3e
       0.2374768 -0.37532237 0.022849008 0.1575232
0001d0 07 87 0e be bc ed 7e be b0 23 07 3e fe b7 d1 3d
       -0.13918696 -0.24895376 0.13197207 0.10240172
0001e0 cc f3 38 be be e4 7c be 9d 4c 5d 3e e9 5e 09 be
       -0.18061751 -0.24696633 0.21611257 -0.13415112
0001f0 a1 95 04 bd ec 90 4d 3f d2 bf dc 3d 53 fa 0b be
       -0.03236926 0.8029926 0.10778774 -0.1366971
000200 06 bf 42 3c 2c aa 17 bd 30 09 c4 bd c2 b9 be 3d
       0.011886364 -0.037027523 -0.09572065 0.09312774
000210 4a 2f e6 bd 8b 85 59 3f e8 bd d5 bd 51 70 19 3e
       -0.112394884 0.84969395 -0.10436612 0.14984252
000220 50 bd 77 3c a0 71 9a be 1a 07 e5 3d aa 85 c5 bc
       0.015120819 -0.30164814 0.11182995 -0.024111588
000230 b0 59 a9 3d 4d 47 fd 3b 27 60 98 bd d2 b5 0f be
       0.0826906 0.007729447 -0.074402146 -0.14034203
000240 48 f1 de bd 59 8e b6 bd fe 75 30 3e 41 7e 41 be
       -0.108858645 -0.089138694 0.1723251 -0.18895818
000250 57 5a 32 be 6f f0 5e be d9 b6 5a 3d a8 26 8b bd
       -0.17417274 -0.21771406 0.053397033 -0.067944825
000260 77 95 2f 3b dc 53 e4 3d 41 e3 6c 3e 33 d0 13 3c
       0.002679197 0.111488074 0.23133565 0.0090218065
000270 e1 a1 a0 3c f2 99 69 be f1 60 99 bd 52 4f 86 be
       0.01960844 -0.22812632 -0.07489193 -0.26232392
000280 b5 cd 08 be ed 0d 89 bc b0 2a 11 be 83 c6 47 bd
       -0.13359721 -0.016730273 -0.1417644 -0.0487733
000290 8e 41 1e be e3 aa 81 be 32 89 40 be 71 c4 9f 3e
       -0.15454695 -0.2532569 -0.18802336 0.3120456
0002a0 11 6b 00 be 60 9e 53 bd d3 a5 21 be a7 ac 9d be
       -0.12540843 -0.05166471 -0.15785913 -0.30795786
0002b0 52 78 ef 3c 4e d3 9b 3d dd 8f 3d be 6b cf e8 bd
       0.029232178 0.076086625 -0.1851191 -0.11367687
0002c0 55 fd 26 bd 16 38 89 bd ec ba 6d 3e 6f 0e 3e be
       -0.04076894 -0.06700151 0.23215836 -0.18560193
0002d0 d2 5e 11 3d 09 f0 41 3e 5f e4 ec bd 46 57 cb bd
       0.03549082 0.18939222 -0.11566996 -0.099287555
0002e0 1a ba 28 be f9 eb 40 bd 23 fa 83 3e 16 b6 c5 bc
       -0.16477242 -0.04710004 0.25776777 -0.024134677
0002f0 d5 17 17 3e dd 19 9d bc f2 ba de bd 92 67 9e 3c
       0.14755185 -0.019177372 -0.10875501 0.019336496
000300 c9 a6 0d be 2f 7d 00 be f3 4a a4 be 45 16 0d 3e
       -0.13833155 -0.12547754 -0.32088432 0.13778026
000310 30 37 17 be a2 e2 1a be 5f 10 3d 3e 4b 3c cf 3d
       -0.14767146 -0.15125516 0.18463276 0.10118922
000320 b2 3b 90 be 34 ad e5 bd 62 be ab 3e 8f 7b 39 3b
       -0.28170544 -0.112146765 0.33543688 0.0028302406
000330 12 e9 30 be 0f f9 09 be 8f 28 d7 be 0b c2 81 be
       -0.1727641 -0.13473915 -0.4202313 -0.25343356
000340 e8 90 47 be a9 ef de 3b 97 ad 80 bd 83 a7 c0 3d
       -0.19488871 0.006803472 -0.0628311 0.0940695
000350 70 66 4f bd ee 4a a3 bd a2 3e 84 bd 74 ca a8 be
       -0.0506348 -0.07973276 -0.06457259 -0.3296696
000360 7f da 3b bd a6 87 46 be 5a af 84 3d ac f8 12 bd
       -0.04586267 -0.19387683 0.06478758 -0.035881683
000370 e1 df b8 3d 40 8a ac be dd 5b 60 be 3e 14 b1 bc
       0.090270765 -0.33699226 -0.21910043 -0.021616098
000380 6b c4 25 be 1b cb 94 be 6f 08 83 be 13 09 b6 bd
       -0.16188209 -0.29061207 -0.25592372 -0.088884495
000390 d9 79 91 be 7b 12 c4 3f 5a 44 0c be 52 6b 5f be
       -0.28413275 1.531814 -0.13697949 -0.21818283
0003a0 bf 37 a9 bc 32 fe c8 3d 43 10 02 be 54 ea 93 3d
       -0.020656465 0.09814109 -0.12701516 0.07222429
0003b0 b5 c6 0e 3c 2b ee a4 bd 75 5e 0d be 69 4a 78 3c
       0.008714368 -0.080532394 -0.13805564 0.0151544595
0003c0 5f 23 02 3e d6 2e 57 3f 0d 6e 8f bd 0d f5 97 3d
       0.12708806 0.8405584 -0.070034124 0.074197866
0003d0 6e dc d8 3b 6e 56 2b be a2 a5 9d be 5c 8d 78 3d
       0.006618074 -0.16732189 -0.3079043 0.060681686
0003e0 5e 59 06 be e6 35 86 bd 83 53 41 be 9f a3 43 be
       -0.13120028 -0.06553249 -0.18879513 -0.19105385
0003f0 9c a3 fb 3d 94 7b fd 3c 36 bc db bd 79 da 35 bd
       0.122870654 0.030942716 -0.10729258 -0.044397805

mean_linear.weight f4 [2, 256]
000000 71 5d a2 3e e1 d0 2d 3e 70 92 9d 3d 80 bc 8e 3d
       0.31711915 0.16974212 0.07693946 0.06969547
000010 a2 26 58 3e 39 71 34 3e da ea 23 be 24 16 d1 3e
       0.21108487 0.17621316 -0.16007558 0.40837204
000020 a6 38 a1 bd 7c fa 1f 3e cf 41 bf 3c 01 69 bc be
       -0.07872133 0.15622896 0.02334681 -0.36798862
000030 52 99 3b 3f bf b1 ed 3e 31 e8 06 3e ca a1 25 3e
       0.73280823 0.46424672 0.13174511 0.16174999
000040 a0 70 48 be 7a 37 9e be 97 50 3a 3d 0d a0 a0 be
       -0.19574213 -0.309017 0.045487013 -0.3137211
000050 59 b5 de bd 7a ea e2 3c 88 62 60 be 05 b9 6d be
       -0.10874433 0.027699698 -0.21912587 -0.2321511
000060 c0 01 df be 6c 7f 5c 3e d6 a9 b6 3e 6f db 04 bc
       -0.43556023 0.21532983 0.3567645 -0.008108958
000070 c8 cb 4b be e5 4b c4 be 6a f9 f0 3c 38 40 19 bd
       -0.19901955 -0.38339153 0.029415805 -0.03741476
000080 0a a5 ad be c2 01 93 be 24 3d dc 3e 6e 8f 49 3e
       -0.33914977 -0.2871228 0.43015397 0.1968362
000090 a0 b6 80 3e 42 45 59 3e d4 09 5d bd 50 9c 4a bb
       0.25139332 0.21217826 -0.05396445 -0.0030915923
0000a0 7f b7 bf bc b4 2b c7 3d 90 fc 61 be 77 1c 95 3d
       -0.023402927 0.097251326 -0.22069001 0.0728082
0000b0 75 68 33 be b5 e9 05 bd 89 3d 37 be 40 96 87 be
       -0.17520316 -0.032693584 -0.17894568 -0.2648182
0000c0 c9 7d 14 be 0a 6e 26 3e d6 7f f1 bd 02 b7 68 3d
       -0.14501108 0.16252914 -0.11791961 0.056815155
0000d0 96 69 6e 3e e7 75 50 be ca f8 2a 3e 28 de 7e 3c
       0.23282465 -0.20357476 0.16696468 0.015555896
0000e0 7f 47 26 be d1 2e b3 3d 19 e4 f2 3e 36 a3 aa be
       -0.16238211 0.08749164 0.4743965 -0.33327645
0000f0 14 07 e2 3e fd 0b 2e 3d 7f f1 bb be c2 99 98 3e
       0.44146025 0.0424919 -0.36707684 0.29804808
000100 69 c5 dd 3e 6a 61 00 bf d5 c4 be 3e ff 83 be 3e
       0.43314674 -0.5014864 0.37259546 0.3721008
000110 00 69 8b bc 19 95 f8 be 44 6a b9 be 6a 73 a6 be
       -0.017017841 -0.48551252 -0.36213887 -0.3250993
000120 a1 f2 d6 be 7c 51 63 3e 05 9e 27 bd 59 40 a1 be
       -0.41981986 0.22199053 -0.040922184 -0.31494406
000130 2f b6 77 bd 21 df ca bd 65 d8 1d be 20 c8 33 be
       -0.06047648 -0.0990584 -0.15414579 -0.1755681
000140 c8 ce 3e 3d e5 20 2b 3c e9 b5 bb 3e bf d2 47 be
       0.04658392 0.010444854 0.36662224 -0.19513987
000150 fa e1 11 be 39 dd e2 bc 12 9b 74 3e 60 88 c6 be
       -0.1424636 -0.027693378 0.2388728 -0.3877592
000160 a7 29 9d 3d d7 f1 e2 be 99 b3 c2 3e 85 00 19 be
       0.0767396 -0.44325134 0.38027647 -0.14941604
000170 81 30 43 3e 2a 05 3a 3e fb 17 7a 3e 4e be 7b 3e
       0.19061472 0.18166032 0.2442321 0.24584314
000180 a4 33 0c bf 7d cb 1b 3e f5 53 37 3e ad 31 23 3e
       -0.547663 0.15214343 0.17903121 0.15936919
000190 5e f5 39 bf 86 97 8b 3d 94 f9 d6 bd c0 3f 15 3c
       -0.72640026 0.0681601 -0.10496822 0.0091094375
0001a0 4d e0 49 3f d2 17 29 bf d1 9c 40 bb 92 ed 66 3d
       0.7885788 -0.6605197 -0.0029390345 0.05637891
0001b0 bf 51 1e be ae 50 9f 3e 40 43 40 3f e1 12 0b 3a
       -0.15460871 0.3111624 0.75102615 0.00053052424
0001c0 dc 3e 34 3f 6c 00 7f be c2 d1 a4 be f1 37 3b bd
       0.70408416 -0.24902505 -0.32191283 -0.045707647
0001d0 23 9a dd bd cc 30 2c bf e9 e5 24 be b4 bd b7 3e
       -0.10820415 -0.6726196 -0.16103329 0.3588692
0001e0 60 43 46 3e f4 b3 42 3d d4 3b c8 bc 6b 36 1c 3e
       0.19361639 0.047534898 -0.02444259 0.15255134
0001f0 1a 59 24 be 36 fb c4 3d f5 45 84 be 12 c2 fa 3d
       -0.16049615 0.09618227 -0.25834623 0.12244047
000200 06 9d 8a be 9d 0b de 3d b5 75 09 be 64 cb 25 3e
       -0.27072924 0.10842059 -0.13423808 0.16190869
000210 13 68 77 3e 19 55 0f be 0a 25 10 3f 66 b0 23 3d
       0.24160795 -0.13997306 0.5630652 0.03996315
000220 9b a3 d5 be df 9a 56 be 92 ef 92 3e e2 6a 26 bf
       -0.41726384 -0.20957516 0.28698403 -0.6500684
000230 68 e9 0a be 1d 49 d1 3e 40 dc 8b bd 22 85 98 bd
       -0.135656 0.40876094 -0.06829119 -0.07447268
000240 60 b1 5c be d7 f4 a2 be 0b af 71 bf 0e dd 02 3e
       -0.21552038 -0.31827423 -0.9440772 0.12779638
000250 fa 01 1f bc 00 34 96 3d ba 78 77 39 08 2e 49 be
       -0.009705061 0.07334137 0.0002360073 -0.19646466
000260 89 a7 5e 3c 14 ff 25 3f 4b cb dd 3d c5 55 42 be
       0.013589748 0.64842343 0.10829791 -0.18978031
000270 85 6b 95 3e 86 d0 77 be a6 29 68 3e 31 8d 1a 3d
       0.29183593 -0.24200639 0.22672138 0.037732307
000280 63 4b 05 3e fa 5f 6f bd 9d 0b b4 be df e5 2e be
       0.13017039 -0.05844114 -0.3516511 -0.17079876
000290 ac 82 3b be f3 84 c3 bd 28 04 ea be 20 36 90 3e
       -0.18311566 -0.095468424 -0.45706296 0.28166294
0002a0 0e 19 72 3c 0c d5 bc 3d 9e 4a 4d be a3 92 b0 be
       0.014776481 0.09220323 -0.20047995 -0.34486875
0002b0 c2 b5 3e 3e 85 85 17 bf 6d 3f a9 be 98 81 da 3e
       0.18624023 -0.5918811 -0.33056203 0.42676997
0002c0 8c 5e e5 3b ea 51 08 be 1e 62 cf 3a e6 35 57 bd
       0.0069997963 -0.13312498 0.0015822088 -0.052541636
0002d0 4f 12 ba bd 43 d2 c0 bb 2e fe 84 3e 14 b7 6c 3f
       -0.09085523 -0.00588444 0.25975174 0.92466855
0002e0 a8 41 ce bd 21 19 88 3e bd fe 2f 3e 2e 6e 18 3d
       -0.10071117 0.26581672 0.17187019 0.03721445
0002f0 9b b6 1b 3e 23 7a 8d be 98 a0 04 be f7 57 87 bd
       0.15206377 -0.27632245 -0.12951887 -0.06608575
000300 e2 19 80 3e 18 f5 b8 3e 81 34 d3 3e 83 ed 19 bd
       0.25019747 0.36124492 0.41250995 -0.037580024
000310 9b 8c 55 be a4 40 29 bf 89 d5 8a 3d 73 5f 1d 3d
       -0.20854418 -0.6611426 0.0677901 0.038421106
000320 24 3c 42 3e ca 2b e4 3e 4e 6c 90 3e e8 d1 f8 be
       0.18968254 0.44564658 0.2820763 -0.48597646
000330 6b a5 ad be cc 96 5d 3f f7 82 14 3e 8d ce f2 3e
       -0.33915266 0.8655822 0.14503084 0.4742321
000340 0c 58 85 3e f5 5e f0 bd b8 cd 15 3f 15 e4 32 bf
       0.26043737 -0.117368616 0.58517027 -0.69879276
000350 59 63 02 bf 8b 83 e7 3e f1 ec 94 be fa ea db be
       -0.5093284 0.45217547 -0.29087022 -0.4295271
000360 ed 29 b5 3d aa bd 1d 3e ca 67 b8 be 0e 38 21 be
       0.08845887 0.15404382 -0.36016685 -0.1574404
000370 f6 eb 86 be ae 2f 36 3e 10 48 1c 3e eb 5e c5 bd
       -0.263519 0.17791626 0.15261865 -0.09637245
000380 65 58 23 bf bf 62 7d be 3e d6 b5 be 90 d3 44 3e
       -0.63806754 -0.247447 -0.35515016 0.1922133
000390 22 65 b4 bd 05 ad 73 bd a1 61 e8 3d 8b 3b 9f 3d
       -0.08808352 -0.059491176 0.11346746 0.07775029
0003a0 51 40 78 be 0f bf 08 bf b0 63 f1 3e 68 16 83 be
       -0.24243285 -0.5341653 0.47146368 -0.25603032
0003b0 6a 6c 17 3e fc 3c 9d bd 3b ef d3 bd 3e de cb 3c
       0.1478745 -0.076776475 -0.10348364 0.024886247
0003c0 ef 0c 28 3e ee 4d 6c be 15 3f 01 bf 29 31 e2 be
       0.16411184 -0.23076603 -0.5048688 -0.4417813
0003d0 ba 7a bb 3d aa bd 8b be a7 bc fe be b3 72 09 3f
       0.091542676 -0.2729314 -0.49753305 0.5369064
0003e0 4d 21 10 3e 68 e8 8a 3f 4c 8a 53 be b9 c2 c5 3e
       0.14075203 1.0852175 -0.20658225 0.38625124
0003f0 14 ad 8a 3d d8 e8 9d be 50 b2 19 3e 18 cb 28 be
       0.06771293 -0.30841708 0.15009427 -0.16483724

mean_linear.bias f4 [2]
000000 57 a9 15 3d d9 03 cd 3d
       0.03653845 0.100104995
