hydrone_aerial_underwater_ddpg/scripts/Models/sac_stage_1_air2D_tanh_4layers/220_policy_net.pth (torch_old, 557571 bytes, 10 tensors)

linear1.weight f4 [256, 24]
000000 92 1d 19 bd 57 33 0e be 60 31 be bd 13 22 83 bd
       -0.037381716 -0.13886772 -0.09286761 -0.064029835
000010 d7 1b 96 bd 58 5a bc bc 03 b0 a5 3d b6 9d 5b bd
       -0.07329529 -0.022992298 0.08090212 -0.0536172
000020 74 d8 11 3d b8 85 a7 3d fb 5f ad 3d 33 24 09 be
       0.035606816 0.08179802 0.084655724 -0.13392715
000030 b6 d6 be 3c 87 c3 8f 3c 7b 93 1a be 8c 92 51 bd
       0.023295742 0.01754929 -0.15095322 -0.05116515
000040 ac 6e 42 3c 77 2c a7 3c 52 e4 a2 bd b3 d0 f2 bc
       0.011867207 0.020406945 -0.07953705 -0.029640531
000050 b2 c7 13 bd cd b8 ac bb 0a e5 1f bd 31 85 7a 3d
       -0.036079116 -0.0052710534 -0.039036788 0.061162177
000060 e0 b0 a9 3c a8 f9 b9 bd db af e4 bd 56 e1 1b bc
       0.020714223 -0.09080821 -0.11166354 -0.0095141735
000070 14 b5 19 3e 29 61 bb 3b f5 15 74 3d 4f 04 71 3c
       0.15010482 0.0057183695 0.059591252 0.0147105
000080 d0 5f ff bc ce 92 55 be 17 f5 2b bb 2d c8 e8 bd
       -0.031173617 -0.20856783 -0.0026238614 -0.113663055
000090 c6 c7 2f be a7 e0 ec bc 7c b1 ff bd 8f 33 80 bd
       -0.17166051 -0.028915716 -0.12485024 -0.06259834
0000a0 0f 66 88 3d ed 7d ee 3a c2 2f 1a 3e 23 8d 1f 3e
       0.06660091 0.0018195488 0.1505728 0.15581183
0000b0 e0 5b a8 3e ef f0 a0 bd c0 86 e0 3e e3 1a 91 3e
       0.32882595 -0.078584544 0.43852806 0.28340825
0000c0 f9 15 c3 bc 0d f9 07 3d c1 a5 47 bd 9c 4b 6e 3b
       -0.023814188 0.033196498 -0.04874206 0.0036360985
0000d0 90 fd 90 bd 44 45 8c 3d 8c 1c 8c bd 3d 7d 21 be
       -0.07079613 0.06849149 -0.068413824 -0.15770431
0000e0 4b c9 40 be 25 e3 d8 3c 53 83 d2 3d ff a3 2a 3d
       -0.18826787 0.026475498 0.10278954 0.041660305
0000f0 9a 9e 26 be d4 00 dc 3d 20 50 da bc 47 d5 e2 3c
       -0.16271439 0.107423455 -0.026649535 0.02768959
000100 a9 b6 24 3e 75 fd 19 3e b1 a7 7d 3d 51 21 35 be
       0.16085304 0.15038092 0.0619275 -0.1768849
000110 e8 56 53 3e a4 31 01 bf ff b9 94 3e a1 6d b5 3e
       0.20638621 -0.5046637 0.29048154 0.35435203
000120 b9 ed 35 3e 87 db bc bc ea ce 80 3d 67 04 1d 3e
       0.17766465 -0.023053898 0.06289466 0.1533371
000130 9e a2 3d bd 0c b2 05 3c 49 e5 96 be da 9c 82 be
       -0.046297662 0.008160125 -0.29471806 -0.25510293
000140 da 6c 97 be 77 bf a4 be 32 fe 03 be df ae 47 be
       -0.29575235 -0.32177326 -0.12889937 -0.19500302
000150 6a 3b ed bd ee 70 31 be 3a 26 46 3d ec 05 60 3e
       -0.11583598 -0.17328236 0.0483763 0.21877259
000160 0a 74 1e bc 4f 18 2c bd 33 90 1f 3e ab 56 74 bc
       -0.009671221 -0.04201537 0.15582351 -0.014913241
000170 67 e9 54 3d 23 62 13 bc 9e 84 ba bd dc 56 ed 3e
       0.051980402 -0.008995566 -0.09107326 0.4635533
000180 34 2e 43 be 4f 62 39 be a2 34 d8 3c 8c 4b 53 3e
       -0.19060594 -0.18103908 0.026392285 0.20634288
000190 3f 7d b7 3c 9e b8 8d bb 08 01 fe 3d ae 7f 54 3e
       0.02239859 -0.0043249866 0.124025404 0.20751831
0001a0 dd 40 79 3d bd 0f 52 3e 05 e9 16 3e e5 5c 09 bc
       0.060852874 0.20513816 0.14737327 -0.008383964
0001b0 51 32 17 be c6 53 14 3e 43 63 47 3d d8 9b 4c bd
       -0.14765288 0.14485082 0.048678648 -0.04995331
0001c0 4f a6 41 bd c7 ed c8 bd 84 f7 4a be 04 a7 3a be
       -0.047277745 -0.098109774 -0.19820982 -0.18227774
0001d0 06 6e 9a be 04 5f ec bc 0a ca 35 bd 82 3c ca 3d
       -0.30162066 -0.0288539 -0.044382133 0.09874822
0001e0 e2 d4 4d bc 2b 31 26 3c 4c f1 65 3d b1 7b 80 bd
       -0.012562962 0.0101435585 0.05613832 -0.06273592
0001f0 56 2f ce 3d cb 4c c8 3d 7a 7b 58 3d e7 14 b4 3d
       0.10067622 0.09780272 0.05285213 0.08793049
000200 be 40 ff bd a3 51 28 3d 37 ca c4 3c 49 99 d1 bc
       -0.124635205 0.04109348 0.024022205 -0.025585787
000210 33 de 3c be 34 e3 62 be 28 77 87 bc 42 eb 97 bc
       -0.18444137 -0.22156984 -0.01653631 -0.018544797
000220 48 57 0d bc 10 33 b5 bc 8d ed 80 3d 92 e3 ce bd
       -0.0086267665 -0.022119075 0.06295309 -0.10101999
000230 6a 50 c7 be 4e 4f fe 3d a9 48 1b 3f 84 70 c4 be
       -0.3892854 0.1241747 0.60657746 -0.38367093
000240 9a 29 0d 3c c4 b1 63 bd 4a 97 b3 bc f8 38 ca 3d
       0.008615876 -0.055589452 -0.021922726 0.09874147
000250 a3 a3 d7 3d 2a db 3d 3d 7a 17 99 3d 81 4e f2 3a
       0.10529258 0.04635159 0.07475181 0.0018486531
000260 e5 60 af bd ca aa 04 be 70 6b 86 be c3 19 84 3c
       -0.08563403 -0.12955776 -0.26253843 0.016125565
000270 f6 e0 f9 bd 49 c1 07 bd e0 e7 2a be 90 66 98 3d
       -0.12201111 -0.033143315 -0.16690016 0.07441437
000280 69 43 d2 bd dc 74 43 3d 24 9f 12 3d 9e 7a 08 be
       -0.10266764 0.047718868 0.0357963 -0.13328025
000290 a3 09 02 3e 0b 5e d8 3e 39 ed 0c bf 96 0d ac 3e
       0.12698989 0.4225925 -0.55049473 0.33604115
0002a0 f5 1b 1a 3e 9d 76 26 3e cb 9d bf 3c 76 90 80 3d
       0.15049727 0.16256185 0.023390671 0.06277554
0002b0 17 ea 14 be f3 1c 17 bd d4 00 e3 bd ca 7e 08 bd
       -0.14542423 -0.036892843 -0.11084142 -0.03332404
0002c0 c2 e1 4a be 59 2b 40 bd d5 fc 45 be a0 9b a8 bb
       -0.19812682 -0.04691634 -0.19334729 -0.005145505
0002d0 f7 96 35 be 71 95 3a bd 5a 4d f8 3c 05 5b 00 be
       -0.1773337 -0.045552675 0.030310322 -0.12534721
0002e0 42 7d d2 3c 16 31 3f 3e 97 59 b6 bd 24 e6 6e bd
       0.025694493 0.18671069 -0.08903807 -0.058324948
0002f0 65 22 8f 3e 1a 62 00 3f bd d9 22 3f 00 56 52 bd
       0.27955928 0.5014969 0.6361349 -0.051351547
000300 f1 e0 33 3d 44 f1 83 bc 8c 07 46 3e ca 18 95 bd
       0.043915693 -0.016106255 0.19338816 -0.07280119
000310 24 b7 18 3e cf 3f a4 3d 01 c1 9c bd 52 ab 44 be
       0.14913613 0.08019983 -0.07654 -0.19205979
000320 f7 a7 95 bd 78 c1 41 bd e2 f8 a0 be ca c0 9b be
       -0.073074274 -0.047303647 -0.31439883 -0.30420524
000330 37 11 e6 bd a8 af 6c be ea 67 ff bd 9b 87 0a bd
       -0.11233752 -0.23113883 -0.12470992 -0.03382073
000340 ad ea d2 3d 09 c1 d3 bc 43 5d 64 3e c7 4e 2f 3e
       0.10298667 -0.025848882 0.22301202 0.17119895
000350 d7 fc 3e be 4e 3a a5 3d 6b 53 79 be a9 59 8a bd
       -0.18651138 0.08067761 -0.24348228 -0.067553826
000360 9a 0c 00 be fc 12 be bd 24 d6 ee bd b8 7d 00 bd
       -0.12504807 -0.09280965 -0.11661938 -0.031369895
000370 bf bf af bd f4 dd f8 bd 3c a5 77 3d 60 2d f6 bd
       -0.085814945 -0.12151709 0.060460314 -0.12020373
000380 dc 89 30 3d 28 20 ef bc 85 50 b8 bd cc 39 f4 3d
       0.043100223 -0.029190138 -0.08999733 0.119250864
000390 3c 4d 06 be 98 62 40 bd 9c 69 67 3d 66 07 ea bd
       -0.131154 -0.046969026 0.0564972 -0.114271924
0003a0 80 13 1d bb d8 be 1c 3d 9c ed 54 bd 18 75 a1 bc
       -0.0023967922 0.03826794 -0.051984414 -0.019709155
0003b0 00 3f 55 3c 96 ea 4c bd f0 f7 3e 3c b0 7f 05 3c
       0.013015509 -0.050028406 0.011655793 0.008148119
0003c0 18 97 11 be 6f a0 df 3d c2 e3 07 3e 36 14 47 be
       -0.14217794 0.10919272 0.13270476 -0.19441304
0003d0 91 c9 10 bd b3 92 80 3d 96 ec 66 3d 1f 54 00 bc
       -0.03534848 0.06277981 0.05637797 -0.007832556
0003e0 a4 b3 c6 bd 66 24 1f be b6 c1 1e 3d ca 9f 60 be
       -0.097022325 -0.15541229 0.038758956 -0.21935955
0003f0 ef 14 f1 bc bc 71 90 3d 75 37 7d 3e cd 48 1c 3e
       -0.029428927 0.07052943 0.24728186 0.15262146

linear1.bias f4 [256]
000000 1d 0f 1c bc e4 0f d3 bb 0e 13 dc bc db 65 ca 3d
       -0.009525088 -0.0064411033 -0.026864555 0.09882709
000010 e4 2b 18 bd 39 90 65 bd b9 c2 08 bd 4d a6 11 bb
       -0.037151232 -0.056045745 -0.033388827 -0.0022224367
000020 5f 13 c5 3d 00 00 00 00 ec f6 ab bc eb a3 b7 bc
       0.09622835 0.0 -0.020991765 -0.02241703
000030 ee d5 99 bc e0 54 1e bd 95 fb 5c bc 89 45 82 bc
       -0.018778767 -0.03865516 -0.013487716 -0.015902298
000040 60 a3 c4 3c dd 80 a9 bc 9d ed cf 3d a0 0f 44 bd
       0.024003685 -0.02069133 0.10152743 -0.047866464
000050 3d 75 ba bc 5c 5a a4 3d 9b 7f f3 ba 0d 09 dc ba
       -0.022760982 0.08025047 -0.0018577458 -0.0016787365
000060 00 00 00 00 ee a1 05 bd 3d f9 02 bc 00 00 00 00
       0.0 -0.03262513 -0.007993993 0.0
000070 fe 30 bc bc c2 cd d1 3c e4 c2 95 bc 8e fb 03 3a
       -0.02297258 0.025610808 -0.018281408 0.0005034738
000080 92 5b f2 bc e9 bd 99 3c 00 cc 66 3d 02 4d 6f bc
       -0.02958468 0.018767314 0.056346893 -0.014605762
000090 8d c0 03 3d 42 c5 0d bd 8c d7 f0 bb 35 80 e3 3b
       0.032166053 -0.034611948 -0.007349914 0.0069427737
0000a0 e5 ef c2 3d 4d 4d 30 bc 10 d5 a5 bc 53 38 83 3c
       0.095184125 -0.010760617 -0.020243198 0.016018068
0000b0 fd f8 52 bd e6 02 0d ba 52 52 2b bd ea 17 2a 3d
       -0.051506985 -0.0005379155 -0.041826554 0.041526712
0000c0 3a 85 22 bb 84 50 0f bc ba 8d b4 bb 5a 14 1d bd
       -0.0024798648 -0.008747224 -0.005510059 -0.038349487
0000d0 90 d4 db bb bf 38 2d bd 34 7b 50 bb e2 58 86 bb
       -0.006708689 -0.042290445 -0.0031811716 -0.004099951
0000e0 cb e0 2b bb 92 bb 69 bc f5 5d 87 3c 19 70 db 3c
       -0.0026226516 -0.014265912 0.016524294 0.02678685
0000f0 e3 e1 d1 bc 77 4c cd bb 7a 0e 45 bc f6 0f 08 bc
       -0.025620406 -0.006265219 -0.012027377 -0.008304587
000100 08 db f0 3d 8b f6 c8 3c 6c bb 15 3b e6 71 b0 3c
       0.11760527 0.024531623 0.0022847308 0.021538686
000110 1e b0 aa 3c 59 92 de 3c a7 e3 36 3c 8d 05 02 3c
       0.020835932 0.027169393 0.011162675 0.007935894
000120 1a dc cf 3d 59 e9 2d 3d c2 f9 0a bd 3b 48 84 bd
       0.10149403 0.042458866 -0.033929594 -0.06459089
000130 04 c8 b4 bc 83 d3 a9 ba 10 aa 44 bb e1 fe 92 bc
       -0.022068031 -0.0012956712 -0.0030008592 -0.017943801
000140 00 00 00 00 23 8b bb bc 00 00 00 00 59 70 aa 39
       0.0 -0.022893494 0.0 0.00032508632
000150 eb e5 ee b9 b8 12 68 3d 7d fa 8f bb 66 c9 ce 3a
       -0.000455662 0.056658477 -0.004393874 0.0015776574
000160 f8 b5 97 3c 3e a7 b3 bc a3 aa 40 bc bf 4a e5 bc
       0.018519387 -0.021930333 -0.011759433 -0.027989743
000170 79 3b 8b 3b 4e e6 80 bd 04 bb 82 bc ad 9a 73 3d
       0.004249033 -0.06293927 -0.015958317 0.059473682
000180 87 5f 89 3d 8a 61 d7 bc b1 97 fa bc 2b e0 35 bc
       0.067076735 -0.026291627 -0.03058991 -0.011100809
000190 5e 7a 68 bc e3 3e 1a bc ec 0e 56 3d aa 89 43 3d
       -0.014189331 -0.009414407 0.052260324 0.04773871
0001a0 98 75 9d bc e9 79 1e 3c ce 1d 09 bd 52 65 b9 bc
       -0.019221112 0.00967262 -0.03347569 -0.022631321
0001b0 ff 68 32 bd 2b d2 02 bd 2d 95 9b 3c 22 03 6e bd
       -0.043557163 -0.031938713 0.018992031 -0.058108456
0001c0 33 be 06 3d 00 00 00 00 00 00 00 00 b0 3d 85 3d
       0.03289623 0.0 0.0 0.065059066
0001d0 96 40 13 bd 78 4e 04 bd c7 8f 80 3b 25 e8 93 bd
       -0.035950266 -0.032301396 0.0039233896 -0.072220124
0001e0 ea 32 57 3d b1 42 33 bd 00 00 00 00 a6 5e 47 bc
       0.05253879 -0.043764774 0.0 -0.012168562
0001f0 e9 74 4f bc 96 af 22 bc 62 0b 6d 3b c5 39 d6 bc
       -0.012662151 -0.009929558 0.0036170115 -0.026150594
000200 dc fa 0b 3c 88 dd aa bc e1 4b 81 bd 82 b5 32 3d
       0.008543696 -0.020857587 -0.06313301 0.04363013
000210 ca 8d b4 bc a1 65 92 3d 9b e0 58 bd 67 ff 98 bc
       -0.022040267 0.071482904 -0.052948575 -0.018676473
000220 e3 d9 8c bc 00 00 00 00 ea fa e9 3b 74 09 4d bd
       -0.01719374 0.0 0.007140507 -0.050057843
000230 48 e6 03 bd 3a be 50 3d fd 90 0c bd 96 97 6f 3a
       -0.032202035 0.050962664 -0.03431796 0.00091397145
000240 35 14 ec 3c 02 1e 47 3d 9e d7 97 bc 00 00 00 00
       0.02881823 0.048612602 -0.018535431 0.0
000250 48 6c 12 bd 47 73 32 bc c6 ba ec 3d 24 60 9d bc
       -0.035747796 -0.010891742 0.11559062 -0.019210882
000260 93 85 b9 3c 93 12 2b bc c6 22 e8 3d 0d df 8d bc
       0.022646701 -0.01044144 0.113347575 -0.017318273
000270 ad d4 1f 3d a0 dc 78 bd f8 04 aa bc 16 14 0d 3b
       0.039021183 -0.06075728 -0.020754322 0.0021526865
000280 36 bb 2a bd 81 ba 0f bd f2 12 b3 bb e3 8d 68 3d
       -0.041682445 -0.035089973 -0.005464905 0.05677594
000290 74 c2 0b bd 10 66 74 bc 64 f1 1b 3d d5 2e 03 bc
       -0.03412099 -0.014916912 0.038072005 -0.008006771
0002a0 73 51 51 bc df 55 09 bd ce 1b 69 bb 00 00 00 00
       -0.012775767 -0.03352916 -0.0035569551 0.0
0002b0 0a a2 7c bc d6 d7 7c 39 29 34 b4 bc d8 2f ba bc
       -0.0154194925 0.00024112998 -0.021997528 -0.022727892
0002c0 3d a8 67 bd a0 54 95 bc fa a1 7a bc 03 6a 17 bc
       -0.05655693 -0.018228829 -0.015297407 -0.009241584
0002d0 bf 39 d4 bc 40 0e 2d bb 5f b2 83 3d f6 81 82 bc
       -0.025906442 -0.0026406199 0.06430506 -0.01593111
0002e0 00 00 00 00 eb b8 e7 3d a9 de 92 3c b4 32 e8 bb
       0.0 0.11314567 0.017928438 -0.0070861224
0002f0 a5 7e 94 3b fe 2a 14 bc d8 d7 d5 bc 5f 59 c3 3c
       0.0045316988 -0.009043453 -0.026103899 0.023846326
000300 02 c8 fc bc bb 58 d2 bc bc 87 4f ba 77 20 ff bc
       -0.03085709 -0.025677076 -0.00079166493 -0.03114341
000310 b2 3e 51 bc a0 7e 9b 3b 08 10 f1 bc 66 10 18 bb
       -0.012771295 0.0047453195 -0.02942659 -0.0023203134
000320 c6 89 81 bc a3 84 98 3c c8 44 6d bd c3 7d 03 bd
       -0.015812766 0.018617934 -0.057926923 -0.032102358
000330 f4 b0 04 b9 1f 12 bc bc da 46 ce 3d 06 57 88 3c
       -0.00012654421 -0.02295786 0.100721076 0.016643059
000340 1c 2f dd 3c 0c aa 81 bc 0f 33 ba bc e8 1f 13 3b
       0.027000003 -0.015828155 -0.022729425 0.0022449438
000350 96 4b 12 3d 2f b1 b3 bc 4f 24 3c 3d 48 71 9b 3b
       0.035716616 -0.021935074 0.045933064 0.004743729
000360 67 8a 03 3e 2a 23 85 bc db d3 83 3c ad b2 e1 bc
       0.12845765 -0.01625212 0.016092231 -0.02755102
000370 78 66 0d bb 00 00 00 00 ec 83 aa 3c 00 00 00 00
       -0.0021575969 0.0 0.020814858 0.0
000380 c2 4f 86 bc e1 b8 a5 3a 67 14 fb 3c 4e 41 8c 3d
       -0.016395453 0.0012643599 0.030649377 0.068483934
000390 67 71 8d bc 35 1a 1e bc 74 7a 0c 39 f4 28 4c bd
       -0.017265989 -0.009649803 0.00013397058 -0.049843743
0003a0 b4 a3 07 3d 68 27 ed bb 78 9a b1 bc 01 3f 86 3d
       0.033115104 -0.0072373636 -0.021680102 0.06554986
0003b0 d3 99 c6 bc 46 42 24 bc 19 1b ee bc 17 80 26 3c
       -0.024243271 -0.010025566 -0.029065656 0.010162375
0003c0 fd 75 22 bc a0 2a 3d bb e0 55 ee bc b4 23 f7 bc
       -0.009915826 -0.0028864518 -0.029093683 -0.030168392
0003d0 a0 49 54 bc d8 d0 27 bc ee 5b 55 bc 98 90 fb bc
       -0.012957007 -0.010242663 -0.013022406 -0.030708596
0003e0 80 25 5d 3c c7 9a 83 bc 01 5d 0a 3d 27 82 35 3d
       0.01349771 -0.016065015 0.0337801 0.044313576
0003f0 75 d0 47 3c 30 05 71 3d 26 6b 0f bd 2e 1e 71 bc
       0.012195696 0.058842838 -0.035014294 -0.014716668

linear2.weight f4 [256, 256]
000000 3a ab 3f 3d 95 6e 5c bb 1f c5 60 3d 19 c2 74 3d
       0.046794154 -0.0033635248 0.05487549 0.05975542
000010 c1 2c 75 bc 1b 5b 5e be 2b 53 dc bc 3b 06 82 3d
       -0.014964283 -0.21714441 -0.026895126 0.063488446
000020 51 78 fe 3b 42 c4 7d bd 31 72 e4 bd a4 d2 13 bd
       0.0077658077 -0.061954744 -0.11154593 -0.036089554
000030 0f fb f6 3d 27 9e 93 be aa d0 69 3d ac 97 1d 3d
       0.120596044 -0.28831598 0.057083763 0.038474724
000040 eb 19 00 3d d5 af 95 be c6 27 77 3e f1 43 b2 3d
       0.031274717 -0.29235712 0.24136266 0.08704365
000050 f9 64 db bd 2a 18 f0 3d c2 c6 08 be 6b ea 1f bd
       -0.107126184 0.11723359 -0.1335707 -0.039041918
000060 aa d0 b8 bd cf 0d be be bb 8a 09 be de 91 d4 bd
       -0.090241745 -0.3711991 -0.13431828 -0.103793845
000070 8e 75 3f 3b ba 20 f1 3d 33 13 bb bc c0 4b 24 be
       0.0029214355 0.1177382 -0.022836303 -0.16044521
000080 18 36 93 3d 46 90 1a bd d9 09 0c 3e cd 8e 40 3e
       0.07188052 -0.037735246 0.13675632 0.18804474
000090 ef a9 be bc 3c e7 21 be ab 56 8a 3c 91 b9 0b bd
       -0.02327439 -0.15810865 0.01688703 -0.034112517
0000a0 04 a7 da 3c 21 5d 9c 3d e9 12 b3 bd 8b f2 58 3e
       0.026690967 0.076349504 -0.08743841 0.21186273
0000b0 80 f1 4a 3e f5 0a a9 be 76 82 ad be 69 7d 99 bb
       0.19818687 -0.33016172 -0.33888596 -0.0046841395
0000c0 cb 19 d8 3c 89 5c bd 3d af 5c 47 3d 45 fc 21 3e
       0.026379487 0.09246165 0.048672374 0.1581889
0000d0 1b 90 44 bd 12 77 53 3e 40 38 26 bd 28 61 06 3e
       -0.047988992 0.2065089 -0.040580988 0.13123
0000e0 af 2f 27 bd 4e 39 50 3d 8e 93 fe be 49 d1 19 3d
       -0.04081696 0.0508359 -0.4972195 0.037553106
0000f0 50 a4 20 3e 2b 12 e7 bd b4 12 79 bd 6c c6 7c bb
       0.1568768 -0.11282762 -0.060808852 -0.0038570417
000100 84 4d 21 3d 3a 28 aa be 51 de 9b 3d 9c dc c0 3c
       0.039380565 -0.33233815 0.07610763 0.023542695
000110 f3 e0 fe 3c 7c b5 13 bc 5d ff b7 bd 01 32 fa bd
       0.031113124 -0.009015437 -0.089842536 -0.12216569
000120 16 27 98 3d 3e 3f 37 3b 97 57 c9 3d 83 71 67 3d
       0.0742933 0.002796128 0.098311596 0.056504738
000130 9d 0b ab 3d 37 13 d7 3c 4c e7 9b 3d ff 56 70 bd
       0.083518244 0.02625428 0.07612476 -0.058676716
000140 b8 fd 5a bc 00 e5 5f 3d b7 6a a9 3d 6c d9 2b 3d
       -0.013366155 0.05466175 0.08272307 0.041955397
000150 0d 29 7b 3d 5c 53 54 3d ae 77 d1 3c d4 c1 dc 3d
       0.061318446 0.05183731 0.025569763 0.10779157
000160 30 96 9c be 6f 14 52 3e 51 e8 d9 bd ed 99 9d bd
       -0.30583334 0.20515607 -0.10640014 -0.07695375
000170 06 0d a8 3c ce 4d 8b bd ad 86 7a be d8 d5 06 bc
       0.020514023 -0.068019494 -0.24465437 -0.008229695
000180 da c9 90 3e 56 a9 5f 3d 88 f5 5d bd 67 c1 4b bd
       0.28279 0.05460485 -0.054189235 -0.04974499
000190 a6 09 31 3d 76 e6 14 bd 9c 5c fd 3c ef 2a 5f 3c
       0.043222092 -0.036352597 0.030927949 0.013621076
0001a0 43 35 00 bd 58 14 5e be 18 1e 5e 3c 38 c6 e6 bd
       -0.031300794 -0.21687448 0.01355698 -0.11268276
0001b0 ca f7 1f bd 80 e4 c8 bd 78 80 cc bc 88 58 86 bd
       -0.03905467 -0.09809208 -0.024963602 -0.06559855
0001c0 a4 3c fc bd bf 1e 4d bd 77 79 da 3d 6f 24 5e be
       -0.12316254 -0.05007815 0.10667699 -0.21693586
0001d0 50 f7 80 3e bd c3 35 3c c2 de 4a be c0 c2 58 be
       0.25188684 0.011094031 -0.19811538 -0.21168041
0001e0 fb 38 05 3e 94 dc 05 3e f8 2b ee bc 13 fd bc bd
       0.13010018 0.13072425 -0.0290737 -0.092279576
0001f0 7e df 21 3d 52 50 36 3d 14 59 20 3e e6 65 45 be
       0.03951978 0.044510193 0.1565898 -0.19277152
000200 e4 22 70 be 85 f4 5a be 76 14 88 be 15 4e b0 3d
       -0.2345081 -0.2138234 -0.2657811 0.08608643
000210 3c d2 c6 bd 80 91 82 3e a8 e6 09 bc 32 61 d2 bb
       -0.09708068 0.25501633 -0.008416809 -0.006420278
000220 b6 fb 32 3c 26 72 5b bd 99 c8 3a 3c 26 10 4e be
       0.01092427 -0.053575657 0.011400365 -0.20123348
000230 11 fc 35 3e 8e 24 3b 3e a5 2a f1 bd 5a 94 73 bc
       0.17771937 0.18275663 -0.11775712 -0.014866913
000240 56 e9 72 3d 78 77 0a 3e 91 e1 4b 3d 2f fc 9c 3d
       0.059304558 0.13522136 0.049775664 0.07665288
000250 34 a7 9b 3d 68 3b e8 3d 29 ad 8a 3d c7 40 c1 3d
       0.07600251 0.11339456 0.06771309 0.094361834
000260 54 f1 0b 3e a8 46 b9 bd 48 36 83 3d 40 d2 c2 3d
       0.13666278 -0.0904668 0.06406838 0.09512758
000270 c6 8d cf 3c 46 b7 05 be 32 2a 1b 3d b6 c8 09 be
       0.025336158 -0.13058195 0.037882037 -0.13455471
000280 c6 fb 35 3d da a5 76 bb a1 25 d6 3d 52 34 05 3e
       0.044429563 -0.0037635476 0.10456396 0.1300824
000290 ca 5d b7 3e 69 03 a8 bd 81 27 24 3e 30 e1 cf 3d
       0.35813743 -0.082037754 0.16030695 0.10150373
0002a0 c8 09 45 3e cb f9 24 be 3c 8a 21 3e 18 49 dd bd
       0.19242013 -0.16110913 0.15775388 -0.10804957
0002b0 b5 10 bb b8 fd 9d 36 3d ec ec db bc 79 6a 18 be
       -8.919967e-05 0.044584263 -0.026846372 -0.14884366
0002c0 ac 8a b4 bd e0 d6 de bc 34 7d aa 3d 8d a1 b9 3c
       -0.08815512 -0.02720207 0.08324662 0.022660041
0002d0 29 cd 11 bd 83 d8 8a bd 50 99 71 3c b4 9b 8f bd
       -0.035596047 -0.067795776 0.014746025 -0.0701212
0002e0 e6 a0 75 3d 9a 0c 49 3e 43 0b 28 be a6 07 b8 3d
       0.059967898 0.19633713 -0.16410546 0.08985834
0002f0 ca 7c cf bd a0 7b 89 3d 69 b6 b0 bd a0 ac a2 3d
       -0.101312235 0.06713033 -0.08628542 0.07943082
000300 8c d2 a1 3d b8 b6 5d 3e f0 45 fe 3d b1 fc bc 3e
       0.07901487 0.21651733 0.12415683 0.36911538
000310 41 49 e4 bd 15 6b 30 3e 3d fa 49 bb 3d f3 c4 be
       -0.111467846 0.17228349 -0.003081932 -0.38466826
000320 ae 24 a9 3c 38 da be 3c ce 02 15 bd 8c 4a 8b 3d
       0.020647373 0.023297414 -0.036379628 0.06801328
000330 8d bd 1a bd ad 1a 4e 3d 0b 14 12 3e 20 bd 92 3d
       -0.037778426 0.05031841 0.14265458 0.07164979
000340 b3 6d 53 3e a7 2c fb bd 96 45 95 bd b9 34 53 be
       0.20647316 -0.12264376 -0.07288663 -0.20625581
000350 d3 e5 6e 3e 93 c5 42 bd 73 41 19 3e ff 2d 13 3e
       0.23329858 -0.047551703 0.14966373 0.14373015
000360 67 56 9e b9 a5 d9 9b 3d 1d 66 99 bc 11 c4 95 be
       -0.00030200483 0.07609872 -0.01872545 -0.2925115
000370 99 91 6f 3d 5e f0 ac bd ef dd a1 bc f8 37 76 3c
       0.058488462 -0.08444284 -0.019759146 0.015027992
000380 07 f6 16 bd 44 1e 68 3d a4 58 74 bc 47 09 bd 3c
       -0.036855724 0.05666949 -0.014913712 0.023075713
000390 bb a7 28 bd d3 4a c8 bc 50 e7 39 be 02 de 15 3d
       -0.041175585 -0.024449741 -0.18154645 0.036588676
0003a0 99 c5 50 be 00 ce bd 3d 22 c9 3d bd d1 dc f6 3d
       -0.20387878 0.09267807 -0.046334393 0.12053836
0003b0 0f f0 0a bc a0 a2 13 3e d5 06 97 be 6a 2e 6f 3d
       -0.008480086 0.14417505 -0.294974 0.058393873
0003c0 22 76 80 3e 2e 75 9d be 58 3e 5f be 7a 0a 0e bf
       0.25090128 -0.30753464 -0.21801126 -0.55484736
0003d0 6c 53 b5 3d 43 99 55 bd a6 35 4c be b4 97 e5 bd
       0.08853802 -0.052148115 -0.1994234 -0.11210576
0003e0 d0 e3 cc 3d 38 9f b9 bd d2 fe 3e 3e 8c ae be bd
       0.10004389 -0.09063572 0.18651894 -0.09310636
0003f0 9c f8 04 bc 4a 5f a4 bd c9 be dc bd d7 7b 89 3d
       -0.008115914 -0.080259874 -0.10778577 0.06713074

linear2.bias f4 [256]
000000 30 95 be bd 3c 1d 22 bd 36 d8 fe 39 31 ec ce bd
       -0.09305799 -0.03957866 0.00048607745 -0.10103644
000010 4b b1 25 bd bb 5b dd bc 77 aa de 3b 37 b7 ac bc
       -0.040452283 -0.02702128 0.0067952233 -0.021083457
000020 6a 5f 0c be 9c c2 9c bc 8e 1b 16 3d 2a 1c 03 bc
       -0.13708273 -0.019135766 0.036647372 -0.00800232
000030 19 3f 92 3c 3e da 23 3e 51 45 56 3c d6 0b 4e 3c
       0.017852353 0.16001222 0.01307805 0.012576064
000040 70 8d 71 bd f1 ec 81 3c f0 9f 5b be 47 e1 51 be
       -0.058972776 0.015860053 -0.2144773 -0.20496093
000050 bf 88 4f bd 02 93 f7 3c d1 4d 25 bd 36 f6 1d bc
       -0.05066752 0.030221466 -0.040357415 -0.009641221
000060 9d 43 28 bd ba 5c c5 bd f2 72 2c bd 4b 0f c9 3d
       -0.041080106 -0.09636827 -0.042101808 0.0981737
000070 24 ff 23 bd 62 c6 11 bd 2e ff a8 3c b4 d7 2c 3d
       -0.040038243 -0.035589583 0.020629492 0.042197898
000080 42 b7 54 3d 00 55 8a bd 2e 51 33 bd 1b b3 48 bc
       0.05193258 -0.06754494 -0.04377859 -0.012249733
000090 03 9e e7 3d c0 ff 91 3c 63 53 08 3e 87 34 cf bb
       0.11309435 0.017822146 0.1331306 -0.0063234004
0000a0 a8 00 f1 bc a2 4d 3f bd 51 fc 1b bd 1b 6e f1 bb
       -0.029419258 -0.046704896 -0.038082425 -0.007367862
0000b0 8a 43 56 bc 22 38 60 bd a6 d1 28 bd 52 99 1c bd
       -0.013077626 -0.054741032 -0.04121556 -0.038232155
0000c0 8a 3f 81 bd 63 be b3 bd 1b 7f 4f bd 08 b1 21 bd
       -0.06310947 -0.08776548 -0.050658327 -0.03947547
0000d0 3f dc ea bc 1a b8 55 3d 89 d3 d5 bc 9c 9a 31 3d
       -0.028669475 0.052177526 -0.026101844 0.043360338
0000e0 94 f0 21 3c e6 12 c1 bc e3 19 fd bc fd a6 80 bc
       0.009884018 -0.023568582 -0.030896133 -0.015704626
0000f0 9d 85 d7 bc f8 90 04 bb 03 1d 2b 3d 12 48 62 3d
       -0.026308829 -0.002022801 0.041775715 0.055244513
000100 9e 06 83 3c f3 f4 31 bd 01 70 89 be 70 17 3d bd
       0.015994366 -0.043446492 -0.26843265 -0.04616493
000110 4f 9d 0a bd cc 0d 5f be 9f 29 9c bc 71 17 8d bc
       -0.033841427 -0.21782607 -0.019062815 -0.017223092
000120 67 77 0c 3b e6 e8 e1 bc 7d af 95 bc 63 76 4c 3d
       0.0021433474 -0.027576875 -0.018272156 0.04991759
000130 4e d5 af bb 15 3e e1 bc 1e d3 5b 3d 73 95 33 3d
       -0.005366004 -0.027495423 0.053668134 0.043843698
000140 52 2f 88 3c 82 98 ba bd dd 63 cc bc 79 33 55 bd
       0.016624127 -0.0911112 -0.024949962 -0.05205104
000150 62 fb b2 bc 6f c4 6d bc 16 4d 76 3d 04 3d 09 bd
       -0.021848384 -0.014512165 0.06013211 -0.033505455
000160 b7 c9 e7 bd 62 08 2e bd 69 10 57 3d 1f 43 29 bd
       -0.11317771 -0.042488463 0.052505884 -0.041323777
000170 0b c6 1f bd cb 49 10 bc 9a 16 ae 3d bd cf 2c be
       -0.039007228 -0.008806656 0.08500405 -0.16876121
000180 ea 7a 18 bd 32 b2 06 3d ea e9 7a 3c df 98 1d bc
       -0.037226595 0.032884784 0.0153145585 -0.009618967
000190 5a 06 cb 3c 8c 98 00 bd 18 0c 87 3d 30 31 34 bd
       0.024783302 -0.03139548 0.065941036 -0.04399222
0001a0 90 18 00 3d 19 fc 81 3d d0 62 76 be 5b 82 17 bd
       0.031273425 0.06346912 -0.24061131 -0.03698955
0001b0 e9 c8 06 3d d4 73 25 bd cc 54 e2 3b ac c3 e0 3c
       0.032906447 -0.040393665 0.006907081 0.027437054
0001c0 b6 57 04 3c f9 9e 93 3d a0 cd 07 bd cc 90 a4 ba
       0.008077553 0.07208056 -0.033155084 -0.001255536
0001d0 1e 33 ea bb fb c6 83 bb 9b 47 04 bd f8 ca 2e bd
       -0.007147207 -0.004021523 -0.03229485 -0.042674035
0001e0 d3 fd 53 3c a7 6e 51 3d 3c 9d 2d bc 9d 6e ff bc
       0.012938934 0.051130917 -0.01059657 -0.031180674
0001f0 df b7 de bc 8d 20 ad bc f2 08 e7 3b 9a 92 10 bd
       -0.027187286 -0.021133685 0.007050627 -0.03529606
000200 95 b5 b9 3b be bb 8b bc 16 d9 83 3d 2e 7f 5d 3d
       0.005667398 -0.017057296 0.0643789 0.054076366
000210 a6 21 07 bd aa 58 91 bc 61 42 25 bd a9 64 f9 3c
       -0.032991074 -0.017742474 -0.040346507 0.030443506
000220 f7 e4 9c bc 68 40 ad 3c 58 25 c7 3c 83 f3 a6 bb
       -0.019152148 0.021148875 0.0243098 -0.005094947
000230 ca 7f a3 bc 3c 77 d0 bc 1c aa e1 bc 54 6f b7 3c
       -0.019958396 -0.02544748 -0.027546935 0.022391953
000240 a1 1a 19 bd 82 e8 c2 3c 31 6b c4 3c 18 8b 27 bd
       -0.03737891 0.023792509 0.023976894 -0.040904135
000250 32 ea 90 3d fd b7 94 bd 70 7b a0 3c 83 c0 ed 3c
       0.07075919 -0.072616555 0.01959011 0.02902246
000260 68 f4 9a 3c 5f d5 0c bd 6a 49 ad bc db 8b 16 be
       0.01891537 -0.034383174 -0.02115317 -0.14701788
000270 1a 98 29 3c 85 3f c2 3c bf 8f 89 3d 0e 48 23 3d
       0.010351205 0.02371193 0.067168705 0.03986364
000280 db d0 0b bd cd 6f 70 bc 71 f0 cb bc 50 8b 9a bd
       -0.034134727 -0.014675093 -0.024894925 -0.07546103
000290 b0 6d f9 ba 85 6f 51 bd b3 71 3b bd 07 47 2e be
       -0.0019029882 -0.051131744 -0.04576273 -0.17019282
0002a0 27 fb 1d bd 39 9e 63 bd b3 80 a5 3d 86 d5 30 bc
       -0.038569596 -0.055570815 0.08081188 -0.010793095
0002b0 c5 32 34 bd 6b 57 0e be 31 d1 ad bd 21 c3 37 3d
       -0.04399373 -0.13900535 -0.08487166 0.044863824
0002c0 07 cc a1 3d a7 46 97 3b 22 b2 9d 3c c4 87 c9 bc
       0.07900243 0.0046165767 0.01924998 -0.02460087
0002d0 b7 8a 7f 3d fb d6 32 3d 16 a0 95 3d a6 44 dd 3d
       0.06238815 0.043662053 0.073059246 0.10804109
0002e0 ac 71 5d bd 62 1a 18 bd d0 8f a2 bc 70 f7 8b bc
       -0.054063484 -0.037134536 -0.019843966 -0.01708576
0002f0 12 ca 35 bd df a3 61 3b f1 00 a6 3c 68 ce 57 3d
       -0.044382162 0.003442995 0.02026412 0.05268708
000300 7f f0 24 bd 58 70 79 bc d0 23 c7 3c 6d 81 85 3d
       -0.040268417 -0.015224539 0.024309069 0.06518827
000310 94 52 dc 3c 61 46 5b bd 06 6a 56 3d 9f 16 ab bd
       0.026894845 -0.053533915 0.052347206 -0.08353924
000320 18 9a 69 3d d8 23 da bc 9d 71 94 3b c9 fe 40 3d
       0.05703172 -0.02662842 0.0045301453 0.047117982
000330 62 4e 21 bd fa 01 d4 3c 68 bd 41 bd e0 ad 45 bd
       -0.039381392 0.025879849 -0.047299773 -0.048261523
000340 45 9e 45 3c 63 40 3f 3d d9 a4 f2 3c 10 41 df bd
       0.01206166 0.046692263 0.029619621 -0.109010816
000350 76 2f 54 bd 95 4b 01 bd d0 85 22 bd a6 34 36 bd
       -0.051803075 -0.03156622 -0.039678395 -0.044483803
000360 55 82 a7 3c e0 a6 7a 3c 02 89 b0 bb a8 93 5b bd
       0.02044789 0.015298575 -0.0053874264 -0.053607613
000370 49 39 8b bb ba 5a b4 bc d8 ef b2 bc 0d 26 eb bc
       -0.0042487723 -0.022015918 -0.021842882 -0.028704667
000380 27 2b d6 bd 6e 00 d4 ba 84 08 e0 bc 08 95 86 bd
       -0.104574494 -0.0016174444 -0.02734781 -0.06571394
000390 54 c5 24 bd 97 c0 86 bd 05 bb 8c 3d b8 9a 8d bd
       -0.04022725 -0.06579702 0.06871609 -0.06914276
0003a0 4c 51 43 bd ad 61 1d bd b1 d9 9a be 08 e3 9d 38
       -0.047684953 -0.03842323 -0.3024421 7.528631e-05
0003b0 4c b5 5c 3c 1f bd 33 bd 4c 00 3f bd 87 eb 03 bd
       0.013470959 -0.04388153 -0.046631142 -0.03220704
0003c0 bc 15 33 bd b1 57 b7 bd f2 23 0a bd c7 3e 21 bd
       -0.0437219 -0.08952273 -0.033725686 -0.03936651
0003d0 aa 1f 19 3c ab b8 04 bd 1d a6 18 bd a1 6c 42 3d
       0.009345928 -0.032402676 -0.037267793 0.047466878
0003e0 a2 53 78 3d 21 51 9f bc b3 8f aa 3d e2 ab 97 3d
       0.060626633 -0.019447865 0.0832819 0.07405831
0003f0 f4 f2 67 3d 59 46 1a bd e9 f2 f7 bc b0 74 b6 3a
       0.056628183 -0.037664745 -0.030267196 0.0013920274

linear3.weight f4 [256, 256]
000000 a4 0d c7 be 2d 4e fe 3c 6c 79 a0 bd 55 1b 23 be
       -0.38877594 0.031043136 -0.078356594 -0.15928395
000010 10 6d 9e bd 24 ff 80 be 65 44 b9 3d cc f0 ad bd
       -0.07735646 -0.25194657 0.09046248 -0.08493194
000020 ea 88 ca bd b8 04 91 bb 09 e2 80 be fd 9b 07 bd
       -0.098893955 -0.0044256113 -0.2517245 -0.033107746
000030 16 10 59 bc 4c cc 58 be cd d5 b3 be 11 22 a0 be
       -0.013248464 -0.21171683 -0.35124055 -0.3127599
000040 65 50 73 3c c1 df 74 be 3b de 29 bd 46 64 ae be
       0.0148507105 -0.2391348 -0.0414717 -0.34060878
000050 c8 63 9e bc 49 00 21 3d f8 8c 29 3e 33 59 9c 3d
       -0.019334689 0.039306913 0.16557682 0.07634201
000060 70 aa b1 bc 47 33 27 3e 79 92 4d 3d 87 ad 6a be
       -0.021687716 0.16328155 0.050188515 -0.22917758
000070 42 be 07 3c c3 38 5c 3d e0 b5 fd bd 0d 1a 96 3d
       0.008285107 0.05376507 -0.123882055 0.073291875
000080 d5 e2 4e be ae 0d 47 be 5f a1 9e bc 54 5d e8 bd
       -0.20203717 -0.19438812 -0.019364057 -0.11345926
000090 9b aa 01 3e 52 7f 5a bd 16 5b 5f be a9 16 24 bd
       0.12662737 -0.05334408 -0.2181209 -0.040060673
0000a0 e2 e8 a0 bd 49 5f 95 3d 3a 50 dc bd f1 ff 35 be
       -0.07856919 0.07293565 -0.107574895 -0.17773415
0000b0 99 fa 2d 3c 30 39 fa 3d 4f ee 18 bd 2b cf 5a be
       0.010618829 0.12217939 -0.037336644 -0.21368091
0000c0 a3 83 19 bd 09 77 c3 3d 1e a3 96 bd 9c 68 65 bd
       -0.037479054 0.095441885 -0.07355331 -0.056007966
0000d0 fc e8 c2 be 67 a1 73 be c4 e9 69 3d 09 07 06 bd
       -0.38068378 -0.23792039 0.057107702 -0.032721553
0000e0 a2 d9 ce bd 55 d0 46 3d 71 61 65 bc fe 0f 62 be
       -0.10100104 0.048538525 -0.014000283 -0.22076413
0000f0 09 e0 bf 3d 23 e1 36 bd 6f 1b 17 be 0a 21 fd bd
       0.09368903 -0.0446483 -0.14756559 -0.12359817
000100 52 f4 06 be 78 8a 51 3d b9 96 99 bd 7f bf 82 bd
       -0.13179138 0.051157445 -0.07499451 -0.06384181
000110 6a 82 aa 3d 72 97 f0 bd 18 87 c2 bc 06 7a f0 bc
       0.08325656 -0.11747636 -0.023746058 -0.02935506
000120 1d e1 15 be df ee 4b bd 87 b6 6a 3d e5 2e f1 bd
       -0.14636655 -0.049788352 0.057302978 -0.117765225
000130 02 d0 4f bd 31 91 46 bc ce 96 0c bf 48 9c de 3d
       -0.05073548 -0.012119577 -0.5491761 0.10869652
000140 d8 36 21 bc b0 fd fc bd 43 54 a1 3d 41 cf 23 be
       -0.009839736 -0.123530746 0.078774 -0.1599703
000150 81 e9 a8 3d ad bd d2 3d d2 fe a2 bd 87 c2 b0 3d
       0.08247662 0.10290084 -0.07958759 0.08630853
000160 c4 80 09 bd 26 16 b1 3d 0d 8e a2 bd 0f ee 9e be
       -0.033570066 0.086468026 -0.0793725 -0.31041
000170 1f 62 87 3d 47 79 1e be 3e 90 c8 3d 34 01 98 be
       0.06610512 -0.15475951 0.09793137 -0.29688418
000180 f9 f3 bd ba 24 ea 20 3d b5 87 0c be b3 c6 39 3e
       -0.0014492265 0.039285794 -0.13723643 0.18142204
000190 50 bd 8e bd 84 a2 c5 3d f7 8e 86 be 31 ea 94 bd
       -0.06969702 0.09650138 -0.2628095 -0.07271231
0001a0 95 ae 8b be 73 03 0a be ba 4e 45 bd c0 5f 64 3c
       -0.27281633 -0.13477878 -0.048170783 0.013938844
0001b0 0d e6 64 3d c9 89 8a 3d 4f 46 a2 bd 6f 45 df 3d
       0.055883456 0.06764562 -0.079235666 0.10901915
0001c0 71 fb 23 3e 80 f5 31 bd e4 7a db bd c3 19 25 3e
       0.16013886 -0.043447018 -0.10716799 0.16123109
0001d0 35 5c 1a be 85 df 25 be 7c b3 82 3d 19 f9 22 bc
       -0.15074237 -0.16198547 0.0638189 -0.009947085
0001e0 01 d0 3e 3e c6 fc 75 be be 6d 83 3b 6d ba cf bd
       0.18634035 -0.24022207 0.004010885 -0.1014298
0001f0 d3 e0 d1 3c ab 75 46 bc c7 58 00 be 99 0d c4 bc
       0.0256199 -0.012113015 -0.12533866 -0.023932265
000200 9c 5e 1d 3d c3 ab 6c be 7d 9c 39 be a8 89 b6 bb
       0.038420305 -0.23112397 -0.18126102 -0.005570609
000210 fb 55 2c bd fc 40 51 be b9 f4 1c 3e 5c 28 b5 3d
       -0.042074185 -0.20434946 0.1532773 0.088455886
000220 45 de 42 bd be ca c6 bd 2d 34 f5 bd 86 cf 2e 3d
       -0.047575254 -0.09706639 -0.11972842 0.04267838
000230 10 15 d4 bd c1 87 10 3d ef f4 69 3d 04 40 65 bd
       -0.1035558 0.035285715 0.057118353 -0.055969253
000240 77 0d 87 3d b4 73 49 3d f5 92 a2 be 96 a1 00 3e
       0.06594365 0.04918261 -0.31752744 0.1256164
000250 40 5b a8 bd 11 96 3b be 80 81 d1 bd 21 80 ef 3d
       -0.082205296 -0.18318965 -0.10229778 0.116943605
000260 2f ad 26 bc 85 73 a5 3d a4 8c af bd a2 51 13 3e
       -0.010173126 0.08078674 -0.08571747 0.14386609
000270 3d ad 42 3e f2 b1 ae 3d 90 64 d4 bd f4 9c 39 3d
       0.19011398 0.08530034 -0.10370743 0.045315698
000280 17 7b 15 3e 22 f3 6a be 80 d9 8c bd ee d5 78 3e
       0.14597736 -0.2294431 -0.06877422 0.24300358
000290 c6 85 02 bd d7 4a 5b be 72 81 c9 bd 3e 2a 32 3e
       -0.031865858 -0.21415268 -0.09839143 0.17398927
0002a0 98 4f 2e 3e ec e9 9a 3d 69 a0 69 bd 2c 4e 57 be
       0.1702255 0.07564148 -0.057037745 -0.21025914
0002b0 98 10 9a be 56 21 7b 3c 82 19 7c be d5 f6 61 be
       -0.30090785 0.015327772 -0.24619105 -0.22066815
0002c0 d2 cf 83 bd 48 c2 08 be c2 5c 13 3e 77 5f c3 3c
       -0.06436123 -0.13355362 0.14390853 0.023849232
0002d0 50 f5 a3 bd 5a 7d be be 0a ce 02 3e 1b e7 2b bc
       -0.08005774 -0.3720501 0.1277391 -0.010492112
0002e0 a6 d1 d2 bd b8 6e 7c be 1f fb 9c bd f8 93 97 3d
       -0.102938935 -0.24651611 -0.07665085 0.0740127
0002f0 28 37 b5 3d db 57 ac bd 2c 0b ee 3d 64 12 37 3e
       0.08848411 -0.084151946 0.116232246 0.17878109
000300 a6 04 09 3e 8f e4 4a 3e 82 15 ef bd 4a ff 67 3e
       0.1338068 0.1981375 -0.11674024 0.22655979
000310 32 98 a5 bd cc 43 03 be a3 e8 62 bc 70 cd 1f be
       -0.080856696 -0.12818831 -0.01384941 -0.15605712
000320 de f1 b8 bd ea 1d 72 3d 68 4b bf bc a6 75 1f be
       -0.090305075 0.05911056 -0.023351386 -0.15572223
000330 12 9a 24 3e 9c 5c eb 3c 33 ac b7 3d 67 e0 7d 3d
       0.16074398 0.028730683 0.08968391 0.061981585
000340 ea cb ca 3d 30 fd 41 be 01 9a 14 be 3c 45 c1 bd
       0.09902175 -0.1894424 -0.14511873 -0.094370335
000350 f0 11 15 3b aa c5 87 3d c7 96 49 be ac f0 4e 3c
       0.0022746287 0.06629498 -0.19686423 0.012630623
000360 53 e5 eb 3c e1 a8 80 bc 16 07 22 3e 2b 75 d5 bd
       0.028795874 -0.015705528 0.15823016 -0.10422739
000370 31 b6 0a 3e e3 f1 7b 3c ac 9f 4e bd 60 96 4c bd
       0.13546063 0.0153774945 -0.050445244 -0.049948096
000380 d5 fb 43 3d 11 b1 46 bc cf 6e b1 3d d7 1c d6 3d
       0.047847588 -0.012127177 0.08663713 0.104547195
000390 ac 80 57 be 18 ae f5 3a a0 ce 09 be 2c b9 0d be
       -0.21045178 0.0018743901 -0.13457727 -0.13840169
0003a0 45 54 98 bd 23 c3 01 bd 27 39 dd 3d 0b 4e d8 3c
       -0.07437948 -0.031680238 0.108019166 0.026404401
0003b0 03 05 6c 3e c0 0e e9 bd ae 6d 37 3d f1 de a1 3d
       0.23048787 -0.113797665 0.044782333 0.07903851
0003c0 7b 11 d9 3c 44 fb 0f bd 80 56 71 bd b7 18 9c 3d
       0.026497593 -0.035151735 -0.058920383 0.076219015
0003d0 56 76 b4 3d 39 9f e9 bd ab db 9e 3d c5 48 95 3d
       0.08811633 -0.114073224 0.07756742 0.0728927
0003e0 9f b1 9f 3c 22 d7 46 bd 2d d9 66 bd 15 d0 d6 bd
       0.019493876 -0.04854501 -0.05635946 -0.10488907
0003f0 6e aa 83 3b b9 88 d5 bd 37 1a a9 3d 07 38 c2 be
       0.0040181195 -0.104264684 0.08256953 -0.3793337

linear3.bias f4 [256]
000000 5e 0c 60 be 2b e9 ab bd 34 8b 8a 3d 11 f2 cc bd
       -0.21879718 -0.08394083 0.06764832 -0.10007108
000010 7a 8b bd 3c 6a 7b 22 3e 99 b3 aa 3c c1 12 05 be
       0.023137797 0.15867391 0.020837592 -0.12995435
000020 ca be 03 3d f6 4a 9b 3c d2 70 8a ba fa 75 c4 3d
       0.032164373 0.018956643 -0.0010562188 0.09592815
000030 83 5c 78 3d db c3 9e 3c 0d df c8 3c 02 c8 23 be
       0.0606351 0.0193805 0.024520421 -0.15994266
000040 f4 cd d9 3c 84 9c c3 bd a5 8a e3 bc 6a 12 e9 3c
       0.026587464 -0.09551337 -0.027776072 0.028451163
000050 be ce 3d 3d 78 e4 d6 3c dd bd 90 bd a6 84 08 bd
       0.046339743 0.02623199 -0.070674635 -0.03332963
000060 04 2e c3 3c 3e 3c b3 bb 1f d6 eb bd 3d 0c d2 bc
       0.023825653 -0.005469828 -0.1151545 -0.025640601
000070 77 49 cd 3c 83 27 95 bd 7e bc 93 bd 4d c2 d1 3d
       0.025059445 -0.07282927 -0.072136864 0.10242138
000080 ce e5 9d bc cf 04 a6 3d eb d9 01 3d a3 57 c9 bc
       -0.019274618 0.08106386 0.031701963 -0.024577921
000090 8a 77 d5 3d b2 69 9d 3c b2 6c ef 3c 85 f7 02 3d
       0.10423191 0.019215439 0.029226635 0.031974334
0000a0 18 ec bd 3d 20 fa 99 bd 43 5b cc bd 8f 92 9f 3d
       0.09273547 -0.07518411 -0.09978344 0.07791626
0000b0 ae 50 d2 3d 0b 4b 44 3d af 25 86 bd 51 42 24 be
       0.10269295 0.04792313 -0.06550156 -0.16040923
0000c0 51 d6 a6 bd 96 11 70 3d ba 0d 53 3e b5 cf a4 3c
       -0.08146346 0.05861052 0.20610705 0.020118574
0000d0 c0 26 dc 3d 80 07 b3 3c b6 8e 25 3d ce 8d 8b 3d
       0.107495785 0.021854162 0.040419303 0.068141565
0000e0 a0 8f 7b bc c7 2c e1 3d 13 bf 16 3d d7 7d 9a 3c
       -0.015354067 0.10994869 0.036803316 0.018858833
0000f0 56 65 03 bd 05 6e 8a bd e5 1a 65 3d 13 c2 0f 3c
       -0.032079063 -0.06759266 0.05593385 0.008774298
000100 d2 e3 33 3d 35 9c 9a bc 01 75 80 bd b7 10 dc 3c
       0.04391844 -0.018873313 -0.06272317 0.026863439
000110 3f 6c 83 bd 1f 00 74 3d ef 26 23 bd 15 01 e5 3d
       -0.06417131 0.059570428 -0.03983205 0.11181847
000120 8f ca 35 bd 10 96 f1 bc 64 54 89 bd 5a 0a f1 3d
       -0.044382628 -0.0294905 -0.06705549 0.117695525
000130 6d 80 76 bc 2e 1f e6 3c 36 2a e1 3d 24 ee 19 3e
       -0.0150452675 0.02809104 0.10994379 0.1503225
000140 85 2b c4 bc 49 04 0b 3d 55 45 7c 3c 92 e1 ed 3d
       -0.023946533 0.033939634 0.015397389 0.1161529
000150 cb dc 38 be 90 63 a7 bc 14 90 6c bd f9 bb 40 bd
       -0.18052976 -0.020433217 -0.05775459 -0.047054265
000160 37 15 d9 bc c9 99 d7 3d cd 4b a3 3c 0f e7 0d 3e
       -0.026499374 0.10527379 0.019933606 0.13857673
000170 f2 99 bb 3c 35 45 c0 3d 14 a8 39 3d 3c 2b e5 ba
       0.022900555 0.093882 0.045326307 -0.0017484198
000180 ba 18 96 3d ae 64 31 3e 39 9b 05 3d 1b 90 7f 3c
       0.07328935 0.17323563 0.032618735 0.015598322
000190 e6 6f 69 ba 5a 81 02 3d 09 77 f3 3c 38 0e 83 3d
       -0.0008904919 0.03186164 0.029719846 0.063991964
0001a0 4d 63 65 bd 78 16 ae 3b c7 59 79 3c ff 9c 81 3c
       -0.056002904 0.005312737 0.0152191585 0.015821932
0001b0 c5 4f c8 bd 6b 73 07 bc 02 d9 68 3d ff ea bb 3d
       -0.0978084 -0.008267264 0.05684758 0.09175681
0001c0 0d f7 ee 3d 60 0e d7 bd 14 c7 41 3a b7 61 37 3d
       0.11668215 -0.10500789 0.00073920307 0.044770923
0001d0 0e 7b 4f 3d ed 2b 02 be 54 20 f2 3d ae 8f c4 bc
       0.050654463 -0.12712069 0.11822572 -0.023994293
0001e0 c5 f4 8a bd 90 1d ac 3c bb c3 1b 3e dc ae 3b bc
       -0.06784967 0.02101019 0.15211384 -0.011455264
0001f0 ff 9d 29 3b a8 2e 87 3e 03 9e 29 3e 8c c1 f4 bc
       0.0025881527 0.26402783 0.16564183 -0.029877447
000200 d3 90 68 bd 28 c7 dc bc 0a 2e 57 bd b6 e4 e0 3d
       -0.05677874 -0.026950434 -0.05253414 0.10981123
000210 aa 3b 5d bd 97 e9 c6 3e 75 35 1a 3d 44 48 05 3e
       -0.05401198 0.3885009 0.037648637 0.13015848
000220 ce 1e 47 3d 03 4a 20 bc 92 ac 54 bd 3e f0 7f 3d
       0.048613362 -0.009783271 -0.05192239 0.062484972
000230 9f ab 0b bc 0b d8 02 3e d2 32 0b bc e3 e6 1a 3d
       -0.008524804 0.12777726 -0.008496003 0.037817847
000240 9c 20 97 3c 6f fb 98 bd 61 40 13 3e 95 06 bb bd
       0.018448167 -0.07469832 0.14380027 -0.09132115
000250 02 73 bb 3c ca 24 82 bc 7e 2c 9e bc a6 66 d0 3d
       0.022881988 -0.015886683 -0.019308325 0.10175829
000260 13 e8 9c 3c 1f 2a 96 3d 42 eb de 3d 4e 7c cd 3d
       0.01915363 0.07332253 0.108847156 0.10033475
000270 4b 6d 14 3d 1c dc 73 3a 9e 0d d0 3d 13 f1 b3 bd
       0.036237042 0.0009302513 0.10158847 -0.08786216
000280 39 c7 30 3c 4c 7e 95 3c ae 99 a7 bc e2 76 82 3d
       0.010789686 0.0182487 -0.020459022 0.06370331
000290 74 e5 14 bd c5 1b 27 be 70 c6 c1 bd 9a 9f 30 3e
       -0.036351636 -0.16319187 -0.09461677 0.17248383
0002a0 4b 79 b5 3c 05 a2 11 3c 3e a2 3f 3d be a6 61 bd
       0.022152564 0.008888726 0.046785586 -0.05509066
0002b0 0d 10 21 3d 5d 9e 33 bc f6 75 79 bc b1 f8 4f 3c
       0.039321948 -0.01096305 -0.015225878 0.01269357
0002c0 23 30 1e be 6b 08 4b 3d 85 23 ca 3d 9f 94 7f bd
       -0.1544805 0.049568575 0.09870056 -0.062397595
0002d0 7d 67 9d bc ee 6b 02 3e 24 57 7b 3d f7 1f ee bb
       -0.019214386 0.12736484 0.0613624 -0.007266994
0002e0 77 e7 b7 bd 1c 15 5d 3d 41 68 a9 3d 0c 2c 3c 3c
       -0.08979695 0.05397521 0.08271838 0.011485111
0002f0 fc 88 41 3d 54 21 60 bd b8 d6 a3 bc 25 46 85 bc
       0.04724978 -0.054719284 -0.019999847 -0.0162688
000300 0e 61 0c bc fc b1 99 ba 64 40 80 bd cf 8c 2a 3e
       -0.0085680615 -0.0011726017 -0.062622815 0.16655277
000310 88 81 a4 3b 32 fd c2 bc d8 54 88 3d b6 5f dc 3d
       0.005020324 -0.023802374 0.06656808 0.10760443
000320 6d 98 30 bd 10 3d 92 3d 9a c3 43 3e 73 de 38 bd
       -0.043114115 0.07140553 0.19117585 -0.04513402
000330 ba 4f 59 bd 01 ff 1c 3c be 9e 37 bd 0a 48 17 be
       -0.05305455 0.009582282 -0.044829123 -0.14773574
000340 11 36 a4 bc 57 56 03 3d b1 03 38 bd 8a 70 da 3d
       -0.020045312 0.032064762 -0.044925395 0.106659964
000350 1c ab 77 3d 14 ce 69 3d 60 90 1a 3d 1c 80 21 3a
       0.060465917 0.057081297 0.037735343 0.00061607524
000360 da b6 94 3b d9 9e 60 bc ee 27 ff 3d 85 58 10 3d
       0.004538399 -0.013709747 0.12458788 0.03524067
000370 ca 84 8d 3e 76 b8 db bd 9a 0a 07 bd 41 49 78 bc
       0.27640373 -0.107285425 -0.032969095 -0.015154184
000380 16 43 25 3c ea 29 0e be 5d 7d 38 bd 99 df 9b 3c
       0.010086795 -0.13883176 -0.04504143 0.019027518
000390 09 da c8 3c 61 b5 18 3e ba 80 4f ba 14 e6 23 bd
       0.02451803 0.1491294 -0.0007915605 -0.04001434
0003a0 c1 05 28 3e 88 2f 8b 3d 17 3a 9e 3d 59 08 a2 bd
       0.16408445 0.06796175 0.077259235 -0.079117484
0003b0 8c 7e e3 3b 1b 15 7c bd 54 83 ec bd 0b 18 88 bd
       0.006942576 -0.061543565 -0.11548486 -0.06645211
0003c0 03 60 f2 3d 80 6a f6 3e d7 21 81 3d 67 54 28 3e
       0.11834719 0.48128128 0.063052826 0.16438447
0003d0 f8 92 62 3d 23 18 fb 3d 5e 00 05 be a3 78 bf bc
       0.05531594 0.12260463 -0.12988421 -0.023372954
0003e0 bb 96 1d 3c a7 3d 30 bc 43 6b f7 bd 53 ee 83 3d
       0.0096184565 -0.010756887 -0.120810054 0.06441941
0003f0 d6 cf 56 bd 16 8b 78 3d 46 75 e3 bc 12 7b 34 bd
       -0.0524443 0.060679518 -0.027765881 -0.04406268

mean_linear.weight f4 [2, 256]
000000 2e a7 87 3e ba 3f 40 be 34 c3 a4 3e 05 4a 84 3e
       0.26494735 -0.1877431 0.32180178 0.25837722
000010 b4 7f d8 3e a1 df 17 3e 02 2a d6 3e ca 4c aa 3c
       0.4228493 0.14831401 0.41828924 0.020788569
000020 05 1b 14 bf 40 0f 42 3e ee 06 c3 3d f9 b7 d9 3e
       -0.5785373 0.1895113 0.09522806 0.42523172
000030 2a 7f 2f 3f ab 01 39 3f 0a cf f2 3e 3a c7 da bc
       0.6855341 0.7226817 0.47423583 -0.026706327
000040 f2 dd 91 bd 40 5c bb be bc a2 0b 3e e2 bd 92 be
       -0.07122411 -0.3659382 0.13636297 -0.28660494
000050 bc 27 a7 3d 0e ba 8b be 4f 22 33 3e 43 02 de be
       0.081618756 -0.27290386 0.17493556 -0.433611
000060 64 81 5e be 6d 23 31 3e f4 2f 11 3f c5 04 87 be
       -0.21729046 0.1729867 0.56713796 -0.26370826
000070 11 05 83 be 5a 57 4a be 9f 3f 90 3e 64 eb 96 be
       -0.25589803 -0.19759884 0.2817354 -0.29476464
000080 5d 53 2c be 87 f5 c8 3d 71 8e 94 3e ed 37 9c be
       -0.16828676 0.098124556 0.29014924 -0.30511418
000090 6f 9a 62 3e 90 11 d2 3d 4a 1e 67 bd af 81 b2 3e
       0.22129224 0.10257256 -0.05642537 0.34864566
0000a0 dc 3c 4d 3e 57 8b 56 3e 34 e3 74 be 8f fc 8d 3b
       0.20042747 0.20951591 -0.23914796 0.004333086
0000b0 1f 02 45 be 35 00 67 bd a8 f7 bb bd d6 3b 71 be
       -0.1923909 -0.05639668 -0.09178096 -0.23557982
0000c0 da b8 e1 bd 17 f3 9b 3e 62 8c 89 be c6 bf 90 3e
       -0.11021586 0.304589 -0.26864916 0.28271312
0000d0 20 39 ab 3d f4 30 dd be 10 8d 05 3f 87 72 a0 be
       0.08360505 -0.4320141 0.5216837 -0.31337377
0000e0 4c c8 39 be b9 36 a4 3b ce 56 0d 3f 36 44 d5 be
       -0.18142813 0.0050114063 0.5521058 -0.41653603
0000f0 40 15 ac 3e 9d 2f 8a 3c af cd 4f bd 58 86 41 3e
       0.33609962 0.016868407 -0.050733265 0.18898904
000100 3c 14 19 3e c6 75 df be f3 50 c7 3d ca c1 27 bc
       0.14949125 -0.43644542 0.09732237 -0.010239074
000110 9e 72 41 be d5 6d 36 bf c9 f3 53 be 6d 27 eb bd
       -0.18891379 -0.7126134 -0.20698465 -0.11482129
000120 e9 6c 7c be e7 4d 00 3f 92 c4 c6 3d ba 26 8a bd
       -0.24650921 0.5011887 0.097054616 -0.06745668
000130 34 20 11 bf 12 55 57 bc 19 30 eb bd 1e f7 c3 be
       -0.56689763 -0.013142841 -0.11483783 -0.38274473
000140 d6 a5 b0 3e df 4a e8 bd 43 73 95 3e 6f a1 8b be
       0.34501523 -0.113424055 0.291895 -0.27271602
000150 ae 5c b4 be 24 e6 5d bd 2e 50 3a bd ff bd e9 be
       -0.3522696 -0.054174557 -0.04548662 -0.45652768
000160 77 48 64 3e 9b b3 ab be 05 7d d5 3e c7 25 9f bd
       0.22293268 -0.33535466 0.41696945 -0.07770877
000170 92 fd 8c 3e 14 24 32 3f 22 62 f5 3e c5 60 01 3e
       0.2753721 0.695863 0.47926432 0.12634571
000180 29 f1 c7 3d bb fb 91 3e e6 d6 1d 3f 7b a6 8c 3e
       0.097627945 0.28512368 0.61656034 0.27470765
000190 48 f7 1c bf 95 bd a8 bd 43 9a 7d bd f2 6a b4 be
       -0.6131482 -0.08239285 -0.061914694 -0.35237843
0001a0 93 53 be 3e f5 46 28 be 37 97 02 3e 38 d1 b6 be
       0.37173137 -0.16433318 0.12752996 -0.35706496
0001b0 be 53 e7 bd 2c ed ea 3e 13 96 d2 3e e4 bf 41 3c
       -0.112952694 0.45884073 0.41130123 0.011825535
0001c0 a4 b2 4c 3e 62 0c 26 3e 19 0e 5c bc 2b 53 0a be
       0.19990021 0.16215661 -0.0134310955 -0.13508289
0001d0 6c 12 94 be dd d5 cc be 44 88 b9 be 58 0d 53 3d
       -0.28920305 -0.40006915 -0.36236775 0.051526397
0001e0 87 f0 00 3e 49 09 30 be 6b c6 b1 3d 0b bc b6 3e
       0.12591754 -0.17191042 0.08680423 0.3569034
0001f0 8d 8b 89 be 68 10 67 bc 9e 4a e7 bb 24 6a 4d 3e
       -0.2686428 -0.014103033 -0.0070584556 0.2006002
000200 ce 04 da be 3c 76 1e 3e df a6 0c be b2 2d 67 3e
       -0.4258179 0.1547479 -0.13735531 0.22576025
000210 f7 9e 0b 3f 8a 5b c0 3b 13 27 f1 3e 81 8d 5f bc
       0.54539436 0.0058702873 0.47100124 -0.013644577
000220 98 fe c8 bd 72 3f 0e be f4 4c d3 3e 99 b3 0c be
       -0.09814185 -0.1389139 0.41269648 -0.13740386
000230 6d 00 1f bf f9 43 59 3b 46 49 32 bf c2 65 01 be
       -0.62110025 0.0033152087 -0.69643056 -0.12636474
000240 0d d8 73 bd 65 b1 9d be 8e 4a 07 bf 31 89 4d 3c
       -0.059532214 -0.30799404 -0.52848136 0.012544916
000250 c4 ae 24 be 47 46 32 be 06 e0 4a be ed 62 e0 3b
       -0.16082293 -0.17409621 -0.1981202 0.0068477304
000260 63 78 68 3d 6b 71 2c 3f bb 11 b9 3e e0 ac 70 bd
       0.056755435 0.6736056 0.3614634 -0.058758616
000270 b2 e5 bb 3e 8b 19 e9 bd 86 b5 6a 3e 8e 3e c5 bd
       0.3669868 -0.11381825 0.22920808 -0.09631072
000280 05 85 b7 3e 55 94 a6 bd 4d 70 c6 be 29 fc 00 be
       0.35843673 -0.08133761 -0.38757554 -0.12596191
000290 21 d6 dd 3e 9d 87 a7 be 80 f7 85 be 2e db 36 3e
       0.4332743 -0.32720652 -0.2616539 0.17857048
0002a0 80 b3 79 3e ee 8b b6 3e f1 c5 d0 be a8 bf 19 bf
       0.2438488 0.35653633 -0.40776017 -0.6005807
0002b0 28 85 93 3e 59 e9 ab be 60 31 ea bd a0 86 0e 3f
       0.28812528 -0.33576468 -0.11435199 0.5567417
0002c0 b5 32 02 be bb e0 78 bc cf 3b 1d be 58 04 67 be
       -0.12714656 -0.015190299 -0.15354846 -0.22560251
0002d0 a5 6f e5 be fd da 38 3e 24 07 04 be e8 28 3f 3f
       -0.4481174 0.18052287 -0.12893349 0.74671793
0002e0 bb 72 ad 3e b2 8f b3 3e 24 ce be 3e b1 0f 9d bd
       0.33876595 0.35070568 0.37266648 -0.076690085
0002f0 d5 26 0c 3f 1f e4 77 be 19 3a 67 bd fe dd 2b bd
       0.5474675 -0.24208115 -0.05645189 -0.041959755
000300 9d d0 24 be 9b 5f 99 3e 9d bd 5f 3e f7 c3 30 be
       -0.16095205 0.29955754 0.21849675 -0.17262255
000310 00 fa a7 be 07 7a 3a bf 90 0a d6 3e e5 1f ef 3e
       -0.32807922 -0.7284245 0.41804934 0.4670402
000320 fd a8 98 3e 5f 29 d6 3e ed e8 97 3d 1d 58 02 bf
       0.29816428 0.4182844 0.07417474 -0.509157
000330 d8 7b 83 be c1 1e e3 3e bd e2 d6 3e 20 de 6b 3d
       -0.25680423 0.443594 0.41969863 0.05758488
000340 ec 0e b6 3e e3 f2 46 bf 47 63 57 3e c6 e7 df be
       0.3555826 -0.77714366 0.21033965 -0.43731517
000350 bf cc 20 bf ec 4f 83 3e f9 10 8c be ad 31 7a bd
       -0.6281242 0.25646913 -0.273567 -0.06108253
000360 11 a5 a2 bc e3 9a 36 be f6 df 03 bf 5b c3 e3 3d
       -0.0198541 -0.17832522 -0.5151361 0.111212455
000370 8c cf f6 bd 42 4d 34 3e 95 69 80 3e 3a 1c 0a be
       -0.12051305 0.17607597 0.25080553 -0.1348733
000380 50 84 a7 be a3 e5 b7 be fd 31 ed be d0 bd 01 3f
       -0.32718134 -0.35917386 -0.463272 0.50680256
000390 35 b5 2d bd a4 b8 18 bd 2a a9 99 3e 26 4f fa 3d
       -0.04240914 -0.037285462 0.30011874 0.122221276
0003a0 6d 26 75 bd f3 a8 0a be cc 22 8b 3e d8 23 eb be
       -0.0598511 -0.13541012 0.27174985 -0.45925784
0003b0 64 fa 64 3e 0d fa 4d be a5 e1 a3 be 2e 3d 49 3e
       0.22361141 -0.20114918 -0.3200809 0.19652244
0003c0 42 15 68 3e 95 4a a8 3c fe db 6f be 4a 3e ad be
       0.22664359 0.020543376 -0.23423764 -0.33836585
0003d0 f0 0e 3f 3e 27 d2 fe be b0 10 51 be ad 1e d5 be
       0.18658042 -0.4976971 -0.20416522 -0.41624966
0003e0 28 e8 61 bd 43 58 1c 3f 1a 86 87 be b9 cd 47 3e
       -0.055153042 0.61072177 -0.264695 0.1951207
0003f0 3c 89 11 be 15 1b 6d 3d a2 ff a9 3d 65 81 82 be
       -0.14212507 0.057887156 0.08300711 -0.25489345

mean_linear.bias f4 [2]
000000 37 f7 77 3d d8 46 15 bd
       0.060538497 -0.036444515
