hydrone_aerial_underwater_ddpg/scripts/Models/sac_stage_1_air2D_tanh_4layers/560_value_net.pth (torch_old, 585472 bytes, 10 tensors)

linear1_q1.weight f4 [256, 26]
-0.15550528 0.05026399 0.15466642 0.04169472 -0.063475244 -0.09465317 -0.089266986 0.04327901
0.004120793 -0.044584733 0.02656586 -0.18217374 -0.18592855 -0.001228729 0.18040526 -0.010722906
0.040804543 -0.057778638 0.16288403 -0.051695496 0.18363939 -0.037573665 1.3127412 -0.9727744
0.60639465 -1.0400689 0.23728457 -0.065883204 -0.06756519 -0.08933065 -0.13939898 -0.0625689
0.22537002 0.21234003 -0.26578268 -0.15697962 -0.0126525555 -0.28300112 -0.24017264 -0.2836506
-0.24976066 -0.13734223 0.06958113 0.13739273 0.21371467 0.27086738 -0.24711873 0.09211394
-0.118874826 -1.0069599 0.3828592 -0.6183759 0.08674582 0.023402851 0.027798545 0.07463226
0.11921093 0.0045859725 0.02079267 -0.19545557 -0.19988292 -0.13394839 0.009123738 -0.070303224
-0.010900228 0.083824 -0.105761535 0.100728534 -0.033697903 0.007774005 0.1735007 0.1377654
0.32505688 0.04144089 -0.24861385 -0.8689547 -0.097379826 0.4973452 0.04899555 0.24067216
0.27185696 0.1371266 0.010653725 -0.054345768 0.047431447 0.19483595 -0.024753865 -0.15240374
-0.006549343 -0.14011794 -0.096716344 -0.029898223 -0.13280143 -0.18158056 -0.25347072 -0.20985869
-0.24119091 0.16580193 0.5007548 -1.1515727 -0.4171249 -0.295221 0.1529238 -0.33552626
0.043173518 0.18775336 0.12285732 -0.008938649 -0.046657268 0.11125167 0.15867881 -0.01744196
-0.10934626 -0.27138415 -0.32416928 -0.121485025 -0.049885407 -0.26136312 -0.15404792 0.007824388
0.1630833 0.02964027 0.10771192 0.18766919 -0.3887102 0.55717653 0.4176929 -0.5483568
0.39898047 -0.3739122 0.0743721 -0.11946358 -0.07988213 0.13078061 -0.15442555 -0.09990461
-0.13574095 -0.019990936 -0.021789113 -0.011592346 0.00086451456 0.010168576 -0.09986842 0.111139365
0.008477373 -0.1485822 0.07735864 -0.05932115 -0.030384364 0.013343563 -0.100765504 0.10465287
-0.10323104 -0.10285831 -0.072202325 -0.066510186 0.1217245 0.08751066 0.07205085 0.060794163
-0.16149531 0.031100523 -0.018994913 0.043310497 -0.25388643 -0.26727256 -0.25825784 -0.2635297
-0.014707055 -0.061881125 0.04484549 0.08931564 0.102667905 0.15429726 0.01054562 -0.15147947
-0.11007985 -0.7582795 -1.482235 -0.75334764 -0.031372283 0.5057894 0.18463859 0.07833468
-0.09286332 -0.101075396 0.012661968 0.088245295 0.14070183 0.030134574 0.07212519 -0.15671553
-0.1542378 0.084475465 -0.09139846 0.19167578 0.06573228 -0.12121596 -0.067904525 0.03865204
0.0059555173 0.089096524 -0.11235079 -0.05889288 -0.2097793 -2.1987948 0.0027584017 -0.062413327
-0.27858573 -0.06764987 -0.13106936 -0.059323184 -0.080055214 -0.18660606 -0.432463 -0.42386103
-0.45996302 -0.39133787 -0.24883853 0.06644092 0.058462422 0.084818386 0.25810358 0.0095238425
0.2044408 0.13952544 -0.19087477 -0.09363255 0.9724653 -0.25111812 0.7694582 -0.16376932
0.18850014 0.28936285 0.16303669 0.021929665 -0.046039835 0.079934776 0.16923994 -0.007722626
-0.00979976 -0.023469994 0.06830152 -0.13149278 0.117069945 0.050779082 -0.086018056 0.17287354
-0.10349435 0.07104775 -0.13400096 0.026118504 0.05667653 -0.015913714 0.38983315 -0.49649495
00000000: c73c 1fbe 9de1 4d3d e060 1e3e 15c8 2a3d
00000010: 4fff 81bd 85d9 c1bd 9cd1 b6bd 5545 313d
00000020: b807 873b 7b9e 36bd a5a0 d93c c18b 3abe
00000030: 0e64 3ebe 4e0d a1ba 28bc 383e 21af 2fbc
00000040: aa22 273d 4ba9 6cbd 12cb 263e a8be 53bd
00000050: f70b 3c3e d8e6 19bd e707 a83f be07 79bf
00000060: ae3c 1b3f fa20 85bf bafa 723e c6ed 86bd
00000070: 9e5f 8abd fdf2 b6bd 9bbe 0ebe 2024 80bd
00000080: 66c7 663e aa6f 593e ab14 88be 44bf 20be
00000090: aa4c 4fbc 86e5 90be d1ef 75be a73a 91be
000000a0: 42c1 7fbe 71a3 0cbe 8d80 8e3d aeb0 0c3e
000000b0: 05d8 5a3e 21af 8a3e b10c 7dbe 3ca6 bc3d
000000c0: a574 f3bd 10e4 80bf 1f06 c43e e24d 1ebf
000000d0: cba7 b13d 56b7 bf3c c6b9 e33c ccd8 983d
000000e0: dc24 f43d ed45 963b 6455 aa3c 8125 48be
000000f0: 1cae 4cbe c429 09be bb7b 153c 23fb 8fbd
00000100: df96 32bc ebab ab3d 8199 d8bd c34a ce3d
00000110: d006 0abd 15bd fe3b 2baa 313e 5f12 0d3e
00000120: db6d a63e ecbd 293d a194 7ebe d173 5ebf
00000130: 136f c7bd 08a4 fe3e 8faf 483d c372 763e
00000140: d630 8b3e ea6a 0c3e f68c 2e3c ab99 5ebd
00000150: 7a47 423d 1383 473e 9ec8 cabc ba0f 1cbe
00000160: df9b d6bb 147b 0fbe 3813 c6bd 1eed f4bc
00000170: 19fd 07be 41f0 39be eac6 81be 32e5 56be
00000180: c0fa 76be fbc7 293e 7731 003f bc66 93bf
00000190: 6591 d5be 3527 97be 0e98 1c3e 19ca abbe
000001a0: b7d6 303d 6b42 403e 9e9c fb3d 6973 12bc
000001b0: b11b 3fbd ead7 e33d b37c 223e 71e2 8ebc
000001c0: eff0 dfbd ddf2 8abe 84f9 a5be 24cd f8bd
000001d0: a454 4cbd 63d1 85be bdbe 1dbe dd31 003c
000001e0: 4fff 263e 27d0 f23c 1198 dc3d 5a2c 403e
000001f0: 0605 c7be 1fa3 0e3f d8db d53e 1c61 0cbf
00000200: 2b47 cc3e 6b71 bfbe 6650 983d 52a9 f4bd
00000210: 3e99 a3bd 5aeb 053e bb21 1ebe ca9a ccbd
00000220: adff 0abe 08c4 a3bc 157f b2bc d3ed 3dbc
00000230: 97a0 623a 199a 263c d087 ccbd 099d e33d
00000240: aee4 0a3c ef25 18be 356e 9e3d bcfa 72bd
00000250: a1e8 f8bc f69e 5a3c 255e cebd 3e54 d63d
00000260: cc6a d3bd 61a7 d2bd d0de 93bd 7e36 88bd
00000270: b24a f93d ca38 b33d 658f 933d 4d03 793d
00000280: 075f 25be 86c6 fe3c 389b 9bbc 5966 313d
00000290: 67fd 81be f3d7 88be 5f3a 84be 5ded 86be
000002a0: dcf5 70bc 1077 7dbd e8af 373d 1eeb b63d
000002b0: 8d43 d23d 1a00 1e3e 89c7 2c3c 6f1d 1bbe
000002c0: 8b71 e1bd 9b1e 42bf e0b9 bdbf 64db 40bf
000002d0: 3980 00bd 6a7b 013f e611 3d3e ef6d a03d
000002e0: 202f bebd 9e00 cfbd 2574 4f3c f3b9 b43d
000002f0: 2414 103e c8dc f63c 5fb6 933d 097a 20be
00000300: 84f0 1dbe 7901 ad3d 1e2f bbbd a846 443e
00000310: a59e 863d 1340 f8bd 8711 8bbd 9a51 1e3d
00000320: 8026 c33b 3d78 b63d 2c18 e6bd a939 71bd
00000330: 63d0 56be 0eb9 0cc0 4dc6 343b 1ea5 7fbd
00000340: caa2 8ebe 048c 8abd 0c37 06be defc 72bd
00000350: fdf3 a3bd a915 3fbe ca6b ddbe 5004 d9be
00000360: 4680 ebbe 705d c8be 87cf 7ebe 2d12 883d
00000370: 4b76 6f3d 43b5 ad3d 2726 843e e409 1c3c
00000380: ee58 513e c2df 0e3e ad74 43be 6cc2 bfbd
00000390: 7cf3 783f 8e92 80be 36fb 443f 25b3 27be
000003a0: 2e06 413e 5e27 943e 17f3 263e d7a5 b33c
000003b0: 4494 3cbd d8b4 a33d 3c4d 2d3e 150e fdbb
000003c0: 2c8f 20bc 2544 c0bc abe1 8b3d 0ba6 06be
000003d0: 5ec2 ef3d bafd 4f3d 3c2a b0bd c305 313e
000003e0: d9f4 d3bd 7c81 913d 8c37 09be 79f6 d53c
000003f0: a625 683d 7a5d 82bc 3698 c73e 9634 febe

linear1_q1.bias f4 [256]
-0.00955687 0.32756406 0.14647818 -0.0028025645 0.08632671 -0.009492661 0.058432158 0.10949267
-0.11251421 0.1326808 0.16473772 0.01690425 -0.009523377 -0.16654095 0.13873023 0.16820452
0.1265346 -0.00900244 -0.029756006 -0.08406898 -0.17241712 -0.032783594 -0.019047352 -0.09675323
-0.015979586 0.07064253 0.17104536 -0.02740273 -0.029033484 0.23878059 -0.009335406 0.10425663
0.17333633 0.042574424 -0.02119361 0.015633406 -0.044027723 0.10669516 0.07323307 0.0879417
-0.06958541 -0.040031325 -0.017365512 -0.048050858 0.14592196 -0.09826914 -0.015284763 -0.19481306
0.01914714 -0.061958708 0.019709658 0.034539312 0.067896314 0.07121784 -0.019032134 0.09253323
-0.13872948 -0.11269596 -0.023714425 -0.017729692 0.10706995 -0.019320128 0.16315177 -0.061210964
-0.03028748 0.17958671 -0.10423479 -0.041796383 -0.016976109 -0.010354297 -0.094560504 0.0
-0.058408488 0.15009668 0.22079585 0.015104641 -0.022135176 -0.023660325 -0.1124968 -0.047836144
0.035142206 -0.007749684 0.044838484 0.023362743 -0.032434605 -0.038205262 -0.009689431 -0.01875257
-0.10798289 0.13052484 -0.006851464 0.08011146 -0.0970445 -0.009517774 -0.02168865 -0.009529649
-0.027447175 0.101018846 -0.06396922 0.008683314 -0.011301055 -0.080158666 0.0 0.110843405
0.040006366 -0.06398201 0.2407595 -0.03565511 -0.015952745 0.0076049427 0.10030197 -0.009529722
0.06260129 -0.08206708 -0.082976885 0.08770341 0.16804321 -0.07914938 -0.06662494 -0.16719782
0.09354785 0.0366522 0.13271062 -0.06718131 0.111776195 -0.073745035 0.09020239 0.03989781
-0.13002963 -0.056116987 -0.03952743 0.0887473 0.0812651 -0.02899016 0.023333933 0.16549973
0.14987302 -0.09453508 0.17648917 0.111511774 -0.009529522 -0.023662133 0.11704074 -0.12693201
0.25266322 -0.0115314005 -0.0211049 0.10221615 -0.026474949 -0.0021444415 -0.07885768 -0.15059228
0.0010577412 0.06982833 -0.110718764 0.13780078 -0.006321125 0.018685207 0.007479028 -0.084445916
-0.009523207 -0.043839358 0.07956091 -0.14541698 -0.11643292 0.17106465 0.010098801 -0.064941704
0.13447383 0.034431953 -0.015105239 -0.11059497 0.13117625 0.06461406 0.022110622 -0.0421992
0.0079299845 0.14459914 0.010865266 0.021948064 -0.029925223 -0.0737249 -0.017493254 -0.019046232
-0.15304917 -0.116230085 -0.0095295 -0.007452079 0.025248762 -0.1198705 -0.10861515 0.11253081
0.10101766 0.13729219 0.041830555 0.060970504 -0.0330575 0.009664893 -0.01772739 0.14030932
-0.14480798 -0.04673682 0.0 0.116703786 0.16579998 -0.076856025 -0.006623842 0.011386167
0.14816433 -0.009526913 -0.1117365 -0.033536915 -0.018369632 -0.021743787 0.16810834 -0.05541074
0.12257816 0.21177685 -0.08618251 0.07349992 -0.10390427 0.079516985 -0.00426771 0.0017581363
0.034658764 0.046654645 0.06305453 0.041903537 0.1446829 -0.011277237 0.07113153 0.07289145
0.10905646 -0.022983974 0.09882861 0.0 0.17990124 -0.052481696 -0.10045231 0.017901069
0.021862412 -0.06336838 -0.029733738 -0.022445144 0.18530701 0.024200233 0.0014477296 0.1922538
0.030578772 -0.059605166 -0.13043943 0.080047555 0.049332958 -0.102370135 0.14486472 0.05401088
00000000: 6b94 1cbc 7ab6 a73e 60fe 153e 3bab 37bb
00000010: 0fcc b03d 1b87 1bbc 8f56 6f3d b13d e03d
00000020: da6d e6bd 7add 073e 01b1 283e c87a 8a3c
00000030: f007 1cbc b689 2abe 4c0f 0e3e ce3d 2c3e
00000040: 4992 013e f87e 13bc dec2 f3bc 5b2c acbd
00000050: 1d8e 30be 1748 06bd 3109 9cbc 8f26 c6bd
00000060: 9fe7 82bc 08ad 903d 8426 2f3e b17b e0bc
00000070: a1d7 edbc e682 743e 88f3 18bc 8084 d53d
00000080: 147f 313e 8562 2e3d 399e adbc a111 803c
00000090: 6a56 34bd fe82 da3d 38fb 953d c71a b43d
000000a0: cc82 8ebd e3f7 23bd 1e42 8ebc fad0 44bd
000000b0: 916c 153e 5541 c9bd f16c 7abc 137d 47be
000000c0: 77da 9c3c 6ac8 7dbd 2676 a13c 1879 0d3d
000000d0: 390d 8b3d a9da 913d 47e9 9bbc 1082 bd3d
000000e0: 1a0f 0ebe 24cd e6bd c144 c2bc dc3d 91bc
000000f0: 7d47 db3d 3f45 9ebc 4211 273e 59b8 7abd
00000100: 731d f8bc 94e5 373e 0d79 d5bd af32 2bbd
00000110: 7b11 8bbc 12a5 29bc f0a8 c1bd 0000 0000
00000120: bd3d 6fbd f2b2 193e 4f18 623e 7579 773c
00000130: d454 b5bc 4cd3 c1bc b964 e6bd d5ef 43bd
00000140: 46f1 0f3d 10f1 fdbb 8fa8 373d 3963 bf3c
00000150: 26da 04bd 1f7d 1cbd 6bc0 1ebc fd9e 99bc
00000160: 2226 ddbd 4ea8 053e 3f82 e0bb 7a11 a43d
00000170: 44bf c6bd 70f0 1bbc 65ac b1bc 3f22 1cbc
00000180: e6d8 e0bc f8e2 ce3d 4b02 83bd 7544 0e3c
00000190: 0f28 39bc 3a2a a4bd 0000 0000 de01 e33d
000001a0: b7dd 233d 0009 83bd a989 763e 180b 12bd
000001b0: 55af 82bc e232 f93b 1f6b cd3d 8d22 1cbc
000001c0: 1b35 803d c912 a8bd c9ef a9bd d89d b33d
000001d0: 8513 2c3e 1219 a2bd a872 88bd e835 2bbe
000001e0: 0496 bf3d 9e20 163d 4be5 073e 5b96 89bd
000001f0: ebea e43d a307 97bd 08bc b83d e36b 233d
00000200: 7d26 05be edda 65bd 84e7 21bd 25c1 b53d
00000210: 516e a63d c67c edbc ce26 bf3c c378 293e
00000220: 5078 193e 9c9b c1bd 94b9 343e 4960 e43d
00000230: b621 1cbc 17d7 c1bc 0eb3 ef3d 77fa 01be
00000240: 135d 813e 33ee 3cbc 2fe4 acbc b356 d13d
00000250: fee1 d8bc c289 0cbb 2380 a1bd dd34 1abe
00000260: e8a3 8a3a 2802 8f3d 85c0 e2bd a61b 0d3e
00000270: 7121 cfbb b811 993c a212 f53b fbf1 acbd
00000280: 3a07 1cbc e690 33bd d5f0 a23d 30e8 14be
00000290: 6274 eebd 922b 2f3e 7175 253c 2800 85bd
000002a0: 82b3 093e 8508 0d3d f77b 77bc 9e7f e2bd
000002b0: 1153 063e 6054 843d 5621 b53c 11d9 2cbd
000002c0: c4ec 013c cc11 143e 3b04 323c 6dcc b33c
000002d0: be25 f5bc 15fd 96bd 034e 8fbc d806 9cbc
000002e0: ecb8 1cbe 0a0a eebd 9f21 1cbc 9230 f4bb
000002f0: 7ed6 ce3c aa7e f5bd 9f71 debd 8e76 e63d
00000300: 59e2 ce3d 5396 0c3e 8456 2b3d 35bc 793d
00000310: 4d67 07bd 8059 1e3c 0839 91bc 3fad 0f3e
00000320: 8b48 14be 1c6f 3fbd 0000 0000 6502 ef3d
00000330: 78c7 293e b166 9dbd d00c d9bb 0c8d 3a3c
00000340: 64b8 173e c516 1cbc 1bd6 e4bd 015e 09bd
00000350: e97b 96bc 0720 b2bc 9824 2c3e 5ff6 62bd
00000360: 420a fb3d 08dc 583e 7580 b0bd 2087 963d
00000370: c3cb d4bd cdd9 a23d 25d8 8bbb 4471 e63a
00000380: 59f6 0d3d f118 3f3d bc22 813d 0ba3 2b3d
00000390: c127 143e 29c4 38bc 68ad 913d 1d48 953d
000003a0: fe58 df3d e348 bcbc a766 ca3d 0000 0000
000003b0: 0838 383e 0cf7 56bd f1b9 cdbd 43a5 923c
000003c0: cd18 b33c 48c7 81bd 2b94 f3bc e1de b7bc
000003d0: 1fc1 3d3e 913f c63c bfc1 bd3a 2ede 443e
000003e0: 5580 fa3c 8c24 74bd ea91 05be f9ef a33d
000003f0: 5b11 4a3d 6fa7 d1bd 6b57 143e 833a 5d3d

linear2_q1.weight f4 [256, 256]
0.479847 0.3662845 0.08476792 0.061877314 0.28149837 -0.0056320843 0.7331623 0.9458558
0.3068586 1.2327191 0.3071402 -0.079373345 0.10894651 0.41549653 0.09287716 0.1502492
0.0043410333 -0.103498936 -0.4000933 -0.025986604 -1.150381 0.08185818 -0.08485 -0.10045429
-0.026782783 0.028989775 0.0065496373 0.24792925 -0.14662857 0.5315505 0.005892001 -0.10745898
0.052112546 0.035873976 0.064269 0.009693005 -0.6048644 0.6877045 0.18807898 0.8405278
-0.5903495 -0.4202806 -0.04020491 0.7709319 0.11029496 0.011258126 0.16598177 -0.6019889
0.07918962 -0.5969616 -0.97783774 -0.016573947 0.40295556 0.4041029 -0.21975349 -0.032383747
-0.32165462 0.3911863 0.4294552 0.19682443 -0.23740943 0.06614554 -0.7874982 0.39779842
-0.048003808 0.050372876 -0.16458197 0.26049975 0.073201954 0.03313339 -0.09680976 0.031572334
-0.32480198 0.06250916 0.30756724 -0.58898604 0.009951019 -0.09001313 -0.2721248 -0.53431684
0.6039559 0.77247465 -0.28760135 0.43647423 -0.7858448 0.046668567 -0.06302161 -0.020611212
-0.56474566 0.2963125 -0.55446345 0.109111466 0.577829 0.0020039633 0.047045097 0.09516277
0.10086565 -0.05522148 -0.33444682 -0.35604948 0.16772293 -0.21604216 -0.07788809 0.27782238
-1.1106218 -0.052432615 0.19187576 0.17489003 -0.09861242 0.26650777 0.18499963 0.09905548
-0.0046752174 -0.46104157 -0.22134331 0.47953296 0.1519105 -0.40903792 -0.041322425 -0.12454129
-0.07368609 0.3794952 0.45841798 -0.29479626 -0.14176539 0.02855752 -1.171164 -1.5166487
-0.9905613 -0.3569133 -0.15352361 -0.03810027 1.1137037 -0.3706202 0.45478633 0.19608387
1.7124027 -0.8945209 0.079983726 0.1619752 0.08624358 0.25263387 -0.6015255 -0.043353945
-0.6146713 0.058407266 0.020878717 0.65043366 0.45101422 0.015108869 -0.657252 -0.7571627
-0.727691 0.36933458 -0.03676617 -0.65570396 -0.9651828 -0.11857451 0.43163338 0.20327465
-0.07973082 -0.07432308 -0.07752614 -0.8038258 -0.27458695 0.5295761 -0.12222108 0.06302422
0.44488093 0.1777813 -0.017078735 -0.061386853 0.021826442 0.11808953 -0.38063696 0.9016015
0.083436 0.07262676 0.12726548 -0.04804284 0.0631232 0.72764546 0.13051493 0.08267894
-0.8424267 -0.33612806 -0.022922492 -0.004490182 0.0742748 0.521973 -0.37962964 0.6696332
0.78169805 0.46626464 0.46258652 0.7448038 0.083334714 -0.26432425 0.08318018 0.040254783
0.22795615 0.11051715 -0.002163954 -0.7559543 0.0057709184 -0.47892737 -0.3111627 0.25129232
0.9566952 -0.09738498 -0.25365523 0.06928715 0.21494702 -0.09628234 0.35821652 -0.74557763
0.02541129 0.58539444 0.33390597 0.44511184 -0.49274608 -0.04008929 0.27891085 0.019403292
0.25231144 -0.1162976 0.17195839 0.1322071 0.3770437 0.08653155 0.9992207 0.18507636
-0.40100932 0.03658349 0.60897774 -0.015516907 0.6016371 -0.1054614 -0.113553815 -0.01588169
0.44288582 -0.6947867 -0.49781692 -0.15465575 0.5691544 0.26312253 0.5112286 -0.20006245
-0.34095123 0.043711454 -1.4074658 -0.5576889 0.25548887 -0.55599743 -0.043732606 -0.030570492
00000000: 82ae f53e a489 bb3e ce9a ad3d 1173 7d3d
00000010: 8e20 903e 598d b8bb 86b0 3b3f 9b23 723f
00000020: 921c 9d3e bdc9 9d3f 7b41 9d3e 7e8e a2bd
00000030: 591f df3d f6bb d43e 6136 be3d edda 193e
00000040: 3a3f 8e3b 40f7 d3bd 07d9 ccbe dce1 d4bc
00000050: af3f 93bf 43a5 a73d d6c5 adbd fbba cdbd
00000060: 9167 dbbc f77b ed3c 579e d63b 2ae1 7d3e
00000070: cd25 16be b213 083f b011 c13b 7413 dcbd
00000080: f773 553d 97f0 123d 779f 833d 69cf 1e3c
00000090: 65d8 1abf 670d 303f c797 403e d42c 573f
000000a0: 2521 17bf 052f d7be e7ad 24bd cb5b 453f
000000b0: 53e2 e13d 0174 383c 20f7 293e f21b 1abf
000000c0: 2b2e a23d 7ad2 18bf 9353 7abf 16c6 87bc
000000d0: 3150 ce3e 93e6 ce3e 0f07 61be d2a4 04bd
000000e0: eaaf a4be 9249 c83e 8de1 db3e 588c 493e
000000f0: 751b 73be 5077 873d 7b99 49bf 3cac cb3e
00000100: a49f 44bd ca53 4e3d 2d88 28be 3960 853e
00000110: e8ea 953d e1b6 073d 3244 c6bd fe51 013d
00000120: 724c a6be cd04 803d 7479 9d3e cac7 16bf
00000130: 9909 233c ce58 b8bd f153 8bbe fdc8 08bf
00000140: db9c 1a3f e6c0 453f 7c40 93be 8d79 df3e
00000150: 202d 49bf 8a27 3f3d 7911 81bd d8d8 a8bc
00000160: 2c93 10bf 46b6 973e 51f1 0dbf d575 df3d
00000170: 9aec 133f ed54 033b 5cb2 403d b3e4 c23d
00000180: a692 ce3d eb2f 62bd 9d3c abbe 1e4c b6be
00000190: 8fbf 2b3e 283a 5dbe ca83 9fbd bc3e 8e3e
000001a0: db28 8ebf 95c3 56bd 147b 443e 5f16 333e
000001b0: 4ff5 c9bd b573 883e 8b70 3d3e 99dd ca3d
000001c0: 9132 99bb a40d ecbe d2a7 62be 5885 f53e
000001d0: 6d8e 1b3e 6b6d d1be b441 29bd 810f ffbd
000001e0: bce8 96bd 324d c23e c3b5 ea3e 89ef 96be
000001f0: f22a 11be 76f1 e93c b4e8 95bf 8b21 c2bf
00000200: 6d95 7dbf 57bd b6be 4b35 1dbe 070f 1cbd
00000210: d88d 8e3f eec1 bdbe c1d9 e83e 36ca 483e
00000220: 0330 db3f 52ff 64bf 82ce a33d d4dc 253e
00000230: 79a0 b03d 3a59 813e 93fd 19bf e893 31bd
00000240: 195b 1dbf 753c 6f3d d809 ab3c d282 263f
00000250: 56eb e63e 318b 773c ab41 28bf 6ad5 41bf
00000260: f549 3abf 6c19 bd3e 2098 16bd 37dc 27bf
00000270: 3816 77bf 31d7 f2bd 0dff dc3e 3b27 503e
00000280: ea49 a3bd b336 98bd 06c6 9ebd 87c7 4dbf
00000290: a996 8cbe 4d92 073f 0c4f fabd d812 813d
000002a0: 6fc7 e33e 4d0c 363e b4e8 8bbc c870 7bbd
000002b0: 5ecd b23c ecd8 f13d d9e2 c2be 5bcf 663f
000002c0: 7ee0 aa3d 57bd 943d e251 023e 92c8 44bd
000002d0: bc46 813d f946 3a3f b5a5 053e 9353 a93d
000002e0: 47a9 57bf fa18 acbe f3c7 bbbc 6022 93bb
000002f0: 631d 983d 06a0 053f d15e c2be 156d 2b3f
00000300: 5d1d 483f 3dba ee3e 24d8 ec3e 76ab 3e3f
00000310: 64ab aa3d 8255 87be 5f5a aa3d 33e2 243d
00000320: 566d 693e d156 e23d 20d1 0dbb 3986 41bf
00000330: f919 bd3b f835 f5be b850 9fbe 63a9 803e
00000340: fae9 743f c771 c7bd 19df 81be 6ce6 8d3d
00000350: 121b 5c3e ad2f c5bd 2868 b73e 2dde 3ebf
00000360: 562b d03c 69dc 153f b9f5 aa3e b3e5 e33e
00000370: 3749 fcbe ab34 24bd 67cd 8e3e a7f3 9e3c
00000380: f72e 813e 702d eebd dc15 303e 4c61 073e
00000390: df0b c13e 7437 b13d eecc 7f3f a884 3d3e
000003a0: 1851 cdbe 92d8 153d f7e5 1b3f a03a 7ebc
000003b0: e404 1a3f 25fc d7bd e78e e8bd 511a 82bc
000003c0: eec1 e23e 8bdd 31bf dce1 febe 145e 1ebe
000003d0: 1ab4 113f ffb7 863e e1df 023f 2cdd 4cbe
000003e0: 2991 aebe c80a 333d d727 b4bf b3c4 0ebf
000003f0: 70cf 823e d955 0ebf f620 33bd f86e fabc

linear2_q1.bias f4 [256]
-0.09293457 0.25625125 0.25892085 -0.19202209 0.03146266 0.0030435652 -0.13745163 0.21881399
-0.22377221 -0.015603255 -0.031899612 -0.018992003 0.08470726 -0.019050598 -0.16696602 -0.10825276
0.26566878 -0.019227495 0.25326565 -0.12944649 -0.06548401 -0.1514367 -0.14577492 -0.088651344
-0.01728775 0.0907976 0.069875404 0.22706704 -0.0988392 0.20921035 -0.18883659 0.09634794
-0.12035911 0.025707474 -0.01021434 -0.042893454 -0.23860373 -0.10990263 -0.03377671 0.24134494
0.0791697 -0.011434124 -0.16785198 -0.369759 0.21438839 -0.041709445 -0.034380976 0.1523365
-0.024779828 0.18601254 0.09108982 0.24545603 -0.02237612 0.16746533 -0.013177915 -0.27041653
0.22423635 0.06215221 0.22208786 -0.09817154 -0.06142536 0.21463753 -0.019176655 -0.031058837
0.26739466 0.066015534 0.18713534 -0.029041437 -0.02911096 -0.026094288 -0.08000007 -0.288035
-0.039975204 -0.18722656 -0.012942704 0.0 0.260916 0.043177977 -0.016947793 -0.027018895
-0.19932494 -0.0074669304 0.29089496 0.22180688 0.2097263 -0.06920456 -0.021352928 -0.012342983
0.2388928 -0.01615399 -0.08499461 -0.0076527926 0.24862184 0.21381387 -0.061062023 -0.13618611
0.22078788 -0.14988159 -0.013452785 -0.3521776 0.19513592 -0.023151897 -0.01700351 0.1258147
0.0734097 0.119115755 0.21669894 -0.0739943 -0.03948331 -0.013038819 -0.17360704 -0.009224795
-0.009527206 0.23184754 0.08408103 0.054060254 -0.07603384 0.054113913 0.0074416674 -0.038461838
-0.03504736 -0.026383897 0.20767064 0.021743704 0.095787376 0.0006886198 0.23103729 0.29486045
-0.21193126 0.04082871 -0.0095267445 0.14329466 0.23211505 -0.082431614 -0.07051797 0.20816791
-0.07517651 -0.026507204 0.038113333 0.2796761 -0.043873828 0.17220382 0.25153548 -0.019049903
-0.08448604 -0.014301694 0.05173359 0.23805338 0.09307696 -0.0068168472 -0.030779174 -0.02313235
0.25767043 0.23694001 -0.07892319 -0.17917474 0.25150564 0.20854913 0.1451943 0.10074392
0.19416058 0.0 0.116433896 -0.19282341 -0.0148748625 -0.029285328 0.20668016 -0.26685536
-0.019015944 -0.07247104 0.29556158 0.2228248 0.07034408 -0.128429 0.22814141 -0.027359607
0.24464661 -0.055630587 0.022527907 0.2548425 -0.17565091 -0.1109935 -0.11811738 0.07366176
-0.02722536 -0.16792953 -0.093615785 0.23037006 -0.09828021 -0.009528673 0.17799506 0.11058108
0.012238672 -0.08495033 -0.016823146 0.20753485 0.23430431 -0.015427972 0.041252013 -0.13452001
-0.017641984 -0.19175509 -0.014592391 0.29584503 -0.06387138 0.25664127 -0.017359955 0.24698162
-0.0977621 -0.076566786 -0.022007892 -0.16304201 -0.02279842 -0.06927706 -0.07337249 -0.016478285
-0.14002469 -0.18161896 0.24204011 0.22780178 0.2542276 -0.019011566 0.051608197 0.22743377
0.0851701 -0.18217106 -0.0133297425 0.17411603 0.25876012 -0.071143985 0.0041414914 0.2508656
0.13948886 0.035818014 0.26681784 -0.080800004 -0.0376673 0.26193354 -0.22256972 0.16882701
-0.019890707 -0.030527208 0.17694402 -0.21064748 0.20929356 0.18392348 0.1661371 -0.077669956
-0.107770585 -0.021556167 -0.010449985 -0.022809839 -0.023906585 0.20260876 -0.03100499 -0.054918215
00000000: 7b54 bebd 5d33 833e 4691 843e 70a1 44be
00000010: fdde 003d 8d76 473b 1fc0 0cbe c610 603e
00000020: 8b24 65be cba4 7fbc 2ba9 02bd 1e95 9bbc
00000030: 007b ad3d 0010 9cbc 24f9 2abe 9fb3 ddbd
00000040: bd05 883e fb82 9dbc 09ac 813e 9f8d 04be
00000050: 7b1c 86bd 3912 1bbe 0546 15be d68e b5bd
00000060: 0a9f 8dbc 18f4 b93d d61a 8f3d 4384 683e
00000070: 356c cabd 3d3b 563e 615e 41be 1252 c53d
00000080: d67e f6bd 7b98 d23c 0c5a 27bc 0cb1 2fbd
00000090: 8954 74be a114 e1bd 7359 0abd 2123 773e
000000a0: b923 a23d 3156 3bbc 64e1 2bbe 0d51 bdbe
000000b0: a188 5b3e 86d7 2abd 11d3 0cbd 19fe 1b3e
000000c0: 11ff cabc 127a 3e3e 4d8d ba3d d358 7b3e
000000d0: 204e b7bc 087c 2b3e 2ee8 57bc 0974 8abe
000000e0: 379e 653e 5193 7e3d 006b 633e 290e c9bd
000000f0: 2999 7bbd f1c9 5b3e 5c18 9dbc 1a6f febc
00000100: f4e7 883e 2733 873d 68a0 3f3e 4fe8 edbc
00000110: 1c7a eebc b0c3 d5bc 14d7 a3bd 5379 93be
00000120: 0abd 23bd 52b8 3fbe a30d 54bc 0000 0000
00000130: c896 853e 64db 303d 19d6 8abc bb56 ddbc
00000140: d61b 4cbe 27ad f4bb 2ff0 943e 5821 633e
00000150: 7ec2 563e 1fbb 8dbd 56ec aebc 393a 4abc
00000160: 50a0 743e 5f55 84bc a711 aebd 47c4 fabb
00000170: b996 7e3e 06f2 5a3e 2c1c 7abd 5f74 0bbe
00000180: 3816 623e 8f7a 19be 1269 5cbc 9f50 b4be
00000190: b6d1 473e 0ca9 bdbc f24a 8bbc 92d5 003e
000001a0: d357 963d f6f2 f33d 54e6 5d3e 538a 97bd
000001b0: 40b9 21bd c5a0 55bc 0bc6 31be 9823 17bc
000001c0: 0018 1cbc 7169 6d3e ad32 ac3d 496e 5d3d
000001d0: a1b7 9bbd 8da6 5d3d 3bd9 f33b 298a 1dbd
000001e0: d28d 0fbd 0b23 d8bc 9da7 543e da1f b23c
000001f0: 2c2c c43d 7e84 343a 0a95 6c3e f3f7 963e
00000200: 8204 59be 013c 273d 1016 1cbc d6bb 123e
00000210: 91af 6d3e e8d1 a8bd ba6b 90bd f829 553e
00000220: 24f6 99bd a325 d9bc ba1c 1c3d b531 8f3e
00000230: 0bb5 33bd 3356 303e 42c9 803e 8b0e 9cbc
00000240: 0407 adbd a751 6abc 9ae6 533d 44c4 733e
00000250: 229f be3d dc5f dfbb 9b24 fcbc 0e80 bdbc
00000260: 61ed 833e 67a0 723e 7ba2 a1bd 9579 37be
00000270: 59c5 803e e78d 553e d1ad 143e d452 ce3d
00000280: 08d2 463e 0000 0000 e574 ee3d 8073 45be
00000290: b2b5 73bc c9e7 efbc f7a3 533e 44a1 88be
000002a0: 53c7 9bbc b26b 94bd d953 973e 2f2c 643e
000002b0: 8f10 903d e482 03be e79d 693e 4121 e0bc
000002c0: a484 7a3e e6dc 63bd 728c b83c b77a 823e
000002d0: d5dd 33be 8f50 e3bd 86e7 f1bd fadb 963d
000002e0: b807 dfbc b8f5 2bbe a2b9 bfbd 21e6 6b3e
000002f0: 2247 c9bd 271e 1cbc 5644 363e 5578 e23d
00000300: b684 483c 70fa adbd b2d0 89bc 0484 543e
00000310: 78ed 6f3e 9bc5 7cbc dff7 283d 9dbf 09be
00000320: ec85 90bc 725b 44be ed14 6fbc 0079 973e
00000330: 00cf 82bd 7c66 833e 7736 8ebc c0e8 7c3e
00000340: 7f37 c8bd 0ccf 9cbd e549 b4bc 7cf4 26be
00000350: c1c3 babc 22e1 8dbd 5144 96bd 78fd 86bc
00000360: a262 0fbe 52fa 39be 5dd9 773e df44 693e
00000370: 1f2a 823e 25be 9bbc 1e63 533d 66e4 683e
00000380: a96d ae3d 0d8b 3abe fe64 5abc 794b 323e
00000390: 357c 843e f0b3 91bd 59b5 873b 7571 803e
000003a0: 2bd6 0e3e e9b5 123d 599c 883e 797a a5bd
000003b0: 0749 1abd 271c 863e 51e9 63be fde0 2c3e
000003c0: d6f1 a2bc 3214 fabc d030 353e f9b3 57be
000003d0: 0d51 563e 7056 3c3e d81f 2a3e 6d11 9fbd
000003e0: d3b6 dcbd 8f96 b0bc 6a36 2bbc b3db babc
000003f0: bed7 c3bc ac78 4f3e 2dfe fdbc ecf1 60bd

linear3_q1.weight f4 [1, 256]
-5.8190045 0.21861795 0.19794229 -0.6284639 1.383439 -0.8244528 -0.8354987 0.30290887
-0.9621807 0.0033657255 0.00028916993 0.008673032 0.7647533 0.18575117 -1.2545913 -2.6309462
0.64131975 0.048109442 0.5539191 -3.9377208 -1.4400996 -0.5541876 -1.5685285 -3.2034209
-0.072196886 0.95761245 0.94877225 0.09962666 -0.6117086 0.142385 -0.6102997 0.7650327
-0.63351524 -1.9246682 -0.5397529 -2.499543 -0.27257997 -0.6917038 -0.031769402 0.15014103
2.4168096 -0.033092663 -1.4391007 -1.9828 0.7857711 0.100317635 0.06778636 1.0613775
0.11231838 1.1564461 0.71865827 0.22566487 0.01068596 0.9850684 -0.010026775 -0.9636333
0.18135831 1.3714048 0.33044583 -0.90614635 -6.096252 0.1722458 -0.045904916 0.021158619
0.9408757 1.3496995 0.7888355 -1.1087043 -0.6390036 -0.11619398 -4.3898563 -0.7596706
-1.2412266 -0.76123077 -0.1331453 0.06958641 0.23003012 2.347811 0.09502608 -1.1018819
-0.7911431 -1.7738299 1.0262104 0.24378043 0.121029094 -0.5303125 -0.07864081 0.0254493
0.15553594 -1.480966 -0.97318894 -0.7945113 0.14014338 0.116036616 -1.5824261 -2.2128434
0.20929064 -0.6629293 -1.4207098 -0.55902815 0.82102114 0.029220853 -0.07291651 0.3695938
0.929062 0.66333705 0.55226046 -6.8243604 -0.08232672 -0.13731748 -0.6367845 0.11622382
0.025140706 0.25608277 0.7900339 -2.0414257 -2.0084457 -2.1899772 1.1310575 -0.101828285
-1.0305072 -0.064450234 0.3509874 -1.2092412 0.6127388 -1.4859709 1.193883 0.4053181
-0.35413367 0.46212938 -0.084620915 1.0127915 0.1360122 -0.47548503 -1.230269 0.98062056
-3.0862775 -0.0042208177 -2.1532443 0.4803432 -1.1330928 1.101849 0.1304197 0.053614482
-0.7749388 -1.0134379 1.1435109 0.40716362 1.3555037 -0.11793466 0.020648502 0.076034516
0.17683621 0.1621227 -1.370687 -0.75838256 0.1421691 0.3838321 0.56442744 0.5701742
0.4200671 0.13698302 1.0587796 -0.7956577 0.09686748 0.11577947 0.36561665 -0.58035356
-0.07391404 -7.443526 0.69026107 0.18309034 -1.161474 -0.4641737 0.10860625 -0.82889557
0.13563558 -4.0430727 -1.6217154 0.20010146 -0.7423411 -1.6078686 -1.6055434 0.5244831
3.8796756 -0.7182014 -5.846556 0.13280287 -1.2885991 -0.087444834 0.5512157 1.2214646
-0.87889194 -0.8872975 -0.091415025 0.8228398 0.8879327 -0.030664861 1.5989511 -5.458381
-0.5968309 -0.35463768 -0.024189379 0.46784607 -0.5927527 0.20427012 0.049260292 0.26919076
-1.3737814 -0.3042898 -0.14074253 -0.5107768 -0.083261676 -1.1186558 -0.5252633 0.07622637
-0.56434286 -0.6506404 0.25411615 0.13406509 0.14146662 0.053530145 1.646083 0.26834217
1.1877489 -0.9546634 -2.1469371 1.0805702 0.16205657 -4.9508514 -1.34834 0.16931519
0.62773365 1.6583179 0.21314172 -0.6542963 0.0005051642 0.22009848 -0.6729422 0.86246854
0.113560796 -0.00282275 0.73103434 -0.46512622 1.0313476 0.36561304 1.3729324 -1.2004972
-8.221719 -0.027129559 -0.545282 -0.00036803968 -0.07422706 0.13415228 0.095739886 -4.677336
00000000: 4935 bac0 62dd 5f3e 62b1 4a3e 03e3 20bf
00000010: 8714 b13f 570f 53bf 3ee3 55bf df16 9b3e
00000020: 7951 76bf 8193 5c3b bb9b 9739 5519 0e3c
00000030: dfc6 433f 8e35 3e3e 7396 a0bf 6c61 28c0
00000040: 882d 243f 680e 453d a4cd 0d3f 9e03 7cc0
00000050: 2f55 b8bf 3ddf 0dbf 8bc5 c8bf d904 4dc0
00000060: f6db 93bd 1726 753f bde2 723f 1009 cc3d
00000070: ef98 1cbf 60cd 113e 9a3c 1cbf 2fd9 433f
00000080: 0e2e 22bf 875b f6bf 3f2d 0abf 83f8 1fc0
00000090: 9a8f 8bbe 8013 31bf a220 02bd 92be 193e
000000a0: 02ad 1a40 2c8c 07bd 7434 b8bf 64cc fdbf
000000b0: 4b28 493f 5573 cd3d 93d3 8a3d 38db 873f
000000c0: 2e07 e63d 6d06 943f fdf9 373f b114 673e
000000d0: 2a14 2f3c 712d 7c3f 5847 24bc acb0 76bf
000000e0: feb5 393e 318a af3f 3230 a93e 35f9 67bf
000000f0: 7f14 c3c0 3461 303e cb06 3cbd d754 ad3c
00000100: 3bdd 703f f4c2 ac3f 20f1 493f 06ea 8dbf
00000110: bd95 23bf 1cf7 edbd b479 8cc0 c679 42bf
00000120: 83e0 9ebf 05e0 42bf 3e57 08be 5283 8e3d
00000130: 048d 6b3e 8942 1640 099d c23d 770a 8dbf
00000140: 5b88 4abf dc0c e3bf dd5a 833f 94a1 793e
00000150: 1ade f73d 8fc2 07bf 6f0e a1bd 0d7b d03c
00000160: d044 1f3e 4b90 bdbf e922 79bf 1865 4bbf
00000170: bf81 0f3e 9ba4 ed3d f08c cabf 3a9f 0dc0
00000180: 4950 563e bcb5 29bf d2d9 b5bf 781c 0fbf
00000190: 712e 523f 9260 ef3c 4055 95bd 663b bd3e
000001a0: 02d7 6d3f 75d0 293f f160 0d3f 2961 dac0
000001b0: e99a a8bd f49c 0cbe 4f04 23bf c106 ee3d
000001c0: e2f3 cd3c 481d 833e a93f 4a3f b8a6 02c0
000001d0: 608a 00c0 9628 0cc0 7ec6 903f 598b d0bd
000001e0: a9e7 83bf 7cfe 83bd 9fb4 b33e 6ac8 9abf
000001f0: 73dc 1c3f 4b34 bebf 28d1 983f db85 cf3e
00000200: 0251 b5be 399c ec3e bb4d adbd 27a3 813f
00000210: c846 0b3e c672 f3be 7479 9dbf f309 7b3f
00000220: 9285 45c0 c94e 8abb c1ce 09c0 8bef f53e
00000230: 2f09 91bf 6309 8d3f be8c 053e dc9a 5b3d
00000240: 6462 46bf 55b8 81bf 915e 923f c077 d03e
00000250: 2581 ad3f ba87 f1bd 0c27 a93c fcb7 9b3d
00000260: 8d14 353e 7e03 263e ac72 afbf 5c25 42bf
00000270: c794 113e a485 c43e 517e 103f f0f6 113f
00000280: 0913 d73e 4745 0c3e 1786 873f 39b0 4bbf
00000290: 7562 c63d c91d ed3d 1b32 bb3e 0d92 14bf
000002a0: 3f60 97bd 5d31 eec0 f3b4 303f 097c 3b3e
000002b0: 2eab 94bf 2da8 edbe f46c de3d 8032 54bf
000002c0: 0ee4 0a3e da60 81c0 5f94 cfbf 66e7 4c3e
000002d0: 110a 3ebf a3ce cdbf 7282 cdbf 8644 063f
000002e0: 9b4c 7840 0cdc 37bf fd16 bbc0 7afd 073e
000002f0: d1f0 a4bf 4716 b3bd 791c 0d3f f458 9c3f
00000300: 10ff 60bf ee25 63bf cd37 bbbd a1a5 523f
00000310: 8f4f 633f e034 fbbc 6eaa cc3f 0fab aec0
00000320: e9c9 18bf 1293 b5be ce28 c6bc 8589 ef3e
00000330: a4be 17bf 302c 513e 29c5 493d 5fd3 893e
00000340: 12d8 afbf dfcb 9bbe cf1e 10be 45c2 02bf
00000350: 1985 aabd 1d30 8fbf a877 06bf 921c 9c3d
00000360: c678 10bf 5f90 26bf 831b 823e 5c48 093e
00000370: a0dc 103e 6d42 5b3d d9b2 d23f 2564 893e
00000380: 2808 983f d264 74bf 6b67 09c0 2050 8a3f
00000390: 28f2 253e 606d 9ec0 6896 acbf f660 2d3e
000003a0: 27b3 203f c343 d43f d341 5a3e f67f 27bf
000003b0: ff6c 043a 7f61 613e f145 2cbf bdca 5c3f
000003c0: 9092 e83d e3fd 38bb 1125 3b3f 0625 eebe
000003d0: 3303 843f a231 bb3e 40bc af3f e4a9 99bf
000003e0: 298c 03c1 cf3e debc 9a97 0bbf 73f5 c0b9
000003f0: 5b04 98bd 375f 093e 4613 c43d bdac 95c0

linear1_q2.weight f4 [256, 26]
0.12328459 -0.11325298 0.046832126 -0.11709372 -0.15070024 -0.044968344 -0.06262563 0.067524895
-0.08978469 0.025839355 -0.010579991 -0.05037912 -0.13699797 -0.02092876 -0.20221587 -0.1375166
-0.07761244 -0.1266332 -0.11099919 0.04482384 -0.14200288 0.29435688 -0.19237344 -0.11789351
0.08193943 0.17243478 0.05313348 -0.035358187 -0.12468403 -0.1237945 -0.140974 -0.09052399
0.16637282 -0.09548638 -0.26470634 -0.2990677 -0.28916395 0.19518927 0.017149985 0.043161377
0.096641384 0.17698243 0.2561586 -0.17954777 -0.14730437 0.18255402 -0.7100499 0.016974311
-0.8622013 -0.29304016 0.20335257 -0.0017337302 0.023109246 -0.15169099 0.013292973 -0.12507144
-0.07617318 -0.12870267 -0.044840887 -0.0042597903 0.01196949 -0.096630625 0.07729082 0.109512724
0.024607753 -0.10634527 -0.09230621 -0.15637729 -0.026984526 -0.052503772 0.118477665 -0.06904341
0.0128326975 0.14537252 -0.12782338 0.007162137 -0.097266294 -0.114819825 -0.08994959 -0.05806226
-0.018450215 -0.0857895 0.044943884 0.11285819 -0.11351246 0.17485888 0.2615014 -0.06804257
0.1052962 -0.15598258 -0.050039187 -0.21543895 0.101857595 -0.16563053 0.2165685 0.15256722
0.029213209 0.07168927 0.9539618 0.40872118 0.16374773 -0.95968235 0.16506314 -0.14438497
0.09979699 -0.12502435 -0.06176466 -0.07801287 0.013966336 0.053252608 0.08255164 -0.12047914
0.053379845 -0.06626345 -0.10988077 -0.032962218 -0.14086515 0.05073472 -0.09393872 -0.022042053
-0.15561578 0.09767799 -0.13566881 -0.08116352 -0.022641024 -0.115983255 -0.11686177 -0.13382447
-0.0036354363 0.05473556 0.045783676 -0.04240617 -0.08388061 -0.07927195 -0.019553732 0.34287
0.23058955 0.10261847 -0.245937 -0.21781205 -0.23256943 -0.040049903 0.037016697 -0.16964667
-0.06648793 -0.05807975 0.1335475 0.13042803 -0.10648261 0.004973213 -0.6135041 -0.9820134
-0.46202707 -1.6577979 0.3765949 -0.80029017 0.12902883 0.20781422 0.16463996 0.018139414
0.058320202 0.055819742 -0.05858969 0.030143855 0.0604021 0.05683544 -0.14077704 -0.24796738
-0.34155124 -0.32518068 -0.16147642 -0.069333024 0.08866914 -0.067528635 0.055154003 0.07123626
0.53748536 -0.14953183 0.38284293 0.082652636 0.49945736 0.27920824 -0.09007293 0.23267557
0.1394892 0.09721819 0.10861267 0.061721124 -0.05932655 -0.024895344 -0.043771386 -0.094317004
0.1294543 -0.046407435 -0.014580957 0.107630745 0.0465635 0.17540543 0.20503268 0.04768802
0.19086818 0.11278826 0.27120543 -0.04987745 0.3597181 -1.0066423 0.06359007 0.16000739
-0.09002315 -0.14227122 0.13064143 -0.17524858 0.023567813 0.032981344 -0.027649684 -0.06201283
0.0021555554 -0.004939446 -0.06389035 -0.0063769845 0.014748233 -0.035759863 -0.12619428 0.10602887
0.2133076 -0.01921935 0.14836022 0.1232441 0.2032631 -0.5823898 0.35021445 1.3057667
-0.34049594 0.08530541 -0.0794533 -0.1560522 -0.03609881 -0.067117095 -0.100334294 -0.03249997
-0.052325457 0.006981324 -0.22534412 -0.14106663 0.0010826937 -0.21173853 -0.07493497 0.08668099
-0.17363076 -0.14510131 -0.057750773 0.11097988 0.108394325 -0.057980206 0.011967897 0.23358117
00000000: a27c fc3d 2ef1 e7bd 0bd3 3f3d d5ce efbd
00000010: 2a51 1abe ba30 38bd de41 80bd 7e4a 8a3d
00000020: 09e1 b7bd 0ead d33c b357 2dbc 565a 4ebd
00000030: 3249 0cbe ca72 abbc ad11 4fbe 27d1 0cbe
00000040: 45f3 9ebd 22ac 01be 8b53 e3bd 3499 373d
00000050: 3469 11be f2b5 963e 8bfd 44be 2772 f1bd
00000060: dccf a73d be92 303e 7ea2 593d bfd3 10bd
00000070: 575a ffbd f987 fdbd 7d5b 10be a464 b9bd
00000080: a35d 2a3e 5d8e c3bd 9787 87be 671f 99be
00000090: 4c0d 94be b2df 473e 207e 8c3c fcc9 303d
000000a0: ebeb c53d e23a 353e 3827 833e 5fdb 37be
000000b0: f5d6 16be 71ef 3a3e d5c5 35bf b60d 8b3c
000000c0: 39b9 5cbf 5c09 96be a83b 503e 553e e3ba
000000d0: 9a4f bd3c e254 1bbe c5ca 593c ba12 00be
000000e0: af00 9cbd a2ca 03be 14ab 37bd b695 8bbb
000000f0: ae1b 443c 47e6 c5bd a64a 9e3d 3548 e03d
00000100: 3396 c93c 8dcb d9bd 0a0b bdbd 5e21 20be
00000110: a70e ddbc 320e 57bd 6ba4 f23d a266 8dbd
00000120: 3c40 523c 89dc 143e 22e4 02be 5cb0 ea3b
00000130: 8d33 c7bd a826 ebbd 7e37 b8bd b1d2 6dbd
00000140: e824 97bc 68b2 afbd 1417 383d 3222 e73d
00000150: 3879 e8bd 350e 333e 83e3 853e e759 8bbd
00000160: 89a5 d73d e6b9 1fbe e4f5 4cbd 079c 5cbe
00000170: b79a d03d 0d9b 29be 22c4 5d3e 953a 1c3e
00000180: 8a50 ef3c d3d1 923d d736 743f e743 d13e
00000190: 7cad 273e bead 75bf 5006 293e a7d9 13be
000001a0: 5d62 cc3d 6206 00be f1fc 7cbd 36c5 9fbd
000001b0: 0fd3 643c 681f 5a3d d610 a93d c4bd f6bd
000001c0: d3a4 5a3d 22b5 87bd 2b09 e1bd 6403 07bd
000001d0: f43e 10be 36cf 4f3d f262 c0bd 8991 b4bc
000001e0: be59 1fbe 660b c83d c4ec 0abe 0f39 a6bd
000001f0: ab79 b9bc a188 edbd 3955 efbd 4809 09be
00000200: 8040 6ebb 6532 603d aa87 3b3d 18b2 2dbd
00000210: 99c9 abbd 5559 a2bd 262f a0bc a88c af3e
00000220: ab1f 6c3e a229 d23d e9d6 7bbe 1f0a 5fbe
00000230: ae26 6ebe 5e0b 24bd d29e 173d dbb7 2dbe
00000240: d32a 88bd 08e5 6dbd adc0 083e ed8e 053e
00000250: 8e13 dabd 56f6 a23b 9b0e 1dbf 3b65 7bbf
00000260: d08e ecbe b932 d4bf 0cd1 c03e d1df 4cbf
00000270: 2220 043e 40cd 543e 6197 283e 1c99 943c
00000280: 2ae1 6e3d 3ea3 643d befb 6fbd 3ff0 f63c
00000290: 3168 773d 47cc 683d db27 10be 29eb 7dbe
000002a0: cedf aebe 157e a6be 135a 25be 79fe 8dbd
000002b0: 2b98 b53d 744c 8abd 2ae9 613d 51e4 913d
000002c0: a498 093f df1e 19be fd03 c43e c945 a93d
000002d0: e0b8 ff3e 62f4 8e3e 2878 b8bd 8142 6e3e
000002e0: 42d6 0e3e 551a c73d 5270 de3d 4acf 7c3d
000002f0: 6600 73bd 52f1 cbbc a049 33bd 4629 c1bd
00000300: ab8f 043e b915 3ebd f7e4 6ebc 826d dc3d
00000310: 5eb9 3e3d 7b9d 333e 16f4 513e 8354 433d
00000320: f372 433e 88fd e63d 70db 8a3e 4c4c 4cbd
00000330: f92c b83e a8d9 80bf 833b 823d fad8 233e
00000340: 0f5e b8bd 8caf 11be dec6 053e 5d74 33be
00000350: 4911 c13c 7217 073d 9781 e2bc 2a01 7ebd
00000360: 3844 0d3b 14db a1bb f2d8 82bd 06f6 d0bb
00000370: 93a2 713c ef78 12bd 1339 01be aa25 d93d
00000380: 4f6d 5a3e e671 9dbc beeb 173e 6767 fc3d
00000390: 3424 503e 7f17 15bf 4f4f b33e 5d23 a73f
000003a0: 7c55 aebe 9ab4 ae3d 69b8 a2bd 26cc 1fbe
000003b0: 59dc 13bd b074 89bd 117c cdbd b01e 05bd
000003c0: 3853 56bd 97c3 e43b 9cc0 66be c573 10be
000003d0: 2ce9 8d3a fcd1 58be 8177 99bd ce85 b13d
000003e0: 43cc 31be 7095 14be 138c 6cbd 6b49 e33d
000003f0: d8fd dd3d a77c 6dbd 0015 443c e72f 6f3e

linear1_q2.bias f4 [256]
-0.011975864 -0.0030419608 -0.015336961 -0.0076809213 -0.017632233 -0.05507055 0.05918852 0.14837424
-0.015409386 -0.019419245 0.05295963 -0.1252795 0.10454862 -0.03912927 0.12880273 -0.0010615453
-0.065049425 0.00011244189 0.059885096 0.007668138 -0.007660566 -0.084014155 0.118217975 0.10960893
0.057478677 0.1514596 -0.062141355 0.12777299 -0.06726453 0.12067011 0.104513474 0.04100129
0.17825633 -0.0522149 -0.009529604 -0.07044097 0.0034883553 -0.026644226 0.08642634 0.13781625
-0.11564048 0.13158211 0.03744262 -0.035246357 0.058843143 -0.009518521 -0.057167146 0.024368742
-0.016992034 0.032590512 0.02456503 -0.06865089 -0.06239076 0.033842795 -0.03368028 -0.068261825
0.022308001 0.050692238 0.06540144 0.015572286 -0.029020688 0.0 0.056095008 -0.014105878
0.10169091 0.116263 0.09825759 -0.0723444 -0.084068626 0.027480975 -0.12256379 0.0
0.07344921 0.1460946 0.031291675 0.029574972 -0.010321752 -0.04471744 0.035110947 0.028215844
-0.019059002 0.10007826 0.0 0.046516147 0.025637193 -0.12399513 -0.029346608 -0.066342965
0.16072826 -0.006959286 0.05240799 0.0 -0.09892678 -0.1389103 -0.004598092 0.043330655
-0.007304463 0.03252508 0.031597354 -0.049921103 0.11548633 0.061169844 -0.021737332 0.13792679
-0.037052676 0.03622486 0.13562621 -0.05859783 0.07073122 -0.06847325 0.019047903 -0.09098317
0.0 0.11120483 -0.020526337 -0.07422424 0.10961957 0.10626309 -0.009529731 0.04753985
0.010101039 -0.009529691 -0.06466614 0.13364394 0.045170307 -0.058818787 0.028034287 0.011627832
0.0037543802 -0.027532376 0.11046937 0.027622374 -0.12561701 0.046191473 0.097664416 0.17278
-0.018187897 -0.0699815 0.084512465 -0.06677125 -0.1231307 -0.009526514 0.026194789 -0.065721296
-0.07964548 0.02708829 -0.06596345 0.018154757 0.012000275 -0.007832524 -0.10801943 -0.17667095
0.17951761 -0.027932366 -0.04924546 -0.09609319 -0.052256584 0.02521932 0.09974834 0.09223497
0.032681372 0.062249385 0.03654615 -0.020748133 -0.025343584 0.04139418 -0.012585436 0.10020606
0.04655106 -0.033108283 0.020802097 -0.04916623 0.0 -0.090132795 -0.024718756 -0.019047786
0.13613631 -0.000311199 -0.001962587 0.09052017 0.018970054 -0.04211686 -0.11384782 0.08406242
-0.019870607 0.28096968 -0.063318364 0.0 0.065028936 0.106365435 0.015790371 0.010104105
0.09189917 -0.028324513 -0.007503813 0.041188315 0.00435703 -0.059117407 0.07123918 -0.015504785
-0.01393015 0.124257974 0.008811222 -0.003780409 -0.14831242 -0.08976581 0.0 -0.11585774
0.076740265 -0.02372469 0.10992129 -0.060927976 0.0 0.016317125 0.013445539 0.0
0.14465779 0.0 0.104570605 -0.008374704 0.0 0.065957546 0.1241735 0.12318265
-0.010728038 0.14564545 -0.07464203 -0.013038851 -0.09085806 0.11753817 -0.0671842 0.013383745
-0.028047554 0.13587715 0.013504729 -0.06708395 -0.050156698 -0.020552013 -0.13217896 0.106990844
0.024467057 0.0044026407 -0.019047964 -0.09674764 -0.06613788 0.028946785 -0.01151436 0.04289817
0.11461279 0.021848109 -0.032868538 0.0 -0.08371504 0.13285768 0.09930559 0.07666504
00000000: 6a36 44bc a25b 47bb e047 7bbc 3db0 fbbb
00000010: 7971 90bc a891 61bd a96f 723d 6bef 173e
00000020: a677 7cbc 1c15 9fbc 32ec 583d 4549 00be
00000030: 961d d63d 0346 20bd dde4 033e 8d23 8bba
00000040: a238 85bd c8ce eb38 134a 753d 0145 fb3b
00000050: 7c05 fbbb 9d0f acbd 441c f23d a67a e03d
00000060: c36e 6b3d 3a18 1b3e ef87 7ebd ecd6 023e
00000070: fcc1 89bd e421 f73d 290b d63d f8f0 273d
00000080: d488 363e 4adf 55bd 0e22 1cbc 5b43 90bd
00000090: e49c 643b fe44 dabc 4b00 b13d b41f 0d3e
000000a0: ead4 ecbd 76bd 063e 6f5d 193d 7c5e 10bd
000000b0: 8205 713d 92f3 1bbc 1928 6abd f5a0 c73c
000000c0: e132 8bbc a17d 053d 9a3c c93c d698 8cbd
000000d0: 748d 7fbd be9e 0a3d 55f4 09bd dbcc 8bbd
000000e0: 45bf b63c aaa2 4f3d 31f1 853d e722 7f3c
000000f0: cbbc edbc 0000 0000 e1c3 653d 571c 67bc
00000100: 5343 d03d 4c1b ee3d 463b c93d 4d29 94bd
00000110: 2c2c acbd c81f e13c b902 fbbd 0000 0000
00000120: 8a6c 963d d399 153e b32b 003d 3647 f23c
00000130: 911c 29bc a229 37bd 7fd0 0f3d ea24 e73c
00000140: a021 9cbc d5f5 cc3d 0000 0000 b787 3e3d
00000150: 1705 d23c 29f1 fdbd 4c68 f0bc d2de 87bd
00000160: f395 243e b90a e4bb c3a9 563d 0000 0000
00000170: 209a cabd 803e 0ebe 97ab 96bb 7c7b 313d
00000180: 475a efbb 0539 053d 3a6c 013d 127a 4cbd
00000190: 1984 ec3d 3b8d 7a3d 7d12 b2bc ae3c 0d3e
000001a0: 8cc4 17bd 8560 143d 99e1 0a3e 4704 70bd
000001b0: 88db 903d b43b 8cbd 590a 9c3c 6255 babd
000001c0: 0000 0000 5cbf e33d d926 a8bc e102 98bd
000001d0: 3a80 e03d 77a0 d93d 9722 1cbc 25b9 423d
000001e0: d47e 253c 6c22 1cbc ae6f 84bd f5d9 083e
000001f0: 8004 393d f8eb 70bd 29a8 e53c aa82 3e3c
00000200: 0c0c 763b 948b e1bc c43d e23d 5148 e23c
00000210: bfa1 00be 4533 3d3d 4804 c83d 3eed 303e
00000220: c9fe 94bc 7652 8fbd df14 ad3d 5dbf 88bd
00000230: f32b fcbd 1915 1cbc 7496 d63c e398 86bd
00000240: 2b1d a3bd 43e8 dd3c d817 87bd 49b9 943c
00000250: cd9c 443c fd53 00bc 4a39 ddbd 3be9 34be
00000260: 77d3 373e 6bd2 e4bc 9cb5 49bd 82cc c4bd
00000270: 000b 56bd bf98 ce3c dc48 cc3d b0e5 bc3d
00000280: e7dc 053d 36f9 7e3d 6ab1 153d fdf7 a9bc
00000290: 599d cfbc f28c 293d 2533 4ebc d638 cd3d
000002a0: 53ac 3e3d 8d9c 07bd 2969 aa3c 8762 49bd
000002b0: 0000 0000 8b97 b8bd fd7e cabc 1a0a 9cbc
000002c0: 5167 0b3e 6c28 a3b9 bf9e 00bb a462 b93d
000002d0: 1667 9b3c bb82 2cbd 0c29 e9bd eb28 ac3d
000002e0: afc7 a2bc 42db 8f3e 0fad 81bd 0000 0000
000002f0: e42d 853d 1fd6 d93d cf5a 813c b08b 253c
00000300: a235 bc3d cf08 e8bc 8ce2 f5bb 14b5 283d
00000310: 6bc5 8e3b 1825 72bd d9e5 913d c807 7ebc
00000320: 493b 64bc f77a fe3d f25c 103c bdc0 77bb
00000330: 36df 17be 23d7 b7bd 0000 0000 d346 edbd
00000340: 002a 9d3d 485a c2bc 6a1e e13d 9d8f 79bd
00000350: 0000 0000 7eab 853c ae4a 5c3c 0000 0000
00000360: 2c21 143e 0000 0000 1d29 d63d 0e36 09bc
00000370: 0000 0000 c014 873d ad4e fe3d 2f47 fc3d
00000380: a7c4 2fbc 1524 153e ecdd 98bd e8a0 55bc
00000390: ca13 babd dab7 f03d df97 89bd 7f47 5b3c
000003a0: fcc3 e5bc 6123 0b3e f042 5d3c 4f63 89bd
000003b0: 1c71 4dbd b25c a8bc ec59 07be 041e db3d
000003c0: 236f c83c 0744 903b 7a0a 9cbc a023 c6bd
000003d0: 4c73 87bd cf21 ed3c baa6 3cbc feb5 2f3d
000003e0: 1cba ea3d cefa b23c 29a1 06bd 0000 0000
000003f0: ca72 abbd d80b 083e bb60 cb3d 8f02 9d3d

linear2_q2.weight f4 [256, 256]
-0.36504477 0.7177059 0.05875898 0.33220905 0.016181037 -0.3619902 0.16002384 -0.06498278
-0.26166004 0.001029066 0.038705602 0.19899851 0.1546445 -0.07990564 -0.14603545 0.35471788
0.1019048 -0.17846446 -0.29776123 0.062724985 0.42009747 0.50997806 -0.3332726 -0.025145875
-0.017820109 0.33151457 -0.18635668 0.32657802 0.15303949 -0.32838646 -0.00069398835 0.34535304
-0.021961551 -0.09695984 -0.075025365 0.23772313 0.08298594 -0.019283686 0.72505885 -0.011632896
0.0078453785 -0.07654128 -0.13815787 0.077166244 -0.0082549425 0.079200745 -0.115559734 0.19930913
0.19641237 -0.056365892 -0.06855247 0.099165194 0.20585518 -0.4814854 0.06165633 0.17093724
0.4446147 0.32235196 -0.021747585 0.14821313 0.44732928 0.036553122 -0.82874393 0.11541364
-0.52710205 -0.19265382 -0.08276296 0.05634665 0.09125629 0.34411576 0.5846961 -0.06660222
-0.4243657 -0.064275384 -0.26915586 0.07795327 0.18698725 -0.047795918 0.07559641 0.33198974
0.039053522 -0.09332393 -0.06907666 -0.14960887 -0.27156144 -0.04184384 0.096810766 0.24388762
0.52625626 -0.08474188 -0.12943439 0.10620966 -0.017811954 -0.030446386 0.58036685 -0.13514802
-0.015523019 -0.2608311 0.15517832 0.27260935 -0.09666658 -0.100571655 -0.10559179 0.04761974
-0.000719213 0.2786242 0.028189102 -0.14062126 0.20184311 0.515455 0.13832356 0.51401263
0.063517116 -0.060044784 -0.044486318 0.37038085 -0.13655877 -0.07402218 -0.013146359 0.39960393
0.2991513 -0.06693508 0.16869709 -0.47054383 -0.075800695 0.22692087 0.36194226 0.3811683
0.12692542 0.2124875 -0.14428672 -0.15049838 0.03656859 -0.58888006 -0.089012 -0.6097163
0.28571784 0.45499793 -0.21747236 0.629528 -0.20014338 -0.01949634 -0.167293 0.19303535
-0.8497037 0.49548376 0.3012957 0.04772675 -0.7267935 -0.071152344 -0.6426524 -0.7316463
0.26041335 -0.035073888 0.20599943 -0.09898705 0.21467921 -0.38302332 -0.40287083 -0.005824942
0.075658515 0.007439197 0.5224882 -0.046569254 -1.3967128 0.4989429 0.39795154 -0.022626894
0.3284625 0.12095563 -0.0020328695 0.37777844 -0.03364955 0.080517635 0.34800914 0.09973635
-0.23675194 0.14381582 -0.047079697 0.22615227 -0.01579879 -0.06524814 -0.76577955 -0.00022746192
0.25657776 -0.2120141 -0.07537004 0.044687398 0.12690426 -0.04812717 0.19363387 0.05906914
0.031547558 0.16370107 0.093657196 -0.19228335 -0.15616345 0.20488597 0.029314525 -0.08989428
0.20801146 0.24523035 0.2965162 0.06417371 -0.017975347 0.1504504 -0.0053525195 0.10851815
-0.07833441 0.057438135 -0.26624355 0.09341253 0.020759068 -0.19559991 -0.10540001 0.040919416
0.06850606 0.012863815 -0.35132334 0.6136741 0.0701099 0.17195098 -0.030408606 -0.14275834
-0.059935853 -0.23621847 -0.20307575 0.07938679 0.23955649 -0.18251085 0.21613455 -0.32701558
0.094230436 -0.051508844 0.04737531 0.41359812 -0.07428735 0.08020386 0.039800353 0.15301481
0.15193795 0.10143163 0.058333177 -0.39073506 -0.050140265 0.055167396 0.20810853 0.25948548
0.097970486 0.029972857 0.095552504 -0.106508076 0.28486496 0.0052600526 -0.32167724 -0.22929056
00000000: 26e7 babe 93bb 373f 42ad 703d 4e17 aa3e
00000010: 188e 843c c856 b9be 4add 233e b115 85bd
00000020: 4ef8 85be bae1 863a c489 1e3d 44c6 4b3e
00000030: 215b 1e3e 91a5 a3bd 518a 15be 959d b53e
00000040: 77b3 d03d 63bf 36be 2974 98be f575 803d
00000050: 0417 d73e ec8d 023f b5a2 aabe b9fe cdbc
00000060: 7afb 91bc 47bc a93e 49d4 3ebe 3c35 a73e
00000070: 62b6 1c3e 4522 a8be c5ec 35ba 1dd2 b03e
00000080: b6e8 b3bc e192 c6bd e6a6 99bd b16d 733e
00000090: 88f4 a93d d2f8 9dbc 759d 393f e797 3ebc
000000a0: e789 003c adc1 9cbd 4279 0dbe 5609 9e3d
000000b0: bd3f 07bc 0034 a23d 95aa ecbd b117 4c3e
000000c0: 5320 493e ecdf 66bd 3d65 8cbd 1f17 cb3d
000000d0: b3cb 523e 4185 f6be 598b 7c3d 2c0a 2f3e
000000e0: 8aa4 e33e 510b a53e fe27 b2bc 2fc5 173e
000000f0: 5808 e53e bab8 153d 9028 54bf fd5d ec3d
00000100: 29f0 06bf 0b47 45be a07f a9bd bfcb 663d
00000110: 94e4 ba3d f12f b03e a5ae 153f bf66 88bd
00000120: 7646 d9be d0a2 83bd ccce 89be f7a5 9f3d
00000130: 9679 3f3e a7c5 43bd 4ad2 9a3d 8ffa a93e
00000140: 96f6 1f3d 9e20 bfbd 1078 8dbd 1133 19be
00000150: 1a0a 8bbe 7264 2bbd b944 c63d adbd 793e
00000160: bbb8 063f 278d adbd 738a 04be 7384 d93d
00000170: 60ea 91bc b36a f9bc ec92 143f 3e64 0abe
00000180: 4354 7ebc a78b 85be 11e7 1e3e 7493 8b3e
00000190: 21f9 c5bd 83f8 cdbd 8240 d8bd eb0c 433d
000001a0: 9189 3cba d5a7 8e3e d5ec e63c 05ff 0fbe
000001b0: f6af 4e3e dcf4 033f b1a4 0d3e 5596 033f
000001c0: 4315 823d 85f1 75bd 4937 36bd 8fa2 bd3e
000001d0: 10d6 0bbe f198 97bd d363 57bc e398 cc3e
000001e0: 5c2a 993e 4215 89bd eebe 2c3e 1feb f0be
000001f0: 653d 9bbd f25d 683e 7f50 b93e 7e28 c33e
00000200: bdf8 013e 5396 593e e6bf 13be 3f1c 1abe
00000210: f2c8 153d d8c0 16bf ec4b b6bd 5e16 1cbf
00000220: 9c49 923e 7df5 e83e 13b1 5ebe bf28 213f
00000230: 63f2 4cbe cab6 9fbc db4e 2bbe 0fab 453e
00000240: 2f86 59bf 0cb0 fd3e 6e43 9a3e 207d 433d
00000250: 240f 3abf 52b8 91bd de84 24bf 2c4d 3bbf
00000260: e654 853e a3a9 0fbd 84f1 523e b9b9 cabd
00000270: ded4 5b3e a21b c4be 1645 cebe 28df bebb
00000280: daf2 9a3d 82c4 f33b c9c1 053f 67bf 3ebd
00000290: 7cc7 b2bf 7275 ff3e 4ec0 cb3e 095c b9bc
000002a0: 3d2c a83e 96b7 f73d e439 05bb 2d6c c13e
000002b0: 1cd4 09bd 6ee6 a43d 412e b23e 9242 cc3d
000002c0: 1a6f 72be 7444 133e a4d6 40bd 7694 673e
000002d0: 776c 81bc d1a0 85bd 210a 44bf d882 6eb9
000002e0: 295e 833e 391a 59be 9c5b 9abd 220a 373d
000002f0: 31f3 013e ff20 45bd f547 463e 7cf2 713d
00000300: 0338 013d 41a1 273e 58cf bf3d ede5 44be
00000310: 50e9 1fbe a1cd 513e 0425 f03c 7e1a b8bd
00000320: f500 553e aa1d 7b3e f9d0 973e 826d 833d
00000330: 0941 93bc ab0f 1a3e 3064 afbb c43e de3d
00000340: cb6d a0bd 4044 6b3d 1351 88be 124f bf3d
00000350: ec0e aa3c 584b 48be f6db d7bd 1e9b 273d
00000360: e84c 8c3d c0c2 523c a7e0 b3be bf19 1d3f
00000370: c795 8f3d eb13 303e 781b f9bc 3e2f 12be
00000380: 4c7f 75bd 41e3 71be 17f3 4fbe 8b95 a23d
00000390: 4c4e 753e 20e4 3abe 6052 5d3e 966e a7be
000003a0: e3fb c03d f0fa 52bd 9d0c 423d 22c3 d33e
000003b0: f723 98bd ec41 a43d b205 233d eaaf 1c3e
000003c0: 9f95 1b3e 63bb cf3d c5ee 6e3d 6d0e c8be
000003d0: e15f 4dbd 35f7 613d 671a 553e 48db 843e
000003e0: c0a4 c83d a389 f53c 08b1 c33d e820 dabd
000003f0: d2d9 913e 855c ac3b e1b2 a4be 25cb 6abe
