hydrone_aerial_underwater_ddpg/scripts/Models/sac_stage_1_air2D_tanh_5layers/40_policy_net.pth (torch_old, 820982 bytes, 12 tensors)

linear1.weight f4 [256, 24]
0	0x3d7c2028	0.061554104
1	0x3d016495	0.031590063
2	0x3c8f7a14	0.017514266
3	0x3d4f23ef	0.05057138
4	0x3d674384	0.056460872
5	0xbc38b7a3	-0.011274251
6	0x3dbb0afa	0.09132953
7	0x3d39236e	0.045199804
8	0xbd080dd5	-0.033216316
9	0xbdf8fb4f	-0.12157308
10	0xbd75c8a3	-0.060005795
11	0xbd9309ed	-0.071796276
12	0x3d06565b	0.0327972
13	0x3ddd1959	0.1079585
14	0x3dfd682a	0.12373383
15	0x3d9fbf2f	0.07800137
16	0xbdb96187	-0.09051805
17	0xbc331e3f	-0.010932504
18	0xbdf644b6	-0.12024824
19	0xbe331b7e	-0.17490956
20	0x3e8fa18f	0.28052947
21	0x3e8ec396	0.27883595
22	0xbe5495ff	-0.20760344
23	0x3dcdbe32	0.100460425
24	0x3d910c07	0.07082372
25	0xbdbb053f	-0.0913186
26	0x3d614f09	0.055007014
27	0xbd0baa53	-0.03409798
28	0xbbd4184a	-0.006472622
29	0xbd096e4a	-0.033552445
30	0x3db842b2	0.08997096
31	0xbdf692d9	-0.12039728
32	0x3dd8eb11	0.1059171
33	0xbd966d0d	-0.073450185
34	0x3c503602	0.012708189
35	0xbdf8a0ab	-0.1214002
36	0xbda9231c	-0.0825865
37	0xbd3e4700	-0.04645443
38	0x3cd5acf8	0.026083454
39	0xbaf33985	-0.0018556571
40	0xbcf73af3	-0.030179476
41	0x3da4a002	0.080383316
42	0xbd2c9e08	-0.042142898
43	0x3d8d0df4	0.06887427
44	0x3aac5311	0.0013147314
45	0x3b86e6ce	0.0041168695
46	0x3e484436	0.1955727
47	0x3e00e02d	0.12585516
48	0xbdd0b933	-0.10191574
49	0x3d7617b7	0.06008121
50	0xbc850205	-0.016236315
51	0x3d616e44	0.055036798
52	0x3cee237d	0.029069657
53	0x3d3f95f4	0.046773866
54	0x3e1fbb54	0.15598804
55	0x3c0484fa	0.008088345
56	0x3e1115f0	0.14168525
57	0x3decbe5f	0.11559748
58	0x3ca395ec	0.01996895
59	0x3e0f4075	0.13989432
60	0xbd8c68df	-0.0685594
61	0xbd96abcb	-0.07356986
62	0xbdbda642	-0.09260227
63	0x3de50d2a	0.111841515
64	0xbdddeb85	-0.108359374
65	0xbde6edd2	-0.112758294
66	0xbd5626e2	-0.052283175
67	0xbd8c90bf	-0.068635456
68	0x3ea9db56	0.33175153
69	0x3d0e0f11	0.034682337
70	0xbd5ff867	-0.054680254
71	0xbe228b69	-0.15873493
72	0x3dd7756b	0.105204426
73	0xbe14926c	-0.1450898
74	0x3dc50d94	0.096217304
75	0x3db04332	0.086065665
76	0x3d957d40	0.0729928
77	0x3d9d49ca	0.0768009
78	0x3caf88aa	0.021427471
79	0x3b723b3e	0.003696158
80	0xbe1413e6	-0.14460716
81	0x3def6de0	0.11690879
82	0xbda5f0e2	-0.081025854
83	0xbcdf7101	-0.027275564
84	0x3e1681fa	0.1469802
85	0xbe0610ea	-0.1309239
86	0x3cba9d78	0.022780165
87	0xbe06dd67	-0.13170396
88	0xbe0d3f25	-0.13793619
89	0xbd04cfe5	-0.032424826
90	0x3dd58e27	0.10427504
91	0x3c78613b	0.0151599
92	0x3eb9a835	0.36261144
93	0x3e64cd2d	0.22343893
94	0x3e1587ba	0.14602557
95	0x3cc4564a	0.023966927
96	0x3c114800	0.008867264
97	0x3dbab17b	0.09115883
98	0xbcd17693	-0.025569236
99	0xbbf6671d	-0.0075196163
100	0x3d19a984	0.03751518
101	0x3dfe3641	0.12412692
102	0x3d0cb382	0.03435088
103	0xbdb84ebf	-0.089993946
104	0x3bcef95f	0.0063163484
105	0xbd96f5f9	-0.07371134
106	0xbc6924ee	-0.014229996
107	0xbd604dfa	-0.054761864
108	0x3dba6367	0.09100991
109	0x3d2f735e	0.042834632
110	0x3d424853	0.047432255
111	0xbda0ac5f	-0.07845377
112	0xbdc9db5b	-0.09856292
113	0xbcaf9f35	-0.02143822
114	0xbd872e3b	-0.06600615
115	0x3de0104c	0.109406084
116	0xbeeee989	-0.46662548
117	0x3d67fd62	0.05663813
118	0xbe10a7c8	-0.14126503
119	0xbe32a5a8	-0.17446005
120	0xbd39b988	-0.045342952
121	0x3dc785f2	0.09742345
122	0xbda08ff5	-0.078399576
123	0x3d69703e	0.056991808
124	0x3dc55500	0.09635353
125	0xba84fc66	-0.0010146021
126	0xbd5b4f83	-0.053542625
127	0x3e08cf5c	0.13360351
128	0xbe0a82f8	-0.13526523
129	0xbe1a47ad	-0.15066405
130	0x3d93780f	0.07200634
131	0xbc8eb165	-0.017418573
132	0xbc5af531	-0.013364122
133	0x3db2b2f6	0.0872554
134	0x3d2b0d2a	0.0417606
135	0xbd8b6022	-0.06805445
136	0xbdf464cf	-0.1193329
137	0xbdf5c2a6	-0.12000017
138	0x3d7f5e92	0.06234605
139	0x3da17e3b	0.07885405
140	0xbe977077	-0.2957799
141	0xbe54283c	-0.20718473
142	0x3e3f437c	0.18678087
143	0x3debf81d	0.11521933
144	0x3e0469eb	0.1293103
145	0xbe0c5053	-0.13702516
146	0xbe06591d	-0.13119932
147	0x3d387fda	0.045043804
148	0xbbf6459e	-0.0075156232
149	0x3d4fe565	0.050755877
150	0x3db6478f	0.089003675
151	0x3dcbe4a5	0.0995572
152	0x3dd92b89	0.10604007
153	0xbd0c3fac	-0.03424041
154	0xbd95591c	-0.07292387
155	0xbde771e8	-0.11301023
156	0x3d2c64a6	0.042088173
157	0x3ce8f7f1	0.02843854
158	0xbe12f1e9	-0.14350094
159	0x3d8d7b59	0.06908292
160	0x3d93f9b1	0.07225359
161	0xbe12bc88	-0.14329731
162	0x3d7600d0	0.06005937
163	0xbc71d3e7	-0.014759994
164	0xbe2b3b90	-0.1672194
165	0xbe79dc76	-0.24400505
166	0xbe1fc3e5	-0.15602072
167	0xbe034a25	-0.12821253
168	0x3dfed9dd	0.12443898
169	0xbd50a25b	-0.050936084
170	0xbdab6124	-0.083681375
171	0x3a98b5b8	0.0011650836
172	0x3d18c451	0.037296597
173	0x3d66f1b5	0.056382854
174	0xbe180459	-0.14845408
175	0x3dc1089e	0.09425472
176	0x3dec6acb	0.11543807
177	0x3d7c534e	0.061602883
178	0x3de03a48	0.10948616
179	0x3db1af92	0.086760655
180	0x3e1c4804	0.15261847
181	0x3d738449	0.05945233
182	0xbe019a16	-0.12656435
183	0xbd9585cd	-0.07300911
184	0xbe14be48	-0.14525712
185	0x3d5f0896	0.054451548
186	0xbd331a61	-0.04372633
187	0xbd8e7016	-0.069549724
188	0x3e7a2e96	0.24431834
189	0x3e5e4a13	0.21707945
190	0xbdbbdc1c	-0.09172842
191	0xbe545d73	-0.20738773
192	0xbd047ed1	-0.032347504
193	0x3dc52179	0.09625525
194	0x3c37f78e	0.011228455
195	0xbe167f1e	-0.14696929
196	0xbe129b5e	-0.1431708
197	0xbd95ae80	-0.07308674
198	0x3d061386	0.032733463
199	0x3da9d134	0.082918555
200	0xbcf905d6	-0.03039829
201	0x3cb88485	0.022524128
202	0x3d411bed	0.047145773
203	0xbe1cf727	-0.15328656
204	0x3dad032f	0.08447873
205	0xbd4a9e62	-0.049467452
206	0x3d1e3cc6	0.038632177
207	0x3d9cac09	0.076500006
208	0xbde4bc9a	-0.111687854
209	0x3db14c08	0.0865708
210	0xbde9176c	-0.113814205
211	0xbae5b9dd	-0.0017526705
212	0xbe0a910e	-0.13531896
213	0x3c5b2081	0.013374449
214	0xbd0839cd	-0.033258248
215	0xbda73e9b	-0.08166238
216	0x3db1915a	0.08670302
217	0x3dd1266b	0.10212406
218	0xbd8e0a98	-0.06935614
219	0xbc851b1d	-0.01624828
220	0x3d8560e8	0.06512624
221	0x3df94359	0.12171049
222	0xbdcdf28f	-0.1005603
223	0xbd1881be	-0.037233107
224	0x3d5623d3	0.05228026
225	0xbdeb5e9e	-0.11492656
226	0xbd6b3e52	-0.05743248
227	0xbe2dba08	-0.16965497
228	0xbd5036b1	-0.050833408
229	0x3d2f802f	0.042846855
230	0xbdc2d0df	-0.09512495
231	0x3e19e606	0.15029153
232	0xbd69ba2d	-0.057062317
233	0x3d4ae24d	0.049532223
234	0xbccfd84f	-0.025371699
235	0x3e0c290b	0.13687532
236	0xbbe29e6b	-0.0069158575
237	0x3eab3d7e	0.33445352
238	0x3e843d7a	0.25828153
239	0xbdb044f3	-0.08606901
240	0xbe04647d	-0.12928958
241	0x3d778be7	0.060436156
242	0x3d20e7a1	0.0392834
243	0x3cde1272	0.027108405
244	0x3d55b895	0.052177984
245	0x3dbf1ffe	0.09332274
246	0xbd4e0e06	-0.050306343
247	0x3d5954b8	0.05305931
248	0x3de04908	0.109514296
249	0x3d981280	0.074254036
250	0xbc1fcf21	-0.009753973
251	0x3d968699	0.07349891
252	0x3d6d2960	0.057900786
253	0x3cc3c151	0.023895891
254	0xbda542bf	-0.080693714
255	0xbe14cabf	-0.14530466

linear1.bias f4 [256]
0	0xbcfa28e5	-0.030537078
1	0x3cb4cd4c	0.02207055
2	0x3c295132	0.0103343
3	0x3bba4b78	0.005685266
4	0xbbf0a150	-0.0073434487
5	0xbc67201a	-0.014106775
6	0xbc275047	-0.010212011
7	0xbc209b6c	-0.00980268
8	0xbc883bea	-0.016630132
9	0x3cfc3ebe	0.030791637
10	0xbcfb5ddf	-0.03068441
11	0x00000000	0.0
12	0x3c9880dd	0.018616134
13	0x3c177972	0.009245263
14	0x3b920503	0.004456164
15	0xbae18975	-0.0017207103
16	0xbcf95b2b	-0.03043898
17	0x3b3620b2	0.0027790484
18	0x3cc14632	0.023593042
19	0xbc5b8847	-0.01339919
20	0xbcddaf88	-0.027061239
21	0x3be551d5	0.0069982805
22	0xbb18e8cf	-0.0023332124
23	0xbcc13f88	-0.023589864
24	0x3c288b2b	0.0102870865
25	0x00000000	0.0
26	0xbb967ae2	-0.0045922855
27	0xbc283ec7	-0.010268874
28	0xbb5a2da1	-0.0033291357
29	0x3c86b8d5	0.016445557
30	0x00000000	0.0
31	0x00000000	0.0
32	0xbcb42953	-0.021992361
33	0x3cba7af1	0.022763701
34	0x3cecedc2	0.028921966
35	0x3c06a73e	0.008218585
36	0x00000000	0.0
37	0xbb8f7a6c	-0.0043786075
38	0x3ceda1ef	0.02900788
39	0xbc8dd2d2	-0.017312441
40	0xbca3ef82	-0.020011667
41	0x3c17efbb	0.009273465
42	0x3c4d3788	0.012525447
43	0xbc07f2b9	-0.008297616
44	0xbd3e2de3	-0.04643048
45	0x3d9514e0	0.07279372
46	0xbc8b1444	-0.016977437
47	0xbbaaecf8	-0.005216237
48	0x3b262c30	0.0025355928
49	0xbc1ceb53	-0.00957759
50	0xbc24be20	-0.010055095
51	0xbc827bd9	-0.015928196
52	0xbc9f916b	-0.01947852
53	0x3c82cff5	0.015968302
54	0x3c4df952	0.01257165
55	0xbc4970e7	-0.012294984
56	0x3c897983	0.016781574
57	0xbc095a5b	-0.008383359
58	0xbd07eaab	-0.03318278
59	0xbc2fe4d9	-0.010735714
60	0x3b6d7ef8	0.003623901
61	0xbba86b61	-0.0051397537
62	0xbbcbf400	-0.0062241554
63	0xbcd1a779	-0.025592552
64	0xbcc4d057	-0.024025125
65	0x3cbfdf9d	0.023422057
66	0xbcd72aca	-0.02626552
67	0xbc44741c	-0.011990573
68	0x3abbb291	0.0014320185
69	0x3b18f263	0.0023337833
70	0x3d3d9ab1	0.046290103
71	0x3a2fa3fd	0.00067001564
72	0xbaa14fcd	-0.0012307108
73	0x3b70b55e	0.0036729197
74	0xbcb0349d	-0.021509463
75	0xbc7d4a25	-0.015459572
76	0x3d55fbde	0.052242152
77	0xbcb694e4	-0.022287793
78	0x3b916c80	0.004437983
79	0xbbfe98b3	-0.007769668
80	0x3d2c73c6	0.042102598
81	0xbca25b31	-0.019818874
82	0xbbad3aa3	-0.005286531
83	0xbd12a61a	-0.035802938
84	0xba685f6c	-0.00088643166
85	0x3c18dae3	0.00932953
86	0xbcb98d4a	-0.02265038
87	0xbcb72e60	-0.02236098
88	0xbc976bec	-0.018484078
89	0x00000000	0.0
90	0xbb754271	-0.0037423635
91	0xbbad1033	-0.005281472
92	0x3b517283	0.0031959123
93	0xbcb83b4b	-0.02248921
94	0xbc8fd95b	-0.017559698
95	0xbb8c5913	-0.0042830794
96	0xbcffcc62	-0.031225387
97	0xbc66ef4e	-0.014095141
98	0x00000000	0.0
99	0xbd11c09a	-0.03558407
100	0x3c36094b	0.011110614
101	0xbcdebe0a	-0.027190227
102	0xbbd8a5ea	-0.0066115754
103	0xbc85dfc3	-0.01634205
104	0x00000000	0.0
105	0xbbce0dfc	-0.006288288
106	0x3c88a299	0.016679095
107	0x3b50996a	0.0031829723
108	0xbcf08353	-0.029359495
109	0xbc9631d8	-0.018334314
110	0x3da4271c	0.08015272
111	0xbd304fb7	-0.043044772
112	0xbc56c1ae	-0.0131077
113	0x3d2eb1d6	0.042650066
114	0xbc843115	-0.016136685
115	0xb666d406	-3.4396085e-06
116	0xbc54ba92	-0.012983935
117	0xbc9dbf04	-0.019256122
118	0xbc4f05aa	-0.012635628
119	0x3d2cfb12	0.042231627
120	0x3d7235bd	0.05913328
121	0x3d4e485d	0.05036198
122	0xbcd8e6b6	-0.026477199
123	0xbbf6d19c	-0.0075323116
124	0x3d920008	0.07128912
125	0x3c3cad52	0.011515932
126	0x3a7bf7d0	0.0009611817
127	0xbc3a109a	-0.011356497
128	0x00000000	0.0
129	0xbb75e57a	-0.0037520812
130	0x3c7926f8	0.015207045
131	0xbcd8ee0e	-0.0264807
132	0xbcc9d2e0	-0.024636686
133	0xbce5217d	-0.02797007
134	0x3ce1c9fb	0.027562132
135	0xbb0a46a0	-0.0021099225
136	0xbb565a71	-0.0032707716
137	0xbb56d44a	-0.0032780343
138	0xbc783ab0	-0.015150711
139	0xbc10bd21	-0.008834154
140	0xbbc97fd5	-0.006149272
141	0xbb3610e9	-0.0027781075
142	0x3d02b347	0.031909253
143	0x3bdf6ea2	0.0068186084
144	0x3c3507fb	0.011049266
145	0xbc307cad	-0.0107719125
146	0x3cd933a2	0.026513878
147	0xbca7a9b3	-0.020466661
148	0x3c74bcf1	0.014937625
149	0xbc71525a	-0.014729107
150	0x00000000	0.0
151	0xbbe68f5d	-0.007036133
152	0xbb9e5d33	-0.0048328876
153	0x3d49b36c	0.049243376
154	0xbcb6c038	-0.022308454
155	0xbcd07c61	-0.025449933
156	0x3c82a0b3	0.015945768
157	0x3ba9edb5	0.0051858076
158	0xbcaa33c9	-0.020776646
159	0xbc54edf4	-0.012996186
160	0xbd067126	-0.03282275
161	0xbc01eef7	-0.007930509
162	0xbd6bc359	-0.057559345
163	0xbb2854f4	-0.0025685402
164	0xbcca8d7a	-0.024725664
165	0x3b73878e	0.0037159654
166	0x3b6d0563	0.003616654
167	0x3bc698cb	0.006060695
168	0xbc40c6e0	-0.0117661655
169	0x3d6862d2	0.056734867
170	0x3b7a79a3	0.0038219474
171	0xbc3a2c43	-0.011363092
172	0x3bcdc1f2	0.0062792236
173	0xbbb1e099	-0.0054283855
174	0x3d0844cd	0.03326874
175	0xbcc79fbf	-0.024368165
176	0xbc6e512a	-0.014545718
177	0xbb9b491c	-0.00473894
178	0x3c3e91a8	0.011631407
179	0xbc9916a1	-0.018687548
180	0xbc38f165	-0.011288022
181	0xbca3ae8d	-0.019980693
182	0x3a496a3c	0.00076833717
183	0xbcab824d	-0.020936156
184	0xbca2ae10	-0.01985839
185	0x3d00165f	0.031271335
186	0xbbc1d9aa	-0.00591584
187	0x3c1bf120	0.009517938
188	0xbc03b31e	-0.00803831
189	0x39eaae54	0.00044761843
190	0xbcb188fe	-0.021671768
191	0xbcd2b476	-0.025720816
192	0xbc9ab3b2	-0.018884514
193	0xbc3962f1	-0.011315093
194	0xbccdc02e	-0.025116052
195	0x3b916a9c	0.0044377577
196	0x00000000	0.0
197	0xbc4df2b4	-0.012570072
198	0xbc2131c0	-0.0098385215
199	0xbccd85d8	-0.025088236
200	0x3bf938bd	0.0076056407
201	0x3c19672b	0.009362976
202	0x00000000	0.0
203	0xbbc10e15	-0.0058915713
204	0xbc9d18bf	-0.019176839
205	0xbca17340	-0.019708276
206	0xbcbce128	-0.023056582
207	0xbc31934f	-0.010838344
208	0xbb237ef8	-0.0024947505
209	0xbc12119f	-0.008915334
210	0xbc154720	-0.009111196
211	0xbcc60219	-0.024170922
212	0x3c2351bf	0.00996822
213	0xbb989007	-0.0046558413
214	0x3aac67f0	0.0013153534
215	0xbc7b21ed	-0.015327913
216	0xbc1bd101	-0.00951028
217	0xbac4e2f6	-0.0015021253
218	0x00000000	0.0
219	0x3d8ced12	0.06881155
220	0xbc2ef7ef	-0.010679229
221	0xbccaa1de	-0.024735387
222	0xbb192d0e	-0.0023372802
223	0xbcaf8022	-0.021423403
224	0xbc098c50	-0.0083952695
225	0xbc6a327c	-0.014294263
226	0xbbdcdcd4	-0.006740192
227	0x3b9e475e	0.004830285
228	0xbc1e0d33	-0.009646702
229	0xbcf05cba	-0.02934109
230	0xbbe1948c	-0.0068841632
231	0x3b8e1f10	0.004337199
232	0xbc2f22dd	-0.010689464
233	0xbbaa3ea4	-0.0051954556
234	0xbc97be6c	-0.018523417
235	0x3d810af7	0.063009195
236	0x3d10d0f3	0.03535552
237	0xbbd60714	-0.0065316055
238	0x3abfeda3	0.0014642965
239	0x3c7dc3ee	0.015488608
240	0xbcbacd11	-0.022802861
241	0x3cd4f591	0.025996001
242	0x3c8da04a	0.017288346
243	0x3d5b4b6a	0.053538717
244	0xbbcceb7c	-0.006253658
245	0xbc5b259d	-0.013375667
246	0xbcb9d047	-0.022682322
247	0xbca16fbf	-0.019706605
248	0x3cb7350b	0.02236416
249	0xbbbe7ab4	-0.005812967
250	0xbaa7717a	-0.0012774908
251	0xbaeb39b5	-0.0017946275
252	0x3ca14de5	0.019690463
253	0x3c365e00	0.01113081
254	0xba8a3687	-0.0010544815
255	0x00000000	0.0

linear2.weight f4 [256, 256]
0	0xbdcd0513	-0.100107335
1	0x3d15769e	0.036490075
2	0xbe1a90fb	-0.15094368
3	0x3d76e3f4	0.060275987
4	0x3db0ca15	0.08632294
5	0x3dab1cd4	0.08355108
6	0xbde66a6c	-0.11250767
7	0xbbda16ad	-0.006655535
8	0xbde0a7af	-0.10969483
9	0x3d6b4bc9	0.05744532
10	0xbcc0285d	-0.023456747
11	0xbd23637c	-0.039889798
12	0x3b9a6dcb	0.0047127954
13	0x3dcf9829	0.10136444
14	0xbd105699	-0.035238836
15	0x3d00f488	0.031483203
16	0x3d0c6ce7	0.034283545
17	0x3d8d5a74	0.06902018
18	0xbc75acf2	-0.014994847
19	0xbca8a976	-0.020588618
20	0xbb76a08a	-0.003763231
21	0x3ccd5fe0	0.02507013
22	0x3df6944e	0.120400056
23	0xbd1bfbc0	-0.038081884
24	0xbe1d62a2	-0.15369657
25	0x3d9bbca5	0.076043405
26	0xbdba73b5	-0.091041006
27	0xbd614e10	-0.055006087
28	0x3dc6a9ea	0.09700377
29	0x3db16464	0.08661726
30	0x3dbc510f	0.09195148
31	0x3c119cf0	0.0088875145
32	0xbd0e9782	-0.034812458
33	0x3bf9f21b	0.007627738
34	0x3e51bd31	0.20482327
35	0x3d47ec3b	0.04880927
36	0xbcb03cc8	-0.021513358
37	0x3d1be509	0.03806022
38	0xbd9cd803	-0.076583885
39	0x3c0125b6	0.007882526
40	0x3d21fb51	0.039546315
41	0xbc8afa1c	-0.016964965
42	0xbd7b1e46	-0.061308168
43	0xbcba68f4	-0.022755124
44	0xbdb034c3	-0.086038135
45	0x3dc8c90d	0.098039724
46	0xbe082d59	-0.13298549
47	0x3c26b396	0.010174653
48	0x3b3047e4	0.002689832
49	0x3d251ff7	0.040313687
50	0xbd31756c	-0.043324873
51	0x3dbf7e38	0.09350246
52	0x3ccaacf8	0.024740681
53	0x3dce0e67	0.10061341
54	0x3d8e8520	0.06958985
55	0x3dd0f445	0.10202841
56	0xbdb62e61	-0.08895565
57	0x3c6b4aef	0.014361127
58	0x3c6eede1	0.014583082
59	0xbc914321	-0.017732205
60	0x3d02e5b7	0.031957354
61	0x3d3f6c14	0.04673393
62	0xbd941b65	-0.072317876
63	0x3d8b567f	0.06803607
64	0x3dd0b16d	0.10190091
65	0xbdad343e	-0.0845723
66	0xbd3bc46d	-0.045841623
67	0xbd669fd7	-0.05630478
68	0xbbde6b8c	-0.006787723
69	0x3dd92468	0.10602647
70	0xbda4b2ec	-0.08041939
71	0x3cdf7884	0.027279146
72	0xbe0c953e	-0.13728806
73	0xbd30f0aa	-0.043198265
74	0xbb8f995a	-0.0043822946
75	0x3cc7ef2b	0.024406036
76	0xbdf652ab	-0.120274864
77	0x3ce6dd0f	0.02818158
78	0xbc08e567	-0.008355475
79	0xbdb6bffd	-0.089233376
80	0x3cca0dce	0.024664786
81	0xbcb0ccc5	-0.021582017
82	0xbbffa04a	-0.0078010904
83	0x3d8a568f	0.06754791
84	0x3d614c77	0.055004563
85	0x3dff2c6c	0.12459645
86	0x3d807853	0.0627295
87	0xba85f48d	-0.0010219977
88	0x3d8977ef	0.06712329
89	0x3d89b11f	0.06723236
90	0xbd84e683	-0.06489279
91	0xbd4b4c6f	-0.04963344
92	0xbc7e9bfc	-0.015540119
93	0x3d3fe337	0.04684755
94	0x3da3e87c	0.08003327
95	0x3d6ed934	0.05831261
96	0x3d86383d	0.06553695
97	0xbd692167	-0.05691662
98	0x3bbff360	0.00585787
99	0x3d8a1f6d	0.06744275
100	0x3d5d0845	0.053962965
101	0x3d9ba2ea	0.07599433
102	0xbde0b9ac	-0.10972914
103	0xbcafc586	-0.021456491
104	0x3d3dbc16	0.04632195
105	0x3c994f1a	0.018714476
106	0x3ddf3cf4	0.10900298
107	0x3bcd11b1	0.0062582125
108	0x3e002a26	0.12516078
109	0xbdc42662	-0.095776334
110	0x3c4f36ec	0.012647372
111	0xbd4dee84	-0.050276294
112	0x3df946e2	0.12171723
113	0x3d8eb707	0.069685034
114	0xbd3f3254	-0.046678856
115	0x3dda624d	0.10663281
116	0x3c5ea202	0.01358843
117	0xbdb234e5	-0.08701495
118	0x3d7b3908	0.061333686
119	0x3e64b612	0.2233508
120	0x3de847fa	0.113418534
121	0x3dc4a6d0	0.096021295
122	0x3c77acf3	0.015116918
123	0x3df6b970	0.12047088
124	0x3e0ff776	0.14059243
125	0xbda7b1d1	-0.08188213
126	0xbddb3e2c	-0.10705218
127	0x3ca2b516	0.01986174
128	0xbc6a0540	-0.014283478
129	0x3d8149ae	0.063128814
130	0x3d405f6e	0.04696601
131	0x3c2a0529	0.010377207
132	0x3d3fa7ec	0.046791002
133	0xbe1a45bc	-0.15065664
134	0x3d53e953	0.051736187
135	0xbd5ee149	-0.054414067
136	0xbdd1e7a4	-0.1024926
137	0xbd8c8e89	-0.06863124
138	0xbd382f6d	-0.044967104
139	0x3d5e242b	0.05423371
140	0xbb868eba	-0.00410637
141	0x3d8f2b21	0.06990648
142	0xbdcc741a	-0.09983082
143	0x3d0af551	0.03392536
144	0x3d4a6e0c	0.049421355
145	0xbda0b92b	-0.07847818
146	0xbe11f48f	-0.14253448
147	0x3c602613	0.013680953
148	0xbe16b5ea	-0.14717832
149	0xbcba0f06	-0.022712242
150	0xbd10a5ba	-0.0353143
151	0xbdbd57bb	-0.09245249
152	0x3c41889f	0.011812358
153	0x3d283d4c	0.041074082
154	0x3bf8ec10	0.0075965
155	0xbd089058	-0.033340782
156	0x3d282bfc	0.04105757
157	0xbda94edb	-0.082669936
158	0x3d152a46	0.03641727
159	0xbdc9f5a4	-0.09861305
160	0xbdbcf9dd	-0.09227345
161	0x3dae5fa5	0.085143365
162	0x3dc5016f	0.09619414
163	0x3d98227c	0.074284524
164	0xbdedcc07	-0.11611181
165	0x3dcd0db4	0.10012379
166	0x3d9a4213	0.07532134
167	0xbe3563e7	-0.17713891
168	0x3dccc2e0	0.09998107
169	0xbd54e7ee	-0.051978998
170	0xbd0634cc	-0.032765195
171	0xbd50220e	-0.050813727
172	0x3d775f8a	0.060393848
173	0xbd6931df	-0.056932326
174	0xbda7d8f7	-0.0819568
175	0x3b9fa1ea	0.0048715966
176	0x3cb06989	0.021534698
177	0xbde3ddab	-0.11126264
178	0x3b6892ae	0.0035487819
179	0xbd18b89f	-0.037285443
180	0xbe302af2	-0.17203882
181	0x3d0b5322	0.03401483
182	0x3d89495e	0.06703447
183	0x3da5fb52	0.08104576
184	0xbdac11b5	-0.08401815
185	0x3caf43cc	0.021394633
186	0xbd8889ca	-0.06666906
187	0x3c550687	0.0130020445
188	0xbe3d9ea2	-0.18517545
189	0xbd41fce6	-0.047360323
190	0xbc7f2f22	-0.015575202
191	0x3c9c475e	0.019077
192	0xbdc911a9	-0.098178215
193	0xbd9e7b02	-0.07738306
194	0x3d1e0d14	0.03858669
195	0xbd898a91	-0.067158826
196	0x3ca9095c	0.020634346
197	0xbc9e59a1	-0.019329848
198	0xbda537f0	-0.0806731
199	0x3d9ce076	0.0766
200	0x3b1bb511	0.0023759047
201	0x3e58332d	0.21113272
202	0x3db82713	0.08991828
203	0x3da61148	0.08108765
204	0xbd1cbe1d	-0.038267244
205	0x3b160f92	0.0022897464
206	0x3afd9322	0.0019346217
207	0xbe13d080	-0.14435005
208	0xbd30f4b2	-0.04320211
209	0xbd3c52fd	-0.04597758
210	0x3bbaaf5e	0.005697175
211	0xbe01dc19	-0.12681617
212	0x3d598d15	0.053113062
213	0x3d89eff6	0.06735222
214	0xbd2ed25c	-0.042681083
215	0x3bb7af54	0.0056056175
216	0xbdd92d30	-0.10604322
217	0x3d7f1018	0.062271208
218	0xbdb7cb8a	-0.08974369
219	0xbddc564b	-0.107586466
220	0x3ca50e54	0.020148434
221	0x3d7e4e58	0.062086433
222	0x3d64c5e2	0.05585278
223	0xbc914ee8	-0.01773782
224	0x3c8467ae	0.01616272
225	0x3b11556e	0.0022176164
226	0x3d158efb	0.03651331
227	0xbd130bc1	-0.03589988
228	0xbdb04609	-0.08607108
229	0x3d20e6a7	0.039282467
230	0xbcf007e5	-0.02930064
231	0x3d6e0a3b	0.058115225
232	0x3d8ad86b	0.0677956
233	0x3dda2f46	0.10653548
234	0xbcb97ec0	-0.022643447
235	0xbdfbc12b	-0.12292703
236	0x3dbccb24	0.092184335
237	0x3d47cf01	0.0487814
238	0x3d84cfed	0.06484971
239	0x3df3853b	0.11890646
240	0xbd4093e2	-0.047016032
241	0x3d0ec6f1	0.034857694
242	0xbcb35563	-0.021891301
243	0x3dad5cfb	0.08465
244	0xbd6a0ed6	-0.057143055
245	0x3df58b38	0.119894445
246	0xbd0e8548	-0.034795076
247	0xbd80925f	-0.06277918
248	0xbd07c5ea	-0.03314773
249	0xbd02acb8	-0.031903
250	0xbc96ab5e	-0.018392261
251	0xbdf215a0	-0.11820531
252	0xbdf7ef79	-0.12106223
253	0xbe069c21	-0.13145496
254	0xbdf14b5c	-0.11781952
255	0x3d6cff7e	0.057860844

linear2.bias f4 [256]
0	0x3c37f379	0.011227482
1	0xbc640111	-0.01391627
2	0xbd400a91	-0.046885077
3	0xbbfd3cfb	-0.0077282167
4	0xbc58f74e	-0.013242556
5	0x3c79a2bb	0.015236552
6	0xbc052c19	-0.0081281895
7	0xbcb7a3b1	-0.022416921
8	0xbc1d9bd3	-0.009619671
9	0xbcc3b1c4	-0.023888476
10	0x3b81f6c4	0.0039661843
11	0xba013a95	-0.0004929689
12	0xbcc7d24d	-0.024392271
13	0xbc8f00fe	-0.017456528
14	0xbcac688b	-0.021045944
15	0xbcc711a8	-0.024300411
16	0x3c183a53	0.009291249
17	0xbcb8514b	-0.022499701
18	0xbbce836d	-0.0063022883
19	0x3c1e5e1e	0.009665994
20	0x3c49bc1f	0.012312918
21	0xbc9075a0	-0.017634213
22	0xbc4ffcef	-0.012694581
23	0xbc4a11e0	-0.012333363
24	0xbc923558	-0.017847702
25	0xbb7adc31	-0.0038278217
26	0x3cb6f02d	0.022331322
27	0xbc53c065	-0.012924288
28	0xbc9385cc	-0.018008135
29	0xbc5f4697	-0.01362767
30	0xbbf696ee	-0.0075253164
31	0xbc261a34	-0.010138083
32	0xbb776f03	-0.0037755377
33	0xbcbf967c	-0.023387186
34	0xbc1deaf8	-0.00963854
35	0xbc83bafc	-0.016080372
36	0xbc622833	-0.01380353
37	0x3cc356d9	0.023845123
38	0xb9cc65e0	-0.00038985815
39	0xbca7ea53	-0.020497477
40	0xbc7886f3	-0.015168893
41	0xbc6d11c0	-0.014469564
42	0x3c81d685	0.015849361
43	0xbbba7c90	-0.0056911185
44	0x3cc8c079	0.02450584
45	0x3c651ad1	0.013983444
46	0xbc8ad6d4	-0.016948141
47	0xbd178252	-0.036989518
48	0xbc1ae466	-0.0094538685
49	0xbc0e8f5d	-0.008701173
50	0xbd01eb2c	-0.031718418
51	0xbc9b0e88	-0.018927827
52	0xbb53b7b7	-0.0032305548
53	0x3b4cfac9	0.003127741
54	0xbc85a9e1	-0.016316356
55	0xbb9da566	-0.004810977
56	0x3cfc8a48	0.030827656
57	0xbcd1850a	-0.025576133
58	0x3cdb4aa9	0.026769
59	0xbc8e84e0	-0.017397344
60	0xbcec79bd	-0.028866643
61	0x3c5b5502	0.013386967
62	0xbd217b9c	-0.039424524
63	0x3b723752	0.0036959243
64	0xbc616cfb	-0.013758893
65	0xbc4725de	-0.012155024
66	0x3cc0cc0c	0.023534797
67	0x3ce25500	0.027628422
68	0x3932b355	0.00017042209
69	0x3b101eea	0.0021991082
70	0x3c833369	0.016015725
71	0xbcacb52f	-0.021082489
72	0xbba8b4a2	-0.0051484862
73	0xbc429be2	-0.011877986
74	0xbcb9988b	-0.022655746
75	0x3d49cdda	0.04926858
76	0xbba3539a	-0.0049843313
77	0xbc5b11af	-0.013370915
78	0xbb3a4828	-0.0028424356
79	0x3d1b6082	0.037933834
80	0x3b38a1cf	0.0028172617
81	0xbbef8dc5	-0.0073106014
82	0xbbd3bd53	-0.006461778
83	0xbc6d5eac	-0.014487904
84	0x3bc7b927	0.00609507
85	0xbcb14ed2	-0.02164403
86	0xbd1c85ea	-0.038213648
87	0x3b535643	0.003224746
88	0x3ba688e1	0.005082235
89	0xbd007b84	-0.031367794
90	0xbb720817	-0.0036931091
91	0x3c3e88d0	0.011629298
92	0xbc5b710a	-0.01339365
93	0xbb8108ed	-0.0039378316
94	0xbbdf93dd	-0.0068230466
95	0xbb642291	-0.0034810642
96	0xbcbd3da4	-0.023100682
97	0x3c8d8b92	0.017278466
98	0xbc1da811	-0.00962259
99	0xbc7363c7	-0.014855332
100	0x3bc69c17	0.006061088
101	0xbd0161bb	-0.031587344
102	0xbb5c97c5	-0.0033659798
103	0x3a51267a	0.0007978451
104	0x3b57f12f	0.0032950153
105	0xbb1dfb32	-0.0024106023
106	0xbc1dd327	-0.009632862
107	0xbcca5a2b	-0.024701199
108	0xbb7661f2	-0.0037595
109	0xbb38e8c2	-0.0028214906
110	0xbc95c4df	-0.018282352
111	0xbc0bf6e8	-0.008542754
112	0xbba4192a	-0.0050078826
113	0xbca9b70f	-0.020717172
114	0xbc24a1fb	-0.010048385
115	0x3b30e8a8	0.0026994143
116	0xbbb54c03	-0.005532743
117	0xbb7cf1e4	-0.0038596326
118	0xbb4c49ee	-0.0031171995
119	0xbb6f5c93	-0.0036523684
120	0x3c1a9f2c	0.009437364
121	0xbc4edf06	-0.012626415
122	0xbc8d72bc	-0.017266624
123	0x3c76fa5a	0.015074337
124	0xbca9ad42	-0.020712499
125	0x3c923240	0.017846227
126	0x3d93bd91	0.07213891
127	0xbc21fb3e	-0.009886561
128	0xbc7d9d56	-0.015479406
129	0xbaa3e145	-0.0012503049
130	0x3cfc49eb	0.030796966
131	0xbcf154ab	-0.029459318
132	0xbc34fb56	-0.011046251
133	0xbd05d7d1	-0.03267652
134	0x3c66edfb	0.014094825
135	0x3bce5d66	0.006297755
136	0xbcce0fb1	-0.025153967
137	0x3b36fcc5	0.0027921658
138	0xbbdc08df	-0.0067149247
139	0x3bcdbd53	0.0062786727
140	0xbca5f593	-0.0202587
141	0x3c70867a	0.014680499
142	0xbcbfbab7	-0.023404462
143	0x3bb71499	0.005587172
144	0xbcb24db9	-0.021765577
145	0x3c3cc227	0.011520899
146	0x3c7b6a4d	0.015345168
147	0xbc5eaf14	-0.013591547
148	0xbbb34d3f	-0.005471855
149	0xbb1467f8	-0.0022644978
150	0x3b0577da	0.0020365627
151	0xbc400884	-0.01172078
152	0xbcc8ad02	-0.024496559
153	0xbcc46435	-0.023973564
154	0xbc1a46ee	-0.009416325
155	0x3be99942	0.0071288655
156	0xbc236e8d	-0.009975088
157	0x3ca19bf9	0.019727694
158	0xbcc55fc6	-0.02409352
159	0x3b887442	0.0041642496
160	0xba6dd4c9	-0.000907254
161	0xbc11e587	-0.008904821
162	0xbc9def8f	-0.01927927
163	0xbcaaaf2d	-0.020835483
164	0x3c43d389	0.011952289
165	0x3cd6f23e	0.026238557
166	0xbabae0c2	-0.0014257657
167	0x3a631a02	0.0008663238
168	0x3b43b1be	0.0029860581
169	0x3b63b60b	0.0034745957
170	0x3b53ae48	0.0032299925
171	0x3bd756d3	0.0065716296
172	0xbc251df4	-0.010077942
173	0xbc75c891	-0.015001432
174	0xbccbd336	-0.024880987
175	0x3c8acd54	0.016943611
176	0x3ab50a41	0.001381226
177	0xbce3411e	-0.027741011
178	0xbc260c9c	-0.010134842
179	0xbc273579	-0.01020562
180	0x3bd4c37d	0.0064930306
181	0xbce3ed02	-0.027822975
182	0xbbcd88d2	-0.006272414
183	0xbad51674	-0.0016257302
184	0xbcc29496	-0.023752492
185	0x3c93b9c0	0.018032908
186	0xbc999644	-0.01874841
187	0xbc8c116c	-0.017098151
188	0x3c80fe18	0.015746161
189	0xbcdbcb75	-0.026830414
190	0x3c7a77cb	0.01528735
191	0x3a8b1423	0.001061086
192	0x3b53f6f9	0.0032343252
193	0x3bad6f24	0.00529279
194	0x3bd9edfe	0.0066506853
195	0xbbb04104	-0.005378844
196	0xbcda8b9a	-0.026677895
197	0xbcd5cca2	-0.026098553
198	0xbcd91962	-0.026501361
199	0xbc7f0b25	-0.015566622
200	0xbc14b06c	-0.009075265
201	0xb9ea6c37	-0.00044712584
202	0x3c9f022b	0.019410213
203	0xbc8c89f0	-0.017155617
204	0xbc511da2	-0.012763413
205	0xbc8e75de	-0.017390188
206	0xbb5f28c9	-0.003405141
207	0xbd87bad4	-0.066274315
208	0xbcbda793	-0.023151195
209	0x3bcba551	0.0062147756
210	0xbcc41a9c	-0.02393847
211	0xbd1dbd0c	-0.038510367
212	0x3c0c5a21	0.00856641
213	0xbb461974	-0.0030227574
214	0x3c25c5f8	0.010118
215	0xbc338291	-0.010956422
216	0xbc8de8cc	-0.01732292
217	0x3b9b8ec8	0.0047472455
218	0xbc5118c9	-0.012762257
219	0xbc49148a	-0.012272963
220	0xbca6130a	-0.02027275
221	0xbb5c81cd	-0.0033646703
222	0xb88652f8	-6.405072e-05
223	0x3d4115b7	0.04713985
224	0x3bb65d08	0.0055652894
225	0xbc17c254	-0.00926264
226	0x3bd10c90	0.0063796714
227	0x3ba9a263	0.0051768287
228	0xbc18b9d4	-0.009321649
229	0x3c67b32e	0.014141841
230	0xbcf96aed	-0.030446494
231	0xbcd3d3f3	-0.025857901
232	0xbb84566c	-0.0040386226
233	0x3c81ac04	0.015829094
234	0x3c654145	0.013992612
235	0x3bc8a1c1	0.006122798
236	0x3c1fb5b5	0.009747912
237	0x3b7a1d10	0.0038164295
238	0xbc94a2f2	-0.018144105
239	0xbc478638	-0.012177996
240	0xbcebffd8	-0.02880852
241	0x3be55cef	0.006999604
242	0x3bb3a62a	0.005482455
243	0xbcd4aec6	-0.025962245
244	0x3bcd13fd	0.0062584863
245	0xbd817a4c	-0.063221544
246	0xbc805d6f	-0.015669553
247	0xbc3a83d9	-0.011383974
248	0xbc0cf425	-0.0086031305
249	0xbc899edc	-0.016799383
250	0xbcb3aece	-0.02193394
251	0x3abd91c7	0.0014463001
252	0xbc78d24d	-0.015186858
253	0x3bc447da	0.0059900107
254	0xbc6b1d1d	-0.014350203
255	0xbc8a48d8	-0.016880438

linear3.weight f4 [256, 256]
0	0xbd8ae0ff	-0.06781196
1	0x3d445839	0.0479357
2	0x3b83e515	0.0040251114
3	0x3db50f85	0.08840851
4	0xbc49caef	-0.01231645
5	0xbd0fb85c	-0.03508793
6	0xbcc6d2ea	-0.024270494
7	0x3e052a7d	0.13004489
8	0x3c3dc543	0.011582675
9	0x3c64e1f3	0.013969886
10	0xbcacca7d	-0.021092648
11	0x3dd2b9ba	0.10289331
12	0x3d0fadf9	0.035078023
13	0x3d0c1eda	0.03420911
14	0xbd8d4e06	-0.068996474
15	0xbdcaa8c8	-0.09895474
16	0xbdd26f54	-0.102751404
17	0x3d942fb3	0.072356604
18	0xbcaa3e2a	-0.020781595
19	0x3d312dc4	0.043256536
20	0xbe0b4c5c	-0.13603348
21	0xbdcab5c3	-0.098979495
22	0xbd08f801	-0.03343964
23	0x3db85086	0.089997336
24	0x3d29c70f	0.041449603
25	0x3d895f56	0.06707637
26	0xbb2145e3	-0.0024608306
27	0xbdf39724	-0.11894062
28	0x3c39c07a	0.011337394
29	0xbd2a9336	-0.041644298
30	0xbdbc0e8e	-0.091824636
31	0xbca571a0	-0.020195782
32	0x3bdb2d4d	0.00668875
33	0x3d915828	0.070968926
34	0x3d814e3e	0.06313752
35	0xbd7dedbe	-0.061994307
36	0xbd8eeed9	-0.0697915
37	0x3c8b4e57	0.017005129
38	0x3d48c233	0.049013328
39	0xbd5e91a4	-0.054338112
40	0xbdc9d0ed	-0.098543026
41	0xbd1b9aae	-0.03798931
42	0xbcb15d2c	-0.021650873
43	0xbdceb083	-0.10092261
44	0x3d28edd4	0.041242436
45	0xbdacc78f	-0.084365
46	0x3dd65f86	0.104674384
47	0xbdf152af	-0.11783349
48	0xbe137613	-0.1440051
49	0xbde14a6c	-0.11000523
50	0x3dd593bf	0.10428571
51	0x3d62c4c8	0.055363446
52	0x3cffa67b	0.031207314
53	0xbdf14e80	-0.11782551
54	0xbc0030ed	-0.007824165
55	0x3c64fd5d	0.013976422
56	0x3d25f813	0.040519785
57	0x3d427bd1	0.04748136
58	0xbdd8e32c	-0.105902046
59	0xbd6ca922	-0.057778485
60	0xbd993cbc	-0.07482287
61	0xbd14a450	-0.036289513
62	0x3d1ba61a	0.038000204
63	0xbd8271d0	-0.06369364
64	0x3d88c4c3	0.06678154
65	0x3dbfb3f3	0.093604945
66	0xbdcadf6a	-0.09905894
67	0x3c8c8fd4	0.017158426
68	0xbe04ced2	-0.1296952
69	0xbdb1256b	-0.08649715
70	0xbd40cd12	-0.04707057
71	0x3d094a5b	0.033518177
72	0x3bb52c00	0.005528927
73	0xbdcccb3b	-0.09999701
74	0x3c620c58	0.013796888
75	0x3c012f65	0.007884835
76	0x3d9fa98a	0.07796009
77	0x3c875b8e	0.016523149
78	0xbb9582fd	-0.004562734
79	0x3d81136c	0.063025326
80	0x3d41bc47	0.047298696
81	0xbccc8031	-0.02496347
82	0xbe1638c9	-0.146701
83	0x3bb68fdc	0.0055713486
84	0x3d713d98	0.05889663
85	0x3cb0711f	0.021538315
86	0x3c6c5a31	0.0144258
87	0x3cee1a4a	0.02906527
88	0x3e15cbae	0.14628479
89	0x3dd9fb44	0.10643628
90	0xbd6bf310	-0.05760485
91	0x3cd6fe1c	0.026244216
92	0xbd27d743	-0.040976774
93	0xbdca678c	-0.09883031
94	0x3dfde385	0.123969115
95	0xbd46fb8a	-0.04857973
96	0xbd46f7c6	-0.04857614
97	0x3d1eda6f	0.038782533
98	0x3bb8a6ef	0.0056351344
99	0xbd40e95c	-0.04709755
100	0x3cdd1180	0.026985884
101	0x3d5b91d2	0.053605862
102	0xbd53214b	-0.051545423
103	0x3d295a05	0.041345615
104	0x3da8ac9a	0.08236046
105	0xbd3d7b0a	-0.046259917
106	0xbddd396d	-0.10801969
107	0xbd28893f	-0.041146513
108	0x3d1021e0	0.035188556
109	0xbd4c2123	-0.04983629
110	0x3b835df7	0.004009004
111	0x3d02a54a	0.031895913
112	0x3d0b8245	0.03405978
113	0xbdd41060	-0.10354686
114	0xbd594737	-0.05304643
115	0x3cde815b	0.02716129
116	0xbda7ac16	-0.0818712
117	0x3d68bbec	0.05681984
118	0xbd9d3d49	-0.07677705
119	0xbd7af08b	-0.061264556
120	0xbd8c7006	-0.06857304
121	0xbd014233	-0.031557273
122	0x3d2fe30e	0.042941146
123	0xbd749154	-0.05970891
124	0x3cdf6db5	0.027273992
125	0xbd228ec8	-0.039686948
126	0xbd283c19	-0.04107294
127	0x3c0e5d01	0.008689166
128	0x3d8dbf31	0.069212325
129	0xbd928015	-0.07153336
130	0xbd834511	-0.06409658
131	0xbbd73423	-0.0065674945
132	0xbdcdd9e4	-0.10051325
133	0x3da2b2ed	0.07944284
134	0xbd893d48	-0.067011416
135	0xbc523377	-0.012829653
136	0xbe225987	-0.15854464
137	0xbdd9d6fb	-0.106367074
138	0x3d26cc9f	0.040722486
139	0xbd851ab3	-0.06499233
140	0x3cd5da84	0.026105173
141	0xbcb20a29	-0.02173336
142	0xbd823921	-0.06358553
143	0x3daf138d	0.08548651
144	0xbd9aba6c	-0.075550884
145	0xbe009fcd	-0.12560959
146	0xbdb04f87	-0.08608919
147	0xbdd3354d	-0.10312901
148	0x3d547ffe	0.051879875
149	0x3d6a66e9	0.05722705
150	0xbe10247f	-0.14076422
151	0xbde925ce	-0.11384164
152	0x3da8c41e	0.082405314
153	0x3d6bc796	0.057563387
154	0xbd353ff6	-0.04425045
155	0xbd2984ff	-0.0413866
156	0xbd5aa45a	-0.053379394
157	0x3cec3bc5	0.028837094
158	0x3c1d4bab	0.00960056
159	0xbe18bdf4	-0.14916211
160	0xbe61eb88	-0.22062504
161	0xbd8918b8	-0.06694168
162	0x3c1520d2	0.009102063
163	0xbde3895f	-0.11110186
164	0x3d6b9e40	0.057523966
165	0xbd9c5bfb	-0.076347314
166	0x3cc09c91	0.023512157
167	0xbd81c8ad	-0.06337104
168	0xbe0d367f	-0.1379032
169	0xbdfa34b4	-0.122170836
170	0xbd195bd2	-0.037441082
171	0xbdd9d060	-0.106354475
172	0xbc063308	-0.008190878
173	0x3e063d21	0.13109256
174	0xbd145d7b	-0.036221962
175	0x3be26112	0.0069085443
176	0xbdede55e	-0.11616014
177	0x3ca248d4	0.019810118
178	0xbe3429f0	-0.17594123
179	0xbdf09513	-0.11747184
180	0xbd97ec27	-0.07418089
181	0x3c35f910	0.011106744
182	0x3d8f8f5b	0.07009765
183	0x3c4f581b	0.012655283
184	0x3c52da83	0.01286948
185	0x3c0d9f08	0.008643873
186	0xbd828fa4	-0.063750535
187	0xbbb52c6b	-0.0055289767
188	0xb984f18a	-0.00025356963
189	0xbd070fc7	-0.03297403
190	0x3b4061bb	0.0029355127
191	0xbe48c3d4	-0.19605953
192	0xbd9135c4	-0.07090333
193	0x3d882177	0.06647008
194	0xbd051dcc	-0.03249912
195	0xbd6c76bb	-0.057730418
196	0xbd8fb014	-0.07016006
197	0x3dab164d	0.08353863
198	0x3db3a6ad	0.08772025
199	0xbc20ce4d	-0.009814811
200	0xbdd58a9f	-0.104268305
201	0x3cb4703b	0.022026172
202	0x3da3ff7d	0.08007715
203	0xbdaf296e	-0.08552824
204	0xbd91d90b	-0.07121476
205	0xbd7a2d76	-0.06107851
206	0xbdada796	-0.0847923
207	0x3c77775d	0.015104142
208	0x3ae76686	0.0017654456
209	0xbe0ff8ad	-0.14059706
210	0x3d9a1ee2	0.07525422
211	0xbd6e8918	-0.05823621
212	0x3d7e4793	0.062079977
213	0x3dcaccd0	0.09902346
214	0x3d6b688c	0.05747275
215	0xbd72f802	-0.05931855
216	0xbd216a52	-0.039408036
217	0xbdaeace4	-0.0852907
218	0xbd61f38a	-0.055163898
219	0x3d752d4e	0.05985766
220	0x3c36b160	0.011150688
221	0xbdc50c9b	-0.09621545
222	0xbddbd0e2	-0.107332006
223	0x3dcabbe5	0.09899119
224	0x3d293cee	0.041317873
225	0x3d82448d	0.06360731
226	0x3ce7bee7	0.028289272
227	0x3bcb5495	0.0062051513
228	0x3d74be02	0.059751518
229	0xba637c5d	-0.00086778944
230	0x3cd5daf7	0.026105387
231	0xbd2eed3f	-0.042706724
232	0xbde98f4c	-0.11404285
233	0xbd5fb027	-0.05461135
234	0x3d1c4698	0.03815326
235	0x3d454008	0.048156768
236	0xbdc7a1c1	-0.09747649
237	0xbc5be6d2	-0.013421731
238	0x3d1baac9	0.03800467
239	0x3cb26239	0.021775352
240	0xbd182992	-0.03714902
241	0xbe262e93	-0.16228704
242	0xbd2af369	-0.04173604
243	0x3cd2848e	0.025697973
244	0x3dac837c	0.08423516
245	0xbd3824c4	-0.044956937
246	0x3d09ed4c	0.03367357
247	0x3da93713	0.08262458
248	0x3d0331a8	0.032029778
249	0xbdaae43a	-0.08344312
250	0xbd280fe7	-0.04103079
251	0xbde6a3bd	-0.11261699
252	0xbc13e98c	-0.00902785
253	0xbe0fba36	-0.14035878
254	0xbe0a2f51	-0.13494612
255	0xbda96891	-0.082718976

linear3.bias f4 [256]
0	0xbc88a716	-0.016681235
1	0xbc67dd4e	-0.014151884
2	0x3b3ae0e8	0.0028515402
3	0x3cd71516	0.026255172
4	0xbca5acf4	-0.020224072
5	0xbd599b95	-0.05312689
6	0xbc2f97b4	-0.010717321
7	0x3b7225b8	0.0036948752
8	0xbcab9ed2	-0.020949755
9	0x3be0b828	0.0068578906
10	0x3cb7df2f	0.02244529
11	0x3c5971c8	0.0132717565
12	0x3cc43ff5	0.023956278
13	0xbc82ce7a	-0.015967596
14	0x3b59cb01	0.0033232572
15	0x3b9cb5ca	0.004782413
16	0xbc4b66eb	-0.012414674
17	0xbb7e758c	-0.0038827388
18	0xbcd6bbe3	-0.026212638
19	0xbce61f55	-0.028091112
20	0xbd44e2ad	-0.048067737
21	0xbc9d5f70	-0.019210547
22	0xbd0d675a	-0.03452239
23	0xbb8adcac	-0.004237732
24	0xbc3da709	-0.011575469
25	0xbd23270b	-0.039832156
26	0xbc1eb856	-0.009687504
27	0xbc305c0a	-0.010764131
28	0x38cc8d1e	9.753763e-05
29	0x3c8285a6	0.01593287
30	0xbc6f6585	-0.0146116065
31	0xbc781f76	-0.01514422
32	0xbcb601d4	-0.022217669
33	0xbba9c731	-0.005181216
34	0x3c9a16d2	0.01880971
35	0x3c4bdc72	0.012442695
36	0x3d6341a2	0.055482514
37	0xbcc3b4d4	-0.023889937
38	0xbd2bf647	-0.041982915
39	0x3c8f71c1	0.017510297
40	0x3cc9df64	0.024642654
41	0x3d39b52f	0.045338806
42	0xbce224bc	-0.027605407
43	0xbb75911c	-0.0037470525
44	0x3cf34f74	0.029700972
45	0xbd07be0e	-0.033140235
46	0x3bc9d037	0.0061588543
47	0x3c83c621	0.016085686
48	0xbcd3737a	-0.0258119
49	0x3d4f834e	0.05066233
50	0x3bb34e26	0.0054719625
51	0x3cfee78e	0.031116273
52	0xbd317997	-0.043328848
53	0x3c769fdc	0.015052762
54	0x3d2a6782	0.04160262
55	0x3c11174a	0.00885565
56	0x3c1c71e3	0.009548637
57	0xbb939f68	-0.0045050867
58	0xbc53e514	-0.012933034
59	0xbceac014	-0.028656043
60	0xbd07080c	-0.03296666
61	0xbc9da477	-0.019243462
62	0xbc336ebb	-0.010951693
63	0x3c584e4e	0.013202263
64	0xbcccd317	-0.025003
65	0xbc28dd6e	-0.010306699
66	0xbc50059f	-0.012696653
67	0xbc251340	-0.01007539
68	0x3d02636e	0.031833105
69	0xbd713d65	-0.05889644
70	0x3b817ab1	0.0039513935
71	0x3ca9bf79	0.020721184
72	0x3c6cab3b	0.014445121
73	0x3d5f31fd	0.054491032
74	0x3b8bd2ba	0.004267064
75	0xbd00e0e1	-0.03146446
76	0xbd03856f	-0.032109674
77	0xbc9be404	-0.019029625
78	0xbaaf2ee8	-0.001336542
79	0xbcde4723	-0.02713353
80	0x3c8d0946	0.017216336
81	0xbd03f883	-0.03221942
82	0xbcf660f1	-0.030075522
83	0xbc5e4b14	-0.013567705
84	0xbcf82d5c	-0.030295067
85	0xbcef3409	-0.029199617
86	0x3c093ee8	0.008376814
87	0x3cf9925f	0.030465303
88	0xbd6bab67	-0.05753651
89	0xbc3e5239	-0.011616283
90	0xbc072c6a	-0.008250335
91	0xbc889413	-0.01667217
92	0xb9a47713	-0.00031369235
93	0xbd06d7e1	-0.032920722
94	0xbd1af59d	-0.03783189
95	0x3d1ccf38	0.038283557
96	0xbd1f5451	-0.03889877
97	0xbd2cd3e9	-0.04219428
98	0xbcfe2fca	-0.031028647
99	0xbd276b93	-0.040874075
100	0xbc8896ca	-0.016673464
101	0x3ae91a17	0.0017784265
102	0x3b766013	0.0037593886
103	0xbbbfd3ae	-0.0058540916
104	0xbc794a48	-0.015215464
105	0xbcd15eea	-0.025557954
106	0xbc859e7e	-0.016310927
107	0xbca7c3bf	-0.020479081
108	0x3ca30a90	0.019902498
109	0x3d69e426	0.057102345
110	0xbc80f5e0	-0.015742242
111	0xbc748f56	-0.014926752
112	0x3ccb25a9	0.024798231
113	0xbc61df36	-0.013786128
114	0x3b6b7d31	0.0035932774
115	0xbcc7cef9	-0.024390684
116	0xbc8c3253	-0.01711384
117	0x3cec0f6c	0.028815947
118	0xbcfae74f	-0.030627875
119	0x3d449369	0.047992144
120	0xbbbe4607	-0.0058066878
121	0x3b5315e6	0.0032209097
122	0x3ca0e5f5	0.019640902
123	0xbcc04315	-0.023469487
124	0x3bb5b57d	0.0055453167
125	0xbcba3bae	-0.022733536
126	0x3a2cd1f1	0.0006592563
127	0xbd7258f5	-0.059166867
128	0x3d19d810	0.03755957
129	0x3b563398	0.003268456
130	0xbd35f892	-0.04442651
131	0xbc8e117c	-0.017342322
132	0x3c096dfb	0.008388038
133	0x3ccda1fb	0.025101652
134	0x3d0b80b3	0.034058284
135	0xbc979527	-0.018503739
136	0xbc2a84c8	-0.010407634
137	0x3b950991	0.0045482595
138	0x3cc85965	0.02445669
139	0xbca1ff58	-0.019775078
140	0xbcbf4e9e	-0.023352917
141	0xbad8ae35	-0.001653141
142	0x3be41de2	0.00696157
143	0x3c5fa903	0.013651135
144	0x3c0723bf	0.008248269
145	0xb90d5ef2	-0.00013482178
146	0x3d34d72d	0.04415052
147	0x3c208eb6	0.00979965
148	0xbbab8911	-0.0052348454
149	0x3bad230f	0.0052837203
150	0x3d10721b	0.03526507
151	0xbcb64b99	-0.022252845
152	0x3c98eae4	0.018666692
153	0x3d347f88	0.044066936
154	0x3cdc0664	0.026858516
155	0xbc564db4	-0.013080049
156	0xbc901afb	-0.01759099
157	0x3be90276	0.007110889
158	0xbd12655b	-0.03574119
159	0x3d042c72	0.03226895
160	0x3d6f7919	0.058465097
161	0x3c072090	0.00824751
162	0xbd6829fa	-0.056680657
163	0xbd075f1c	-0.033049688
164	0x3c64b883	0.013960007
165	0x39466093	0.00018918728
166	0xbad20794	-0.0016023987
167	0xbc92ed31	-0.017935367
168	0xbd563821	-0.052299622
169	0x3bf1f9fd	0.0073845373
170	0xbc274c37	-0.010211042
171	0x3b56e9f6	0.003279326
172	0x3b827785	0.003981533
173	0xbc54fe1e	-0.013000039
174	0x3bf5c259	0.0074999747
175	0x3d655c50	0.05599624
176	0xbd09f4e3	-0.033680808
177	0x3c02d87c	0.007986184
178	0xbb24839c	-0.002510286
179	0xbd258639	-0.040411208
180	0x3c2804da	0.010255063
181	0x3cd2b589	0.025721328
182	0xbb94e21a	-0.004543555
183	0xbcd98f95	-0.026557723
184	0x3d2e7fad	0.04260223
185	0x3cef8be8	0.029241517
186	0xb94a8060	-0.00019312045
187	0xbd0321b2	-0.032014556
188	0x3d322ed1	0.04350168
189	0xbd8dba80	-0.06920338
190	0xbcf2e37a	-0.029649485
191	0x3b2d1328	0.0026409123
192	0x3cccf4ab	0.02501901
193	0xbd066c26	-0.032817982
194	0xbbb76281	-0.0055964594
195	0x3c3d64a5	0.01155964
196	0xbca4794b	-0.020077368
197	0x3cca7dc7	0.024718178
198	0x3d1a7520	0.037709355
199	0xbcb2af3c	-0.021812074
200	0xbbecc743	-0.0072259023
201	0xbcfe15cc	-0.031016253
202	0x3c40cc63	0.01176748
203	0x3c82a66e	0.0159485
204	0x3d4b2822	0.04959882
205	0xbb75fb94	-0.0037533985
206	0xbcc532da	-0.0240721
207	0x3d792c0d	0.060833026
208	0xbb58c562	-0.0033076634
209	0x3c14fbdd	0.009093252
210	0x3c8d25dd	0.017229969
211	0x3c704dec	0.0146670155
212	0xbd043867	-0.032280352
213	0x3ccdbe93	0.025115287
214	0x3c8e02f1	0.017335387
215	0x3b43e67c	0.0029892018
216	0x3ab67013	0.0013918899
217	0xbd23a6fb	-0.039954167
218	0x3cb52d61	0.022116365
219	0xbd0e1107	-0.034684207
220	0xbcaf4934	-0.02139721
221	0xbcc5674f	-0.024097113
222	0xbca1e46e	-0.019762244
223	0xbce59f6f	-0.028030125
224	0x3c74caf8	0.01494097
225	0xbc97853c	-0.018496148
226	0x3c660d20	0.014041215
227	0xbacfe357	-0.0015860599
228	0x3b2063a4	0.0024473453
229	0x3c0b4966	0.008501386
230	0xbc9d5617	-0.01920609
231	0x3d3111b6	0.04322978
232	0xbd287c34	-0.041134074
233	0xbca09228	-0.019600943
234	0xbc4446b0	-0.011979744
235	0x3d21522c	0.039385006
236	0x3a8c3325	0.0010696395
237	0xbd30acd2	-0.043133564
238	0x3d2002aa	0.03906504
239	0x3b9de317	0.004818331
240	0xbcd892ea	-0.026437242
241	0xbccc6b14	-0.024953403
242	0x3cdf40ab	0.027252516
243	0x3cce016f	0.025147168
244	0xbc32bc3b	-0.010909135
245	0xbc466f95	-0.012111564
246	0x3cea0188	0.028565183
247	0x3c5a45b5	0.0133222835
248	0xbccecd64	-0.025244422
249	0xbca7d4ff	-0.020487307
250	0xbc291648	-0.010320254
251	0xbd3dc0d5	-0.046326477
252	0xbd11c05d	-0.035583843
253	0x3ca5c63c	0.020236127
254	0xbd251c39	-0.04031012
255	0x3cad5015	0.02115635

linear4.weight f4 [256, 256]
0	0xbb9ba71a	-0.0047501447
1	0xba79e444	-0.00095326104
2	0xbda26528	-0.0792945
3	0x3dba7478	0.09104246
4	0x3d43792a	0.047722973
5	0x3d8fcefc	0.07021901
6	0x3d4a40ce	0.04937821
7	0xbd567a8c	-0.052362964
8	0x3cdc9314	0.026925601
9	0xbbb86a58	-0.0056279115
10	0xbd5898a1	-0.052879933
11	0xbdd10d47	-0.102076106
12	0xbd48a97e	-0.048989765
13	0xbde954b4	-0.11393109
14	0xbe053823	-0.13009696
15	0xbd9cd5d8	-0.07657975
16	0xbe278422	-0.16358998
17	0x3d29dc3a	0.04146979
18	0xbd2b6b37	-0.041850295
19	0xbca66d97	-0.020315928
20	0xbe440894	-0.19143897
21	0xbd8ae6fa	-0.067823365
22	0xbd6d3704	-0.057913795
23	0xbd36db60	-0.044642806
24	0xbc93ab6f	-0.018026082
25	0x3db1c428	0.08679992
26	0xbd06dfc5	-0.032928247
27	0xbd66c1cc	-0.056337163
28	0x3db2e4a7	0.08735018
29	0x3dc3ab8c	0.09554204
30	0x3d32df1c	0.043669805
31	0x3c6c31fb	0.014416213
32	0xbd739a59	-0.05947337
33	0xbd4ce627	-0.050024178
34	0x3d444627	0.047918465
35	0xbd23ce64	-0.03999175
36	0xbc0b303c	-0.008495387
37	0x3d842bff	0.06453704
38	0x3cc5c747	0.024142874
39	0xbde41209	-0.111362524
40	0xbe1731c0	-0.14765072
41	0xbdae8069	-0.08520586
42	0x3d976921	0.073930986
43	0xbd2ba07f	-0.041901108
44	0x3dc92ab0	0.09822595
45	0xbd99ea80	-0.075154305
46	0x3d5806af	0.05274075
47	0xbd7ba04a	-0.06143216
48	0xbd36b00e	-0.044601493
49	0xbcc3fc47	-0.023924006
50	0x3dba4401	0.09095002
51	0x3c953a56	0.018216293
52	0x3d6c59e4	0.057702914
53	0x3db7a64a	0.08967264
54	0xbda9eb03	-0.08296778
55	0xbd2cadfa	-0.042158104
56	0x3d54032c	0.051760837
57	0x3cd381e5	0.025818774
58	0x3d89e82c	0.067337364
59	0xbdbc8274	-0.092045695
60	0xbd3401f3	-0.04394717
61	0xbc9a58c4	-0.018841155
62	0x3d9aa1d8	0.075504005
63	0x3d8aa143	0.067690395
64	0x3d680d10	0.056653082
65	0xbdc220eb	-0.09478935
66	0x3c7d1cee	0.015448792
67	0x3b91e03d	0.00445178
68	0x3d72ecfe	0.059308045
69	0x3d5b3f44	0.05352713
70	0x3ddb3ae0	0.10704589
71	0x3db92ea4	0.09042099
72	0xbd7fd70a	-0.062460937
73	0x3bf2c286	0.007408443
74	0x3d1c6c26	0.038189076
75	0xbd7ee8db	-0.062233787
76	0xbd3eef85	-0.046615142
77	0x3d1df9b3	0.03856821
78	0x3d8190ef	0.06326472
79	0xbbe702ba	-0.0070498856
80	0x3d947077	0.072480135
81	0x3b6b5b91	0.0035912732
82	0xbdb3fa9b	-0.087880336
83	0xbdd2a006	-0.10284428
84	0xbcbd115f	-0.023079572
85	0x3d8ab9ef	0.06773745
86	0xbcb5f95e	-0.022213634
87	0x3db7c3ae	0.0897287
88	0x3cc44336	0.02395783
89	0xbcd0f30d	-0.02550652
90	0xbd9d3b68	-0.076773465
91	0xbd384d1d	-0.044995416
92	0x3de41fb8	0.11138862
93	0x3bf9ecd4	0.007627109
94	0xbc4c0f3a	-0.012454802
95	0x3e0e5d70	0.13902831
96	0x3d5a6daf	0.05332726
97	0x3d984d78	0.07436651
98	0xbd872335	-0.06598512
99	0x3cc395ef	0.023875205
100	0x3db9b6d3	0.09068074
101	0x3cadc49f	0.02121192
102	0xbd2dc8d4	-0.042427853
103	0xbe022f05	-0.12713249
104	0xbdf03fa2	-0.11730887
105	0xbde608b8	-0.11232132
106	0x3bd0ae15	0.0063684084
107	0xbdb1e69c	-0.086865634
108	0x3da04b89	0.07826907
109	0xbd4ba287	-0.049715545
110	0xbd4f8afe	-0.050669663
111	0xbcb68051	-0.022277983
112	0x3d215a14	0.039392546
113	0x3d58f934	0.052972034
114	0xbd9c2d09	-0.07625777
115	0xbe0eaeb6	-0.13933834
116	0xbd0d5af8	-0.034510583
117	0xbcf58eb7	-0.029975278
118	0x3d94dc97	0.07268637
119	0xbd3e976f	-0.046531137
120	0xbc078937	-0.008272461
121	0xbd90e125	-0.07074193
122	0xbd7256ae	-0.059164695
123	0xbd41cc6b	-0.04731409
124	0x3d2712a9	0.04078928
125	0xbd53d309	-0.05171493
126	0x3dd8544b	0.105629526
127	0x3dd4e8e8	0.10395986
128	0xbd02161d	-0.03175937
129	0xbd8ac75b	-0.06776305
130	0x3d9b6c4a	0.07589014
131	0xbe1f6a78	-0.15567958
132	0xbd2c9428	-0.04213348
133	0x3dbe620a	0.09296043
134	0x3d72a5f6	0.059240304
135	0xbb996898	-0.004681658
136	0x3d8fcff4	0.07022086
137	0xbd95d972	-0.07316865
138	0x3d3372bd	0.043810595
139	0xbde605d1	-0.11231578
140	0xbcfc1a05	-0.030774126
141	0xbcadab7b	-0.021199932
142	0x3dff11c1	0.12454558
143	0x3d4992eb	0.049212378
144	0x3c7ec010	0.015548721
145	0xbe0bdb5f	-0.13657902
146	0xbdc7acf8	-0.09749788
147	0xbc406757	-0.011743388
148	0x3b6d4535	0.003620458
149	0x3db570a5	0.08859376
150	0xbd88ec6d	-0.0668572
151	0x3dae47cf	0.0850979
152	0xbd98539f	-0.074378245
153	0x3cf8436e	0.03030559
154	0xbd90d7f5	-0.070724405
155	0xbd1e0f9b	-0.0385891
156	0xbc5535a7	-0.01301328
157	0xbd404964	-0.04694499
158	0x3dc06b30	0.093954444
159	0x3d158d18	0.03651151
160	0xbd6d9d9b	-0.058011632
161	0xbdad475d	-0.08460877
162	0xbdbe35ef	-0.09287631
163	0x3d0d066c	0.034429953
164	0xbdd76565	-0.10517386
165	0x3e0dc2db	0.13843863
166	0x3ddb2596	0.10700528
167	0xbdc6717d	-0.09689615
168	0x3d1d8b11	0.038462702
169	0x3c9428d5	0.018085876
170	0x3d3423cc	0.04397945
171	0xbd189e60	-0.037260413
172	0xbc03eb92	-0.00805177
173	0xbdcf1cb3	-0.10112896
174	0xbd91ecf1	-0.07125271
175	0x3cbd43e5	0.023103664
176	0xbd06aeff	-0.032881733
177	0x3e3f5d5d	0.18687959
178	0x3c7a0e1e	0.015262155
179	0xbd43317f	-0.047654625
180	0xbd9eb1ff	-0.07748794
181	0x3da5377f	0.08067226
182	0x3dd6ea81	0.10493947
183	0x3daaf976	0.08348362
184	0xbda1e03e	-0.07904099
185	0xbca11339	-0.019662486
186	0xbc63fdcd	-0.013915491
187	0xbda4bb3c	-0.080435246
188	0xbdb08e2e	-0.086208686
189	0x3ced6414	0.028978385
190	0xbd49244e	-0.04910689
191	0x3d358c79	0.04432342
192	0xbc76407b	-0.015030022
193	0x3d52a02d	0.051422287
194	0x3d42512e	0.0474407
195	0xbe1df40f	-0.15425132
196	0x3c0ee398	0.008721255
197	0x3acd391a	0.0015657276
198	0xbd719129	-0.058976326
199	0x3d5b3653	0.053518604
200	0xbb455452	-0.0030110073
201	0xbd7e7fd2	-0.062133618
202	0x3d20fd36	0.03930398
203	0x3d830aad	0.063985206
204	0xbd8bd127	-0.06827002
205	0x3d154454	0.036442116
206	0x3c0baecc	0.008525562
207	0xbd8897d3	-0.06669583
208	0x3d89ce07	0.0672875
209	0xbd9798d8	-0.074021995
210	0x3a65ddd6	0.0008768713
211	0xbceec7a0	-0.029147923
212	0x3cc43b50	0.023954064
213	0xbd938df6	-0.07204811
214	0x3d8178ee	0.06321894
215	0x3c7df2ce	0.015499784
216	0xbc874270	-0.016511172
217	0xbdc70040	-0.097168446
218	0xbc7d4e8f	-0.015460624
219	0x3cb9462e	0.022616472
220	0x3b5b3e58	0.0033453908
221	0xbc75e3eb	-0.015007953
222	0xbd97cb4a	-0.07411821
223	0x3d242f25	0.040084023
224	0xbde04283	-0.10950186
225	0xbbef5f4f	-0.007305063
226	0x3d96b90e	0.07359515
227	0x3db8fa62	0.09032132
228	0x3db690c5	0.08914331
229	0xbbf46836	-0.007458712
230	0xbd98b65c	-0.07456657
231	0xbdaca5b8	-0.08430046
232	0xbccda575	-0.02510331
233	0xbd39b27d	-0.045336235
234	0x3d26876f	0.040656503
235	0xbd85c386	-0.06531434
236	0xbd2d2e5b	-0.042280536
237	0xbcdab2c4	-0.02669657
238	0xbd38309e	-0.04496824
239	0x3c33a729	0.010965147
240	0xbdb78aaa	-0.08961995
241	0x3c4ec820	0.012620956
242	0xbe0f9883	-0.14023022
243	0xbc2e2cad	-0.010630769
244	0x3dc63b05	0.09679226
245	0xbdae7067	-0.08517533
246	0xbd93e081	-0.07220555
247	0xbd44edcd	-0.048078347
248	0xbb9ae5bf	-0.004727095
249	0x3cde39ff	0.027127264
250	0x3c98141e	0.01856428
251	0x3d8c6b7e	0.0685644
252	0x3dbeca85	0.09315971
253	0x3daad4b7	0.083413534
254	0x3de1be33	0.11022606
255	0x3db7b033	0.08969154
