hydrone_aerial_underwater_ddpg/scripts/Models/sac_stage_1_air2D_tanh_5layers/760_policy_net.pth (torch_old, 820982 bytes, 12 tensors)

linear1.weight f4 [256, 24]
00000000: 61a5 113d 33ce c33d e2df 62bc 3edd 81bc
00000010: 0280 c33c c698 a83c 01e8 fa3d 0f3b f13c
00000020: bc37 b3bd 3bd6 4ebe aa08 1fbe 9021 00be
00000030: eea2 6ebc cc15 0d3e f013 753e 6d61 423e
00000040: 6d4d 90bd 4580 3abd 2a81 7bbe e4ff a2be
00000050: fc2e 963d 24e7 733f 2654 96bf 39f2 ca3c
00000060: 3025 e83d d381 23bd b01a 0c3e fa66 b9bc
00000070: 3843 4abc f58c 83bd 15b8 243d 2a49 cebd
00000080: 23a8 423e 4c26 20bd 0fc7 adbc 7b2d 56be
00000090: 1dfa 86be f765 5fbe 330f 37bc 1f68 2d3d
000000a0: 30d0 353d 729b c73d c6f4 36bd f974 6abc
000000b0: f7ce 33bd a628 cdbb 8008 c13f 3914 513f
000000c0: 2fb5 cbbd 83d6 ee3d d9ff f33c a783 9d3d
000000d0: 477c 613c e61e 8e3d 9646 763e 1db8 1e3e
000000e0: 4105 823e d86e 7e3e 1f4d 223e b147 893e
000000f0: e78e c0bb 09b4 dfbd eae9 e7bd 30fc 583c
00000100: b609 42be 68a5 4abe 2d3d 04be dee9 2cbe
00000110: eea7 113f d037 a0be cf2c 2cbf 8440 2cbf
00000120: e3eb 113e 98d6 07be 391d 033e a59c 193e
00000130: 6fba f03d 66d5 ac3d f5d4 1dbb 482a 18be
00000140: e0ac 86be 443e f23c 8be4 88bd 6216 683c
00000150: 8300 713e cf57 f4bd e8eb 62bd 2e8a 81be
00000160: 04e8 78be c959 dabd 3c8e 973d 116a 133d
00000170: 2998 f43e a423 943f 5eb6 243f f07d d13d
00000180: 82d1 d83c b006 033e db24 a3bb f4ec 53bd
00000190: 6a9d 2f3d 11e5 353e 049a a63d 32db 9ebd
000001a0: 23c2 853d 310e 46bd 4f37 023c bd65 6cbd
000001b0: 0bf0 ef3d a3df c23d ad5d b13c 4746 01be
000001c0: 6b9d f7bd ef5f 4fbd 231f 2abd 7dec de3d
000001d0: 1c15 9bbf 7d6a 363f 1ee6 aabe 2ed3 92bf
000001e0: 2f62 01bd 9ada a93d 0ccf 98bd abd1 bebb
000001f0: a7d2 c13c 5c42 1abe 8ba8 90be 9eb5 13bd
00000200: 83f3 95be 3b16 8fbe 9485 833c db8d c03b
00000210: ca10 233d 11e7 1b3e c7ae 823c d6ab d3bd
00000220: 4bcc c2bd 6228 bcbd c408 093e cbdf 643e
00000230: fe48 43bf a9ea 95bf 6d79 623f f775 11be
00000240: 96d5 c53e 7565 1ebe 85ff 08be 6dd6 af3d
00000250: b95f 693d 41e3 073e dd8e b03d e9ca 0f3e
00000260: 300d 283e 3e0b 70bd 80e5 3bbe 8499 39be
00000270: 1cfa 1c3b 5f8f dcbd b78d bbbe 0f0f f0bd
00000280: a503 c8bd e3b2 b5be 9f51 cbbd 35e6 03be
00000290: a62d febe 8595 2cbf 124e 213e a289 07be
000002a0: 6c82 8ebd 7a8e 77be 04af 55be 4642 e1bd
000002b0: 6cb2 8fbd 999e 45bd 8f98 21be 539c 1a3e
000002c0: 1826 893e 5f86 723e 8edf 903e 167c 8e3e
000002d0: dff4 ad3e bc1d 3e3e 2d9a 5cbd 9ff1 69bd
000002e0: 25cc 34be b970 8b3d d134 75bd 0c03 06be
000002f0: 34b4 bb3e 04cb 283e fa2d 19be d47d f3be
00000300: d9d4 903d 30f1 643e 3b12 9b3d 7d8a 40be
00000310: 4d8a 84be a50e 65be 691c 4abe 955e 71be
00000320: 7155 96be e185 1bbe ece5 aabd 065c 33be
00000330: 114b 983d 48cc 90bb 35e4 e03d 8f38 3e3e
00000340: 138f 9e3b 69ab 183e c28f f8bd 48e4 c4bd
00000350: 2bac 5abd ab74 4c3e 4fdb 94bf aca5 783f
00000360: fcff 1b3e 9050 0f3e 0b34 4ebd 795a 2bbc
00000370: fe4e 163e f89a 423e f597 9cbd 8dc8 e2bc
00000380: 9032 bf3d a3ce 04be bf5a c6bd 48c4 6fbe
00000390: 9c30 e9bd 8258 b33a 2d16 03be de90 ec3d
000003a0: 0b53 bebd 2931 a13c d406 aebd 653d d03d
000003b0: 5fe5 67be 256e 873f 7956 8b3f 3a31 5cbf
000003c0: 30f2 61bd 292e 163e ef82 f93d 9081 cf3d
000003d0: 63c6 043e f229 3c3e 364e 083d 3d3e 003e
000003e0: bd5f 293e 90e4 0f3e 0dc7 ab3c b1f7 293d
000003f0: 4721 573c a1db 85bb a602 1bbe 428e 80be
0.03555811 0.09560814 -0.013847323 -0.015852567 0.02386475 0.02058066 0.122512825 0.029447107
-0.08750865 -0.2019891 -0.15530649 -0.12512803 -0.014565213 0.13777846 0.23933387 0.18982477
-0.07046018 -0.045532484 -0.24560991 -0.31835854 0.0733318 0.9527457 -1.174443 0.024773704
0.11335218 -0.039918732 0.13682055 -0.02263211 -0.012345128 -0.0642337 0.040214617 -0.10072549
0.19009452 -0.039099023 -0.021213083 -0.20915787 -0.26362696 -0.2181624 -0.011173057 0.042335626
0.044387996 0.09746446 -0.044667028 -0.014310115 -0.04389855 -0.006260949 1.5080719 0.8167148
-0.099466674 0.116620086 0.029785084 0.07691126 0.01376254 0.06939487 0.24050364 0.15499921
0.25394633 0.24846971 0.15849732 0.2681251 -0.0058764103 -0.10923011 -0.113239124 0.01324372
-0.18949017 -0.1978966 -0.12913962 -0.16886088 0.56896865 -0.31292582 -0.6725587 -0.67285943
0.1425014 -0.13265455 0.12804116 0.15001161 0.117543094 0.0843914 -0.002408323 -0.14859879
-0.26303768 0.029570706 -0.06684216 0.014165493 0.23535351 -0.11930811 -0.05540076 -0.25300735
-0.24307257 -0.106616564 0.07400176 0.035989825 0.4777234 1.1573377 0.6434077 0.10229099
0.026467089 0.1279552 -0.0049787587 -0.051739648 0.04287473 0.17763163 0.08134845 -0.07756652
0.06531169 -0.048353378 0.007947757 -0.057714213 0.117157064 0.095153116 0.021651113 -0.12624465
-0.12090572 -0.0506286 -0.0415336 0.1088495 -1.2115817 0.7125624 -0.3337869 -1.1470697
-0.031587776 0.08293648 -0.07461366 -0.005823334 0.023660017 -0.15064377 -0.28253588 -0.036061876
-0.29287347 -0.27946648 0.016054906 0.0058762855 0.039810933 0.15224864 0.015952481 -0.103355095
-0.09511622 -0.0918739 0.1338225 0.22350995 -0.7628325 -1.1712238 0.8846653 -0.14205156
0.38639516 -0.1546839 -0.13378723 0.0858582 0.056976054 0.13270284 0.08620999 0.14042248
0.1641128 -0.05860447 -0.18349266 -0.18124968 0.0023952788 -0.10769533 -0.36631557 -0.11721622
-0.0976632 -0.35488042 -0.09927677 -0.12880786 -0.49644202 -0.6741565 0.15752438 -0.13236097
-0.0695847 -0.24175444 -0.20867544 -0.10998969 -0.07016453 -0.048246954 -0.15780853 0.15098695
0.26786876 0.23684071 0.2829556 0.27829045 0.33975884 0.1856603 -0.05385797 -0.057115193
-0.17656 0.068086095 -0.059864823 -0.130871 0.36660922 0.16483694 -0.14958945 -0.47556937
0.070718475 0.2235763 0.075718366 -0.18802829 -0.25886765 -0.22368868 -0.197374 -0.23571236
-0.29362062 -0.1518779 -0.08344635 -0.17515573 0.07436193 -0.0044188835 0.10981027 0.18576263
0.004838833 0.14909138 -0.121367946 -0.09613854 -0.05338685 0.1996638 -1.1629428 0.97127795
0.15234369 0.13995576 -0.0503426 -0.010458582 0.1467857 0.19004428 -0.07646171 -0.02768352
0.09335816 -0.1296945 -0.09685277 -0.23414719 -0.11386225 0.0013682994 -0.12801428 0.11551069
-0.09293183 0.019676762 -0.08497396 0.1016796 -0.22646092 1.0580488 1.0885764 -0.86012614
-0.05516261 0.14666046 0.12183177 0.10132134 0.12966304 0.18375376 0.033277713 0.12523742
0.16540428 0.14052033 0.020968938 0.041495983 0.0131304925 -0.0040850197 -0.15137729 -0.25108534

linear1.bias f4 [256]
00000000: 1191 6ebd 12e6 2c3d ae5b 56bc 8403 b03c
00000010: 7841 57bc a840 813d 0523 2ebd a7d8 57bd
00000020: 74d7 cc3d 4345 3d3d de4e cdbc 4510 18bc
00000030: eea6 893d 6ace 12bc 3623 f23b cfd5 fabb
00000040: 2765 6f3c e048 833d 6ecc 693c d150 dabc
00000050: ba3a 37bd bfa3 ab3c c0af 34ba da15 97bc
00000060: 343f 80bb 0000 0000 ecc6 e7bc 7b5f 803b
00000070: 22eb e93a 4538 873c 0000 0000 0000 0000
00000080: 30a8 853c e945 c33d 1d00 473d 2ed7 7ebc
00000090: 7329 1abc 85e1 acbd 9532 133e bd0b 36bd
000000a0: ddd4 933c 40d4 8d3c 7173 2cbd 15f9 9bbc
000000b0: b7a5 15bd c5d4 8a3d 72cb 9cbd 63fa a3bb
000000c0: 0ba9 39bd acc3 9c3c 968d 9bbc 59bd 273c
000000d0: 2a02 95bd 8561 2d3c 5a10 56bd e57e e5bc
000000e0: 6d0b adba afee c3bc 73b4 8abd d99d b8bc
000000f0: 24f2 d73c e66d c7bc 77c0 b63a 4481 4cbd
00000100: 746d abbc c5de f63c 5494 05bd 1c74 44bc
00000110: d642 80bd 8305 af3a 58c1 1e3e d324 14bc
00000120: 8188 2d3d 4b5d 8abd e32a 68bd cef5 2abd
00000130: 79db cf3d 1460 c1bc 4c19 b83c 6bdf 08bc
00000140: 00ed 553e 2749 bcba df8f 5bba b5ed c6bc
00000150: 8159 1bbc 3974 1abb 7673 d0bc 22a4 ccbc
00000160: 173d cd3c 1cc8 863a ba5b 75bd b3e4 dfbc
00000170: 6c31 c3bd 348f 7c3d 41e5 24bc d09c bfbc
00000180: 03ca b3bc c8cb a6bd f5ae 1abc da3a 45bd
00000190: 9ee2 793b 38cb 08bd 3f4c a6bc 21df bbbc
000001a0: c7b5 2abb 70c0 37bc 22c0 1e3d 41b5 bcbc
000001b0: 9f3d eabb f336 b9bc 087a d43d 4b31 4abd
000001c0: fa1b d0bc 50da 693d c32a a53c dffc e2bb
000001d0: 78b5 c43c 7008 dfbd 0716 b5bc 2e42 8c3d
000001e0: 92a0 7a3d aa05 d23d 7d56 a9bb 2418 8abb
000001f0: b08e cd3d 0864 70bc 2d84 41bc beb9 a2bd
00000200: 0000 0000 a938 293c 1acb 303d 8b26 013d
00000210: 5f79 cc3c 3bde d0bc c324 4dbb 4f0c 86bc
00000220: c0fe dfbd f9ab 07bd 00b5 57bd 21bd 10bc
00000230: 0ea5 bdbc 7bd0 3bbc bce6 583d a126 b3bc
00000240: 698d 84bc 2ef9 f5bc 95f4 7839 b015 a1bc
00000250: 42d9 d0ba c89a 77bd 0000 0000 5d8f e6bb
00000260: b6f8 12bd 6e43 183e a618 19bd ed83 a3bd
00000270: 4576 ae3d 2d08 44bd f04f 5fbb 2e84 a5bb
00000280: 7860 44bd 1147 38bc a3ed 16be 8744 933c
00000290: f2a4 5abd 4f95 2e3c 2497 fabc 694f 0abc
000002a0: b437 e5bb 619f 013e c6d7 3cbc 85d6 10bd
000002b0: eefa 04bd ac4d 88bc f001 423a ab31 e6bd
000002c0: a391 f8bc f6bc 1e3b 2c50 063c e283 d0bc
000002d0: b8c2 29bd 834f 523b 4237 b3bb 8eaf 82bd
000002e0: f61f 88bd 33d1 ecbc ba0b 6dbd 34ec 213e
000002f0: 68df 0ebd 848f 313c 65ed 97bc 34f2 a9bd
00000300: 2bbf 17bd 5f0d 76bd f542 0fbd a30c eabc
00000310: 0000 0000 d4dc acbd b0b2 79bd 69f4 04be
00000320: cacf 0b3b 82d0 98bc 0000 0000 360e e73c
00000330: 95ce 92bd 33a9 fdbd a64c 15bd ee4e 0fbd
00000340: 2971 f0bc 6037 17bd 420d 66bc f140 85bd
00000350: be10 ee38 f1bb 8bbd 122c abbc 74a4 5a3d
00000360: 17ee d6bc a5b9 473d 0000 0000 2a0d ef3d
00000370: f4e0 343c f5ab 00bd 3125 30bd 9ce7 a8bc
00000380: da17 60bb 31be 1a3d aefd d03d ae62 01bd
00000390: bab5 33bb a655 f5bc cba7 313d b0ce 82bc
000003a0: fbe1 7b3d add5 1ebc c6e6 03bd 3e22 eb3d
000003b0: 0dc1 283e 5d87 2ebd 5301 9cbd 3c5a 9d3d
000003c0: 5bf9 cfbd 6df7 933d d802 f6bc 76ce 513d
000003d0: da25 35bc 83bc 6f3b ba8d 42bd dff0 c3bc
000003e0: 26a5 323d 1ff1 a8bc ac8b 743c 5461 0dbd
000003f0: 0649 8d3d 002b 453b 41ca 81bc 0774 3bbc
-0.058243815 0.0422116 -0.013083382 0.021486051 -0.013138168 0.0631116 -0.042513866 -0.05269685
0.10002032 0.04620863 -0.02506202 -0.009281223 0.067212924 -0.008960346 0.0073894514 -0.0076548825
0.014611519 0.06410384 0.014269931 -0.026649864 -0.04473374 0.020952104 -0.0006892644 -0.018443037
-0.0039137844 0.0 -0.028293096 0.003917632 0.0017846564 0.016506324 0.0 0.0
0.01631555 0.09534819 0.048584092 -0.0155542325 -0.009409296 -0.08441452 0.14374764 -0.04444479
0.018045837 0.017313123 -0.04210228 -0.01903967 -0.03653499 0.06778864 -0.076559916 -0.0050042137
-0.045327228 0.019136272 -0.018988412 0.010238015 -0.072758034 0.0105823325 -0.052261688 -0.02801461
-0.0013202258 -0.023917524 -0.06772699 -0.022536205 0.026360579 -0.024344396 0.0013942857 -0.049927965
-0.020926215 0.030135522 -0.03261216 -0.011990573 -0.06262748 0.0013353083 0.15503442 -0.009041983
0.04236651 -0.067560755 -0.056681525 -0.041738324 0.10149283 -0.023605384 0.022473 -0.008354048
0.2089119 -0.0014365063 -0.00083756255 -0.02428327 -0.009481789 -0.002356781 -0.025445681 -0.024980608
0.025053544 0.0010283026 -0.05990193 -0.027330732 -0.09530911 0.061660007 -0.010064424 -0.023390204
-0.021946913 -0.08144337 -0.009441127 -0.04815183 0.003812946 -0.03339693 -0.020300029 -0.022933545
-0.002604829 -0.011215314 0.03875745 -0.023035647 -0.007148459 -0.02260921 0.10374838 -0.049363416
-0.025403965 0.057092965 0.020161992 -0.0069271172 0.024012312 -0.10890281 -0.02210523 0.0684856
0.061188288 0.102549866 -0.005167781 -0.0042143036 0.10036981 -0.014672287 -0.011811298 -0.07945584
0.0 0.01032845 0.043162443 0.031530898 0.024960218 -0.025496593 -0.003130243 -0.016363291
-0.109372616 -0.03312299 -0.05266285 -0.008834154 -0.023149993 -0.01146328 0.05295442 -0.021869006
-0.01618071 -0.030026045 0.00023742237 -0.019663662 -0.0015933888 -0.060450345 0.0 -0.007036133
-0.03588172 0.14869472 -0.037377022 -0.07984147 0.08518652 -0.04785936 -0.0034074746 -0.0050511574
-0.047943562 -0.011247412 -0.14739089 0.017977012 -0.05337996 0.010655715 -0.030589648 -0.008441784
-0.0069951657 0.12658454 -0.011526054 -0.03536083 -0.032465868 -0.0166386 0.00074008014 -0.11239942
-0.030342882 0.0024221516 0.008197825 -0.025453512 -0.041445464 0.003209085 -0.0054692337 -0.06381141
-0.06646721 -0.028908348 -0.05787251 0.1581276 -0.034881026 0.010837439 -0.018545816 -0.0829815
-0.037047546 -0.060071345 -0.034975965 -0.028570479 0.0 -0.08440557 -0.060961425 -0.1298386
0.0021333569 -0.018654112 0.0 0.028205018 -0.07168309 -0.12385788 -0.03645005 -0.034987383
-0.029350834 -0.036918044 -0.014041247 -0.06506527 0.00011351843 -0.06822956 -0.020895038 0.05337949
-0.026236577 0.04876103 0.0 0.11672433 0.011039961 -0.03141399 -0.04300422 -0.020618252
-0.0034193904 0.037779037 0.102046356 -0.03158825 -0.002742155 -0.029948067 0.04337291 -0.015967697
0.06149481 -0.009694499 -0.032202505 0.114811406 0.16479893 -0.04260956 -0.0761744 0.076832265
-0.10154983 0.07224927 -0.030030653 0.051222287 -0.011056388 0.0036580868 -0.047498442 -0.023918567
0.04361453 -0.020622788 0.0149258785 -0.034516647 0.06898694 0.0030085444 -0.015843512 -0.011441237

linear2.weight f4 [256, 256]
00000000: 1a05 99bd 9904 d63d 84e1 65be 68f2 b2be
00000010: 95b4 be3d b852 9e3b 6c83 83be feda 8abd
00000020: 7250 81bd 1eca 343e 32ac 69be 862f 1dbd
00000030: ff91 b2bd 6301 123d f999 cebd ab52 243d
00000040: f3e8 b0be eb61 8cbe c814 2abd a5d4 6fbe
00000050: 3a97 82bd ce7d efbe 2b2d b23e a532 fb3c
00000060: edee 0fbe a5bc 9b3d d65a 9cbe 842f 27be
00000070: 74a7 c53e 0d4f 27be 0f51 bc3d f09c 113c
00000080: 7187 cabd c64b 3b3e ebc1 163e 7cf3 6e3c
00000090: fa24 fcbc 8a85 7bbd 6e30 6e3d 59a0 98be
000000a0: 66fb 3dbf 7bc5 02bd 8170 283d f468 babc
000000b0: 40c2 57bd 960c 683e 9e0c 06be edd3 adbc
000000c0: b059 78bd 1aba e4bd f13d 49be 793a d73c
000000d0: fa1f c8bd 451a 843d d77d 4b3e cd57 d23d
000000e0: 9e59 9bbe d331 043d 7314 1f3e 2a07 4d3e
000000f0: 58d8 b03d 5209 e53c 4aa6 093d 96dd 833d
00000100: fa84 373c 4253 6fbd fa9a 33be d79f 66bd
00000110: e62f 61be fa9e 3e3d 37d6 58be be6e 703d
00000120: 98c6 863c 30cb ac3e ccff 8b3c 05f3 e33c
00000130: f618 12be 75ce a4bd 0d7d 89be ac39 37be
00000140: 51b4 e7be a1cd c03c f19b 993d 8bb1 2ebe
00000150: de2b 59be d2f8 133e 15d3 953d 317d ddbe
00000160: 6e6a 15bf 35ac 66be de86 dbbe 9000 98be
00000170: 4ff8 01be 48eb 15bf ec7f 633e 6e20 49be
00000180: baf4 01bd 7869 86be 9cdc 08bb 3a88 2dbe
00000190: d776 463c cb99 cf3d 5558 96be 1dd8 26be
000001a0: 13d4 c1be d3d0 71be b31f 353c 920a f7be
000001b0: 2fa2 15bf 6226 c4bd 0c8e 873d 0d5c f4bd
000001c0: 677f 2f3e 9c5f bb3b 7c3a 08be dd13 44bc
000001d0: 017a 1f3e 872c 96be 0839 7b3d 629c cfbd
000001e0: 1a0c 6cbd b9d4 433e 91b3 90be 5305 b8be
000001f0: 3893 5d3e 2120 143e 3157 8ebd b2a8 b3bd
00000200: 4005 6abc 4330 443e 8346 fbbe 85b4 b9be
00000210: 1b12 1abe 7e26 20be d105 ec3d 8f21 23bd
00000220: e97d 5cbe 5f3b 84bd b9b1 3cbe 2b24 5e3d
00000230: 455e 35be 1438 8cbe 72d3 e23b f1e2 b9be
00000240: 9a93 b53d 5d16 5bbe 792f 903c dd17 fdbd
00000250: 02cc 63bf 07dc 14be baa5 10bd bb57 bdbd
00000260: d521 483e c217 d8be 0eff 88bc 2271 91be
00000270: 1d68 563e 2429 25bf 8991 7e3d a952 d8be
00000280: 8b47 3b3b a55f ae3d c2fb babc 3da2 81be
00000290: 0d92 693c 5cbb 973e c1c3 8b3e 9d04 acbe
000002a0: b6bb e83d fbcd ce3d 42f6 843d 00ae 963c
000002b0: 4b22 633d eb9c 1ebe 02fc 4c3e 7bed 713d
000002c0: 6c33 be3c 02e1 97be 2f37 27bd a617 1ebe
000002d0: d37f edbe 06da 91bd 7a49 233d 1e24 64be
000002e0: 1124 f0be 7ddc f93d 511d 1f3e 042f 2cbf
000002f0: a55f 0fbf a3da 9bbe bc68 a8be 6744 9a3c
00000300: d66b 62be 958e 74be cb31 913d 8834 f83d
00000310: 5c09 a93c 76e9 5a3d fad8 fb3d 9099 e8bc
00000320: e7a8 bfbc c2bd 2f3e 1327 b83d dc45 803e
00000330: d490 ccbe ba25 92be 1fe1 623e caed cbbe
00000340: 276f 06be bce4 093e 5d73 c53d ac50 c1bd
00000350: 3371 f53d 272d 663e b332 41bf c96b b3bd
00000360: 2f33 4bbd cc8c fbbe 8acb b7bd bc92 44be
00000370: 39e5 443e 6053 aabd 2cb4 aa3d 49cc 53be
00000380: 2be7 4dbe 0d21 59be 0013 273e 24b4 803d
00000390: bf19 02be ee31 d8be 14c7 bebe 4b97 08be
000003a0: dec2 023e 44a6 603e 5665 58be 22d2 b5be
000003b0: 8af6 e4bd f07f 2fbf 8fb6 8a3e ecbb 04bd
000003c0: f6db 6f3e 6520 56be b63a a8be a276 aa3d
000003d0: cf1c 913e ada7 f03d 7899 f4bd cd9b 07be
000003e0: ccd0 51be d8af 9dbe 9a83 64bd a704 c6bd
000003f0: aaa4 4a3d 4f82 a8be 9251 33be 2c12 943d
-0.07471676 0.10450096 -0.22449309 -0.34950566 0.09311787 0.004831638 -0.25686204 -0.06780051
-0.06314172 0.17655227 -0.22819594 -0.0383754 -0.08719253 0.035645854 -0.10087962 0.0401179
-0.34552726 -0.27418455 -0.041523725 -0.23420961 -0.063765004 -0.4677567 0.34800085 0.030663798
-0.14055987 0.076043405 -0.30538052 -0.1632672 0.3860432 -0.16338749 0.09195148 0.0088875145
-0.09889115 0.18290624 0.14722411 0.014584418 -0.03077935 -0.06140665 0.058151655 -0.29809836
-0.7421173 -0.031926613 0.041122917 -0.022755124 -0.052675486 0.22661051 -0.1309075 -0.021219218
-0.060632408 -0.111683086 -0.19652535 0.026273 -0.09771724 0.06450323 0.19872223 0.10270653
-0.3034181 0.03227408 0.15535145 0.20022264 0.08635014 0.027958546 0.03360585 0.064387485
0.011201138 -0.05842901 -0.17539588 -0.05630478 -0.21990928 0.04653833 -0.21175466 0.058699362
0.016452119 0.3374877 0.017089747 0.027825842 -0.14267334 -0.08047191 -0.2685322 -0.17893094
-0.45254758 0.023535552 0.075004466 -0.17059915 -0.2120814 0.14450386 0.07315651 -0.43259576
-0.58365524 -0.2252663 -0.42876333 -0.2968793 -0.12692378 -0.58562136 0.22216767 -0.19641277
-0.03172753 -0.2625234 -0.0020883447 -0.16946498 0.012113295 0.101367556 -0.29364267 -0.16293378
-0.37857112 -0.23614816 0.011054921 -0.48250252 -0.584506 -0.095776334 0.0661889 -0.1193162
0.17138444 0.0057181846 -0.1330356 -0.011967626 0.15573885 -0.29330847 0.061333686 -0.101372495
-0.05762873 0.19124116 -0.28261998 -0.35941562 0.21638191 0.14465381 -0.06950224 -0.087724105
-0.014283478 0.19159035 -0.49077234 -0.36270538 -0.15045969 -0.15639684 0.11524547 -0.039826926
-0.21532406 -0.06456637 -0.18427171 0.05423371 -0.17711742 -0.27386534 0.006922179 -0.36305955
0.088660434 -0.2139525 0.017600762 -0.12358067 -0.88983166 -0.14537059 -0.0353143 -0.09245249
0.19544156 -0.42205626 -0.016723182 -0.28406626 0.20938154 -0.645159 0.062150512 -0.42250565
0.0028576578 0.085143365 -0.022825126 -0.2531909 0.014256013 0.2963513 0.27297786 -0.3359727
0.11363928 0.100978814 0.064922825 0.018393517 0.055452626 -0.15489547 0.20018008 0.05906437
0.02321788 -0.29663855 -0.04082411 -0.15438709 -0.46386585 -0.07121663 0.039864995 -0.22279403
-0.46902516 0.12200258 0.15538527 -0.6725924 -0.56005317 -0.30440244 -0.32892406 0.018831445
-0.22111449 -0.23882516 0.070895754 0.121193945 0.020634346 0.053445302 0.12297244 -0.028393537
-0.023395969 0.1716223 0.08991828 0.25053298 -0.39954245 -0.28544408 0.2215619 -0.39829856
-0.13128339 0.13466161 0.096411444 -0.09439215 0.11984482 0.22478162 -0.75467986 -0.08760793
-0.04960936 -0.49130857 -0.08974369 -0.191966 0.19228067 -0.08316684 0.08335146 -0.20683397
-0.20107715 -0.21204014 0.16315842 0.06284359 -0.12705134 -0.42225593 -0.3726126 -0.13338964
0.12769648 0.21938425 -0.21132407 -0.3551188 -0.11179836 -0.6855459 0.27092406 -0.03240578
0.23423752 -0.20910795 -0.32857293 0.08323409 0.28342292 0.117507316 -0.11943334 -0.13243027
-0.20489806 -0.3079822 -0.055789568 -0.09668856 0.049473442 -0.32911918 -0.17511585 0.072300285

linear2.bias f4 [256]
00000000: 2779 be3d 1931 583d 57a9 ebbe 00d1 14be
00000010: 9b71 e1bc b699 c93c 482a 8e3c 6c57 7abe
00000020: f858 d5bc 8c2c 46bd 2d27 ee3c a87b 21bc
00000030: 1049 1ebd 4a56 9ebd 917d b1bd ec97 2dbd
00000040: 5d9d 0fbe f7e5 32bd e818 a03d 5087 953d
00000050: 539b f13d e82f cbbd 25e8 863c 8942 ad3d
00000060: a1d8 b0bd 9928 d4bd 0a34 1ebd f763 13bd
00000070: 4990 883d 9ace 3c3d 2a6f 093d b9fc 423d
00000080: 82b6 a5bc 1af6 75be ca2e af3d 5fa3 923d
00000090: 6915 7a3c 8cff 43bc 08e1 eebb 1776 71be
000000a0: a9ba 98bc 2bcf 613c 48ac 873d d381 e23b
000000b0: dc0b d23d 64af db3d 2609 48bd ff87 00bf
000000c0: a239 6abc 145a 863d 6401 cc3d 0002 053e
000000d0: 1edc 763d e7c5 debc 5e36 a4be 57db ad3a
000000e0: 5c96 de3d 11b0 d4be ab5b cb3c 384a f7bc
000000f0: 5dc3 6ebe 2b7e a53c e8a3 90be 77af 653d
00000100: 33c9 32be 4a1b 793d d1ed 773e eff2 ef3d
00000110: a223 ff3b 3c26 e63b 8f94 bcbc cd6c e4bd
00000120: abb4 f2bc 4113 6cbe 0dc5 5dbe 1f7a 753d
00000130: 3295 3ebe e3bc 1a3d a8c9 143e 5871 e13d
00000140: 63b1 453e 7c7e 643d 3e2c 09be e942 843b
00000150: 3c66 69bc ab2d c73a 03b6 fbbd 5bb0 a0bd
00000160: 5e76 c5bc ab2c 173d 4129 28be 21f9 afbb
00000170: bde2 6ebe b6ca 4abc 566e febd 338c ec3c
00000180: 1295 08bd e442 c63d 8d22 07bd fb8b 92bd
00000190: f0f6 69bd dc05 a0bd 1af1 b4bd 03e6 b1bc
000001a0: 5c28 e9bd a9ba 303e 12fb 893b fd0d 62be
000001b0: 45a0 19bd cd6b 85bd 57e3 6b3d 7cb0 16be
000001c0: 8e78 d8bd 6cc4 4bbd 904a 36bd 2c57 23be
000001d0: 31f1 19be 69ef 503d d548 11be 09c0 0f3e
000001e0: 012e ff3c e5ca d8bd 52bd 22bd b030 ba3c
000001f0: e9e5 6e3b c8dd d63d 0a32 6c3e 7ffc d5bd
00000200: bb4e f2bc 0ec2 603d eea5 b13d 2db6 76bd
00000210: b8ab e5bc e7b9 81be 7c7f 153e 7cda 303d
00000220: b681 78bd 3ac1 d63d 70b5 ffba 7097 0f3e
00000230: 2c06 43bd e563 ba3d f777 d1bd 0b5d 48bd
00000240: ee3a 2cbe 7790 91bd 92a1 4e3d 7445 053e
00000250: 6cd0 dbbd 661e c9bd 71f9 623d 5394 e0bd
00000260: 7783 21bf 1a38 5cbd 9050 cc3d a496 3b3e
00000270: 3f07 c03d dfc6 5a3c 9a7e f7bc 4db1 c33d
00000280: c1b1 fb3c 1210 46bd 9591 46bd 75a7 70be
00000290: fffe 0a3e a2c8 0aba 2fba 11bd 7a3f 523e
000002a0: 0e4a d9bc 878b 853c c514 823c f3c7 9d3d
000002b0: bd18 d7bd 3fa7 7ebd 0c30 45bd 4f43 563e
000002c0: 69ac c53d d600 40be f73f 2abc ea36 f1bd
000002d0: 5951 063c eff2 54bd 6383 70bb b0b9 e2bc
000002e0: a809 6ebd 57e4 2f3e 94ab 36bd 6841 84bc
000002f0: 98bd c83b a58e b93d 9c4a 083e 4bce 463d
00000300: dee5 4dbc 3c84 32be 3590 c03d b455 07bd
00000310: bf37 9ebc b899 3abd 3dc2 79bd e6c9 19bd
00000320: d3ce 08bd 1f5f f43a c84e b83d 3975 333d
00000330: a2c7 2dbe ba78 48bd cea2 11bd 8906 44bd
00000340: caea 39be eb3e f33d 75b0 1abf bf17 23bf
00000350: e9fd f5bd 4379 b23d 78b1 c73b 0882 033d
00000360: 2e5a d13a 2e65 bb3d 559b b6bc 2871 1bbd
00000370: 0145 47bd c49d 40be c37e eb3d 0381 babd
00000380: 14d5 26be 66fa 7cbd da59 413d f860 a5bd
00000390: ff80 3abd 840a 233d 7c00 79bb 8b0e 9ebd
000003a0: 097e b0bd d7ba 323c 761a 793d 4482 613d
000003b0: b455 093e c0ea b23d eca7 35be ccee c2bc
000003c0: 502d 11bd f5be 3d3e 0714 91bc f173 5abd
000003d0: cb8e d2bb 5fe3 febe df21 803d d915 cfbb
000003e0: 92a5 01be d00d 83bd 2ed1 9fbd d2c8 3fbe
000003f0: 5392 243d bca4 0d3d 15e5 073e 32f8 d93a
0.09300452 0.0527812 -0.46027634 -0.14532852 -0.027519992 0.024609428 0.017354146 -0.24447411
-0.0260434 -0.048382327 0.029071415 -0.009856142 -0.038643897 -0.07731302 -0.08666528 -0.042381212
-0.14024873 -0.043676343 0.078172505 0.073011994 0.11797204 -0.09921247 0.016468117 0.08459956
-0.08635069 -0.10359306 -0.038623847 -0.035984006 0.06668145 0.046095468 0.03355328 0.047604296
-0.020228628 -0.24019662 0.08553846 0.07160067 0.015263894 -0.011962783 -0.0072900094 -0.23580204
-0.018643694 0.013782303 0.06624657 0.006912449 0.10256168 0.107268125 -0.04883685 -0.50207514
-0.014295967 0.0656015 0.09961203 0.12989044 0.060268514 -0.027193977 -0.3207273 0.0013264221
0.108685225 -0.41540578 0.024823984 -0.030186757 -0.23316713 0.020201763 -0.2825005 0.05607554
-0.17459564 0.06081704 0.24211814 0.11716258 0.00778623 0.007023601 -0.023020057 -0.111535646
-0.029627165 -0.2305422 -0.216572 0.059930917 -0.18611601 0.037777793 0.14530051 0.11007947
0.19305949 0.055784687 -0.13395783 0.0040362966 -0.014245566 0.0015196105 -0.12290575 -0.07846137
-0.024104293 0.036907833 -0.16421987 -0.0053702747 -0.23328681 -0.012377432 -0.12423389 0.028875446
-0.03334529 0.09680727 -0.032991935 -0.071556054 -0.057120264 -0.078136176 -0.08835049 -0.021716123
-0.11384651 0.17258705 0.004210838 -0.22075649 -0.03750636 -0.06514702 0.057589855 -0.14715761
-0.10569869 -0.04974787 -0.044504702 -0.15951222 -0.15033413 0.05100957 -0.1418794 0.140381
0.031149866 -0.10585574 -0.03973133 0.022728294 0.0036452955 0.1049152 0.23065963 -0.104485504
-0.029578557 0.054872565 0.08674227 -0.06023233 -0.028035983 -0.25337145 0.14599413 0.043177113
-0.060670577 0.10486074 -0.0019509029 0.14022613 -0.047613308 0.091010846 -0.102279596 -0.048916858
-0.16819355 -0.071076326 0.050447054 0.13014776 -0.10733113 -0.09820251 0.055413667 -0.109657906
-0.63091224 -0.05376444 0.099763036 0.18319184 0.09376382 0.013353079 -0.030211736 0.09555302
0.030724408 -0.04835517 -0.04847868 -0.2350138 0.13573836 -0.0005294179 -0.03557795 0.20532027
-0.02652457 0.016301883 0.015879044 0.07704153 -0.10502765 -0.062171217 -0.048141524 0.20924114
0.09652025 -0.18750319 -0.010391227 -0.11778052 0.008198106 -0.051989492 -0.0036699406 -0.027676433
-0.058114678 0.17176948 -0.044597223 -0.01614447 0.006126117 0.090604104 0.13309711 0.04853658
-0.012567012 -0.17433256 0.09402505 -0.033040717 -0.019313691 -0.045556754 -0.060976256 -0.03754606
-0.033400368 0.0018644071 0.08999401 0.043812964 -0.16970685 -0.04894326 -0.035555653 -0.047857795
-0.18155971 0.11877235 -0.604255 -0.6370811 -0.1201132 0.08714535 0.006094154 0.03210643
0.001597231 0.09150158 -0.022290865 -0.03794971 -0.04864979 -0.18810183 0.11498787 -0.09106638
-0.1629222 -0.061762236 0.04720483 -0.08075136 -0.045533177 0.03980495 -0.0037994673 -0.077176176
-0.08617789 0.010908804 0.06081625 0.05505587 0.134116 0.08736181 -0.17739838 -0.023795508
-0.035443604 0.18529876 -0.017709745 -0.053333227 -0.0064257137 -0.49782845 0.062564604 -0.006319743
-0.12660816 -0.06399119 -0.0780357 -0.1872895 0.04017861 0.03458093 0.13270982 0.0016629754

linear3.weight f4 [256, 256]
00000000: 155b 28bf 89e2 423e 1591 0cbe b1b7 cd3d
00000010: e951 46bb c239 fabd 11c8 0ebf 7aca bbbe
00000020: 43c5 3d3c 0919 393c 980f 42be b0bd 91bd
00000030: 4a06 93bc ee98 443e 8bd6 b33c f9ce b4bd
00000040: e25c 553e dd08 6d3d 6bcf 763e 56af 9abe
00000050: ee2a d4be 0e52 7cbd 9f66 873e 9de4 d13e
00000060: 5f1d a93e a4a8 65bd 9bd3 883d 2497 f3bd
00000070: 7ef2 223e 9f27 133e 6816 72be 89d6 093c
00000080: 480b 043d adc1 abbd af31 3f3d 35ba 023e
00000090: 3021 2bbe b021 3b3d 5ce9 203d 4751 3abe
000000a0: 9991 d0bd 5713 2dbe 82fa bfbe b805 9b3e
000000b0: fa93 973c 221a 58be 66da 9f3d 45b6 c5bd
000000c0: 112b 02be 2b56 6cbe 3daa 83bd 5363 b1be
000000d0: 8191 e23d 3549 09bc 93c9 a03d 1c15 d13e
000000e0: bb01 0ebe ce59 803e c180 9fbd 9d22 453d
000000f0: 126a 22bc aef9 44bd 5e24 d6be 476b e2bd
00000100: 50be f83d 0ce1 9e3d 1ca4 123e 63e0 abbd
00000110: 3bdb 2d3e 6553 50be 4308 1dbd d32a fdbe
00000120: c42a 963c f6d4 cc3c 06c9 b73c 278f a93d
00000130: 3ee5 3abd 24c6 413e 9b13 ec3c 6a87 b1bd
00000140: a565 a4bd fc75 453e 72d6 b4be ab2e c4bb
00000150: 983d 713d d5e5 dfbc ea60 ac3c f6c4 00be
00000160: 9134 b43e 74dd a13e a7ce 3ebe b729 1dbf
00000170: cda9 793e 7582 73bd f210 c4bc 2415 243c
00000180: e697 00bf 1511 2dbe efa6 b83b e2c9 eabe
00000190: 9fe0 d0bd c601 183d b7e0 5dbd 82ba acbe
000001a0: 85ad 303e bc10 71bd 11ad b9be 9cf9 02bf
000001b0: 3171 b73c 1110 823e 049a babe 85dd 813e
000001c0: d913 773e ac48 d1bd ee07 2bbe 3908 a4bd
000001d0: 9a56 d7bd f896 9f3e b061 3dbe 03f3 813c
000001e0: 5033 76be 0aa2 0ebd a5f9 173d eef7 9fbe
000001f0: 6d78 eabd 117c 733e 17ce 9f3e 7651 073d
00000200: 31bf 8d3d c1d5 c5be e495 0e3d 9fa1 d1ba
00000210: 8209 783b 1e2e d93d 5407 0e3e 9e0a e6bc
00000220: 86ab 34be 7ec2 00be 869a ea3d 1e4f 433e
00000230: a08f 273d e6b1 d93c c3b4 55be c5c9 90be
00000240: 9c3f 14be 5da2 f93e 1204 23be 576b ec3d
00000250: 210e eabc dc08 63be ad32 e1bd 42b6 47be
00000260: 32b1 e5bd 4549 8d3d e264 573e 13c6 14be
00000270: 851e 5d3d 705d 9fbe 3886 663d 6288 263e
00000280: fd55 7ebe b818 89bd d220 153c f6eb f9be
00000290: 3bcd 6c3d 3381 e1bc 4de3 a0bb 04b9 27be
000002a0: cbb7 23bc 4893 c3bb 9b6d 1ebe d465 443c
000002b0: 7071 16be 23e0 113f 3066 a9bc 710a 853c
000002c0: 6664 68be 03c3 0bbd d3c4 b83d ab5b 56be
000002d0: b5b1 2d3e 10f9 353c dbf7 30be b664 26be
000002e0: 5d89 36be 75b6 933d a48f 82bd 2123 12be
000002f0: bf49 80bc d6f2 b0bd 9d33 afbe 2f9e 95bd
00000300: 55cd 32be 182e dabd 4e13 8abe bb76 6cbd
00000310: eeb8 a6be 1467 9c3d dfc3 e03d 1a14 74be
00000320: 8d6e c2bd 8670 143e ebfc 09be f1a8 2cbe
00000330: 40b5 abbe 762d 7abd 6656 cebd 1675 4fbc
00000340: 4a64 653c f3aa 81be ce07 303e 9330 f2bd
00000350: 3364 80be 3e4c 913e db22 9c3e 73ca b0be
00000360: 6edc 83be eb3c 8dbe 8af3 61bd 6e61 0cbe
00000370: 60b1 363c be83 16be 79af 1a3e dc68 273e
00000380: 534f 883e 9340 423e 45f2 443e 5e24 033e
00000390: 0cd8 8d3d c43b 0dbe 8e9d 93b9 0696 8fbd
000003a0: 6418 eabe c564 b6bd 761f 983e ebc2 c5bd
000003b0: dccd 98be 6d5b adbe b8bf 593e 3962 b23c
000003c0: 719c f03d f364 b1be b7f3 51bd 3fc5 6dbe
000003d0: 267a 683e 264c 1c3e 643d 4bbe 9401 393e
000003e0: 4382 64bd b562 97bd 69c3 76be 1d5f acbe
000003f0: 7c0a 41be 4fbd b8bd 2ae3 12bf 6769 a6be
-0.6576398 0.19031729 -0.1372722 0.10044802 -0.0030261225 -0.12218048 -0.5577403 -0.36677915
0.011582675 0.011297473 -0.18951261 -0.07116258 -0.017947335 0.19198963 0.021952888 -0.088285394
0.20836213 0.05786978 0.24102561 -0.30211896 -0.41439003 -0.06160169 0.2644548 0.4099473
0.3303022 -0.05606903 0.066809855 -0.11894062 0.15912816 0.14370583 -0.2364136 0.008412966
0.03223732 -0.0838655 0.04667824 0.12766345 -0.16711879 0.045686424 0.03928505 -0.18195067
-0.101840205 -0.16901909 -0.3749581 0.302778 0.018503178 -0.21103719 0.07805328 -0.09653906
-0.12711741 -0.23079745 -0.06428955 -0.3464609 0.11062909 -0.00837927 0.07850947 0.40836418
-0.13867848 0.25068516 -0.0778823 0.048128713 -0.009912984 -0.048089676 -0.4182462 -0.11055618
0.12145674 0.07757768 0.14320415 -0.08392408 0.16978161 -0.20344312 -0.038337957 -0.49446735
0.01833094 0.025003891 0.022434723 0.08279257 -0.04562878 0.18923241 0.028817942 -0.08668406
-0.080272 0.19283289 -0.3531986 -0.0059870086 0.05889663 -0.027331272 0.021042306 -0.12575135
0.35196355 0.31614268 -0.18633519 -0.61391777 0.2438118 -0.059450585 -0.023933861 0.010014806
-0.5023178 -0.16901048 0.0056351344 -0.4585715 -0.10199093 0.037111066 -0.054169383 -0.33736044
0.17253692 -0.05885385 -0.36264852 -0.51162124 0.022392841 0.25402883 -0.3644563 0.25364318
0.24128665 -0.10218939 -0.16702244 -0.08009381 -0.10514565 0.31169868 -0.18494296 0.015862947
-0.24043012 -0.0348225 0.037103314 -0.31243843 -0.11448751 0.23777796 0.31211922 0.03303667
0.069212325 -0.38639644 0.034810916 -0.0015993601 0.0037847464 0.10604499 0.13869983 -0.028081235
-0.17643556 -0.12574193 0.11455254 0.1907315 0.040908456 0.026574086 -0.20869736 -0.28278938
-0.1447739 0.48756686 -0.15919521 0.11543911 -0.02857119 -0.22171348 -0.10995994 -0.1950312
-0.11215438 0.06898741 0.21034577 -0.14528684 0.053984184 -0.31125975 0.056280345 0.16262963
-0.2483749 -0.06694168 0.009102063 -0.48812836 0.05781291 -0.027527427 -0.004909909 -0.16379172
-0.00999255 -0.005968485 -0.15471499 0.011987168 -0.1469171 0.5698263 -0.02067861 0.01624033
-0.22694549 -0.034121525 0.09021916 -0.20933406 0.16962321 0.011106744 -0.1728205 -0.16249356
-0.17825837 0.07212535 -0.063750535 -0.14271213 -0.015660165 -0.08640067 -0.34219065 -0.07305562
-0.1746114 -0.10653323 -0.26967853 -0.057730418 -0.32562965 0.07636848 0.109748594 -0.23835793
-0.09493742 0.1449605 -0.13475387 -0.16861321 -0.3353672 -0.06107851 -0.10075073 -0.012662193
0.014000962 -0.25325736 0.17190477 -0.11825671 -0.25076446 0.2837848 0.30495343 -0.34529456
-0.25754112 -0.2758554 -0.055163898 -0.13709041 0.011150688 -0.14698693 0.15106 0.16348594
0.2662302 0.18969946 0.19233043 0.12806842 0.06925973 -0.1379233 -0.00028155412 -0.070110366
-0.45721734 -0.08905939 0.29711503 -0.09656318 -0.29844558 -0.33858815 0.21264541 0.021775352
0.11748589 -0.3464733 -0.051257815 -0.23219775 0.22702846 0.15263423 -0.19847637 0.18067008
-0.05578829 -0.07391874 -0.2409798 -0.33666316 -0.18851656 -0.09020483 -0.57377875 -0.3250229

linear3.bias f4 [256]
00000000: e880 24be 2b4d 13be aef9 193e f3c1 d4bc
00000010: 27c0 933d bf32 4fbe 5641 06be c1f2 143d
00000020: 6747 12be 9636 08bc db09 5c3d a1a3 18be
00000030: 1456 2cbd c238 91bd 0858 d43b 90b3 00bd
00000040: c58b db3d e853 dd3d f6ec 24be b44f f0bd
00000050: 3ac5 bebd 9d17 8ebd 3c23 d8bd f9fb aebd
00000060: 7990 0abc cc39 ecbb 6908 863c be95 c23d
00000070: 5713 9f3d b446 763e 15c9 10bd ad7b d6bd
00000080: 0537 f33c 403a 5c3d d38d de3d 3696 ea3d
00000090: ca63 e33d 48aa 003e d0a8 1abe 18a1 5ebd
000000a0: 8e57 c33d d33c fb3c 1c12 29bd 2375 15bd
000000b0: 3a6b f5bc 7071 fe3c 8c1a aebe fbc0 af3d
000000c0: ea9e 7e3e 0225 adbb 59e3 d2bd 0660 97bd
000000d0: 9951 4fbe 8c9f 1cbe cf90 d83d 2869 533e
000000e0: dc9e ebbd 1346 48be aad7 b0bd 62e7 08be
000000f0: 129d 083d 9c37 d9bc 59bc 21bd 389b 2cbe
00000100: 021f 0fbd 5cc3 33be e5ac c23d a676 8f3c
00000110: a45a 92bd 0b24 cd3c ed9b c53c 3ced 3ebc
00000120: bfe8 e9bd d821 223e 4a8a 9fbd 50b6 d9be
00000130: 0f04 3dbe cf4f cdbd b313 d03d e1b9 a4bc
00000140: 7761 563c 66ec 96be f3fd e93c 5b66 e0bc
00000150: 4397 47bb 2690 25bd 678c 823e 497e 133e
00000160: 91cf 14be 0d37 563d abfa f93c 7cfd 893a
00000170: 314a 90bc 3be4 bebc 62b9 dcbd 0340 0ebe
00000180: 1e44 d2bd 44eb a1be 7ccc b0bd 9372 68be
00000190: f6c6 a3bd d264 e8bc f01d 233e 5bdf b9bd
000001a0: cf2e 9ebd 444c 1fbe 59f2 a7bc 5d50 f0bd
000001b0: bb67 123e 8654 5a3e 7d70 1ebe b8c6 633d
000001c0: 9dbf 8c3d 9ae3 edbc f52c aabd 8fb1 223c
000001d0: 5811 b0bd 5df4 3d3d e23c 57be d3e6 a33c
000001e0: 9684 0f3e ee45 a63b 222c 4abc 3a2f 4e3d
000001f0: c05b bbba 1002 d83d 89fa 913c 79c6 8fbd
00000200: 0994 d23c fc7a 90be 849d 0dbc 03f7 97be
00000210: 70d7 da3d b525 673d aa7c 0d3e fa8b c1be
00000220: 747d 9fbc 6448 6ebc 3bd6 043e fa46 3cbd
00000230: d093 f63d 8332 c0bd 91ab 213d d378 55bd
00000240: a361 df3d aca0 eebd a59a 3e3d 1068 0cbe
00000250: c712 913c 9fba 15be 428a febd dedc 5abe
00000260: ce17 e13c 8c7c bcbd a2c8 013e 3ed2 faba
00000270: 5ad1 f33d 5148 2e3d ba46 233d 3584 183e
00000280: cd60 093e 7c1f e4bd 541c 6d3d 322d 10bd
00000290: 545c 9e3d 2fa9 1d3e dae3 b9bd 847b a7bc
000002a0: 657b 22bc cd7c 7d3d f868 9bbe 6482 1f3e
000002b0: 24ad fd3d 2d56 b4bd adca 983d 604b 2b3c
000002c0: 436c d1be fd7e 653e 9611 16be 5d35 7bbe
000002d0: 45f2 97be f312 61bc bc03 1e3c dabd b6bc
000002e0: c993 9bbd 4f22 193d 388b 573e a8b4 bfbd
000002f0: bc53 2f3e 7f74 29bf 8e27 a7bb 5ea0 00bc
00000300: e497 84ba 3a7d 78bd 3541 ac3c c4da 12be
00000310: 0bbe ee3c 01f2 99bc c01e de3c 8f24 7cbd
00000320: 040e 13be 5160 fd3c bcfe 68bc 4fe4 0b3e
00000330: c662 003e e316 af3a dd53 3c3e 2d3b 7c3e
00000340: b67e 32bc b039 483d 80c7 f93d 110f 043e
00000350: bca6 bebd 3220 ab3d b899 e13d 7f4a 10bd
00000360: 53d6 a2bd 43b1 dabe e71c a33d 45d5 ccbd
00000370: a9b8 b73a 7922 72be 8486 3dbe d0c7 0d3e
00000380: 3bd6 153e 9747 9ebc fc2b 89bd 9e36 5d3d
00000390: 879b ce3d a99a 96bd d515 75be 70d4 e33d
000003a0: a4f1 ebb8 135e 19be 6dc1 70bd ff2b b9bb
000003b0: 2400 c53d c094 f9bd 47d5 813d c6d8 fc3d
000003c0: ad5a f83d b3fc d23c 2972 203e 5bda a8bd
000003d0: b1c2 873c 06ca 80bb 3393 333e ef75 0cbe
000003e0: e991 e13c d3c5 f33d 6de1 dbbc 317c 353d
000003f0: faa0 bcbc a9d9 183d 24cc 9b3b a978 bcbb
-0.16064799 -0.14384906 0.15036651 -0.025971388 0.072143845 -0.20234202 -0.13110861 0.03636432
-0.1428505 -0.008313796 0.053720336 -0.1490617 -0.042074278 -0.07090904 0.0064802207 -0.031421244
0.10720018 0.108070195 -0.16106018 -0.11733952 -0.09314962 -0.069380976 -0.105535954 -0.08544154
-0.0084572965 -0.0072090384 0.016361432 0.09501217 0.07767361 0.24050409 -0.035348017 -0.10472808
0.029689321 0.05376649 0.108668946 0.11454432 0.11103018 0.12564957 -0.1510346 -0.05435285
0.09538184 0.030668652 -0.041277036 -0.036488663 -0.029958356 0.03105995 -0.3400463 0.0858173
0.24865308 -0.0052839527 -0.102972694 -0.07391362 -0.20245971 -0.15295237 0.10574495 0.20645583
-0.115049094 -0.19557981 -0.08634885 -0.13369516 0.03335292 -0.026515774 -0.039486263 -0.16856086
-0.03494168 -0.17554992 0.09505633 0.01751263 -0.071461946 0.0250416 0.024122203 -0.011653241
-0.11421346 0.15833223 -0.077900484 -0.42521906 -0.1845858 -0.10024988 0.10160007 -0.020108165
0.013084761 -0.29477233 0.028563475 -0.027392557 -0.003045515 -0.040420674 0.25497743 0.14403643
-0.14532305 0.052298594 0.030515036 0.0010527815 -0.017613502 -0.023302188 -0.107775465 -0.13891606
-0.102668986 -0.31624806 -0.08632752 -0.22699957 -0.07996933 -0.028368387 0.15929389 -0.09075805
-0.07723772 -0.15556437 -0.020501303 -0.11734078 0.14297383 0.21321306 -0.15472598 0.055609435
0.06872485 -0.029039193 -0.08309356 0.009930029 -0.08597058 0.04637562 -0.21019319 0.020007527
0.14015421 0.0050742542 -0.012339624 0.050338008 -0.0014294311 0.105472684 0.01781966 -0.070202775
0.025705354 -0.2821883 -0.008643512 -0.29680642 0.10685623 0.056432445 0.13817087 -0.37802106
-0.019469 -0.014543626 0.12972347 -0.045966126 0.12039912 -0.09384634 0.03947026 -0.05211718
0.109072946 -0.116517395 0.0465342 -0.13711572 0.017709149 -0.14621972 -0.12428714 -0.21373317
0.027477171 -0.09203443 0.12674192 -0.0019136143 0.11905165 0.042549435 0.039862372 0.14894183
0.13415833 -0.11138818 0.057888344 -0.03519935 0.07732454 0.1539657 -0.09076662 -0.020444639
-0.009917115 0.061886597 -0.30353522 0.15577084 0.123865396 -0.08805499 0.07460532 0.0104549825
-0.4090291 0.22411723 -0.14655146 -0.24532075 -0.29677024 -0.013737428 0.009644445 -0.022307325
-0.07596547 0.037386235 0.21049201 -0.09360629 0.17121786 -0.66193384 -0.005101151 -0.0078507345
-0.0010116068 -0.0606663 0.021027187 -0.14341265 0.029143354 -0.018792154 0.027114272 -0.061558302
-0.14360815 0.030929716 -0.01422089 0.13661312 0.12537679 0.0013358261 0.18391366 0.24631949
-0.010894468 0.04888314 0.12196255 0.12896372 -0.09309146 0.0835575 0.11015648 -0.035227295
-0.07951035 -0.42713365 0.07964497 -0.100016154 0.0014016825 -0.23645963 -0.18508345 0.13845754
0.14632504 -0.019321246 -0.066978425 0.054007165 0.10088258 -0.07353718 -0.2393411 0.111245036
-0.00011250682 -0.14977293 -0.058778215 -0.0056509967 0.096191674 -0.12186575 0.063395076 0.12346034
0.1212667 0.025755262 0.15668549 -0.08244773 0.016572328 -0.003930333 0.17536621 -0.13716863
0.027535396 0.11902966 -0.02684089 0.04430789 -0.023025978 0.037316952 0.00475456 -0.0057516885

linear4.weight f4 [256, 256]
00000000: a15a e83d 8479 e93e f586 d8be f8fb 8e3e
00000010: b2ad 033e b1f8 aebd efb4 e1bd 08a3 e63d
00000020: 143c 7dbe ff1e b6bd 6052 57bd 158c 86be
00000030: 9605 bfbe 624e 65be 103f 46be 0b15 0dbe
00000040: 3a37 903c 98c1 5c3d e79e 39be 4e7c 29bf
00000050: 2f8f a5be 8fc3 0fbe 1933 463d bdbf 19be
00000060: c422 94be 331b 52be d105 3bbd 667a d1bc
00000070: 1063 59bd 59af 0e3e bd7b 8bbe f5ca 2a3e
00000080: f5ec 9fbe 7c78 393e 6cee b1be ee7f 3cbe
00000090: ccf4 a0be 1295 353e 0e21 49be f1a8 e1be
000000a0: 7d24 d3bd 2eca d6bd 252c f33d d3b2 9e3d
000000b0: e6aa c83d 646a 4c3d 523e 0a3e abdd f1be
000000c0: d4e1 56bc 35c5 09bf 97df b93d b32c 83be
000000d0: c5d4 92be 16e8 0dbf 4892 2ebc 101a b7be
000000e0: 42dc 61be deeb 7dbe 63fe 37bc b1d8 233e
000000f0: 73d8 273e 480b 543e 7294 efbc c733 c9bc
00000100: e6a1 953e ac62 9a3e ae80 8dbb 8584 963e
00000110: 1fff f83c 0806 343e e150 ebbe 9a9a cf3e
00000120: 274d 30be 8731 21be bbe8 0d3d 9b0b 8ebe
00000130: 2b90 0ebe 59ce 86bd 988b 84bc 493c aabe
00000140: 9a72 0f3e 2c4a dfbd 32c9 fabe 1c51 5fbe
00000150: d126 4c3d d1e1 503e 2ce1 5fbd 8c13 b7bd
00000160: 0bf9 e33c b602 af3d be13 f5be b07f 1c3e
00000170: 718d fabb 3b28 2a3e f091 173d 6924 6dbe
00000180: 3328 d23e d94b bdbd 0d61 ad3d 5108 db3c
00000190: 9f76 d33c ba23 843c 328b c2bd 17f1 28be
000001a0: 1655 22be ed9f 25bf f7ec 67be 7bb5 83be
000001b0: cf40 acbd cea6 5a3e df95 dbbe 551a a1be
000001c0: 70a1 7ebe 3dcc 963d 1d6e 95be be29 babd
000001d0: 64a8 0e3d 1f6e 85be b7c2 903d 2b03 ac3e
000001e0: 0e64 9dbd 6e32 54be ec81 9fbd fca1 dbbe
000001f0: 4b4e 42be 986b 06bf 6c5d 45be 9dd4 09be
00000200: 03ec 8a3e 1ca6 0bbd b1f3 86be 26fb 5abe
00000210: 36d4 eabd 0b2d a53e 29fd 0a3e ec90 b4be
00000220: 757e eebc 226b 093e 588e 8bbe a70f c6bd
00000230: 0970 253e 8cf5 e13d d381 6a3e 3638 e43e
00000240: a2e0 20bc 255d ecbe 5062 b9be 9355 e73d
00000250: 3a79 a2be 1b0a 4e3c 5138 48be 6708 1fbb
00000260: 28a1 173e 8051 d4be 52df c5be 354d 903c
00000270: d4b9 3b3e 05df d8bd 164b b93d 1e96 733e
00000280: 6594 9d3d 7f74 76be 0105 25be a6f5 47be
00000290: f5ed fb3c 1903 8b3d 2355 ecbd 8ec8 3dbf
000002a0: f7e0 f93d 2ba9 7fbd fb05 7cbe 8b77 ed3d
000002b0: 6ba7 c5be a27f 753e 8941 4dbe 9ccb a7be
000002c0: c672 a5be 78b2 9f3e 5469 cabd 97cb 3ebc
000002d0: 2134 cb3d c552 26be 3627 3d3e c32e ffbd
000002e0: ff06 86be 401d dc3d ccc5 fabd f772 a63d
000002f0: d874 efbe f8aa 80be 5370 7dbe 7598 57bc
00000300: 911a adbb 91b8 593e 9fe2 86be 8b93 6ebe
00000310: 0b8a 143e f3a3 a03d 7b7d 38bd 4fc8 383e
00000320: 6222 693e 1fd3 453e 15a9 39be e9fa a63e
00000330: cd52 57be 161d 2a3c c60b 2c3e ede2 b43e
00000340: 6f01 823d 3f5b 91be dd66 5cbd 7d80 503e
00000350: 0df3 ea3d ce25 5fbe 5c33 173d 7eeb b6bd
00000360: d6c1 8bbc f2d8 68be 0e98 0dbe aa6e a13b
00000370: f27b 74be 303b 1dbf d6c9 5abe 2ca7 893e
00000380: da8f 19be d984 8abe 04c9 c5be fc18 63be
00000390: c048 613e 9633 a6bd 15ba 083e 6035 a0be
000003a0: ecb9 28be a04a 3dbe 604f 43be 773f 273e
000003b0: 7593 c9bd 99d4 b0be 44c4 fd3d 5fa7 88be
000003c0: d4e7 88be 498f a4bd 6956 69be 011f fdbd
000003d0: 27d9 11bd 69ad 433e 3c26 ab3c f4d9 ad3d
000003e0: f3a7 48bd b8c6 2b3d 885d bbbd 6cfe b53e
000003f0: 2048 973d 4bfb c33e 95fb 2c3d 5cda dfbd
0.11345411 0.45600522 -0.42290464 0.27926612 0.12859228 -0.08543528 -0.110208385 0.112615645
-0.24729949 -0.08892631 -0.052568793 -0.2627875 -0.3730895 -0.22393182 -0.19359994 -0.13777559
0.01760446 0.053895563 -0.18127023 -0.662053 -0.32335803 -0.14039443 0.048388574 -0.15014549
-0.28932774 -0.20518188 -0.045659844 -0.02557106 -0.05307299 0.13934077 -0.27242842 0.16678984
-0.3123547 0.18112367 -0.34752214 -0.18408176 -0.31436765 0.17732647 -0.19641516 -0.44074205
-0.10309694 -0.104877815 0.11873654 0.07748952 0.09798221 0.04990615 0.13500336 -0.47239432
-0.013115365 -0.5381654 0.090758495 -0.2562004 -0.28677955 -0.5543226 -0.010654993 -0.35762072
-0.22056678 -0.24797007 -0.011230084 0.1600063 0.16391163 0.20707428 -0.029245589 -0.024560822
0.2922508 0.30153406 -0.0043183183 0.2939798 0.030395089 0.17580426 -0.45960143 0.4054764
-0.17216931 -0.1574155 0.034645777 -0.2774323 -0.13922183 -0.065823264 -0.016179845 -0.3324912
0.14008561 -0.10902819 -0.48981625 -0.21808285 0.049841706 0.20398642 -0.0546581 -0.08939275
0.027828714 0.08545439 -0.47866625 0.15283084 -0.0076462557 0.16616909 0.03700441 -0.2315842
0.41046295 -0.092429824 0.084657766 0.026737364 0.025813399 0.016130317 -0.09499206 -0.16498218
-0.1585277 -0.6469715 -0.22648989 -0.25724396 -0.08410799 0.21352693 -0.4288778 -0.31465402
-0.24866271 0.07363174 -0.29185572 -0.09089993 0.03482856 -0.26060578 0.07068389 0.33596167
-0.076850995 -0.20722362 -0.077884525 -0.42897022 -0.18975179 -0.52507925 -0.19273919 -0.13460012
0.27133188 -0.03409396 -0.26357797 -0.21384868 -0.11466257 0.32260928 0.13573135 -0.35266817
-0.029113034 0.13419774 -0.27257037 -0.09670954 0.1615602 0.110331625 0.22901087 0.44574136
-0.009819182 -0.46164814 -0.3620782 0.11295619 -0.31733114 0.0125756515 -0.19552733 -0.0024266483
0.1480757 -0.4146843 -0.38646942 0.01761494 0.18332607 -0.105894126 0.09047525 0.23787734
0.0769432 -0.24067877 -0.1611519 -0.19527301 0.030753115 0.067877 -0.11539676 -0.7413415
0.12201112 -0.06241719 -0.24611656 0.11595067 -0.38604292 0.2397447 -0.20044531 -0.3277253
-0.32314128 0.31190848 -0.09883371 -0.011645219 0.09922052 -0.16242512 0.18471989 -0.12460091
-0.26177213 0.107477665 -0.12244758 0.081273966 -0.46768832 -0.2513044 -0.2474988 -0.013158907
-0.005282708 0.21261813 -0.26344773 -0.2329847 0.14505784 0.07843771 -0.045041543 0.18045162
0.22767022 0.19318818 -0.18130906 0.32613304 -0.2102768 0.010382911 0.16801366 0.3532938
0.0634793 -0.28389928 -0.053809036 0.20361514 0.114721395 -0.21791765 0.036914214 -0.08931635
-0.017060202 -0.22739008 -0.13827536 0.0049265223 -0.23875406 -0.6141844 -0.21366057 0.26885355
-0.14996281 -0.2705448 -0.38629925 -0.221775 0.22000408 -0.08115308 0.13352235 -0.31290722
-0.16477174 -0.18485498 -0.19073248 0.16332804 -0.09842578 -0.345372 0.1239095 -0.26690194
-0.2673937 -0.08035142 -0.22786869 -0.12359429 -0.035607483 0.1910912 0.020892255 0.08488837
-0.048988294 0.04193756 -0.09148699 0.3554567 0.073868036 0.3827766 0.042232115 -0.109303206

linear4.bias f4 [256]
00000000: 2f25 8cbd f743 35bd 5c7b eb3e 9de5 70be
00000010: ce59 d93c 9327 803c 4f08 85bd a86e 573d
00000020: 1b67 eebd 684f a6bc 3cc4 2fbe e9bc 9bbd
00000030: 5dd0 c9bd e9fc 0cbe 943b 993c 6746 903d
00000040: 3cfe 23be 274f 8f3e f109 1cbc 4482 b7bd
00000050: 515a dcbd 1278 a73d 382e 043e dcca 1cbe
00000060: bd49 cf3d 8651 00be 5573 0d3f e63c 22be
00000070: fc3b 07be 2343 8dbe 12a0 833e 548f a4bc
00000080: 1e9a 0abe 7076 73be f153 aebd c09a 72bc
00000090: 170c ae3c ee19 703d 2116 51be 1b62 813b
000000a0: 40fb 86be f787 9d3d e344 52bd 6ef9 61bd
000000b0: af78 27be 257a ccbd 8019 fa3c a82a a8bc
000000c0: 7eac b63c 6eb3 053e 36f3 48be 4501 6abd
000000d0: 90eb eabd f93a bebd 466d 38be 6bc1 b2bd
000000e0: ae23 283e 9d87 c0bb e1f3 46bc ef4d 82bd
000000f0: 9d93 373d 160c a03e ace4 23be d15f 623c
00000100: a199 adbc bb65 1c3c db9f 94bd f6f8 38bd
00000110: 6a97 aa3d b997 613d 2b61 73bc aae0 9bbe
00000120: f819 7bbd 851a 79be 20c4 703b 3984 89bd
00000130: ae03 b0bc dfd4 253e 28e2 5cbc 2539 44be
00000140: 08ab 38be a3ac 2cbe fd7a aabe 8f6f 29be
00000150: 24af 08be 93bd aabd 3440 95bc 60aa 43be
00000160: 0b82 19be 8f83 85bd e5e9 82bc 8a82 54be
00000170: bba0 653d 0361 3a3d 5693 37be f0d6 c3bd
00000180: 03d1 39be cfe2 20be 999a 1dbe 5f03 e7bd
00000190: c239 02be 8b55 af3d 21c1 b4bd c54d 01be
000001a0: 550e dc3c 1d79 d0bd 01de 82be eb71 01bd
000001b0: bad5 133d 663f 373b 6551 c7bd 7f7b 18ba
000001c0: b493 80bb aca5 57bd 1cee 43be 2059 40be
000001d0: 79ce 123c 041a 82bd 1367 b5bd 6b3e f4b8
000001e0: 289e 3bbe 64be 133e dad6 f6bd 2ab2 003e
000001f0: 56ff 1fbe f312 2fbc e403 c43f 0472 0fbd
00000200: 9aec a13d 0e3b 473e 39a5 0ebe fcac 133d
00000210: 8d00 20be fdd3 363e c478 a93d 73b1 35be
00000220: 6803 e8bd 6f5d 6b3b 6b01 3dbe 6b8d c0bd
00000230: 2cea 8bbe 487b 5a3e ad48 08be 59b1 33bd
00000240: 629e 1ebe f20c 25be 10e6 aabd 2885 e8bd
00000250: 5b9b 0abe 8724 a4bd 52d2 44bd 4f39 7d3d
00000260: 7d49 6ebc 9bdc 063e b85b 4bbe e396 8cbe
00000270: 3089 ab3d 0dc9 7bbe ab6f 9abd 720f ccbd
00000280: 881d dbbd e531 78be aee4 19be 17bb 513d
00000290: 146a 35bd 2ccc 86bd b6e5 dbbd 3780 00be
000002a0: 8f53 82be 61b9 663f 02d3 45be 72c8 d6bd
000002b0: 4758 e4bd 3313 90bc 41ce 7cbe 9d1d b8bd
000002c0: a5e0 64be d69b a8bc e2f4 70be 3076 ebbd
000002d0: 9ebb b1bd 203f 673d 3fbf 66bd b58e 173f
000002e0: 57f7 51bd e716 043d 9c66 97be 1709 a8bd
000002f0: 6124 7cbd 8c1b 65be cedf 43bd 64ef 1a3d
00000300: 8ce2 f43d 7202 5d3c 656e 003e ba27 a4bd
00000310: ba2f 2dbe 01be c33f 515a 1b3c 37a4 19be
00000320: 877f e5bd 1ac0 d6bc 2536 96be cc49 27be
00000330: c345 a13c 1ce8 81bd d00d 943c c445 16be
00000340: 7bea 16be b412 09be cb86 31be 0ebf 843c
00000350: 9b45 e83d 4f31 a73c f4a8 3ebc 7b11 55be
00000360: 8fb2 6d3d 3071 23be fb1e 393d 3bfb 8f3b
00000370: 7a0e 86bd e57d 32be 0ceb 8fbe 51cb 33be
00000380: 8e8f 0b3e d5ac 8d3d 90de a4be 4d80 d0bd
00000390: 4248 bebd aa4b 99bd 6a35 0bbe 1bc4 5bbe
000003a0: eee0 2dbe 3f57 c83d 0fb1 e93d 882f c73d
000003b0: c02c 68bd 00c6 acbd 640d a2bd 0bfa 53bd
000003c0: 989c 283e 27cf 0cbe d457 d5bd 99d4 f1bd
000003d0: 46d7 ff3d 020e 7abd e2dc 713a 364d 3bbd
000003e0: 723b f8bd 6e05 c5bd 31d0 85bc b98b 3ebd
000003f0: c385 61bd 5d34 bc3b 7c42 613c 90c9 7dbd
-0.0684303 -0.04425427 0.45992553 -0.2352509 0.02653208 0.01564387 -0.06495725 0.052595764
-0.116407596 -0.020301536 -0.17164701 -0.07604391 -0.09854195 -0.13768353 0.018705167 0.07044678
-0.16014951 0.27990076 -0.009523855 -0.08960393 -0.10759414 0.081771985 0.12908256 -0.1531176
0.10121486 -0.12531099 0.5525411 -0.15843543 -0.13206476 -0.27590284 0.2570806 -0.020087875
-0.13535354 -0.23775649 -0.08512104 -0.014807403 0.021246 0.05861848 -0.20418598 0.0039484627
-0.26363564 0.07691949 -0.051335227 -0.055169515 -0.16354631 -0.09984235 0.030529737 -0.020528153
0.022299048 0.13056728 -0.19624028 -0.057130117 -0.11470711 -0.09288592 -0.18010435 -0.08728298
0.1641986 -0.0058755414 -0.012143106 -0.06362521 0.04481851 0.3125922 -0.160052 0.01381679
-0.02119142 0.009545739 -0.072570525 -0.045159303 0.08329661 0.055076335 -0.01485471 -0.30444843
-0.061304063 -0.24326523 0.0036737993 -0.067146726 -0.02148613 0.16194485 -0.013481654 -0.19162424
-0.18033993 -0.1686273 -0.33296958 -0.16546462 -0.13348061 -0.0833694 -0.018219091 -0.19107962
-0.14991014 -0.065192334 -0.01598067 -0.20752922 0.056061488 0.045502674 -0.17927298 -0.095624804
-0.18146138 -0.1571152 -0.15391006 -0.1127994 -0.12717345 0.08561238 -0.08825899 -0.12627323
0.026862303 -0.101793505 -0.2556 -0.03160278 0.036092497 0.0027961372 -0.09732322 -0.0005816742
-0.0039238576 -0.05264823 -0.191338 -0.18783998 0.00896036 -0.06352618 -0.088575505 -0.00011646453
-0.1832205 0.14428097 -0.120526984 0.12567964 -0.15624747 -0.01068567 1.5313687 -0.035020843
0.07906456 0.19456121 -0.13930215 0.036053643 -0.1562521 0.17854305 0.08274987 -0.17743473
-0.11328775 0.0035913845 -0.18457572 -0.09401973 -0.27327096 0.2133609 -0.13308974 -0.043870304
-0.15490106 -0.1611822 -0.08344662 -0.113535225 -0.13535826 -0.080147795 -0.04805214 0.06182223
-0.014543888 0.13170092 -0.19859207 -0.27458867 0.08375776 -0.24588414 -0.0754083 -0.099638835
-0.10698992 -0.24237783 -0.1502864 0.051203813 -0.044290617 -0.065819114 -0.10737173 -0.1254891
-0.25454375 0.90126616 -0.19318774 -0.10487451 -0.1114965 -0.01758728 -0.24688055 -0.08990023
-0.2235132 -0.02058212 -0.23530915 -0.11497152 -0.08678363 0.056456685 -0.05633473 0.5920213
-0.051261272 0.032248404 -0.29570472 -0.08204859 -0.06155813 -0.2237379 -0.04782086 0.037825957
0.11957273 0.013489353 0.12542112 -0.0801539 -0.16912737 1.529236 0.009481982 -0.15004049
-0.112059645 -0.026214648 -0.29338184 -0.16336745 0.019686585 -0.063430995 0.018072993 -0.14675051
-0.14737885 -0.13386041 -0.17336576 0.016204383 0.11341401 0.020409254 -0.011636961 -0.2080745
0.058031615 -0.15961146 0.04519556 0.0043939627 -0.0654573 -0.17430837 -0.28109014 -0.17558028
0.1362898 0.06917731 -0.32201052 -0.101807214 -0.09291126 -0.07485135 -0.13594595 -0.21461527
-0.16980335 0.09782266 0.11410724 0.09725863 -0.056683302 -0.08436203 -0.0791271 -0.05175213
0.16465986 -0.13750897 -0.104171425 -0.11808128 0.12492232 -0.061048515 0.00092263345 -0.04572793
-0.12120713 -0.09620176 -0.016334625 -0.04651997 -0.055059206 0.005743547 0.013748761 -0.061959803
