hydrone_aerial_underwater_ddpg/scripts/Models/sac_stage_1_air2D_tanh_2layers/1000_value_net.pth (torch_old, 585472 bytes, 10 tensors)

linear1_q1.weight f4 [256, 26]
0	0x3ec18161	0.3779402
1	0x3d5f1a34	0.05446835
2	0xbd25513d	-0.040360678
3	0x3dfd0b69	0.12355692
4	0x3bdd308e	0.006750173
5	0x3dc97201	0.09836198
6	0xbe85ec8e	-0.2615704
7	0xbe2e45f9	-0.1701888
8	0xbe9e910d	-0.3097004
9	0xbeb35b02	-0.3503037
10	0xbd57fd83	-0.052732002
11	0x3db5bf81	0.08874417
12	0x3d16e9ba	0.036843993
13	0xbca955e2	-0.020670835
14	0x3c0ef90c	0.00872637
15	0x3dee020a	0.11621483
16	0x3d00d50f	0.03145319
17	0x3dd9d1f9	0.10635752
18	0x3d812a6c	0.063069195
19	0xbe12fb95	-0.14353783
20	0x3cd1e7f5	0.025623301
21	0x3e8182c2	0.25295073
22	0x3fb06600	1.3781128
23	0xbe0522e6	-0.13001594
24	0x3eb6d4e0	0.35709286
25	0x3de40b12	0.11134924
26	0xbcea2c04	-0.028585441
27	0x3cbef96a	0.02331229
28	0x3cdfd5de	0.02732366
29	0x3d7cc546	0.061711572
30	0xbe1ca61c	-0.1529774
31	0xbdb3f302	-0.087865844
32	0x3c21f37e	0.009884713
33	0xbe050c7f	-0.12993048
34	0xbdc07846	-0.0939794
35	0xbc23f9f1	-0.010008321
36	0x3cb5db9b	0.022199443
37	0x3c84c863	0.016208833
38	0x3d3acf74	0.045608
39	0xbde3fe8b	-0.111325346
40	0xbbbabace	-0.0056985384
41	0xbdfcc787	-0.12342744
42	0xbd068fe2	-0.03285206
43	0xbe0521c9	-0.1300117
44	0xbd297822	-0.041374333
45	0xbe37770f	-0.17916511
46	0xb8316513	-4.229422e-05
47	0x3da00692	0.07813753
48	0x3e338b05	0.175335
49	0x3c322b20	0.01087454
50	0xbee13ed9	-0.4399326
51	0xbeaf2f08	-0.3421557
52	0x3c22ee9a	0.009944582
53	0x3d6c5576	0.05769869
54	0xbdda7054	-0.10665956
55	0x3d62de5c	0.05538784
56	0x3e22620d	0.15857716
57	0xbe029972	-0.12753847
58	0xbd9116a0	-0.070843935
59	0xbe95ea90	-0.2928052
60	0xbe86345a	-0.26211816
61	0xbe31bf64	-0.17358166
62	0x3c7b017e	0.01532018
63	0x3e271b9d	0.16319127
64	0x3dbbbba0	0.09166646
65	0xbe4219c0	-0.18955135
66	0xbc60e9e4	-0.013727639
67	0x3c3fb517	0.01170089
68	0x3dee697f	0.116412155
69	0x3e3d56e0	0.18490171
70	0xbd9f2db3	-0.07772388
71	0xbd60bbb4	-0.054866508
72	0x3dcd9c63	0.10039594
73	0x3da497fe	0.08036803
74	0x3e44f661	0.19234611
75	0xbf961c19	-1.1727325
76	0xbb4020d3	-0.002931644
77	0xbe71fbaf	-0.23631166
78	0x3d212ca0	0.0393492
79	0x3e20bbbf	0.1569662
80	0x3e1fb20f	0.15595268
81	0xbdd6acd2	-0.104821816
82	0xbe480b6b	-0.19535606
83	0x3d9dc779	0.07704062
84	0xbd88a56e	-0.06672178
85	0xbe7215ea	-0.23641172
86	0xbed66ac1	-0.41878322
87	0xbeed6d92	-0.46372658
88	0xbe83f225	-0.2577068
89	0xbea9fa04	-0.3319856
90	0xbea0f5ee	-0.3143763
91	0xbebbb47f	-0.36661145
92	0xbe1dbbf8	-0.15403736
93	0x3c8bc8c3	0.017063504
94	0x3e3ffd8d	0.18749066
95	0x3e060798	0.13088834
96	0xbc03d3f5	-0.00804614
97	0x3d865651	0.06559432
98	0xbed9a3ba	-0.42507726
99	0x3ff1a3f1	1.8878156
100	0xbd584e05	-0.05280878
101	0x3f5d841b	0.865297
102	0x3e2558de	0.16147181
103	0xbccac3f9	-0.02475165
104	0xbe12b30e	-0.14326116
105	0x3cb9495d	0.02261799
106	0xbe48551c	-0.19563717
107	0x3ca16c95	0.019705096
108	0x3d6af51b	0.057362657
109	0x3e1a7d60	0.1508689
110	0x3d849fde	0.06475805
111	0xbe1da8a2	-0.1539636
112	0x3db6405e	0.08898996
113	0xbd86bf43	-0.06579449
114	0xbe127ff8	-0.14306629
115	0xbe5feda7	-0.21868001
116	0xbc9f71f1	-0.019463511
117	0x3d77f86f	0.06053966
118	0x3c8274d9	0.015924858
119	0x3dbabb6c	0.09117779
120	0x3e5e43e8	0.21705592
121	0x3da2756f	0.07932555
122	0xbd95944a	-0.073036745
123	0xbd14df64	-0.036345854
124	0xbe012f36	-0.12615666
125	0xbe68c947	-0.22733031
126	0x3e240151	0.16016127
127	0xbfab545a	-1.3385117
128	0x3f0affbd	0.54296476
129	0xbf2b325f	-0.66873735
130	0x3dd4b4a2	0.103860155
131	0x3dec3fa5	0.11535577
132	0x3e8889fe	0.2666778
133	0x3b94260a	0.004521136
134	0x3d82461e	0.0636103
135	0x3de7ea10	0.11323941
136	0xbd253c8f	-0.040340956
137	0x3dacae7e	0.08431719
138	0xbd0076da	-0.031363346
139	0x3de20a06	0.11037068
140	0xbe073563	-0.13203959
141	0x3cce757a	0.025202502
142	0xbdc6b430	-0.09702337
143	0x3d891199	0.066928096
144	0xbdf93a37	-0.12169307
145	0xbdf2a7d0	-0.11848414
146	0xbe8069ba	-0.25080663
147	0xbe780b21	-0.24222995
148	0x3b6a0952	0.0035711122
149	0x3e07bcb6	0.13255581
150	0xbf26eb26	-0.6520256
151	0xbf143316	-0.5789045
152	0x3fb0297a	1.3762658
153	0xbe30d187	-0.17267428
154	0x3f6d6c85	0.9274371
155	0xbfbe6dea	-1.4877293
156	0x3e49ba27	0.19699918
157	0x3e1f3fbd	0.15551658
158	0x3e4dbe39	0.20092095
159	0xbee558fb	-0.4479445
160	0xbeae4f5c	-0.3404492
161	0xbe3b0311	-0.18262888
162	0x3e362aa7	0.17789708
163	0x3e763f1e	0.24047515
164	0x3cefc2a5	0.029267618
165	0xbc8afa24	-0.01696498
166	0x3e1a9dc9	0.15099253
167	0xbdd87d32	-0.10570754
168	0xbe00d1f0	-0.12580085
169	0x3db61ba7	0.08891993
170	0xbdd744a9	-0.10511143
171	0xbed68041	-0.41894725
172	0xbf101527	-0.56282276
173	0xbef3b2af	-0.47597262
174	0xbe871656	-0.26384228
175	0x3d2cd225	0.042192597
176	0xbcff1b07	-0.031140817
177	0xbec3b12c	-0.3822111
178	0x3f306915	0.6891034
179	0x3ed05bf8	0.40695167
180	0x3f0d1371	0.5510779
181	0xbeb6a9c9	-0.3567641
182	0x3e7c52f6	0.24641022
183	0x3ddd28f9	0.107988305
184	0xbe277443	-0.16352944
185	0xbdd1b641	-0.1023984
186	0xbd4480e9	-0.0479745
187	0x3dd1f492	0.10251726
188	0x3e2ddf2a	0.16979662
189	0x3ea513bd	0.32241622
190	0x3e5b78af	0.21432756
191	0x3e14f90b	0.14548127
192	0xbe47157d	-0.19441791
193	0xbe2fb163	-0.17157511
194	0xbe67f517	-0.22652088
195	0xbe1562b8	-0.1458844
196	0xbdfdd55d	-0.123942114
197	0xbe051eab	-0.1299998
198	0xbc87b3a5	-0.016565153
199	0x3e5bd472	0.2146776
200	0xbd491068	-0.04908791
201	0x3dcadd71	0.09905518
202	0xbf56dbfc	-0.8392942
203	0xbf7295ff	-0.94760126
204	0x3e091045	0.13385113
205	0x4015f672	2.3431668
206	0x3f423828	0.7586694
207	0xbd21011f	-0.03930771
208	0xbe75a05b	-0.23986952
209	0x3cfea5f3	0.03108499
210	0x3d5725b2	0.052526183
211	0x3d58c757	0.05292448
212	0x3e16e533	0.1473587
213	0x3dac2647	0.08405738
214	0xbc98e180	-0.018662214
215	0x3e25d93d	0.16196151
216	0x3e332277	0.17493616
217	0xbd819fd9	-0.06329317
218	0x3dd97595	0.1061813
219	0xbdaf18f4	-0.08549681
220	0xbc97b902	-0.018520836
221	0xbbaf3e3e	-0.005347996
222	0x3e989baa	0.29806262
223	0x3e1aaced	0.15105028
224	0xbd0cd21b	-0.03438006
225	0xbd83efdf	-0.06442236
226	0x3d2a1b4b	0.041529935
227	0xbe32ad44	-0.17448908
228	0xbda66c4e	-0.08126126
229	0xbf1abeb1	-0.6044722
230	0x3e622035	0.22082599
231	0x3ff0ffad	1.8828026
232	0xbe005451	-0.12532164
233	0xbe8033d0	-0.2503953
234	0xbdcfbf89	-0.10143954
235	0xbeb19261	-0.3468199
236	0xbee16464	-0.44021904
237	0xbee29226	-0.44252127
238	0xbf0038db	-0.50086755
239	0xbedb59c4	-0.42841923
240	0xbebd2379	-0.36941126
241	0xbe8a287d	-0.26984015
242	0xbe8a4061	-0.27002242
243	0xbe6349be	-0.22196099
244	0xbeb0a558	-0.34501147
245	0xbe78fbb1	-0.24314763
246	0xba9d1a22	-0.0011985938
247	0xbd3a889a	-0.04554043
248	0xbe98e61d	-0.29863063
249	0x3cfb9846	0.030712258
250	0xbcd69565	-0.026194284
251	0x3e2c811d	0.16846128
252	0x3e1e37f0	0.15451026
253	0x3e32dfa4	0.17468125
254	0x3e94e14d	0.2907814
255	0x3fa11a51	1.2586156

linear1_q1.bias f4 [256]
0	0xbe0095a8	-0.1255709
1	0xbcae21da	-0.021256376
2	0x3e892f46	0.2679388
3	0xbdec7d55	-0.11547343
4	0x3e119890	0.14218354
5	0x3de5d268	0.112217724
6	0x3dfc7bc0	0.12328291
7	0xbdab93b8	-0.083777845
8	0xbd37e497	-0.044895735
9	0xbc64ccf1	-0.013964877
10	0x3d8c7082	0.06857397
11	0xbe9e1b3b	-0.3088015
12	0x3e531d3c	0.20616621
13	0x3cd48e73	0.025946831
14	0x3ea56a0b	0.32307467
15	0xbd9da44d	-0.076973535
16	0xbd457ca2	-0.048214562
17	0xbd3c80be	-0.046021216
18	0xbde01d94	-0.109431416
19	0x3e666955	0.22501118
20	0x3e37feca	0.17968288
21	0x3c2bf277	0.01049482
22	0x3e636554	0.22206622
23	0xbbab31e6	-0.005224454
24	0x3df24796	0.1183006
25	0x3e9b8bc2	0.30380064
26	0x3e853e15	0.26023927
27	0x3e9413e5	0.28921428
28	0x3e7bfcd7	0.2460817
29	0xbc6b0818	-0.014345191
30	0x3e739b98	0.23789823
31	0x3eac2082	0.33618551
32	0x3e7dc8b7	0.24783598
33	0xbc9f57b9	-0.01945101
34	0xbccad0d0	-0.024757773
35	0x3e567157	0.20941673
36	0xbd5742eb	-0.052554052
37	0xbd02b404	-0.031909958
38	0xbd08c518	-0.03339109
39	0xbe108870	-0.14114547
40	0xbe59a9d2	-0.21256188
41	0xbdd09c7b	-0.10186096
42	0x3e9ba9c9	0.30402973
43	0xbd1b2e45	-0.037885923
44	0xbd568ce0	-0.052380443
45	0xbe334d9f	-0.17510079
46	0x3c0aa0c8	0.008461185
47	0xbd252ded	-0.040327
48	0x3dbce87e	0.09224032
49	0xbde77dbb	-0.11303278
50	0xbccb49e2	-0.024815504
51	0x3c2c18ba	0.010503942
52	0x3c0bb148	0.008526154
53	0xbd373b8c	-0.044734523
54	0xbdcd272d	-0.10017238
55	0xbe0ed045	-0.13946636
56	0xbc377941	-0.011198343
57	0xbda9bd8f	-0.082881086
58	0x3d584ebe	0.05280947
59	0xbd00c0e1	-0.031433944
60	0x00000000	0.0
61	0x3e6b30d1	0.2296784
62	0x3e755e5f	0.23961781
63	0x3e41b290	0.18915772
64	0xbddf8d44	-0.10915616
65	0x3e1865c1	0.14882566
66	0xbdb788b2	-0.089616194
67	0x3e45b2e4	0.19306523
68	0xbc8bab67	-0.017049504
69	0xbe3b5d44	-0.18297297
70	0xbd78d2d4	-0.060747936
71	0xbc046d6c	-0.008082729
72	0x3c01a780	0.00791347
73	0x3e3f5ddb	0.18688147
74	0xbd910a45	-0.07082037
75	0x3ec5f915	0.38666597
76	0x3e2ad1ed	0.16681643
77	0xbc104f1d	-0.008807925
78	0xbcf0340c	-0.029321693
79	0x3e664cbd	0.22490211
80	0xbdedbe5e	-0.11608575
81	0xbe46aa39	-0.19400872
82	0x3e0b9579	0.13631238
83	0xbe0c01cf	-0.13672565
84	0xbe0fb9ed	-0.14035769
85	0xbec5781a	-0.38568193
86	0xbd2abe28	-0.041685253
87	0xbd4bdc2c	-0.04977052
88	0xbda71f8c	-0.08160314
89	0xbd2679c2	-0.04064346
90	0x3d950f49	0.07278306
91	0x3ea3279f	0.31866166
92	0x3e3c58e4	0.18393284
93	0xbe6572bc	-0.22407049
94	0xbe637402	-0.22212222
95	0xbca5df6a	-0.020248134
96	0xbd394272	-0.045229383
97	0xbd464634	-0.048406795
98	0x00000000	0.0
99	0xbe2169e9	-0.15763058
100	0x3ec6919a	0.3878296
101	0x3bd656fc	0.006541131
102	0x3e590ae2	0.21195558
103	0xbc988f6c	-0.018623076
104	0xbc1c2294	-0.009529728
105	0x3e3cb682	0.18428996
106	0x3d882ac1	0.0664878
107	0xbe366aec	-0.17814225
108	0xbdf2574c	-0.11833057
109	0x3ea27a8e	0.31734127
110	0x3ea44fde	0.32092184
111	0x3c76a9d3	0.015055138
112	0x3ebbc4bd	0.36673537
113	0xbe3aff4a	-0.18261448
114	0xbc97960e	-0.018504169
115	0x3cd6958e	0.02619436
116	0xbd112078	-0.035431355
117	0x3e8eb798	0.27874446
118	0xbc27355f	-0.010205596
119	0x3d7bf3a0	0.061511636
120	0x3cf79dc4	0.030226596
121	0xbde94e3a	-0.11391874
122	0xbd02628f	-0.031832274
123	0x3ec83630	0.39103842
124	0x3e671a64	0.22568661
125	0xbe47b3da	-0.19502202
126	0xbc9bc29b	-0.019013694
127	0xbcc6575b	-0.024211576
128	0x00000000	0.0
129	0x3dfb7292	0.12277712
130	0xbe06a4a0	-0.13148737
131	0xbd668c73	-0.056286287
132	0x3e3a3f03	0.181881
133	0xbdc8782f	-0.09788548
134	0xbd10f2e0	-0.035387874
135	0x3e22eb6c	0.15910119
136	0x3cdd0f3d	0.026984805
137	0xbc414662	-0.011796566
138	0x3e222833	0.15835647
139	0x3e355f8e	0.17712232
140	0x3e55e35b	0.2088751
141	0x3e7a81a5	0.24463518
142	0xbd839084	-0.064240485
143	0xbe749169	-0.23883595
144	0x3e9b2fe5	0.30309978
145	0xbcd3f708	-0.02587463
146	0xbcd40c9b	-0.025884917
147	0x3e60e05d	0.21960588
148	0x3e8e93e8	0.2784722
149	0x3e2877d6	0.16451964
150	0xbd1f2826	-0.038856648
151	0xbc1bcc31	-0.009509132
152	0x3e71f942	0.2363024
153	0xbc5699c9	-0.013098189
154	0x3e0acda8	0.13555014
155	0xbde7467d	-0.112927414
156	0x3c22ac0b	0.009928714
157	0x3e1e66fa	0.1546897
158	0xbef66da0	-0.48130512
159	0x3e32ddcc	0.17467421
160	0x3e0a801e	0.13525435
161	0xbd6f8f1f	-0.0584861
162	0x3c25cc21	0.010119469
163	0x3e741fb7	0.23840223
164	0x3f1188c1	0.56849295
165	0xbca90a94	-0.020634927
166	0x3b8f4a1b	0.0043728477
167	0x3dbd829d	0.09253428
168	0x3d3bc131	0.04583854
169	0x3d47ce40	0.04878068
170	0x3d587e6c	0.05285494
171	0x3db29227	0.087192826
172	0xbdc6abf6	-0.09700768
173	0xbd68752c	-0.05675237
174	0xbd06d74e	-0.032920174
175	0x3e934bff	0.28768918
176	0xbc393cd5	-0.011306007
177	0x3e45ebf6	0.19328293
178	0x3e8078d1	0.25092176
179	0xbcd7da8f	-0.026349334
180	0x3ec38559	0.38187674
181	0xbe9222ea	-0.28542262
182	0xbdfb8812	-0.12281813
183	0x3e0e0a54	0.13871127
184	0x3e2b0779	0.1670207
185	0x3e9e0332	0.30861813
186	0xbd6b3fb7	-0.05743381
187	0x3e4887c4	0.1958304
188	0x3ea2ce76	0.31798142
189	0xbdca946f	-0.09891593
190	0x3e7f4041	0.24926855
191	0xbc1c1d79	-0.009528511
192	0x00000000	0.0
193	0x3e3934eb	0.18086593
194	0x3c1153dd	0.008870092
195	0x3e3f5e37	0.18688284
196	0x3e31d002	0.17364505
197	0xbded2aa9	-0.115804024
198	0xbce736fb	-0.028224459
199	0x3eaa24e3	0.33231267
200	0xbe081313	-0.13288526
201	0xbd43d461	-0.047809962
202	0xbdbc2055	-0.09185854
203	0xbc4628a5	-0.012094651
204	0x3e431242	0.19049934
205	0x3db07702	0.08616449
206	0x3d942029	0.072326966
207	0xbe04a0dc	-0.12951988
208	0x00000000	0.0
209	0x3e77c33f	0.24195574
210	0xbda22808	-0.079177916
211	0xbc9c21d6	-0.019059103
212	0x3d1c80c6	0.038208745
213	0xbdb8286c	-0.08992085
214	0xbc08558f	-0.00832118
215	0xbcb688fb	-0.022282114
216	0xbd228515	-0.0396777
217	0xbca8d8f9	-0.020611273
218	0x3d9cb64d	0.076519586
219	0xbc9c0d6a	-0.019049365
220	0xbd3d58f0	-0.046227396
221	0xbe0a0704	-0.13479239
222	0x3db9aa8a	0.09065731
223	0xbc131613	-0.008977431
224	0x3edab18d	0.42713585
225	0x3dba7cdf	0.091058485
226	0x3e802e99	0.2503555
227	0xbdff971e	-0.12479995
228	0xbc21b9a2	-0.0098709185
229	0x3e4e5bbc	0.20152181
230	0xbc1c2206	-0.009529596
231	0x3ca11ddb	0.019667557
232	0x3ea85510	0.32877398
233	0x3dfdc820	0.123916864
234	0x3c29597e	0.010336278
235	0x3e46b758	0.19405878
236	0x3e1cabe7	0.1529995
237	0xbe8c4193	-0.2739378
238	0xbe03afc8	-0.12860024
239	0x3d7e1f08	0.062041312
240	0xbd31f9b4	-0.043451026
241	0x3eafd5c5	0.3434278
242	0xbcd45edb	-0.025924137
243	0xbd9e8926	-0.07741003
244	0x3cd3c405	0.025850305
245	0xbd7dd5de	-0.061971538
246	0x3e7168a4	0.23575073
247	0x3e503335	0.20332034
248	0x3e51fbbf	0.2050619
249	0xbe81f525	-0.25382343
250	0x3d1aa36b	0.037753504
251	0xbcaf7e3c	-0.021422498
252	0xbcee74c5	-0.029108414
253	0xbb85e835	-0.004086519
254	0xbd8a8e91	-0.06765474
255	0x3e04ac28	0.12956297

linear2_q1.weight f4 [256, 256]
0	0x3e546b51	0.20744063
1	0x3d40f60a	0.04710964
2	0xbd1e1c4f	-0.038601216
3	0x3d892d8f	0.06698143
4	0x3d74d1f2	0.059770532
5	0xbf15eade	-0.58561504
6	0xbf06f993	-0.5272457
7	0xbdb06139	-0.08612294
8	0xbd9e3f78	-0.077269495
9	0xbd8b008c	-0.06787214
10	0x3e398c1e	0.18119857
11	0x3d1b41b8	0.03790447
12	0xbda34e70	-0.07973945
13	0xbf0eb9a5	-0.5575202
14	0x3dc6a8da	0.09700175
15	0xbef44be5	-0.47714153
16	0x3dc9e73e	0.09858559
17	0x3d50d53e	0.050984614
18	0x3da26628	0.07929641
19	0xbc9ef10a	-0.019402046
20	0x3c7218f2	0.014776455
21	0xbd67a59d	-0.056554426
22	0xbee4efee	-0.44714302
23	0x3d9af4c1	0.07566214
24	0x3cf30779	0.02966665
25	0x3f10b5cc	0.565274
26	0x3d36888f	0.044563826
27	0x3da7dcf1	0.08196438
28	0xbd857f7c	-0.06518456
29	0x3d20b057	0.03923067
30	0xbda877b5	-0.08225957
31	0x3cb35897	0.021892829
32	0x3d1a8773	0.03772683
33	0x3dbcdc42	0.09221698
34	0xbca18a51	-0.019719275
35	0xbd8359b0	-0.06413591
36	0xbeb508a2	-0.3535815
37	0x3d59251a	0.0530139
38	0xbe3a44f1	-0.18190362
39	0x3e7ae496	0.24501261
40	0xbf12949d	-0.57258016
41	0x3d3d0ca3	0.04615463
42	0x3d7a2adb	0.061076026
43	0xbc44b055	-0.012004931
44	0x3d79d8cb	0.060997766
45	0x3eb3e80a	0.3513797
46	0xbf7d8f14	-0.99046445
47	0xbe276243	-0.16346078
48	0xbd5d6125	-0.054047722
49	0x3dc33fb8	0.09533638
50	0x3db839b6	0.089953825
51	0x3c614625	0.013749634
52	0x3cad9344	0.021188386
53	0xbef8ed4a	-0.48618537
54	0x3d856e91	0.065152295
55	0xbe4a615e	-0.19763705
56	0x3dda28b3	0.10652294
57	0x3e44fa4e	0.19236109
58	0xbdf859de	-0.12126516
59	0xbde78f78	-0.11306661
60	0xbc01ad18	-0.007914804
61	0xbeee5571	-0.46549562
62	0xbe169a0a	-0.14707199
63	0xbe307a3e	-0.17234132
64	0xbd79be8b	-0.06097273
65	0xbd8585da	-0.06519671
66	0x3e79f177	0.24408518
67	0x3d9e8644	0.07740453
68	0x3d046487	0.032322433
69	0x3d516534	0.051121905
70	0xbed6c108	-0.41944146
71	0x3e5d8fe4	0.21636921
72	0xbc577968	-0.013151504
73	0x3d3e1484	0.046406284
74	0x3d5de0bf	0.054169413
75	0xbe494446	-0.1965495
76	0x3e4a1518	0.19734609
77	0xbdc99152	-0.09842171
78	0xbba66b9f	-0.0050787474
79	0xbf0d82ea	-0.55277884
80	0xbdc5d3f4	-0.096595675
81	0xbedfa5fc	-0.43681324
82	0xbec8d8aa	-0.39227802
83	0xbe68cd5b	-0.22734587
84	0xbdee0946	-0.116228625
85	0xbeb43237	-0.3519456
86	0x3ce0f957	0.027462645
87	0x3dc68892	0.096940175
88	0x3cdd72ca	0.027032275
89	0x3ea03020	0.31286716
90	0xbda3896e	-0.07985197
91	0xbcba00ab	-0.022705397
92	0x3d9b6beb	0.07588943
93	0x3c7aabfd	0.015299794
94	0xbe9e6e12	-0.30943352
95	0xbe5f6e30	-0.21819377
96	0xbce649a3	-0.028111285
97	0xbe4e96d8	-0.2017473
98	0x3da227a5	0.07917718
99	0xbdb4cde7	-0.08828335
100	0xbedb1d77	-0.42795917
101	0xbeababfe	-0.33529657
102	0x3d6e953c	0.05824779
103	0x3f34ffd2	0.7070285
104	0x3d684a82	0.05671168
105	0xbebbbd4a	-0.36667854
106	0xbeb93304	-0.36171734
107	0xbebe9443	-0.3722249
108	0xbdf25589	-0.11832721
109	0xbe058293	-0.13038091
110	0xbe683523	-0.2267652
111	0x3de1fa45	0.11034063
112	0x3daa32b0	0.08310449
113	0x3e434be1	0.19071914
114	0x3b953c65	0.0045543187
115	0x3c8369f5	0.016041735
116	0xbf09ef3e	-0.5388068
117	0x3c532021	0.012886078
118	0xbb2539a5	-0.002521136
119	0x3ab54647	0.0013830148
120	0x3c034df6	0.008014193
121	0xbe46069d	-0.1933846
122	0x3f045b17	0.5170149
123	0x3cde344f	0.027124552
124	0xbb61f948	-0.0034480859
125	0xbe81f4ee	-0.2538218
126	0xbe3c5211	-0.18390681
127	0xbdc8f50a	-0.098123625
128	0x3ddd2c2d	0.107994415
129	0x3c8259d2	0.01591197
130	0x3e00f6fd	0.12594219
131	0xbf10226d	-0.5630253
132	0x3d1eba3b	0.038751822
133	0xbe661ffe	-0.22473142
134	0xbefd23fe	-0.49441522
135	0xbe0c4520	-0.13698244
136	0xbecabe51	-0.39598325
137	0x3d52b82d	0.051445175
138	0x3dd12999	0.10213012
139	0x3d1ef0d6	0.038803898
140	0xbf045ddd	-0.51705724
141	0x3f0828e4	0.53187394
142	0xbdd03d29	-0.101679154
143	0x3e2c0b8e	0.16801283
144	0xbd72b2b1	-0.059252445
145	0x3dd53dad	0.10412154
146	0xbcd80bc3	-0.026372796
147	0x3dcf9cbf	0.10137319
148	0xbd6353cc	-0.055499837
149	0x3dc83593	0.097758435
150	0x3dc76843	0.09736683
151	0x3ce08c09	0.027410524
152	0x3d0d421d	0.03448688
153	0x3d6348d2	0.05548937
154	0x3e95a1e2	0.2922507
155	0xbd5069c7	-0.050882127
156	0x3e2ffdff	0.17186736
157	0x3dab9426	0.083778664
158	0xbf273c91	-0.6532679
159	0x3e0a42ea	0.13502088
160	0x3cd45345	0.025918612
161	0xbd134db2	-0.035962768
162	0xbd15c52f	-0.036565002
163	0x3dd09f56	0.10186641
164	0xbe00d7ef	-0.12582372
165	0x3d89f06b	0.06735309
166	0xbed7ca53	-0.4214655
167	0xbf2831fb	-0.65701264
168	0xbd553b62	-0.052058585
169	0xbe412d69	-0.18864979
170	0x3c3949fb	0.011309142
171	0x3e21290f	0.15738319
172	0xbd5d9597	-0.054097738
173	0xbbc10e7a	-0.0058916183
174	0x3e1ad689	0.15120901
175	0xbd7b74ed	-0.061390806
176	0x3dc0d0fb	0.0941486
177	0xba0560db	-0.000508798
178	0xbd48f07e	-0.049057476
179	0x3c1add08	0.009452112
180	0x3dbba846	0.09162955
181	0xbf34c50a	-0.7061316
182	0xbf1b9f3b	-0.6078984
183	0x3dbe5154	0.09292856
184	0x3e17aaf3	0.14811306
185	0xbe843bf2	-0.25826985
186	0xbf957a5b	-1.1677965
187	0xbca3df1b	-0.020003846
188	0x3dca0f52	0.09866203
189	0xbf1ee89e	-0.62073696
190	0x3de1e421	0.1102984
191	0xbdd5ee98	-0.10445899
192	0xbda97771	-0.08274735
193	0xbdf487ee	-0.11939989
194	0xbf3948ed	-0.723769
195	0xbe3e65af	-0.18593477
196	0xbd81deed	-0.06341348
197	0xbe28bfc4	-0.16479403
198	0xbf232b5d	-0.6373804
199	0xbf51b778	-0.81920576
200	0x3e1dd874	0.15414602
201	0xbd5c5e63	-0.05380095
202	0x3d273f03	0.040831577
203	0x3ca091ec	0.019600831
204	0x3d3fbd56	0.046811424
205	0xbf198b15	-0.5997785
206	0xbd03d46d	-0.032185007
207	0xbd429107	-0.04750159
208	0x3db6f39f	0.08933186
209	0x3f019a54	0.5062611
210	0x3de34603	0.11097338
211	0xbdc9fd49	-0.098627634
212	0xbe887990	-0.26655245
213	0x3e20d4ce	0.15706179
214	0xbe82b4ca	-0.25528556
215	0x3ccafe2d	0.024779404
216	0xbdbaf913	-0.091295384
217	0x3d32fdd0	0.043699086
218	0x3e2738f7	0.16330324
219	0xbe9aba96	-0.3022048
220	0xbee97e5f	-0.45604226
221	0xbd862d74	-0.06551638
222	0x3e59f36b	0.21284263
223	0x3f227024	0.63452363
224	0x3e06ad37	0.13152014
225	0xbda33815	-0.07969681
226	0xbd6678fe	-0.05626773
227	0x3da300b6	0.0795912
228	0xbdb31ca9	-0.08745701
229	0xbe2b83d6	-0.1674951
230	0xbc506148	-0.012718506
231	0xbc896ecf	-0.01677647
232	0xbd9e1ee5	-0.077207364
233	0x3e025fed	0.12731905
234	0x3d99d02b	0.07510408
235	0xbdabd1be	-0.083896145
236	0xbeac0f1f	-0.33605286
237	0x3d922c53	0.071373604
238	0xbf260286	-0.648476
239	0xbb836c2d	-0.0040106983
240	0x3e16c93c	0.14725202
241	0x3d51394c	0.051080033
242	0x3ba6785e	0.005080267
243	0xbe946b73	-0.28988227
244	0x3ddfd75e	0.1092975
245	0x3ca2aa94	0.019856729
246	0x3d155b4e	0.036464028
247	0xbeb62823	-0.35577497
248	0xbd13b5d4	-0.036062077
249	0xbcae7cf6	-0.02129982
250	0xbb04de80	-0.0020274222
251	0xbe551726	-0.20809612
252	0x3da8834b	0.08228167
253	0x3c42bdcb	0.0118860705
254	0xbecfff41	-0.4062443
255	0xbd089166	-0.033341788

linear2_q1.bias f4 [256]
0	0xbc5e2862	-0.013559433
1	0xbcf39018	-0.029731795
2	0xbe03dab6	-0.128764
3	0xbcb48c0f	-0.022039441
4	0xbe4b6eea	-0.19866529
5	0x3d378bc2	0.044811018
6	0xbdcf75db	-0.10129901
7	0xbd1c020c	-0.03808789
8	0xbcb7aefe	-0.02242231
9	0xbd8b32f9	-0.06796832
10	0xbe58fd76	-0.21190438
11	0x3e54d132	0.20782927
12	0xbca2db9b	-0.019880107
13	0x3ebe1155	0.37122598
14	0xbca6e8c3	-0.020374661
15	0x3ea9d506	0.33170336
16	0xbe9307aa	-0.28716785
17	0xbe6a0a59	-0.2285551
18	0x3eaa8ca2	0.3331042
19	0xbe61d833	-0.2205513
20	0xbedec32f	-0.43508288
21	0xbeb297f1	-0.34881547
22	0x3d6946a8	0.05695215
23	0x3eae0bd3	0.33993396
24	0xbdad4231	-0.08459891
25	0x3e861118	0.26184916
26	0x3b9d595a	0.0048019113
27	0xbe7c2727	-0.2462431
28	0x3cdf2fcc	0.027244471
29	0x3ec060ed	0.37573949
30	0x3e0ffc12	0.14061001
31	0x3e2820a3	0.164187
32	0x3cfe6049	0.031051772
33	0xbd506db8	-0.050885886
34	0x3d8fd550	0.07023108
35	0x3eee206e	0.46509117
36	0x3cb9180f	0.02259448
37	0xbcb745d5	-0.022372166
38	0xbcd9fb9f	-0.02660924
39	0x3decc6c5	0.1156135
40	0x3ea539ad	0.32270566
41	0xbe749dc4	-0.23888308
42	0x3e9d588b	0.30731615
43	0x3eb2e87a	0.3494299
44	0x3e17c827	0.14822446
45	0x3ea94724	0.33062088
46	0x3e7f9220	0.24958086
47	0xbd05b52a	-0.032643475
48	0x3e89067e	0.26762766
49	0xbc9615f7	-0.01832102
50	0xbcd36220	-0.025803626
51	0x3ead00de	0.33789724
52	0xbd107b87	-0.035274055
53	0xbd708079	-0.05871627
54	0xbe1157f1	-0.14193703
55	0x3d82b383	0.063818954
56	0xbcb06bac	-0.021535717
57	0xbe5f0359	-0.21778621
58	0x3e3c82cc	0.1840927
59	0xbcf1dec0	-0.02952516
60	0xbf193194	-0.59841275
61	0x3eba4e70	0.36387968
62	0xbd123744	-0.035697237
63	0x3ea171d3	0.31532153
64	0x3eb80f17	0.35949013
65	0x3ce321c6	0.027726065
66	0xbd180edd	-0.03712355
67	0x3ec9ea3c	0.3943652
68	0xbc7533e7	-0.014965988
69	0x3da6e0c0	0.081483364
70	0x3eaae19e	0.33375257
71	0x3e9f0fd7	0.31066772
72	0xbccfc9bf	-0.025364755
73	0x3ccb426f	0.024811951
74	0x3ea64810	0.32476854
75	0xbc4f301b	-0.012645747
76	0xbc824e1c	-0.015906386
77	0xbd8e0232	-0.069340125
78	0x3d1dd648	0.038534433
79	0x3eaf5124	0.34241593
80	0xbd15e322	-0.036593564
81	0x3e842593	0.25809917
82	0xbc9420b4	-0.018082
83	0x3b49a809	0.0030770323
84	0xbec0e5ee	-0.37675422
85	0xbe55854b	-0.20851628
86	0xbc9c1a30	-0.019055456
87	0x3e9e8ee4	0.30968392
88	0xbcfb77d6	-0.03069679
89	0x3ea32a87	0.31868383
90	0xbd2bade4	-0.041913882
91	0xbc8e6d8e	-0.017386224
92	0x3e3d72e1	0.18500854
93	0x3de40936	0.11134569
94	0x3ea94d84	0.33066952
95	0x3da3365a	0.07969351
96	0x3e43f568	0.19136584
97	0x3ec1be0f	0.37840316
98	0xbda8fb56	-0.082510635
99	0xbcbe52cf	-0.023232846
100	0xbd88ede5	-0.06686
101	0xbc9c1c52	-0.019056473
102	0xbcf2f8f5	-0.029659728
103	0xbc9c0b0e	-0.01904824
104	0xbec5ab47	-0.38607237
105	0x3ea9bf28	0.33153653
106	0x3d01fc24	0.0317346
107	0xbe9ec5c2	-0.31010252
108	0xbd90bb71	-0.070670016
109	0xbd11de3d	-0.035612334
110	0xbe73a506	-0.2379342
111	0xbd26c92e	-0.040719204
112	0xbdb44ba6	-0.08803491
113	0xbcc0ca65	-0.02353401
114	0xbc826710	-0.015918285
115	0xbcf76bb4	-0.030202724
116	0x3e8165fc	0.2527312
117	0xbcc6ed14	-0.02428297
118	0xbcde0d0c	-0.02710583
119	0xbd0b1d29	-0.033963356
120	0x3d8172db	0.06320735
121	0xbe2ebf9e	-0.17065284
122	0x3d9ff664	0.07810667
123	0x3da467e4	0.08027628
124	0xbc1bedd2	-0.00951715
125	0xbec32068	-0.38110662
126	0xbc42f7a8	-0.011899866
127	0x3d2254c7	0.03963163
128	0xbcbfe8ef	-0.023426501
129	0xbde8a34c	-0.113592714
130	0xbe8ef5e6	-0.2792198
131	0x3e86df48	0.26342225
132	0xbd6b0ad1	-0.057383362
133	0x3e3d6dbc	0.18498892
134	0x3c9310d4	0.01795236
135	0x3ce89c4b	0.028394839
136	0xbdfe38f4	-0.12413207
137	0x3eaf62d9	0.34255102
138	0xbd49a2af	-0.049227413
139	0xbd5fa96b	-0.05460493
140	0x3e0be675	0.13662131
141	0xbce824b6	-0.028337818
142	0x3d3e9e6a	0.046537794
143	0xbe157ff1	-0.14599587
144	0xbc937ed9	-0.018004822
145	0x3d3883ba	0.0450475
146	0xbd009a39	-0.03139708
147	0xbc9003e7	-0.017579986
148	0xbc9aac63	-0.018881029
149	0x3e9e3e6b	0.30906996
150	0xbe6d1cba	-0.2315549
151	0x3df1f8a2	0.11815001
152	0xbe2043b0	-0.1565082
153	0x00000000	0.0
154	0xbc9c07ec	-0.019046746
155	0xbcd918c6	-0.02650107
156	0xbe6b51dc	-0.22980446
157	0x3d2cec2a	0.04221741
158	0x3e416023	0.1888433
159	0xbc91feef	-0.017821757
160	0xbed382f7	-0.41310856
161	0xbebba79c	-0.36651313
162	0xbe66271b	-0.22475855
163	0x3eb7d392	0.35903603
164	0x3ebbd7dd	0.36688128
165	0xbd4c5110	-0.049881995
166	0xbce45502	-0.027872566
167	0xbd1908da	-0.037361957
168	0xbce5ccce	-0.02805176
169	0xbe4e64ee	-0.20155689
170	0xbd07bfeb	-0.03314201
171	0x3e953b7f	0.29146954
172	0xbe853932	-0.260202
173	0xbcddb0d3	-0.027061855
174	0xbcbe83b0	-0.023256153
175	0x00000000	0.0
176	0x3d8a6ca3	0.06759002
177	0xbe937260	-0.287982
178	0xbc422766	-0.011850214
179	0xbec130c9	-0.37732533
180	0xbcb93993	-0.022610461
181	0x3ce59e03	0.028029447
182	0xbcea2875	-0.028583745
183	0xbe59487a	-0.21219054
184	0xbd13eeee	-0.036116533
185	0xbd6259c8	-0.055261403
186	0xbca48f52	-0.020087872
187	0x3c92a2e1	0.017899932
188	0xbcee2e5a	-0.029074837
189	0x3e8cd7c4	0.27508366
190	0x3e1777b1	0.14791752
191	0xbcc77514	-0.02434782
192	0xbe11e481	-0.14247324
193	0xbc84174f	-0.016124396
194	0x3eaa454a	0.33255988
195	0x3dd03a7d	0.10167406
196	0xbd629aba	-0.05532334
197	0x3e915846	0.2838766
198	0x3e40135c	0.18757385
199	0x3d6427d0	0.05570203
200	0xbd5778fd	-0.052605618
201	0x3e8c49fd	0.274002
202	0x3e957f3d	0.29198638
203	0xbe920fe7	-0.28527758
204	0x3eb1c74b	0.3472236
205	0x3ea92f2c	0.33043802
206	0xbea98f37	-0.33117077
207	0x3e3ba661	0.18325187
208	0xbcb0ac8a	-0.021566648
209	0x3ec59b4c	0.38595045
210	0xbc98b422	-0.018640582
211	0xbe21a424	-0.15785271
212	0xbcb1236d	-0.021623338
213	0xbe02c4ba	-0.12770358
214	0x3df2751b	0.11838742
215	0x3c293079	0.010326498
216	0xbc667fff	-0.014068603
217	0x3e8e40cc	0.2778381
218	0xbd17c2b7	-0.03705093
219	0xbc64b8cd	-0.013960076
220	0xbc970b72	-0.018438075
221	0xbc8cf99a	-0.017208863
222	0x3e939532	0.28824764
223	0xbe097421	-0.13423206
224	0x3d89dd3d	0.06731651
225	0xbe379571	-0.17928101
226	0xbccb198e	-0.024792459
227	0xbea9b3a3	-0.33144864
228	0x3e8032bb	0.25038704
229	0xbbbec3c8	-0.005821679
230	0x3eeaa8bf	0.45831868
231	0x3dcf2208	0.10113913
232	0xbdde949e	-0.1086819
233	0x3e19da0a	0.15024582
234	0x3e969224	0.2940837
235	0x3c4451cc	0.0119823925
236	0xbcce217f	-0.025162457
237	0x3ec9812c	0.39356363
238	0xbcd9bc8a	-0.02657916
239	0xbc568105	-0.013092284
240	0x3ea9c070	0.3315463
241	0xbc8fa4ac	-0.017534576
242	0xbc4e30d6	-0.012584886
243	0x3e890e95	0.26768938
244	0xbe4fe969	-0.20303883
245	0xbc95399b	-0.018215945
246	0x3e447cc5	0.19188221
247	0xbf03b78c	-0.51451945
248	0x3dfd4d01	0.12368203
249	0x3dd25149	0.1026941
250	0x3ea5dfa7	0.32397196
251	0xbdc52e99	-0.096280284
252	0x3ccc3066	0.024925422
253	0x3c205ca4	0.009787712
254	0xbd22ca6c	-0.039743826
255	0xbe396d15	-0.18108018

linear3_q1.weight f4 [1, 256]
0	0xbeb593e0	-0.35464382
1	0xbf4b1c98	-0.79340506
2	0xbfbf2c13	-1.4935325
3	0x3bcfcf2e	0.0063418364
4	0xbfdd7ca5	-1.7303663
5	0xbf541285	-0.8284076
6	0xbf1b2fda	-0.6061989
7	0x3d128fb8	0.035781592
8	0x3d7e3ae4	0.06206788
9	0xbfd5688f	-1.6672534
10	0xc03387da	-2.8051667
11	0x3faf6515	1.3702723
12	0xbe017707	-0.12643062
13	0x3e0ecbfb	0.13945
14	0xc15ba072	-13.726671
15	0x3e2ec386	0.17066774
16	0xbfbbfa95	-1.4685847
17	0xbfc76b40	-1.5579605
18	0x3f18fe40	0.59762955
19	0xbeafcdfc	-0.3433684
20	0xbf7c56c8	-0.9856992
21	0xbfe3bc36	-1.7791812
22	0xbfb53098	-1.4155455
23	0x3debec91	0.11519731
24	0xc014d86e	-2.3257098
25	0x3e9a6199	0.30152586
26	0x3e916ad7	0.28401825
27	0xc01b5936	-2.42732
28	0xbfc42a23	-1.5325359
29	0x3ddbf56a	0.107401684
30	0xbf89bcb3	-1.0760711
31	0x3eaa77f9	0.33294657
32	0xbfaa0476	-1.3282611
33	0xc0069bf1	-2.103268
34	0xc117805a	-9.468836
35	0x3f3c12ba	0.73466074
36	0xbfaddbad	-1.3582665
37	0x3de4767e	0.11155413
38	0x3ecc35ff	0.39884946
39	0x3fe72f2d	1.8061272
40	0x3e25594d	0.16147347
41	0xbe974a82	-0.29549032
42	0x3e8ce1b8	0.2751596
43	0x3e3319fe	0.17490384
44	0x3f3d2a6a	0.73892844
45	0x3e558bcb	0.20854108
46	0x3f102788	0.5631032
47	0x3c5af57f	0.013364195
48	0x3eda371e	0.42620176
49	0xbef6bf94	-0.48193038
50	0x3b0672ec	0.0020515276
51	0x3e5c5369	0.21516193
52	0x3b8c1210	0.004274614
53	0xbf53ccb9	-0.82734257
54	0xbf5d85f5	-0.8653253
55	0x3f6fd5dc	0.936857
56	0x3d2ea264	0.042635337
57	0xbf94d654	-1.1627908
58	0x3fadd28f	1.3579882
59	0x3dff6d16	0.12471978
60	0xbfff55b0	-1.9948025
61	0x3e2a37d3	0.16622858
62	0x3c1b043e	0.009461461
63	0x3dcd889c	0.10035822
64	0x3e75e4de	0.24013087
65	0xc10dc609	-8.860848
66	0x3c7bc0ca	0.015365789
67	0x3e9fe074	0.31225932
68	0x3e047ead	0.12938948
69	0xbf85910e	-1.0434892
70	0x3db978e0	0.09056258
71	0x3dd763ca	0.1051708
72	0x3a985a45	0.0011623582
73	0x3fb336d1	1.4001104
74	0x3e1b729a	0.15180436
75	0x3d00ffc7	0.03149393
76	0xbb53a034	-0.0032291533
77	0xc121077d	-10.064328
78	0x3f55186e	0.832404
79	0x3f1ef837	0.62097496
80	0x3cb4973d	0.022044772
81	0x3ece6e1f	0.4031839
82	0xbcd37ebf	-0.025817273
83	0xbfa9b045	-1.3256918
84	0xbec97b74	-0.39352
85	0xbf6c17f4	-0.9222405
86	0x3d87f0c0	0.06637716
87	0x3e4977f3	0.19674663
88	0x3d57f6b4	0.05272551
89	0x3e36f5fc	0.17867273
90	0xc119c245	-9.609929
91	0x3cbc51aa	0.02298816
92	0x3f52ef6d	0.82396585
93	0x3f882a18	1.0637846
94	0x3e3e2f30	0.18572688
95	0xbf9c0cda	-1.2191422
96	0x3e89ebe3	0.2693778
97	0x3e43e89c	0.19131702
98	0xc0865068	-4.197315
99	0x3dcb57c9	0.09928853
100	0xbf2a8fe4	-0.6662581
101	0xbd9618fc	-0.07328984
102	0x3d3771e3	0.044786345
103	0xbc823b4c	-0.015897416
104	0xbf49c8d2	-0.7882205
105	0x3e539845	0.20663555
106	0xbf9dc2fe	-1.2325132
107	0xbfba0d2b	-1.4535269
108	0xbff96c35	-1.9486147
109	0x3f635a25	0.88809425
110	0xbfb9416c	-1.447309
111	0x3d6cdcd4	0.057827786
112	0xbf9c575f	-1.2214164
113	0x3c87ac60	0.016561687
114	0xbdd1ded3	-0.102475785
115	0xbdf0f21d	-0.117649294
116	0x3ee7a129	0.45240143
117	0x3c0fdcdb	0.008780683
118	0xbd6a4a74	-0.05719991
119	0xbc1b4eb5	-0.009479214
120	0xbf84d5d5	-1.0377756
121	0xbf898c09	-1.074586
122	0x3eac5488	0.33658242
123	0xc012cbb7	-2.2936838
124	0xbdbb6ae6	-0.09151249
125	0xbf4e32ad	-0.80546075
126	0xbd76f098	-0.06028804
127	0xbf8fd2f3	-1.1236252
128	0x3de3d89a	0.11125298
129	0xbfb610ee	-1.4223917
130	0xbf58c968	-0.8468232
131	0x3f262038	0.6489291
132	0xbfa844cc	-1.3145995
133	0x3f9480df	1.1601828
134	0x4078c51f	3.8870313
135	0xbf9dac3c	-1.2318187
136	0xbf3cfe7f	-0.7382583
137	0x3e120000	0.14257812
138	0xbfbe916b	-1.4888128
139	0xbfa682aa	-1.3008626
140	0x3f0c7e53	0.54880255
141	0x3c05813f	0.00814849
142	0xbf525661	-0.82163054
143	0xbf6a5a2f	-0.9154386
144	0x3dc15efe	0.094419464
145	0xbf83b197	-1.0288571
146	0x3d6aa8d4	0.057289913
147	0xc15db8e8	-13.857643
148	0x3aa1ac9e	0.0012334769
149	0x3de70614	0.11280456
150	0xbef6b0f7	-0.48181888
151	0x3f1724eb	0.5904071
152	0xbfd10897	-1.6330746
153	0x3d9162d8	0.07098931
154	0xbcd401c6	-0.025879752
155	0xbd6d471e	-0.05792915
156	0xbf4ab4ce	-0.79182136
157	0xc1419213	-12.098163
158	0x3f8a3520	1.0797462
159	0xbdab13bc	-0.083533734
160	0xbf32c4bd	-0.6983145
161	0xbf62b3c5	-0.88555557
162	0xbf223327	-0.633593
163	0x3e844412	0.25833184
164	0x3f173fb3	0.5908157
165	0xbfb8da7f	-1.444168
166	0x3b2d8938	0.0026479494
167	0xbd3f6db7	-0.04673549
168	0xbb6b17e6	-0.00358724
169	0xbf4923c9	-0.7857023
170	0x3d2d95b0	0.04237908
171	0x3f091583	0.5354845
172	0xbf935aca	-1.1512082
173	0x3c131433	0.008976984
174	0x3d931c7a	0.07183166
175	0xbe09ad42	-0.13444999
176	0x3f39cd97	0.7257933
177	0xbf5257b5	-0.8216508
178	0xbd6a6ce0	-0.057232738
179	0xbe8415bf	-0.2579784
180	0xbdbe41b6	-0.09289877
181	0xbf5bdb13	-0.85881156
182	0xbd95a027	-0.07305937
183	0xbf7e6cb4	-0.9938462
184	0x3b3a47b5	0.0028424088
185	0xbf838abc	-1.0276713
186	0xbdb95c77	-0.090508394
187	0xbf98758c	-1.1910872
188	0x3dc93685	0.09824852
189	0x3edefeb3	0.43553695
190	0x3fdfdb2d	1.7488762
191	0x3db6a44e	0.089180574
192	0xc0d92aa7	-6.7864566
193	0xbdc6855e	-0.096934065
194	0x3e82ba53	0.2553278
195	0xbfab4350	-1.3379917
196	0xbf8f02ed	-1.1172768
197	0x3fa6e603	1.3038944
198	0xbff96bd5	-1.9486033
199	0xbf350a22	-0.70718586
200	0xbf8be889	-1.0930339
201	0x3ea39b13	0.3195425
202	0x3f0256b1	0.5091353
203	0xbf8bff3d	-1.0937268
204	0x3f4df3ca	0.8045012
205	0x3e4ccbcc	0.19999617
206	0xbf43bbb6	-0.764583
207	0x3f279b9e	0.6547183
208	0x3dd0cd70	0.10195434
209	0x3f7609de	0.96108806
210	0xbdfb02b9	-0.12256379
211	0x3fcf2bb8	1.6185217
212	0x3f313ed5	0.692365
213	0xbf9f400d	-1.2441422
214	0xc05c81ab	-3.4454143
215	0xbf4a2965	-0.78969413
216	0x3d12f475	0.035877664
217	0x3f202231	0.6255217
218	0xbc90d3fe	-0.01767921
219	0x3b19c558	0.0023463573
220	0xbfb11c64	-1.3836789
221	0x3d2b62f2	0.04184241
222	0x3f770da9	0.9650522
223	0xbfb2ef6f	-1.3979319
224	0xbfde1c62	-1.7352412
225	0xbf75410b	-0.9580237
226	0x3bed6995	0.0072452524
227	0xbf82dd89	-1.0223857
228	0x3f1e32fd	0.6179655
229	0x3dad5b54	0.08464685
230	0x3f91b580	1.1383514
231	0x403850b9	2.879927
232	0xbfe0dbf7	-1.7567128
233	0x3fa2e725	1.272679
234	0x3f0d53d7	0.55206054
235	0xc0efd37e	-7.494567
236	0xbdc4a9be	-0.09602688
237	0x3ec0b6e1	0.37639526
238	0xbda29339	-0.07938237
239	0x3ce52790	0.027972966
240	0x3e5edec9	0.21764673
241	0xbe0e48e5	-0.13894995
242	0x3c08ad90	0.008342162
243	0x403898b5	2.8843205
244	0xbecf585d	-0.40497103
245	0xbdb15f8e	-0.08660804
246	0x3f8025d6	1.0011547
247	0xbf5a9392	-0.85381424
248	0x3f4f8873	0.8106758
249	0x3fb5d130	1.4204464
250	0x3e28b306	0.16474542
251	0xbf9b1a6e	-1.2117441
252	0x400f10c5	2.2353985
253	0xc04420f1	-3.0645106
254	0xbfacf039	-1.351081
255	0xbfd0a025	-1.6298872

linear1_q2.weight f4 [256, 26]
0	0x3db04bbd	0.08608196
1	0xbd709e9b	-0.058745008
2	0xbdb98236	-0.09058039
3	0xbd95aba3	-0.07308128
4	0xbddb2c43	-0.10701802
5	0xbce60097	-0.028076453
6	0x3db907cd	0.09034691
7	0x3c5461dc	0.012962785
8	0x3df54e7a	0.11977859
9	0xbcbe9193	-0.023262775
10	0x3de4232a	0.111395195
11	0x3dbb096f	0.09132659
12	0x3e16122a	0.14655367
13	0xbd10f2dd	-0.035387862
14	0x3df2c9ed	0.118549205
15	0x3df6fd56	0.12060039
16	0xbd8044fa	-0.06263156
17	0xbd0374f9	-0.032093976
18	0x3e068b1a	0.13139
19	0x3c999450	0.018747479
20	0xbea939d3	-0.3305193
21	0xbd99b119	-0.07504482
22	0x3d9f9c76	0.077935144
23	0x3ffadda5	1.959889
24	0x3ea89d9c	0.32932746
25	0x3ed00bb7	0.40633938
26	0xbe300e97	-0.17193066
27	0xbe0de23f	-0.13855837
28	0xbe03400e	-0.12817404
29	0xbe8166e9	-0.25273827
30	0x3dea29b3	0.11433735
31	0xbd616651	-0.055029217
32	0x3e3ba9f2	0.18326548
33	0xbd8750fd	-0.06607244
34	0x3e2cd929	0.16879715
35	0x3e865c43	0.26242265
36	0x3e831749	0.25603703
37	0x3dcbf521	0.09958864
38	0xbd2100f3	-0.039307546
39	0x3cbbfe56	0.022948425
40	0xbdd9740b	-0.106178366
41	0x3e0bd831	0.13656689
42	0x3d065d6a	0.03280393
43	0xbdf70b1f	-0.12062668
44	0x3a87a671	0.0010349286
45	0xbe252dd5	-0.16130765
46	0x3e321296	0.17389902
47	0x3f1c34e5	0.6101821
48	0x3e40f743	0.18844323
49	0xbf812167	-1.0088319
50	0x3e2e672f	0.17031549
51	0x3f04b806	0.518433
52	0xbdd22ecb	-0.10262831
53	0xbd17684c	-0.0369647
54	0x3d6686e8	0.056281
55	0xbe9ae3ec	-0.30252016
56	0x3d3ce72e	0.046118908
57	0xbe1f93e5	-0.15583761
58	0xbe21c769	-0.15798725
59	0xbdaef9f4	-0.085437685
60	0x3e4369e9	0.1908337
61	0x3e3efc8f	0.18651031
62	0x3e6283cf	0.22120593
63	0x3e3b31d9	0.18280734
64	0xbda9624f	-0.08270704
65	0xbe2263d6	-0.15858397
66	0x3dd6e6e3	0.10493257
67	0x3e17498c	0.1477415
68	0x3e398412	0.18116787
69	0xbe49ebd8	-0.19718874
70	0xbe24cfdc	-0.16094917
71	0xbee932a3	-0.45546445
72	0x3f096e5c	0.5368402
73	0xbf966677	-1.175002
74	0xbfd41cb7	-1.6571263
75	0x3eeabde7	0.4584801
76	0xbe6e98ff	-0.23300551
77	0xbdd8d27e	-0.10587023
78	0xbdb9aae2	-0.090657964
79	0xbd325ea8	-0.043547302
80	0xbd0d5d90	-0.034513056
81	0x3def7f34	0.11694184
82	0xbca40200	-0.020020485
83	0xbdc67fe8	-0.09692365
84	0x3d10cf20	0.03535378
85	0xbe0b61b7	-0.13611494
86	0xbd8a4b8a	-0.06752689
87	0xbab1b400	-0.0013557673
88	0x3d1d9ecc	0.03848152
89	0xbcddb7f0	-0.027065247
90	0x3d94a574	0.0725812
91	0xbd791476	-0.06081053
92	0xbe06fba4	-0.13181931
93	0xbd55e2fc	-0.052218422
94	0xbe0c0994	-0.13675529
95	0x3cac3df8	0.021025643
96	0x3de8369c	0.11338541
97	0xbd2a8d92	-0.04163892
98	0xbe02e356	-0.12782034
99	0x3daa8de4	0.08327845
100	0xbd4de8b0	-0.050270736
101	0xbdc5275e	-0.09626649
102	0x3df0bc98	0.117547214
103	0xbde8b806	-0.11363225
104	0x3bb61728	0.0055569597
105	0x3e1d67ad	0.1537158
106	0x3d165447	0.036701467
107	0x3e072c95	0.132006
108	0x3dd8da27	0.10588484
109	0xbcfd3c14	-0.030912437
110	0x3e4be56e	0.19911739
111	0x3db10a63	0.08644559
112	0xbd90d6d1	-0.07072223
113	0xbe8e98d6	-0.2785098
114	0xbefdc27f	-0.4956245
115	0xbef469bc	-0.4773692
116	0xbed108e9	-0.4082711
117	0xbedd2881	-0.43194965
118	0xbe9365c7	-0.28788587
119	0x3ce77398	0.028253362
120	0x3adca4e4	0.0016833809
121	0x3c949a28	0.018139914
122	0xbd66fac2	-0.056391485
123	0xbb1f25a2	-0.0024283906
124	0xbf12374d	-0.5711563
125	0x3efa6de2	0.4891196
126	0xbf878ac4	-1.0589223
127	0x3ff198c7	1.8874749
128	0xbc8ed2ad	-0.017434442
129	0xbe6017b7	-0.21884046
130	0x3dea8ea8	0.11452991
131	0x3dd32fbb	0.10311838
132	0x3e458cb5	0.19291957
133	0x3e75aa4e	0.23990747
134	0x3d2c851d	0.042119134
135	0x3c8e294a	0.017353673
136	0xbde4b73f	-0.11167764
137	0xbd8d28cb	-0.06892546
138	0x3d3eec25	0.046611924
139	0xbc6ff5eb	-0.014646034
140	0x3dcde8e9	0.1005419
141	0xbca37552	-0.019953404
142	0x3acb3069	0.0015502098
143	0x3eb3a5ba	0.35087377
144	0x3c47f702	0.012204887
145	0xbe14f464	-0.14546353
146	0xbe7c0e55	-0.24614842
147	0xbe2c274d	-0.16811867
148	0x3d7c7c9a	0.061642267
149	0xbdbc4d4b	-0.0919443
150	0x3f946357	1.1592816
151	0xbe5781c2	-0.21045592
152	0x3f09590e	0.5365151
153	0x3e012f3f	0.12615679
154	0x3f3ff0c8	0.7497678
155	0xbf2797db	-0.6546609
156	0xbe0e0049	-0.13867296
157	0xbe05c38f	-0.13062881
158	0xbe141ce5	-0.14464147
159	0xbe14760c	-0.14498156
160	0x3d5edaed	0.054408003
161	0x3d5e65f1	0.054296438
162	0xbc9cab4e	-0.019124653
163	0xbc84f556	-0.016230267
164	0xbcd65d37	-0.026167495
165	0xbe0738ce	-0.13205263
166	0xbdcce50a	-0.10004623
167	0xbdf3e19e	-0.119082674
168	0xbe08455a	-0.13307706
169	0x3dfd9f5d	0.12383912
170	0xbc429e05	-0.011878495
171	0xbd989382	-0.0745001
172	0xbd5901bb	-0.052980166
173	0x3d7897f8	0.060691804
174	0xbdb70fc7	-0.08938556
175	0x3d85a4c0	0.06525564
176	0xbbf2866a	-0.0074012773
177	0x3d31b867	0.04338875
178	0xbdf7d965	-0.121020116
179	0xbe002027	-0.12512265
180	0x3cd41ce4	0.025892682
181	0x3d2b04e1	0.0417527
182	0x3e667a14	0.22507507
183	0x3e8927a8	0.26788068
184	0x3d966bde	0.07344793
185	0xbd9cb8c1	-0.076524265
186	0xbd802ad0	-0.06258166
187	0x3ec405d7	0.38285705
188	0x3f00ef54	0.50365186
189	0x3dd38fd7	0.1033017
190	0xbe87e62f	-0.26542804
191	0xbe908c7d	-0.28232184
192	0xbeb48de6	-0.3526451
193	0xbdea5985	-0.11442856
194	0xbdcfa353	-0.101385735
195	0xbe38698c	-0.18009013
196	0x3e17be5d	0.14818712
197	0x3d7da8e1	0.061928634
198	0xbd14fa62	-0.036371596
199	0xbe1de13e	-0.15417954
200	0xbca5a334	-0.020219423
201	0xbc982209	-0.018570917
202	0x3d99e533	0.075144194
203	0xbcb1084b	-0.0216104
204	0xbefbd7a8	-0.4918797
205	0x3d10f1f2	0.035386987
206	0x3b02c209	0.001995208
207	0x3d9d29bf	0.07673978
208	0x3df483ff	0.11939239
209	0x3e271e7e	0.16320226
210	0xbb0ec644	-0.0021785656
211	0x3df573b7	0.119849615
212	0x3cc53139	0.024071323
213	0x3e083284	0.1330052
214	0x3e4a89f6	0.1977919
215	0xbd4f79ce	-0.05065327
216	0xbdffe430	-0.12494695
217	0xbd09286b	-0.03348581
218	0xbd23fe07	-0.04003718
219	0xbe5e31be	-0.21698663
220	0xbbbdb44c	-0.0057893153
221	0xbe515b3a	-0.20444956
222	0xbd891faf	-0.06695496
223	0x3d5bd56d	0.053670336
224	0x3e2c4eac	0.16826886
225	0x3c5c7ddc	0.013457742
226	0x3e1e8251	0.154794
227	0x3d519fe0	0.05117786
228	0x3e0ece4d	0.13945885
229	0xbd50c49c	-0.05096875
230	0xbd8a90b4	-0.06765881
231	0xc0043013	-2.0654342
232	0x3e642d24	0.22282845
233	0xbd79ee56	-0.06101831
234	0x3ebffd14	0.3749777
235	0x3d8d3e00	0.06896591
236	0x3e46053a	0.19337931
237	0x3e127d69	0.14305653
238	0x3e00fd9a	0.12596741
239	0x3e4aec10	0.19816613
240	0x3debbead	0.11510978
241	0xbe41eb52	-0.18937424
242	0xbeb90b70	-0.3614154
243	0xbe81831f	-0.2529535
244	0xbe52f3a4	-0.20600754
245	0xbe812aa7	-0.25227854
246	0xbeb5a387	-0.35476324
247	0xbed5e713	-0.41777858
248	0xbe58dad6	-0.2117723
249	0xbc51f010	-0.012813583
250	0xbe50399f	-0.2033448
251	0xbe9605e7	-0.29301378
252	0xbe9ae8e9	-0.3025582
253	0xbe551f73	-0.20812778
254	0x3f988c9c	1.191791
255	0x3e050dab	0.12993495

linear1_q2.bias f4 [256]
0	0xbdb41fca	-0.08795126
1	0x3e21291d	0.1573834
2	0xbe026efd	-0.12737651
3	0x00000000	0.0
4	0xbcebceb9	-0.028785096
5	0xbb2371e0	-0.00249397
6	0xbc9c00b9	-0.019043313
7	0x3eb82994	0.35969222
8	0x3eaf8d9a	0.3428772
9	0x3b99bdce	0.004691816
10	0x3d8ea9a9	0.06965954
11	0x00000000	0.0
12	0xbe205180	-0.1565609
13	0x3e5ca234	0.2154625
14	0x3e00cc43	0.1257792
15	0xbd1d4941	-0.03839994
16	0xbdacdaf0	-0.084401965
17	0xbe224a0b	-0.15848558
18	0x3e828dda	0.2549885
19	0xbc8b27af	-0.016986696
20	0x3f0e976f	0.5569982
21	0x3d8f9e1d	0.070125796
22	0x3dc035f7	0.09385293
23	0x00000000	0.0
24	0x3ee95e03	0.45579538
25	0xbe71cca5	-0.23613222
26	0x00000000	0.0
27	0x3e6b75f9	0.22994222
28	0xbd468b35	-0.048472602
29	0xbe0b3b20	-0.13596773
30	0x3d9d9690	0.07694733
31	0x3ddf7d28	0.109125435
32	0x3e61c78d	0.22048779
33	0x3e35f649	0.17769732
34	0xbc1c2293	-0.0095297275
35	0xbc1c169f	-0.009526878
36	0xbe30d1cc	-0.17267531
37	0xbe322ac2	-0.17399123
38	0x00000000	0.0
39	0xbe213939	-0.15744485
40	0x3c425a45	0.011862342
41	0x3c39d2d9	0.011341774
42	0x3e55878b	0.20852487
43	0xbc5182ba	-0.012787515
44	0xbca3da8d	-0.020001674
45	0x3e114a91	0.14188601
46	0x00000000	0.0
47	0x3d33fd16	0.043942533
48	0xbe14dfe6	-0.14538535
49	0xbd9d7a59	-0.076893516
50	0x3d76be13	0.060239863
51	0x3dde7ed4	0.10864034
52	0x3e240070	0.16015792
53	0x3e7bf518	0.24605215
54	0xbd998993	-0.07496943
55	0xbe271343	-0.16315942
56	0x3e3824b2	0.17982748
57	0xbd932aa5	-0.07185868
58	0x3e5454c8	0.20735466
59	0xbde67b1d	-0.11253951
60	0x3e595c92	0.21226719
61	0xbd156da2	-0.036481507
62	0xbd8062d5	-0.06268851
63	0x3e26e32a	0.16297594
64	0x3c9a6a65	0.018849561
65	0xbd68b30f	-0.05681139
66	0x00000000	0.0
67	0x3ea03439	0.31289843
68	0xbe3bc800	-0.18338013
69	0x3e7c61a8	0.24646628
70	0xbcff58c2	-0.031170253
71	0x3d37bcaa	0.04485766
72	0x3e8d85a9	0.27641037
73	0x3e443e91	0.19164492
74	0x3e8897fd	0.26678458
75	0x3d481ee4	0.048857585
76	0x3e1aa603	0.15102391
77	0xbcc9a33f	-0.024613975
78	0xbe893147	-0.26795408
79	0xbe435c98	-0.1907829
80	0x3d7f407e	0.062317364
81	0x3e6f83db	0.23390143
82	0x3e1ab7e2	0.15109208
83	0x3dab60f9	0.083681054
84	0xbd9cc173	-0.07654085
85	0xbdcae50d	-0.09906969
86	0xbe1e51ef	-0.15460943
87	0x3e3358f0	0.17514396
88	0xbe289da6	-0.16466388
89	0xbd0d29bd	-0.034463633
90	0x3e21c4e9	0.15797772
91	0xbdc27e80	-0.09496784
92	0x3ea1a849	0.31573704
93	0xbe21c1bf	-0.15796565
94	0xbd7bb2a0	-0.061449647
95	0xbdbf92b1	-0.09354151
96	0x3e556e15	0.20842774
97	0xbcbcdbe3	-0.023054069
98	0xbe1ff1ab	-0.15619533
99	0x3e8df88d	0.27728692
100	0x3e0aae67	0.13543092
101	0x3e4404bb	0.1914243
102	0xbc8684e4	-0.016420789
103	0x3cab47ba	0.020908225
104	0xbdcc582c	-0.09977755
105	0xbe7051bb	-0.23468678
106	0xbe6ab5d1	-0.2292092
107	0x3e18fcb1	0.14940144
108	0x3e590abc	0.21195501
109	0x3e49f9bd	0.19724174
110	0xbe31500b	-0.1731569
111	0xbd242db7	-0.04008266
112	0xbd17e228	-0.037080914
113	0xbd275bd4	-0.04085906
114	0xbd9dbe81	-0.07702351
115	0x3d9a1881	0.07524205
116	0x3dc58f2f	0.09646451
117	0x3deb97a0	0.115035295
118	0x3e4b4a79	0.19852628
119	0xbcab2cb6	-0.020895343
120	0xbc0f597f	-0.008749365
121	0x3c844a75	0.016148785
122	0xbd2088fc	-0.03919314
123	0xbddfb168	-0.109225094
124	0xbd441bb8	-0.047877997
125	0x3e8a1416	0.2696845
126	0x3e951442	0.29117018
127	0x3d961325	0.0732787
128	0xbdf43e73	-0.11925974
129	0xbde79e89	-0.11309535
130	0x3eb0cb8e	0.345303
131	0xbd8326ba	-0.06403871
132	0x3ddbbdf8	0.10729593
133	0xbd52d333	-0.051470947
134	0x3d967453	0.07346406
135	0x3e0d9385	0.13825805
136	0x3e12d1da	0.14337865
137	0xbe15c36c	-0.14625329
138	0x3e9e71c2	0.30946165
139	0xbd3eadb4	-0.046552375
140	0x3e6bf5b2	0.23042944
141	0x3c32f988	0.010923751
142	0xbdb6f942	-0.08934261
143	0xbd0b210c	-0.033967063
144	0x3e02743f	0.12739657
145	0xbdb21448	-0.086952746
146	0xbd9868bd	-0.07441852
147	0x3bb64440	0.0055623353
148	0xbc137f02	-0.009002449
149	0x3e52c818	0.20584142
150	0x3d293d21	0.041318063
151	0xbbe6a415	-0.007038603
152	0x3d02d49b	0.031941038
153	0x00000000	0.0
154	0xbb9a7a5f	-0.004714295
155	0x3eaf8743	0.34282884
156	0xbe2ca5de	-0.16860148
157	0xbe0996b8	-0.13436401
158	0x3b9a3c7d	0.004706918
159	0x3e834d5d	0.2564496
160	0xbcb3cf2a	-0.02194937
161	0xbe225dcf	-0.15856098
162	0x3e24893d	0.16067977
163	0xbc37b44a	-0.011212418
164	0xbdea5815	-0.114425816
165	0x3ec18586	0.37797183
166	0xbdda6b21	-0.106649645
167	0x3d823d14	0.06359306
168	0xbcbafd0a	-0.022825737
169	0xbef854d4	-0.4850222
170	0x3e175fb6	0.14782605
171	0x3e467cc0	0.19383526
172	0xbe071e96	-0.13195261
173	0x3d91e9fd	0.07124708
174	0xbe31a5d9	-0.17348422
175	0xbc602f20	-0.0136831105
176	0xbddfcf3e	-0.109282
177	0xbc1c1e84	-0.00952876
178	0x3ec6d23e	0.38832277
179	0xbd037652	-0.03209526
180	0x3e63be4a	0.22240558
181	0xbc77d148	-0.01512558
182	0xbddaaa63	-0.1067703
183	0x3cc3d26b	0.023904046
184	0x3e48413d	0.19556136
185	0x3d24526b	0.040117662
186	0xbd908797	-0.07057112
187	0x3e836317	0.25661537
188	0xbd889496	-0.066689655
189	0x00000000	0.0
190	0xbe053f39	-0.13012399
191	0xbc85ce66	-0.01633377
192	0xbe028435	-0.12745745
193	0x3e4fe2f9	0.20301427
194	0xbddfd516	-0.10929315
195	0xbe033267	-0.12812196
196	0xbe85b8f7	-0.2611768
197	0xbc137514	-0.009000082
198	0x3be3130d	0.0069297613
199	0x3ebddfc3	0.3708478
200	0x3d6ffb16	0.058589064
201	0x3e240f3c	0.16021436
202	0x3c93220c	0.01796057
203	0xbd588d1f	-0.05286896
204	0x3e79b5cc	0.24385756
205	0xbc6a0df7	-0.014285556
206	0x3e48994d	0.1958973
207	0x3e8761d6	0.2644183
208	0x3e964a64	0.2935363
209	0xbd5e27d7	-0.054237213
210	0xbc956a1c	-0.018239073
211	0x3e78008f	0.24218963
212	0x3d83c31c	0.064336985
213	0xbcd77d74	-0.026304938
214	0xbe01871a	-0.12649193
215	0xbca0f37f	-0.019647358
216	0xbe17beec	-0.14818925
217	0xbc8464cd	-0.016161347
218	0xbc64b864	-0.013959978
219	0xbc7941c5	-0.015213435
220	0x3c9f8f47	0.0194775
221	0x3e8dc918	0.27692485
222	0xbcfaa862	-0.03059787
223	0x00000000	0.0
224	0x3e9b1218	0.30287242
225	0xbe0a6e0f	-0.13518547
226	0x3e98e307	0.29860708
227	0x3d16009f	0.036621686
228	0x3e2520a0	0.16125727
229	0x3e4808d2	0.19534615
230	0x3dcf8959	0.10133619
231	0xbe9581c2	-0.2920056
232	0x3ea915d3	0.33024463
233	0xbd688b8f	-0.05677372
234	0xbcb76611	-0.022387536
235	0xbc2d5515	-0.010579367
236	0xbe0c9fb4	-0.13732797
237	0xbd0cd220	-0.03438008
238	0x3eae3cda	0.340308
239	0x3d24c058	0.040222496
240	0x3e324959	0.17410792
241	0x3dbdb604	0.09263232
242	0xbe369eee	-0.17834064
243	0x3e83d3e0	0.25747585
244	0x3e92ea7a	0.28694516
245	0x3d2b8f32	0.04188461
246	0x3e5877bb	0.21139424
247	0x3cce3932	0.025173757
248	0x00000000	0.0
249	0x00000000	0.0
250	0xbcfad02d	-0.030616844
251	0xbd07f7f6	-0.03319546
252	0xbcf49a63	-0.029858774
253	0x3e770cfe	0.2412605
254	0x3e370965	0.17874677
255	0xbe024702	-0.127224
