hydrone_aerial_underwater_ddpg/scripts/Models/sac_stage_1_air2D_tanh_2layers/200_policy_net.pth (torch_old, 30749 bytes, 6 tensors)

linear1.weight f4 [256, 24]
000000 32 08 c9 bc 93 a3 e6 bd e4 dc 8d 38 b2 11 fb bd
       -0.02454004 -0.11261668 6.764548e-05 -0.122592345
000010 5a c0 ad 3d b6 75 ff 3d 7f 8b 56 bd c3 05 83 bd
       0.08483954 0.124736235 -0.052379128 -0.06397583
000020 75 62 9b 3d b9 c6 1e bd 65 01 b4 3c 14 aa 68 3d
       0.075871386 -0.038763735 0.021973321 0.056802824
000030 29 5e dd 3d 50 aa 22 3d 1a c0 b1 bc 3e be 11 be
       0.10808975 0.039713204 -0.021698046 -0.14232728
000040 7e 60 0f 3c 83 a1 17 bc b1 cd d0 3d ae 5d f9 3d
       0.008751033 -0.009254816 0.101954825 0.12176071
000050 12 c1 be bd b5 d6 a8 3d c9 dc 35 3e d9 f0 c1 3d
       -0.09314169 0.08244077 0.17760004 0.09469766
000060 35 ec 83 bd c2 43 92 bd 41 e5 08 bd 62 2d 18 3e
       -0.06441537 -0.0714183 -0.03342176 0.14861062
000070 6f 6b e2 3d df 3a 4e be 30 20 32 bd 17 8a 7e be
       0.110556476 -0.20139645 -0.043487728 -0.24857365
000080 c7 1e 84 bd 6a a5 c6 bd c7 fb 64 3d 8b 89 09 3d
       -0.06451183 -0.09699519 0.055904176 0.033578437
000090 c7 1c 53 bd bc dc b7 3d 03 05 94 bd 37 be 50 ba
       -0.051541116 0.089776486 -0.072275184 -0.00079629145
0000a0 fd 5b 9b 3d 11 c5 aa 3d 05 13 27 3e 12 17 80 3d
       0.07585905 0.08338369 0.16315849 0.062544
0000b0 2d 6f 07 bd a8 39 8e 3d 7b 2c 0a 39 f6 41 7f bd
       -0.03306501 0.06944591 0.00013177276 -0.062318765
0000c0 2a 85 12 be 31 9e 13 3b 3c 4e bc bd 22 a8 db 3d
       -0.1430861 0.002252471 -0.091946095 0.10725428
0000d0 6e 3d fa 3d 36 96 41 3d d2 04 16 3c 09 3c 0f bd
       0.12218748 0.047262393 0.009156423 -0.034969363
0000e0 3d e6 09 be e6 bd 85 be ff 5c c7 bd 6b 19 f6 3c
       -0.13466735 -0.26121444 -0.097345345 0.030041417
0000f0 c9 6f f3 bd c5 db a0 bd 3a 9b a9 bd d2 69 1b 3e
       -0.11886556 -0.07854418 -0.0828156 0.15177086
000100 93 49 81 3d 44 60 15 bc 2b 95 be 3d 54 3b 80 3d
       0.06312861 -0.00911719 0.09305795 0.06261316
000110 e3 8c 27 3d 4a 4f ec 3e 39 4a 7d 3f 02 3d 44 bc
       0.040905844 0.46154243 0.9894138 -0.011977436
000120 ac 29 e6 3d fa 85 96 bb db e8 47 bc 77 a1 aa bb
       0.11238417 -0.004593608 -0.012201513 -0.0052072364
000130 a5 f9 d7 bc 81 23 a1 bd 41 7a 71 bd 51 11 64 3e
       -0.026364157 -0.078681 -0.05895448 0.2227223
000140 37 e0 0e 3e 4b 20 33 3e 52 c6 92 bc a5 1a 20 be
       0.13952719 0.17492788 -0.017916832 -0.15635164
000150 c9 8b cd 3c fb 45 18 be 67 14 6a be 2c 63 28 be
       0.025091069 -0.14870445 -0.22859345 -0.16444081
000160 be 67 20 be 6d 5a e5 bd 2c 1f eb 3d 4e e7 8f bd
       -0.15664575 -0.11198888 0.11480555 -0.0702654
000170 83 18 3e 3c 94 da ef 3d 30 5b 24 3f 0d 5b 09 3f
       0.011602524 0.11711612 0.6420164 0.5365456
000180 70 18 6d 3c 50 c6 c4 bd cb bb 8f bd 00 78 cc 38
       0.014471158 -0.096081376 -0.070182405 9.74983e-05
000190 da 41 bd bd a0 71 47 bc 29 d9 0d be 40 50 2f 3b
       -0.09241076 -0.012173086 -0.13852371 0.0026750714
0001a0 58 0d e1 3d b8 30 ec 3d de 63 4b bd ac 1a fd bd
       0.10988873 0.1153273 -0.049655788 -0.12358603
0001b0 e0 3c c8 bd 4d 82 05 be 92 57 d1 3d 50 75 9a 3d
       -0.09777236 -0.13037987 0.10221781 0.07541907
0001c0 a3 5a 02 be dd 7f de bd d8 61 c7 3c 65 93 fc bd
       -0.12729888 -0.10864232 0.024338648 -0.12332801
0001d0 68 e8 a6 3c b1 4b 85 bd 78 6f fa bd bf 54 be bd
       0.020374492 -0.065085776 -0.12228292 -0.09293508
0001e0 c9 ab b9 3d f3 ef 23 3e bf e7 28 3e db 94 50 3e
       0.090659685 0.16009502 0.16494654 0.20369284
0001f0 f3 13 08 bb 58 62 d1 3b e8 ab 35 3d 71 11 5b bc
       -0.0020763844 0.0063898973 0.044353396 -0.013370858
000200 c0 53 d3 3d 2a 0d 5f bd 86 f2 99 ba 7e c4 ad 3d
       0.103187084 -0.054455914 -0.0011745251 0.084847435
000210 cd eb 52 bb 63 77 af bd b7 81 2f be a9 8d 97 bc
       -0.0032184005 -0.08567693 -0.17139326 -0.018500166
000220 6e 1a 8f be 14 1f c0 be c9 11 87 be d1 33 37 bd
       -0.27949852 -0.3752371 -0.26380756 -0.04472715
000230 cd d3 6b be 09 4a 41 3d fe 68 fd 3e 93 24 4f bd
       -0.23030014 0.047189746 0.49494165 -0.05057199
000240 c0 b7 ad bd 79 24 d1 3d 71 4d 85 bd f8 fb e4 3d
       -0.08482313 0.10212035 -0.065089114 0.11180872
000250 a0 24 1c be 86 2c bc bd e7 13 e8 3d 9c 20 12 be
       -0.15248346 -0.0918818 0.11331921 -0.14270252
000260 36 28 fe 3d 7c 29 1d be 94 d2 f2 bd 03 fb 63 bd
       0.124100134 -0.15347856 -0.11856571 -0.055659305
000270 3f c9 ce 3d 71 9d f8 3c 26 40 00 be 16 05 08 be
       0.100969784 0.030348511 -0.1252447 -0.1328319
000280 f2 da 60 3d 66 63 99 3d 23 e7 a6 bd 93 1e b2 bd
       0.054896303 0.07489662 -0.081495546 -0.08697238
000290 8b 40 22 3d b9 70 2f 3d e9 eb f6 3c 3d c1 ed 3c
       0.039612334 0.04283211 0.030141788 0.029022807
0002a0 06 98 8b 3d 44 f8 99 3d 54 19 26 3c 89 b5 2c 3c
       0.068161055 0.07518056 0.010137875 0.010541328
0002b0 93 a2 3d be 14 ca e6 bd 2a 5f 71 3c 11 9a 1b 3e
       -0.18519048 -0.11269012 0.014732162 0.1519549
0002c0 05 3c 28 3e 25 77 ed bc bf ed 93 bd f4 aa d4 3c
       0.16429146 -0.028987477 -0.07223081 0.025960423
0002d0 75 bc e2 3c 50 bc 28 be 7f 0c ba 3d 87 b6 b0 3d
       0.027677754 -0.16478086 0.09084415 0.08628564
0002e0 c8 e1 1c be 34 68 85 3d 7a e2 a3 bc 2d d8 ef bd
       -0.15320504 0.06514016 -0.020005453 -0.11711154
0002f0 c5 5d 93 bc bb 8e 2f be 53 9e 59 3f 09 07 89 be
       -0.017989049 -0.17144291 0.8500721 -0.2676318
000300 a8 93 35 bc 0d 95 90 3c 70 34 bd bd df 40 b3 3d
       -0.011082567 0.017649198 -0.09238517 0.087526076
000310 be df 87 bc 43 58 b8 3d cb 5e f5 bc 23 c1 65 be
       -0.01658618 0.090012096 -0.029952427 -0.22436957
000320 81 e1 1f be e5 9e 19 be eb 25 e2 bd 52 bc 00 3e
       -0.15613367 -0.1500202 -0.110423885 0.12571838
000330 00 9c 9b 3d bc 7e 2d be dd 15 36 3c b4 22 05 3e
       0.07598114 -0.16942877 0.011113611 0.1300152
000340 39 a6 a6 bd 75 32 20 be 4a 08 08 3e 3d a2 31 be
       -0.08137173 -0.15644248 0.13284412 -0.17347045
000350 1d 94 49 be 71 11 5d be 8d 7c c0 bd 86 7a 26 be
       -0.19685407 -0.21588685 -0.09398756 -0.16257676
000360 60 79 29 3e b3 00 75 3e e3 20 32 3d 4e 0c 2a 3d
       0.16550207 0.23926048 0.043488394 0.04151564
000370 c2 99 19 be 90 d5 0b be b8 cb d8 3c b4 5c 58 3d
       -0.1500006 -0.13655686 0.026464328 0.052822784
000380 8c 06 a6 3c 72 64 1f bc ca 98 db bd 09 91 b2 bd
       0.020266794 -0.009728538 -0.107225016 -0.087190695
000390 09 39 62 be 39 f9 f0 bd 06 b4 26 3d 5a aa 31 be
       -0.2209207 -0.117662854 0.040699027 -0.1735014
0003a0 21 58 19 3d 1a f8 54 3d c6 7a 4a bd 96 eb 12 be
       0.037437562 0.05199442 -0.049433492 -0.14347681
0003b0 28 80 f1 be 42 03 bb be 00 a2 6e bf 96 23 cb 3e
       -0.47168088 -0.36525923 -0.9321594 0.39675587
0003c0 29 cb 37 3e 6d 16 ba bc 6a 1b 0e 3d 86 64 dc 3d
       0.17948593 -0.022715772 0.034694113 0.10761361
0003d0 56 4b 97 3c 2c 2c f3 bd f6 46 13 3d 48 db 43 3d
       0.01846854 -0.118736595 0.035956345 0.047816545
0003e0 70 f7 d6 bd 5e b4 02 3b 60 51 16 bd 65 f7 51 3e
       -0.10496414 0.0019943933 -0.0366987 0.2050453
0003f0 ad bc ad 3d ce d7 22 be 88 4c 46 be 89 05 ee bc
       0.08483253 -0.15902635 -0.19365132 -0.029055374

linear1.bias f4 [256]
000000 0d 54 13 bc 02 35 2c bd c2 bd b2 bc 9b 9d 9e 3b
       -0.008992207 -0.04204274 -0.021819 0.0048405654
000010 00 00 00 00 d2 1e c2 3d 88 5e cb bc f0 cc a7 bd
       0.0 0.09478535 -0.02482535 -0.081933856
000020 44 c9 31 bd 18 26 2b bc c2 84 d1 ba ef bb a7 bc
       -0.043404832 -0.010446094 -0.0015985 -0.020475356
000030 3f a3 29 bc 2e f0 7e bd 22 5f 0e 3d 92 30 be bc
       -0.010353862 -0.062240772 0.034758694 -0.02321652
000040 3d 70 25 bd 72 20 92 bc 40 ab 89 bc 79 a3 c5 bd
       -0.040390242 -0.017837737 -0.016805291 -0.096503206
000050 d4 1b 8a 3c bc 63 9f bc b9 82 c5 bc 48 ef 43 3c
       0.016858973 -0.019456737 -0.024110185 0.011958905
000060 74 a3 58 3b fd ac 6e bc 47 16 e2 3c 88 75 e6 bc
       0.003305641 -0.014567611 0.027598513 -0.028132215
000070 bb f0 b0 bc 92 4e 04 bd 51 48 39 3c bd c9 27 bd
       -0.021599164 -0.032301493 0.0113087455 -0.040963877
000080 00 00 00 00 04 4c 77 3d b9 4f c0 3d 10 43 9d bc
       0.0 0.06037523 0.09390206 -0.019197017
000090 d2 4e d8 bb 7a f8 e0 bc 09 33 47 bd 71 46 e4 3c
       -0.006601193 -0.027462233 -0.048632655 0.02786562
0000a0 c8 9f 8b bd 26 82 9e bc 99 22 fb 3d 02 a5 d9 3b
       -0.06817585 -0.019349169 0.12262458 0.006641985
0000b0 5c 99 63 bc 06 d3 0f 3d e8 c8 bc bc 00 00 00 00
       -0.013891544 0.035113357 -0.023045018 0.0
0000c0 fb 2e 49 bc 00 00 00 00 28 6a 37 be 86 b3 69 bc
       -0.012279267 0.0 -0.17911589 -0.014263993
0000d0 03 2a 28 3d 7a c6 56 3b 5f 3f 50 bc ef b3 97 3b
       0.04105569 0.003277211 -0.012710421 0.004629604
0000e0 8b 2f 04 3e 00 00 00 00 bb f4 b6 bc a1 5a 34 3d
       0.12908761 0.0 -0.022333493 0.044031743
0000f0 0f ae 73 bd 97 a7 18 3c c2 14 18 3c 61 5f a9 bc
       -0.059492167 0.0093173 0.009282293 -0.020675363
000100 b7 86 ec 3c fb 72 06 3d ba 2a 1c 3e 49 d4 75 bc
       0.02887283 0.032824498 0.15250674 -0.015004226
000110 00 00 00 00 02 d2 ee bc 14 77 d9 3c 25 e4 96 bc
       0.0 -0.029152874 0.026546039 -0.018419335
000120 47 55 ed bb 45 96 ed bc 00 00 00 00 43 d7 d3 bb
       -0.007242832 -0.029002318 0.0 -0.00646487
000130 6b e9 ef bc 82 81 7e bd 67 86 3e bc 90 65 97 bc
       -0.029286107 -0.062135227 -0.011628724 -0.018481046
000140 67 f0 83 3d 18 23 86 3d 3d ba 1b bc a2 30 15 bd
       0.064423375 0.06549662 -0.009504852 -0.036423333
000150 89 ae cc bc b4 4f 62 bd a2 05 d7 3a ef 6b 1c 3c
       -0.024985569 -0.055251792 0.0016404877 0.009547218
000160 1a d1 a7 3d 2f 8d 1b bc 9c d4 14 bd d6 f4 94 3b
       0.0819418 -0.00949411 -0.036335573 0.0045457883
000170 11 d8 bc bc c2 34 e8 3c 14 28 c9 bc c7 01 ea bc
       -0.023052247 0.02834547 -0.024555244 -0.0285653
000180 3d d4 59 bd 96 b4 cc bc 46 2f 19 bd 7a fd 84 3d
       -0.05318092 -0.024988454 -0.0373986 0.06493659
000190 94 d1 d0 bc c8 76 06 3e 52 2f d8 3c d6 a3 6c 3c
       -0.02549056 0.13131249 0.026389752 0.014443358
0001a0 f6 a0 b4 bc 9f f7 78 bc eb 0e ab bd 9e c6 90 3d
       -0.022049408 -0.015195756 -0.08352455 0.07069133
0001b0 e0 41 8e bc 83 61 fb bc 20 87 99 bc 1e c3 51 bd
       -0.017365396 -0.030686146 -0.01874119 -0.05121147
0001c0 62 fe 30 3d 99 6e 8f bd de fa e0 3c ee a2 07 3c
       0.04321135 -0.07003517 0.027463373 0.008278592
0001d0 b5 fb 4c bd a0 01 77 bc 6c c4 93 bd 5a 93 c7 3d
       -0.050044734 -0.015076071 -0.07215199 0.09744902
0001e0 b7 66 ab 3c 57 c0 1b bc 06 36 02 bc 21 12 42 bd
       0.020923002 -0.009506307 -0.0079474505 -0.04738057
0001f0 d1 97 82 bd b8 86 d8 3d 4b 9c 10 bd fc ab b0 bc
       -0.06376613 0.105725706 -0.035305303 -0.021566384
000200 6c e1 dc bc df 35 29 bd a5 19 c3 bc 0d 05 1c bc
       -0.026962958 -0.04131114 -0.02381594 -0.009522689
000210 37 ac c4 3d a2 7d 8e bc 12 8d b4 3c 7a 23 94 bc
       0.0960316 -0.01739389 0.022039924 -0.018083323
000220 95 7d 9f bd 40 04 e1 bb d0 35 84 3d cb 73 f9 bc
       -0.07787625 -0.0068669617 0.064555764 -0.030450722
000230 ae 9e 14 bd b8 04 3a bd 2a 49 09 bd 99 9c ca bc
       -0.03628414 -0.045414656 -0.03351704 -0.024732875
000240 dc 2d d1 3c 9a 1c 38 3c bf 7f 4d bd d1 a1 ad 3b
       0.025534563 0.011237288 -0.050170656 0.005298831
000250 fe b0 71 bc 4f eb 61 bd b3 2b 3f bb c6 b7 b5 bc
       -0.014751671 -0.05515605 -0.0029170334 -0.022182357
000260 90 bb f3 bc fe 1b f4 3d f4 b2 91 3c 45 58 e6 bc
       -0.029752523 0.119194016 0.017785527 -0.028118262
000270 98 f8 1a bd 64 61 cf 3d af 99 a3 bd ee 7d d1 3c
       -0.037834734 0.10125998 -0.07988297 0.025572743
000280 fd 84 58 bc 54 e9 97 3c a6 4c 38 bd d5 19 95 bc
       -0.013215301 0.018543877 -0.044994973 -0.018200794
000290 06 a4 f3 bc 68 25 98 3c 70 cd c2 3c 6a f2 73 bd
       -0.029741298 0.018572524 0.0237796 -0.059557356
0002a0 d6 8e a9 bb 23 1b 1a bc d8 f2 5a bc c5 ba 28 bd
       -0.005174498 -0.009405884 -0.0133635625 -0.041193742
0002b0 9f 17 5c bb 17 0f 5f 3d db f0 02 be 67 3e dc bc
       -0.0033583415 0.05445775 -0.12787192 -0.026885225
0002c0 5d 9e 4d bd 94 10 6b 3c 06 a0 e4 b8 bf 00 98 bd
       -0.050199855 0.014347214 -0.00010901694 -0.07422017
0002d0 05 2b 35 3d 22 51 a1 bd aa 5a f1 3c 58 73 d7 bc
       0.04423048 -0.07876803 0.029462177 -0.026300117
0002e0 55 0e 09 bd 00 00 00 00 00 00 00 00 53 0f 9b bc
       -0.033460934 0.0 0.0 -0.018928206
0002f0 d4 53 01 3b 93 03 ee 3c 2b 85 c3 bc 4f 62 27 bc
       0.0019733803 0.029054439 -0.02386721 -0.01021631
000300 a7 87 0d bd 3b 01 f0 bc 42 9a 55 3d a8 16 a4 bd
       -0.034553196 -0.029297462 0.052149065 -0.08012134
000310 e4 11 93 bc e6 4d ae 3c 06 2a 22 bd e4 f4 3a bc
       -0.017952867 0.02127738 -0.039590858 -0.011410926
000320 92 d2 e6 bc 0b ab dd bc df 4f 3f bc 00 00 00 00
       -0.02817658 -0.027059099 -0.011676758 0.0
000330 95 b3 17 3e 5e 02 04 bd b6 20 19 3a 00 00 00 00
       0.14814599 -0.03222882 0.0005841361 0.0
000340 c3 c8 9a bc 6a 9c 9f bb f3 24 17 3c 00 00 00 00
       -0.018894559 -0.004870941 0.009225118 0.0
000350 cc ac 09 3c 74 10 f8 bc f9 14 54 bd 00 00 00 00
       0.008403014 -0.030281283 -0.051777814 0.0
000360 e2 bc 3f bc 4e 5f 6f bd 4d 7e 6b bd d1 c2 6f ba
       -0.011702748 -0.0584405 -0.057493497 -0.00091461564
000370 2b 8b d7 bd 72 e2 8c bc 4b 9e 56 3d 6b 46 67 3a
       -0.10524591 -0.017197821 0.052397054 0.0008822444
000380 b7 c0 2a bb 5e 47 4d bc ea c7 e2 bc cb 2b 4b bd
       -0.0026054808 -0.012529222 -0.027683217 -0.04960231
000390 df 2b dc ba 3f 94 82 bc fc 39 a8 3b 02 e6 0b bd
       -0.0016797743 -0.01593983 0.0051338654 -0.0341549
0003a0 86 69 89 bd d0 71 4a 3c b2 da 81 3c fe 7b b6 3c
       -0.0670958 0.012356237 0.015851352 0.022275921
0003b0 3e 51 6c 3c ac e9 27 3c aa 26 22 be 8b 85 e1 bc
       0.0144236665 0.010248583 -0.15835062 -0.027529499
0003c0 de c0 1a 3d f1 3c c2 bc 6a bb 71 bd 03 1d 44 3d
       0.03778159 -0.0237107 -0.059016623 0.04787923
0003d0 5a c6 a1 bc a4 2f 81 bc 2b 24 1a bc 24 5e a1 3d
       -0.019747902 -0.015769787 -0.009408037 0.07879284
0003e0 a5 00 9a bd ee 68 9f 3c 0c 36 17 bd 1d 59 aa bc
       -0.07519654 0.019459214 -0.036916777 -0.020794446
0003f0 71 07 48 3d 79 b3 11 ba f4 88 e1 bc 43 72 52 3c
       0.04883522 -0.00055580545 -0.027531125 0.012844625

mean_linear.weight f4 [2, 256]
000000 0d d2 26 bd 19 fb e3 3c f0 1c 11 3f 99 08 94 be
       -0.040727664 0.027829694 0.5668478 -0.2891281
000010 40 92 69 bd 62 c9 2e bf 41 cb ae 3d 33 07 41 3f
       -0.05702424 -0.68276036 0.08534861 0.7540161
000020 cd c1 b5 bb 23 32 9a be a3 4a 52 3e 96 6e 55 3e
       -0.0055467845 -0.30116376 0.20536284 0.20842966
000030 0d 0a c9 3d ed 50 96 3e e6 aa f8 3d e8 33 2e bd
       0.0981637 0.29358616 0.12141971 -0.04252997
000040 ad c8 da 3e c1 5c 9e bd f5 cf 16 be e0 87 1f be
       0.42731228 -0.07732535 -0.14727767 -0.15579176
000050 1c f7 5c 3e fc ef 5b 3d a3 5a c4 3d c3 33 50 3d
       0.2157864 0.053695664 0.095876 0.050830614
000060 cb d5 8e 3e 8b b5 81 3e fb af b2 3d 4b e2 1a be
       0.27897486 0.2533382 0.08724972 -0.15125386
000070 ae 83 d6 bd 8c 8b 9d bd 93 6e 80 3e 34 cb 3d 3e
       -0.10474335 -0.07692632 0.2508436 0.18534547
000080 08 80 12 bd 0d f0 9a be 33 26 d0 3d 0f 14 e9 be
       -0.03576663 -0.3026127 0.10163536 -0.45523116
000090 7f af c2 bd ea 79 9d 3e 7b f0 40 3f f5 29 8b 3f
       -0.095061295 0.30757076 0.75366944 1.0872179
0000a0 f8 a0 c1 be 06 76 a2 3d 01 83 7d 3e f3 35 6b be
       -0.37818122 0.079326674 0.24757005 -0.22969799
0000b0 d6 8e df bd 57 b1 e2 be 7e 97 ba 3d 3c e2 eb bd
       -0.10915916 -0.44275925 0.09110926 -0.1151776
0000c0 3a 1e 9a 3d d8 dd e0 3d 4d 1f 73 3f 45 06 cd 3d
       0.075252965 0.10979813 0.94969636 0.100109614
0000d0 ee 2c 58 3e c2 e3 c0 bd 87 a9 63 3d 58 42 b4 bd
       0.2111089 -0.09418441 0.055581596 -0.088017166
0000e0 67 26 54 3e 7f 0c 8d bd 01 77 3a be 90 c2 dc 3d
       0.20717774 -0.06887149 -0.18209459 0.10779297
0000f0 e1 3a 92 3e bd f7 ea be 88 9f c6 be 76 05 92 bc
       0.28560546 -0.45892134 -0.38793588 -0.01782487
000100 b8 a8 3d bf e1 1f 34 3d f0 14 69 3e 87 d7 26 3e
       -0.7408557 0.043975715 0.22761893 0.16293155
000110 de 3b d8 bd 0d f5 ca b9 31 3a 27 bc 4d fd e7 bd
       -0.10558294 -0.0003871102 -0.010206745 -0.1132761
000120 97 a5 8f be 16 b5 03 bf c0 da e3 3c 4c c6 b8 bd
       -0.28056023 -0.5144819 0.027814269 -0.09022197
000130 9c b7 e1 bc f3 6e ce 3d 9a fa 90 3d 57 c3 84 be
       -0.027553372 0.10079756 0.070790485 -0.25930282
000140 fa f0 03 bf 40 58 ff 3d 69 0a 15 3c 75 5c 3e bf
       -0.51539576 0.12468004 0.00909672 -0.7435983
000150 dc 51 c2 3d a3 05 b2 3e 4b 7e df be 39 59 84 3d
       0.0948827 0.34769925 -0.4365104 0.0646233
000160 bf 5d a2 3c d1 19 1c 3d 7e 4e 66 3f 44 18 05 bf
       0.019820092 0.038110558 0.8996352 -0.5199015
000170 39 18 40 bd 34 f4 24 3e 49 5b c3 3e 3c 65 f8 bd
       -0.0468981 0.16108781 0.38155583 -0.12128684
000180 e6 2d 75 3e e0 e1 5e bd 5c 5e 94 be 2f 67 88 3c
       0.2394329 -0.05441463 -0.2897824 0.016650764
000190 47 bb ee bd fa cd 5a bf cb ef fb bc e5 52 a7 be
       -0.11656814 -0.85470545 -0.03075399 -0.3268043
0001a0 9c d7 f8 3d cf 54 d3 bb 97 08 19 be f3 08 0e be
       0.12150499 -0.006449319 -0.14944683 -0.13870601
0001b0 56 08 ba 3d 26 eb 88 3f 6e fb 04 3e db 40 1b 3f
       0.09083621 1.0696762 0.12986538 0.60645837
0001c0 25 18 54 be c5 41 81 bd 5e d4 d9 3e d4 51 a2 3c
       -0.20712335 -0.06311373 0.42544836 0.01981441
0001d0 74 63 59 bf c6 ed 9d bd 4d 97 e4 3e 27 3a 16 bf
       -0.8491738 -0.07711367 0.44646683 -0.58682483
0001e0 7a c0 78 3f d2 d9 d8 bc df 0a f1 3c 03 94 48 3e
       0.97168696 -0.026471052 0.029424129 0.19587712
0001f0 74 6a 5b be 58 40 c3 bd ab 2e a5 be ee 05 69 bd
       -0.21427327 -0.09533757 -0.32262167 -0.05689042
000200 53 7c f0 be 82 c5 3a be a2 c0 68 bd 87 cb 95 3d
       -0.46969852 -0.18239406 -0.056824334 0.073142104
000210 df 79 ac bd ae bc 29 be fc 47 cc 3b 2b d6 b1 3d
       -0.084216826 -0.16575882 0.006234167 0.086834274
000220 72 5c e3 3e ef 10 4f 3d 39 e8 a8 3e a9 12 bb be
       0.44406468 0.05055326 0.32989672 -0.36537674
000230 d2 3e 2d bf 92 fb ac be ca 19 ac 3b dc 69 0f bf
       -0.6767398 -0.33785683 0.0052520977 -0.56020904
000240 dc 91 c8 3f 9f a5 be bd a5 46 f2 3d dd 91 a4 3e
       1.5669513 -0.093089335 0.118298806 0.32142535
000250 3f 82 18 3e 57 c0 95 bd 53 58 07 3e b0 c5 48 bf
       0.14893435 -0.073120765 0.13217287 -0.7842665
000260 4a a8 64 3e 75 36 b6 bd 11 f1 61 3e ba 73 f9 bc
       0.22329822 -0.088971056 0.22064616 -0.03045069
000270 a5 7f 88 be 0d ea a1 3c f3 80 82 bf 10 a4 2e 3e
       -0.26659885 0.019764924 -1.0195602 0.17054772
000280 59 0f db 3e 22 2a 91 3e fb 6c 1f 3f e0 ab 6d 3d
       0.42785147 0.28352457 0.62275666 0.05802524
000290 07 0b ac 3d 1f af a0 3f f9 72 25 bf 40 e4 07 bd
       0.08400541 1.2553443 -0.6462856 -0.03317666
0002a0 4d c3 22 bf d5 1b 35 bd 6f f9 fd 3e 8d 35 f2 3e
       -0.63579255 -0.044215996 0.49604365 0.4730648
0002b0 a5 57 e0 bd 8b 0e bf 3e 6a ad 3b bf bc 1e a4 3d
       -0.10954217 0.37315783 -0.73311484 0.080136746
0002c0 04 56 1f bf 35 39 e5 bd 20 59 58 3d bd 10 2a bf
       -0.62240624 -0.11192552 0.05281937 -0.6643179
0002d0 7b ed d9 3d bb 34 10 bf 44 5b d9 be 09 4e d0 be
       0.10640999 -0.5633046 -0.42452443 -0.40684536
0002e0 17 ea bb bd ae a5 43 bd ea 37 d0 bd e0 1f 17 bc
       -0.091755085 -0.047765426 -0.10166915 -0.009223908
0002f0 ec b6 88 be 4e 59 04 be cf 55 8b 3d d1 2e 52 3f
       -0.26702058 -0.12924692 0.06803476 0.82102686
000300 12 50 97 be 69 0f aa 3e b4 e9 df 3c f8 3d dd bd
       -0.29553276 0.33214882 0.027333118 -0.10802835
000310 32 82 9f be b4 5d b4 3e 5d 37 32 3d 99 e7 12 be
       -0.3115402 0.3522774 0.04350983 -0.1434616
000320 1d 13 44 3f 56 73 1c 3e e1 86 0d 3e 9a ac 86 bd
       0.76591665 0.15278372 0.13820983 -0.0657589
000330 61 d9 35 3f a9 9e 42 3e dc 4e ad 3d 09 02 12 be
       0.7103482 0.19005837 0.08462307 -0.14258589
000340 6c 27 05 be 1c 36 c0 be c7 b9 07 3f 6c ae 89 bd
       -0.1300332 -0.37541282 0.5301785 -0.067227215
000350 f3 f2 2d be 59 64 45 bd a6 35 6a bf 05 a4 fb bd
       -0.16987209 -0.048191402 -0.9148811 -0.122871436
000360 0e 7d 65 bd 9e df 12 be 4d 42 51 3e 0f af 96 3e
       -0.056027465 -0.14343116 0.20435448 0.29430434
000370 0e cb 67 bf 6e ad 86 bd ed ae 2f bf a2 95 80 be
       -0.9054421 -0.06576048 -0.6862629 -0.2511416
000380 6a 34 1e bc 3d 89 d9 3d 39 b8 86 bd 38 a7 d3 be
       -0.009656051 0.10621879 -0.065781064 -0.41338515
000390 35 dc 1a bd 16 29 80 3d d6 d2 ab 3e 4a d4 ac 3d
       -0.037807662 0.062578365 0.33559293 0.084389284
0003a0 49 47 06 3f 73 7c f3 3d 27 8b 1c 3e f7 f3 ff 3e
       0.5245252 0.11888971 0.15287457 0.49990818
0003b0 ac da 49 bf 84 ac ec bd 19 c5 b7 3f 2a 2b 4b 3f
       -0.7884929 -0.11556342 1.4357024 0.7936274
0003c0 71 5d 11 3f 07 ff 2d 3d 02 6c 49 bf 19 1e f5 3f
       0.56783205 0.04247954 -0.7868043 1.914981
0003d0 d6 1c 2a bf 01 fc dc 3e dc 29 d1 3c ae 8b 88 3e
       -0.6645025 0.43161014 0.025532655 0.26669067
0003e0 8c 90 a8 bc be 7a 9f be be 19 6b 3e 7c 4d b0 be
       -0.020576738 -0.31148332 0.22959039 -0.34434116
0003f0 0c b6 77 3f be a4 2a 3e e5 07 20 bf 88 c4 1b bc
       0.96762156 0.16664407 -0.62512046 -0.009507306

mean_linear.bias f4 [2]
000000 88 a4 e6 3c 70 16 9d bc
       0.028154626 -0.019175738

log_std_linear.weight f4 [2, 256]
000000 e7 55 25 3d cc 3f 26 3d e6 62 6d 3e cb 1f af bc
       0.040365126 0.040588185 0.23182258 -0.021377465
000010 28 32 12 3d 27 a0 69 be 67 db 9e 3d 09 0c ba 3e
       0.035692364 -0.22815 0.077566914 0.36337307
000020 b2 87 3c 3e 3b 00 cf bc fb 10 40 bd be 71 3a 3d
       0.18411139 -0.025268665 -0.046891194 0.04551863
000030 00 e0 7f 3c d2 7b 28 3e 52 c8 61 3d 5c 89 19 3c
       0.015617371 0.16453484 0.05512268 0.009371128
000040 ee 63 e1 3c ca 78 12 3e 03 64 cc 3d 3e 77 4e 3d
       0.02751347 0.1430389 0.09980013 0.050406687
000050 7b 56 27 3c 95 27 d2 bd 39 79 bb bc a5 b4 15 bd
       0.01021349 -0.10261456 -0.022884952 -0.03654923
000060 e5 63 f9 3a b5 05 31 be 1d 26 be 3d 1e 37 02 3e
       0.0019026963 -0.17287333 0.09284613 0.12716338
000070 2a 07 c0 3d 59 c5 67 be 99 b2 d3 3c e7 ac 06 bd
       0.093763664 -0.22633876 0.025841998 -0.032879736
000080 1e f9 04 3e 30 89 8f 3d ed 27 ce bd 57 0c b3 bd
       0.12985656 0.07008588 -0.10066209 -0.08742588
000090 a6 a2 94 3c 78 1c cc 3d f8 75 b4 bd d6 9c 07 3f
       0.018143963 0.099663675 -0.08811563 0.5297369
0000a0 a6 12 0d bd 66 f1 14 3d 19 02 c3 bb ae 26 59 bd
       -0.034441613 0.036363028 -0.005951178 -0.053015403
0000b0 91 22 11 3d 61 d9 70 be 2e bb cf bd c6 1d 5a bd
       0.035433356 -0.23520423 -0.101431236 -0.05325105
0000c0 f1 55 c3 3d 00 6f ce bc 4b 02 9a 3c a4 7b 06 bd
       0.095378764 -0.025199413 0.018799921 -0.032832757
0000d0 85 5d 04 3d 29 b7 d0 bd 6b 25 05 3e 51 93 f3 3a
       0.03231575 -0.10191185 0.13002555 0.0018583332
0000e0 f9 a8 a1 bc b4 1e 9b 3d a8 41 c7 3d 20 46 62 bd
       -0.019733893 0.075742155 0.0972932 -0.055242658
0000f0 21 18 bd bd 26 fa 5d 3e 53 78 51 3e 56 55 ae bc
       -0.09233118 0.21677455 0.20456056 -0.021280926
000100 e2 a8 92 bd 0b b4 af bd a0 b4 d1 3c 9c 1a 1d 3d
       -0.07161118 -0.08579262 0.025598824 0.038355455
000110 54 3f 14 3d f7 4f 67 bd af 1d 8d bd 76 00 ac 3c
       0.036193207 -0.056472745 -0.06890427 0.020996314
000120 3d a8 22 3e 18 0d 27 bd 64 a0 55 3d 49 bb 88 bc
       0.1588449 -0.04078397 0.052154914 -0.016690867
000130 ba 37 02 3d f9 61 99 ba a9 30 15 3d 9a 6e 04 be
       0.031791426 -0.0011702172 0.03642336 -0.12932816
000140 d3 dd 72 be 02 81 98 3d 94 31 8c 3c 9f 87 85 3d
       -0.23717432 0.07446481 0.017113484 0.06520008
000150 2a 2a 93 3d 47 ba 70 3e de 76 2c be 18 47 ad bd
       0.071857765 0.23508559 -0.16842219 -0.08460826
000160 0b a6 44 be e1 74 1f 3e 14 c2 c3 bc 59 48 0b 3c
       -0.19203965 0.1557193 -0.023896255 0.008501136
000170 e7 0a 6d bd c3 a8 10 3e 59 fe 2a 3e 86 95 79 be
       -0.057871725 0.14126877 0.16698588 -0.24373445
000180 3d ed 7e bc 62 bd 0b 3d 28 f4 b5 bd ba db c5 3c
       -0.015559492 0.034116156 -0.0888446 0.024152625
000190 d1 a0 a7 bc 32 d6 eb 3c 2e 62 1e 39 e5 85 31 3e
       -0.020462425 0.02878866 0.00015104629 0.17336233
0001a0 54 9e 32 3d 8f cc 04 3e d7 19 02 3e 73 03 70 bd
       0.043608025 0.12968658 0.1270517 -0.05859704
0001b0 0d 8a eb bc 96 90 ea 3d 36 8e 26 3c 13 42 33 3e
       -0.028752351 0.11453359 0.010165742 0.17505674
0001c0 3c 02 16 be 12 c5 2f 3d 13 83 8c 3d 46 98 4f bd
       -0.1464929 0.04291255 0.06860938 -0.05068233
0001d0 9d 02 29 3d e9 b0 a7 bb 99 8c 0e 3e 2c 5f c5 3c
       0.041262258 -0.005117525 0.13920821 0.024093233
0001e0 72 56 f6 bd a2 42 0a 3e 41 01 d5 3d 66 5d 0d 3e
       -0.12028207 0.13501981 0.1040063 0.1380516
0001f0 23 d1 89 3d 9d e4 93 3c 9c 36 4c bd 5d 7e 0f 3e
       0.06729343 0.018053347 -0.049856767 0.14013048
000200 05 a8 38 be 6d 23 04 3d 06 df ee bd 0c 98 b8 bb
       -0.18032844 0.032260347 -0.11663632 -0.00563336
000210 8f 64 3a be d4 fc 7a 3c 25 f0 3c bc d3 4e c6 3d
       -0.18202423 0.015319068 -0.011531864 0.09683003
000220 a0 37 16 3e 6b 77 dd bd 94 30 39 be 7c db f7 3b
       0.14669657 -0.10813793 -0.18084937 0.0075640064
000230 89 e5 98 3d 53 01 0b be 95 f8 8a 3d 86 86 27 bd
       0.07465655 -0.13574724 0.067856945 -0.040899776
000240 02 53 aa bc 65 5a 37 bd e8 8c 51 bc a9 7b 09 be
       -0.020791534 -0.04476394 -0.012789942 -0.13426079
000250 fb ac af bc 5f 17 66 3e 5f a1 a0 bd bd 7d e3 bd
       -0.021444788 0.22469853 -0.07843279 -0.11107967
000260 b7 ca 87 bd b6 2a e1 bd 4e 52 2a 3d 12 e1 04 3e
       -0.06630462 -0.109944746 0.041582398 0.12976483
000270 0c 1a 49 bc 09 87 41 3d 8f 00 1d 3d cf 0e c9 3c
       -0.012274276 0.04724792 0.03833061 0.024543194
000280 44 7c 12 3d 8d b9 b6 3d aa b8 d0 3d 16 1b af 3d
       0.03576304 0.0892211 0.10191472 0.08550088
000290 89 2d 75 bd 36 b2 75 3d eb 4b 06 bd 11 fe 92 bd
       -0.05985788 0.05998441 -0.032787245 -0.071773656
0002a0 15 0b 6b 3c 59 14 04 be e7 8e f6 bd 11 1d 53 3e
       0.014345904 -0.12898387 -0.12038975 0.20616557
0002b0 27 41 50 3d d3 69 b6 3d 0a 2f f0 3d bc be b1 3c
       0.050843384 0.08906903 0.11727722 0.021697395
0002c0 46 30 ba bd 7e 61 c4 3c 9b 4a 0c be dc 99 1d bc
       -0.09091239 0.02397227 -0.13700335 -0.009619202
0002d0 28 57 d5 bd 2a 00 19 3e e8 e3 44 3c f9 b3 09 3d
       -0.10417014 0.14941469 0.012017228 0.0336189
0002e0 47 8c 87 bc e0 7a 73 3c 9c 4c 0c 3e 1b b4 24 3d
       -0.016546382 0.014860839 0.13701099 0.040210824
0002f0 bd ed 8a bd 18 95 09 3e 20 d9 51 3d c5 85 67 be
       -0.06783626 0.13435781 0.051232457 -0.22609623
000300 ff 30 9b 3c 87 d4 85 3e 6e 0e 2d 3d e8 61 5a 3c
       0.018944262 0.26138708 0.04225009 0.013329007
000310 75 fe 1c be d8 cf 1c 3e f4 66 7c bd aa e2 f2 bc
       -0.15331443 0.15313661 -0.06162162 -0.029649097
000320 4b b5 ab bd 46 e0 20 3e b5 c3 a5 3d 00 05 bf ba
       -0.08384188 0.15710554 0.08093969 -0.0014573634
000330 68 fb f9 bd d4 8b 16 3d 88 e9 23 be 00 54 51 3c
       -0.12206155 0.036754444 -0.16007054 0.012776375
000340 dc 71 dd bd 36 63 04 be 76 d5 6a 3e f4 61 f8 bc
       -0.108127326 -0.12928471 0.22932991 -0.030320145
000350 59 13 a6 bd b0 ba f1 bc dd 01 70 bc 72 a6 c2 3d
       -0.08109159 -0.029507965 -0.014648882 0.09504403
000360 5e 5a 01 3b e2 69 a3 3c fa a8 b9 bd f7 5b f1 3d
       0.00197377 0.01994795 -0.09065433 0.11785119
000370 28 0b c2 3a 9e f5 86 3d b6 07 cf 3d a9 76 b0 bd
       0.001480435 0.065898165 0.101088926 -0.08616383
000380 aa 5c fe bd 7c bb 40 bd 16 43 a7 bd dd 3f ae 3c
       -0.12420018 -0.0470538 -0.081670925 0.021270687
000390 85 14 30 be 85 ac be bd 7b 12 13 3e cc 94 ce 3d
       -0.17195328 -0.09310249 0.14362518 0.100869745
0003a0 ac 35 aa bd 2f 0f a9 bd 16 77 60 3e 1b 75 7e 3b
       -0.08311018 -0.08254849 0.21920428 0.0038827125
0003b0 22 72 b0 bd 87 fb 71 bd 38 60 82 3e 5a 37 16 3e
       -0.08615519 -0.059077766 0.25464034 0.14669552
0003c0 5e 3c a1 3d a2 56 89 bd 82 b9 e5 3d 75 c9 b5 3e
       0.07872842 -0.06705977 0.112170234 0.35505262
0003d0 cf 21 b0 bd d4 2b 41 3e fb d5 91 bd 86 ac c9 bd
       -0.086001985 0.18864375 -0.07120892 -0.09847359
0003e0 4b b1 35 3d 23 fb 0c be 5f 40 44 3e 36 09 ad 3b
       0.044358533 -0.13767676 0.1916518 0.005280639
0003f0 3e a1 43 3d 11 20 20 bd ea fa af bd 74 3d d3 bd
       0.047761194 -0.03909308 -0.0859278 -0.10314456

log_std_linear.bias f4 [2]
000000 1d c5 fe bd f8 93 34 be
       -0.1243994 -0.1763457
