hydrone_aerial_underwater_ddpg/scripts/Models/sac_stage_1_air2D_tanh_2layers/440_policy_net.pth (torch_old, 30749 bytes, 6 tensors)

linear1.weight f4 [256, 24]
000000 80 c5 8d 3c 80 6d 46 be 6f 44 87 bd df 5a 4e be
       0.01730609 -0.19377708 -0.066048495 -0.20151852
000010 29 ad b5 3a de 7d d7 3d 62 29 92 bd 1c 46 23 bd
       0.001386081 0.10522054 -0.071367994 -0.039861783
000020 a2 56 83 3d 65 20 93 bd 9f cb 9a bd 2c b7 68 3c
       0.06413008 -0.07183913 -0.07558369 0.014203828
000030 88 f5 d3 3d 9e 2a 91 bd 44 c1 29 be 0d 70 92 be
       0.10349566 -0.07088207 -0.16577631 -0.28601113
000040 7f 30 b1 bd d4 09 48 bd 4e 2b 20 3e 8b e6 c4 3d
       -0.08651828 -0.048837498 0.1564152 0.09614285
000050 c3 ee d0 be 94 88 6c 3e 54 3f 06 3d a0 94 5a be
       -0.4080716 0.23098975 0.03277524 -0.21345758
000060 5a 9b 19 be 6e 0c 63 be fc 6c 27 be 38 7c 80 3d
       -0.15000668 -0.2217271 -0.16350168 0.06273693
000070 4c 59 20 3e e8 2c 24 be 1a c9 1e 3c 46 34 9b be
       0.15659064 -0.16032755 0.009691501 -0.3031332
000080 1a 77 d9 bd 17 6e d9 bd c9 c4 cb 3c 1c 6f 7f 3c
       -0.1061842 -0.10616701 0.024874108 0.015590455
000090 1e b0 c5 bd fb 55 b8 3d 1d b8 d4 bd d5 03 50 bd
       -0.09652732 0.090007745 -0.10386679 -0.050784905
0000a0 ef 4c 95 3c 01 b2 bf 3d 57 1e 74 3e f0 c5 93 3d
       0.018225161 0.093601234 0.23839699 0.07215488
0000b0 95 3a 4b 3d d4 23 fe 3e 3b 48 31 be 97 f4 d1 be
       0.049616415 0.4963671 -0.1731271 -0.4100692
0000c0 e6 74 a1 3b d3 30 07 3e 9f b0 58 bd 74 9f 9a 3d
       0.0049272655 0.13202219 -0.052902814 0.075499445
0000d0 87 b4 44 3e 4e 17 d6 3d fd ca 70 3d 56 78 f7 3c
       0.1920949 0.10453664 0.058787335 0.030208748
0000e0 b3 b6 16 be 01 6d a9 be 46 65 88 be bd 72 1d be
       -0.14718132 -0.33090976 -0.26639766 -0.153758
0000f0 f3 44 79 be 44 52 85 be 8f 9f 06 be 04 16 38 3d
       -0.24342708 -0.26039326 -0.13146804 0.04494287
000100 5f b9 b3 bd 55 c3 f2 39 56 d3 b0 3d de 3b bb 3d
       -0.08775591 0.0004630337 0.08634059 0.09142278
000110 8a 94 b0 bc 2a 4c 87 3e e9 32 93 3f 3b 5c 8b be
       -0.021555204 0.26425296 1.1499912 -0.27218804
000120 6b c3 25 3e c8 03 c4 3b a4 b2 4a 3c 21 1d b4 bd
       0.16187827 0.005981896 0.012371693 -0.087946184
000130 44 15 e1 bd c9 51 16 bd f5 27 b3 bc 94 63 7f 3e
       -0.10990384 -0.03669909 -0.021869639 0.2494033
000140 d9 b6 47 3e e6 7c ca 3d 1e bb 0e be b5 cc 4f be
       0.19503345 0.09887104 -0.13938567 -0.20292933
000150 05 cf 07 3c ae 21 cd bd b4 01 67 be fc 62 86 bd
       0.008289103 -0.100161895 -0.22559243 -0.065618485
000160 9e 76 2e be cf 28 11 be be d0 2e bc 1a 89 1d bd
       -0.17037436 -0.14175723 -0.010669885 -0.03846083
000170 28 5b ec bd ca 0e c7 be 72 8e 7b 3e 0a 59 3e 3f
       -0.11540824 -0.3887847 0.24566057 0.7435461
000180 70 18 6d 3c 50 c6 c4 bd cb bb 8f bd 00 78 cc 38
       0.014471158 -0.096081376 -0.070182405 9.74983e-05
000190 da 41 bd bd a0 71 47 bc 29 d9 0d be 40 50 2f 3b
       -0.09241076 -0.012173086 -0.13852371 0.0026750714
0001a0 58 0d e1 3d b8 30 ec 3d de 63 4b bd ac 1a fd bd
       0.10988873 0.1153273 -0.049655788 -0.12358603
0001b0 e0 3c c8 bd 4d 82 05 be 92 57 d1 3d 50 75 9a 3d
       -0.09777236 -0.13037987 0.10221781 0.07541907
0001c0 a3 5a 02 be dd 7f de bd d8 61 c7 3c 65 93 fc bd
       -0.12729888 -0.10864232 0.024338648 -0.12332801
0001d0 68 e8 a6 3c b1 4b 85 bd 78 6f fa bd bf 54 be bd
       0.020374492 -0.065085776 -0.12228292 -0.09293508
0001e0 93 ca 57 3e 17 70 63 3e 81 71 32 3e 94 b7 38 3e
       0.2107337 0.22210728 0.17426111 0.1803878
0001f0 56 66 27 bd 04 2c 2d 3c ed f8 b3 3d c4 3d 66 bd
       -0.04086908 0.010569576 0.08787713 -0.056211248
000200 1c c5 e7 3d a0 19 40 be 66 20 5a be 0f 8a 2d be
       0.113168925 -0.18759775 -0.21301422 -0.16947196
000210 dc 10 97 be 77 48 b2 be f6 20 c1 be a1 00 db bc
       -0.2950505 -0.3482091 -0.3772046 -0.026733698
000220 25 5e 19 be 41 06 c7 bd d5 1b eb bd d6 34 cf 3c
       -0.1497732 -0.0971799 -0.11479918 0.025293749
000230 0e 90 22 bf 54 c5 80 be 1a e2 d0 bd e2 b1 70 3d
       -0.6350106 -0.2515055 -0.101993755 0.058763392
000240 c0 b7 ad bd 79 24 d1 3d 71 4d 85 bd f8 fb e4 3d
       -0.08482313 0.10212035 -0.065089114 0.11180872
000250 a0 24 1c be 86 2c bc bd e7 13 e8 3d 9c 20 12 be
       -0.15248346 -0.0918818 0.11331921 -0.14270252
000260 36 28 fe 3d 7c 29 1d be 94 d2 f2 bd 03 fb 63 bd
       0.124100134 -0.15347856 -0.11856571 -0.055659305
000270 3f c9 ce 3d 71 9d f8 3c 26 40 00 be 16 05 08 be
       0.100969784 0.030348511 -0.1252447 -0.1328319
000280 f2 da 60 3d 66 63 99 3d 23 e7 a6 bd 93 1e b2 bd
       0.054896303 0.07489662 -0.081495546 -0.08697238
000290 8b 40 22 3d b9 70 2f 3d e9 eb f6 3c 3d c1 ed 3c
       0.039612334 0.04283211 0.030141788 0.029022807
0002a0 09 70 f0 3d 5b 9e 80 3c 05 cd 4f 3b 27 4c d9 ba
       0.11740119 0.01570051 0.0031707895 -0.0016578481
0002b0 ad 09 22 be 26 db b8 bd 6f 82 19 3d e8 b3 38 3d
       -0.15824004 -0.09026174 0.037477907 0.045093447
0002c0 5e af 9b 3d db 44 bf bd 83 7e 37 be fe 89 93 bd
       0.07601808 -0.09339305 -0.17919354 -0.07204054
0002d0 17 5d 36 bd ed 14 09 be 4f cd 3a 3d 8a 5d 80 3b
       -0.04452237 -0.13386889 0.045605954 0.0039174007
0002e0 e1 68 00 be 86 4e f9 ba cb ca b3 bc 67 28 42 3b
       -0.12540008 -0.0019020594 -0.021947285 0.0029626132
0002f0 7a 56 74 3e d1 41 28 be a2 18 94 3f 43 b0 86 bf
       0.23861113 -0.16431357 1.1570017 -1.0522541
000300 a8 93 35 bc 0d 95 90 3c 70 34 bd bd df 40 b3 3d
       -0.011082567 0.017649198 -0.09238517 0.087526076
000310 be df 87 bc 43 58 b8 3d cb 5e f5 bc 23 c1 65 be
       -0.01658618 0.090012096 -0.029952427 -0.22436957
000320 81 e1 1f be e5 9e 19 be eb 25 e2 bd 52 bc 00 3e
       -0.15613367 -0.1500202 -0.110423885 0.12571838
000330 00 9c 9b 3d bc 7e 2d be dd 15 36 3c b4 22 05 3e
       0.07598114 -0.16942877 0.011113611 0.1300152
000340 39 a6 a6 bd 75 32 20 be 4a 08 08 3e 3d a2 31 be
       -0.08137173 -0.15644248 0.13284412 -0.17347045
000350 1d 94 49 be 71 11 5d be 8d 7c c0 bd 86 7a 26 be
       -0.19685407 -0.21588685 -0.09398756 -0.16257676
000360 7e ba 26 3e 89 bf 28 3e 57 d9 10 3b 97 06 23 3c
       0.16282079 0.16479315 0.00221022 0.009950302
000370 5e 83 2f be d0 dd eb bd 3d 0c 41 bc 67 0d 3f 3d
       -0.17139956 -0.11516917 -0.011782703 0.04664364
000380 01 c7 bb 3c 0d 00 70 bd a3 23 04 be 83 bd da bd
       0.02292204 -0.0585938 -0.1290422 -0.10680678
000390 55 01 3e be d8 e2 e4 bd 99 11 7a 3d 29 fe 5e bd
       -0.18555196 -0.111760795 0.06105194 -0.054441605
0003a0 73 82 ad 3d aa 04 6a 3d 8a 70 0d bd 19 61 0d be
       0.08472147 0.057133354 -0.034531154 -0.13806571
0003b0 d7 9b 16 3d 87 7c eb bd 03 3b 93 bf 7b c0 3d 3f
       0.036769714 -0.11498361 -1.1502384 0.74121827
0003c0 ce 26 3e 3e c0 a7 c6 bd f6 64 74 bd ba 16 c3 bc
       0.1856949 -0.096999645 -0.059666596 -0.023814548
0003d0 b2 1f 81 bd 13 5c 33 be b3 c5 f6 3c b2 80 12 3e
       -0.063048735 -0.17515592 0.030123567 0.14306906
0003e0 ef dc 57 bd 55 dc b7 3c c3 ea bb bd e9 af 57 3e
       -0.052700933 0.02244393 -0.091756366 0.21063198
0003f0 75 4f f9 3d f2 25 81 bd f7 d3 94 bd 8f 91 64 3d
       0.12173358 -0.063060656 -0.072669916 0.055802878

linear1.bias f4 [256]
000000 68 28 0a 3c 62 90 6f bd 9f 0e 09 3d 1c 9f 68 3d
       0.008432485 -0.058487304 0.03346121 0.056792364
000010 00 00 00 00 40 15 33 3e 88 5e cb bc 1b 74 87 bc
       0.0 0.17488575 -0.02482535 -0.016534856
000020 44 c9 31 bd 0c 12 b8 bc f4 95 aa 3c d6 4d c8 bd
       -0.043404832 -0.022469543 0.020823456 -0.09780471
000030 9a 29 bd bd 56 88 08 be aa 0d 84 3d 06 24 68 3d
       -0.092364505 -0.13333258 0.06447919 0.05667498
000040 3d 70 25 bd 72 20 92 bc f1 7f 99 bd 0c fa 9a bd
       -0.040390242 -0.017837737 -0.07495106 -0.07567224
000050 8c ba ae ba 37 b8 6a bd b9 82 c5 bc ea c4 f2 3c
       -0.0013330742 -0.057304587 -0.024110185 0.029634912
000060 d5 d2 ed bc 00 7b d6 bd d3 e7 39 bd a3 5f 58 bd
       -0.029031197 -0.10472679 -0.0453871 -0.05282558
000070 bb f0 b0 bc 5c 51 70 bd 6b 2c fc 3b c0 53 90 bd
       -0.021599164 -0.05867134 0.0076957247 -0.07047224
000080 00 00 00 00 8e f5 30 3d 31 c4 c9 3d 06 f0 60 bd
       0.0 0.04320293 0.09851874 -0.054916404
000090 ae 8f 18 3d 19 60 9e bc ef 3c a2 bd a7 88 4e 3d
       0.0372464 -0.019332932 -0.079217784 0.05042329
0000a0 99 26 45 bd 26 90 81 bd df 7c eb 3d 9c ff 8a bc
       -0.048132513 -0.06326322 0.11498427 -0.016967587
0000b0 5f 4e e1 bc d0 aa 59 bb e8 c8 bc bc 00 00 00 00
       -0.02750319 -0.0033213384 -0.023045018 0.0
0000c0 fb 2e 49 bc 00 00 00 00 0e 50 47 be ec 57 43 bd
       -0.012279267 0.0 -0.19464132 -0.04769127
0000d0 94 70 92 3d 2a 2c 5d 3d ec ba b5 bc ed 91 89 bd
       0.07150379 0.053997196 -0.022183858 -0.06717286
0000e0 8f 11 37 3e 00 00 00 00 8b d1 c4 bc b7 c3 d6 3d
       0.17877792 0.0 -0.0240257 0.104865484
0000f0 e8 ce b9 bd a4 c7 59 bd ad 57 58 bd ca 7e 5f bc
       -0.09072667 -0.053168908 -0.05281799 -0.013641069
000100 ce 3d e4 3c ca 2c f5 bc a2 b4 0a 3e 5c 1f 78 bd
       0.027861502 -0.029928584 0.13545468 -0.06057678
000110 00 00 00 00 02 d2 ee bc ec 5e 47 3b 54 10 8b bb
       0.0 -0.029152874 0.0030421568 -0.00424389
000120 31 00 39 bd a9 37 6d bd 00 00 00 00 43 d7 d3 bb
       -0.0451662 -0.05791441 0.0 -0.00646487
000130 1d 61 76 bd 6e a6 c7 bd 14 eb be bc 4c 4b df 3c
       -0.06015121 -0.09748541 -0.023305453 0.027257584
000140 c3 e7 ec 3d 55 c2 07 3d 3d ba 1b bc cd 6a a3 3c
       0.115676425 0.033144314 -0.009504852 0.019948388
000150 2b 5b e9 bc dc 16 4e be 9a 40 eb 3c 04 01 77 bc
       -0.028485855 -0.20125908 0.028717328 -0.015075926
000160 32 df ad 3d 2f 8d 1b bc 18 68 e8 bc fd e4 a8 bc
       0.08489837 -0.00949411 -0.028369948 -0.020617003
000170 11 d8 bc bc 81 10 4a bd f1 35 c4 bd 6e 83 a6 bd
       -0.023052247 -0.049332146 -0.09580601 -0.08130537
000180 60 d8 e9 bd 96 b4 cc bc 62 29 40 bd b8 df 8d 3d
       -0.114182234 -0.024988454 -0.046914466 0.069274366
000190 94 d1 d0 bc 90 db 7b 3d c4 fc b1 3d 6f 16 61 bc
       -0.02549056 0.061488688 0.08690789 -0.013738259
0001a0 f6 a0 b4 bc 7b 66 cb 3b 82 ec a1 bd ed 70 95 3d
       -0.022049408 0.006207285 -0.079064384 0.072969295
0001b0 97 8d d6 bd 35 93 ae bc 20 87 99 bc 0a dd 09 be
       -0.10476225 -0.021310428 -0.01874119 -0.13463226
0001c0 29 98 4e 3d 32 2b 0e be 63 44 4f bd 12 51 99 bd
       0.05043808 -0.13883665 -0.050602328 -0.07486166
0001d0 65 b0 6f bd 74 9e c1 bc 94 3e d7 bd 8e a7 31 3c
       -0.058517832 -0.023635127 -0.10509983 0.010843171
0001e0 ed 3a b8 3c 57 c0 1b bc f4 9c ff 3b 7b 1f 01 bd
       0.022489036 -0.009506307 0.0078006927 -0.031524163
0001f0 d9 c7 d8 bd 3b b2 30 3d 7b bb 92 bd fc ab b0 bc
       -0.10584993 0.043138724 -0.07164665 -0.021566384
000200 e4 7f 91 bd 8b 7e ad bd a5 19 c3 bc 0d 05 1c bc
       -0.07104471 -0.08471402 -0.02381594 -0.009522689
000210 5e af 1f 3e 53 5e df bc f4 e3 d0 bc 7a 23 94 bc
       0.15594241 -0.027266657 -0.025499322 -0.018083323
000220 95 7d 9f bd 40 04 e1 bb 1a 9e 9f bb e7 6a e0 3c
       -0.07787625 -0.0068669617 -0.004871142 0.027394725
000230 c6 4d 27 3c 53 df 87 bb f6 21 31 bd 2e 16 54 3c
       0.010211414 -0.0041464954 -0.04324528 0.012944741
000240 ec 8a b0 bc 84 71 69 bd e5 17 a5 bd bb fb d3 3c
       -0.021550618 -0.056993023 -0.08061198 0.02587687
000250 f1 43 5f bc 66 77 e4 bd b5 15 bc bc 6d cf 50 bc
       -0.013627038 -0.11155586 -0.02295957 -0.012744767
000260 d2 42 ac bc 9b b0 f4 3d 03 6d 10 3c 1f 63 50 bd
       -0.021027956 0.11947747 0.008815053 -0.05087578
000270 8e d3 cd bc 08 cc ef 3d 20 25 f0 bd d8 69 0f 3d
       -0.025125291 0.11708838 -0.11725831 0.03501305
000280 e0 50 60 bc 4b 0f ff 3b 94 c1 89 bc d5 19 95 bc
       -0.013691157 0.0077838055 -0.016815938 -0.018200794
000290 d2 a0 47 bd fe 2f af bd 37 5a 12 bd 13 4b 33 bd
       -0.048737355 -0.08554076 -0.035730567 -0.04377277
0002a0 a5 e1 1e bc 23 1b 1a bc c6 d6 03 bd b7 2d 55 bd
       -0.009697353 -0.009405884 -0.032187246 -0.05204555
0002b0 9d a6 8e bd 22 52 2e 3d 35 af 34 be f3 9d e5 bc
       -0.06965373 0.042558797 -0.17644961 -0.028029418
0002c0 e5 a7 1b bd aa 04 95 bc 23 01 78 3d bc d5 19 be
       -0.038001914 -0.0181907 0.06054796 -0.1502294
0002d0 28 74 99 3d 5b 70 ce bd 0e fe 16 bd 0f e1 3e bd
       0.07492858 -0.10080024 -0.03686338 -0.04660135
0002e0 09 3f 6f bd b9 a3 1b bc 00 00 00 00 53 0f 9b bc
       -0.058409724 -0.009499484 0.0 -0.018928206
0002f0 22 cf 72 bd 8b f0 97 3c 2b 85 c3 bc 84 b7 46 bd
       -0.05927957 0.018547317 -0.02386721 -0.048514858
000300 07 fe b5 bb 80 37 b4 bd a6 bb a9 3d 7e 81 c4 bd
       -0.005553964 -0.08799648 0.08287744 -0.09595011
000310 a7 5a 9d bd 21 b8 11 3d 18 ba 32 bd 8f ae 8f bd
       -0.07683306 0.03557599 -0.043634504 -0.07015716
000320 c9 b8 97 bc 2b a8 e2 bc df 4f 3f bc 00 00 00 00
       -0.01852073 -0.02766808 -0.011676758 0.0
000330 b5 eb 58 3e 3d 92 07 3d fb 83 bc bd 00 00 00 00
       0.21183665 0.033098448 -0.09204861 0.0
000340 c3 c8 9a bc 16 fe 1d bd d7 e5 bf bc 64 32 58 3d
       -0.018894559 -0.038572393 -0.023425026 0.05278243
000350 89 85 fa bb 74 10 f8 bc 9d 47 c9 bd 00 00 00 00
       -0.007645313 -0.030281283 -0.09828112 0.0
000360 31 b8 ad bc 91 58 4f bd 2f ce c5 bd 89 b0 5b 3c
       -0.021205993 -0.050621573 -0.09658467 0.0134087885
000370 86 95 de bd 72 e2 8c bc fd 88 96 3d 6f c4 ca bb
       -0.10868363 -0.017197821 0.07350347 -0.0061879675
000380 d8 71 40 3d e2 16 09 bd ea c7 e2 bc d5 e6 95 bd
       0.04698357 -0.03346909 -0.027683217 -0.07319418
000390 f2 92 82 bc 3f 94 82 bc f8 c5 98 3b 0a 06 80 bd
       -0.01593921 -0.01593983 0.0046622716 -0.06251152
0003a0 31 5b f6 bd 32 a3 ce bc 8a 44 b1 bc c6 37 f1 bc
       -0.12029112 -0.025224302 -0.021639127 -0.02944554
0003b0 e7 20 84 bc d0 4d e5 bc 15 6d 43 be e6 5e b5 bd
       -0.01612897 -0.027991205 -0.1908458 -0.08855991
0003c0 6e c6 dc 3c f1 3c c2 bc 1b 70 0b bd 57 4e 27 3d
       0.026950087 -0.0237107 -0.03404246 0.040846195
0003d0 cd 84 b6 bc 47 3e f8 ba 2b 24 1a bc 34 1e e8 3d
       -0.022280121 -0.0018939459 -0.009408037 0.11333886
0003e0 90 90 18 be 87 44 db bc 0c 36 17 bd d6 ad 4c bc
       -0.14898896 -0.026766075 -0.036916777 -0.012492618
0003f0 5d 0a 1c be e6 94 96 3c b9 2e 90 bd 57 6e 22 3d
       -0.15238328 0.018381547 -0.07040162 0.03965601

mean_linear.weight f4 [2, 256]
000000 33 b9 27 3e 5d 37 35 be 7f d2 28 3f 4d 14 33 be
       0.16379242 -0.176969 0.6594619 -0.17488213
000010 40 92 69 bd 46 78 24 bf 41 cb ae 3d 13 68 43 3f
       -0.05702424 -0.6424602 0.08534861 0.7633068
000020 cd c1 b5 bb 9d 79 73 3d 07 80 96 3e 1c 94 df 3e
       -0.0055467845 0.05944215 0.29394552 0.43667686
000030 16 03 17 3e 48 aa 0a 3f fc 39 61 3d b3 ce 48 be
       0.14747271 0.5416608 0.05498694 -0.196101
000040 ad c8 da 3e c1 5c 9e bd 6e 89 ef bd 0f 9e 91 bb
       0.42731228 -0.07732535 -0.116961345 -0.004443891
000050 41 50 a9 3e 01 b0 3e 3f a3 5a c4 3d 57 04 c5 3d
       0.3306904 0.7448731 0.095876 0.096199684
000060 45 e4 14 3e 27 83 5a 3d 13 7d 3f 3f 42 91 8b 3d
       0.14540203 0.053347733 0.74800223 0.06814815
000070 ae 83 d6 bd f0 3b 7c 3d 2b c9 69 bd 0a 04 9c 3d
       -0.10474335 0.0615806 -0.057076614 0.07617958
000080 08 80 12 bd 5f 9f eb be a2 44 9f 3e 83 94 d4 be
       -0.03576663 -0.46020028 0.3110705 -0.41519555
000090 26 0c 84 be e1 5b 83 3e 45 39 16 3f 34 90 98 3f
       -0.2579052 0.25656036 0.58681136 1.1919007
0000a0 f1 c8 20 be 5f 47 1f 3e 27 40 25 3e 6a ed f3 bb
       -0.15701653 0.1555457 0.16137753 -0.0074440734
0000b0 03 e7 5c bd 52 87 44 bf 7e 97 ba 3d 3c e2 eb bd
       -0.053931247 -0.7676898 0.09110926 -0.1151776
0000c0 3a 1e 9a 3d d8 dd e0 3d ad 4c 80 3f 23 c7 3e 3e
       0.075252965 0.10979813 1.00234 0.18630652
0000d0 d6 0a 81 3e 2f 20 6f be 97 08 85 3d 4d a1 2b bf
       0.2520358 -0.23352121 0.06495779 -0.67043
0000e0 a7 41 1c 3e 7f 0c 8d bd cc f6 d2 3c 0a eb 62 3e
       0.1525942 -0.06887149 0.025752448 0.22159973
0000f0 17 41 8f 3e 53 9c 82 bf 3f 63 52 bf c0 cd 9a 3c
       0.27979347 -1.0203956 -0.8218269 0.018896937
000100 9f 74 5b bf c6 cf a0 bc 79 fb 33 3d c2 63 f6 3d
       -0.85724825 -0.019630324 0.043940995 0.12030746
000110 de 3b d8 bd d4 f4 ca b9 c6 84 87 bc 6f 19 15 be
       -0.10558294 -0.00038710854 -0.016542803 -0.14560483
000120 17 e6 d4 be 73 f3 30 bf c0 da e3 3c 4c c6 b8 bd
       -0.41581795 -0.69121474 0.027814269 -0.09022197
000130 b9 b4 3a bd e0 39 b6 be 8c 8a 64 3e 1b f8 9a bd
       -0.045582507 -0.3559103 0.22318476 -0.075668536
000140 90 7d 00 bf c3 1e 4d bd 69 0a 15 3c a9 36 5e bf
       -0.50191593 -0.050078165 0.00909672 -0.86802155
000150 b0 d7 d6 bb 3a dc 6c 3f 31 60 b7 be c0 7e f2 3d
       -0.0065564737 0.9252354 -0.35815576 0.11840582
000160 ca 41 63 bb d1 19 1c 3d 3c a6 a7 3f 78 1c 95 be
       -0.0034676665 0.038110558 1.3097606 -0.29123282
000170 39 18 40 bd 04 04 9f 3e 51 ad b7 3e 6d 4b e6 be
       -0.0468981 0.3105775 0.35874417 -0.4497942
000180 0b 8d 81 3f e0 e1 5e bd 30 df 8f be 1e b2 a9 3e
       1.0121168 -0.05441463 -0.28099966 0.33143705
000190 47 bb ee bd 1a 54 46 bf 09 77 f9 be 0c 7f 06 3f
       -0.11656814 -0.7747208 -0.4872363 0.5253761
0001a0 9c d7 f8 3d 8b 2a 9c 3e 7e 07 1e 3e 4e 2a 4b be
       0.12150499 0.30501208 0.15432546 -0.19840357
0001b0 f4 64 74 bd 25 63 60 3f 6e fb 04 3e 85 35 18 3f
       -0.05966659 0.8765128 0.12986538 0.59456664
0001c0 ac 91 86 bc 5b 49 93 be f1 ff 9e bc 26 66 d5 3e
       -0.016426884 -0.28766903 -0.019409152 0.41679496
0001d0 a5 df 28 bf 03 f3 9e 3e da 12 de 3e f2 a9 2a bf
       -0.65966254 0.31044778 0.43373758 -0.66665566
0001e0 ef a6 3c 3f d2 d9 d8 bc 2f 7a c6 bd 0b 87 e6 3d
       0.7369222 -0.026471052 -0.096912734 0.11256226
0001f0 93 b0 35 be e8 50 72 be 57 a3 5c be ee 05 69 bd
       -0.17743139 -0.23663676 -0.21546684 -0.05689042
000200 85 08 cf be cc ae fe be a2 c0 68 bd 87 cb 95 3d
       -0.40436187 -0.49742734 -0.056824334 0.073142104
000210 98 45 11 be 16 30 71 bd cb 34 a5 3a 2b d6 b1 3d
       -0.14186704 -0.05888375 0.0012604235 0.086834274
000220 72 5c e3 3e ef 10 4f 3d 96 a1 b8 3e 2b ea 94 bf
       0.44406468 0.05055326 0.3606078 -1.1633962
000230 ff 95 20 bf f4 7b a6 be d8 3c 53 bd 63 9c 25 bf
       -0.62728876 -0.32516444 -0.051571697 -0.6469175
000240 fd bb b1 3f 30 2f dd be 7b 23 1f be 84 55 1f 3f
       1.3885494 -0.43200064 -0.15540878 0.6223986
000250 cd f0 91 3e 92 08 86 bd 7b 12 a7 3e 8a e4 a5 be
       0.2850403 -0.065446034 0.32631287 -0.32400924
000260 fd fc 01 3e d2 69 2a be 89 35 4b 3e fd ed ec 3d
       0.12694164 -0.1664193 0.19844641 0.1156883
000270 a8 de 02 be 59 3f b6 3e 23 95 86 bf b7 e8 79 3d
       -0.12780249 0.35595205 -1.0514263 0.06101295
000280 5d b6 b4 3e 3a 31 fc 3d 68 8e 9e 3e e0 ab 6d 3d
       0.35295382 0.12314077 0.30968022 0.05802524
000290 8a 65 a5 be b4 ef 84 3f cb 23 fb be 8c 25 3b bf
       -0.3230403 1.0385652 -0.49050745 -0.73104167
0002a0 c7 5f 22 bf d5 1b 35 bd 8a 42 cf 3e 22 65 33 3f
       -0.63427395 -0.044215996 0.40480453 0.7007619
0002b0 12 42 e1 bc 46 03 d8 3c 6b 64 28 3d ba 5b 76 3e
       -0.027497325 0.026368748 0.04111139 0.24058428
0002c0 b3 90 d3 be e4 2e 9b be ca 47 0e 3e 87 5a 27 bf
       -0.41321334 -0.30309212 0.13894573 -0.6537251
0002d0 15 02 8f 3d 31 d0 25 bf 3d 24 d7 be ec f3 9a bf
       0.06982819 -0.647708 -0.42019835 -1.2105689
0002e0 f6 73 de 3d 80 8b 6a bd ea 37 d0 bd e0 1f 17 bc
       0.108619615 -0.057261944 -0.10166915 -0.009223908
0002f0 2e f1 d0 be ca c9 f1 be cf 55 8b 3d ff 14 16 3f
       -0.40809005 -0.47224265 0.06803476 0.5862579
000300 b2 e5 2d be 73 d9 a1 3e b7 80 4a bf 2d e8 57 3e
       -0.16982153 0.31611213 -0.79102653 0.21084662
000310 8f 2e 60 bf 90 ee dc 3e 4d 91 70 be bd 81 a7 bd
       -0.8757104 0.4315076 -0.23492928 -0.081790425
000320 ab 17 5f 3f 76 a7 be 3e e1 86 0d 3e 9a ac 86 bd
       0.8714549 0.37237138 0.13820983 -0.0657589
000330 15 aa 75 3f ab 30 f0 3e f8 11 cb 3e 09 02 12 be
       0.9596265 0.4691213 0.39662147 -0.14258589
000340 6c 27 05 be 1a f5 f2 be 60 8f e5 bd 1a d0 36 be
       -0.1300332 -0.47452623 -0.11208987 -0.17852822
000350 32 ce 28 bf 59 64 45 bd 66 b5 d0 be 05 a4 fb bd
       -0.6593963 -0.048191402 -0.40763396 -0.122871436
000360 33 a1 3e bd 8a d6 9c be 4d af f3 3d 64 55 24 3e
       -0.04654045 -0.3063243 0.1189867 0.16048199
000370 0f fb 50 bf 6e ad 86 bd 0e 62 bf be 5d 05 a5 bd
       -0.81633085 -0.06576048 -0.37379497 -0.080576636
000380 e3 0f e5 be 0d b0 3d bd 39 b8 86 bd 20 ac fb be
       -0.44738683 -0.046310473 -0.065781064 -0.49154758
000390 4f 56 b0 3e 16 29 80 3d 73 a9 01 3e 27 fe 3a 3e
       0.34440848 0.062578365 0.12662296 0.18261014
0003a0 87 2d b2 3e 2d a9 bc 3e 8e b0 d1 be 0d 1d 5c 3f
       0.3480036 0.3684782 -0.40955013 0.8598183
0003b0 08 6a 34 bf f8 fc b6 bd 6b 52 b2 3f 72 31 0f 3e
       -0.7047429 -0.08934969 1.3931402 0.13983706
0003c0 84 ea 16 3f 07 ff 2d 3d 22 c8 84 bf 27 17 d6 3f
       0.5895159 0.04247954 -1.0373576 1.6725816
0003d0 0c 64 b2 be 7f 9a 27 3f dc 29 d1 3c 47 a6 3d 3d
       -0.34841955 0.6547012 0.025532655 0.046301153
0003e0 8d d2 36 3e 14 e7 a1 be be 19 6b 3e 15 99 81 bd
       0.17853756 -0.3162161 0.22959039 -0.06328026
0003f0 9c 5a 22 3f e0 2c 3b 3e 7d cc d6 be 18 b8 e2 bd
       0.6341951 0.18278837 -0.41952887 -0.11070269

mean_linear.bias f4 [2]
000000 ed d9 df 3c 63 11 13 bd
       0.027325595 -0.035905253

log_std_linear.weight f4 [2, 256]
000000 60 d9 29 3e 77 28 b3 3d 0d f4 84 3e 20 93 14 3e
       0.16586828 0.087479524 0.25967446 0.14509249
000010 28 32 12 3d 88 db c3 bd 67 db 9e 3d 39 8c b3 3e
       0.035692364 -0.09563357 0.077566914 0.3506792
000020 b2 87 3c 3e 51 dd 9b 3c 3e ff ef bd e7 f8 dc 3c
       0.18411139 0.01902643 -0.117186055 0.026974155
000030 10 da 9f 3d 04 72 86 3e 65 01 c2 bd 02 27 3c bc
       0.07805264 0.26258862 -0.09472922 -0.01148391
000040 ee 63 e1 3c ca 78 12 3e c1 f5 ac 3b 13 ea 15 3b
       0.02751347 0.1430389 0.0052783196 0.0022875115
000050 d5 93 32 3d 0b a9 d7 bd 39 79 bb bc 0a 62 99 bc
       0.043598015 -0.10530289 -0.022884952 -0.018723506
000060 c7 f7 a7 3d ba 8d 8d 3d 27 63 50 bd 55 53 9b 3d
       0.08201557 0.06911798 -0.05087581 0.07584254
000070 2a 07 c0 3d 91 6e 01 be a4 bd 16 3e 15 54 8d bd
       0.093763664 -0.12639834 0.1472078 -0.06900803
000080 1e f9 04 3e b9 71 84 3c b0 9e eb 3c 57 50 ed bd
       0.12985656 0.016167508 0.028762192 -0.11587589
000090 66 44 33 bd a6 69 84 3d 92 63 1d be 05 7f 15 3f
       -0.0437664 0.06465463 -0.15370014 0.5839694
0000a0 34 78 66 bb c3 69 f0 bc 15 5d 09 bd e9 43 2d 3d
       -0.0035166861 -0.029347306 -0.033536036 0.042301092
0000b0 a4 89 ec 3d 9e f9 ca bd 2e bb cf bd c6 1d 5a bd
       0.1154969 -0.09910892 -0.101431236 -0.05325105
0000c0 f1 55 c3 3d 00 6f ce bc af ab 46 3c c2 f6 c7 3d
       0.095378764 -0.025199413 0.0121258935 0.09763862
0000d0 d5 24 e4 3d 00 dd 8c bd 43 cf 0e 3e 9d cc 53 bd
       0.11139838 -0.0687809 0.13946252 -0.051708806
0000e0 06 19 f9 3c b4 1e 9b 3d c1 66 dc bd df 89 83 bc
       0.03040744 0.075742155 -0.10761786 -0.016056953
0000f0 77 65 41 3d 43 ee d0 bc 65 ce 2f be c6 6e e3 3d
       0.047215905 -0.025504237 -0.17168577 0.11105113
000100 56 af 66 be af b8 1b bd fe c9 96 3e e9 65 71 ba
       -0.22527823 -0.038017925 0.29450983 -0.0009208606
000110 54 3f 14 3d f7 4f 67 bd e6 9e 04 bc 40 60 5f bd
       0.036193207 -0.056472745 -0.008094525 -0.05453515
000120 55 80 90 3d 87 a9 b0 3d 64 a0 55 3d 49 bb 88 bc
       0.070557274 0.08626085 0.052154914 -0.016690867
000130 de 16 24 3e ac 40 1c bd e3 41 6c 3d 59 cd ed ba
       0.16024348 -0.038147613 0.057680022 -0.0018142863
000140 91 dd 04 be 32 ed 3d 3e 94 31 8c 3c 24 ed 5b 3c
       -0.12975146 0.18547514 0.017113484 0.013423238
000150 6e 74 63 3d 90 e8 91 3d fd 01 53 be 72 dc d4 bd
       0.055530958 0.07124436 -0.20606227 -0.10393609
000160 26 9e 9b bd e1 74 1f 3e 3b 87 a1 bd 00 fe ab bd
       -0.07598524 0.1557193 -0.07887121 -0.08398056
000170 e7 0a 6d bd 91 9b b3 3d 00 56 1b 3e 0e bf c1 3d
       -0.057871725 0.08769906 0.15169525 0.09460269
000180 90 d2 0f be 62 bd 0b 3d 1f 7c a7 bd 2d 6c 76 3c
       -0.14045167 0.034116156 -0.08177971 0.01504044
000190 d1 a0 a7 bc 82 dc 3f 3c 83 32 64 be 04 c8 33 3d
       -0.020462425 0.011710288 -0.22284894 0.04389192
0001a0 54 9e 32 3d be 6c 82 bd d2 5d 17 3c 2f d6 27 3c
       0.043608025 -0.06368397 0.009238677 0.010243936
0001b0 06 27 69 bd 81 78 86 3e 36 8e 26 3c f4 63 0c 3e
       -0.05692198 0.26263812 0.010165742 0.13710004
0001c0 f6 dc 90 be a3 b4 99 bd fd b2 02 3d 0d f1 27 be
       -0.2829358 -0.07505157 0.031908978 -0.16400547
0001d0 a4 cd 56 bd d2 4f b5 3d 8b c3 47 3e 03 59 6d bd
       -0.052442208 0.08853115 0.19508187 -0.057946216
0001e0 61 34 1d 3e a2 42 0a 3e f1 d5 f4 bb e0 6d ca 3d
       0.15352012 0.13501981 -0.007471793 0.09884238
0001f0 13 2a aa bd a4 2d 2f 3d d2 96 13 bd 5d 7e 0f 3e
       -0.08308806 0.042768136 -0.036032505 0.14013048
000200 1a a4 3e bd a8 3a 51 bd 06 df ee bd 0c 98 b8 bb
       -0.04654322 -0.05108133 -0.11663632 -0.00563336
000210 50 e6 95 3d cf a5 e8 bc ca ed 82 bd d3 4e c6 3d
       0.07319319 -0.028399376 -0.06393011 0.09683003
000220 a0 37 16 3e 6b 77 dd bd 36 1c 4c 3c ad d5 98 be
       0.14669657 -0.10813793 0.012457898 -0.29850522
000230 cc 57 be bd 97 5f b6 3d 36 10 95 bd 83 a4 bc bd
       -0.0929409 0.08904951 -0.072784826 -0.092110656
000240 73 6a 80 3c f5 42 4b 3d d1 73 f8 3d f0 ef 8a bd
       0.015675759 0.049624402 0.12131465 -0.06784046
000250 15 0f 80 be 36 4f 47 3e b2 6d 1d be 30 47 87 bd
       -0.25011507 0.1946381 -0.15373877 -0.06605375
000260 a8 92 e8 3b e6 fe 43 be 5d 77 49 3d d0 4d 1c 3d
       0.007097561 -0.19140205 0.0491861 0.038160145
000270 33 b8 96 bd 2e b5 9b 3e fd a3 c1 bd f5 52 83 bd
       -0.07359352 0.30411667 -0.094551064 -0.06412307
000280 ab 6b 42 bc 55 33 2b 3d 62 8e 35 3d 16 1b af 3d
       -0.01186649 0.041797 0.04432524 0.08550088
000290 a7 40 e6 bd 53 b7 cf ba 27 2f df bd 8c e2 68 be
       -0.112428 -0.0015847482 -0.108976655 -0.22742671
0002a0 8c 6b 7a 3c 59 14 04 be bd 73 6f 3d a6 b0 d8 3d
       0.01528443 -0.12898387 0.058459986 0.10580568
0002b0 b2 67 a0 3d 57 5d a4 bd 5f 5b be 3d 7d 4e 37 bd
       0.07832278 -0.08025616 0.092947714 -0.044752587
0002c0 11 33 e6 bd 28 24 10 bc 5e 43 ce be b6 9e 8e bd
       -0.11240209 -0.008797683 -0.40285772 -0.069638655
0002d0 56 f8 12 be d6 17 fe 3d a8 45 7d 3e 8d 9e c2 bd
       -0.14352545 0.1240689 0.24733603 -0.095028974
0002e0 5a f1 ba 3e f7 c1 af 3b 9c 4c 0c 3e 1b b4 24 3d
       0.36512262 0.0053636986 0.13701099 0.040210824
0002f0 0e 2d 0b bd bc 00 79 3e 20 d9 51 3d ef 86 22 bc
       -0.033978514 0.24316686 0.051232457 -0.009919866
000300 13 d6 e0 ba c7 cf c3 3d 8b 1d 3e 3e e1 8e 52 bd
       -0.0017153643 0.09561115 0.18565957 -0.05140579
000310 d8 77 f0 bd 74 1d d3 3d 47 fa ae bd 07 e1 80 bd
       -0.117416084 0.10308352 -0.0854383 -0.062929206
000320 85 67 08 3e 88 1f a0 3d b5 c3 a5 3d 00 05 bf ba
       0.1332074 0.07818514 0.08093969 -0.0014573634
000330 1f 6e a3 3b d1 7d b3 3c 06 f6 04 bd 00 54 51 3c
       0.0049874927 0.02191058 -0.03246119 0.012776375
000340 dc 71 dd bd 16 ce 10 be 37 c1 81 3e 75 9a 0a 3d
       -0.108127326 -0.14141116 0.25342724 0.033838708
000350 d7 95 8b bd b0 ba f1 bc 10 d5 79 3e 72 a6 c2 3d
       -0.06815689 -0.029507965 0.24397683 0.09504403
000360 2e 8d 39 3c 59 ec 7a bd 31 7f ff bc 12 e3 b7 3d
       0.011325164 -0.061260555 -0.03118858 0.08978857
000370 08 e1 f5 bc 9e f5 86 3d fc fb bb 3e d8 ea 41 bc
       -0.03001453 0.065898165 0.36715686 -0.011835776
000380 fa 2f 72 bd 4a 87 40 3e 16 43 a7 bd 0a 79 44 3e
       -0.059127785 0.18801609 -0.081670925 0.19186798
000390 64 df c0 3e 85 ac be bd ee 11 94 3d d8 53 fd 3d
       0.37670434 -0.09310249 0.07229982 0.123695076
0003a0 18 47 87 bc 31 f2 ad bc 9e 6a 76 3e 97 d3 52 3e
       -0.016513392 -0.02123365 0.24064109 0.20588528
0003b0 e3 a2 90 3d 9d 8c c4 3c 7f b2 84 3e 7a bc 02 3d
       0.07062318 0.02399283 0.25917432 0.031918027
0003c0 5b 10 51 3e a2 56 89 bd 5a f3 20 bd 29 54 bc 3e
       0.20416395 -0.06705977 -0.039294578 0.3678296
0003d0 c2 42 e2 bd a8 8e 9f 3e fb d5 91 bd 88 f6 f8 bd
       -0.11047889 0.31163526 -0.07120892 -0.12156397
0003e0 78 f0 3d 3d dd a6 35 3d 5f 40 44 3e b5 e3 ea 3b
       0.046371907 0.044348586 0.1916518 0.007168258
0003f0 b3 93 b8 3d d9 09 9f bd 96 26 ee bc 8d 49 9e bc
       0.090125464 -0.0776555 -0.029071134 -0.019322181

log_std_linear.bias f4 [2]
000000 e0 05 7f be 14 d8 cb be
       -0.24904585 -0.39813292
